daddel.pth (torch, 255074 bytes, 24 tensors)

policy_log_std f4 [7]
00000000: 23b0 083f 26cf 6b3f 91e9 383f 6d62 083f
00000010: 6790 443f 9eb3 6a3f e823 33c0
0.53393763 0.9211296 0.72231394 0.53275186 0.7678284 0.91680324 -2.7990665

fc1.weight f4 [128, 21]
00000000: 301c 433f 4d7f 283f d629 2cbe 1e77 b3be
00000010: 79cf 0ebf 2dd1 09be 56b2 53bf f157 30bf
00000020: e989 0a3f cd50 263e 40dd 60be cb1d a73f
00000030: bd3a 5ebe b5db c7be 70bf 3cbe bb0d 79be
00000040: 9a19 9abf 1c2c 24bd f47b f43d 8cbe 7fbf
00000050: 1fe7 f83d 0ef0 7e3f 96b2 3ebe 218f 213f
00000060: e3cd ae3e 2c09 f8bd d000 a7bf acf7 dcbe
00000070: 46c9 2cbe 029f 113e 3a9a f5bc 8f79 dd3d
00000080: 3bc6 a43e b704 563e 045d 3b3f ab94 e03d
00000090: ca29 83be ba04 ae3e 3949 ea3e 1b71 31bf
000000a0: ded0 eb3e f301 03c0 ddfc d43e 9b4f ffbe
000000b0: a8fd 3e3f 52a8 bf3e a312 e63e bab3 50bf
000000c0: 1ba3 8fbe 33c6 803e d500 02be 000f b63d
000000d0: 074b 53bc b134 4d3f 0773 253f 213b 5c3f
000000e0: 0301 95bd a401 6bbd 963b 883e 46ca 573f
000000f0: 5f22 b7be 5236 d63e 217c 2bbe e9db e83d
00000100: 1432 c1bd 70e3 3d3d 8847 dbbe c2df 02bf
00000110: 28dc 17be 3aa6 a3be 49d8 32bf c951 3d3f
00000120: 50ae 183e 49ef 3cbe e508 873f d034 1ebf
00000130: 3331 e2be 7807 50bf 8d33 a13d fafb 62be
00000140: 8c03 85bd ff70 463f 365e 0cbf 2a75 f9bf
00000150: d07f 013f d183 4ebf 7dec 333f efc9 0f3f
00000160: 8312 343f a3dd 48bf 2fc4 0dbf 6caa f63d
00000170: 9c63 94be 772b 0a3f a49c 18bf 96b7 4040
00000180: 1f2d 083f 7826 f83e 1b26 c8bd 33eb 243e
00000190: cee8 39bf 9785 063f cee4 0b3f 140e 3f3f
000001a0: e24f e8bf 49e5 dc3d 87be e2be a7a6 333e
000001b0: b45d b53e 5f19 b03e 3527 c1bf b89f 693e
000001c0: 595a 2f3f 8c6d 5d3e c6a3 c03e eb3b 12be
000001d0: 2cff b5bf a2bd bcbd 42c7 4a3d 3f3f a5be
000001e0: c874 d2be 491d 0bbf 8fa7 2c3e 88cb 32bf
000001f0: 4cf1 873d d5c1 a2bf 80d9 38be 3bec b73e
00000200: 2fe3 20bf 7841 d33e 90f9 953d 03d7 633f
00000210: 125a f0bd 5f0a cf3e c2f7 2bbe 2b5e 1bbe
00000220: 56ab 8bbd 9321 34bf 30f0 1abf 106d c3bc
00000230: 6c34 b33c e264 08be 1032 8f3e 556d c8be
00000240: 6a74 73bc 041c 27bf 7d92 0740 b9ca b03e
00000250: a3f1 34bf 914a f63e ab98 5a3e c394 6abe
00000260: d6a8 e4be 3925 e83e 0df6 22bf 5d3a f33e
00000270: 0068 cc3d a425 f9bd 05bd fc3f 6b66 7d3f
00000280: 9859 053f b655 1e3e 1a81 c73e 9850 84bd
00000290: dd70 d33e f7d9 54bd 8d5e 5f3f 07e5 b1bf
000002a0: 77e2 6cbd 5537 aebf 107c 8c3e a31d 0f3f
000002b0: 6d47 6f3e a622 7aba 3a42 8a3e 7b7a 2d3f
000002c0: 3696 34be efbb e7bd c472 bf3e d864 5cbf
000002d0: 5510 2e3e dc02 593d f818 c73d 9d04 6c3e
000002e0: b1c3 043f 0b00 893e 3cd9 5b3e 5d88 b73f
000002f0: e17b 3cbf 217b 45bf a8f0 093e b87f 91be
00000300: aac0 17bf efde 8abf 9c6b 5f3c b5f2 f9be
00000310: c8d1 1ebe 454d ba3e b1f8 7bbd 7524 623e
00000320: 6a78 2740 5a85 5ebe 2f13 a4be dd5a 833e
00000330: 0d33 b63e e04c 1ebe d917 c5be 445f f03f
00000340: 135e 7dbd 4b3d bb3f f35e 1ebf 9ba5 903f
00000350: a51a 90bd 79fa 82be 78e7 41be c746 6c3f
00000360: 6d62 2ebf 399f 7dbe 071b d9be 0878 bb3c
00000370: 3df4 11be bec5 7dbd ba83 fe3e 3e2c 94bd
00000380: ce98 2a3b 1369 5abe 00fb 5bbf 6cdf 41be
00000390: 926e 0a3f d6a2 13bf 2484 a9bf 3ccb b73e
000003a0: 9a8c 763f b47a 5a3e 8e70 1bbf 5f67 9cbf
000003b0: 5ab3 883f bbac 243f f738 ea3e 3753 95be
000003c0: 16fa 223e e868 14be f14e 8740 f907 1d3d
000003d0: 2318 acbd 8476 c3be b317 313f a661 3f3e
000003e0: b741 41be 4edf 833f f5ea bebe fcd6 fe3f
000003f0: c5bc e0be 56e7 893c 24c9 3bbe 82d7 8a3e
0.76214886 0.65819246 -0.16812834 -0.35051817 -0.5578533 -0.134587 -0.82693994 -0.6888419
0.54116684 0.1624176 -0.219594 1.3055967 -0.21702094 -0.3903481 -0.18432403 -0.24321644
-1.2039063 -0.04008113 0.11937705 -0.99900126 0.12153458 0.99585044 -0.18622813 0.6310902
0.34141454 -0.121111244 -1.3047123 -0.4315771 -0.16873655 0.14220813 -0.029980768 0.10814201
0.32182488 0.20900236 0.73188806 0.10965856 -0.2561782 0.3398798 0.4575899 -0.6931321
0.4605779 -2.046994 0.4159917 -0.49865422 0.746058 0.37433106 0.44936094 -0.8152424
-0.28054127 0.25151214 -0.1269563 0.0888958 -0.012896306 0.80158526 0.6462864 0.86027724
-0.072755836 -0.05737461 0.2660796 0.8429302 -0.3576841 0.41838318 -0.1674657 0.113700695
-0.0943338 0.04635948 -0.42828012 -0.5112268 -0.14830077 -0.31962758 -0.69861275 0.7395292
0.14910245 -0.18450655 1.0549589 -0.61799335 -0.4417816 -0.81261396 0.07871161 -0.22166434
-0.06494817 0.7751617 -0.54831254 -1.9488881 0.5058565 -0.80669886 0.7028273 0.561675
0.70340747 -0.7846319 -0.5537748 0.12044224 -0.28982246 0.5397257 -0.59614015 3.0112052
0.5319385 0.4846685 -0.09772893 0.16105346 -0.72620857 0.5254759 0.54646003 0.74630857
-1.8149378 0.1078592 -0.44285986 0.17544042 0.35423052 0.34394357 -1.509009 0.22814834
0.68497235 0.2162382 0.3762495 -0.1428067 -1.4218497 -0.09215857 0.049506433 -0.32274815
-0.41104722 -0.5434156 0.16860794 -0.69841814 0.066378206 -1.2715403 -0.1805172 0.35922417
-0.62846655 0.41260886 0.07322991 0.88999957 -0.117359295 0.404376 -0.16793731 -0.15172641
-0.06819789 -0.7036373 -0.6052275 -0.023855716 0.021875583 -0.13319734 0.27967882 -0.39145914
-0.014859298 -0.65277123 2.118316 0.34529665 -0.7068121 0.48103765 0.213473 -0.2290831
-0.44660062 0.453409 -0.63656694 0.47505465 0.09980774 -0.121653825 1.9745184 0.989844
0.52089834 0.15462384 0.38965684 -0.064606845 0.41297045 -0.05196568 0.8725365 -1.3898019
-0.05783316 -1.3610636 0.27438402 0.559046 0.2336709 -0.0009541906 0.27003652 0.67765015
-0.17635426 -0.11315142 0.37392247 -0.86091375 0.16998418 0.052981243 0.09721559 0.23048635
0.518611 0.26757845 0.21469587 1.433849 -0.73626524 -0.77141005 0.1347071 -0.28417754
-0.5927836 -1.0849284 0.013636496 -0.48817983 -0.15509713 0.36387077 -0.061516467 0.2208422
2.6167245 -0.21730557 -0.32045886 0.2565526 0.35585824 -0.15459013 -0.38494757 1.8779073
-0.061857294 1.462808 -0.6186363 1.1300539 -0.07036332 -0.2558172 -0.18935955 0.922955
-0.68118936 -0.2476777 -0.42403433 0.022884384 -0.14253326 -0.06195616 0.49709874 -0.07235001
0.002603102 -0.21329145 -0.8592987 -0.18932885 0.54074967 -0.5767034 -1.3243451 0.35897243
0.9630829 0.2133587 -0.6071862 -1.2219046 1.0679734 0.64326066 0.45746586 -0.2916505
0.15915713 -0.14493144 4.2283864 0.03833768 -0.08403041 -0.38176358 0.6917679 0.18689594
-0.18872724 1.0302522 -0.37288633 1.9909358 -0.4389402 0.016833942 -0.18338448 0.27117544

fc1.bias f4 [128]
00000000: 80ad d4be 2ce6 143f 4297 2e3f e862 83bd
00000010: ba8a 023f 66cb 643e bb72 ecbc ae9c c53e
00000020: f916 b53e 3c77 ddbd ba8e 7fbe 6b31 353e
00000030: 2d0b 153e 9c05 ff3d cd1b 20bf 6929 e1bc
00000040: 7e96 f83d 4442 583e 1b09 9cbe a0d9 223e
00000050: 5e27 52bf 0321 febc ec3b c0be 172a 453d
00000060: 0d4d 07be 0955 be3e dcf4 c4bc 62d5 a13e
00000070: c899 9a3e ab0a 83be 94db f83e f11f 03be
00000080: 0485 f3bc 33e7 0a3e 09c3 d13e f21a c23e
00000090: 03b8 143f e05f d83d 26ae b13d 92f1 2bbd
000000a0: 78cb 3bbe f159 17be 9bc8 ea3c 52c5 7fbb
000000b0: 31c3 113e e92b f03d 9e3e 823c e5ed f03e
000000c0: f606 fd3e 6f42 353e 6e15 793e 631b da3e
000000d0: bbcb 10be b684 0bbf 6724 bb3d 0c26 6b3e
000000e0: f28e 99be de90 b8bd 0d76 e5bd 2651 0ebf
000000f0: 705c 6dba adfe 59be aef3 ce3c 147b 84be
00000100: 1913 233e 8a72 d8be 7d2e d73c c3ac 18bf
00000110: 22c8 0cbc 2224 4a3d d7fc e4be e6e3 7a3e
00000120: 20ad db3e 436a c23e 25fe bbbe e23b 21bd
00000130: e02e fabb e5df 1abf 19a1 cc3e 7d01 d9be
00000140: 481b 803e 15eb cd3d d945 f73d 4e07 29be
00000150: 59e1 3f3f 31bd 18bf c378 49be 5b5d 86be
00000160: dc8c 9abe 77ff a93c 916e 08bf f0ff dd3e
00000170: 5e0c b43d 915e d03e c351 b3bd fc9b f13e
00000180: 4601 9abe 24bb c33d c295 223e bee8 73be
00000190: baeb 98be 819d 30bf 7194 83be 47fb 983d
000001a0: 98fd 09bb 8bab 623d 9005 9d3e ad16 343c
000001b0: 3faa 9f3e b04e 17be be1f 53be 85d9 44be
000001c0: 2a94 0b3f bc25 31bd c3e8 523e fff0 0abf
000001d0: e572 e23e d809 e0be d8b5 e73e aecc c33d
000001e0: 91ea f4be e619 813e cc45 c03e 0fc8 9b3e
000001f0: 99de 0bbe b7c7 ce3d d695 aa3e be8e 8f3e
-0.4153862 0.58163714 0.6819955 -0.06415349 0.5099293 0.22343215 -0.028863302 0.385961
0.3536909 -0.10813758 -0.2495679 0.17694633 0.14555044 0.12452242 -0.6254242 -0.027485566
0.12138079 0.21119028 -0.30475697 0.1590333 -0.8209132 -0.0310216 -0.37545717 0.048135843
-0.13212986 0.37174252 -0.02404254 0.3160811 0.3019545 -0.25594077 0.48605025 -0.12805153
-0.029726513 0.13564758 0.40969113 0.37911183 0.5809328 0.10565162 0.08675794 -0.041978426
-0.18339336 -0.14780404 0.02866011 -0.0039027524 0.14234616 0.11727125 0.015898999 0.470565
0.49419373 0.17701124 0.24324581 0.4259902 -0.14140217 -0.54499376 0.091378026 0.22963732
-0.2999187 -0.09012006 -0.11204157 -0.5559257 -0.0009054607 -0.21288557 0.02526268 -0.2587515
0.15925254 -0.42274886 0.026267285 -0.59638613 -0.008592637 0.049350865 -0.44724151 0.24500999
0.4290552 0.37971696 -0.36717334 -0.03936375 -0.0076349825 -0.60497886 0.39966658 -0.42383948
0.25020814 0.10054604 0.12073869 -0.16506693 0.7495323 -0.59663683 -0.19674973 -0.262431
-0.30185592 0.020751698 -0.5329371 0.43359327 0.08791421 0.40697148 -0.08755829 0.4718932
-0.30079097 0.095571786 0.1587744 -0.23819253 -0.29867345 -0.6899033 -0.2569919 0.07469802
-0.0021055695 0.055339377 0.30668306 0.010991734 0.31184575 -0.1477611 -0.20617577 -0.19223602
0.54522955 -0.043248877 0.20596604 -0.5427398 0.44228283 -0.4375751 0.45255923 0.09560524
-0.4783521 0.2521507 0.3755325 0.3042607 -0.13659133 0.10096686 0.3331744 0.2803859

fc2.weight f4 [128, 128]
00000000: 9b50 ac3e 36e6 31be 5eff dcbe d33f 843e
00000010: d3d6 fc3d add4 f0be 0186 96be cc99 4a3f
00000020: 623b 91be 0d8c 8c3f 9187 2e3f 91b1 083d
00000030: e8c7 0abf 2a48 0d3f 0af9 2a3f 2ade e1bc
00000040: 5c44 853c 6a75 c3bd fec9 193e 8c47 4d3f
00000050: 3855 573d fc85 553f ea70 9dbe 7aba f3bf
00000060: 3b40 53be 2bb0 683d 7168 f5be 782e 70bf
00000070: 9dc5 1ebe fec3 563e 9e00 f53f 3205 403f
00000080: 861a 693e a794 3e3e a143 2abf bd50 9abd
00000090: 9431 863b 5f65 883e 5d59 25bf ff59 47be
000000a0: 1538 60bf ad4f 7dbd ad7b 2a3f ea9d 223d
000000b0: fe8c af3e d818 60be ccde af3f f4cf 2bbf
000000c0: e561 e5be 6023 ae3e 7354 ea3a 87a8 13bf
000000d0: 4a59 54bf f224 a3bf bb49 0abd 5fa0 07bf
000000e0: 60cf 3cbb 0310 b63d 52d2 903e 7f77 96be
000000f0: 05f3 65bf f07c 003e 31cf 623d 2d7e 5fbd
00000100: 7f39 0d3f 85e9 70bf e91a 343f 9f64 b9bf
00000110: c484 3f3e 992e a5be aafe cdbc b8cd 583d
00000120: c160 8b3c 42f3 21bf d45f f03f 0f52 5dbd
00000130: 2381 2a3d 51d4 b53e 0814 17bf f0ae 08bd
00000140: f161 7fbd 24b7 16be 0498 6a3f 6f46 353f
00000150: 6203 36bf 834d 2a3f 2368 b9be 7219 2abf
00000160: 8434 b23d 6b0c c9bd 3f9c 353f ea14 6bbf
00000170: 0a47 c9bd 5ea7 8bbd e24b 6a3e 5ca7 58be
00000180: 0661 82be f483 51bf 884b fabe e544 31be
00000190: 91b3 043f dfc1 603e 97e4 78be fd20 4b3e
000001a0: c22a 63be b4e2 173f c68f 08bf aa1a cc3e
000001b0: e651 e13d 33e4 78be 3d17 013e 768a 0f3f
000001c0: 5784 983d 18e7 273f ddc5 91bf 89e6 78be
000001d0: 3378 22bd 7b75 efbd d5f3 e43f f80f 11be
000001e0: 3ee5 f03e 9782 3c3f d191 b4be 5bd0 23bf
000001f0: 03ea ee3e 65e8 a03e 9b01 22bf c644 253e
00000200: 054e c0be 62b5 a33f 6a47 3fbf c746 2dbe
00000210: 97a0 153f 1bd8 d6be a1c2 7c3b a5c5 07bd
00000220: 0f94 613e 1d0a 97be 412f c03d de74 9e3e
00000230: ea5c 4f3e aaa8 883b 3fad b63f a15d 2fbf
00000240: fe05 103f 5d2b b9be 4c20 bbbe b8ab a93f
00000250: 0bd3 17be 8a0a 9b3e c908 0bbf 2cad 8cbe
00000260: e038 24bf f5e5 43be b170 2ebf 3776 95be
00000270: e005 bbbe 80b9 46be 01db 87bd 87a9 ccbb
00000280: 38cf 673f 4658 57bc 66c8 2cbf a709 813e
00000290: 5755 31bf 9c9b 26be a9eb 61bd ebc9 063f
000002a0: adc4 ddbe db73 213f 0625 e83e 7cb1 d73e
000002b0: 4c96 273f 6f4e f1be 013f 293f 0252 9abf
000002c0: ab0f d4be 86f4 0fbf 921d b63f 8e07 d0be
000002d0: b572 60bf 32fc d43e 88fe dd3e ab44 babf
000002e0: 6872 8a3e 50f2 a6be 8824 76be c02d ab3e
000002f0: 9d2c 64bf c3fc a0bd a380 6abe d212 0cbf
00000300: f089 fa3d ca22 8cbe b7c6 783e 7544 93be
00000310: 24ed 963d 1f85 3c3e 32b1 00bf 160d 933d
00000320: 21b1 24bf 03e6 a0bf a90f c8bd 3e07 20be
00000330: a856 8b3d dcdc 6c3f 95be eb3d 5af0 c6bf
00000340: dde1 95bd ad34 8ebd 12bc 423f b5d9 833e
00000350: 3495 8ebf 88a2 3abd f5b7 00bf 5301 e8bd
00000360: 50b2 96bd e93e f8be 1d5e 233f a7f0 97bf
00000370: 8cbf 973e 7c35 55bf 7717 c93e 5272 963e
00000380: 7cbf 51be 6d57 42bf 89b6 d63e 5ba8 80bf
00000390: 58d5 6f3e b838 643f b6c3 17be 7d6c b83b
000003a0: 7ad8 40bd d04b cd3e 69a4 25bf 3717 983f
000003b0: 7636 07be 838f d23e 5ea2 38bf ec58 94bd
000003c0: bc27 b9be 2a0c 3c3f c478 3e3e f444 c53e
000003d0: dfb7 5b3e 84b3 9ebe 1238 f53e 33dc ddbc
000003e0: 2424 b93e 886f 5d3f 7174 27bd 47a3 933f
000003f0: 34b2 3e3f 183e 9b3f 5e2c b5bd f09f 143e
0.33655247 -0.17372975 -0.4316358 0.25829944 0.12345662 -0.4703726 -0.29399112 0.79140925
-0.28365618 1.098024 0.6817561 0.033372466 -0.5421128 0.5518824 0.66786253 -0.027571756
0.016267948 -0.09543879 0.1501846 0.80187297 0.052571505 0.8340757 -0.3075021 -1.9041283
-0.2062997 0.056808632 -0.47931245 -0.93820906 -0.15505071 0.20973203 1.9140813 0.7500793
0.22764024 0.18611394 -0.66509444 -0.07534931 0.0040952656 0.2663984 -0.6458948 -0.19467925
-0.87585574 -0.061843563 0.66594964 0.03970138 0.34287256 -0.21884477 1.3739867 -0.67114186
-0.4480125 0.34011364 0.0017877951 -0.5767903 -0.82948744 -1.274565 -0.03376172 -0.5297908
-0.0028810129 0.08889773 0.28285462 -0.29388043 -0.89823943 0.1254766 0.055373374 -0.05456369
0.5516586 -0.9410632 0.7035356 -1.4483832 0.1870299 -0.32262114 -0.025145847 0.052930564
0.01701391 -0.63261807 1.8779244 -0.054033335 0.04162706 0.35513547 -0.5901494 -0.03336996
-0.062349264 -0.147183 0.9163821 0.708106 -0.7109891 0.66524523 -0.36212263 -0.66445076
0.08701423 -0.09816822 0.7094154 -0.9182879 -0.09828003 -0.06819032 0.2288051 -0.21157593
-0.25464648 -0.8184197 -0.4888575 -0.17311437 0.51836497 0.21948956 -0.2430595 0.19836803
-0.2218428 0.59330297 -0.5334438 0.39864093 0.11001949 -0.24305801 0.12606521 0.5607065
0.07447117 0.65586996 -1.1388508 -0.24306692 -0.039665412 -0.116923295 1.7886912 -0.14166248
0.47049898 0.73636764 -0.352675 -0.639898 0.46662912 0.31427303 -0.632837 0.16139516
-0.37559524 1.2789729 -0.74718344 -0.1692153 0.58448166 -0.4196175 0.0038568156 -0.033147473
0.22029136 -0.29499903 0.09384013 0.30948538 0.20250288 0.004170497 1.427162 -0.6850224
0.56259143 -0.36165896 -0.36548078 1.3255529 -0.148266 0.30281478 -0.5431028 -0.2747587
-0.64149284 -0.1913069 -0.68140703 -0.29191753 -0.3652792 -0.194067 -0.066335686 -0.006245795
0.90550566 -0.013143605 -0.67493284 0.25202677 -0.69270843 -0.16270298 -0.055156384 0.5265185
-0.43314114 0.63067406 0.45340747 0.42127597 0.6546371 -0.47130153 0.6611176 -1.2056277
-0.41418204 -0.5623249 1.4227774 -0.40630764 -0.8767503 0.4159866 0.43358254 -1.4552206
0.2704041 -0.32606745 -0.24037373 0.33433342 -0.89130574 -0.078607105 -0.22900634 -0.5471622
0.12233341 -0.27370292 0.24294554 -0.28763166 0.0736945 0.18410157 -0.5027038 0.0718023
-0.6433278 -1.2570194 -0.09768612 -0.15627763 0.06803638 0.92524505 0.1151096 -1.55421
-0.073184706 -0.06943641 0.7606822 0.25752035 -1.1139283 -0.045565158 -0.50280696 -0.113283776
-0.07358229 -0.48485497 0.6381548 -1.1870316 0.29638326 -0.83284736 0.39275715 0.29384094
-0.20483202 -0.7591465 0.41936138 -1.0051378 0.23421228 0.89149046 -0.14820752 0.005628167
-0.04708145 0.40096903 -0.64703995 1.1882085 -0.13204369 0.41125116 -0.7212275 -0.07243523
-0.36163127 0.7345606 0.18600756 0.3852917 0.2145686 -0.30996335 0.4789434 -0.027082538
0.36160386 0.8649831 -0.04088253 1.1534203 0.74490666 1.2128325 -0.08846353 0.14514136

fc2.bias f4 [128]
00000000: 90bf debe 9b56 133e a7d7 fd3d 36c3 0cbf
00000010: 7096 98bd 9c7b 7fbe 1468 243f 8b20 b3be
00000020: 80e9 62be 9c3a b13e fd65 c13e 62c3 283f
00000030: 7c1d c8bd 4b79 053c fb14 ef3e f399 5dbd
00000040: 9534 033e 7b84 e23d 1610 303e d05b 3d3e
00000050: 4b5e 053e 189d 37be e254 513e 5f27 1dbf
00000060: 5919 85be 1d2e 813e 3ea7 e53d 8809 4abd
00000070: f20f 143f 32b6 993d a99d 09be 40cb c9be
00000080: 3838 cc3e d7bc 4b3f 526b d73e e505 d83e
00000090: ecb8 e6be 157a 19be 95e1 fabe a392 033f
000000a0: 8213 003e a87a 09bf 30ef f0be 3f9a 6bbd
000000b0: 63c9 f1bd a484 013e 179f 403e 8779 57be
000000c0: 517e 01be b30e 9c3e 342c e3bd 9748 863e
000000d0: 97ab 97be 7925 15bf 599f f43d de69 57be
000000e0: 87d0 43be 422c 1ebf 5bfc 8abd 3742 01be
000000f0: e091 953d 2220 703e 54ff 8abe fad5 a83d
00000100: f7cc 1a3f 4de5 b7be 508a 613e 687c e83d
00000110: c46b 433d 62f0 c13e 610a 8b3e a7f1 bbbd
00000120: 4454 023f 1606 adbd 61a0 d23d 1b42 a9bd
00000130: 95bb 6bbe fffb f5bd 978a 963e 4a09 d4bc
00000140: 55e6 a2be a760 f33e 967a 2bbd 95d7 c9be
00000150: df5f 5abe 92d4 2e3e b193 23bd e743 ecbd
00000160: 6df8 46be 9d9a 2fbe 9b43 dd3b 094e 813e
00000170: 831c 58be 5a86 b33d 9b49 ee3c aff1 893e
00000180: af73 92bd 9dcd 12bf 733f 043e 6b37 06be
00000190: 1c94 d53d b79c 0c3d 9b21 f93d f1b7 aebd
000001a0: 30bb dbbe ab6d ebbd 1015 613e 479a d23e
000001b0: b2ef 6b3e ccc6 8d3e b4d3 5ebe 4a5e 573e
000001c0: 2561 87be d73f 0c3b 17d4 b0be 1a49 dcbc
000001d0: e4f9 febd 926b 533e 9531 50be 1a9e c13e
000001e0: 809e 4cbd bbfe 3dbe 548b edbe 4658 9c3d
000001f0: a5e8 0abf 6b5c a3be 81c7 b2be 3961 bc3d
-0.43505526 0.14388506 0.12394648 -0.5498537 -0.07450569 -0.24949497 0.6422131 -0.34985766
-0.22159386 0.34615028 0.37773123 0.6592313 -0.09771249 0.008146594 0.46695694 -0.054101896
0.12813027 0.11060425 0.17193636 0.18492055 0.13024251 -0.1793102 0.20442536 -0.613882
-0.259959 0.25230494 0.112135395 -0.049325496 0.5783683 0.07505454 -0.13439049 -0.3941288
0.39886642 0.7958502 0.42074066 0.42191997 -0.4506296 -0.14987977 -0.4900023 0.51395625
0.12507442 -0.53702784 -0.47057486 -0.057520147 -0.118059896 0.12648255 0.18810688 -0.21042453
-0.12645842 0.30479965 -0.110924155 0.26227257 -0.296231 -0.58260304 0.11944456 -0.21036479
-0.19122516 -0.6178628 -0.06786414 -0.12622915 0.07303214 0.23449758 -0.27147925 0.08243938
0.60469 -0.3591713 0.22025418 0.113518536 0.047710195 0.3787871 0.27156356 -0.09176951
0.5090983 -0.084484264 0.10284496 -0.08264562 -0.23020776 -0.12010955 0.2940261 -0.025883336
-0.31816354 0.47534677 -0.041864954 -0.3942229 -0.21325634 0.17073277 -0.03993577 -0.11536389
-0.19430704 -0.17148824 0.006752444 0.2525485 -0.21104626 0.0876586 0.029087832 0.26942202
-0.07150971 -0.5734499 0.12914829 -0.13107078 0.1042864 0.034329142 0.12164613 -0.08531178
-0.4291625 -0.11495527 0.21980691 0.4113333 0.23040655 0.27690732 -0.21760446 0.21032062
-0.26441303 0.0021400356 -0.34536812 -0.026890326 -0.124500066 0.20646504 -0.20331414 0.37815934
-0.049955845 -0.18554203 -0.4639536 0.07634024 -0.5426124 -0.31906447 -0.34917834 0.09198231

policy_mean.weight f4 [7, 128]
00000000: 684a b83b a037 723d 58f2 adbd 73a4 d23c
00000010: a23a 69bc 2526 f63d 52b4 34be 38bf 603d
00000020: 89ca 36bd c2c9 8f3d dff1 4fbd 864f f5bc
00000030: 7c24 62bd 25f1 82bd 3500 023d 6cbf febd
00000040: 64ae 9bbb 58ac 6a3d 50d7 9f3c 54cc f4bb
00000050: 882d ad3c 54f4 9e3d 88d5 0bbd e374 95bc
00000060: f0cb bebc d31f e8bd 860a c6bb 172c e5bd
00000070: e337 8bbd 8095 5fbc f07d 6abd 423a 1b3d
00000080: deb2 27bd 7e0c 0e3d f25f d6bc 5389 8d3d
00000090: c34c 53bd f4fb e0ba d96a f4bc f6da d93c
000000a0: 3283 4f3d 879a 933d 7ed1 6cbc 112f 323d
000000b0: 90d9 1a3c 0ef7 8abc f52c 99bd fe9f 303e
000000c0: 6e7f 0ebd e837 ba3d b12c c7bd 2a55 1abe
000000d0: f0d1 893d 74bd e4bc 0e6e 7fbd fbe9 7b3c
000000e0: 5ff8 d9bd a4d6 4ebd 9982 f83b 28bf a23d
000000f0: 9074 c5bd 5a60 c4bd f35f 8dbb e9cc a1bd
00000100: 2890 5e3b 07a7 3d3a 7f43 dbbd f3cb b93d
00000110: 773d c23d 925e 61bd 05de 2cbb 4ebb c9bd
00000120: f0e8 14bc a36a 94bd 9c97 7bbd 7adc 773d
00000130: fe5f 04bd fe09 efbd 4774 4abe b1ab 2a3d
00000140: 5014 f03d 35e9 68ba 6017 3dbc a346 c03d
00000150: 9247 863d fe25 97bd 26ae 2abc 16b8 18bd
00000160: 2f48 063d bdf2 5bbd 633f c23b 1117 d73d
00000170: 4a40 c23d 5e0e ffbb cc4e f23a bd3a 953d
00000180: 5379 b8bd 41e0 903d d525 9e39 2c81 d13d
00000190: f3fc 023e 81f8 e1bc 9fdd 463d 7a10 91bd
000001a0: ae4b 943d e013 143e 1b5f 2a3e a92f b5bd
000001b0: 39c7 e2bb fa4b f8bc 7dd4 a9bd 9a0a 913c
000001c0: cab8 9fbd 685e 8c3c 449a 89bd 9761 f5bd
000001d0: 3ba3 ea3d 5c0d 1b3e 3dcf 473b f7bc 543d
000001e0: 0f65 b13c e1c3 a0bc e358 6d3d 4eac 5a3d
000001f0: 2eac 0a3c baf5 013e 1212 313c 44f2 8f3d
00000200: 8151 67bc 971d 53be 297d 8b3e 905d f53d
00000210: 410a 893d 106c 393e 9244 b4bc 2e1d 75be
00000220: c64d f43d 5f3f f6bd 0b06 19be 0089 473c
00000230: b0c0 973e 8b1d d23d 6e31 77bd b7e9 c23c
00000240: 0b58 a93d d2d4 dd3d 6b4f c0bc 3776 913d
00000250: 469f 913d d7c4 9abd 7937 373d f8a6 513e
00000260: a6d5 35bc 5c8a 763e 1bee 56be e73f d33d
00000270: 2f7b b53b a3d1 96bb 8c29 ac3d 326d e53c
00000280: 571e c5bd 141d 83bc 9ea4 283d 19fb b9bb
00000290: 9b53 5bbc dc3f 4bbd 66b1 203d 315c 06bd
000002a0: 2d97 af3e 727d c13c bae7 673d 0d89 42bc
000002b0: 0408 663d cec7 9c3d 8dc4 453c 1c45 5c3d
000002c0: 54fb 2f3d 8809 2f3d 71f6 c73c eef2 a7bd
000002d0: f96e db3d c879 81bd 2705 f83d 5915 e23b
000002e0: c230 c5bb 7c1f 103c 8c2f 7a3e 5a55 a33c
000002f0: 8011 d5bd 67a4 15be 0b05 323e 594d 36bd
00000300: e85e 6ebd e173 8a3e f1a1 90bd 2b08 22be
00000310: 8561 b13c da8e d73c f65e 1abd d09b 033e
00000320: 0ff8 833d f685 b9bc 0d62 8bbd 6af6 9dbd
00000330: 94fd 353c 4afa 4abd 1262 013e e1a4 57bd
00000340: 695c 43bd 1ec3 213d 40da 673d 84f7 9b3c
00000350: 42a7 d43d d235 5cbe d8dc ca3d 733a af3c
00000360: a12b 87bd b7cd 303d 49a6 2b3d f33c 0dbe
00000370: 3c39 a6bb 4e6f a5bc bda5 0e3e ee30 13bc
00000380: 475e 323e 3dc1 42be 5014 223e 7c00 873c
00000390: f87d 95be 7696 013d 54c4 b03d f459 5d3d
000003a0: 2537 f93d e787 65be e3ff 5cbd 5234 a3bc
000003b0: 4ad0 f7bc 2fed cbbd 8499 8e3c 1701 813d
000003c0: 5b5d 743c f63f 38be fc19 6ebd 61b5 1d3e
000003d0: 7ba1 11be 8990 87be 18d6 5c3c 2337 883e
000003e0: 73c8 003e d808 553d 2320 943d 2898 123d
000003f0: 3178 bcbd daff 0e3e d686 773d a1d7 dbbd
0.0056241043 0.05913508 -0.08493489 0.025713181 -0.014235171 0.12018994 -0.17646912 0.05486986
-0.044626746 0.07020904 -0.050767776 -0.029945146 -0.055210575 -0.06393651 0.03173848 -0.124388546
-0.0047510136 0.057293266 0.019511849 -0.007470647 0.021139875 0.07761446 -0.034139186 -0.018244212
-0.023290604 -0.11334195 -0.006043735 -0.1119005 -0.06797769 -0.013646483 -0.05724901 0.037897356
-0.040942065 0.034679882 -0.026168797 0.06910958 -0.051586878 -0.0017164932 -0.029836105 0.026593667
0.050662227 0.07207208 -0.014454244 0.043501917 0.009451285 -0.016963508 -0.07479278 0.17248532
-0.034789495 0.090926945 -0.09725321 -0.1507155 0.067294955 -0.02792237 -0.062360816 0.0153756095
-0.10643076 -0.050497666 0.007583928 0.079466164 -0.09641373 -0.0958869 -0.0043144166 -0.07900412
0.0033960436 0.0007234667 -0.10706233 0.09072103 0.0948438 -0.05502183 -0.002637745 -0.09850179
-0.00908874 -0.07246902 -0.061423883 0.060512997 -0.032318108 -0.11671828 -0.19770919 0.041667644
0.11722624 -0.0008884848 -0.011541218 0.09388473 0.0655662 -0.07380293 -0.010417497 -0.037284933
0.032783683 -0.05369829 0.0059279664 0.105024464 0.094849184 -0.007783695 0.0018486618 0.07286594
-0.09007516 0.07074023 0.00030164295 0.10229716 0.12791805 -0.027584316 0.048551198 -0.07083221
0.07240997 0.14460707 0.16637842 -0.08846981 -0.006920722 -0.030309666 -0.08292482 0.01770525
-0.077989176 0.01713486 -0.06718877 -0.119815044 0.11456915 0.15141815 0.0030488514 0.051938023
0.021654634 -0.019624652 0.057946097 0.05338698 0.008463902 0.12691393 0.010807531 0.070286304
-0.014118553 -0.20616756 0.27243927 0.11980736 0.06691409 0.18107629 -0.022005353 -0.23936912
0.119288966 -0.12023806 -0.14943711 0.012178659 0.29639196 0.10259541 -0.060349874 0.023793085
0.08268746 0.10831608 -0.02347537 0.07102626 0.07110457 -0.075570755 0.044730637 0.2047385
-0.011098301 0.24076217 -0.20989268 0.10314923 0.0055383663 -0.0046026274 0.08406362 0.02800617
-0.096249275 -0.016005076 0.041172616 -0.005675685 -0.013386632 -0.049621448 0.03923168 -0.032802764
0.34295025 0.023619387 0.056617476 -0.011873496 0.056159988 0.07655297 0.012070787 0.053776845
0.042964295 0.0427337 0.024409505 -0.08200632 0.10714526 -0.06322056 0.12110358 0.0068995175
-0.0060177753 0.008796569 0.244322 0.01993816 -0.104037285 -0.14613496 0.17384736 -0.04450736
-0.05819598 0.27041534 -0.07062138 -0.15823428 0.021652946 0.026313234 -0.037688218 0.12852407
0.06443798 -0.022646885 -0.06805811 -0.077130154 0.011107821 -0.0495551 0.12635067 -0.052647475
-0.04769555 0.03949272 0.056604624 0.019038923 0.103834644 -0.21504906 0.09905404 0.021390175
-0.066001184 0.043164935 0.04190663 -0.13792782 -0.005072741 -0.020194676 0.13930412 -0.008983834
0.17418776 -0.19019027 0.15828061 0.016479723 -0.2919767 0.03163763 0.086311966 0.054040864
0.12168721 -0.22415124 -0.05395497 -0.01992241 -0.030250687 -0.099573486 0.017407186 0.06299036
0.014914836 -0.17993149 -0.05813025 0.15401222 -0.14221756 -0.2647746 0.013478778 0.26604566
0.12576465 0.052010387 0.07232692 0.03578964 -0.09202612 0.13964787 0.060431324 -0.10734487

policy_mean.bias f4 [7]
00000000: b1ca 9ebd 5e07 e4bd df6e ed3d 134c c63b
00000010: 2345 04be 080d 4fbd 7a50 b9bc
-0.07753504 -0.11134218 0.115934126 0.006051549 -0.12916999 -0.050549537 -0.022621382

value_head.weight f4 [1, 128]
00000000: 282d 0ec1 5f87 1641 ecc7 20c1 7bd0 0f41
00000010: 30bb 1141 427f 1341 50e8 1741 2ab0 3041
00000020: 4701 0a41 2b16 0ac1 eefd 09c1 e456 16c1
00000030: 8104 fe40 2c0f 08c1 1859 fa40 15b1 0e41
00000040: c49e ee40 0aac fac0 1b44 cec0 51fb 1ac1
00000050: 86cf 1541 ce3f 02c1 65d3 0dc1 15e5 0441
00000060: 5d1d 1a41 d586 0841 10e2 03c1 b5d0 0941
00000070: 2ad6 29c1 a712 0ac1 4fd5 0d41 17d6 0d41
00000080: 9417 0b41 088d 16c1 fa74 19c1 aac3 0941
00000090: f0c3 1641 d972 1741 3144 08c1 320a 0fc1
000000a0: bf64 0a41 5e27 1d41 cbbb 0f41 d803 00c1
000000b0: 5ff8 f240 6d2c 30c1 a1a3 16c1 12cd 00c1
000000c0: e8d1 0a41 85e3 0541 0f03 0241 c09e 0cc1
000000d0: 578b 0841 2300 0241 1035 0c41 c911 1a41
000000e0: 6800 0d41 2bf0 1741 e2a2 0441 69ba 1141
000000f0: 165d 10c1 9927 13c1 26d1 1141 af32 0cc1
00000100: 6a8b 0b41 5032 0941 0d2f 17c1 dffb 0ec1
00000110: c33f d4c0 bdb6 12c1 de8b 13c1 a8d0 21c1
00000120: 7544 1d41 dc4a 08c1 9eaf 14c1 c1c0 0c41
00000130: f8b7 2541 6730 f240 0b64 06c1 6c42 0c41
00000140: cc73 fec0 2e65 0dc1 7ca0 0bc1 6ac8 ff40
00000150: d4e8 08c1 96d0 1241 692a 20c1 5a1c f140
00000160: 8bea 02c1 9b6d 0641 6f3e 1241 8249 0cc1
00000170: 7019 ddc0 f085 1a41 dfec eec0 f2fb 0e41
00000180: 9c4b 1b41 eb22 e940 2b7c df40 b525 15c1
00000190: 2d29 1841 0425 15c1 b9b3 21c1 09ae e540
000001a0: c234 1841 cde9 0b41 80f6 1941 a28a 17c1
000001b0: f9f4 0ec1 a22f 22c1 d892 0041 770c 0b41
000001c0: 2b61 14c1 19ff 1141 6429 0841 901d 09c1
000001d0: 2f9b 0c41 2482 1c41 a6d1 0ec1 9264 0fc1
000001e0: 4af9 14c1 ec1d 0c41 2826 f540 7833 0ec1
000001f0: 6063 0641 1bbf 1141 9281 fb40 ff3b 14c1
-8.886024 9.40805 -10.048809 8.988399 9.1082 9.218569 9.494217 11.043009
8.625312 -8.630412 -8.624495 -9.396214 7.93805 -8.503704 7.8233757 8.918233
7.4568806 -7.833501 -6.4458137 -9.686357 9.363165 -8.140577 -8.86411 8.305928
9.632169 8.532918 -8.242691 8.613454 -10.614786 -8.629554 8.864577 8.864768
8.693256 -9.409431 -9.591059 8.61027 9.422836 9.465539 -8.516648 -8.939989
8.649596 9.822111 8.983348 -8.000938 7.5928187 -11.010846 -9.414948 -8.050066
8.676247 8.368047 8.125747 -8.788757 8.5340185 8.125033 8.762955 9.629342
8.812599 9.496135 8.289766 9.10801 -9.022726 -9.197167 9.113562 -8.762374
8.721537 8.574783 -9.448987 -8.936492 -6.6327834 -9.169614 -9.221647 -10.113441
9.829213 -8.518276 -9.292875 8.797059 10.357414 7.5684085 -8.399425 8.766216
-7.9516354 -8.837202 -8.726681 7.9932146 -8.556843 9.175924 -10.010354 7.534711
-8.182261 8.401759 9.140243 -8.767946 -6.909355 9.6577 -7.466415 8.93651
9.705959 7.2855124 6.983907 -9.321706 9.510053 -9.321537 -10.106378 7.1774945
9.51288 8.74458 9.622681 -9.471346 -8.934808 -10.136629 8.035851 8.690543
-9.273723 9.12478 8.510105 -8.569717 8.787887 9.781773 -8.926184 -8.962053
-9.310862 8.757305 7.6609077 -8.887566 8.399261 9.109157 7.8595667 -9.2646475

exp_avg f4 [7]
00000000: 6a16 f6b9 645e 2a39 0a09 2c38 43fb cab9
00000010: 34b1 14ba 84ff 8bb9 0041 163a
-0.00046937476 0.00016247627 4.1016414e-05 -0.00038715647 -0.0005672157 -0.0002670252 0.00057317317

exp_avg_sq f4 [7]
00000000: df11 c837 8269 0438 fba8 a037 3dce b637
00000010: 918f 9f37 7cfc b437 b5ea a237
2.385018e-05 3.1569514e-05 1.9152174e-05 2.1792128e-05 1.902113e-05 2.1575244e-05 1.9421199e-05

exp_avg f4 [128, 21]
00000000: 397a 1d38 f4a2 27b8 cbe0 1b37 ba45 87b8
00000010: 7357 b5b7 715d f437 e107 7238 f149 7c37
00000020: a123 6fb7 aaf6 08b7 6c26 8037 2924 ea37
00000030: 881a 75b8 9b7f a9b7 3fb5 1a39 f2c6 8236
00000040: 35a1 0a39 073b 7ab8 b6a0 21b7 0fef 9ab7
00000050: 6970 f7b7 6c75 8fb7 0169 e6b7 66ef abb9
00000060: 6e7a b3b9 1ece 1fb8 3c5b d9b7 c31b 0137
00000070: d98b 28b6 c957 6b36 cf2e f6b4 c112 4f36
00000080: 9cbe e2b6 c21a 36b8 4e7c a9b9 0920 e8b7
00000090: 9955 9c35 1123 7837 f55e b9b9 878b 2d37
000000a0: 7dcc 85b7 f0c5 9c36 ccb0 3636 5486 d635
000000b0: 10ad 1238 62d7 1138 b9c1 5b35 0533 3a36
000000c0: ee5d 4236 2228 8e35 859a 96b5 04ea 6034
000000d0: bf3c b8b4 415c 9d35 ac4d 4f36 4f5e 0c38
000000e0: 05b9 2937 cbb8 7535 3d90 00b6 d722 1538
000000f0: 5805 d0b5 0515 c835 0cd8 c9b5 a575 32b9
00000100: cb7b 8bb9 edec 36bb 3fbd 3fbb c8c9 d3b9
00000110: af38 76b9 a7ae ae38 789e 11b8 694a 2638
00000120: 8ad2 90b8 9348 a038 2e95 8eb8 eeda ddb9
00000130: 7177 33bb 6b2e cf39 0b0f a9b7 813b 5539
00000140: 064e 3cbb 2056 d638 4bbe 24b9 7b5f 5d38
00000150: 9536 95b6 81a9 5fb7 0962 0db9 7ac6 13b9
00000160: 0575 8eb7 68c8 18b7 58f4 df36 0e97 22b6
00000170: 9611 3536 cec7 f1b5 3a6b 2736 2c75 ebb5
00000180: 5b4a 9ab7 4994 0ab9 805a 93b6 8779 dbb4
00000190: 3566 9936 92ea 15b9 8fb2 3436 6ad6 a9b6
000001a0: 3c70 3336 4da2 a7b8 62f1 ba38 2035 95b9
000001b0: 3cea feb7 cb08 7a38 f827 8bb8 28c1 44b9
000001c0: 580b 88b8 99f3 8238 bdc3 1d37 f29d f6b7
000001d0: e197 69b8 c030 f138 be4b 19b9 6869 06ba
000001e0: 7892 1db9 92e1 a4b8 8ac3 e7b6 7f59 cb37
000001f0: 7bfd d837 aa1e 1139 5b6e 3038 6988 5cb9
00000200: 640e f7ba 35b7 f9ba 10c7 b9b9 6bb6 0cb9
00000210: d9db ad39 af07 25b8 66ec 3838 86ea 2136
00000220: e203 2db7 1a4a 22b7 5d04 41b9 1120 f2ba
00000230: a764 75b9 bb66 5f38 3ffa 63b9 46c9 05bb
00000240: e700 59b8 8c20 dc37 cbc9 1d38 255c 7e36
00000250: 415a 9137 d2e4 2239 8478 2539 f484 8137
00000260: 881c 9cb5 5788 d6b7 c40f 0537 bba1 04b7
00000270: cac7 8f36 f220 49b6 65be a1b5 2610 8737
00000280: ac2e 1b39 fc20 1237 5c66 edb5 7bb6 6a37
00000290: da51 2839 aa9d a7b6 b3a1 a4b5 e1c4 f6b6
000002a0: 979b 05b8 b80b 6c37 eae5 81b9 6960 5eb9
000002b0: 79cf 11b8 ef42 f5b7 8103 bab7 61b5 0fb7
000002c0: e5e0 1737 1b1d 2636 15c5 f9b6 962c 9fb7
000002d0: 2d60 a3b3 27f6 70b9 8256 85b8 4791 f9b7
000002e0: 72ba 4db8 502f 5ab9 2315 5837 6f52 6db7
000002f0: 03ad 9637 7657 3237 8fce 1cb8 aa77 51b9
00000300: d376 85b9 d793 d5b8 9c1c 66b7 99ee 9a38
00000310: 1e97 5937 7f44 42b7 83c3 b0b5 bed5 b936
00000320: 9c03 2d37 76a7 8bb8 7c49 6eb9 136b c638
00000330: 7f3c 9137 40d1 7e35 2928 95b9 167b aab4
00000340: bf00 f5b7 7a8e e6b7 a6fc 8239 ea52 8839
00000350: b249 523b 04cc 543b 17d8 113a 6f38 ef39
00000360: 0574 2f39 17db 15b8 ecaf df37 8ac9 77b8
00000370: 765d 2e38 055d 3939 8b87 f839 189e 4e3b
00000380: ec77 9bb9 0f5a 17b7 d3e4 e0b9 b858 543b
00000390: 9c38 99b8 3f69 6039 43e6 6ab8 33d5 82b9
000003a0: e22d 77b9 516b 63bb 361d 72bb 8430 30ba
000003b0: 2c08 83b9 ca42 15b8 9a04 00b8 a036 1838
000003c0: a26c 68b8 3151 9838 ec61 07b9 0a2a 00ba
000003d0: c46c 63bb 0fee 83b9 9acb c338 1127 0839
000003e0: 1342 7bbb f990 fc38 27bd 84b9 afe1 b8b3
000003f0: eb94 3bb9 5497 f739 55ba 573b af8f 713b
3.7545546e-05 -3.9967665e-05 9.291059e-06 -6.450289e-05 -2.1617603e-05 2.9130579e-05 5.7704634e-05 1.5037586e-05
-1.4253806e-05 -8.163663e-06 1.527668e-05 2.7911812e-05 -5.843726e-05 -2.020579e-05 0.00014754104 3.897462e-06
0.0001322076 -5.965962e-05 -9.633766e-06 -1.8469551e-05 -2.949704e-05 -1.7101607e-05 -2.7467033e-05 -0.00032794027
-0.00034232758 -3.8100516e-05 -2.59109e-05 7.695463e-06 -2.5115353e-06 3.5068826e-06 -4.5855128e-07 3.085632e-06
-6.7575147e-06 -4.34171e-05 -0.00032326806 -2.7671473e-05 1.1647818e-06 1.4790116e-05 -0.00035356698 1.034409e-05
-1.5950058e-05 4.6722053e-06 2.7223023e-06 1.5983337e-06 3.497029e-05 3.4771285e-05 8.186576e-07 2.7745857e-06
2.8962927e-06 1.0591505e-06 -1.1220842e-06 2.094676e-07 -3.431687e-07 1.1724261e-06 3.0890615e-06 3.3466433e-05
1.0116263e-05 9.153852e-07 -1.9157444e-06 3.5556815e-05 -1.5498763e-06 1.4907279e-06 -1.5038545e-06 -0.00017019229
-0.0002660438 -0.0027912215 -0.0029257087 -0.00040395395 -0.00023481504 8.329498e-05 -3.471828e-05 3.9646784e-05
-6.905671e-05 7.6429125e-05 -6.7988745e-05 -0.0004231552 -0.0027384425 0.000395167 -2.0153375e-05 0.0002033543
-0.002873303 0.00010220357 -0.00015711148 5.277943e-05 -4.4469e-06 -1.33313015e-05 -0.00013483329 -0.00014092951
-1.698221e-05 -9.106567e-06 6.6743632e-06 -2.4227807e-06 2.6981338e-06 -1.801405e-06 2.4947353e-06 -1.7542966e-06
-1.8392855e-05 -0.00013215946 -4.391477e-06 -4.0880352e-07 4.571654e-06 -0.00014297132 2.6926025e-06 -5.0615536e-06
2.6738408e-06 -7.9934114e-05 8.914132e-05 -0.00028459076 -3.0388233e-05 5.9612834e-05 -6.635481e-05 -0.00018763973
-6.487098e-05 6.244257e-05 9.403503e-06 -2.9399034e-05 -5.5692977e-05 0.00011500856 -0.00014619433 -0.0005127401
-0.0001502725 -7.862145e-05 -6.9071e-06 2.424116e-05 2.5867243e-05 0.00013839701 4.2064446e-05 -0.00021031652
-0.0018848893 -0.0019051792 -0.00035434263 -0.00013419396 0.0003316093 -3.934622e-05 4.408918e-05 2.412738e-06
-1.0312508e-05 -9.673206e-06 -0.0001840754 -0.0018472691 -0.00023402517 5.326302e-05 -0.00021741631 -0.0020414158
-5.1737672e-05 2.62412e-05 3.761965e-05 3.7902585e-06 1.7327375e-05 0.00015534766 0.00015780522 1.543991e-05
-1.1631209e-06 -2.5574276e-05 7.9310885e-06 -7.905469e-06 4.2849906e-06 -2.997051e-06 -1.2050847e-06 1.6100774e-05
0.00014799339 8.709958e-06 -1.7687667e-06 1.3989974e-05 0.0001605222 -4.9953424e-06 -1.2266013e-06 -7.354291e-06
-3.1854575e-05 1.4069425e-05 -0.00024776097 -0.00021207485 -3.4763918e-05 -2.9237444e-05 -2.217456e-05 -8.565695e-06
9.052664e-06 2.475287e-06 -7.4437216e-06 -1.8975039e-05 -7.607773e-08 -0.00022979882 -6.3580475e-05 -2.9750763e-05
-4.904945e-05 -0.00020807725 1.2879525e-05 -1.4145494e-05 1.7961958e-05 1.062999e-05 -3.738567e-05 -0.00019976372
-0.00025456268 -0.00010184169 -1.3715729e-05 7.3877345e-05 1.2969393e-05 -1.1579249e-05 -1.3169923e-06 5.5383125e-06
1.0312444e-05 -6.6592285e-05 -0.00022724824 9.46132e-05 1.7313518e-05 9.492687e-07 -0.00028449416 -3.1754524e-07
-2.9206623e-05 -2.7484482e-05 0.0002498377 0.00026001717 0.0032087383 0.0032470236 0.0005563511 0.0004562768
0.00016732521 -3.572841e-05 2.6665592e-05 -5.9077087e-05 4.1571875e-05 0.00017677627 0.00047403233 0.0031527337
-0.00029653253 -9.02127e-06 -0.00042895097 0.0032401513 -7.306153e-05 0.00021401512 -5.6004395e-05 -0.00024954378
-0.00023572848 -0.0034701417 -0.003694368 -0.00067210966 -0.00024992356 -3.558657e-05 -3.0521864e-05 3.6290498e-05
-5.5414283e-05 7.263048e-05 -0.00012911082 -0.0004889077 -0.003470228 -0.00025163635 9.336248e-05 0.00012984524
-0.0038338944 0.000120433 -0.0002531793 -8.609219e-08 -0.00017889186 0.0004722426 0.003291746 0.0036859324

exp_avg_sq f4 [128, 21]
00000000: b650 c733 a384 1734 a6e6 2d37 b0da 1337
00000010: 8c2a c534 b056 cb34 887e af34 4c29 2732
00000020: a894 2932 d5c7 9431 967e a631 316a 4033
00000030: 73e0 1f34 7e64 1037 fc76 ca35 da90 ab34
00000040: b30d 0a35 df8f f736 f7d7 0e33 6445 c032
00000050: 121e 4234 1290 5432 c07a eb32 c146 e235
00000060: 2652 da35 0e22 9333 acd3 8233 7df8 a932
00000070: 1002 0a31 6d15 0b31 d971 6630 c689 7d30
00000080: 351c 3d31 49d2 1933 a0ed cd35 050f bf34
00000090: 9070 6233 3415 7533 ae2e ac35 a33d 0f32
000000a0: 042b 6831 742c 0332 8d19 862e 4fe0 4d2f
000000b0: 13f4 4f32 0c16 3d32 2e50 aa2f dd0f da2f
000000c0: 7cbf 532f 430c 662d d233 672d de47 ba2c
000000d0: 5e4e cd2c 3928 af2d 9d27 602f 52a3 3032
000000e0: fb7f d030 5e52 972f 29d4 0a30 75db 1c32
000000f0: 02d3 ff2d 7447 aa2d fb4d 1e2f ab06 3135
00000100: 191c 9d35 3f1e ac38 2a6d a138 0cb3 6736
00000110: 9056 4536 03c7 a435 3fe6 c333 0df0 c333
00000120: e193 7233 ad53 8233 ada5 6d34 0f03 e135
00000130: b8ae 9838 9a9f 8e37 06eb e635 f797 1c36
00000140: 083d 8738 2aac ce34 3a01 7d34 a443 4935
00000150: a16e d330 5e89 2a31 b0bf 4c34 263c 5034
00000160: c6db 1232 3059 cc31 86f9 0031 1a65 842f
00000170: 36c2 842f e3b2 0e2f e036 362f c607 e02e
00000180: 28e9 8c31 1f34 3f34 23b9 2833 9216 3031
00000190: 5321 8c31 cba6 3234 e053 af30 0517 0f30
000001a0: 4d99 ee2f 5c45 3335 6358 e734 611b 5038
000001b0: cb72 3838 e469 9336 e924 bc35 7f97 e835
000001c0: b7e0 3d33 23cc 4033 23da d732 b2b4 0233
000001d0: da89 8e34 17f9 5735 f351 3a38 2797 a836
000001e0: 0a7f 8e36 cab9 b535 2a67 2738 e223 7834
000001f0: d8c7 1334 f196 cf34 2e35 2535 28d3 4c35
00000200: 8c92 7d38 c9bd 7838 b9b7 4c36 0533 c535
00000210: 3232 b135 26d2 9033 4052 9233 3a8d 1d33
00000220: 2f1e 3933 0206 5c34 1913 9335 d6e3 6a38
00000230: 79e7 e236 f024 e735 e81d ef35 4d52 6438
00000240: a5a6 9b34 137f 0234 2621 8734 f8f5 ce30
00000250: 3994 5931 28b5 8834 c5d3 8734 1009 aa32
00000260: a304 8b31 8c00 8e31 9219 9f2f e2ae a02f
00000270: da83 652f 1fd0 7a2f 8ff7 fe2f 8b2b 9d31
00000280: b02a 8134 2b45 df32 34e9 ee31 36b1 0732
00000290: 24f8 8034 f5e3 7930 0e53 1d30 8f7a 5c30
000002a0: afff a033 5c0f 2334 4019 2037 f46b 0b37
000002b0: ecd9 f934 eabd a634 a9c9 6534 4393 1f32
000002c0: 14e2 2132 ccd8 7d31 3b1e 8931 dfd4 1033
000002d0: c182 2234 b440 0837 795d b035 547f 0135
000002e0: 99a7 d134 85ae e336 c112 ed32 7360 8032
000002f0: 9bc0 fd33 7b51 8932 3869 3233 1e9a 1e36
00000300: fa7b 2136 9336 b333 7e9f 6633 79dd 0833
00000310: ad3f 4731 b72a 4631 61a6 ca30 21d5 db30
00000320: e892 1032 a175 5033 776c 1536 9ba8 3034
00000330: 42b5 e032 cd81 d333 cb91 1836 bf4b e431
00000340: d851 d131 9237 0232 0df8 f135 4a1a 4036
00000350: da8d 5c39 99ff 5939 d0a8 2037 54f6 bf36
00000360: 5de8 1e36 4f09 8634 b67c 8634 ab06 f033
00000370: b511 0634 6c2c 2235 50de 9536 19f3 4b39
00000380: 2284 0438 fa4e b736 fd1b a936 9713 3f39
00000390: 0017 8635 64ec 1835 db0c 3e35 099f c135
000003a0: 6429 1036 5b7a 7639 f717 7139 ff64 5737
000003b0: ffd2 6336 2d46 6f36 1e6d 9a34 382f 9934
000003c0: a8bd 2234 e518 5334 172e a634 2872 8836
000003d0: c43c 5e39 2b2a 9137 eeec 1337 7f0e 7136
000003e0: ee6e 6539 0b37 6935 a4d6 6135 894e ab35
000003f0: 2561 8b36 dfa9 ca36 c2e4 df39 0a34 e339
9.281341e-08 1.4111224e-07 1.0365306e-05 8.8128e-06 3.6725066e-07 3.787477e-07 3.2688354e-07 9.730069e-09
9.870895e-09 4.330085e-09 4.845627e-09 4.4800064e-08 1.4889683e-07 8.6064665e-06 1.5084802e-06 3.1956625e-07
5.142894e-07 7.3779224e-06 3.325837e-08 2.2383297e-08 1.8078597e-07 1.2372782e-08 2.741342e-08 1.6858904e-06
1.6266174e-06 6.8514154e-08 6.0920996e-08 1.9787189e-08 2.0082815e-09 2.0239341e-09 8.38353e-10 9.223665e-10
2.7519154e-09 3.581434e-08 1.5342848e-06 3.558745e-07 5.27221e-08 5.7062792e-08 1.2828584e-06 8.33771e-09
3.3784895e-09 7.635311e-09 6.098153e-11 1.8724332e-10 1.2104482e-08 1.1006261e-08 3.097979e-10 3.966524e-10
1.9258367e-10 1.3076709e-11 1.3142336e-11 5.294417e-12 5.835151e-12 1.9913059e-11 2.0386755e-10 1.0281683e-08
1.5170366e-09 2.7525265e-10 5.0505605e-10 9.130294e-09 2.908385e-11 1.9358494e-11 1.439772e-10 6.594734e-07
1.1705589e-06 8.207233e-05 7.697412e-05 3.4525901e-06 2.9405674e-06 1.2276872e-06 9.1222766e-08 9.12406e-08
5.647951e-08 6.068817e-08 2.2132618e-07 1.6764697e-06 7.280469e-05 1.700204e-05 1.7204736e-06 2.3334267e-06
6.4486696e-05 3.8495756e-07 2.3562907e-07 7.4976765e-07 1.5383713e-09 2.481634e-09 1.9068716e-07 1.9393391e-07
8.548289e-09 5.947321e-09 1.876829e-09 2.4082497e-10 2.4148655e-10 1.2978378e-10 1.6572299e-10 1.01877215e-10
4.101043e-09 1.7807223e-07 3.928393e-08 2.56242e-09 4.078325e-09 1.6638221e-07 1.2756765e-09 5.205581e-10
4.3400875e-10 6.678363e-07 4.3091413e-07 4.9616563e-05 4.3975928e-05 4.3932687e-06 1.4017834e-06 1.7329438e-06
4.420937e-08 4.4889145e-08 2.5128491e-08 3.0432325e-08 2.654986e-07 8.0456215e-07 4.4422177e-05 5.0243866e-06
4.246719e-06 1.3539623e-06 3.991198e-05 2.3109854e-07 1.3763145e-07 3.866658e-07 6.1544677e-07 7.6303195e-07
6.0456383e-05 5.930456e-05 3.050531e-06 1.4692492e-06 1.3202136e-06 6.743748e-08 6.813616e-08 3.6682856e-08
4.310112e-08 2.0491282e-07 1.0957912e-06 5.6002136e-05 6.762272e-06 1.7221591e-06 1.7815591e-06 5.4436085e-05
2.899225e-07 1.2153423e-07 2.5169828e-07 1.5058381e-09 3.166191e-09 2.5463783e-07 2.5299792e-07 1.9794726e-08
4.0459596e-09 4.132806e-09 2.89401e-10 2.9228092e-10 2.0874272e-10 2.2811307e-10 4.6378232e-10 4.5742516e-09
2.4059182e-07 2.599207e-08 6.9532238e-09 7.898327e-09 2.4022404e-07 9.090962e-10 5.7234295e-10 8.02097e-10
7.497089e-08 1.5186146e-07 9.542622e-06 8.31018e-06 4.6538423e-07 3.105809e-07 2.140065e-07 9.2885015e-09
9.422838e-09 3.693958e-09 3.9906616e-09 3.3721218e-08 1.5134994e-07 8.121297e-06 1.3140226e-06 4.824153e-07
3.9051227e-07 6.785444e-06 2.759896e-08 1.4945021e-08 1.1816265e-07 1.5985952e-08 4.153955e-08 2.3633543e-06
2.4063033e-06 8.345264e-08 5.3696105e-08 3.1866396e-08 2.8994507e-09 2.8837073e-09 1.4744722e-09 1.5994922e-09
8.415306e-09 4.8535757e-08 2.2265865e-06 1.6452616e-07 2.6159459e-08 9.849064e-08 2.2734628e-06 6.6442847e-09
6.092005e-09 7.579631e-09 1.8028092e-06 2.8625532e-06 0.00021033679 0.0002078995 9.576048e-06 5.72092e-06
2.3679088e-06 2.4966218e-07 2.5050184e-07 1.1177084e-07 1.2486164e-07 6.0414345e-07 4.4664266e-06 0.0001945015
3.159431e-05 5.463019e-06 5.0398507e-06 0.00018222477 9.990472e-07 5.6968406e-07 7.079922e-07 1.4425906e-06
2.1481765e-06 0.00023505969 0.00022992479 1.2838514e-05 3.3948452e-06 3.5654623e-06 2.8764129e-07 2.8532827e-07
1.5156422e-07 1.9659963e-07 3.0953444e-07 4.0664054e-06 0.00021194207 1.7304983e-05 8.817047e-06 3.5920236e-06
0.00021880466 8.687936e-07 8.4131375e-07 1.276335e-06 4.153832e-06 6.0398447e-06 0.00042704312 0.00043335586

exp_avg f4 [128]
00000000: 47a0 b1b7 f463 b7b9 d09a 1838 e3a3 41bb
00000010: 812b 16b9 24d7 30b9 1e0e 03bb ca30 2839
00000020: 8b3e 82b9 734e 80b9 3647 5e3b 4655 76bb
00000030: 333b 6b3b bc6e 2c3c 452c 89b9 f99c e3ba
00000040: 89b5 3abb d3c2 bd39 adef 7539 153e 72b9
00000050: af64 13b8 2d48 ff3a 8b31 d3b9 34cf d9bb
00000060: 536c 3d38 817b 4b3a b752 89bb 41e6 8f3b
00000070: caf6 03b9 064f ddb9 6411 773a 526b 85bb
00000080: 8d9f 9939 1907 0db9 970d c539 f7b8 f3b8
00000090: 1592 1b37 f50d 343b cd06 d93a 2564 1cba
000000a0: 601a 033c 34f0 573b 8b98 37ba fb5e 4aba
000000b0: 7b55 143a 6175 7c3a db40 8738 314b 3a3a
000000c0: fd87 1b3a f79f 223a b45f 4dbb a7a4 03ba
000000d0: 2bfe cb3a 6c4f d1ba 052a 22bb 45fa a73b
000000e0: c05f 26b8 a552 433b 4052 163a 3852 5bba
000000f0: f099 7d3b bbd1 eb3a a8d0 973b ed73 23ba
00000100: 234f 173c e896 86ba b389 95bb d393 e1b8
00000110: 8bb4 eaba 469e ed3b 5a85 d538 e79f 56bb
00000120: 64b7 b2ba cc15 0f3b 3a82 46b9 be6f af39
00000130: 88e2 cbba 3bfd 95b5 3703 ef3a d7b7 1e3b
00000140: f1f9 e8ba 0c05 6fbb 2f4d 28bb 8f18 9eba
00000150: e9c6 a738 f21b 8aba f5fa d938 fb0d 08ba
00000160: 6bb0 62ba 5fae bc3b fa86 5cb9 405a e338
00000170: bf24 2dbb 90ac 2c39 89ce 68ba 3970 b8ba
00000180: 239b 9dbb caaf 0e3b 437a b63b 21d5 57ba
00000190: b681 0abc f32c d4b8 d5a9 6db9 83d5 853a
000001a0: 95fc 853b 69df 91ba 9e26 c63a 240d 02ba
000001b0: 0b24 edba af71 e8bb 24fa fbba ad22 e4ba
000001c0: 33f7 9638 0833 63ba a398 c6ba 7ffe cc39
000001d0: ebbb c439 1dea cb37 4747 17ba a02a 3e39
000001e0: 89bf 9dba b3ba 4f38 9cba 07ba 0cd8 17bb
000001f0: 415c 06ba 9b36 f939 017c 3c3b c8ab 843b
-2.117468e-05 -0.0003497895 3.6383804e-05 -0.0029547147 -0.00014321321 -0.00016864814 -0.0019997428 0.00016039904
-0.0002484213 -0.00024472512 0.0033916957 -0.0037587448 0.003589344 0.010524448 -0.0002616366 -0.0017365507
-0.002848955 0.00036194045 0.00023454307 -0.00023102046 -3.51413e-05 0.0019476466 -0.00040281969 -0.006647015
4.5161996e-05 0.0007762239 -0.0041907686 0.004391462 -0.0001258507 -0.00042211282 0.00094248937 -0.0040716315
0.0002930131 -0.00013449452 0.00037584893 -0.00011621595 9.272732e-06 0.002747414 0.0016557813 -0.00059658504
0.008001894 0.0032949569 -0.00070036267 -0.00077198417 0.00056584895 0.0009630528 6.449382e-05 0.00071065413
0.00059330446 0.0006203646 -0.003133756 -0.00050217885 0.0015563419 -0.0015969104 -0.0024744284 0.00512627
-3.966666e-05 0.0029803899 0.0005734302 -0.00083664386 0.003869649 0.0017991582 0.004633028 -0.0006235231
0.009235176 -0.0010268362 -0.004563534 -0.000107563705 -0.0017906589 0.0072515337 0.0001018147 -0.0032749118
-0.0013634977 0.002183306 -0.00018931265 0.00033461855 -0.0015555182 -1.1175065e-06 0.0018235211 0.0024218464
-0.0017774684 -0.0036471514 -0.002568077 -0.0012061762 8.0002304e-05 -0.0010536893 0.00010394111 -0.00051900715
-0.0008647504 0.0057580913 -0.00021031118 0.00010841014 -0.0026419607 0.00016467483 -0.0008880874 -0.0014071531
-0.0048097535 0.002177226 0.005568774 -0.0008233358 -0.008453777 -0.0001011732 -0.00022665349 0.0010210726
0.004088948 -0.0011129203 0.001511771 -0.00049610646 -0.0018092407 -0.0070936303 -0.0019224328 -0.0017405354
7.198602e-05 -0.0008666967 -0.001515169 0.00039099526 0.00037524043 2.4308503e-05 -0.0005770814 0.00018135691
-0.0012035231 4.9526523e-05 -0.0005177648 -0.0023169545 -0.0005125441 0.00047533665 0.0028760436 0.0040487982

exp_avg_sq f4 [128]
00000000: 9d1a 2637 7707 ef35 ba65 4e32 8719 b138
00000010: 0d06 6134 6094 5838 2493 8838 8bce 9634
00000020: 5a42 1d37 281b 2c36 dbba 6c39 ee8f 8239
00000030: 4051 f539 85e8 e43a 012e 2535 47a5 8939
00000040: 75aa 0a39 5e10 2f38 c0d2 3436 5dfb 2439
00000050: 2547 be32 c6a5 2339 60ac 5d37 406f b339
00000060: 712b 0a38 3b68 9938 a16f f639 6aea a639
00000070: 18a1 1039 3f5c 7c38 56da 1939 d678 8139
00000080: 0993 8b39 66d4 bf36 cf26 5936 c46d 6434
00000090: 7403 a92f 0894 1e39 1075 ec38 4f1f 9239
000000a0: c1a2 153a c544 c539 340e 8f36 245b 8037
000000b0: 5583 b537 457b 9238 eb4c 1739 af55 9237
000000c0: 884f 9f37 ccba 6539 f698 fa38 5151 9d36
000000d0: 14d1 2b39 1495 0238 9bd7 8c38 dd4c 9539
000000e0: 8bbf 2336 51b1 8f39 3a72 b037 7859 9936
000000f0: 8479 9c39 6179 d737 a99b 2f39 ebaa 4137
00000100: f22d b53a 7614 1437 490e 5e39 206e 2b36
00000110: 73fe 8e38 f365 893a 42c7 d033 a071 6539
00000120: 6893 d838 e9f7 5438 b9f2 9336 a825 2737
00000130: b3b2 7538 411c 4934 0bfb 5738 5d2b 8338
00000140: 7d4a 1a39 fdb7 313a 3b6a 9439 babc 3539
00000150: 3e01 2b33 868a 8737 d803 7435 7b97 3b37
00000160: edaa cc37 3db8 bf39 0442 5735 692c c833
00000170: 8c92 4a38 6028 a035 3b59 7837 b112 9438
00000180: 44c7 5e39 a23a 6a39 e0a0 fa39 54ab d438
00000190: 92a6 123a 4a31 bd33 607e 1b36 254b 2439
000001a0: 2edd ca39 0f8d 6138 8529 4c38 d6c2 ad38
000001b0: 0d08 0d38 99d1 433a 2745 6039 5dd9 7838
000001c0: baf5 1433 1186 d938 6172 dc38 e1da f035
000001d0: 7d1e c135 a284 9c33 ff50 4337 72eb 6939
000001e0: 5f67 3c37 67b8 1b37 73bb 7c36 9029 f438
000001f0: e274 2e39 b322 0939 ed5c bd38 9ce6 dd39
9.900567e-06 1.780906e-06 1.2013908e-08 8.4447725e-05 2.0956959e-07 5.1636598e-05 6.5123924e-05 2.8089957e-07
9.373378e-06 2.5645804e-06 0.00022576323 0.00024902768 0.00046790577 0.0017464316 6.1534234e-07 0.00026253817
0.00013224206 4.1738494e-05 2.6944763e-06 0.00015733899 2.2151264e-08 0.00015606647 1.3212761e-05 0.00034224428
3.2942222e-05 7.315023e-05 0.00047003946 0.0003183664 0.00013792922 6.0167393e-05 0.00014672554 0.00024694827
0.00026621696 5.71697e-06 3.235811e-06 2.1274087e-07 3.0743375e-10 0.000151232 0.000112751615 0.00027870617
0.0005708151 0.00037626005 4.2633856e-06 1.530123e-05 2.1638038e-05 6.984783e-05 0.00014429136 1.7444456e-05
1.8991312e-05 0.00021908729 0.0001194942 4.688431e-06 0.00016385718 3.1133255e-05 6.71588e-05 0.00028476762
2.4400385e-06 0.00027407196 2.1034026e-05 4.570171e-06 0.00029845175 2.5686519e-05 0.00016747288 1.1543491e-05
0.0013822897 8.826251e-06 0.00021176891 2.5545087e-06 6.8184825e-05 0.0010482654 9.7219996e-08 0.0002188147
0.00010327139 5.0775623e-05 4.409198e-06 9.962743e-06 5.857898e-05 1.8729862e-07 5.1493796e-05 6.254644e-05
0.00014714334 0.00067794306 0.00028307908 0.00017331811 3.981517e-08 1.615776e-05 9.0902677e-07 1.1181338e-05
2.4398289e-05 0.00036567627 8.0189807e-07 9.321304e-08 4.8297035e-05 1.193268e-06 1.48027275e-05 7.0606715e-05
0.00021245802 0.00022337821 0.00047803577 0.0001014086 0.0005594279 8.809964e-08 2.317036e-06 0.00015668252
0.00038693234 5.377555e-05 4.867606e-05 8.285574e-05 3.3624518e-05 0.0007469892 0.00021388066 5.9330243e-05
3.4682422e-08 0.00010372338 0.00010511722 1.7945096e-06 1.4388494e-06 7.288442e-08 1.1641764e-05 0.00022308322
1.1229741e-05 9.2816545e-06 3.7660036e-06 0.00011642568 0.00016637475 0.00013078265 9.029531e-05 0.00042324222
