ppo_agent.onnx (onnx, 82613 bytes, 8 tensors)

policy_log_std f4 [7]
0.5666723 1.1604187 0.442171 0.27867985 0.55808026 0.90989625 -3.0793378
00000000: 7011 113f 9a88 943f 3d64 e23e 20af 8e3e
00000010: 59de 0e3f f6ee 683f df13 45c0

fc1.weight f4 [128, 21]
-1.3717166 0.61702716 -0.2751794 -0.8841658 -0.11199733 0.27463835 -1.2626762 -1.697072
1.5390841 -0.36581677 0.63225657 1.2107779 -0.35982814 -0.5399934 -0.09381966 0.5102616
-0.9662704 -0.59432733 2.5032809 -1.7532549 -2.0562153 2.8296673 0.49560532 1.1945649
0.88851005 -0.42401123 -1.4461204 -0.14396621 -0.45109573 -0.44084144 -0.8221865 0.7058408
2.2055945 1.1365583 1.2957029 -0.16143899 -0.031623133 0.117794126 0.90345156 -0.8320129
1.8539292 -2.3264892 -0.36953542 -1.3173461 0.48201504 -0.15437935 0.79790807 -1.0196486
-1.1299062 0.7462654 -0.14376895 -0.07188075 -0.30186912 -0.6160586 -0.38777328 0.6042606
0.78743345 0.3818535 0.3321106 0.24362218 -0.248996 -0.7928163 0.56793904 -1.3116578
0.46764246 0.29046932 -0.32266816 -0.29380187 -0.75589246 -0.08393078 -1.1004809 0.07522209
-0.0155881755 0.2738403 2.2851973 -0.15626904 -0.15776058 -1.2576393 2.1098351 -0.17654036
0.033230968 5.162319 -2.1369913 -0.10920761 1.7122725 -0.47325215 -0.0909711 0.18370658
0.47535416 0.0006598505 -1.2591197 -0.9049217 -0.4070151 1.0030361 -1.2365415 5.9886913
1.3579812 -0.31408834 0.29527217 0.78418154 -1.2176346 0.11203139 2.2263918 3.9698622
-1.8817039 2.053848 -1.3785708 -0.21560256 0.17741045 -0.28705674 -2.5095854 0.5760943
1.7213172 -0.042694032 -0.22876671 0.5473174 -1.1173353 -0.9610198 -0.31586224 -0.010901205
-2.3161473 -0.24778838 0.12571113 -3.551106 1.6160697 0.421845 -0.45884418 0.28042823
-0.6408487 0.70897824 0.018217875 1.1242677 0.22551993 0.45566118 -0.6273927 0.104536615
-0.39282274 -1.265174 -0.8653537 0.05762933 -0.7092172 -0.113946505 0.08192978 7.503869e-05
0.53993666 -2.18635 6.635786 0.21838965 -0.9698375 0.2533389 0.14767234 -1.9391829
-2.0018682 0.027054127 -1.4820089 1.5892004 0.15757458 -0.14657892 3.547687 1.187109
0.31457496 0.82257134 2.4036248 1.09634 0.47203764 0.4609495 2.87038 -0.07260088
1.4778003 -2.3525884 -0.2530137 0.47266307 -0.14690095 0.209141 0.5265283 1.1634994
-0.47380233 -0.31998572 0.44545513 -0.62590855 -0.5012275 -0.43224463 0.42499638 -0.4617723
0.60494465 0.21930431 -1.25337 3.2554264 1.2014349 -3.22667 0.6009899 -0.111318715
-0.24592754 -1.5003154 -0.07931407 -1.072977 -1.0787427 1.0465744 -0.06746431 0.43640026
3.8691888 0.7628983 -0.065139666 0.06763255 0.7588786 0.25612745 0.11340898 7.420626
2.5535467 5.5274625 -0.36722454 1.7487682 0.035687383 -0.3242939 -0.4978927 0.7411362
-1.1024653 0.1513514 -1.045533 -0.10469757 -0.2863783 1.399696 0.82491827 -0.05490414
-0.8260351 -1.2909927 -1.5548308 -0.298921 2.0799012 -1.4433258 -5.440893 -1.385551
1.4529444 0.094468236 -0.45122176 -0.58470196 1.181197 0.57213145 -0.61871344 -0.5569492
-0.3187201 0.13296846 5.434613 0.67340934 -0.088707976 -0.44985574 1.1722004 0.8293114
0.065666534 6.7611985 -0.10371695 8.8829 -0.4108113 -0.17716198 -0.47391003 0.4553885
00000000: 6994 afbf 7ef5 1d3f 50e4 8cbe b158 62bf
00000010: db5e e5bd 669d 8c3e 609f a1bf a839 d9bf
00000020: b500 c53f 564c bbbe 91db 213f c5fa 9a3f
00000030: 653b b8be 023d 0abf 8624 c0bd 81a0 023f
00000040: 7f5d 77bf d625 18bf c135 2040 a86a e0bf
00000050: 0899 03c0 4519 3540 fbbf fd3e 81e7 983f
00000060: 6575 633f 0018 d9be 791a b9bf e16b 13be
00000070: 05f6 e6be f8b5 e1be d17a 52bf fcb1 343f
00000080: 7628 0d40 be7a 913f 98d9 a53f 4350 25be
00000090: 4287 01bd 0c3e f13d 9a48 673f ccfe 54bf
000000a0: 8d4d ed3f 33e5 14c0 bf33 bdbe cc9e a8bf
000000b0: adca f63e 9f15 1ebe b443 4c3f d883 82bf
000000c0: c4a0 90bf 400b 3f3f 2b38 13be 3736 93bd
000000d0: 978e 9abe 04b6 1dbf 388a c6be d3b0 1a3f
000000e0: 3d95 493f 4d82 c33e 670a aa3e 1878 793e
000000f0: cff8 7ebe 02f6 4abf 7464 113f 67e4 a7bf
00000100: d56e ef3e 65b8 943e c334 a5be 336d 96be
00000110: 2b82 41bf e7e3 abbd 8fdc 8cbf 0a0e 9a3d
00000120: 8c65 7fbc cc34 8c3e ac40 1240 fe04 20be
00000130: fd8b 21be 53fa a0bf 8a07 0740 ffc6 34be
00000140: 321d 083d b831 a540 77c4 08c0 3da8 dfbd
00000150: bf2b db3f 1b4e f2be 0e4f babd 941d 3c3e
00000160: 9f61 f33e d1f9 2c3a d62a a1bf f3a8 67bf
00000170: 4864 d0be 7d63 803f fe46 9ebf 5ca3 bf40
00000180: 54d2 ad3f 30d0 a0be ea2d 973e 1fc0 483f
00000190: 73db 9bbf b770 e53d 347d 0e40 3912 7e40
000001a0: acdb f0bf 3f72 0340 0275 b0bf ebc6 5cbe
000001b0: 16ab 353e 1af9 92be 0c9d 20c0 eb7a 133f
000001c0: 1f54 dc3f f0df 2ebd d241 6abe fe1c 0c3f
000001d0: d804 8fbf 6505 76bf b2b8 a1be f89a 32bc
000001e0: c23b 14c0 3dbc 7dbe 6bba 003e 5245 63c0
000001f0: 5fdb ce3f 11fc d73e a0ed eabe 4a94 8f3e
00000200: a90e 24bf 997f 353f a73d 953c 01e8 8f3f
00000210: b2ee 663e 6c4c e93e cf9c 20bf 4b17 d63d
00000220: 1020 c9be 39f1 a1bf d287 5dbf bb0c 6c3d
00000230: 428f 35bf c95c e9bd cdca a73d 175e 9d38
00000240: 4a39 0a3f 29ed 0bc0 5c58 d440 89a1 5f3e
00000250: 4547 78bf a3b5 813e 6b37 173e 2537 f8bf
00000260: 9c1e 00c0 9ea0 dd3c 78b2 bdbf eb6a cb3f
00000270: 3b5b 213e c918 16be 4e0d 6340 30f3 973f
00000280: f80f a13e 0994 523f fdd4 1940 de54 8c3f
00000290: ebae f13e 9301 ec3e 4eb4 3740 c5af 94bd
000002a0: 8f28 bd3f cf90 16c0 038b 81be e500 f23e
000002b0: 346d 16be 0f29 563e 8fca 063f 8ced 943f
000002c0: 3896 f2be 2bd5 a3be b212 e43e 8b3b 20bf
000002d0: 7250 00bf 2b4f ddbe 2099 d93e 6b6d ecbe
000002e0: a7dd 1a3f 4f91 603e 6e6e a0bf e858 5040
000002f0: 9ec8 993f c381 4ec0 79da 193f 11fb e3bd
00000300: 6ed4 7bbe 560a c0bf 6a6f a2bd 4f57 89bf
00000310: 3e14 8abf 26f6 853f ba2a 8abd db6f df3e
00000320: caa0 7740 4e4d 433f f267 85bd ef82 8a3d
00000330: de45 423f 2323 833e f842 e83d c575 ed40
00000340: 4f6d 2340 f9e0 b040 db04 bcbe a3d7 df3f
00000350: ef2c 123d da09 a6be cbeb febe 1abb 3d3f
00000360: 951d 8dbf ddfb 1a3e 06d4 85bf ae6b d6bd
00000370: 2da0 92be 3d29 b33f d82d 533f 2ae3 60bd
00000380: 0977 53bf 403f a5bf b204 c7bf 2c0c 99be
00000390: 1a1d 0540 e6be b8bf cc1b aec0 bc59 b1bf
000003a0: 15fa b93f 9078 c13d 8a06 e7be 07af 15bf
000003b0: 7731 973f 3577 123f 0164 1ebf 3994 0ebf
000003c0: 482f a3be e228 083e 5ae8 ad40 8e64 2c3f
000003d0: 87ac b5bd 7e53 e6be aa0a 963f c04d 543f
000003e0: 2d7c 863d bd5b d840 8d69 d4bd 5c20 0e41
000003f0: dc55 d2be f369 35be 56a4 f2be ae28 e93e

fc1.bias f4 [128]
-0.85475844 1.2411855 0.22233483 0.028147696 0.018687468 -0.009974554 0.25106776 0.22906515
0.17737328 0.16256316 -0.24875228 0.19522762 0.22135118 -0.013140311 -0.2508124 -0.033586387
0.022788318 0.04716956 0.023870561 0.37339607 -0.37344992 0.35427982 -0.46312618 0.14851181
-0.3317477 0.38540843 -0.08078336 0.06545198 0.19128898 0.065810665 0.1910287 0.05496541
0.009130801 0.22825792 0.18452246 0.12572908 -0.42456168 -0.17721114 0.071882464 0.1779353
-0.21385457 -0.24187212 -0.06660853 -0.17345904 -0.18242513 0.053023677 0.07370243 0.2996462
0.20574056 0.005196044 0.16596344 0.32620203 0.04502649 -0.29752144 -0.17452584 0.28285262
0.09515137 -0.15223819 0.0045298208 -0.54320407 0.09763371 -0.35477063 -0.11185917 0.08219424
0.04532589 -0.2917946 0.13170998 -0.050912116 -0.18000361 -0.01453889 0.015871564 0.15392272
0.16308038 0.18661278 -0.18350883 0.4278285 -0.11270116 -0.13809733 0.1414135 -0.34154204
0.1923847 -0.013976906 0.0614234 -0.20076774 0.21541452 -0.52392644 -0.6172097 -0.21474934
-0.46344566 -0.13972217 -0.4291048 0.058612265 0.08026346 0.091108315 -0.40964797 0.35491037
-0.23228489 0.074149676 0.29580122 0.035443403 -0.10809085 -0.22454804 0.17650846 0.17883968
-0.1315255 0.13403642 0.09097673 -0.04004979 -0.03633623 0.08272289 -0.4299355 0.13414444
-0.20331635 -0.1430062 0.06139758 -0.30016014 0.21059567 -0.24596103 0.116467685 -0.13309878
-0.15854397 -0.057869263 0.2547647 0.20469129 0.25183898 0.07959328 0.30560127 0.19292898
00000000: 73d1 5abf 2bdf 9e3f beab 633e ff95 e63c
00000010: 7616 993c 506c 23bc f48b 803e 0e90 6a3e
00000020: 57a1 353e f576 263e ebb8 7ebe c0e9 473e
00000030: e2a9 623e 764a 57bc 7c6a 80be e191 09bd
00000040: 91ae ba3c de34 413d 328c c33c c52d bf3e
00000050: d434 bfbe 2a64 b53e e01e edbe 7b13 183e
00000060: d6da a9be 4154 c53e bf71 a5bd b00b 863d
00000070: 42e1 433e bec7 863d 079d 433e 6923 613d
00000080: 5b99 153c 72bc 693e 75f3 3c3e 20bf 003e
00000090: 2660 d9be d676 35be 1d37 933d ac34 363e
000000a0: b1fc 5abe 53ad 77be 0e6a 88bd 3f9f 31be
000000b0: a7cd 3abe 5b2f 593d 4df1 963d 3a6b 993e
000000c0: a7ad 523e 9443 aa3b 52f2 293e f403 a73e
000000d0: b26d 383d bb54 98be e7b6 32be 0fd2 903e
000000e0: b9de c23d 54e4 1bbe e46e 943b 6c0f 0bbf
000000f0: 2ff4 c73d 7fa4 b5be 6c16 e5bd 7455 a83d
00000100: a4a7 393d 1a66 95be fbde 063e 3989 50bd
00000110: de52 38be 8634 6ebc 1505 823c eb9d 1d3e
00000120: 8bfe 263e 6c17 3f3e bde9 3bbe 560c db3e
00000130: decf e6bd 6369 0dbe b3ce 103e 99de aebe
00000140: 7f00 453e 65ff 64bc 1a97 7b3d 0f96 4dbe
00000150: a095 5c3e 0b20 06bf 7401 1ebf 40e7 5bbe
00000160: c048 edbe 5413 0fbe a0b3 dbbe 6a13 703d
00000170: 2b61 a43d ff96 ba3d 61bd d1be d0b6 b53e
00000180: 17dc 6dbe c9db 973d 4273 973e 1a2d 113d
00000190: bc5e ddbd ecef 65be a2be 343e c021 373e
000001a0: 9fae 06be d840 093e 0252 ba3d 400b 24bd
000001b0: 4cd5 14bd 9e6a a93d 8120 dcbe 295d 093e
000001c0: 2932 50be 3870 12be 077c 7b3d 97ae 99be
000001d0: 64a6 573e 35dd 7bbe 9c86 ee3d 0c4b 08be
000001e0: 5a59 22be 5208 6dbd 8570 823e 989a 513e
000001f0: 0af1 803e cd01 a33d c577 9c3e 2d8f 453e

fc2.weight f4 [128, 128]
0.019786268 0.21148211 -0.04489964 0.74486744 0.23191543 -0.3144426 -0.8056701 1.5361454
-0.101354845 1.8010246 1.610761 0.08371991 -0.09760787 0.84583396 0.5911098 -0.42028242
0.5608388 -0.4249864 0.20394865 1.3066922 -0.38083512 1.2496359 -0.7625338 -2.5936918
-1.1769333 0.15267456 -0.39232376 0.04615828 -0.5449882 0.13420804 1.7446967 0.8092594
0.27419022 0.48568153 -0.28005132 0.26694578 -0.079596065 -0.4656091 -1.5849582 -1.5282583
-0.74933475 -0.58422047 0.88903743 -0.21509358 0.5493803 0.10239079 1.5926521 -0.4740067
0.121669784 0.2224449 0.6400819 -0.24949795 -2.2220724 -1.6710937 -0.38898444 -0.4733481
-0.435804 0.6765387 -0.10598821 -0.685228 -0.71265465 -0.2191822 -0.22182749 -0.10695476
0.6871922 -1.3594849 1.7188357 -0.8209753 0.04951737 0.2782414 -0.26428553 0.56918406
0.09558658 -0.41419604 2.5393407 0.078833595 0.26291966 0.4913261 -0.38649437 -0.44716686
0.050001286 -0.396744 0.36022082 0.9949952 -0.61784476 0.44984162 -0.7388453 -0.8360157
-0.35665306 -0.8490163 1.0319127 -1.5044712 -0.061647978 -0.77295756 -0.005160622 -0.93258834
-0.8916283 -1.7076466 -0.08951372 -0.054113258 1.1800151 0.20021033 -0.054794196 1.3255975
-0.0526412 1.1965231 -0.7051989 0.16217017 -0.8754801 0.319947 -0.72760725 0.87120265
-0.18899342 0.4168169 -1.5284069 -0.41334617 -0.7369754 -0.3179357 2.196613 -0.45970595
1.0249065 0.19159447 -1.514483 -0.22217691 0.84954506 1.3131685 -0.31836382 0.887624
-1.0185596 2.0616913 0.022949265 -0.32575813 1.1035572 -1.2127848 -0.27740043 0.4482969
0.70357585 -0.50765204 -0.045472387 0.37173524 0.8374403 0.523636 1.096703 -0.20048375
1.0395457 -0.24059345 -0.93109393 2.8030016 -0.47125876 0.35272008 -0.90771115 -0.069964424
-1.312881 0.15985273 -0.7875407 -0.80507517 -0.8875436 -0.60983 -0.9056756 0.84815323
1.4504452 -0.121000975 -0.00050801586 1.1456654 -0.95591366 0.3925911 -0.11327473 0.58682466
-0.8468445 0.09162832 0.75150955 0.573769 0.8847243 -0.7523495 1.2983761 -0.9757926
-0.43035972 -1.2557716 3.2302172 0.42393857 -1.4050077 -0.3490787 0.54604614 -2.1918807
0.27166536 0.22471282 -0.758954 -0.42353946 -0.48655036 -0.8433964 -0.6996073 -0.39457166
-0.29471198 -1.0144069 0.8058937 -0.2148613 -0.7693068 0.3151702 -1.1238092 0.42271438
-0.20436083 -0.6393884 -0.15871213 0.050327837 0.4692886 0.6998834 -1.1606253 -2.2376504
-0.27638623 -0.87908846 -0.18677351 0.40370926 -0.59950894 -0.2939001 -1.2695022 0.03555782
-1.0757236 -1.5194427 -0.012168643 -1.3032705 1.098108 -1.3313899 0.60682595 0.3379548
-0.19188021 -1.1144949 1.4349762 -0.9764522 -0.08608459 0.66725266 -0.34744713 0.23230213
-1.4862262 0.4238342 -1.0666556 1.2618626 -0.3446343 0.905628 -0.8112709 0.50835687
-0.321626 1.3644044 0.23697534 -0.27992895 -0.058809906 -0.5925214 0.017754914 -1.1400728
-0.68388695 0.42406017 -0.44191587 2.181803 0.813308 1.2651368 0.30279836 0.36998123
00000000: d016 a23c c48e 583e afe8 37bd a2af 3e3f
00000010: 3d7b 6d3e 9ffe a0be 6540 4ebf 6aa0 c43f
00000020: 2193 cfbd f987 e63f 6b2d ce3f 5875 ab3d
00000030: a3e6 c7bd 9388 583f f952 173f 422f d7be
00000040: 2293 0f3f d197 d9be ead7 503e b141 a73f
00000050: d2fc c2be 12f4 9f3f 6a35 43bf 0cff 25c0
00000060: c0a5 96bf b856 1c3e a9de c8be 7710 3d3d
00000070: 5984 0bbf d56d 093e 3952 df3f a02b 4f3f
00000080: a962 8c3e 40ab f83e e362 8fbe 1ead 883e
00000090: 4303 a3bd 5164 eebe e9df cabf f89d c3bf
000000a0: 67d4 3fbf 798f 15bf f597 633f 7e41 5cbe
000000b0: 30a4 0c3f 43b2 d13d 06dc cb3f 02b1 f2be
000000c0: 022e f93d 99c8 633e 68dc 233f 647c 7fbe
000000d0: 6f36 0ec0 66e6 d5bf f828 c7be af5a f2be
000000e0: b421 dfbe a431 2d3f 5910 d9bd 1a6b 2fbf
000000f0: 8970 36bf 4c71 60be bf26 63be 190b dbbd
00000100: d4eb 2f3f 9a03 aebf cf02 dc3f 702b 52bf
00000110: bad2 4a3d a875 8e3e 6f50 87be 0cb6 113f
00000120: e6c2 c33d 8111 d4be 8f84 2240 8273 a13d
00000130: 689d 863e 188f fb3e 97e2 c5be 0ef3 e4be
00000140: 26ce 4c3d 0822 cbbe dd6e b83e 01b8 7e3f
00000150: 132b 1ebf a451 e63e f724 3dbf 2005 56bf
00000160: 3b9b b6be 2259 59bf b715 843f 8392 c0bf
00000170: 9782 7cbd 8ce0 45bf 6f1a a9bb 1cbe 6ebf
00000180: c141 64bf 2a94 dabf f852 b7bd dda5 5dbd
00000190: bc0a 973f f003 4d3e e16f 60bd 2ead a93f
000001a0: 4d9e 57bd ab27 993f ea87 34bf f00f 263e
000001b0: 771f 60bf 18d0 a33e 7844 3abf 2307 5f3f
000001c0: 7e87 41be 0669 d53e d6a2 c3bf 1ca2 d3be
000001d0: 6baa 3cbf 78c8 a2be 4f95 0c40 945e ebbe
000001e0: 2330 833f 5731 443e 94da c1bf 5882 63be
000001f0: c97b 593f e815 a83f 9500 a3be 543b 633f
00000200: 2960 82bf c0f2 0340 1900 bc3c c5c9 a6be
00000210: 5d41 8d3f 883c 9bbf 6e07 8ebe 2c87 e53e
00000220: 8c1d 343f 7cf5 01bf 4141 3abd 1554 be3e
00000230: 7d62 563f 020d 063f c460 8c3f 9d4b 4dbe
00000240: d50f 853f 215e 76be 2c5c 6ebf 6164 3340
00000250: d448 f1be ba97 b43e c25f 68bf 8249 8fbd
00000260: 7c0c a8bf 6fb0 233e 449c 49bf 6819 4ebf
00000270: 0f36 63bf d21d 1cbf 5bda 67bf 9220 593f
00000280: 30a8 b93f 5ccf f7bd 5e2c 05ba 2aa5 923f
00000290: c2b6 74bf b301 c93e 95fc e7bd 243a 163f
000002a0: cdca 58bf a1a7 bb3d ee62 403f 86e2 123f
000002b0: 4b7d 623f fa99 40bf 3031 a63f 8bcd 79bf
000002c0: 1c58 dcbe 20bd a0bf e1bb 4e40 7a0e d93e
000002d0: 4bd7 b3bf 72ba b2be aec9 0b3f c647 0cc0
000002e0: b917 8b3e 1e1b 663e cf4a 42bf 2ada d8be
000002f0: 211d f9be d4e8 57bf 7719 33bf 4c05 cabe
00000300: 7de4 96be 16d8 81bf 0d4f 4e3f 9a04 5cbe
00000310: 4af1 44bf fd5d a13e fbd8 8fbf 056e d83e
00000320: f743 51be f5ae 23bf 6f85 22be 9024 4e3d
00000330: 9846 f03e 8f2b 333f 5f8f 94bf aa35 0fc0
00000340: 7f82 8dbe f10b 61bf 8e41 3fbe fbb2 ce3e
00000350: 6b79 19bf 137a 96be 0c7f a2bf 14a5 113d
00000360: 50b1 89bf 197d c2bf fd5e 47bc 91d1 a6bf
00000370: ce8e 8c3f fc6a aabf f258 1b3f 6908 ad3e
00000380: 3f7c 44be c5a7 8ebf 4dad b73f c5f8 79bf
00000390: 1e4d b0bd 12d1 2a3f 97e4 b1be 9ce0 6d3e
000003a0: a93c bebf cc00 d93e 2c88 88bf b784 a13f
000003b0: e873 b0be 3dd7 673f 73af 4fbf ad23 023f
000003c0: 2aac a4be cea4 ae3f aaa9 723e d952 8fbe
000003d0: a8e2 70bd 7caf 17bf c172 913c e8ed 91bf
000003e0: 3713 2fbf 6a1e d93e cc42 e2be a9a2 0b40
000003f0: f434 503f 01f0 a13f 6308 9b3e 2e6e bd3e

fc2.bias f4 [128]
-0.0454367 0.9411363 -0.26717594 -0.46349004 0.12205469 -0.045342058 0.6744058 -0.53528315
-0.62553513 0.42212036 0.33472708 0.7024143 -0.22222784 -0.13018337 0.056899205 -0.19164123
0.15090777 0.31204632 0.18972838 0.035503928 0.011178012 0.19798142 0.32323548 -0.6900465
0.08655289 -0.07570224 0.13365033 -0.2530867 -0.16562304 0.5346695 -0.0357423 -0.0068241013
0.20959291 0.984126 0.43590072 0.21231635 -0.43886715 -0.025234044 -0.4971432 0.28169867
-0.43302843 -0.25520825 -1.1036524 -0.021963121 -0.030329997 0.063673176 -0.0874164 0.29017526
-0.6276228 0.60210663 0.15062083 0.6923848 -0.45141077 -0.98656666 0.074542835 -0.562767
-0.20656209 -0.53662163 -0.58745825 -0.050041664 0.4464007 0.31087294 -0.4499545 0.5353504
-0.07133052 -0.35531378 0.47503558 -0.1440876 0.015372819 0.49739912 0.26596257 0.019371178
0.26642835 0.056207884 0.028987346 -0.31786004 -0.11510829 -0.27460667 -0.041458342 -0.1694903
-0.27118865 0.33023077 0.1740512 -0.5072069 0.22429456 -0.032219548 -0.048923213 0.16312543
-0.14106798 -0.069537126 0.19535059 0.4095615 -0.26704708 -0.05815573 -0.35587132 -0.34745112
0.1806075 -0.33993155 0.13043563 0.019093936 0.2537143 0.051167857 0.09027744 -0.24566351
-0.7168496 -0.34295598 0.5222241 0.8351941 0.21968514 -0.018478544 -0.500054 -0.24758351
0.17441872 0.14884065 -0.5602878 0.17965072 -0.5617372 -0.19926982 -0.16446716 0.21949375
-0.17338754 -0.6354127 -0.72977906 0.33655888 -0.35878152 -0.27488706 -0.39069033 0.021306248
00000000: d51b 3abd 4fee 703f 49cb 88be 914e edbe
00000010: cff7 f93d 98b8 39bd dca5 2c3f 5108 09bf
00000020: 1223 20bf 2920 d83e 5961 ab3e 6cd1 333f
00000030: b28f 63be ca4e 05be 240f 693d 993d 44be
00000040: 9187 1a3e 89c4 9f3e 2848 423e 916c 113d
00000050: fb23 373c a4bb 4a3e 1f7f a53e e3a6 30bf
00000060: a442 b13d c709 9bbd a2db 083e 9494 81be
00000070: 1699 29be 1ae0 083f 8566 12bd b69c dfbb
00000080: 869f 563e aeef 7b3f 612e df3e 7569 593e
00000090: 32b3 e0be a0b7 cebc 8e89 febe cf3a 903e
000000a0: e7b5 ddbe a8aa 82be 7b44 8dbf 01ec b3bc
000000b0: 9d76 f8bc 1567 823d 5f07 b3bd da91 943e
000000c0: e3ab 20bf a923 1a3f 593c 1a3e 2140 313f
000000d0: 501f e7be a28f 7cbf eaa9 983d 8011 10bf
000000e0: 0385 53be 0960 09bf aa63 16bf 7df8 4cbd
000000f0: a28e e43e bd2a 9f3e 7060 e6be b90c 093f
00000100: bc15 92bd b0eb b5be dd37 f33e b38b 13be
00000110: 47de 7b3c 19ab fe3e 3f2c 883e 4eb0 9e3c
00000120: 4c69 883e 3d3a 663d df76 ed3c 8dbe a2be
00000130: e5bd ebbd 3f99 8cbe 39d0 29bd dd8e 2dbe
00000140: 3dd9 8abe 0214 a93e 7a3a 323e 50d8 01bf
00000150: 79ad 653e a5f8 03bd b563 48bd 5a0a 273e
00000160: 2074 10be 7b69 8ebd fc09 483e 0cb2 d13e
00000170: 65ba 88be b434 6ebd c434 b6be 1de5 b1be
00000180: 2cf1 383e 820b aebe eb90 053e e36a 9c3c
00000190: d7e6 813e 6395 513d 61e3 b83d 378f 7bbe
000001a0: 7583 37bf ed97 afbe 7bb0 053f 48cf 553f
000001b0: 24f5 603e 5160 97bc 8a03 00bf 8886 7dbe
000001c0: d29a 323e af69 183e 056f 0fbf 5cf6 373e
000001d0: 02ce 0fbf 630d 4cbe 146a 28be f8c2 603e
000001e0: 818c 31be 68aa 22bf cdd2 3abf 7251 ac3e
000001f0: 36b2 b7be ffbd 8cbe 9008 c8be 718a ae3c

policy_mean.weight f4 [7, 128]
-0.045833603 0.02655876 0.015285981 -0.016283728 0.046843875 0.025707493 0.043112226 -0.059484705
-0.09450104 -0.055265114 -0.023615358 0.052701663 -0.029529138 0.04102609 -0.0009979213 -0.045861594
0.049649924 0.0878119 0.03285583 0.14868979 -0.054159366 -0.018524209 0.010246169 -0.03801355
0.030236954 0.014367153 0.039450947 0.0022835247 0.024984615 -0.04835975 -0.010926609 -0.015152869
0.05272325 -0.078191444 -0.08886309 -0.100740746 0.013668668 -0.00840202 -0.013115277 -0.047823533
-0.017910277 -0.07146527 -0.027335301 0.024947615 -0.039983753 -0.106492 0.040879555 -0.09109696
-0.036264 0.14142065 -0.033358876 -0.06093879 -0.15481395 -0.055479597 -0.005190591 0.017413145
-0.048714746 -0.13186955 0.07474531 -6.741047e-05 -0.03279197 -0.011677159 -0.082116894 -0.0024434675
-0.04895144 -0.005034687 0.05982428 0.03202134 0.035154015 -0.0027043743 -0.002594117 -0.0075429627
-0.027004616 -0.026294896 0.06694699 0.01717945 -0.074232735 -0.117219165 0.066451386 0.082835756
-0.0032123425 0.066266164 -0.090771765 -0.13073105 -0.03861638 0.050294917 -0.065277494 -0.08894886
0.02461847 -0.008230003 -0.010458842 -0.03110761 0.04547994 -0.045986116 -0.08275299 -0.018843384
0.02516984 -0.0007784358 -0.0012465309 -0.04270715 -0.016327213 -0.042117916 0.024559576 -0.041020665
-0.09639741 0.019872114 0.10079754 -0.123496376 0.013349928 -0.0057877274 0.009557228 -0.011126549
0.09947412 0.0865521 -0.051235504 0.023493966 -0.09106308 -0.014583387 0.07085061 0.01535127
-0.07760437 -0.014509276 0.09553584 0.026980277 -0.07459391 -0.054318108 -0.07621228 0.04865609
-0.07612766 0.2162135 0.048581112 0.027212728 -0.22841662 -0.0030995533 0.17080466 -0.013319796
0.016235294 0.025211252 -0.017455583 0.010573549 -0.017244153 -0.02583003 -0.13503017 0.08881289
-0.028857844 0.030734934 0.17420024 -0.13395688 -0.024586253 -0.0044808523 -0.11730378 0.052956786
0.0814126 -0.01901743 0.0427669 0.01868709 0.10953673 -0.03656051 0.15506841 0.10793211
0.118873335 0.049694058 0.1410282 0.03202832 -0.13995087 0.08633644 -0.13357 -0.02073115
-0.13723479 0.027094267 -0.058082942 -0.027937032 -0.018956121 -0.07989282 -0.020293087 0.07690229
0.15922074 0.02627091 0.17702888 -0.06716882 -0.06794683 -0.054200497 -0.08498497 -0.0983988
0.12600997 0.22978033 -0.07070912 -0.0051062233 0.051743757 -0.0013177427 0.07651773 0.02406922
-0.01553764 0.07970243 -0.12399432 0.027162869 -0.083779454 -0.053249836 0.05721516 -0.05375504
0.10274082 -0.12477869 -0.2725887 0.12836823 -0.13785109 -0.021453617 -0.008130491 0.051830243
-0.15317918 0.061489075 0.105358236 0.028848149 0.14039187 -0.13669734 -0.05805532 -0.035476524
-0.1492335 -0.013413222 0.022571152 0.04189949 0.028020736 -0.051888585 0.052517787 0.02683381
-0.013930471 -0.04560779 0.07050871 -0.20855638 -0.008357909 -0.03351176 0.0012542945 -0.018505234
0.12178999 -0.027843047 0.109427705 0.09887112 0.033754166 -0.0337577 -0.005045646 -0.039816614
-0.087361924 -0.031640284 0.061113946 -0.06753041 0.08595524 -0.029539997 -0.04664119 0.08217617
0.048579127 -0.05819087 -0.0016684828 -0.13684984 -0.112799674 -0.21777475 0.09031837 -0.04153662
00000000: 04bc 3bbd c291 d93c 0d72 7a3c 7465 85bc
00000010: 5ddf 3f3d 8598 d23c 7296 303d 3ca6 73bd
00000020: c389 c1bd ac5d 62bd ff74 c1bc b3dd 573d
00000030: 17e7 f1bc f90a 283d afcc 82ba 5ed9 3bbd
00000040: b85d 4b3d bad6 b33d d693 063d 2342 183e
00000050: 36d6 5dbd 15c0 97bc 8cdf 273c 19b4 1bbd
00000060: 7db3 f73c 3564 6b3c 5197 213d 30a7 153b
00000070: 89ac cc3c e014 46bd 8505 33bc bd43 78bc
00000080: 56f4 573d d622 a0bd dafd b5bd 2a51 cebd
00000090: 8df2 5f3c a0a8 09bc 75e1 56bc 9ce2 43bd
000000a0: 93b8 92bc 625c 92bd 48ee dfbc f15e cc3c
000000b0: 01c6 23bd 7a18 dabd 5271 273d 0b91 babd
000000c0: 8f89 14bd 93d0 103e 51a3 08bd f49a 79bd
000000d0: 8c87 1ebe 933e 63bd d515 aabb 03a6 8e3c
000000e0: 1d89 47bd d008 07be 1214 993d b85e 8db8
000000f0: df50 06bd 8e51 3fbc e72c a8bd 9522 20bb
00000100: 4e81 48bd 04fa a4bb 4e0a 753d cf28 033d
00000110: a8fd 0f3d df3b 31bb 1002 2abb f52a f7bb
00000120: c938 ddbc 6568 d7bc 811b 893d ebbb 8c3c
00000130: 5507 98bd 9a10 f0bd aa17 883d cba5 a93d
00000140: 2a86 52bb 8eb6 873d 8ce6 b9bd 5cde 05be
00000150: 362c 1ebd 0b02 4e3d 35b0 85bd d22a b6bd
00000160: acac c93c 22d7 06bc 905b 2bbc 63d5 febc
00000170: 2c49 3a3d f05b 3cbd 667a a9bd 715d 9abc
00000180: fb30 ce3c f10f 4cba a362 a3ba b1ed 2ebd
00000190: a6c0 85bc d683 2cbd 2a31 c93c 4905 28bd
000001a0: 016c c5bd d8ca a23c f16e ce3d abeb fcbd
000001b0: a8b9 5a3c faa6 bdbb eb95 1c3c 214c 36bc
000001c0: 16b9 cb3d 3a42 b13d 52dc 51bd 6b76 c03c
000001d0: 487f babd 29ef 6ebc 201a 913d e583 7b3c
000001e0: 0aef 9ebd 50b8 6dbc 4ba8 c33d be05 dd3c
000001f0: b1c4 98bd aa7c 5ebd 2f15 9cbd 9c4b 473d
00000200: d2e8 9bbd 1267 5d3e fdfc 463d 3aed de3c
00000210: 0ce6 69be e021 4bbb 6be7 2e3e 463b 5abc
00000220: e1ff 843c d487 ce3c 03ff 8ebc ae3c 2d3c
00000230: 9c43 8dbc 8099 d3bc 5945 0abe 88e3 b53d
00000240: 4967 ecbc d4c7 fb3c 8c61 323e fe2b 09be
00000250: 1c69 c9bc 1dd4 92bb f73c f0bd 37e9 583d
00000260: a6bb a63d 71ca 9bbc 582c 2f3d ab15 993c
00000270: cb54 e03d 79c0 15bd 41ca 1e3e 830b dd3d
00000280: dd73 f33d ff8b 4b3d b269 103e 2130 033d
00000290: 484f 0fbe 29d1 b03d 93c6 08be 5fd4 a9bc
000002a0: 4787 0cbe ccf4 dd3c 61e8 6dbd 34dc e4bc
000002b0: de49 9bbc d99e a3bd b03d a6bc f37e 9d3d
000002c0: c30a 233e 1736 d73c 0f47 353e ce8f 89bd
000002d0: b527 8bbd 5701 5ebd 9a0c aebd 4f85 c9bd
000002e0: c208 013e 894b 6b3e f1cf 90bd 1b52 a7bb
000002f0: 43f1 533d 1cb8 acba 54b5 9c3d d02c c53c
00000300: 9691 7ebc 073b a33d bcf0 fdbd aa84 de3c
00000310: 9094 abbd 801c 5abd 725a 6a3d 3f2e 5cbd
00000320: c769 d23d f88b ffbd bf90 8bbe f672 033e
00000330: d628 0dbe 7fbf afbc c035 05bc f34b 543d
00000340: 01db 1cbe f8db 7b3d 0fc6 d73d f452 ec3c
00000350: e3c2 0f3e 63fa 0bbe 6acb 6dbd d54f 11bd
00000360: abd0 18be 21c3 5bbc 23e7 b83c cd9e 2b3d
00000370: be8b e53c 2089 54bd e41c 573d 94d2 db3c
00000380: a13c 64bc 3ccf 3abd df66 903d ce8f 55be
00000390: 9cef 08bc a143 09bd 2467 a43a 4a98 97bc
000003a0: 086d f93d 1a17 e4bc a21b e03d f17c ca3d
000003b0: cf41 0a3d 8445 0abd f255 a5bb bf16 23bd
000003c0: cfea b2bd 3e99 01bd 9e52 7a3d 624d 8abd
000003d0: 4d09 b03d ddfd f1bc d50a 3fbd fb4b a83d
000003e0: e8fa 463d 8d59 6ebd feb0 daba 5d22 0cbe
000003f0: 8403 e7bd 5800 5fbe d6f8 b83d 4e22 2abd

policy_mean.bias f4 [7]
-0.14137417 0.06282013 -0.100691356 -0.05624293 -0.07419713 -0.027288323 0.0072726356
00000000: 64c4 10be d7a7 803d 4537 cebd fd5e 66bd
00000010: aaf4 97bd c38b dfbc 4a4f ee3b

value_head.weight f4 [1, 128]
-14.647573 13.706648 -13.317928 10.350655 12.06568 13.777376 15.456634 11.454431
10.261887 -9.920174 -14.300549 -9.416114 13.015127 -12.192641 13.047109 11.093534
17.448128 -17.780035 -9.4480095 -12.653137 14.623908 -15.933056 -12.722857 11.805426
21.355988 14.766949 -16.228832 13.39732 -11.492698 -13.417648 11.019994 11.359433
11.961175 -10.23589 -8.834717 12.255635 11.232608 12.474942 -10.4436035 -10.680508
13.60106 11.626889 12.34221 -11.782488 14.0094185 -14.083376 -12.182758 -18.127413
11.863726 11.572221 11.105781 -10.226793 11.69792 9.596137 16.49522 9.718961
13.43151 10.205829 13.352576 12.928954 -12.153627 -21.50914 15.264368 -15.32227
12.759253 15.4647455 -14.502591 -14.352327 -10.709075 -14.50726 -9.485735 -19.778326
13.380742 -14.833869 -12.574594 12.7148075 10.5943365 13.670622 -10.406375 10.737441
-13.303043 -13.455135 -12.624636 8.897976 -14.448733 15.2495 -17.914953 8.738783
-17.099892 10.318456 18.501934 -9.16766 -9.547645 12.535601 -16.911425 11.100195
15.279798 14.477844 11.13634 -15.222688 17.588991 -17.155111 -15.967374 9.58007
11.817603 14.294297 10.538612 -10.040994 -18.800346 -14.417593 11.841058 15.6978855
-12.760611 18.11066 13.153629 -14.173527 13.086752 13.963131 -14.887097 -13.752661
-11.520549 11.314274 13.810948 -13.543471 10.15306 8.538751 12.591223 -17.07495
00000000: 765c 6ac1 6e4e 5b41 3c16 55c1 489c 2541
00000010: 060d 4141 2270 5c41 5f4e 7741 5945 3741
00000020: b030 2441 08b9 1ec1 0ccf 64c1 67a8 16c1
00000030: f63d 5041 0f15 43c1 f5c0 5041 1e7f 3141
00000040: c495 8b41 833d 8ec1 0c2b 17c1 4073 4ac1
00000050: 87fb 6941 cced 7ec1 d390 4bc1 06e3 3c41
00000060: 10d9 aa41 6c45 6c41 a6d4 81c1 6c5b 5641
00000070: 17e2 37c1 b0ae 56c1 e551 3041 3dc0 3541
00000080: f960 3f41 35c6 23c1 005b 0dc1 1517 4441
00000090: c3b8 3341 5d99 4741 0019 27c1 5ce3 2ac1
000000a0: f19d 5941 bd07 3a41 b179 4541 1285 3cc1
000000b0: 9426 6041 8255 61c1 94ec 42c1 f104 91c1
000000c0: d2d1 3d41 d127 3941 47b1 3141 f2a0 23c1
000000d0: ae2a 3b41 c789 1941 36f6 8341 dd80 1b41
000000e0: 77e7 5641 134b 2341 27a4 5541 ffdc 4e41
000000f0: 4275 42c1 b812 acc1 da3a 7441 0528 75c1
00000100: e625 4c41 996f 7741 9d0a 68c1 22a3 65c1
00000110: 5f58 2bc1 bd1d 68c1 92c5 17c1 033a 9ec1
00000120: 8517 5641 8757 6dc1 8931 49c1 da6f 4b41
00000130: 6782 2941 deba 5a41 8380 26c1 8fcc 2b41
00000140: 44d9 54c1 3c48 57c1 82fe 49c1 1c5e 0e41
00000150: 032e 67c1 f4fd 7341 d351 8fc1 0ed2 0b41
00000160: 94cc 88c1 6518 2541 f603 9441 bcae 12c1
00000170: 27c3 18c1 d291 4841 994a 87c1 669a 3141
00000180: 0d7a 7441 40a5 6741 732e 3241 2190 73c1
00000190: 41b6 8c41 ab3d 89c1 5d7a 7fc1 f747 1941
000001a0: e714 3d41 71b5 6441 289e 2841 e9a7 20c1
000001b0: 1c67 96c1 76ae 66c1 f974 3d41 8a2a 7b41
000001c0: 762b 4cc1 a2e2 9041 4475 5241 c4c6 62c1
000001d0: 5663 5141 fc68 5f41 8d31 6ec1 e60a 5cc1
000001e0: 2b54 38c1 4407 3541 a5f9 5c41 0fb2 58c1
000001f0: ef72 2241 b99e 0841 a675 4941 7f99 88c1
