models/best_model.pth (torch, 28579 bytes, 8 tensors)

log_std f4 [7]
00000000: 0000 0000 0000 0000 0000 0000 0000 0000
00000010: 0000 0000 0000 0000 0000 0000
0.0 0.0 0.0 0.0 0.0 0.0 0.0

feature.0.weight f4 [64, 21]
00000000: 22d3 94be b07b a8bd befb d53c 2804 b8bb
00000010: 00c9 a9be 20d9 4dbe c4c5 7bbe d48d b6bd
00000020: b549 62be bae2 2fbd 31cc 16be 4f07 8bbd
00000030: 1a10 883e d7f3 683c 9dca 27be 8d8b 3d3e
00000040: 8e2f e1bd 4a1b adbe 8c5d b0bd 3ed4 1bbe
00000050: 8c0b 943e 8275 783d 6aee c7bd 2864 05bd
00000060: 9cc8 fd3d bd0a 233e e006 8dbd 8178 6dbd
00000070: 2fc5 80ba badc 7fbe 6d5e 12ba 62c0 3cbd
00000080: da58 a63e bb0c 9c3e 79a0 66be ce2b 21bd
00000090: e3bc 73be 8312 f4bd 8bc5 dc3d 9cd5 efbd
000000a0: eab2 253e 52a4 debd 5500 3ebe 6412 cdbc
000000b0: aba9 73be c6e2 aa3e 6a3b 7bbd 77c5 723e
000000c0: 4fe8 553d b50d 7ebd f47d c9be 6558 32bc
000000d0: e337 c93d 9728 b0bd 014b 5dbe 122d 2b3d
000000e0: 25fa 79be d6f1 f1bd b0b9 92bd 973c 5ebe
000000f0: b937 c33d 4df0 77bc 0ecd 8b3d 4dc3 9bbc
00000100: 95ea 91be 1d5d 343c 1bbb 14be aaf7 8bbd
00000110: 0587 b93e f286 933c 8f67 3f3e e813 2b3e
00000120: d573 803e 992e bfbd efde c1bd 72a2 6dbe
00000130: 446e e53d fb93 753e b983 ffbd 2036 2dbe
00000140: 7d73 eb3d 0f01 7ebe f8e8 253e 2109 6c3e
00000150: 0a15 d3bd 18ff 16be 9e6a b9bd fb6b c63e
00000160: 20c0 8a3e 34c7 84bd f5be 9d3e e954 263e
00000170: 5b1b 5d3e c97c 153e 7625 223e d3a4 0bbd
00000180: aa31 8bbc a989 3ebe 8c73 623e 8794 0b3d
00000190: 6a5d 9bbe 9eea 2bbe 5d68 a43e 7891 413e
000001a0: 3518 14be 6840 1f3e 0f78 f63d 2f57 263d
000001b0: 1246 a03d e162 363d 2a6c c6ba 212d 0e3d
000001c0: b798 fabe 457d e8be b178 77bd c5c3 64be
000001d0: b1aa 8ebe 3fc1 91bd e6cc 013b 9f53 333d
000001e0: 4807 003b e7e6 7d3e ac16 963d f6dc 973d
000001f0: c763 883e fd41 3fbe 85a5 113d 3bd5 0c3e
00000200: eeb2 af3d 39c2 a93e 8e00 8ebe 5522 103e
00000210: f2c4 e13d 5daf 953c 96c7 373e e03f ddbd
00000220: faa1 f3bc d471 f9bd afe4 a4b9 5c16 3abe
00000230: 8405 24bd 01f6 103e 5070 7c3d 93a8 a53d
00000240: 82c0 95be 0999 5f3e 972f f23e 70e0 1fbe
00000250: 6526 b9bd b985 4d3c 05a9 d7bd c210 fbbd
00000260: cae4 bfbd 405d 0ebe 24a1 fd3d d6f3 6f3d
00000270: 1715 9cbd 41da e13c 92b6 2dbe 6395 1ebb
00000280: 7199 76be ff47 1bbd 2c13 ecbd eddd 0fbd
00000290: d3d6 0d3e 0c30 1dbe ccf7 113e 50d7 09bc
000002a0: 8a4f 353d 025f b4bd 8ebd 013e 057f 643e
000002b0: 0bb3 e03d 0e2d 973e f77d 95be dd22 d7be
000002c0: 066b 903e c71c a13d 4bd5 a8bd eea5 823e
000002d0: 70fc 2ebe fb9a 51bd 43ae 47be 4b89 02be
000002e0: e9b1 89bc dc47 063e e483 843d d3e0 81be
000002f0: a498 f83d af09 35be c27f ecbd 6a6c a03d
00000300: e4c8 13bd d2ff f63d aa9a 0c3e 8a0f 163e
00000310: 559b 9bbe da10 c7bd bb51 713e bab2 a53d
00000320: 84f8 ca3d 2176 35bd fdb7 96bc f89a 93bd
00000330: 1909 7fbd 4e09 ccbd 9a71 4ebd 77e1 3cbe
00000340: 669d e03d 7f95 c2bd 9a9c f2bd b2e2 d73d
00000350: beaa 903e 3705 bc3c 4e6c 523e 5af8 f6bc
00000360: 0f20 adbd 270d afbd aa03 28be af51 a33d
00000370: 6b29 093b 37eb 41bd cfd5 6e3e 1794 63be
00000380: 8cad 663d 7a3e a5be 098b 943e fb56 3dbe
00000390: dff2 583e 75a9 793e ab69 923e 9f78 4a3d
000003a0: 244e 603e df39 b73d 46c1 733d 24ca 4dbd
000003b0: 8c62 88bd 0077 a13e 44c0 723e 6ca8 0ebe
000003c0: 3cb8 07be 4569 b1bc fdfb 033e a61b da3d
000003d0: 35f5 6abe 7d6c 503e cb77 a73d e4f8 ca3c
000003e0: 9845 93be 560c 243d 7cb1 1bbe 946c c73d
000003f0: 4e4c 573e 0e79 00bd a40b e0bc 080e 9dbd
-0.29067332 -0.082267165 0.026121017 -0.00561573 -0.33161163 -0.20102358 -0.2458716 -0.0891377
-0.2209843 -0.042940833 -0.1472633 -0.067885034 0.26574785 0.014218292 -0.16385885 0.18510266
-0.109953985 -0.33809882 -0.08611593 -0.15217683 0.2891506 0.06065894 -0.09762271 -0.03256622
0.12391779 0.15922065 -0.06886077 -0.05797625 -0.000982439 -0.24986544 -0.00055835285 -0.046081908
0.32489663 0.30478463 -0.22522153 -0.039348416 -0.23802523 -0.11917593 0.10779866 -0.11710665
0.16181532 -0.10871185 -0.18554814 -0.025033183 -0.23795192 0.3337614 -0.06133596 0.2370814
0.0522235 -0.06202479 -0.39353907 -0.010885333 0.09825113 -0.08601492 -0.21610643 0.04179103
-0.24411829 -0.11813705 -0.07164323 -0.217028 0.09532113 -0.015132976 0.068262205 -0.019014025
-0.28499284 0.011008528 -0.145245 -0.068343475 0.36235824 0.018008683 0.18691848 0.16706812
0.25088373 -0.0933506 -0.09466349 -0.23206499 0.11202672 0.23982231 -0.12476296 -0.16915178
0.11496637 -0.24805091 0.16202152 0.23050357 -0.10306747 -0.14745748 -0.09053539 0.38754258
0.27099705 -0.064833075 0.3080975 0.16243328 0.21592467 0.14598383 0.15834603 -0.034092735
-0.016991455 -0.186072 0.2211439 0.034077194 -0.30344707 -0.16788718 0.32110873 0.18903148
-0.14462359 0.15551913 0.12034618 0.04061049 0.07825865 0.044527892 -0.0015138437 0.034711007
-0.48944637 -0.45408073 -0.060417835 -0.22340305 -0.27864602 -0.07116937 0.0019805967 0.04378092
0.001953559 0.24795114 0.07328543 0.07415192 0.26638624 -0.18677516 0.035558242 0.13753216
0.0857905 0.33155993 -0.27734798 0.14075597 0.110238925 0.018272096 0.1794723 -0.10803199
-0.029740322 -0.12179914 -0.000314509 -0.18172592 -0.040044323 0.14156343 0.061630547 0.080887936
-0.29248434 0.21835722 0.47301933 -0.1561296 -0.09040526 0.012544089 -0.10530285 -0.12259056
-0.0936981 -0.1390276 0.12384251 0.05858215 -0.0762121 0.027569892 -0.16964176 -0.0024197928
-0.24081971 -0.037910458 -0.11527094 -0.035123754 0.1385148 -0.1535036 0.14254683 -0.008413151
0.044265307 -0.08807184 0.12669966 0.22314079 0.1097165 0.29526561 -0.29197666 -0.42018786
0.28206652 0.07866817 -0.082438074 0.2551722 -0.17088485 -0.05117319 -0.1950007 -0.12747686
-0.016808467 0.1311335 0.06470469 -0.2536684 0.12138489 -0.17679475 -0.11547805 0.07833178
-0.036080256 0.120605126 0.13730875 0.14654365 -0.30391946 -0.09720011 0.23566334 0.0809073
0.09910682 -0.04430211 -0.01839828 -0.07207292 -0.062264536 -0.09962712 -0.050401308 -0.18445383
0.10967521 -0.0950117 -0.11846276 0.105412856 0.28255266 0.022951705 0.20549127 -0.03014772
-0.0845338 -0.085474305 -0.16407648 0.07974564 0.0020929228 -0.04734346 0.23323749 -0.2222446
0.05631785 -0.32274228 0.29012325 -0.18490212 0.21186398 0.24381049 0.28596243 0.04943144
0.21904808 0.08946585 0.05951049 -0.050241604 -0.06659421 0.31536102 0.23706156 -0.13931435
-0.13253874 -0.021656642 0.12889095 0.10649805 -0.22945102 0.20353885 0.081771456 0.024776883
-0.28764033 0.040050827 -0.15204424 0.097375065 0.21025202 -0.031365447 -0.0273493 -0.07668692

feature.0.bias f4 [64]
00000000: 0000 0000 0000 0000 0000 0000 0000 0000
00000010: 0000 0000 0000 0000 0000 0000 0000 0000
00000020: 0000 0000 0000 0000 0000 0000 0000 0000
00000030: 0000 0000 0000 0000 0000 0000 0000 0000
00000040: 0000 0000 0000 0000 0000 0000 0000 0000
00000050: 0000 0000 0000 0000 0000 0000 0000 0000
00000060: 0000 0000 0000 0000 0000 0000 0000 0000
00000070: 0000 0000 0000 0000 0000 0000 0000 0000
00000080: 0000 0000 0000 0000 0000 0000 0000 0000
00000090: 0000 0000 0000 0000 0000 0000 0000 0000
000000a0: 0000 0000 0000 0000 0000 0000 0000 0000
000000b0: 0000 0000 0000 0000 0000 0000 0000 0000
000000c0: 0000 0000 0000 0000 0000 0000 0000 0000
000000d0: 0000 0000 0000 0000 0000 0000 0000 0000
000000e0: 0000 0000 0000 0000 0000 0000 0000 0000
000000f0: 0000 0000 0000 0000 0000 0000 0000 0000
0.0 0.0 0.0 0.0 0.0 0.0 0.0 0.0
0.0 0.0 0.0 0.0 0.0 0.0 0.0 0.0
0.0 0.0 0.0 0.0 0.0 0.0 0.0 0.0
0.0 0.0 0.0 0.0 0.0 0.0 0.0 0.0
0.0 0.0 0.0 0.0 0.0 0.0 0.0 0.0
0.0 0.0 0.0 0.0 0.0 0.0 0.0 0.0
0.0 0.0 0.0 0.0 0.0 0.0 0.0 0.0
0.0 0.0 0.0 0.0 0.0 0.0 0.0 0.0

feature.2.weight f4 [64, 64]
00000000: 74dd ba3d f1ae 05bd fb29 143e 23b3 d43d
00000010: 4ffa 1fbe 80ad ef3d b9be 6fbe 4c2d c2bd
00000020: fc25 5abe fdce 0dbe 0d41 873c 8192 cabd
00000030: 660e bf3b ba2c a53e fdd1 35be b5d3 a9bc
00000040: c15c ab3e efe2 8fbd 4dbe 863c bbd1 84be
00000050: 8df7 30be 9f88 cebd e828 a43d 372e 4bbe
00000060: 4283 d4bd f884 dfbe 159b 323e 9eef 2fbe
00000070: a3f1 f63d 6471 bb3e b81b 1abe 2685 293c
00000080: b8d7 623e 59cc 4abe 6f9b e6bd 18dd e8be
00000090: 591d 3f3e 1987 8b3e 985d 1cbd 780e 313e
000000a0: 9c95 553e cdab ecbd ebe8 343c daa8 44be
000000b0: ffa3 43bd a8e1 e23d e95f d8bd 7665 573e
000000c0: 1b25 5abe de2b 413e 7407 52be fda6 653e
000000d0: 9f93 57bd 8d1b 7cbe 61d7 91bd e4ac 98bb
000000e0: 9523 943d feeb f9bb 85fd ce3c 1807 bcbc
000000f0: 8b5e 90ba dca4 d8bc fffd 823e 11b2 043e
00000100: 9342 2dbd d18a e73d 21df b3be 0428 de3d
00000110: 8e60 afbb 553c 4fbe f57f 693e 0787 1fbd
00000120: 3f82 37be 923a 183d 2c2e 4f3e 1bfb 88bd
00000130: 4ecd 0237 dac6 90bd ff7a 17bc 3ec0 bc3d
00000140: b8f5 edbd 547e cebc 8fc0 5f3d f846 8f3e
00000150: 2d34 7e3d 1da6 95bb 6b12 b1be 3709 f6bd
00000160: 218a 5cbe e2e9 a33c 934e fbba fcb6 0dbe
00000170: f689 4a3e c5c7 13be 218a a53e 3894 863e
00000180: 20ca ec3c bc2d 17be 06e0 1fbe 922c be3c
00000190: aeb9 913d a121 8a3d 35f3 3e3e 713b 493e
000001a0: 0a6c e2bd d33f 1abe c2c9 bc3d 3259 8c3d
000001b0: 98d1 5d3c 0ba2 ebbd 1666 1ebd 4385 363d
000001c0: 3808 4a3d bcf1 ac3e c412 93be 7931 d43e
000001d0: 8b98 073e 6375 a63e 0df2 4bbd 14bd a33d
000001e0: c8be 52be 0fb9 fdbd 3a1d 9bbe ea64 93be
000001f0: c387 3b3e bbac aebe 7943 5e3e 820c 4e3d
00000200: 91f2 b0bd 9e33 b73e f0e0 0dbe cdab a43e
00000210: 6aca 48bd 0b1c 7abe 5f70 92be 8143 1d3e
00000220: 2587 d73e 827b 6a3c 0f79 9a3d ea37 023e
00000230: 31dc d8bd 3f4a 8f3b f7bc 23be 6fa8 eb3d
00000240: 2160 85bd 4888 03be 62be 93bd 1840 7cbe
00000250: 7ca8 993e 568d 6abe 6528 3a3d fad1 c6bd
00000260: 7740 2ebe f2c9 a7be 06fc 87bd cf14 97be
00000270: 5339 623c 289b 1ebe 4881 d33d c5ba 45be
00000280: d8c0 a53e c9af 123e 89ac 8f3c b7f8 bc3e
00000290: 5d05 093e 9e75 c4bc ab18 9abd d97d c8bd
000002a0: 459a 4c3b bec9 cabd 3d5b 96be f470 69be
000002b0: bbd7 f53d 5f30 673e 528a 8e3d 64c8 6bbe
000002c0: cc3b 42be d3fb 14bd e01b 063c 710e ccbb
000002d0: 1001 c33c 68b2 0f3e 03f4 39be ec24 70be
000002e0: 6bd0 3e3d 35e0 a0bd 8c75 90bc 099d 1abe
000002f0: 1d6d 953c cc33 de3d b1ed b1bc 7043 2bbe
00000300: 611e 85bd b595 ca3d 0f8a fbbc a141 93bc
00000310: b1d0 34be c7d3 303d c1c6 c4bd 67eb 3e3e
00000320: 3ce2 233e fd01 11be a2a0 ae3e 370a f8bd
00000330: 1913 bc3d 8040 1a3e 88d1 f53d 8745 8fbd
00000340: 00b4 97be e968 cc3e 682d fc3c 11bd b7bd
00000350: 7d78 16bc 635e e23e 2c15 0bbe 5df1 213e
00000360: 31b0 893e f106 c4bd 5dda 4ebe e408 25bd
00000370: 093d fa3d be46 03be c996 2a3e e26e b0bc
00000380: 9c00 743e 299a f53d b0af 8bbc f0bf 3cbe
00000390: 3e5c 983d ec62 973e c760 983e 9719 fa3d
000003a0: bbe7 3f3e afd2 75bc 85c5 34bd f2b0 813e
000003b0: abc3 183e 1f59 5f3d 1e1f c9bd 97e6 3a3d
000003c0: 8374 4f3d ba2a 4dbe 1514 ffbd 0278 a2bc
000003d0: 3aa9 7a3e 8239 00be cc31 a93e 85cb 0bbe
000003e0: dce2 993e d639 ffbd ee07 b13d 06c2 66be
000003f0: f347 96be 2677 2b3b 9e64 24be f607 1d3e
0.0912427 -0.03263754 0.1446914 0.1038573 -0.15622829 0.117030144 -0.23412599 -0.09481296
-0.21303552 -0.13848491 0.01651051 -0.09891225 0.005830574 0.32260686 -0.17755885 -0.020730833
0.33469203 -0.07025706 0.016448164 -0.25941262 -0.17281933 -0.10084652 0.08015615 -0.19841848
-0.10376598 -0.43656135 0.17441972 -0.1718125 0.12057807 0.36609948 -0.15049636 0.0103466865
0.22152603 -0.19804515 -0.11260115 -0.4548118 0.18663539 0.2725151 -0.038175195 0.17290676
0.20857853 -0.11556206 0.01104186 -0.19205037 -0.04776382 0.11078197 -0.105651684 0.21034798
-0.21303217 0.1886439 -0.20510656 0.22426982 -0.052631017 -0.24619885 -0.071211584 -0.004659282
0.07233349 -0.0076270094 0.025267372 -0.022952601 -0.0011014504 -0.026445799 0.2558441 0.12958552
-0.04229982 0.11305774 -0.3513117 0.10847476 -0.0053520864 -0.20237859 0.22802718 -0.03894713
-0.17920779 0.037165232 0.20232457 -0.066885196 7.796405e-06 -0.07069178 -0.009245633 0.09216355
-0.11619133 -0.025206722 0.054626998 0.27983832 0.062061477 -0.0045669214 -0.34584364 -0.12013476
-0.21537067 0.020008985 -0.0019173197 -0.13839334 0.1977919 -0.14431675 0.32331946 0.26284957
0.028904974 -0.1476354 -0.15612802 0.023214612 0.07115494 0.067446955 0.18647464 0.19651581
-0.11055763 -0.1506341 0.0921817 0.0685295 0.013538741 -0.115055166 -0.038671575 0.044560682
0.049324244 0.3377818 -0.28725255 0.41443995 0.13241784 0.32511434 -0.049791384 0.07995048
-0.2058059 -0.12388813 -0.30295736 -0.2878793 0.18313508 -0.34116158 0.21705426 0.050304897
-0.08640016 0.35781568 -0.13855338 0.32162324 -0.049021162 -0.2442476 -0.28601357 0.15357782
0.42095295 0.014311673 0.07542621 0.12716642 -0.10588873 0.0043728645 -0.15990053 0.115067355
-0.06512476 -0.12844956 -0.07214047 -0.24633825 0.30011356 -0.22905478 0.04544868 -0.097080186
-0.17016779 -0.3277126 -0.066398665 -0.29508063 0.0138076125 -0.15488875 0.10327393 -0.19309528
0.3237369 0.14324869 0.017538326 0.36908504 0.13380952 -0.023981865 -0.07524236 -0.097896285
0.0031219881 -0.099017605 -0.29366484 -0.22796994 0.12004038 0.22577046 0.06959976 -0.23025662
-0.18968123 -0.03637297 0.008185357 -0.0062273075 0.023804218 0.140329 -0.1815949 -0.23451585
0.04658548 -0.07855264 -0.017634176 -0.15098967 0.018240506 0.10849723 -0.021719785 -0.16724944
-0.06499935 0.098918356 -0.03070548 -0.01797563 -0.17657734 0.043170717 -0.09608222 0.18644486
0.1600427 -0.14160915 0.34106928 -0.12111323 0.0918333 0.15063667 0.120028555 -0.06995683
-0.29629517 0.3992379 0.03078337 -0.089716084 -0.009184 0.44212636 -0.13582295 0.15814729
0.26892236 -0.095716365 -0.20200486 -0.040291682 0.12218673 -0.12819955 0.16659082 -0.021537248
0.23828357 0.11992294 -0.017051548 -0.18432593 0.07439469 0.2956766 0.29761335 0.12211912
0.18740742 -0.015003844 -0.04413368 0.2533031 0.14918391 0.054528352 -0.09820388 0.045630064
0.050648224 -0.2003583 -0.12455002 -0.019832615 0.24478617 -0.12521937 0.33045805 -0.13651855
0.30055892 -0.12462203 0.086440906 -0.22534952 -0.29351768 0.0026163547 -0.16054007 0.15335068

feature.2.bias f4 [64]
00000000: 0000 0000 0000 0000 0000 0000 0000 0000
00000010: 0000 0000 0000 0000 0000 0000 0000 0000
00000020: 0000 0000 0000 0000 0000 0000 0000 0000
00000030: 0000 0000 0000 0000 0000 0000 0000 0000
00000040: 0000 0000 0000 0000 0000 0000 0000 0000
00000050: 0000 0000 0000 0000 0000 0000 0000 0000
00000060: 0000 0000 0000 0000 0000 0000 0000 0000
00000070: 0000 0000 0000 0000 0000 0000 0000 0000
00000080: 0000 0000 0000 0000 0000 0000 0000 0000
00000090: 0000 0000 0000 0000 0000 0000 0000 0000
000000a0: 0000 0000 0000 0000 0000 0000 0000 0000
000000b0: 0000 0000 0000 0000 0000 0000 0000 0000
000000c0: 0000 0000 0000 0000 0000 0000 0000 0000
000000d0: 0000 0000 0000 0000 0000 0000 0000 0000
000000e0: 0000 0000 0000 0000 0000 0000 0000 0000
000000f0: 0000 0000 0000 0000 0000 0000 0000 0000
0.0 0.0 0.0 0.0 0.0 0.0 0.0 0.0
0.0 0.0 0.0 0.0 0.0 0.0 0.0 0.0
0.0 0.0 0.0 0.0 0.0 0.0 0.0 0.0
0.0 0.0 0.0 0.0 0.0 0.0 0.0 0.0
0.0 0.0 0.0 0.0 0.0 0.0 0.0 0.0
0.0 0.0 0.0 0.0 0.0 0.0 0.0 0.0
0.0 0.0 0.0 0.0 0.0 0.0 0.0 0.0
0.0 0.0 0.0 0.0 0.0 0.0 0.0 0.0

policy_mean.weight f4 [7, 64]
00000000: 0c21 37be 635e b53e b410 3f3e b5d1 513e
00000010: cfe3 c4bd 9c31 7c3d a79f e53e dc54 96be
00000020: c271 0d3e d0ac 8d3d b806 38be fd3a 3e3e
00000030: fb20 21bd b68b d3bb b0ba 523c 1d91 7fbe
00000040: 219e 59bd 9031 10bd 778f cebd 3616 8abc
00000050: f0fb 9b3d 5498 6c3e 29e1 4c3e f748 963e
00000060: bcd6 853e 4b98 9d3e dcd6 2a3e d73c 0e3e
00000070: b035 fd3d 8193 28be 5cdf 24bc d97c 87bd
00000080: bddb 483d e9d3 1c3e ce73 6b3e a7e1 1b3e
00000090: af71 cfbd af7e 1e3d fe56 3a3d ea44 493a
000000a0: f9ec 243e 451b ed3d 7afc e63d 08cc 3ebc
000000b0: 0dee e13d d6da 71bd b18f edbc 149f 3d3e
000000c0: ad34 a6bd 3aa8 91be cbbd cabd baee f23c
000000d0: 1c33 72bd d34c 94bd 97b3 663e 7f28 c93d
000000e0: f3a5 8abe ffdf e63e e017 4abc 95ac 2dbe
000000f0: 36e4 9abe d9fb 923b af3d edbd daa0 74be
00000100: 934a 39bd 256d 993e 20ae 8abe 0935 87be
00000110: 3edd 3cbe b529 243e d58a 6a3d 9c54 113e
00000120: 384d 963b 5379 b93e cb90 e3be e007 ef3d
00000130: c7d6 a53b b93b 323c c2c7 143d fdd8 463e
00000140: 9a8c c0be ca1a 03be 57b3 12be 686d ff3c
00000150: e769 69bd 933b a93d 0139 d53d 124d c03c
00000160: f670 72be 1dd2 9abc c8ff 89bd 0a60 443e
00000170: beeb 383e a28c 2e3d 7b4d 993e a136 ef3d
00000180: 73d4 c0bd 8ada d63d aaf3 cfbe 329d 11bd
00000190: 4fc2 403e c841 4bbc 1b87 21be 9105 2cbe
000001a0: b762 633d b1b8 0cbd fcdd 573e e3a8 da3c
000001b0: a11e 24bd 2ce7 67bc e53a f0be 8ce6 573e
000001c0: f273 4d3e d383 183e 4134 f1bc 4b3b babc
000001d0: 3d21 72bc e0a8 a13e c14d 72bd 2207 86bd
000001e0: 55cf 0abd 0d97 38bc 5b12 8abe 686f 00be
000001f0: bf7e a23d ee4e 7d3a f39d 81bd b8eb 333d
00000200: 0e4c b2bc c5ab fc3c 6aee 873e d9c3 abbd
00000210: 106e 9cbd 81e9 edbd d044 853e f802 06bd
00000220: ee09 c73b d2bb a9bd 1efe a53e bb00 a43b
00000230: edd8 1bbc 82c4 73be 0dcc de3d df4d 75bd
00000240: d354 0a3c 54b9 153d 0dfb 70be 23fd 4b3d
00000250: deaa 3dbe b231 ee3d d527 96be 134e 9e3e
00000260: d787 873d caf6 afbe 8068 793e a1b9 7abe
00000270: 406c 66bd 00f7 1a3c a854 613e 1684 8fbe
00000280: 10a7 99bd 82d3 633e 87ea 8fbe 45ec cd3d
00000290: 8613 7b3e 11da 983d d2b1 373d b60d 623c
000002a0: 8668 443e 7397 183e 3872 7fbe 2364 b5be
000002b0: 64af cfbd d898 a33d 379e 4abe 8e7c e0bd
000002c0: 94c0 4dbe b562 ff3d ac13 603c a0e5 c2be
000002d0: 32d4 dbbc eec0 763e e490 01be ff49 dfbd
000002e0: 3882 0c3c 1445 403e e476 e63d 3474 35bd
000002f0: d0f7 1bbd 3ab4 a53d 19bc 2f3e ad47 963e
00000300: 63f5 7fbe 5608 753e 7f0c b13d bf02 a83d
00000310: 1d94 82bc 9aa6 14be 6a52 713b 6361 6dbd
00000320: 6700 cb3e c788 c53c d21f 933e 6bf5 c23d
00000330: 529e 63be db91 8cbd e8d6 02be 4e53 a73e
00000340: d39a 1abe c2fa 8d3e be14 743e 4194 a53d
00000350: 6058 113e 55a6 163d ead4 1b3e 5a56 f3bd
00000360: 7522 65bd 5864 5fbd 8a00 d0bd 7e69 533d
00000370: 6a15 bb3d 90bf ab3e 8eaf 43bd 0e4e 44be
00000380: 6c3b 583e f276 3abd 380c 8e3e 8e27 523e
00000390: 6ad8 5e3e 2296 b53d 9330 f4bd 82d1 cbbd
000003a0: fd0a 32be 542c 07be 6a96 36be aed6 e2bd
000003b0: 718f 6e3e f317 393e 0eda 0fbe 78de 8f3e
000003c0: 85c9 49be 39dd e9bd cd5a d8bd 541e 39be
000003d0: 47fb 133e 825e 8f3c f79d 59be 1e43 3dbe
000003e0: 2385 9b3e e186 23be 6e0c a1bd d78b 38bd
000003f0: 0a91 d63d f6af 273e a00b a4be 7eb4 2dbe
-0.178837 0.35423574 0.18658715 0.20490153 -0.096137635 0.06157075 0.44848368 -0.29361618
0.13812926 0.06917727 -0.17971313 0.1857719 -0.039338093 -0.006455864 0.012861893 -0.249577
-0.05312932 -0.035203516 -0.100859575 -0.016856294 0.07616413 0.23104984 0.20007767 0.29352543
0.26140392 0.30780253 0.16683525 0.13890396 0.12363756 -0.16462518 -0.010063019 -0.0661561
0.049037684 0.15315212 0.22993395 0.15222798 -0.10129105 0.038695034 0.04549312 0.00076778105
0.16106023 0.11577467 0.11278625 -0.0116453245 0.11031733 -0.05904659 -0.028999181 0.18517715
-0.08115516 -0.2844866 -0.098994814 0.02965485 -0.059130773 -0.072412156 0.22529446 0.09822177
-0.27079734 0.4509277 -0.012334794 -0.16960366 -0.30252236 0.004485589 -0.11584031 -0.23889485
-0.045237135 0.29966083 -0.27085972 -0.2640765 -0.18443772 0.16031535 0.057261307 0.14192432
0.004586842 0.36225376 -0.44446406 0.11671424 0.005061004 0.010878497 0.036323316 0.19418712
-0.3760727 -0.12803188 -0.14326225 0.031180099 -0.056985762 0.08263316 0.10411263 0.02347425
-0.23675904 -0.018899018 -0.067382395 0.19177261 0.18058679 0.042614587 0.29941925 0.116803415
-0.094155215 0.10490902 -0.40615588 -0.035550304 0.18824123 -0.01240582 -0.15774195 -0.16798998
0.055514064 -0.034355823 0.21080774 0.02669186 -0.040068273 -0.014154237 -0.46919933 0.2108404
0.20063761 0.14894037 -0.029443862 -0.022733351 -0.014778432 0.31574154 -0.059156183 -0.06544329
-0.033889133 -0.011266482 -0.2696713 -0.12542498 0.07934331 0.00096629455 -0.063289545 0.04392597
-0.021764781 0.030843625 0.26549083 -0.08386964 -0.0763818 -0.11616803 0.26029062 -0.032717675
0.0060741818 -0.08287777 0.3242044 0.00500497 -0.009512168 -0.2380543 0.10878763 -0.059888717
0.008443075 0.036553696 -0.23533268 0.049801957 -0.18522212 0.116305724 -0.29327264 0.3091894
0.06617706 -0.34367973 0.2435627 -0.24484874 -0.05625558 0.009458303 0.2200495 -0.2803046
-0.07502568 0.22248653 -0.28108618 0.100548305 0.24519166 0.07463468 0.044847317 0.013797214
0.19180498 0.14901523 -0.24945915 -0.3542796 -0.10140875 0.07988137 -0.19786917 -0.10961257
-0.20092994 0.12469999 0.013676565 -0.38065815 -0.026834581 0.24097034 -0.12652928 -0.109027855
0.008575968 0.18776351 0.11253145 -0.044300273 -0.03807813 0.08091016 0.17161597 0.2935156
-0.24995951 0.23928961 0.086449616 0.08203649 -0.015939767 -0.14516678 0.0036822804 -0.057954203
0.39648744 0.024113072 0.28735214 0.09519466 -0.22228363 -0.06863757 -0.12777293 0.32680744
-0.15098123 0.27730376 0.23836038 0.08084918 0.14193869 0.03677972 0.15217939 -0.11881705
-0.055941064 -0.054539055 -0.10156353 0.051614277 0.09134944 0.33544588 -0.047774844 -0.191704
0.21116418 -0.04552359 0.27743697 0.20522901 0.21762243 0.08866526 -0.11923327 -0.0995207
-0.17387004 -0.13200504 -0.17830816 -0.11076103 0.23296906 0.18075542 -0.14048025 0.28099418
-0.1970578 -0.11419148 -0.10564194 -0.18077976 0.14451323 0.01750112 -0.21251665 -0.18482634
0.30375013 -0.15969421 -0.07863699 -0.045055237 0.10476883 0.16375718 -0.3204012 -0.16963384

policy_mean.bias f4 [7]
00000000: 0000 0000 0000 0000 0000 0000 0000 0000
00000010: 0000 0000 0000 0000 0000 0000
0.0 0.0 0.0 0.0 0.0 0.0 0.0

value_head.weight f4 [1, 64]
00000000: 24e3 493d b99a 8abe 6ba5 39bd 7e5f 223d
00000010: ac89 d63d f502 e5bd 87e8 283e bf22 5fbd
00000020: ba51 c63c bfe5 54be 79e7 f63d 09da a03d
00000030: e08c b73e e464 4bbe be7b 94be 6120 ba3c
00000040: ce1d 543d a0de 7dbd 7a72 15be ef46 41be
00000050: a523 ab3d 8952 c6bd dc7b 163e ec92 753e
00000060: 971b e73d e95e 35be a51f 11be a037 343d
00000070: 2fce 7fbe 64bf 8b3d c9d7 e93d b7db 47bd
00000080: e7cd b0bc 80cc 26be bf65 c63d c8ef 713e
00000090: 5602 75bd 790d 27bd d1a9 cbbd 6b6e 55be
000000a0: 409e fb3d ba4d 49bc c076 cabe 3d28 093f
000000b0: 3b84 bb3d 6216 2e3e 9625 0abe f7e7 7cbd
000000c0: 0c46 7ebe 06a9 06be c093 aebd b73b 6fbd
000000d0: e088 ccbe 1f81 ed3d ce47 af3c f1df a7bc
000000e0: 8c4d 8dbe 3389 0cbe 0101 22be 0def 1ebc
000000f0: 146d 803e 4d54 5abe ec2e 1cbe ca4c 773e
0.049288884 -0.2707117 -0.04532377 0.03964185 0.104754776 -0.11182205 0.16494952 -0.054476496
0.024208892 -0.20790766 0.12055869 0.07854087 0.35849667 -0.19862705 -0.29000658 0.022720518
0.051786236 -0.06197989 -0.1459445 -0.18874715 0.08356408 -0.09683711 0.14695686 0.23981827
0.11284559 -0.17711987 -0.14172228 0.04399836 -0.24980997 0.06823614 0.11418111 -0.04879352
-0.021582557 -0.16288948 0.09687375 0.23626626 -0.05981668 -0.040784333 -0.09944499 -0.20842902
0.12286043 -0.012286598 -0.39543724 0.53577024 0.0915608 0.17000726 -0.134909 -0.061744656
-0.24831408 -0.13150415 -0.08524275 -0.058406558 -0.39948177 0.115968935 0.021396544 -0.020492526
-0.27598226 -0.13724212 -0.15820695 -0.009700549 0.2508322 -0.2132122 -0.15252274 0.24150386
