models/checkpoint_1200.pth (torch, 84010 bytes, 24 tensors)

policy_log_std f4 [7]
000000 d3 bd 6e 3f 9d 1e a6 3f 02 40 a8 3f 9b f0 ac 3f
       0.932584 1.2978092 1.3144534 1.3510927
000010 23 df a2 3f cd f7 6c 3f 19 55 b2 3f
       1.2724346 0.92565614 1.393222

fc1.weight f4 [64, 21]
000000 3e 8f b4 3c 7a 23 20 3d 94 1a 2d be 9d 9f c5 3c
       0.02204096 0.039096333 -0.1690467 0.024123961
000010 ac 0b 86 3e 60 76 4f be 3f b6 42 3e ed ee 0e bd
       0.2618078 -0.2026 0.19014834 -0.034895826
000020 f3 dc 25 be 70 57 8c bd 82 e1 d5 bc 50 16 5c bc
       -0.16197567 -0.06852615 -0.026108507 -0.013433054
000030 85 d9 5c be 26 55 76 3d 5f 0a 31 be 3c 9a 9e bd
       -0.21567352 0.060139798 -0.17289113 -0.077442616
000040 d3 a5 fb bd f7 d9 f2 bc b2 45 1b 3e 79 f8 9a bd
       -0.12287488 -0.02964495 0.15163305 -0.07566924
000050 85 a0 70 bb c3 ef 5a 3c 6d a3 37 bc 8e ba 4d be
       -0.003671677 0.013362828 -0.011208397 -0.20090696
000060 c3 ea 6a 3e 99 86 d5 bb 41 ed ae bc 71 30 0b bd
       0.22941117 -0.0065162894 -0.021353366 -0.033981744
000070 0a 56 20 3c 8a 43 4f 3c ca 4a fa 3c 08 72 33 3e
       0.009786138 0.01265038 0.03055324 0.17523968
000080 ac e8 1e 3d 23 13 06 be fa 02 18 be 45 e7 42 3e
       0.038796112 -0.13093238 -0.14844885 0.19033535
000090 3a f6 ef 3d 12 aa fd 3d 6c a2 33 be ca 98 1d be
       0.11716886 0.12385954 -0.17542428 -0.15390316
0000a0 25 ec f2 3c 5d 7d 8f 3d c7 99 1e 3e 93 e4 3f be
       0.029653618 0.07006333 0.15488349 -0.18739538
0000b0 41 92 d4 3d c2 4e 80 3e ba 25 3f 3e 22 45 5d 3d
       0.10379458 0.25060087 0.18666735 0.05402101
0000c0 3f b5 e1 bd 21 6b 4d 3e c5 18 5b bd d3 0e 04 3e
       -0.11020898 0.20060398 -0.05349042 0.1289628
0000d0 7b 7f 2f be 0d 9e 12 be 87 35 ee ba 15 c7 0b 3c
       -0.17138474 -0.14318104 -0.0018173911 0.008531352
0000e0 28 3b ea 3c 3e ae 9c 3d 32 1d df 3d 22 22 3f 3d
       0.028592661 0.076504216 0.108942404 0.04666341
0000f0 84 41 68 bd 71 60 20 bd 7a 48 9b 3e 3c 57 e3 3d
       -0.056703106 -0.039154474 0.30328733 0.11100623
000100 a1 f9 de 3c 5c 57 88 3e fb 38 54 be 34 c0 aa 3d
       0.027218642 0.2662915 -0.20724861 0.08337441
000110 0a d1 00 3e 4e 88 d9 3c 79 c2 3a bc d2 ff 31 bc
       0.12579742 0.026554253 -0.011398905 -0.010864215
000120 8c c9 e0 bd e6 d8 6f be ec 1b 6f bd 73 2b 2d be
       -0.10975942 -0.23422584 -0.058376238 -0.16911106
000130 2f aa 79 bd f0 5f 28 be 08 c5 8e bc de bd 41 be
       -0.060953315 -0.16442847 -0.017427936 -0.18920085
000140 c5 99 3e 3e 71 5f 11 be ed b2 29 bd 58 05 b5 3d
       0.18613346 -0.14196564 -0.041430403 0.0883891
000150 5c bc e9 bc 0a 0d 2b 3e 25 c9 1f be ed 4e 55 3d
       -0.0285322 0.16704193 -0.15604074 0.052077223
000160 01 e1 1d 3e 1d f1 05 be a0 6d 80 3e a7 91 29 bd
       0.15417863 -0.13080259 0.25083637 -0.04139867
000170 e1 bf de 3d be 38 1b be c0 6f 54 3d 98 fe 2c be
       0.10876442 -0.15158364 0.051864386 -0.16893995
000180 eb d4 7a 3d cb f2 84 3d 17 1d 2f 3e f4 96 7f 3d
       0.06123821 0.064916216 0.1710094 0.06239982
000190 a2 05 92 3d a2 43 00 be 2b a0 f7 bb 57 91 7f 3d
       0.071299806 -0.125258 -0.0075569353 0.062394466
0001a0 fe 97 41 3d 28 64 03 3e 98 0b 1b be 70 76 8d 3c
       0.04726409 0.12831175 -0.15141141 0.01726839
0001b0 74 64 96 be c1 8a ff 3d cc ee 15 3d 3c fc 14 3e
       -0.29373515 0.12477637 0.036604688 0.14549345
0001c0 21 62 41 3d 16 c3 98 3d 1a f0 82 bd f7 dc 42 3e
       0.047212724 0.07459085 -0.06393452 0.19029604
0001d0 4e b4 86 bd 84 c0 1d be 35 84 11 bd 3c 6f c0 bd
       -0.06577359 -0.1540547 -0.035526473 -0.09396216
0001e0 81 32 2a be d6 90 b3 3d d6 36 8c bd f7 20 eb bc
       -0.16620828 0.0876786 -0.068463966 -0.028702242
0001f0 4f 08 87 3d 96 c1 4f be f3 8c 87 be 93 73 44 be
       0.065933816 -0.20288691 -0.26474723 -0.19184713
000200 a4 14 cb 3d 37 92 99 bc ac 69 18 3e 68 a1 68 be
       0.09916046 -0.018746478 0.1488406 -0.22717822
000210 88 ff 70 3d a6 b2 bc bb 3f 66 d5 bd fb 09 54 be
       0.058837444 -0.0057586012 -0.104198925 -0.20706932
000220 42 32 25 3d ae 41 aa 3d d1 eb f6 bc e3 c0 d9 3d
       0.040331133 0.08313309 -0.030141743 0.10632493
000230 28 53 32 bd f8 3f 60 bd f7 8b 44 be 9a a9 66 be
       -0.043536335 -0.054748505 -0.19194017 -0.22525635
000240 55 72 75 3e 2d 49 10 be 03 80 ba 3c a6 42 0d be
       0.23969395 -0.14090414 0.022766119 -0.13794956
000250 59 a9 03 be cb 9b f3 bc 2d 0f 2f be 4d 78 93 bd
       -0.1285757 -0.029737374 -0.17095633 -0.0720068
000260 19 f5 09 3c 8f 62 8e be e4 3c 7b be d0 54 07 3c
       0.008420252 -0.2780957 -0.24534947 0.008259967
000270 ab df 42 be de 03 34 3e 56 0b 59 be 2f da 8f 3d
       -0.19030635 0.175796 -0.2119573 0.07024037
000280 27 87 86 bd e8 2b 70 bd 9c 34 4c 3d dc 6d d5 bd
       -0.06568747 -0.058635622 0.04985486 -0.10421345
000290 c6 5a d2 3d 0a 67 49 be 25 02 7b 3e 2b b4 22 3c
       0.1027122 -0.19668213 0.24512537 0.009930651
0002a0 12 95 be bd 24 c2 5e 3d de 61 87 bd c7 5f 86 3d
       -0.09305777 0.054384366 -0.066104636 0.06561237
0002b0 8e 18 a5 bb 67 18 8a 3d fd 15 cb 3e 23 61 d5 3d
       -0.0050383275 0.06742936 0.39665213 0.10418918
0002c0 d3 61 c1 bc 67 e9 1e bc a6 38 3c 3e 10 77 0c be
       -0.023606217 -0.009699202 0.18380985 -0.13717294
0002d0 ab 2d b2 bd 90 f3 61 be 18 b0 07 bd 49 be 22 3e
       -0.08700117 -0.22065568 -0.03312692 0.158929
0002e0 5e 0a d9 bd 98 f3 ca bc 69 4c 4f be 5b c4 84 bd
       -0.105976805 -0.024774358 -0.20243992 -0.06482764
0002f0 2a fe 20 be 3f 40 22 be ae 32 8a 3d 09 a9 e6 bc
       -0.15721956 -0.1584482 0.06747948 -0.028156774
000300 df 17 2f be 6d b8 03 3e b7 b3 68 3e 26 3d ae 3d
       -0.1709895 0.12863322 0.22724806 0.08507757
000310 b7 b7 b3 bc 95 96 3a 3e af b8 69 3d 20 e5 4b be
       -0.021938188 0.18221505 0.057060894 -0.19911623
000320 f2 8b ac 3d 11 0c 5b be b7 d7 cb 3d 8c d6 0e 3d
       0.0842513 -0.21391322 0.09953254 0.034872577
000330 7d 37 28 be 28 47 3a be c3 50 c9 bd 1d f1 fa 3d
       -0.16427417 -0.18191206 -0.09829857 0.1225302
000340 19 c2 4d 3e b9 f9 91 3d c1 7b 40 3d 64 32 80 be
       0.20093574 0.07127709 0.04699302 -0.25038445
000350 49 2e 70 be 44 b0 05 3e df a5 27 3e 6d a1 2a 3e
       -0.23455156 0.13055521 0.16371869 0.16663142
000360 7f b4 8c 3a 20 67 99 3d d5 f1 41 be 3f 2d 6f be
       0.0010734944 0.07490373 -0.18939908 -0.23357104
000370 4f 4d ad bc 48 f6 91 bd 0c d9 a1 3c c4 a8 58 be
       -0.021155028 -0.071270525 0.019756816 -0.21158129
000380 d7 a4 d8 bd 81 14 35 be 9a 4e b7 bd df ef 32 be
       -0.10578316 -0.17683603 -0.08950539 -0.17474316
000390 35 88 76 bd fe 38 c9 3e 2a 89 22 be e4 15 b8 3d
       -0.06018849 0.39301294 -0.15872636 0.0898855
0003a0 59 9c b5 3c fe 0a 13 be c0 e0 07 3e 0e 60 a5 bd
       0.022169279 -0.14359662 0.13269329 -0.080749616
0003b0 f1 34 9a bd b0 f6 a8 3e ff de 88 bd 04 21 0a be
       -0.07529629 0.33000708 -0.06683158 -0.13489157
0003c0 8f 09 50 be 34 a1 22 be 25 df 27 3e 29 f0 10 be
       -0.20316146 -0.15881807 0.16393717 -0.14154114
0003d0 6c 2b fe 3d 85 2d 31 3e 58 02 0f be 0b 7b 24 3e
       0.12410626 0.1730252 -0.13965738 0.16062562
0003e0 04 7a 55 3d ec 70 32 3e 57 58 03 be ec e2 4d bc
       0.052118316 0.17425889 -0.12826668 -0.012566309
0003f0 be 24 b7 3d 80 dc 4b 3d bc f0 85 be 4e e2 5f bd
       0.08942555 0.049770832 -0.26160228 -0.05465918

fc1.bias f4 [64]
000000 af b6 a2 ba 32 ff 89 bd 3d f7 d5 bd ea 16 18 3e
       -0.0012414063 -0.06738128 -0.104475476 0.14852491
000010 7f f1 b1 bc 71 2d ed 3d 65 05 5c be 33 3b ca 3d
       -0.0217216 0.11580933 -0.21486433 0.098745726
000020 a8 6d 70 bd 29 aa 58 be 81 3b e2 bd a3 76 42 be
       -0.058698326 -0.21158661 -0.11046506 -0.18990569
000030 b1 24 08 3e 38 40 10 be ba 5d ea bd 7a a4 f1 bd
       0.13295247 -0.14086998 -0.11443658 -0.117989495
000040 5c 64 65 bd a8 b4 0d 3e 18 49 40 be 11 8d 51 3d
       -0.056003913 0.13838446 -0.18777883 0.051159922
000050 30 16 0a 3e a6 47 22 be f0 03 60 3d 81 12 ce 3d
       0.13485026 -0.15847644 0.054691255 0.10062123
000060 cd b0 cd bd ba 4e 46 3e 2e 1d 03 3d b5 24 1a 3e
       -0.10043488 0.1936597 0.03201025 0.15053065
000070 03 b2 58 be 3f b3 4b be 03 6c 96 3d 51 b7 05 3e
       -0.21161656 -0.19892596 0.0734482 0.13058211
000080 ec 8d 44 3e cf 8a 79 be a4 35 21 3a c8 8d 4b be
       0.19194764 -0.24369358 0.00061496557 -0.19878304
000090 a1 b2 32 be 4f 0b 9c bd 7f 68 93 3d 36 cd 0c 3e
       -0.17450954 -0.076193444 0.071976654 0.13750157
0000a0 70 b2 9b bd 27 7c f4 3d 40 f8 26 be f9 31 58 3e
       -0.076023936 0.11937743 -0.16305637 0.21112813
0000b0 93 a2 fa 3d 7d c5 12 bd 72 c6 25 be 15 17 16 3e
       0.1223804 -0.03583287 -0.16188982 0.14657243
0000c0 29 60 e2 bb 5b 83 33 b8 e3 08 04 be 0a b1 43 3d
       -0.006908436 -4.279926e-05 -0.12894015 0.04777626
0000d0 4f 90 32 3e 1c b5 e8 bc 0e c5 f2 bd a7 9c 5b 3e
       0.17437862 -0.028406672 -0.118539914 0.21446477
0000e0 75 e1 09 3c 4b 82 5f 3e 91 dc 4f 3d 05 26 8b 3c
       0.00841557 0.21827047 0.050747458 0.016985903
0000f0 26 d9 2a 3e 5d b2 45 be 65 b1 a6 bc 6b 32 5f 3d
       0.16684398 -0.19306321 -0.02034826 0.05449144

fc2.weight f4 [64, 64]
000000 8b 3a 83 bc 23 e2 bd 3c a9 13 9b 3d 31 5f 08 bd
       -0.016019126 0.02317912 0.07572109 -0.033293907
000010 5b 6c db bd 09 23 b3 3d 27 80 14 3d 94 65 b0 3e
       -0.107140265 0.08746917 0.036255028 0.34452498
000020 e8 c0 20 bd 29 b0 9f 3d 5e a5 4f bd 52 25 7e be
       -0.03924647 0.07797272 -0.050694816 -0.24818924
000030 a3 28 4c be 8e a3 4e bd 36 ba 8c bd be 5f 75 3d
       -0.19937377 -0.050448947 -0.068714544 0.05990576
000040 77 97 0a 3d 4c 9e 55 3d 29 f2 54 be cb 54 cc bd
       0.033835854 0.052152917 -0.20795502 -0.099771105
000050 ee 7e 3f bd f0 a3 bd bd 53 c4 af bd cc fa 70 bd
       -0.04675191 -0.09259784 -0.08582368 -0.05883293
000060 e7 c7 36 3d 2a 04 0a 3e 09 99 05 3d 0a 0c ea bc
       0.044624235 0.13478151 0.03261665 -0.028570194
000070 7f 44 b9 3d 1c ca 35 bc 84 d7 a8 3d 9c c7 cd 3d
       0.09046268 -0.01109555 0.08244231 0.10047838
000080 27 5f e4 3d 21 a0 40 be 8b ff d4 bd c1 b8 42 3d
       0.11150961 -0.18811084 -0.104003035 0.047539476
000090 a7 df 6e 3d 38 63 1f 3e 05 df 35 be 66 ed 80 3b
       0.05831876 0.15565193 -0.17760856 0.00393455
0000a0 e4 f1 14 be 82 82 13 bd 8c ab 47 be 7a 5b 8d 3d
       -0.14545399 -0.036013134 -0.19499034 0.069022134
0000b0 f9 dc 8e bc c7 79 cc 38 d7 49 e3 bc 9a 67 b4 bc
       -0.017439352 9.750161e-05 -0.02774517 -0.022022057
0000c0 1c 94 ac bd d9 c0 3d 3e 24 77 1f 3e e6 16 18 be
       -0.08426687 0.18530597 0.15572792 -0.14852485
0000d0 0d c5 18 bc 0b 67 37 3e 9a 49 01 3d 64 41 06 3e
       -0.009324324 0.17910402 0.031564333 0.13110882
0000e0 23 32 61 be e6 41 5b bd 0f 61 aa be 2c 73 78 3c
       -0.21991782 -0.053529643 -0.33277175 0.015164178
0000f0 30 8f 8f bd 31 88 98 bd 73 a7 be bd 71 c8 70 3e
       -0.07009733 -0.074478514 -0.09309282 0.23513962
000100 20 ae 1c be 94 d8 d0 bd 86 ee d5 bd c8 71 bf 3d
       -0.15300798 -0.10197559 -0.10445885 0.09347874
000110 83 03 cd ba 22 d9 ac bc 29 29 ca 3d 1b fa 34 3e
       -0.0015641305 -0.02109963 0.09871132 0.17673533
000120 67 d5 36 be a3 94 d6 bc 93 99 c0 3c 0f 07 b2 be
       -0.17854844 -0.026193922 0.02351073 -0.3477101
000130 bc 93 4e be 8e c7 92 be 4c 08 c6 bd 81 43 d4 bd
       -0.20173544 -0.28667873 -0.09669551 -0.10364438
000140 fa cd 09 3e b6 86 b6 bd a4 24 21 be 86 fb 29 3c
       0.1345748 -0.08912413 -0.15736634 0.010374909
000150 a1 82 a6 3d b6 19 31 be a8 fc ac bd 95 bd c5 bd
       0.08130384 -0.17294964 -0.08446628 -0.096553005
000160 2b 26 a7 39 ca a2 53 3d 8c bf 72 3d 34 f0 89 3d
       0.0003188116 0.05166892 0.059264705 0.06735268
000170 89 81 5d 3e e7 d7 00 3c 4c 63 04 3d a6 47 11 3e
       0.21631445 0.007863975 0.03232126 0.14187488
000180 3a 07 0d 3e f8 48 41 be 36 0d 90 3d 17 b9 36 be
       0.13772288 -0.18875492 0.0703377 -0.17844044
000190 43 e6 9f bd 9c f3 45 bd 60 8e 97 bd 1b 55 02 3c
       -0.07807591 -0.048328027 -0.07400203 0.007954861
0001a0 3b 58 be 3b fa d6 60 bd 5e 08 8c 3c 17 ca 89 3d
       0.0058088577 -0.054892518 0.017093834 0.06727999
0001b0 ca 4e f7 3c 35 98 11 3e 3d 74 98 3d c7 fe 6a 3d
       0.030188937 0.14218219 0.07444046 0.05737188
0001c0 76 83 97 be 1a 33 94 3d 4d 83 33 3e 9d f4 24 bd
       -0.29592484 0.07236309 0.17530556 -0.040272344
0001d0 ba fd b3 3d 4c bf c1 3b f5 1d 0c 3e e8 45 8a 3d
       0.08788629 0.005912697 0.13683303 0.06751615
0001e0 80 59 7a bd ba f6 dc 3d c3 b1 61 be ff 35 c5 bd
       -0.06112051 0.10789247 -0.22040467 -0.096294396
0001f0 72 f8 98 3c cf 91 3a bd f4 8e 4e bd a6 3c 41 3d
       0.018673155 -0.04554921 -0.0504293 0.04717698
000200 05 8a f3 3d 2a 7b 20 3e 57 ee 05 3e bd b8 26 bd
       0.118915595 0.15671983 0.130792 -0.040703524
000210 2b d5 83 3d 53 33 52 bd 64 0e 56 3d 79 de 05 be
       0.06437143 -0.051318478 0.052259818 -0.13073148
000220 01 d5 29 3d 12 c8 1a be 3e 81 5e 3d 9a 7f b3 3d
       0.041462902 -0.15115383 0.054322474 0.087645724
000230 02 82 5d 3d 67 5e 6f 3e 95 5a d7 3d 6d d5 32 3d
       0.054079063 0.23375855 0.10515324 0.04366057
000240 74 cd 99 be 58 cf 5e bd c9 07 ec ba bd 4a 80 bb
       -0.3003956 -0.054396957 -0.0018007691 -0.0039151595
000250 b4 bc ea 3d ee b8 22 3e d6 b3 c2 3c 3e 9a fc 3d
       0.114617735 0.15890858 0.023767393 0.12334107
000260 da 3d 48 bd 11 c2 86 3d d9 34 14 3e 7a 43 75 bd
       -0.04888711 0.06579984 0.14473285 -0.059878804
000270 ae e8 34 be f7 a7 07 be 2e 9f 0b be 4e 55 1b bd
       -0.17666885 -0.13247667 -0.13634941 -0.03792315
000280 61 b3 8a 3d b6 51 a2 3c a8 03 72 3c 87 24 18 3d
       0.06772495 0.019814353 0.0147713795 0.03714421
000290 ee c9 a3 bd 47 cd e9 3b 0b ba fd 3d 3e e5 78 3c
       -0.079974994 0.0071350667 0.123890005 0.015191374
0002a0 af d3 4a 3d 8f e6 10 be ae 24 d9 3d f6 c8 16 be
       0.049518283 -0.14150451 0.10602699 -0.14725098
0002b0 82 56 02 be db 0c 4d bd 8e 95 58 3d 13 ff 07 be
       -0.12728313 -0.050061088 0.052877 -0.13280897
0002c0 3a a0 9c 3e 85 5f 2d be e8 34 d3 bd 1d ee 7d 3d
       0.30590993 -0.16930969 -0.103128254 0.06199466
0002d0 c7 2d 35 bc 51 3d 3f be 73 08 c5 bd 03 be 94 bd
       -0.011058277 -0.18675734 -0.09620752 -0.07262804
0002e0 16 c5 90 3c d0 82 1e be ed 66 47 3e 3b dd de 3c
       0.017672103 -0.15479589 0.19472857 0.0272051
0002f0 d3 f5 71 bb 00 ef 41 bd b5 fd a8 3b 0d 28 4e be
       -0.0036920204 -0.04734707 0.0051571974 -0.20132466
000300 ff 53 31 3d f1 66 14 be 15 38 ac bd 33 ea 4b 3d
       0.043292996 -0.14492394 -0.08409134 0.049783897
000310 22 42 12 be c9 25 0c 3d f4 b8 0b 3d 97 1b 27 3e
       -0.1428304 0.034215722 0.034111932 0.16319118
000320 df 58 46 be 45 2e 27 bd 35 ef 0d be 8c 3f 93 be
       -0.19369839 -0.04081561 -0.13860781 -0.2875942
000330 b9 b0 54 be 12 0a e9 bd 75 40 27 be a7 77 0f be
       -0.2077054 -0.11378874 -0.16333182 -0.14010487
000340 58 1d a0 3d 21 c4 d1 3d 21 30 5a be ef 00 15 3d
       0.07818097 0.10242487 -0.21307422 0.036377843
000350 95 2e 99 bd 95 33 ff bd 7f 66 91 bd 3e 97 a6 bd
       -0.07479588 -0.1246101 -0.07099628 -0.08134316
000360 35 7c 59 bd 2f 71 a4 3d 68 ae 90 3d 8a 72 01 3c
       -0.05309697 0.080294006 0.07064515 0.007900843
000370 5f b9 2d 3e 87 6f ca 3d b9 48 be bc d3 ba d8 3d
       0.16965245 0.098845534 -0.023228036 0.10582509
000380 b0 91 04 3e 56 2b 9b bd eb ed 02 be 6f 45 0e be
       0.129462 -0.07576625 -0.12786071 -0.13893674
000390 41 15 47 3d 6e e5 30 3d e5 b8 a3 bc 6f 90 ca bb
       0.048604254 0.04318755 -0.019985626 -0.0061817686
0003a0 2f 19 94 3c 7f bc 5d bc f6 21 b8 bc ea 98 41 bd
       0.018078415 -0.0135337105 -0.022477131 -0.04726497
0003b0 29 30 27 3e 07 4f e9 bc 00 23 f4 bd 4c fb 3c bd
       0.16326965 -0.028480066 -0.11920738 -0.046138093
0003c0 0f cd 17 be e0 f6 f7 3b a0 14 6e 3e 59 69 8f bd
       -0.14824317 0.0075672716 0.23250055 -0.07002515
0003d0 26 7a 6b 3d e2 2e 5a 3e eb 97 4c 3e 28 f1 44 3e
       0.057489537 0.21306947 0.19979827 0.19232619
0003e0 1f 2e 1b be d2 39 26 3e 34 13 c4 be db 0c da bb
       -0.15154313 0.16232994 -0.382959 -0.0066543645
0003f0 53 05 1d 3e 37 86 16 3d 2f 45 c8 bd f5 a1 2e 3e
       0.15334062 0.03674909 -0.09778821 0.17053969

fc2.bias f4 [64]
000000 95 c1 18 3e 8c 59 d3 bc 8b 5c 68 bd 05 a6 ec 3d
       0.14917596 -0.025799535 -0.05672888 0.11555103
000010 7b fa 08 3e 5e 2e 9a 3d d1 54 79 bd ba e2 bc 3c
       0.133768 0.07528375 -0.060871903 0.02305733
000020 23 fe be 3d b6 02 0f be 4f 28 d5 bd bb c1 14 be
       0.093258165 -0.13965878 -0.10408079 -0.14527027
000030 6d c8 d2 bd 3f f5 00 bc fd 5e b0 3d 85 37 cd bc
       -0.102921344 -0.007870971 0.086118676 -0.025050888
000040 76 1b 82 3d ff 91 0c bd 49 f3 93 3d 3d dc 19 bd
       0.06352894 -0.03431892 0.07224137 -0.03756355
000050 cc a5 00 3e e5 5d 2a 3d e8 7e 25 3e 17 f3 fc bd
       0.12563246 0.04159345 0.16161692 -0.12351053
000060 5b 87 2a be 7e 37 2e be 8e 7f e4 3d b4 4a 99 bd
       -0.16653197 -0.17013356 0.111571416 -0.074849516
000070 39 68 fd 3d 6f d8 c4 bd ee 09 52 bc 3d a7 41 bd
       0.123733945 -0.09611594 -0.01281975 -0.04727863
000080 9e 06 86 bd bb 0b 10 3d c0 69 ef 3d 59 57 36 3d
       -0.06544231 0.035167437 0.11690092 0.044516895
000090 89 bd 0a 3e ea b5 1e be 13 3d 3c be a2 48 85 3d
       0.13548864 -0.15499082 -0.18382673 0.06507994
0000a0 73 78 18 3e f1 60 b3 bd c6 2f 07 be 8d dc 09 3e
       0.14889698 -0.087587245 -0.13201818 0.1346304
0000b0 cb 5d 09 3e f5 7c 0f bd 5b 21 2c 3e 83 81 c8 bd
       0.13414685 -0.035031278 0.16809599 -0.097903274
0000c0 fb d6 bc 3c 99 04 bf 3d 36 71 96 bd f4 68 ea 3c
       0.02305173 0.09327049 -0.07345812 0.028614499
0000d0 1e 99 5f 3d 2c 22 e3 3d b9 93 a4 3d 03 86 bb bd
       0.054589383 0.11090502 0.08035988 -0.0915642
0000e0 ff 75 74 3c bf 93 80 3d ad 48 5d 3d d1 48 a1 3d
       0.014920711 0.0627818 0.054024387 0.07875217
0000f0 24 1d 07 3b d2 42 f1 3c b7 e1 79 bc 15 8f 92 3d
       0.0020616734 0.029450808 -0.0152515685 0.07156197

policy_mean.weight f4 [7, 64]
000000 cf 2e db 3d 1e f6 a4 3d fd 9c 1c be 00 e4 08 3e
       0.107022874 0.08054756 -0.15294261 0.13368225
000010 55 11 49 3e 96 05 f2 3d d0 d3 48 3e 28 80 06 3e
       0.19635518 0.11817472 0.1961205 0.13134825
000020 2b 16 82 3e b7 0a ca bd 89 6d 02 be e8 cd 34 be
       0.25407538 -0.09865325 -0.12737097 -0.17656672
000030 6b bd e5 bd 2b 2b e1 3d 27 f3 1a 3e 93 71 20 bb
       -0.11217769 0.10994562 0.15131818 -0.0024481758
000040 10 6e 47 be 4c e6 56 be fb e9 31 3e 68 85 39 3c
       -0.1947558 -0.20986289 0.17374413 0.01132331
000050 d5 a8 cd 3d e2 20 55 be b1 ac c9 3d e6 a8 25 bd
       0.10041968 -0.20813325 0.098473914 -0.040444277
000060 a5 2c 2c be bc d3 b5 bd 74 2f ba 3d a5 55 7f b9
       -0.16813906 -0.08878276 0.09091082 -0.000243506
000070 df 13 59 3e 4e d8 04 bc 51 1c 0c 3e 24 f5 56 3e
       0.21198986 -0.008108212 0.13682677 0.20991951
000080 72 e4 79 bd 01 d2 44 be 05 15 e1 3d ce d4 6e be
       -0.061008878 -0.19220735 0.10990337 -0.23323366
000090 50 b3 40 3e e6 65 30 be db 64 f3 bd a6 31 02 be
       0.18818402 -0.17226371 -0.11884471 -0.12714252
0000a0 ff 4c 0b 3e b9 32 64 3d ef d6 da bc 60 11 55 3e
       0.1360359 0.055712435 -0.026713816 0.2080741
0000b0 46 32 30 3e 30 4c 1b be 73 f9 09 3e 95 d3 d3 3d
       0.17206678 -0.15165782 0.13474064 0.103430904
0000c0 24 25 9d bd 01 73 c6 3d 96 02 96 3d f9 e9 e4 3d
       -0.076731 0.09689904 0.07324712 0.11177439
0000d0 b0 a7 83 bd 6d 27 85 bd 0f 72 c7 bd 1d b1 ab bc
       -0.06428468 -0.065016605 -0.09738552 -0.020958478
0000e0 17 89 55 3c 55 e9 f4 3d 81 f7 85 bd e7 9e 5a 3e
       0.013033173 0.11958567 -0.06541348 0.21349679
0000f0 64 78 18 3d 34 9b 1e be eb 7d 31 3e b9 b0 18 3e
       0.03722419 -0.15488893 0.1733319 0.14911164
000100 0f 8b 6e be 6a 8f 80 bd 96 07 4a 3e f7 cd 47 be
       -0.23295234 -0.06277354 0.19729456 -0.19512163
000110 75 c6 b3 bd 6b 6e dc 3c 8c bc 51 be a5 d8 9a 3d
       -0.08778087 0.02690812 -0.20482081 0.07560853
000120 ea ae 0a be c4 3b 15 3e a4 d0 41 3d c0 e2 31 3e
       -0.13543287 0.1457358 0.047318116 0.17371655
000130 43 92 d2 bc b8 2d 85 3d ec ba 98 3d 48 71 01 be
       -0.025704509 0.06502861 0.074575275 -0.1264087
000140 d9 f5 4e 3e a7 84 37 3e 2d 40 18 be 2b e0 d4 3c
       0.20210971 0.17921697 -0.14868231 0.025985798
000150 7e 35 61 bc 72 04 9d 3d 71 93 3b be 56 3c 32 3e
       -0.013745664 0.076668635 -0.18317963 0.17405829
000160 a5 da 02 3e cf 23 3f 3e 24 a9 7c 3d b7 ef d7 bc
       0.12778719 0.18666004 0.061684743 -0.026359422
000170 71 80 de bd d7 8a f2 3d 2d 88 de 3a fb 7a 4f bd
       -0.10864342 0.11842888 0.0016977839 -0.050654393
000180 2b b8 b2 3c 42 ed 26 3d bd d5 24 bd fe 36 8c 3e
       0.021816334 0.04075361 -0.0402429 0.27385706
000190 04 46 2e be 63 9e 75 bd 68 e7 f7 3d d0 5e 0c 3c
       -0.17018896 -0.059965502 0.12104684 0.008567527
0001a0 ed 31 aa bd e9 14 3b be 29 98 31 3e 91 35 79 be
       -0.08310304 -0.18269695 0.173432 -0.2433684
0001b0 a5 69 29 be b9 d7 8b bc 0b c0 2d be 22 2d c5 bd
       -0.16544206 -0.017070638 -0.1696779 -0.09627749
0001c0 bd 7f 17 3e e4 dc 2c be e9 58 0e bd 39 24 6d bd
       0.14794822 -0.16881138 -0.03475276 -0.057895873
0001d0 5c c9 23 be 1c 6b aa 3c 5f bf d0 3d ff 1e 96 3d
       -0.15994781 0.020803027 0.10192751 0.07330131
0001e0 7f e5 df 3d b2 29 18 be 15 0b 31 3e 80 22 29 be
       0.10932445 -0.14859655 0.17289384 -0.16517067
0001f0 b0 cd a6 bb 34 a3 1f bc 19 43 bb bd 04 d6 04 be
       -0.005090438 -0.0097435005 -0.09143657 -0.12972265
000200 fc b8 df 3d 8c e5 81 3e 14 3d 44 be 25 93 c3 3d
       0.10923955 0.25370443 -0.19163924 0.0954955
000210 c4 7a 1d 3e a7 5b af bd 13 a8 60 3e 1b fb 37 3e
       0.15378863 -0.08562403 0.21939115 0.17966883
000220 dd 6d 7e 3e 25 99 a4 bd 88 83 46 be e6 e2 14 be
       0.24846597 -0.080370225 -0.19386113 -0.1453968
000230 46 28 32 be 12 96 e0 3c fb e0 37 3e f8 65 91 3d
       -0.17398176 0.02741531 0.17956917 0.07099527
000240 f6 e8 d2 bd 21 82 31 be 30 94 29 3e 30 46 20 be
       -0.1029834 -0.17334796 0.16560435 -0.15651774
000250 23 a5 88 3c fb 27 f4 3c 87 8d 29 bb 3d a1 87 bc
       0.016680306 0.02980422 -0.002587171 -0.016556377
000260 ce 1e d4 bd d1 94 5d be d5 06 15 bd d7 27 3d 3e
       -0.10357438 -0.216388 -0.03638347 0.18472229
000270 cc 88 73 3e bc 67 05 be f9 e8 fb 3c 3e 64 fb 3d
       0.23782653 -0.13027853 0.030750738 0.12274979
000280 6d f9 b6 bc f9 53 ad 3a d1 19 27 3d c9 5c 0f be
       -0.022335732 0.0013223878 0.040796105 -0.14000238
000290 9e a0 86 3d ef 97 95 bc 35 bc e4 3c 07 46 99 bc
       0.06573604 -0.018260924 0.027921775 -0.01871015
0002a0 c4 2e 12 3d 1e a1 96 3d 06 5a f7 3c c2 ae 73 3e
       0.03568913 0.073549494 0.030194294 0.23797134
0002b0 a9 04 76 3b d4 fa cc bc d6 4b 9e ba ff ec 27 3e
       0.0037539399 -0.025021948 -0.0012077044 0.16399
0002c0 ed 6f 4a 3d ea d3 aa 3d 28 fc 16 3d 2a d7 8f 3c
       0.049423147 0.08341201 0.03686157 0.017558653
0002d0 00 18 91 3c 84 73 c6 3d 9a f1 19 be 2a ea 18 3b
       0.01771164 0.096900016 -0.1503357 0.0023332932
0002e0 95 86 ea 3d 46 40 42 3e 39 53 25 bd 38 0d 3e 3e
       0.11451451 0.18969831 -0.04036257 0.1855973
0002f0 d0 e7 42 bd 9c 63 55 be e0 b8 1a 3e 37 94 36 3e
       -0.047584355 -0.20838779 0.15109587 0.17829977
000300 fa 1c c5 bd e0 bb 98 be a4 c2 0f 3e 53 16 3d be
       -0.096246675 -0.29830837 0.14039093 -0.18465547
000310 1e f2 cb 3b d0 57 91 bd 69 b1 aa bd 64 f3 a9 3d
       0.006223931 -0.07096827 -0.083346196 0.08298376
000320 79 57 85 be f9 1c 8c 3d 7f a3 23 3d 29 e4 b5 3c
       -0.260433 0.068414636 0.039950844 0.022203522
000330 d6 23 d0 3d 50 75 e5 bd 0d 1b bb b9 74 46 a2 bc
       0.10163085 -0.11204016 -0.00035687574 -0.019808985
000340 c2 3e 70 3e 53 a1 44 3e b5 52 52 be db 7c 1f 3e
       0.2346144 0.19202165 -0.20539363 0.15574972
000350 c9 f3 a1 bd 51 8d c6 3d d6 7d 06 be 8e 90 37 3e
       -0.079078265 0.09694923 -0.1313394 0.17926237
000360 62 87 11 3d 53 16 62 3e 33 3e 48 3d 63 1c 0e be
       0.0355295 0.22078829 0.048887443 -0.13878016
000370 36 80 4a be b2 e0 11 3e 78 8f e9 3d e2 57 2f be
       -0.19775471 0.1424587 0.114043176 -0.17123368
000380 0c 48 80 3d 8f 3d 43 3e e1 b8 0b be 97 13 01 3e
       0.06263742 0.19066451 -0.13644744 0.12605129
000390 03 d0 0d bd 1e 81 ad 3d 28 84 0c 3e b9 d6 91 bd
       -0.034622204 0.08471893 0.13722289 -0.07121033
0003a0 3e e4 24 be 09 e9 88 bd fa 0f 1c 3e 81 e5 5b be
       -0.16102692 -0.06685073 0.1524047 -0.21474268
0003b0 a2 64 28 be bd c9 67 3d 1c 97 1a bd 79 d8 12 be
       -0.16444638 0.056588877 -0.037741765 -0.1434039
0003c0 8c 39 ba 3c cb b3 a3 3c 76 f8 2e 3d a7 20 41 be
       0.022732519 0.019983193 0.04271742 -0.18860112
0003d0 06 b2 55 bd f7 c9 a5 3d 80 f4 01 3d dc 7b a1 bd
       -0.05217173 0.08095162 0.031727314 -0.078849524
0003e0 cc 7a de 3d 08 90 14 be 19 78 8b 3d ad 7a 07 bd
       0.108632654 -0.14508069 0.06810016 -0.033075977
0003f0 7e 3f d7 bc 0d 1e 4b bd d8 20 ae bd 7d 52 20 3d
       -0.026275393 -0.049589206 -0.08502358 0.039141167

policy_mean.bias f4 [7]
000000 9b c1 1a 3e d7 9d 04 be be fb 02 3e e2 f8 3d bd
       0.15112917 -0.12950836 0.12791345 -0.04637993
000010 c3 26 8f bd 17 b2 15 be 5e cc a0 3d
       -0.06989815 -0.14618717 0.0785148

value_head.weight f4 [1, 64]
000000 3a fe 48 3e 66 65 8f 3d 08 29 c0 bc 15 88 fd 3d
       0.1962823 0.07001762 -0.023457065 0.12379471
000010 a9 34 0b 3e 55 fc 84 3e ba 93 1f be dc 68 05 be
       0.13594307 0.25973764 -0.15583697 -0.13028282
000020 5d 58 35 bd ba 53 8e be 31 4e 1e 3e 9f f0 24 be
       -0.044273723 -0.27798253 0.15459515 -0.16107415
000030 ec a6 44 3e 05 76 77 3e c7 28 4b be fa 80 50 be
       0.192043 0.24166115 -0.19839774 -0.203617
000040 f8 a0 25 be a4 98 a1 3d 12 08 00 3e 6e 62 85 be
       -0.16174686 0.07890442 0.12503079 -0.26051658
000050 cb 35 5a 3e 51 2a 84 3e c5 37 5d 3e cc 46 59 be
       0.21309583 0.25813535 0.21603306 -0.21218413
000060 40 00 f5 bd 5a 60 24 be d6 32 86 be c7 d6 98 be
       -0.11962938 -0.1605238 -0.2621066 -0.29851362
000070 10 4e 27 be 4a 4a 16 3d e4 9b 82 be e4 5e cf bd
       -0.16338372 0.03669194 -0.2550956 -0.10125521
000080 b5 81 3c be ee 05 2b be 4a 54 89 3e 8f 47 89 bb
       -0.18408854 -0.16701481 0.2682212 -0.0041894387
000090 84 dd 4b be 74 11 68 be 0e c8 71 be 92 ab 5b 3e
       -0.1990872 -0.22662908 -0.23611471 0.21452168
0000a0 b8 6b 96 be a5 95 f0 bd 23 8e 91 3e 2c df 55 3d
       -0.29379058 -0.117472924 0.28428754 0.052214786
0000b0 46 00 80 bd 4c b0 5d 3e 28 0e 4f 3e 8a e4 86 bd
       -0.06250052 0.21649283 0.20220244 -0.06586559
0000c0 fe 39 a3 3d 3c 70 49 be d1 9b 7c be 29 2b 83 3e
       0.079700455 -0.1967172 -0.24668814 0.25618866
0000d0 d4 2f 66 3e d9 49 81 3e a9 77 84 3d ef ef 13 be
       0.22479182 0.25251654 0.06468136 -0.14446996
0000e0 ca e3 19 3e 5f 59 21 be 01 3d 28 3e 9f ac 1a be
       0.15028301 -0.15756749 0.16429521 -0.15104912
0000f0 38 f0 80 be eb 36 6d 3e 6f 54 39 be bb 02 7b 3e
       -0.25183272 0.23165481 -0.18098615 0.2451276

exp_avg f4 [7]
000000 9b c4 8f bb 7c cb 9d bb f2 9f 9a bb 1a b8 99 bb
       -0.004387451 -0.004815517 -0.004718774 -0.004691136
000010 31 66 9d bb af bd 90 bb cc fc a3 bb
       -0.004803442 -0.0044171433 -0.005004501

exp_avg_sq f4 [7]
000000 54 b9 6a 38 e3 ee cf 37 fb ab bf 37 e2 69 bd 37
       5.5962548e-05 2.4787563e-05 2.2849059e-05 2.2579861e-05
000010 55 07 b5 37 5d d0 8a 38 bf 8e bc 37
       2.1580296e-05 6.6191635e-05 2.2477818e-05

exp_avg f4 [64, 21]
000000 41 f8 b3 b9 d4 ff 81 b9 ff 9a c3 39 b7 8d 81 3a
       -0.00034326504 -0.00024795404 0.0003730878 0.0009884153
000010 ce 1a 9d b9 8e 8b 9a ba 7f 42 93 38 26 81 f7 37
       -0.00029965345 -0.0011790858 7.021892e-05 2.9504834e-05
000020 17 48 fc b7 f4 79 fe b7 70 31 05 37 c4 48 e2 1d
       -3.007431e-05 -3.0335948e-05 7.938928e-06 5.989694e-21
000030 14 27 b8 38 e9 11 30 3a aa 26 f7 1d 16 28 87 1e
       8.7810826e-05 0.0006716536 6.5420333e-21 1.431026e-20
000040 34 5a a1 09 64 d3 3f 3a 41 f8 b3 39 9a 09 b0 39
       3.8844167e-33 0.00073175714 0.00034326504 0.0003357649
000050 ce 88 9c 39 48 5c 01 b8 e0 5c 09 38 14 0c 83 39
       0.00029856566 -3.084194e-05 3.2749842e-05 0.00024995266
000060 74 37 9b 39 e3 3e 70 b9 45 82 f5 b9 28 78 80 b8
       0.0002960522 -0.0002291161 -0.000468271 -6.1258965e-05
000070 8c 0f 19 37 a1 3a 1c b7 38 a0 b4 b7 94 ee 63 37
       9.12313e-06 -9.311975e-06 -2.153228e-05 1.3585803e-05
000080 c5 31 bb 1d 77 92 39 38 71 ba b1 39 e7 4c 1b 1e
       4.954995e-21 4.4243843e-05 0.0003389898 8.221535e-21
000090 c4 d8 c6 1d 7d d1 1c 09 ea 4d c1 39 3e 5c 01 38
       5.2634294e-21 1.8876318e-33 0.0003686988 3.0841904e-05
0000a0 66 d6 40 37 48 b9 ba 38 08 8c 72 b9 7a 7d e9 b8
       1.149401e-05 8.9036825e-05 -0.00023131084 -0.000111336776
0000b0 37 fe c0 b9 92 c0 cd b8 ab 4c 5f ba 56 13 da ba
       -0.000368105 -9.811031e-05 -0.00085181993 -0.0016637843
0000c0 f4 87 9d b9 1c 4c b8 36 52 71 b8 b6 2f 38 2f b7
       -0.00030046667 5.4924876e-06 -5.4968195e-06 -1.0443894e-05
0000d0 9a 87 be 36 d7 3f c9 1e 09 72 90 b7 82 94 0b b9
       5.6782274e-06 2.1308106e-20 -1.721924e-05 -0.00013311396
0000e0 d0 61 de 9d 39 18 01 1e 13 db 10 0a c4 76 16 b9
       -5.8864046e-21 6.834212e-21 6.974551e-33 -0.00014349358
0000f0 0c 8c 72 39 f7 60 c5 38 e3 67 76 39 94 74 68 b8
       0.0002313109 9.411753e-05 0.00023499089 -5.5421682e-05
000100 41 d1 4c b7 65 f0 8b b8 fe 7a af 38 29 96 64 b9
       -1.2208068e-05 -6.6728135e-05 8.367559e-05 -0.00021799713
000110 6b 97 73 b9 e8 ec 1d b9 74 16 6f 35 21 18 b3 b5
       -0.00023230693 -0.00015060941 8.906711e-07 -1.3343562e-06
000120 bb 01 14 37 bb ab e4 b6 2e 2b ce 1d 80 e2 d8 b6
       8.82189e-06 -6.8149216e-06 5.4572393e-21 -6.4636697e-06
000130 14 e0 50 b8 4f a5 31 9c ff 6d 22 9c 22 92 f6 08
       -4.9799753e-05 -5.8778044e-22 -5.374347e-22 1.4839942e-33
000140 e4 eb 61 b8 90 74 68 38 f2 bf c0 36 5a 01 8e 37
       -5.386387e-05 5.5421668e-05 5.7443913e-06 1.6928348e-05
000150 e4 c6 2a b9 36 7a 16 b9 0f 79 16 3a 90 d4 43 3a
       -0.00016286556 -0.00014350642 0.0005740085 0.0007470334
000160 0b ef 4d 39 fb 4d 93 b9 1b 96 8f 39 c4 30 b9 37
       0.00019639374 -0.00028096125 0.00027386923 2.2076427e-05
000170 dd 0a ba b7 f5 39 f8 b7 15 d3 27 37 1d 76 e9 9d
       -2.2177986e-05 -2.9590892e-05 1.0003122e-05 -6.1796713e-21
000180 05 0d bc 38 df 0a 34 3a 56 10 33 1e 57 a4 47 1e
       8.966964e-05 0.0006868075 9.479559e-21 1.0568957e-20
000190 b3 ea 98 87 e4 e2 43 3a e4 c6 2a 39 b7 80 74 39
       -2.3008362e-34 0.0007472469 0.00016286556 0.00023317603
0001a0 5f 8e ec 38 65 bb ff 38 9a a5 9f 38 30 fa 2b 39
       0.000112798756 0.000121942525 7.6125565e-05 0.00016401033
0001b0 09 7e 89 38 ed 10 4d 39 b3 0e 18 3a 3a 86 03 38
       6.556145e-05 0.00019556629 0.000580053 3.1357842e-05
0001c0 63 01 2a b6 49 8e 1e 36 73 9d b0 36 35 9f 86 b5
       -2.5332781e-06 2.3626656e-06 5.2635382e-06 -1.0030113e-06
0001d0 22 eb ba 9d 06 55 18 37 af 02 93 38 d8 db b6 1d
       -4.947691e-21 9.079702e-06 7.010006e-05 4.840231e-21
0001e0 64 9f 8e 9d 96 1d 28 89 eb ad 9e 38 65 bb ff b8
       -3.7751893e-21 -2.0236176e-33 7.566422e-05 -0.000121942525
0001f0 f9 9a 8c b8 a9 f1 c4 b8 10 20 22 38 86 00 80 38
       -6.704586e-05 -9.391021e-05 3.865367e-05 6.103613e-05
000200 00 af 1d b9 5b 72 be b9 c4 3b c5 39 f2 ea 12 3a
       -0.0001503788 -0.00036324825 0.00037619297 0.00056044676
000210 24 eb 0f 39 01 14 17 b7 a8 29 1f 37 c8 53 eb 36
       0.0001372514 -9.004959e-06 9.486837e-06 7.013299e-06
000220 93 01 98 b6 fb 62 1f 9e d5 6d 0c b8 fc 59 86 b9
       -4.5301363e-06 -8.4378586e-21 -3.348089e-05 -0.00025625515
000230 2d 5a 0b 9e 76 7b 2d 9d 67 b8 5d 89 bf 47 92 b9
       -7.377247e-21 -2.2960187e-21 -2.6688613e-33 -0.00027900745
000240 0f 20 22 b8 6f 37 c6 b8 e7 09 de b8 9d fe a0 b7
       -3.8653667e-05 -9.451701e-05 -0.000105876294 -1.919205e-05
000250 8d 13 35 39 c5 8b 97 ba f8 77 5d ba 6a c0 8c ba
       0.00017268788 -0.001156204 -0.00084483577 -0.0010738496
000260 a2 2f 8a ba f0 00 50 ba b4 ef c0 b7 b8 be bb 37
       -0.001054276 -0.000793471 -2.2999804e-05 2.2380947e-05
000270 3a 60 43 38 77 f8 d3 b7 28 42 06 1f ef 09 0d b9
       4.658124e-05 -2.526886e-05 2.8430327e-20 -0.00013450508
000280 51 35 87 ba 20 ce a1 9e f4 3f 06 9e 19 0d 0f 0a
       -0.0010315572 -1.713179e-20 -7.107126e-21 6.887663e-33
000290 58 ea 92 ba b8 fe a0 37 c0 0e a1 b9 9c b3 02 39
       -0.0011208756 1.9192099e-05 -0.00030719303 0.00012464676
0002a0 c0 f3 b2 39 50 1e 32 39 6c 49 24 3a d7 ac 76 b7
       0.00034132414 0.00016986695 0.0006267044 -1.4702985e-05
0002b0 5a 62 4c 3a 53 7b bf 3a 96 5d c1 39 b4 3b 8d b6
       0.0007796638 0.0014608897 0.00036881556 -4.209078e-06
0002c0 8d 12 a1 36 4a ba 25 b7 a8 6d 46 37 23 ae bb 9e
       4.8003335e-06 -9.87814e-06 1.1827251e-05 -1.9871416e-20
0002d0 e0 97 48 38 94 00 c1 39 02 2b 88 1e bd 71 b9 9d
       4.782516e-05 0.0003681226 1.4417348e-20 -4.9086695e-21
0002e0 20 21 0a 8a 8a f3 d0 39 c2 f3 b2 b9 b3 f0 ff b8
       -6.6506884e-33 0.00039854302 -0.0003413242 -0.00012204181
0002f0 4c 92 87 b9 d7 49 e4 b8 b7 08 91 b8 fc 55 c3 b9
       -0.00025858206 -0.00010885641 -6.915762e-05 -0.00037257362
000300 83 d1 2e b9 57 9d 0a b9 7c f8 ce b9 8f c0 4b b8
       -0.00016671982 -0.00013219319 -0.00039476517 -4.8578306e-05
000310 95 f3 fb b5 79 16 07 36 2f 2c aa 36 8e 9f b0 b6
       -1.8771849e-06 2.0129648e-06 5.0715385e-06 -5.2637834e-06
000320 a7 3d 93 1d 63 5a 12 b8 c1 7e 8c b9 12 be 36 9e
       3.8974323e-21 -3.489329e-05 -0.0002679732 -9.674305e-21
000330 c9 bb df 1c 7c 32 fd 08 7d 73 98 b9 d5 49 e4 38
       1.4805443e-21 1.5238752e-33 -0.00029077745 0.000108856395
000340 09 b7 0f 38 ec 5c db 38 1c e4 ad 39 4a cf a1 39
       3.426432e-05 0.00010460042 0.00033167086 0.00030862755
000350 45 c7 91 39 a9 7d c0 b9 9d 8f 62 39 75 e7 43 3a
       0.00027805023 -0.00036714718 0.0002160654 0.00074731495
000360 3a 6e 11 38 11 c3 3f b7 05 ef 49 37 13 3b 77 36
       3.467335e-05 -1.1429905e-05 1.2036185e-05 3.6840254e-06
000370 5a 1b 90 36 b9 8c bc 9d 77 7d 23 37 fc 66 9f 38
       4.2947186e-06 -4.990869e-21 9.744769e-06 7.600893e-05
000380 fd a1 54 1e 0d a8 c2 9d 9b 29 6f 89 5f 4d aa 38
       1.1256685e-20 -5.1525133e-21 -2.8788141e-33 8.120643e-05
000390 1b e4 ad b9 5e b3 9c b9 04 db 53 b9 cf 26 52 39
       -0.00033167083 -0.00029888278 -0.00020204118 0.00020041618
0003a0 54 a9 38 b8 b1 07 77 3a 9b b6 48 39 e6 55 8a 3a
       -4.4026718e-05 0.00094234484 0.00019141512 0.0010554164
0003b0 ed 95 99 3a 41 93 4e 3a 2d 2d 17 37 dc 78 fe b6
       0.0011717655 0.0007880219 9.01082e-06 -7.5838598e-06
0003c0 bd 4d 43 b8 cf 6e 0b 38 47 b9 00 9f 11 cb c9 38
       -4.6564022e-05 3.324338e-05 -2.7258312e-20 9.622251e-05
0003d0 9b ab 41 3a 85 be 8c 1e f7 ee 74 1d 95 45 19 8a
       0.0007387937 1.4901874e-20 3.2416673e-21 -7.379769e-33
0003e0 95 33 52 3a cd 26 52 b9 e5 0f 13 39 70 70 55 b9
       0.00080185506 -0.00020041615 0.00014024934 -0.00020355149
0003f0 52 e4 a3 b9 8e 57 92 b9 91 62 31 3a 79 be 8a 3a
       -0.00031259895 -0.00027912523 0.00067667017 0.001058533

exp_avg_sq f4 [64, 21]
000000 cd ef d7 37 9e f6 6d 37 ed 27 ca 39 b9 e2 3c 38
       2.5741663e-05 1.4183721e-05 0.0003855819 4.5033845e-05
000010 04 e3 05 39 0f b5 0f 38 d9 05 ff 38 83 82 46 33
       0.00012768438 3.426248e-05 0.00012160437 4.6219167e-08
000020 44 18 55 33 5b f4 5b 34 eb c8 5b 34 d2 66 f4 00
       4.9614997e-08 2.048486e-07 2.0469058e-07 2.2444746e-38
000030 6b 8f 95 36 88 b0 89 39 15 1a 22 03 f7 93 9b 00
       4.457242e-06 0.00026262202 4.763746e-37 1.4287582e-38
000040 00 00 00 00 7a 48 a2 39 cd ef d7 37 15 e3 c7 36
       0.0 0.00030953047 2.5741663e-05 5.957098e-06
000050 87 c3 6e 37 5b 78 d2 36 17 fb 26 36 d5 a6 ac 38
       1.423143e-05 6.272499e-06 2.488208e-06 8.232674e-05
000060 60 11 80 37 11 5b ea 37 e7 d5 fb 36 55 ed ca 37
       1.526688e-05 2.793738e-05 7.5052844e-06 2.4190793e-05
000070 2a 91 6c 32 ca eb 78 32 a2 0d 71 33 1c 66 6d 33
       1.37700145e-08 1.4489112e-08 5.6124584e-08 5.527373e-08
000080 0a ea 37 00 22 e1 85 35 09 66 76 38 c2 2a 0d 02
       5.13491e-39 9.974794e-07 5.8745998e-05 1.0371315e-37
000090 cc 15 24 00 00 00 00 00 c1 44 91 38 5b 78 d2 36
       3.313897e-39 0.0 6.926945e-05 6.272499e-06
0000a0 07 63 85 35 fd ff 2d 36 ec a4 2e 36 ac 1a d7 35
       9.938093e-07 2.5928014e-06 2.6024018e-06 1.6026511e-06
0000b0 45 37 fe 37 7e 26 bd 36 d3 28 3c 37 38 4d 97 36
       3.0304896e-05 5.63712e-06 1.1215178e-05 4.50914e-06
0000c0 1d c1 2f 37 e2 25 8c 31 26 fb 91 31 5d 08 95 32
       1.04757755e-05 4.078843e-09 4.2486077e-09 1.7349686e-08
0000d0 31 c4 94 32 52 d8 1a 00 38 d2 c7 34 3c f1 b7 37
       1.7318685e-08 2.465324e-39 3.7219593e-07 2.1927633e-05
0000e0 e9 b7 57 01 43 b6 10 00 00 00 00 00 d4 d1 d8 37
       3.9621212e-38 1.534751e-39 0.0 2.5846915e-05
0000f0 ec a4 2e 36 d5 50 59 35 d8 0d b9 35 e5 56 82 36
       2.6024018e-06 8.0956426e-07 1.3787603e-06 3.8844178e-06
000100 4d f5 bd 35 50 b7 7a 38 0a ce 13 37 22 29 af 37
       1.4152989e-06 5.9775368e-05 8.809855e-06 2.088078e-05
000110 6c b4 8e 36 4c 6d 96 37 c4 21 34 32 b8 6f 3c 32
       4.2529336e-06 1.7932289e-05 1.0485056e-08 1.0968442e-08
000120 92 c1 20 33 c4 6a 20 33 9d 9f 26 00 10 81 3b 35
       3.7428954e-08 3.7350006e-08 3.547007e-39 6.985074e-07
000130 e7 8e 2c 38 e0 ef ca 01 65 ac 13 00 00 00 00 00
       4.1141084e-05 7.4547285e-38 1.806718e-39 0.0
000140 82 74 4b 38 e5 56 82 36 17 23 34 35 ef 49 12 36
       4.8507478e-05 3.8844178e-06 6.710629e-07 2.179873e-06
000150 70 da f9 37 40 b7 60 37 13 90 f2 39 e6 a3 4d 38
       2.9784831e-05 1.3394107e-05 0.0004626518 4.902845e-05
000160 51 c7 21 39 cd 39 17 38 4d 57 18 39 b1 6d 7f 33
       0.00015428408 3.6055037e-05 0.00014528372 5.9471578e-08
000170 7d 7c 88 33 86 65 8a 34 56 35 8a 34 ee f8 12 01
       6.355638e-08 2.577837e-07 2.574331e-07 2.6994563e-38
000180 c1 8c b1 36 4d 75 a3 39 d6 49 3f 03 5d cd 8f 00
       5.291397e-06 0.0003117718 5.6214615e-37 1.3206146e-38
000190 00 00 00 00 58 a7 c0 39 70 da f9 37 df 65 9c 36
       0.0 0.00036745775 2.9784831e-05 4.6610216e-06
0001a0 7d 2e 93 37 9b 00 bb 35 e9 8d 3e 35 61 9d 9f 37
       1.7545413e-05 1.3932762e-06 7.098702e-07 1.9027562e-05
0001b0 37 64 28 36 a1 a0 e1 36 d2 be fb 35 f3 ae c8 36
       2.5092284e-06 6.724222e-06 1.8756493e-06 5.9808312e-06
0001c0 37 3f 2c 31 73 4a 36 31 cc 14 33 32 21 b0 32 32
       2.5065228e-09 2.6526805e-09 1.04239e-08 1.0401011e-08
0001d0 06 3b 0e 00 ed 2e 73 34 12 e0 5f 37 33 5e 01 01
       1.30687e-39 2.264821e-07 1.3344006e-05 2.3761143e-38
0001e0 3b c2 07 00 00 00 00 00 76 ef 83 37 9b 00 bb 35
       7.12525e-40 0.0 1.5727925e-05 1.3932762e-06
0001f0 53 e6 99 34 52 18 31 35 ef 0f 83 35 69 e1 8b 35
       2.8666054e-07 6.597303e-07 9.764898e-07 1.042191e-06
000200 c3 27 45 37 cb ae 0c 36 a6 68 96 36 99 e2 e8 35
       1.1751373e-05 2.0963369e-06 4.482531e-06 1.7351296e-06
000210 3d 6d 8a 36 84 35 c6 30 b8 0d ce 30 4e 4f c4 31
       4.1254375e-06 1.4421606e-09 1.4992372e-09 5.7133667e-09
000220 32 d1 c3 31 e3 67 08 00 02 8f 19 34 43 5c 0d 37
       5.6990297e-09 7.71952e-40 1.4301261e-07 8.425736e-06
000230 fc 25 a8 00 6a d4 0a 00 00 00 00 00 29 9f 26 37
       1.544199e-38 9.94555e-40 0.0 9.931428e-06
000240 ef 0f 83 35 0d 5e 68 35 7c 27 0c 35 77 ee 80 38
       9.764898e-07 8.6563597e-07 5.221152e-07 6.147933e-05
000250 7f 21 cc 37 e2 e8 7a 3a db e1 f3 38 43 66 a5 39
       2.4334293e-05 0.00095714454 0.00011629212 0.00031547443
000260 91 d8 9a 38 0b d0 98 39 69 d7 12 34 40 21 1c 34
       7.383631e-05 0.00029146703 1.3675675e-07 1.4540728e-07
000270 e1 ba 1a 35 44 d7 19 35 e6 1a 98 01 08 66 37 37
       5.7641415e-07 5.7310194e-07 5.587458e-38 1.0931406e-05
000280 db d2 28 3a ba 9d c5 03 d5 75 0a 01 00 00 00 00
       0.00064401113 1.1614832e-36 2.5431137e-38 0.0
000290 20 00 47 3a 77 ee 80 38 02 76 0b 37 2c 36 1d 38
       0.0007591266 6.147933e-05 8.3125215e-06 3.748217e-05
0002a0 c8 11 f6 36 76 6f 73 36 ec 60 f0 38 8d 79 6c 37
       7.3334413e-06 3.62747e-06 0.00011462145 1.4094997e-05
0002b0 dc 77 10 38 75 db 1a 37 0b 2e 16 38 7c 9e 7a 32
       3.4443903e-05 9.230212e-06 3.5805668e-05 1.458795e-08
0002c0 da ce 88 32 54 24 8a 33 ef 6d 89 33 f5 6c 45 00
       1.5926549e-08 6.432734e-08 6.3995564e-08 6.375736e-39
0002d0 61 65 aa 35 e0 df 9c 38 29 6f 34 02 8b 1c 31 00
       1.2695492e-06 7.48036e-05 1.3256213e-37 4.510179e-39
0002e0 00 00 00 00 47 e4 b8 38 c8 11 f6 36 ee 04 04 36
       0.0 8.816324e-05 7.3334413e-06 1.9672402e-06
0002f0 08 27 b2 36 a3 fc 36 35 94 4f 85 34 f4 21 2b 37
       5.309357e-06 6.816792e-07 2.483108e-07 1.02003e-05
000300 a0 be 9c 35 44 ed 69 36 84 09 59 35 43 1d 44 36
       1.1678385e-06 3.4857812e-06 8.0852647e-07 2.9223309e-06
000310 95 14 e2 30 cc 63 ec 30 6b 6f d5 31 71 97 d4 31
       1.6449514e-09 1.7199624e-09 6.2117826e-09 6.187229e-09
000320 8a 86 07 00 ea 61 f9 33 f0 91 e5 36 e4 68 87 00
       6.91112e-40 1.16127765e-07 6.841721e-06 1.243542e-38
000330 d1 a1 02 00 00 00 00 00 68 4c 07 37 a3 fc 36 35
       2.4172e-40 0.0 8.064417e-06 6.816792e-07
000340 35 c9 b8 33 d5 fc e1 34 f3 20 c3 35 34 cf d0 35
       8.604767e-08 4.2093475e-07 1.4538222e-06 1.5557512e-06
000350 78 c4 8e 37 60 d6 69 36 2e b7 97 36 c1 81 21 36
       1.7019207e-05 3.4844488e-06 4.5214756e-06 2.4066396e-06
000360 6b b9 a0 36 15 0d 07 31 50 52 13 31 2c cd e6 31
       4.789957e-06 1.9652522e-09 2.1438105e-09 6.7172063e-09
000370 3f 5f e7 31 18 6e 08 00 1a 67 51 34 29 cb 40 37
       6.733813e-09 7.74178e-40 1.950215e-07 1.1491394e-05
000380 e9 d3 d4 00 3f ac 19 00 00 00 00 00 73 37 63 37
       1.9545144e-38 2.357678e-39 0.0 1.3543165e-05
000390 f3 20 c3 35 a1 33 ce 35 98 90 5c 35 bc 98 9a 38
       1.4538222e-06 1.5363222e-06 8.21668e-07 7.371741e-05
0003a0 5d c2 f2 37 21 8b 98 3a 92 0a 14 39 34 91 c6 39
       2.8939156e-05 0.0011638143 0.00014118318 0.00037873688
0003b0 29 78 b0 38 ed a0 c2 39 b7 29 33 34 52 ea 3f 34
       8.4147156e-05 0.00037122463 1.668585e-07 1.7873506e-07
0003c0 9c 1f 3e 35 d2 02 3d 35 46 97 bb 01 7e c1 5e 37
       7.0826513e-07 7.041209e-07 6.891002e-38 1.3277282e-05
0003d0 35 0f 4d 3a 9e d1 ee 03 28 b0 34 01 00 00 00 00
       0.00078223954 1.40365085e-36 3.3187165e-38 0.0
0003e0 95 b4 71 3a bc 98 9a 38 fd f2 37 37 23 13 3e 38
       0.0009220329 7.371741e-05 1.0964225e-05 4.5317352e-05
0003f0 d0 49 11 38 b5 8b 8f 37 15 69 08 3a 68 51 6e 38
       3.4639437e-05 1.7111985e-05 0.0005203647 5.6819437e-05

exp_avg f4 [64]
000000 67 d3 3f 3a ea 4d c1 39 ce 76 16 b9 ec eb 61 b8
       0.0007317573 0.0003686988 -0.00014349373 -5.38639e-05
000010 e3 e2 43 3a ea ad 9e 38 be 47 92 b9 55 ea 92 ba
       0.00074724684 7.566421e-05 -0.00027900742 -0.0011208752
000020 89 f3 d0 39 7c 73 98 b9 57 4d aa 38 8b 33 52 3a
       0.000398543 -0.00029077742 8.120637e-05 0.0008018545
000030 cd f3 74 3a 6b 2f 61 3a 84 19 3b 3a b6 19 4a 3a
       0.00093441905 0.00085901347 0.0007137286 0.00077095197
000040 54 b2 b8 ba 49 df aa 36 b0 36 84 39 72 cd aa b7
       -0.0014091232 5.0923886e-06 0.00025217747 -2.0361247e-05
000050 62 ad 9a 39 0a ff 4f 39 b3 32 e8 38 0d 76 dd 39
       0.0002950235 0.00019836068 0.000110720655 0.0004224036
000060 8d fc 51 39 58 14 b0 b8 bd f5 0f 3a 1b 39 b2 37
       0.00020025876 -8.396123e-05 0.0005491635 2.1245845e-05
000070 a7 c4 b3 b9 0f e3 15 b8 b2 f3 cd b9 f2 ef 3e b9
       -0.00034288058 -3.5735833e-05 -0.00039282214 -0.00018209199
000080 66 f1 8a 39 c3 bf 77 3a 72 7a 22 ba a1 3b 5c 39
       0.00026501267 0.0009450877 -0.00061980553 0.00021003048
000090 1f 6f e7 b9 4b 4b e2 39 97 82 9e 39 e9 d8 3c 3a
       -0.00044142545 0.00043162177 0.00030233405 0.0007203953
0000a0 a3 03 64 39 8f 79 68 b9 38 90 33 39 12 a0 e9 b9
       0.00021745129 -0.00022170528 0.00017124496 -0.00044560485
0000b0 8d 33 a2 38 91 0f 0b ba 87 cd a8 36 50 89 72 b9
       7.734364e-05 -0.0005304749 5.0307167e-06 -0.00023130071
0000c0 8f 78 a2 3a ee 41 7c 39 86 43 54 ba 27 41 b0 39
       0.0012395548 0.00024057153 -0.000809722 0.00033617878
0000d0 fe db 77 b8 76 ac 2b ba 4a ab 55 ba a4 52 3d b9
       -5.9094273e-05 -0.0006548831 -0.0008150829 -0.0001805523
0000e0 88 90 89 3a a5 94 03 b9 f4 9d 9a 3a de 0c ad 39
       0.0010495344 -0.00012548508 0.0011796341 0.00033006718
0000f0 e0 68 bc 36 46 e5 34 38 5f f9 96 b9 9b 57 6e ba
       5.6150457e-06 4.312887e-05 -0.00028796025 -0.0009092034

exp_avg_sq f4 [64]
000000 7a 48 a2 39 c1 44 91 38 d4 d1 d8 37 82 74 4b 38
       0.00030953047 6.926945e-05 2.5846915e-05 4.8507478e-05
000010 58 a7 c0 39 76 ef 83 37 29 9f 26 37 20 00 47 3a
       0.00036745775 1.5727925e-05 9.931428e-06 0.0007591266
000020 46 e4 b8 38 68 4c 07 37 73 37 63 37 97 b4 71 3a
       8.816323e-05 8.064417e-06 1.3543165e-05 0.00092203304
000030 04 e4 da 39 79 2f bd 39 45 f0 fa 39 a9 d6 f5 39
       0.00041750085 0.0003608426 0.0004786273 0.00046889976
000040 73 27 a2 3a 16 70 84 35 a8 c4 aa 38 05 5b 29 37
       0.0012371376 9.867388e-07 8.142862e-05 1.0094377e-05
000050 d1 6b 4a 38 45 ce 7b 38 83 e5 86 37 cc c5 d9 39
       4.8260965e-05 6.0035167e-05 1.608092e-05 0.00041536835
000060 7c ef 5a 38 0d f1 ff 37 85 e2 01 3a ab 16 ce 37
       5.2198287e-05 3.0510617e-05 0.00049547135 2.456767e-05
000070 13 34 f9 38 0f a2 98 36 a5 c3 06 38 78 ba d0 38
       0.00011882945 4.548819e-06 3.2130298e-05 9.9529454e-05
000080 57 50 5d 37 5c 3d ac 39 c4 71 5c 39 cd 65 89 37
       1.3191332e-05 0.00032852113 0.00021023216 1.6379077e-05
000090 e1 12 ba 39 fd 70 dc 39 b9 07 64 39 79 fc ba 39
       0.0003549075 0.00042045853 0.00021746651 0.0003566479
0000a0 32 d7 ef 36 a7 4c 66 37 3e f5 e4 38 fe d0 a7 38
       7.147807e-06 1.3726915e-05 0.00010917567 8.0021084e-05
0000b0 28 63 36 38 53 cd 45 39 ba ab 3a 37 19 5d 9f 38
       4.3484528e-05 0.00018863873 1.1126447e-05 7.5990516e-05
0000c0 e4 87 bd 3a 35 d6 54 38 b7 49 fb 39 47 bc 9d 38
       0.0014460054 5.0744235e-05 0.00047929373 7.521413e-05
0000d0 cb e0 bb 39 9e 00 c8 39 77 90 e4 39 44 c5 aa 38
       0.00035834903 0.00038147432 0.00043595184 8.142975e-05
0000e0 77 7e 05 3a b7 3a 4c 38 00 13 95 3a 89 17 02 39
       0.0005092392 4.8692073e-05 0.001137346 0.00012406534
0000f0 95 13 2c 37 52 f1 ee 35 2d 18 01 38 3d 29 5f 3a
       1.0256558e-05 1.7802615e-06 3.0778512e-05 0.000851292
