models/checkpoint_2900.pth (torch, 255274 bytes, 24 tensors)

policy_log_std f4 [7]
0	0x3f1a98e3	0.60389537
1	0x3f87a30f	1.0596637
2	0x3f3e364f	0.7430162
3	0x3ee9d1e8	0.45667958
4	0x3f8420f4	1.0322556
5	0x3fb5e6fd	1.4211117
6	0xc00a5085	-2.1611645

fc1.weight f4 [128, 21]
0	0x3f46fd81	0.77730566
1	0x3f3d90cf	0.74049085
2	0xbe3dab4a	-0.18522373
3	0xbeb50483	-0.35355005
4	0xbf2520d0	-0.6450319
5	0xbe89f444	-0.26944172
6	0xbf839964	-1.0281186
7	0xbf16286e	-0.5865544
8	0x3ef3f49a	0.47647554
9	0x3d9558d4	0.07292333
10	0xbdea7853	-0.11448731
11	0x3fba2746	1.4543235
12	0xbe3df860	-0.18551779
13	0xbec9e55c	-0.394328
14	0xbdd2d985	-0.10295395
15	0xbce5f276	-0.028069716
16	0xbf6db90f	-0.928605
17	0xbd95ff43	-0.07324078
18	0x3d5c764d	0.053823758
19	0xbf974279	-1.1817161
20	0x3f1da2f4	0.6157677
21	0x3f53ca1c	0.8273027
22	0xbe84bb73	-0.25924262
23	0x3f031f9d	0.51220113
24	0x3e5d8591	0.21632983
25	0xbd699c17	-0.057033625
26	0xbfc9e1a0	-1.577198
27	0xbf0dcdb3	-0.55392
28	0xbea6caeb	-0.3257669
29	0x3ee1a98c	0.44074667
30	0xbd0912df	-0.033465263
31	0x3dbdab9a	0.09261246
32	0x3f242cfe	0.6413115
33	0x3e26eea5	0.16301973
34	0x3f1e56e8	0.6185136
35	0x3d811f11	0.063047536
36	0x3ba817d2	0.0051297927
37	0x3ec66fc8	0.38757157
38	0x3eda9816	0.42694157
39	0xbee5c076	-0.448734
40	0x3f1f7c83	0.62299365
41	0xc0081d18	-2.1267757
42	0x3f41fb08	0.7577367
43	0xbf0ddeb3	-0.5541794
44	0x3f20029f	0.62504
45	0x3e80d6f7	0.25164005
46	0x3eca8813	0.3955694
47	0xbf24f99c	-0.64443374
48	0x3e990785	0.2988855
49	0x3ded3ca9	0.11583836
50	0xbe5a83c0	-0.21339321
51	0xbd9216ba	-0.07133241
52	0x3e099800	0.1343689
53	0x3f098465	0.53717643
54	0x3f19e964	0.6012175
55	0x3f3bb2e6	0.7331985
56	0xbde6514b	-0.11245974
57	0xbcae4ec1	-0.021277787
58	0x3ed8a838	0.4231584
59	0x3f38a8e2	0.72132695
60	0xbf5892fe	-0.8459929
61	0x3f142c6b	0.57880276
62	0xbd8d968e	-0.06913482
63	0xbc5e074f	-0.013551547
64	0xbe3e4b4e	-0.18583414
65	0xbd3b0cb3	-0.045666408
66	0xbefc0d4a	-0.4922889
67	0xbf30b769	-0.6902986
68	0xbdc61a6b	-0.096730076
69	0xbec312b2	-0.381002
70	0xbf7cc58e	-0.98738945
71	0x3f6e7606	0.9314884
72	0x3dfcd918	0.12346095
73	0xbe498ffb	-0.1968383
74	0x3f22383d	0.6336706
75	0xbf11d39a	-0.56963503
76	0xbf03b922	-0.51454365
77	0xbeb86e2f	-0.36021563
78	0x3d8b6cdf	0.06807875
79	0x3da15c01	0.078788765
80	0xbde93f2d	-0.11389003
81	0x3f37b9c3	0.71767825
82	0xbee11b76	-0.43966264
83	0xbfae7a84	-1.3631139
84	0x3f2d0a16	0.67593515
85	0xbf2d6448	-0.6773114
86	0x3f3c686d	0.7359684
87	0x3f215836	0.63025224
88	0x3f002ca6	0.5006813
89	0xbf847880	-1.0349274
90	0xbe428a5a	-0.1899809
91	0x3e43c6a1	0.1911874
92	0xbe9c4129	-0.30518463
93	0x3f18e0af	0.5971784
94	0xbf263973	-0.6493141
95	0x401fb8c1	2.4956515
96	0x3f0d07c2	0.5508996
97	0x3f05dc6d	0.5228947
98	0x3c13ccbe	0.009020982
99	0x3e8c50ba	0.2740534
100	0xbeff175c	-0.4982251
101	0x3f211ba9	0.6293283
102	0x3da9d80b	0.0829316
103	0x3efafe68	0.49022222
104	0xc0062e6f	-2.096584
105	0xbcadb268	-0.021203235
106	0xbebd9613	-0.3702856
107	0x3eaf4b4b	0.3423713
108	0x3f09db8c	0.53850627
109	0x3eeb6b76	0.45980424
110	0xbf3ec78f	-0.7452325
111	0xbd97bc5d	-0.07408974
112	0x3f5208cb	0.82044667
113	0xbd881232	-0.066440955
114	0x3d9401c9	0.07226903
115	0x3dada749	0.08479173
116	0xbf9f55f5	-1.2448107
117	0x3d998713	0.074964665
118	0x3e6d5072	0.23175219
119	0xbeedcc2f	-0.46444842
120	0xbef380fd	-0.47559348
121	0xbf2102ce	-0.62894905
122	0x3ecb2bbb	0.396818
123	0xbe80c7a0	-0.25152302
124	0x3f0824ca	0.53181136
125	0xbfa5a35e	-1.2940481
126	0xbd043b4d	-0.032283116
127	0x3e8a4288	0.27003884
128	0xbf2d94a0	-0.6780491
129	0x3eb58638	0.35453963
130	0xbd687ab0	-0.05675763
131	0x3f68eebc	0.9098928
132	0x3de83fd4	0.11340299
133	0x3ec78ce6	0.38974684
134	0xbe074c47	-0.13212691
135	0xbdb84234	-0.08997002
136	0xbdfa13e2	-0.122108236
137	0xbf06bbbf	-0.5263023
138	0xbf260b41	-0.6486092
139	0xbdc4e96d	-0.09614835
140	0xbd889c23	-0.06670406
141	0x3d48af51	0.04899532
142	0xbd068d0f	-0.032849368
143	0xbece16c7	-0.40251753
144	0xbcfcbdfe	-0.030852314
145	0xbf029402	-0.5100709
146	0x3fcfce0c	1.6234756
147	0xbe3d3d85	-0.18480499
148	0xbf12783d	-0.5721472
149	0x3eeaff4b	0.45897898
150	0x3e25c88c	0.16189784
151	0xbe2bfd6b	-0.1679589
152	0xbe523af8	-0.20530307
153	0x3ebea9d2	0.37238938
154	0xbf10fd05	-0.5663608
155	0x3ec916a6	0.39275092
156	0x3d532e3f	0.051557776
157	0xbd36969a	-0.04457722
158	0x3fbaa272	1.4580824
159	0x3f7f5d0d	0.9975136
160	0x3f03682f	0.51330847
161	0x3e90cfa2	0.2828341
162	0xbc164a9c	-0.009173062
163	0x3f005382	0.5012742
164	0x3ec0892a	0.37604648
165	0x3e2c023e	0.1679773
166	0x3f1e6bed	0.6188343
167	0xbf8913d7	-1.070918
168	0xbe72d52c	-0.23714131
169	0xbfb15cf6	-1.3856494
170	0x3e7bb67b	0.2458133
171	0x3f09e517	0.5386519
172	0x3e9d498b	0.3072017
173	0x3e49ea83	0.19718365
174	0x3ed67c3b	0.41891655
175	0x3f1bc1eb	0.6084277
176	0xbe363370	-0.1779306
177	0xbe07d0ed	-0.13263293
178	0x3eb86921	0.36017707
179	0xbf8f9197	-1.1216305
180	0x3e14b5d1	0.14522482
181	0x3cd06c24	0.02544219
182	0x3e114d7b	0.14189713
183	0xbd742d1e	-0.05961334
184	0x3e76b060	0.24090719
185	0x3e8e785e	0.27826208
186	0x3eab9fdc	0.335204
187	0x3fc32e52	1.5248511
188	0xbf68e5fc	-0.9097593
189	0xbf626a15	-0.8844312
190	0x3e619bd8	0.22032106
191	0xbef8fa0d	-0.48628274
192	0xbf535536	-0.82551897
193	0xbf4945c7	-0.78622097
194	0xbeb9ccbf	-0.3628902
195	0xbf432438	-0.7622714
196	0xbedffbf8	-0.43746924
197	0x3f06d9f6	0.5267633
198	0xbbbb1f57	-0.005710523
199	0xbd206276	-0.0391564
200	0x4001ef14	2.0302172
201	0xbe528679	-0.2055911
202	0xbf08cf6f	-0.5344152
203	0x3ec587eb	0.3858026
204	0x3ea3ef81	0.32018664
205	0xbd4d7b6b	-0.05016653
206	0xbf11aeb5	-0.56907207
207	0x3fcfc043	1.6230549
208	0xbdcd3d7b	-0.10021492
209	0x3f9ba3ed	1.2159401
210	0xbf8e70cc	-1.1128173
211	0x3f88d463	1.0689815
212	0xbd37cdf2	-0.04487414
213	0xbe335dcf	-0.17516254
214	0x3db555ae	0.08854233
215	0x3f0ed940	0.5580025
216	0xbf7f63d4	-0.997617
217	0x3e27f7c7	0.16403113
218	0xbeed793d	-0.4638156
219	0xbdd60b48	-0.104513705
220	0xbaa7ae56	-0.0012793045
221	0xbda54707	-0.08070188
222	0x3eb6dce4	0.357154
223	0x3a9b7359	0.0011859938
224	0xbe83d475	-0.2574803
225	0xbd8d510b	-0.06900223
226	0xbf59024c	-0.8476913
227	0xbdf96880	-0.12178135
228	0x3f7a0054	0.9765675
229	0xbf5070d8	-0.81422186
230	0xbe899530	-0.26871634
231	0x3f189a23	0.59610194
232	0x3f852539	1.0401984
233	0x3e18e8b2	0.14932516
234	0xbf2b6bc9	-0.6696134
235	0xbfd39345	-1.6529318
236	0x3f8b50bf	1.0884017
237	0x3e935a4c	0.2877983
238	0x3ec47dc1	0.38377193
239	0xbe5c2d3e	-0.21501634
240	0x3dba920f	0.0910989
241	0x3dcd068f	0.100110166
242	0x4040a3ca	3.009997
243	0x3b99b7d2	0.0046911025
244	0xbe32398f	-0.1740477
245	0x3d496751	0.049170796
246	0x3eff8389	0.4990504
247	0x3e9b6bc3	0.30355653
248	0xbe343905	-0.17599876
249	0x3e346f45	0.17620571
250	0xbefe5fd6	-0.49682492
251	0x3f836c5f	1.0267447
252	0xbeaa76f0	-0.33293867
253	0xbe50525e	-0.2034392
254	0xbe42d7d5	-0.19027646
255	0x3e6ea71b	0.23305933

fc1.bias f4 [128]
0	0xbed9d48a	-0.42544967
1	0x3ef63121	0.48084357
2	0x3f0aa584	0.54158807
3	0xbe0190be	-0.12652871
4	0x3f0f340e	0.55938804
5	0x3ecfef7b	0.40612397
6	0xbdc16bcd	-0.094443895
7	0x3ebd6bae	0.36996216
8	0x3eabfff6	0.3359372
9	0xbea865cf	-0.32890174
10	0xbe30d267	-0.17267762
11	0x3dc505ab	0.09620222
12	0x3e02b621	0.12764789
13	0x3e0b122f	0.13581155
14	0xbf11c772	-0.56944954
15	0xbc7a4265	-0.015274619
16	0x3d7dc933	0.061959457
17	0x3e8e29c7	0.2776625
18	0xbeb93e92	-0.3618055
19	0x3e2f0b70	0.17094207
20	0xbf2fbe25	-0.6864951
21	0xbdb65fd9	-0.08905
22	0xbeeb1a23	-0.45918378
23	0x3bbad3ec	0.0057015326
24	0xbd522985	-0.051309127
25	0x3efaa452	0.4895349
26	0x3d29fe55	0.041502316
27	0x3eb61760	0.3556471
28	0x3e3ae441	0.18251134
29	0xbe05d7f5	-0.13070662
30	0x3efe5a3d	0.4967822
31	0xbdfc4321	-0.12317491
32	0xbe0ae553	-0.13564043
33	0x3e95d21c	0.29261863
34	0x3efb3eb4	0.49071276
35	0x3edee5f7	0.43534824
36	0x3f1421f0	0.57864285
37	0x3daf2185	0.08551315
38	0x3e746100	0.23865128
39	0x3d0fd1c3	0.035112154
40	0xbe4c2bb2	-0.19938543
41	0x3cc3ae2a	0.023886759
42	0xbbc91765	-0.006136822
43	0x3e210f62	0.15728524
44	0x3d3b6f1c	0.04576026
45	0x3d0029a3	0.031289708
46	0xbdcc91b4	-0.09988728
47	0x3f0a20f1	0.53956515
48	0x3ee26d04	0.44223797
49	0xbb8fc557	-0.0043875384
50	0x3e6ec3d0	0.23316884
51	0x3ed258bb	0.4108332
52	0x3c0a99c5	0.008459513
53	0xbf0c0ffc	-0.5471189
54	0x3d98fe14	0.074703366
55	0x3e827321	0.2547846
56	0xbe991edd	-0.2990636
57	0xbe339dac	-0.17540616
58	0xbe109ab4	-0.14121515
59	0xbf1677a0	-0.58776283
60	0x3d7087bb	0.058723193
61	0xbe77209e	-0.24133536
62	0xbd310058	-0.04321322
63	0xbed38435	-0.41311803
64	0x3e2e9a8c	0.17051142
65	0xbed91ebb	-0.42406258
66	0xbe800aa6	-0.25008124
67	0xbf11867b	-0.56845826
68	0x3e365157	0.17804466
69	0x3da17151	0.078829415
70	0xbeadeda8	-0.3397038
71	0x3e4b85e2	0.19875291
72	0x3ea3fdf6	0.32029694
73	0x3ea594c6	0.32340068
74	0xbefc0353	-0.49221286
75	0xbdb37f19	-0.08764476
76	0x3e79e179	0.24402417
77	0xbf347bff	-0.70501703
78	0x3eb6c482	0.356968
79	0xbeb61ffc	-0.35571277
80	0x3e6f7623	0.2338491
81	0x3ddcde4e	0.10784589
82	0x3df86308	0.12128264
83	0xbe37a21a	-0.1793293
84	0x3f29b6fb	0.6629483
85	0xbf0b6aba	-0.54459727
86	0x3c879f2f	0.016555397
87	0xbe93dd3c	-0.28879726
88	0xbea98d93	-0.33115825
89	0xbd800a8f	-0.06252014
90	0xbf4bec6c	-0.79657626
91	0x3f003646	0.50082815
92	0x3d7ccf39	0.06172106
93	0x3f1a6d72	0.6032325
94	0x3d176aa5	0.03696694
95	0x3f1596a5	0.5843299
96	0xbeba64b3	-0.36404952
97	0x3dcefbb0	0.10106599
98	0x3e8a2175	0.2697865
99	0xbe3a7ea5	-0.18212374
100	0xbea2493c	-0.31696498
101	0xbf23247a	-0.63727534
102	0xbe42c5bd	-0.19020744
103	0xbd50b633	-0.05095501
104	0x3d23eaae	0.04001873
105	0x3e048783	0.12942319
106	0x3eaa5df2	0.332748
107	0xbdede4b9	-0.11615891
108	0x3f1d773c	0.6151006
109	0xbdf83bcb	-0.121207796
110	0xbe02cc3f	-0.12773226
111	0xbe38ae92	-0.18035343
112	0x3f29b945	0.66298324
113	0xbd924f11	-0.07143987
114	0x3e89a99f	0.26887223
115	0xbf27dcf7	-0.6557154
116	0x3f114fcb	0.5676238
117	0xbeb73e00	-0.3578949
118	0x3ed0c281	0.40773395
119	0x3dfe01f6	0.12402718
120	0xbf1a1490	-0.60187626
121	0x3f098b2f	0.53728
122	0x3eb025da	0.34403878
123	0x3ea67854	0.32513678
124	0xbeafc135	-0.34327093
125	0xbbde2321	-0.00677909
126	0x3e9d4bcb	0.30721888
127	0x3e82dc8d	0.25558892

fc2.weight f4 [128, 128]
0	0x3ea00a1b	0.3125771
1	0xbe1d1760	-0.15340948
2	0xbece8351	-0.4033456
3	0x3e5e283b	0.21695034
4	0x3e1b7602	0.15181735
5	0xbee3bd08	-0.44480157
6	0xbe98653e	-0.29764742
7	0x3f507056	0.8142141
8	0xbe790cf6	-0.2432135
9	0x3f88ad06	1.0677803
10	0x3f530627	0.8243126
11	0x3d063be2	0.032771952
12	0xbc454225	-0.012039696
13	0x3f23a3ad	0.63921624
14	0x3f224e18	0.6340041
15	0xbe769d42	-0.24083427
16	0x3d16b641	0.036794905
17	0xbdf0f5fb	-0.11765667
18	0x3e0d1caf	0.13780473
19	0x3f25b1d8	0.64724493
20	0x3ced0ae5	0.028935859
21	0x3f41a17a	0.7563702
22	0xbea9a873	-0.3313633
23	0xbfe0fea8	-1.7577715
24	0xbe417b7f	-0.18894766
25	0x3d515300	0.051104546
26	0xbf275fc5	-0.6538051
27	0xbf6a7111	-0.91578776
28	0xbe80da58	-0.25166583
29	0x3e908d81	0.2823296
30	0x3ff79313	1.9341758
31	0x3f326edf	0.69700426
32	0x3ea8d886	0.32977694
33	0x3e65d56b	0.22444694
34	0xbf23ebe8	-0.6403184
35	0xbd47fb93	-0.048823904
36	0x3d0401cc	0.032228276
37	0x3e7cf0d0	0.24701238
38	0xbf3c2894	-0.7349942
39	0xbdc2fa6e	-0.09520422
40	0xbf6dd5ed	-0.9290455
41	0xbd218553	-0.03943379
42	0x3f3013a1	0.6877995
43	0x3d766c49	0.060161863
44	0x3ea398e2	0.31952578
45	0xbe8f66b5	-0.28008047
46	0x3f418a1d	0.7560137
47	0xbf242e88	-0.641335
48	0xbee87cff	-0.45407864
49	0x3f006d2e	0.50166595
50	0xba34e98b	-0.00069012557
51	0xbf0c71f3	-0.5486137
52	0xbf1dc6df	-0.6163158
53	0xbfa7e266	-1.3115966
54	0xbd4c4c5d	-0.049877513
55	0xbea74bbd	-0.3267497
56	0xbccebc52	-0.025236282
57	0xbdc3551e	-0.09537719
58	0x3e745cdb	0.23863547
59	0xbea07326	-0.3133785
60	0xbf46d618	-0.7767043
61	0x3dd1e5df	0.102489226
62	0x3dc60017	0.09667986
63	0xbda61135	-0.08108751
64	0x3f1ddd52	0.61665833
65	0xbf761fb7	-0.96142143
66	0x3eec5618	0.46159434
67	0xbfbdad1e	-1.4818456
68	0x3e313e9f	0.17309044
69	0xbe1ba887	-0.15201007
70	0xbd553955	-0.05205663
71	0x3dc55ac9	0.096364565
72	0xbedaf535	-0.42765203
73	0xbf128acf	-0.57243055
74	0x3feb7c86	1.8397377
75	0xbd336967	-0.04380169
76	0x3b7369e8	0.0037141982
77	0x3ea6b29b	0.3255814
78	0xbf0721b2	-0.5278579
79	0xbbffd171	-0.00780695
80	0xbc3c7604	-0.0115027465
81	0xbd5d55a9	-0.05403677
82	0x3f3d6406	0.7398075
83	0x3f495fbc	0.78661704
84	0xbf2e9d7d	-0.6820906
85	0x3f2248c6	0.63392293
86	0xbec75586	-0.38932437
87	0xbf2f6694	-0.68515897
88	0x3d9ee8da	0.07759257
89	0x3d706a1b	0.05869494
90	0x3f2cfe3e	0.6757544
91	0xbf62bcb0	-0.88569164
92	0xbda857bb	-0.08219858
93	0xbd170f54	-0.036879852
94	0x3e941204	0.28919995
95	0xbe3e38c3	-0.1857634
96	0xbea0faa3	-0.3144122
97	0xbe4b2d6d	-0.19841547
98	0xbe93a19f	-0.28834245
99	0xbc66a19b	-0.014076616
100	0x3eef91ef	0.46791026
101	0x3e42e584	0.19032866
102	0xbe92f9c7	-0.2870619
103	0x3e23fa54	0.16013461
104	0xbcb8200a	-0.022476215
105	0x3f16adab	0.58858746
106	0xbeeae171	-0.45875123
107	0x3ee35020	0.44397068
108	0x3e30fead	0.17284651
109	0xbe866640	-0.26249886
110	0x3e56422c	0.2092368
111	0x3e5284fe	0.20558545
112	0x3dd4d1d6	0.103915855
113	0x3eff42c2	0.4985562
114	0xbf8de434	-1.1085267
115	0xbe8c12ff	-0.27358243
116	0xbc3441db	-0.011002029
117	0xbe0e50cc	-0.13898009
118	0x3fe94d49	1.822671
119	0x3d8a5833	0.06755104
120	0x3ee3ebda	0.44515878
121	0x3f4d021b	0.8008134
122	0xbea32e87	-0.31871435
123	0xbf27afee	-0.6550282
124	0x3f0e545d	0.5559748
125	0x3ea0708b	0.31335863
126	0xbf19ae34	-0.6003144
127	0xbd8166d9	-0.06318445
128	0xbec20c75	-0.3790013
129	0x3fa2bc27	1.271367
130	0xbf40747a	-0.7517773
131	0xbe22a29b	-0.15882342
132	0x3f148de7	0.58029026
133	0xbeca1516	-0.39469212
134	0x3d04756d	0.03233855
135	0xbd25458a	-0.04034952
136	0x3e5ca1bd	0.21546073
137	0xbe94e941	-0.2908421
138	0x3e7e2a94	0.2482093
139	0x3eacb5c3	0.33732423
140	0x3f2f7996	0.685449
141	0xbd148305	-0.036257762
142	0x3fb6de68	1.4286623
143	0xbf88fa74	-1.0701432
144	0x3f112fc9	0.5671354
145	0xbea9e945	-0.33185783
146	0xbeb395a2	-0.35075098
147	0x3fa12c2f	1.2591609
148	0xbe110df5	-0.1416548
149	0xbd429384	-0.047503963
150	0xbf096b0c	-0.53678966
151	0xbe523c81	-0.20530893
152	0xbf0f2ff6	-0.5593256
153	0xbe303eec	-0.17211503
154	0xbedc8c0f	-0.43075606
155	0xbe671d21	-0.22569706
156	0xbee07daa	-0.43845874
157	0xbe256bcb	-0.16154401
158	0xbdbe01ec	-0.0927771
159	0xbd0df99c	-0.034661874
160	0x3f819d04	1.0126042
161	0xbd02922d	-0.031877685
162	0xbf28aaf7	-0.6588587
163	0x3e7c26f9	0.24624242
164	0xbf327297	-0.697061
165	0xbe8c890c	-0.27448308
166	0x3d223941	0.039605383
167	0x3ed9461b	0.424363
168	0xbeb7d163	-0.35901937
169	0x3f0a5891	0.5404139
170	0x3ee4f662	0.44719225
171	0x3ed44c07	0.41464254
172	0x3f16b154	0.5886433
173	0xbecfa31e	-0.40554136
174	0x3ebda3e0	0.3703909
175	0xbf9ae360	-1.2100639
176	0xbeba9641	-0.3644276
177	0xbefef12e	-0.4979338
178	0x3fb523a0	1.4151497
179	0xbed408d8	-0.41412997
180	0xbf2c43e7	-0.6729111
181	0x3ed7c1c5	0.42140022
182	0x3ec1d84b	0.3786033
183	0xbfba2f78	-1.4545736
184	0x3e8cc04a	0.27490455
185	0xbd023cd1	-0.03179628
186	0xbe7e716f	-0.24847959
187	0x3ead859d	0.33891
188	0xbf63a4bc	-0.8892324
189	0xbda33d9e	-0.07970737
190	0xbe2a9267	-0.1665741
191	0xbf0751ef	-0.52859396
192	0x3dc75527	0.097330384
193	0xbe88653f	-0.26639745
194	0xbd986918	-0.0744192
195	0xbe8b3b8f	-0.27193877
196	0x3e2fdb1c	0.17173427
197	0xbd1ee49b	-0.038792234
198	0xbefe494d	-0.496653
199	0x3dbf6f1b	0.093473636
200	0xbef0aa33	-0.47004852
201	0xbf9f2a46	-1.2434776
202	0xbdeb9a3b	-0.115040265
203	0xbe0be282	-0.13660625
204	0x3de4c967	0.11171227
205	0x3f6e0a6d	0.9298466
206	0x3e00e287	0.12586413
207	0xbfc4185a	-1.5319932
208	0xbd65baa9	-0.056086216
209	0xbd6d0e99	-0.05787525
210	0x3f126055	0.5717824
211	0xbcde8201	-0.0271616
212	0xbf8f07ea	-1.117429
213	0xbd471d06	-0.048611663
214	0xbf03b40d	-0.5144661
215	0xbdb43ed0	-0.08801043
216	0xbd6fb9b1	-0.0585267
217	0xbed35e19	-0.41282728
218	0x3f2425a3	0.6411993
219	0xbf98645b	-1.1905626
220	0x3ea25ab4	0.31709826
221	0xbf560e80	-0.83615875
222	0x3ece322b	0.4027265
223	0x3e8edb51	0.279017
224	0xbe3c73d9	-0.18403567
225	0xbf4323a2	-0.76226246
226	0x3e9b4236	0.30323952
227	0xbf2411bc	-0.6408956
228	0x3e5ebef9	0.21752538
229	0x3f656bab	0.89617413
230	0xbe14c712	-0.14529064
231	0xbc106ba7	-0.008814729
232	0xbc5988e6	-0.013277268
233	0x3e996e33	0.29966888
234	0xbf274e19	-0.6535354
235	0x3f5ae650	0.8550768
236	0xbe0bfc0b	-0.13670366
237	0x3ece580f	0.40301558
238	0xbf06ec7c	-0.52704597
239	0xbd7b3a2e	-0.06133478
240	0xbeb8e00c	-0.36108434
241	0x3f1627aa	0.5865427
242	0x3e658dfe	0.22417447
243	0x3ec6f263	0.388568
244	0x3e4b062d	0.19826575
245	0xbe9bd348	-0.30434632
246	0x3ef3ea4c	0.47639692
247	0x3e3e9df0	0.18614936
248	0x3eb8b4a5	0.3607532
249	0x3f567da1	0.83785444
250	0xbd4b2708	-0.04959777
251	0x3f941233	1.1568054
252	0x3f3a89be	0.7286643
253	0x3f6c11e2	0.92214787
254	0xbd97abdd	-0.07405827
255	0x3c993e67	0.018706514

fc2.bias f4 [128]
0	0xbed04ed3	-0.40685138
1	0x3e0ec72c	0.13943166
2	0x3dd655c3	0.104655765
3	0xbed438d4	-0.41449606
4	0xbd989670	-0.07450569
5	0xbeab10a0	-0.3341112
6	0x3f139c3d	0.57660276
7	0xbeb5c1a2	-0.35499293
8	0xbe97fb7c	-0.29684055
9	0x3eb947c5	0.36187568
10	0x3edc7d40	0.43064308
11	0x3f28c362	0.6592313
12	0xbdf53c1e	-0.11974357
13	0x3c5e1691	0.013555185
14	0x3efd4bd4	0.49471915
15	0x3c99530e	0.018716361
16	0x3d412299	0.047152136
17	0x3e5c0295	0.2148536
18	0x3e3bcc8b	0.18339746
19	0x3df8110f	0.12112629
20	0x3d5e2b77	0.05424067
21	0xbe02152a	-0.12703386
22	0x3e7c373a	0.24630442
23	0xbefa7041	-0.48913768
24	0xbe98ed1a	-0.29868394
25	0x3c062eab	0.008189837
26	0x3dfedae9	0.124440975
27	0xbd91ecf8	-0.07125276
28	0x3f11ba79	0.5692516
29	0x3da449a3	0.080218576
30	0xbe3bc36e	-0.1833627
31	0xbeddc2b6	-0.43312615
32	0x3ec390aa	0.38196307
33	0x3f4a4044	0.7900431
34	0x3ed6a3ae	0.41921753
35	0x3ea8695d	0.32892886
36	0xbec119c5	-0.37714973
37	0xbeb23374	-0.3480488
38	0xbec39ff0	-0.3820796
39	0x3f184ff9	0.5949703
40	0x3e3071c6	0.17230901
41	0xbf061964	-0.52382493
42	0xbef83ee0	-0.4848547
43	0xbe0894b0	-0.1333797
44	0xbde1ef90	-0.11032021
45	0x3e4daad5	0.20084698
46	0x3ebf1c9d	0.37326518
47	0xbe600f34	-0.218808
48	0xbe017e51	-0.12645842
49	0x3ead1022	0.3380137
50	0xbe256d47	-0.16154967
51	0x3e5d02e1	0.2158313
52	0xbe5d5b1a	-0.21616784
53	0xbf07ccee	-0.5304707
54	0x3e36846d	0.17823954
55	0xbe4f9cc2	-0.20274642
56	0xbe53c632	-0.20681074
57	0xbed94555	-0.4243571
58	0xbe1cf585	-0.15328033
59	0xbe196edd	-0.14983697
60	0x3d5d6f02	0.054060943
61	0x3eae6fbf	0.3406963
62	0xbe92d72b	-0.28679785
63	0xbcfa53cf	-0.030557541
64	0x3f183775	0.5945962
65	0xbec4dda8	-0.3845036
66	0x3ebd8aa5	0.3701984
67	0x3c07f14c	0.008297276
68	0x3bb9209a	0.0056496384
69	0x3e9a238a	0.3010524
70	0x3e8b0a61	0.27156356
71	0x3e228630	0.15871501
72	0x3eb11e17	0.3459327
73	0xbdf87bd5	-0.12132994
74	0x3dd2c5a9	0.10291607
75	0xbdbb5e79	-0.091488786
76	0xbe627f85	-0.22118957
77	0xbe37bcf9	-0.17943181
78	0x3e0391b2	0.12848547
79	0xbd2e913b	-0.04261897
80	0xbe880a55	-0.26570383
81	0x3ea54d01	0.32285312
82	0xbd05ce75	-0.032667596
83	0xbec9d795	-0.3942229
84	0xbdbc6440	-0.09198809
85	0x3e208be9	0.15678371
86	0xbc1dc04d	-0.009628368
87	0xbd31c0e3	-0.04339684
88	0xbe959fc8	-0.29223466
89	0xbe01cbc0	-0.1267538
90	0x3c29a582	0.010354402
91	0x3e69bf43	0.22826867
92	0xbdd3ab56	-0.10335414
93	0x3e15ef8d	0.14642163
94	0x3e619493	0.22029333
95	0x3e7bab0f	0.24576972
96	0xbdcd1849	-0.10014398
97	0xbf13d161	-0.5774136
98	0xbc9b18bb	-0.01893269
99	0xbdfb641d	-0.122749545
100	0x3e1f295d	0.15543123
101	0xbba874e7	-0.005140889
102	0x3dbd114f	0.09231817
103	0x3c14af27	0.009074963
104	0xbf059074	-0.5217354
105	0xbe0a4261	-0.13501884
106	0x3d2982e4	0.041384593
107	0x3ed29a47	0.4113333
108	0x3e8e6d2a	0.2781766
109	0x3e8dc6cc	0.27690732
110	0xbe8baf23	-0.27282056
111	0x3ea2e99f	0.31818864
112	0xbe3a4e53	-0.18193941
113	0x3cc6e7bf	0.024280427
114	0xbecc820d	-0.3994297
115	0xbb8c8243	-0.0042879893
116	0xbe168776	-0.14700112
117	0x3e0bf5c2	0.13667968
118	0xbe93b8df	-0.28851983
119	0x3ec9a85b	0.39386258
120	0xbdd45b54	-0.10368982
121	0xbe6f9665	-0.23397215
122	0xbf165ac5	-0.58732253
123	0x3d9c79f9	0.07640452
124	0xbea67dcf	-0.3251786
125	0xbe337f8a	-0.17529121
126	0xbed366a5	-0.4128925
127	0x3e1dc6f0	0.1540792

policy_mean.weight f4 [7, 128]
0	0x3e580dc8	0.21099007
1	0x3ccde1d5	0.0251321
2	0xbc4bc51e	-0.012437133
3	0x3c98dcda	0.018659998
4	0xbc689643	-0.014195981
5	0xbc7f0a75	-0.015566458
6	0xbe896f28	-0.26842618
7	0xbb87f1c2	-0.004148693
8	0xbd468d85	-0.048474807
9	0x3dd406d9	0.103528686
10	0xbd1170c2	-0.035507925
11	0xbcf5a1fa	-0.029984463
12	0xbd1f5fae	-0.038909607
13	0xbd82dc86	-0.06389718
14	0x3da3bf60	0.07995486
15	0xbe0a9aec	-0.1353566
16	0x3d29f210	0.041490614
17	0x3d07dc8a	0.033169307
18	0x3c9f84f6	0.01947258
19	0xbd85aba7	-0.06526881
20	0xbd2b90fb	-0.04188631
21	0x3ca1d90b	0.019756814
22	0xbd195351	-0.037432972
23	0xbc14ebb9	-0.009089404
24	0xbcb6bfe2	-0.022308294
25	0xbd751cd2	-0.05984194
26	0xbd9c2cd7	-0.0762574
27	0xbde54062	-0.11193921
28	0xbd8b4c2c	-0.06801638
29	0xbc5d3aa9	-0.013502755
30	0xbd7b0297	-0.061281767
31	0x3d1b1153	0.03785832
32	0xbd27dbff	-0.04098129
33	0x3d0cb349	0.034350667
34	0xbcd6b2a2	-0.026208226
35	0x3d933a80	0.07188892
36	0xbd595261	-0.05305708
37	0x3ddf1b02	0.10893823
38	0xbd05b07f	-0.032639023
39	0x3d0df3a5	0.034656186
40	0x3cd51d6d	0.026015008
41	0x3d93aed2	0.07211079
42	0xbc6d78ee	-0.014494164
43	0x3dcc04f0	0.09961879
44	0x3c1b7d13	0.009490269
45	0xbdca3d0e	-0.098749265
46	0x3c93f092	0.018059049
47	0x3dfa3a35	0.12218133
48	0xbd0e56a7	-0.034750607
49	0x3dc4bf7a	0.09606834
50	0x3d59038e	0.052981906
51	0xbc7a8229	-0.015289822
52	0xbcc96f52	-0.024589214
53	0x3cb5c3aa	0.022188026
54	0xbcca4837	-0.024692638
55	0x3bb7ed26	0.005612987
56	0xbddbec29	-0.10738403
57	0x3cb48393	0.022035396
58	0xbd992368	-0.07477456
59	0x3da2aa78	0.079426706
60	0xbda25773	-0.07926836
61	0xbbd19c36	-0.0063967956
62	0x3daea0e6	0.08526783
63	0xbc0c0e7e	-0.008548377
64	0x3b5bfd2b	0.0033567648
65	0x3cf034a3	0.029321974
66	0xbdfa6dd0	-0.12227976
67	0x3d32cc6f	0.043651994
68	0x3e184aa6	0.14872226
69	0xbdf3cc9f	-0.11904263
70	0xbb2f7029	-0.0026769734
71	0xbd9c1cf0	-0.07622707
72	0xbd04d269	-0.032427225
73	0xbe06f38f	-0.13178848
74	0xbd7bc04f	-0.061462697
75	0x3d77b1f7	0.060472455
76	0xbd043732	-0.0322792
77	0x3c787553	0.015164691
78	0xbdd66097	-0.10467642
79	0x3d9fa404	0.077949554
80	0xbd82be49	-0.0638395
81	0x3c52e38c	0.012871634
82	0xbc3c7a97	-0.011503837
83	0x3dc05aec	0.09392342
84	0x3d869ce5	0.06572894
85	0xbd3cdce6	-0.046109103
86	0x3da24b70	0.07924545
87	0xbd18401d	-0.03717052
88	0x3e06cefe	0.13164899
89	0xbcbe25e1	-0.023211421
90	0x3dbf6aa8	0.09346515
91	0x3dd702be	0.1049857
92	0x3da78510	0.081796765
93	0x3c4573e9	0.012051561
94	0x3e135f72	0.14391878
95	0x3d952624	0.07282665
96	0xbd249b68	-0.04018727
97	0x3dc1a080	0.09454441
98	0xbd8c71e9	-0.06857664
99	0x3e80285c	0.25030792
100	0x3d9c6b7d	0.07637689
101	0xbe332f22	-0.17498448
102	0x3d9aa705	0.07551388
103	0x3c78007d	0.015136835
104	0x3cc0c672	0.023532126
105	0xbc829529	-0.015940266
106	0x3e50d64a	0.20394245
107	0xbdb543f2	-0.0885085
108	0xbb86af94	-0.004110286
109	0xbcf89e94	-0.030349053
110	0xbd9ccf9e	-0.07656787
111	0x3c9530f8	0.018211827
112	0xbd9d5b62	-0.076834455
113	0x3dcdfebf	0.100583546
114	0xbd89aecd	-0.06722794
115	0xbdf54d50	-0.11977637
116	0x3de8d556	0.113688156
117	0x3d96a36d	0.0735539
118	0x3e030b2f	0.12797235
119	0x3d500770	0.050788343
120	0x3d099663	0.033590686
121	0x3d258103	0.04040624
122	0xbcfa2dd4	-0.03053943
123	0x3d5ad527	0.053425934
124	0x3dbae81f	0.09126305
125	0x3d1c9ee9	0.038237486
126	0x3d62a0da	0.05532918
127	0xbdd9d89a	-0.106370166
128	0x3d940c5d	0.072289206
129	0xbdf556e9	-0.119794674
130	0x3e74a800	0.23892212
131	0x3e100f1e	0.14068267
132	0x3d1449e2	0.036203273
133	0x3debe857	0.11518925
134	0xbe273e60	-0.16332388
135	0xbdb73e2d	-0.08947406
136	0x3e0bc706	0.1365014
137	0xbdd2df5e	-0.1029651
138	0xbe5f1726	-0.21786174
139	0x3d2fad28	0.042889744
140	0x3ec62372	0.38698918
141	0x3d9336f9	0.071882196
142	0xbe40e7e4	-0.18838459
143	0xbde999fe	-0.11406325
144	0xbe26ea56	-0.1630033
145	0xbdb43b9b	-0.08800431
146	0x3bed2160	0.0072366446
147	0x3dc8425f	0.09778284
148	0x3e4e696e	0.20157406
149	0xbdbe29ff	-0.09285354
150	0x3d9eda0f	0.07756435
151	0x3e266765	0.1625038
152	0xbd241268	-0.040056616
153	0x3e3abb2b	0.18235461
154	0xbcc5a0f9	-0.02412461
155	0x3e0912e0	0.13386106
156	0x3d147af2	0.036250062
157	0xbd1021c4	-0.03518845
158	0x3de1d0f2	0.11026181
159	0x3d708284	0.05871822
160	0xbd8637db	-0.06553622
161	0x3c720757	0.014772258
162	0x3d93385b	0.07188483
163	0x3cac6a17	0.021046681
164	0xbbeb791a	-0.0071860673
165	0xbd098c95	-0.033581335
166	0x3c2ae24f	0.010429933
167	0x3c99bc87	0.018766655
168	0x3e529a93	0.20566778
169	0xbbe867f0	-0.0070924684
170	0x3db2da83	0.08733084
171	0xbd9bc79b	-0.07606431
172	0x3cd0797d	0.025448555
173	0x3dab3de2	0.083614126
174	0xbc42b29e	-0.011883406
175	0x3e85cd50	0.26133204
176	0x3c48bdd5	0.012252291
177	0x3d1ed0c0	0.0387733
178	0xbccd9a67	-0.025098039
179	0xbca1820f	-0.019715337
180	0x3e09bfdb	0.13452093
181	0x3e11547f	0.14192389
182	0x3d459d2e	0.0482456
183	0xbca82ec7	-0.020530118
184	0x3cacbbf5	0.021085719
185	0x3d6c29bf	0.057657
186	0x3e4265fe	0.1898422
187	0x3d4f744f	0.05064803
188	0xbdd7c65a	-0.105358794
189	0xbd359188	-0.044328243
190	0x3e1a3715	0.15060075
191	0x3d8c7d8f	0.06859886
192	0xbce12835	-0.027484993
193	0x3e6c69eb	0.2308728
194	0x3c901119	0.017586278
195	0xbd3d07ea	-0.046150126
196	0x3dc0b6b5	0.094098486
197	0x3cfbc118	0.030731723
198	0xbbe498c4	-0.006976219
199	0x3d78c7c7	0.060737398
200	0x3be8b1c0	0.0071012676
201	0xbe0c9d31	-0.13731839
202	0xbd18f982	-0.037347324
203	0xbd3e220c	-0.04641919
204	0xbca09823	-0.019603794
205	0xbd666358	-0.056247085
206	0x3d14beee	0.036314897
207	0x3b61aa51	0.0034433792
208	0xbe8616d4	-0.2618929
209	0x3d4c17d9	0.04982743
210	0x3cd41f0d	0.025893712
211	0xbc3f4003	-0.011672976
212	0x3d95d81d	0.07316611
213	0xbe4a97e3	-0.19784503
214	0x3cb8654b	0.022509238
215	0xbc171b8f	-0.009222879
216	0x3db63e63	0.08898618
217	0x3c819764	0.015819259
218	0xbe13ad3a	-0.1442155
219	0xbddb92ee	-0.10721384
220	0x3d970b79	0.07375235
221	0x3ccc165b	0.024913004
222	0xbc975267	-0.01847191
223	0x3cb1fec5	0.021727929
224	0xbd1bb095	-0.0380102
225	0xbdfb6552	-0.12275185
226	0x3e1dc64e	0.15407678
227	0xbd5dbc0b	-0.05413441
228	0xbdc4c791	-0.09608377
229	0x3d05155f	0.032491084
230	0x3de53dd8	0.111934364
231	0x3bab9b23	0.0052369996
232	0x3d1e4721	0.038642053
233	0xbe960239	-0.2929857
234	0xbe18a623	-0.14907126
235	0x3c30c653	0.010789472
236	0xbc4b6625	-0.01241449
237	0xbd8d06b5	-0.06886045
238	0x3d351a2c	0.044214413
239	0x3dc3ffe7	0.09570294
240	0xbc48b5f3	-0.012250411
241	0xbca1de67	-0.01975937
242	0xbce09da0	-0.027418911
243	0x3dfc84f0	0.12330043
244	0xbde4d457	-0.11173313
245	0xbdde02c8	-0.10840374
246	0xbc126f21	-0.008937628
247	0x3ea358a0	0.31903553
248	0x3e20b5ec	0.15694398
249	0x3dd4313a	0.10360952
250	0x3d768799	0.06018791
251	0x3ba662b0	0.0050776824
252	0xbd6dc70b	-0.05805115
253	0x3da86b10	0.082235456
254	0x3db5df14	0.088804394
255	0xbdcd3010	-0.10018933

policy_mean.bias f4 [7]
0	0xbd9edf0a	-0.07757385
1	0xbda52122	-0.0806296
2	0x3d9fd6d7	0.07804649
3	0x3ca17833	0.019710636
4	0xbddb33ca	-0.10703237
5	0xbd0cfedd	-0.034422744
6	0xbc9ff6a0	-0.01952678

value_head.weight f4 [1, 128]
0	0xc10faa14	-8.979023
1	0x411451d1	9.269975
2	0xc11f1b1d	-9.944119
3	0x4110069d	9.001615
4	0x411265ed	9.149884
5	0x41159dea	9.351053
6	0x41159c5f	9.350677
7	0x4131495b	11.080409
8	0x41094b5a	8.580896
9	0xc10c63e2	-8.774385
10	0xc10f55c9	-8.958444
11	0xc11701a1	-9.437898
12	0x40ff5a81	7.979798
13	0xc107646f	-8.46202
14	0x40f9da72	7.8079157
15	0x410d6de0	8.839325
16	0x40f1814f	7.5470347
17	0xc102c4d8	-8.173058
18	0xc0cf9799	-6.4872556
19	0xc11c746a	-9.778421
20	0x41179a80	9.47522
21	0xc104dd91	-8.304093
22	0xc10e7d5f	-8.905608
23	0x41061c81	8.381959
24	0x411ac9eb	9.674296
25	0x410696e5	8.4118395
26	0xc10243eb	-8.141582
27	0x410925f9	8.571771
28	0xc12a80e7	-10.65647
29	0xc10967f7	-8.587882
30	0x410d34cb	8.825389
31	0x410d2b5b	8.823085
32	0x410a6cd7	8.651572
33	0xc1173835	-9.451222
34	0xc11a1fb7	-9.632743
35	0x410923e3	8.571261
36	0x4117bd5d	9.483731
37	0x41194a67	9.580665
38	0xc1079b59	-8.475427
39	0xc10fc157	-8.984702
40	0x410b8b15	8.721456
41	0x411dd21b	9.863795
42	0x410f110f	8.941665
43	0xc1013b9c	-8.077053
44	0x40f44bdd	7.6342607
45	0xc13ae362	-11.680513
46	0xc119e3a4	-9.618076
47	0xc100ecc5	-8.057805
48	0x410b7ca5	8.717931
49	0x41052a03	8.322757
50	0x410349da	8.20553
51	0xc1114daf	-9.081466
52	0x410ad45e	8.676847
53	0x410596f8	8.349358
54	0x4109b2a2	8.606112
55	0x411a9bcf	9.663039
56	0x410c51f7	8.770011
57	0x41188068	9.531349
58	0x410211a2	8.129305
59	0x41110faf	9.066329
60	0xc10d6cf7	-8.839103
61	0xc1130623	-9.188998
62	0x41120b5b	9.127772
63	0xc10bd8bd	-8.740415
64	0x410ae0ad	8.6798525
65	0x41072c18	8.448265
66	0xc1174ac5	-9.455754
67	0xc10ed44a	-8.926828
68	0xc0caafb0	-6.333946
69	0xc112afdf	-9.167937
70	0xc114369b	-9.263331
71	0xc122a980	-10.166382
72	0x411df2bd	9.871762
73	0xc106a174	-8.414417
74	0xc1155a5b	-9.334559
75	0x410c1609	8.75538
76	0x412662b5	10.399098
77	0x40f45e98	7.636547
78	0xc1086cae	-8.526533
79	0x410e7de7	8.905738
80	0xc100819e	-8.031645
81	0xc10c2bee	-8.760725
82	0xc10af5c5	-8.685002
83	0x41008de5	8.034642
84	0xc1083f89	-8.5155115
85	0x41137502	9.216066
86	0xc11ecb3b	-9.924617
87	0x40f270b1	7.5762563
88	0xc0fa1550	-7.8151016
89	0x41064356	8.391439
90	0x4112b92a	9.170206
91	0xc10cf43f	-8.80963
92	0xc0dd4f99	-6.9159665
93	0x411a4f1f	9.644317
94	0xc0eadbc9	-7.3393292
95	0x410e5135	8.894826
96	0x411c18b8	9.756035
97	0x40e9ed67	7.31023
98	0x40e2ff4c	7.093664
99	0xc1146d41	-9.276673
100	0x411b21d5	9.69576
101	0xc114969c	-9.28677
102	0xc122aa3f	-10.166564
103	0x40e10320	7.0316315
104	0x41182b99	9.510644
105	0x410bf311	8.746842
106	0x4119c11f	9.609649
107	0xc118355f	-9.51303
108	0xc10f9e3d	-8.976132
109	0xc122da5f	-10.178313
110	0x40ffe675	7.996882
111	0x410a5859	8.646569
112	0xc113ca47	-9.236884
113	0x41135470	9.208115
114	0x41077ea9	8.468423
115	0xc10872d3	-8.528033
116	0x410bf3bb	8.7470045
117	0x411ba10c	9.726818
118	0xc110773f	-9.029113
119	0xc10df9fa	-8.873529
120	0xc1142494	-9.25893
121	0x410dd029	8.86332
122	0x40f8fe76	7.781062
123	0xc10d88bb	-8.845881
124	0x4109beeb	8.609111
125	0x4111f4c5	9.122258
126	0x40fa7147	7.826328
127	0xc10eacd2	-8.917192

exp_avg f4 [7]
0	0xba411f2e	-0.0007367012
1	0xba49754a	-0.0007685019
2	0xba9fc174	-0.0012188391
3	0xb925038a	-0.00015736945
4	0xba59424f	-0.0008287774
5	0xb9539718	-0.00020178815
6	0x3a0ee33c	0.00054507307

exp_avg_sq f4 [7]
0	0x37adffdf	2.0742356e-05
1	0x3791bac5	1.7372318e-05
2	0x377824df	1.4790537e-05
3	0x37993095	1.8261644e-05
4	0x37932770	1.754213e-05
5	0x3782a0b2	1.5572037e-05
6	0x37a20b9a	1.9317307e-05

exp_avg f4 [128, 21]
0	0x37e69f55	2.7492331e-05
1	0xb8f98d3c	-0.00011899552
2	0xbb00be70	-0.001964476
3	0xbb0ccba9	-0.0021483696
4	0x39470420	0.00018979656
5	0x3947dba7	0.00019059946
6	0xb8b79b7c	-8.755081e-05
7	0x3696aee0	4.4907065e-06
8	0x3625db31	2.4714502e-06
9	0x37cc375f	2.434448e-05
10	0x37239a9c	9.751555e-06
11	0xb83b9277	-4.472068e-05
12	0xb98e666b	-0.00027160658
13	0xbb02054f	-0.001983959
14	0xb8d4bf71	-0.000101446065
15	0xba05430e	-0.0005083539
16	0x38f81a3a	0.000118304466
17	0xbb01d6ce	-0.0019811871
18	0xb8977113	-7.221303e-05
19	0xb9200635	-0.00015261101
20	0xb7a36df1	-1.948231e-05
21	0x38354b7c	4.3224063e-05
22	0x389b92a1	7.418288e-05
23	0x3a4efb90	0.0007895762
24	0x3a60f5c8	0.0008581546
25	0xb809e8b7	-3.2880078e-05
26	0x36d89aef	6.4553383e-06
27	0x38114091	3.4630826e-05
28	0x33abca49	7.9996035e-08
29	0xb5f4325e	-1.8194075e-06
30	0xb6ad363a	-5.1621146e-06
31	0xb68585d7	-3.97929e-06
32	0x37857370	1.590859e-05
33	0x38e1bf88	0.000107645115
34	0x3a50692e	0.00079502433
35	0x383af5b1	4.4574674e-05
36	0x39a38ba9	0.00031193838
37	0xb8107d19	-3.444878e-05
38	0x3a438e59	0.0007459871
39	0xb7e52386	-2.731547e-05
40	0x380c59ca	3.3462224e-05
41	0x36b6d09f	5.4483094e-06
42	0xb69aa5a1	-4.6088394e-06
43	0xb7085e99	-8.128257e-06
44	0xb8e66715	-0.00010986455
45	0xb8f9dd4e	-0.000119144664
46	0x36b63193	5.429794e-06
47	0x34fb7d5c	4.6843604e-07
48	0xb69ac0d7	-4.612007e-06
49	0x33281a6c	3.913958e-08
50	0x345b23ad	2.0408943e-07
51	0x35b684d3	1.3598714e-06
52	0x3579f0f8	9.3110384e-07
53	0xb62970b3	-2.5248562e-06
54	0xb783277d	-1.5634805e-05
55	0xb8e84525	-0.00011075501
56	0xb7002f6a	-7.640434e-06
57	0xb80f10a9	-3.4109373e-05
58	0x36d1685a	6.2408335e-06
59	0xb8e1cb95	-0.00010766756
60	0x360bda94	2.0839843e-06
61	0xb6fbe0c0	-7.5065473e-06
62	0xb56f0968	-8.9048126e-07
63	0x38272e35	3.9858936e-05
64	0x38cc1fd1	9.733404e-05
65	0x3a1dac23	0.0006014725
66	0x3a340578	0.000686727
67	0x38531af2	5.0331415e-05
68	0x38321e12	4.2466512e-05
69	0xb7ae3c29	-2.077043e-05
70	0xb7744105	-1.4558672e-05
71	0x3739a47f	1.1065159e-05
72	0xb78dd3f6	-1.6907212e-05
73	0x37ad211b	2.0638623e-05
74	0x37643cf3	1.360405e-05
75	0x38626fec	5.3986834e-05
76	0x3a219472	0.00061637827
77	0xb51f2e36	-5.929936e-07
78	0x39a98769	0.0003233508
79	0xb95865d9	-0.00020637306
80	0x3a22eec0	0.0006215386
81	0xb7dc3ded	-2.625488e-05
82	0xb835cfbb	-4.3347227e-05
83	0x377a1320	1.4905614e-05
84	0x35d8496c	1.6114623e-06
85	0x3703142d	7.812906e-06
86	0x3887cdf1	6.475661e-05
87	0x389aba2e	7.377971e-05
88	0xb58c4d7f	-1.0453367e-06
89	0x36e035e1	6.6819925e-06
90	0xb6bdb839	-5.6540853e-06
91	0xb5295071	-6.3074464e-07
92	0x34adda5b	3.2382636e-07
93	0xb580789f	-9.571849e-07
94	0x351155ea	5.414173e-07
95	0x35cae046	1.5115445e-06
96	0x36ff4814	7.607983e-06
97	0x388c01fd	6.6760906e-05
98	0x3697e827	4.5271768e-06
99	0x379437a8	1.7668892e-05
100	0xb7952ee6	-1.7784023e-05
101	0x3893fd68	7.056707e-05
102	0xb3d69259	-9.991772e-08
103	0xb45c088d	-2.0492207e-07
104	0x36068146	2.0042803e-06
105	0x37b24a32	2.1253803e-05
106	0x3791735c	1.7339065e-05
107	0x39c4d68b	0.0003754388
108	0x39dc63b8	0.00042035966
109	0xb7eb26b3	-2.8032204e-05
110	0x378c0b63	1.6694603e-05
111	0x3814c2b6	3.546729e-05
112	0xb694afcf	-4.4312105e-06
113	0x356e18a1	8.869775e-07
114	0xb75c75cd	-1.31404495e-05
115	0x374f19d7	1.2344178e-05
116	0x379b623f	1.852319e-05
117	0x3866e9d5	5.5054046e-05
118	0x39c7a4c8	0.0003807901
119	0x379462ed	1.768904e-05
120	0x396e7d93	0.00022744229
121	0xb8929458	-6.989454e-05
122	0x39b089f4	0.0003367212
123	0xb6373ff3	-2.7306348e-06
124	0x381e302b	3.7714995e-05
125	0x36b38f50	5.3512995e-06
126	0x38e83166	0.00011071823
127	0x3919e488	0.00014676352
128	0x3b519200	0.0031977892
129	0x3b620df1	0.0034493173
130	0xb9a7b928	-0.00031990674
131	0xb8b10cf7	-8.4424326e-05
132	0x395c0ae1	0.00020984888
133	0xb59960fb	-1.1427613e-06
134	0xb6f64482	-7.3393467e-06
135	0xb77ed79a	-1.5189778e-05
136	0xb78c36af	-1.6714765e-05
137	0x38b783ad	8.7506465e-05
138	0x39da09be	0.0004158746
139	0x3b51a58a	0.0031989538
140	0x3927b69b	0.00015994387
141	0x3ac0286c	0.0014660484
142	0xb9ffef58	-0.00048815715
143	0x3b43df22	0.0029887636
144	0xb7c2b71f	-2.3211875e-05
145	0x398d177d	0.00026911116
146	0x359c4835	1.1643921e-06
147	0x3692177e	4.353874e-06
148	0x31a2016e	4.714983e-09
149	0xb90aab7c	-0.00013224588
150	0xb915142a	-0.00014217259
151	0x3704e70e	7.92161e-06
152	0x3825cb70	3.952853e-05
153	0xb7fe67f0	-3.032756e-05
154	0x34f73480	4.6045534e-07
155	0xb200a5e1	-7.488297e-09
156	0x353fc99b	7.144642e-07
157	0x35b4eb5a	1.3479541e-06
158	0xb6b917f8	-5.51622e-06
159	0xb79f72fc	-1.900782e-05
160	0xb90adcf0	-0.00013243011
161	0xb6d3da9e	-6.3137404e-06
162	0xb8bf6b2a	-9.1275506e-05
163	0x369f973b	4.756175e-06
164	0xb8e07036	-0.00010702053
165	0xb72597b7	-9.87009e-06
166	0xb79f7d16	-1.9012525e-05
167	0xb445d367	-1.8423962e-07
168	0x37c04469	2.292004e-05
169	0x392bec17	0.00016395781
170	0x3b19f2b5	0.0023490612
171	0x3b2a9280	0.0026027262
172	0xb97ac9a6	-0.00023916978
173	0xb8e76600	-0.00011033937
174	0x38a83cd4	8.0221944e-05
175	0xb77590dd	-1.4636867e-05
176	0x367e4858	3.789106e-06
177	0xb8251f57	-3.9368253e-05
178	0x370281bc	7.77881e-06
179	0x38910ceb	6.916545e-05
180	0x39a35631	0.00031154
181	0x3b1c23d1	0.002382506
182	0x38ea7484	0.00011179692
183	0x3a5b5214	0.00083664176
184	0xb9de4664	-0.00042395585
185	0x3b1b2096	0.0023670546
186	0x3841f794	4.624536e-05
187	0x391ac04d	0.00014758222
188	0x380c4711	3.3444787e-05
189	0xb66c94d9	-3.5253381e-06
190	0xb6d974c1	-6.480696e-06
191	0xb87789b5	-5.901764e-05
192	0xb882d9c9	-6.239449e-05
193	0xb663702d	-3.389093e-06
194	0x3690d5ef	4.3164396e-06
195	0xb6652201	-3.4143452e-06
196	0x32ea6fab	2.7291966e-08
197	0x32d5b526	2.487884e-08
198	0xb263b1b5	-1.3253545e-08
199	0x359a6c22	1.1505365e-06
200	0xb5348cc3	-6.726006e-07
201	0xb7163eb2	-8.955294e-06
202	0xb87694e5	-5.878964e-05
203	0xb6594a70	-3.2378848e-06
204	0xb743a039	-1.16602105e-05
205	0xb703d860	-7.858587e-06
206	0xb86bd8be	-5.6230223e-05
207	0x363f71a5	2.8527368e-06
208	0xb6261143	-2.4745975e-06
209	0x3474ce7f	2.2799394e-07
210	0x38a1028b	7.677552e-05
211	0xb938b439	-0.00017614746
212	0xbaac4af2	-0.0013144894
213	0xbac4e253	-0.0015021063
214	0x38e393e0	0.00010851747
215	0xb75b8435	-1.3084199e-05
216	0x3918d239	0.00014574164
217	0x3762b79f	1.3513402e-05
218	0xb7415b54	-1.152496e-05
219	0x3710bb93	8.626742e-06
220	0x365334d4	3.14722e-06
221	0xb58152d6	-9.635357e-07
222	0xb90344f2	-0.00012518818
223	0xbab035d4	-0.0013443776
224	0x38374595	4.3695403e-05
225	0xb9814ab7	-0.00024660464
226	0x38493d23	4.7979072e-05
227	0xbabd194f	-0.0014427098
228	0xb8a307d5	-7.7739045e-05
229	0x3855bd19	5.095927e-05
230	0xb7fab8e4	-2.9888419e-05
231	0xb8029b68	-3.113915e-05
232	0x38d5ffc2	0.0001020427
233	0x3ad4c5f4	0.0016233311
234	0x3af4d622	0.0018679539
235	0xb96f8b7d	-0.0002284478
236	0x39a9e2bb	0.0003240312
237	0xb9a87a91	-0.00032134776
238	0xb7f81295	-2.9572557e-05
239	0x379cafe5	1.8678556e-05
240	0xb8505e33	-4.9678794e-05
241	0x388de694	6.7663525e-05
242	0x3768a8d8	1.386759e-05
243	0x3824c1aa	3.928101e-05
244	0x3ad7ec1c	0.0016473564
245	0x374f40bf	1.2353236e-05
246	0x3a8f4cf0	0.0010932963
247	0xba8bc4b3	-0.0010663479
248	0x3adf392c	0.0017030588
249	0x383cc591	4.500669e-05
250	0xb8839f08	-6.276189e-05
251	0x37c98854	2.402455e-05
252	0xb872432e	-5.7759862e-05
253	0x3982a3fd	0.00024917713
254	0x3b8cee26	0.0043008504
255	0x3b979ea6	0.0046270667

exp_avg_sq f4 [128, 21]
0	0x35af3d38	1.3056333e-06
1	0x369bbd89	4.6414248e-06
2	0x39035ea4	0.0001252839
3	0x391627bc	0.00014319917
4	0x36161f2b	2.2369884e-06
5	0x35aef960	1.3036588e-06
6	0x35b3fa73	1.340943e-06
7	0x3259134a	1.2635448e-08
8	0x324263e8	1.1315002e-08
9	0x3410abda	1.3473564e-07
10	0x338fddc0	6.6992925e-08
11	0x340aa5ab	1.2912521e-07
12	0x3662f05d	3.3816534e-06
13	0x39035844	0.00012526015
14	0x3608ccc5	2.038477e-06
15	0x36dfc29a	6.6685725e-06
16	0x36702f6c	3.579039e-06
17	0x390de6c5	0.00013532776
18	0x35ad6889	1.2919928e-06
19	0x353155b0	6.606233e-07
20	0x33273daa	3.89388e-08
21	0x33f01d27	1.1181174e-07
22	0x3459aedf	2.0273318e-07
23	0x3723e7e3	9.769547e-06
24	0x3731b712	1.05926465e-05
25	0x34527af9	1.9602511e-07
26	0x3497f132	2.8301434e-07
27	0x348c2a91	2.6108003e-07
28	0x30c4d13e	1.4320347e-09
29	0x30ae2d39	1.2673019e-09
30	0x3208867d	7.946821e-09
31	0x31fa80c0	7.290595e-09
32	0x3308413b	3.1724294e-08
33	0x347eba8d	2.372346e-07
34	0x37211ba4	9.602783e-06
35	0x34919ce4	2.7122508e-07
36	0x36079d89	2.0208265e-06
37	0x34d7fb20	4.0229588e-07
38	0x370f0183	8.523816e-06
39	0x33b4af8a	8.4138335e-08
40	0x33e46f3d	1.06373115e-07
41	0x3201e6a8	7.561233e-09
42	0x312b710f	2.4948041e-09
43	0x31e521cb	6.668619e-09
44	0x34a06d3e	2.9881807e-07
45	0x34b1e590	3.3135848e-07
46	0x31d319c9	6.1438397e-09
47	0x31a323c3	4.74799e-09
48	0x31b25175	5.1897424e-09
49	0x2e619b68	5.1297105e-11
50	0x2e43d3bd	4.4525928e-11
51	0x2fab56d5	3.1166417e-10
52	0x2f6b5a48	2.14052e-10
53	0x3031458b	6.449105e-10
54	0x31f57cce	7.144627e-09
55	0x349dfced	2.9427557e-07
56	0x32325b5d	1.0381737e-08
57	0x332ed906	4.0709914e-08
58	0x32489d42	1.16772885e-08
59	0x3497065d	2.8130572e-07
60	0x310dd1c2	2.0637434e-09
61	0x3111b573	2.120342e-09
62	0x2f4319bf	1.7744294e-10
63	0x3418ee08	1.4242698e-07
64	0x35278de9	6.2418854e-07
65	0x37a0f9aa	1.9189745e-05
66	0x37b5a949	2.1655711e-05
67	0x34969e20	2.8054728e-07
68	0x34a5aa9c	3.085778e-07
69	0x3497d614	2.8281704e-07
70	0x3112f500	2.1385063e-09
71	0x31036d8c	1.912528e-09
72	0x32593fd0	1.2645572e-08
73	0x3260ccc2	1.3085073e-08
74	0x3313b137	3.438728e-08
75	0x353287de	6.650788e-07
76	0x37a0b041	1.9155561e-05
77	0x3495bdc1	2.7891477e-07
78	0x36293a4e	2.52169e-06
79	0x3608f5b8	2.0408606e-06
80	0x378e2149	1.6943219e-05
81	0x33bcf61b	8.7991985e-08
82	0x340cc827	1.3111331e-07
83	0x32615930	1.3117003e-08
84	0x30942098	1.0777681e-09
85	0x31a553b4	4.811648e-09
86	0x33efee21	1.117262e-07
87	0x340c2995	1.3053643e-07
88	0x309dbc81	1.147683e-09
89	0x30fe3c3a	1.849805e-09
90	0x3093e430	1.0760512e-09
91	0x2d10ba40	8.226808e-12
92	0x2cf0b967	6.841794e-12
93	0x2e92ef70	6.681844e-11
94	0x2edca235	1.00332555e-10
95	0x2ec32ccc	8.875531e-11
96	0x318a0172	4.016493e-09
97	0x33f50837	1.1410196e-07
98	0x308c665f	1.0215436e-09
99	0x31c1a1ee	5.6354486e-09
100	0x329bbdd8	1.8130706e-08
101	0x33e93546	1.08595984e-07
102	0x305eb0f5	8.10146e-10
103	0x3011981d	5.296686e-10
104	0x2eefd8ed	1.09069954e-10
105	0x34a5d4ad	3.0888387e-07
106	0x34c041bd	3.5810618e-07
107	0x37bbd0bf	2.2389342e-05
108	0x37b28727	2.1282189e-05
109	0x3571090e	8.979267e-07
110	0x35872b15	1.0070822e-06
111	0x35c6220b	1.4762057e-06
112	0x307cb530	9.193455e-10
113	0x308014c0	9.319123e-10
114	0x321b479c	9.0384695e-09
115	0x3233af31	1.0459005e-08
116	0x342fb927	1.6365503e-07
117	0x3538071f	6.8555704e-07
118	0x37b12346	2.111647e-05
119	0x353880be	6.8732686e-07
120	0x37486dbc	1.19464785e-05
121	0x3578a8a4	9.2632604e-07
122	0x37177571	9.027645e-06
123	0x3406e34e	1.2562415e-07
124	0x353af1cb	6.9642255e-07
125	0x333bc0ec	4.3714792e-08
126	0x364d84dc	3.0624715e-06
127	0x36cccd28	6.103557e-06
128	0x39724158	0.00023103261
129	0x3986ea21	0.0002573291
130	0x3684957d	3.9513093e-06
131	0x36a8b5fb	5.0279755e-06
132	0x36acec12	5.1534817e-06
133	0x32e5cd4f	2.6752472e-08
134	0x32ca798d	2.357117e-08
135	0x3475d1ac	2.2893681e-07
136	0x34313029	1.650193e-07
137	0x34e463ee	4.2541018e-07
138	0x36cb628a	6.061343e-06
139	0x3970a5c5	0.00022949938
140	0x36970aba	4.5013994e-06
141	0x38146030	3.537553e-05
142	0x370c3ed3	8.359278e-06
143	0x396947e1	0.00022247389
144	0x36296cfe	2.5246404e-06
145	0x35cc00c0	1.5199403e-06
146	0x33e3a739	1.0600929e-07
147	0x328691bd	1.5665927e-08
148	0x3361da63	5.2585516e-08
149	0x35bfcc3d	1.429005e-06
150	0x35dabf01	1.6297855e-06
151	0x32be36e7	2.2143878e-08
152	0x32d03ee8	2.4242993e-08
153	0x329f004e	1.8510175e-08
154	0x2ecd9739	9.349183e-11
155	0x2eb90d8e	8.415234e-11
156	0x30ef8069	1.7426035e-09
157	0x305e9594	8.0975693e-10
158	0x30ca3876	1.4713482e-09
159	0x332aff81	3.981359e-08
160	0x35c062c7	1.4333863e-06
161	0x32c8b54b	2.3365507e-08
162	0x33debf18	1.037244e-07
163	0x3311d3b5	3.395299e-08
164	0x35ccc533	1.5256577e-06
165	0x328958e2	1.5989318e-08
166	0x3207f10f	7.912845e-09
167	0x2f898bab	2.5019395e-10
168	0x361ee844	2.367903e-06
169	0x36f92cbe	7.425987e-06
170	0x394b501a	0.00019389429
171	0x39696eec	0.00022261933
172	0x363644fe	2.7160272e-06
173	0x362b5a45	2.553353e-06
174	0x361a67ce	2.300821e-06
175	0x326df8af	1.385176e-08
176	0x324d32d8	1.1944131e-08
177	0x343dfcf6	1.7694023e-07
178	0x340442bc	1.2317736e-07
179	0x34414be6	1.8002137e-07
180	0x36c4e958	5.86842e-06
181	0x394c6a0a	0.00019494459
182	0x3632d495	2.6647806e-06
183	0x376606a8	1.3710618e-05
184	0x373af170	1.1142678e-05
185	0x3951ecaa	0.00020019957
186	0x360bd0b2	2.083409e-06
187	0x35757192	9.143488e-07
188	0x337830ee	5.77865e-08
189	0x3016d6c7	5.48749e-10
190	0x30c5d8f8	1.4395303e-09
191	0x33a3e8fd	7.632659e-08
192	0x33ad9426	8.082888e-08
193	0x311c78c9	2.2769646e-09
194	0x311b94eb	2.2640119e-09
195	0x3138b614	2.6879023e-09
196	0x2d06d3d1	7.664051e-12
197	0x2cfa7d27	7.119322e-12
198	0x2eb8c4b6	8.402294e-11
199	0x2e36068f	4.1387834e-11
200	0x2fb860ca	3.3538178e-10
201	0x3126e9b9	2.4289035e-09
202	0x339ff5b5	7.448708e-08
203	0x318d4e9a	4.112576e-09
204	0x32c3466f	2.2733017e-08
205	0x318845a2	3.9660373e-09
206	0x33797523	5.8081365e-08
207	0x2f9616fc	2.7301172e-10
208	0x30831130	9.53639e-10
209	0x2eb1a96f	8.0791256e-11
210	0x34c63b5d	3.6923566e-07
211	0x361e1e00	2.3561297e-06
212	0x38a4907b	7.847041e-05
213	0x38bcbc10	8.999568e-05
214	0x35643fd1	8.5029484e-07
215	0x35839c23	9.805702e-07
216	0x3521abad	6.0226995e-07
217	0x3256ac67	1.2495639e-08
218	0x323fe8d0	1.1170599e-08
219	0x33d17979	9.754417e-08
220	0x335cf183	5.1442395e-08
221	0x33dc13bf	1.024814e-07
222	0x36233017	2.4316885e-06
223	0x38a44aca	7.83406e-05
224	0x35ee57f5	1.7757981e-06
225	0x3618d891	2.2775823e-06
226	0x369cb510	4.6702407e-06
227	0x38b063c3	8.410916e-05
228	0x34aae508	3.183161e-07
229	0x349dd442	2.9397967e-07
230	0x3356a814	4.9978624e-08
231	0x361923f4	2.2819704e-06
232	0x37044a9f	7.885187e-06
233	0x3975c809	0.0002343954
234	0x398ccdbc	0.00026856165
235	0x365184ac	3.1220652e-06
236	0x368803c0	4.0535524e-06
237	0x36289e37	2.5126044e-06
238	0x32bf8980	2.2297854e-08
239	0x32a528f3	1.922715e-08
240	0x3410998c	1.3466905e-07
241	0x34063e6e	1.2502434e-07
242	0x348bbc15	2.6027615e-07
243	0x36ec431f	7.041162e-06
244	0x3977b101	0.00023621695
245	0x35de9160	1.6582599e-06
246	0x37a08d51	1.9139292e-05
247	0x37975143	1.8038443e-05
248	0x39746784	0.00023308216
249	0x35f33934	1.8121559e-06
250	0x35888711	1.0172099e-06
251	0x33d347a9	9.838488e-08
252	0x3619dcde	2.2927338e-06
253	0x36fc38ef	7.516813e-06
254	0x39a63f6a	0.00031709234
255	0x39ba5a16	0.00035543804

exp_avg f4 [128]
0	0xbb0d52f4	-0.0021564336
1	0x3a6299f6	0.0008644158
2	0xb8fc9e04	-0.00012045729
3	0x3a2f544d	0.0006688282
4	0x38981525	7.251863e-05
5	0x39d91562	0.00041405397
6	0x3b63e704	0.0034775147
7	0xb917315c	-0.0001441887
8	0x3b29aa0f	0.0025888716
9	0xb8861d28	-6.395049e-05
10	0xbabee7f5	-0.0014564978
11	0x3ae9eaf2	0.0017846508
12	0x3b995701	0.004679561
13	0xbc14bea4	-0.009078655
14	0x3a479430	0.0007613329
15	0x3aa9e091	0.0012960603
16	0x3ba6f1a4	0.005094724
17	0x39de4def	0.00042401205
18	0xb9d5d91f	-0.00040788294
19	0x3c1fc48d	0.009751451
20	0x39d0ee8e	0.0003985059
21	0x3ba79b35	0.0051149377
22	0xba23e1b7	-0.00062515907
23	0x3b86b780	0.0041112304
24	0xbaf67f50	-0.0018806253
25	0xba9283b2	-0.0011178164
26	0x3b6f47d0	0.003651131
27	0xbb0a9e55	-0.0021151502
28	0xbbd45fec	-0.0064811613
29	0x3b012b63	0.0019709698
30	0xbaeafe17	-0.0017928508
31	0x3b339dea	0.0027407357
32	0x3bceb50d	0.006308204
33	0x38aa320e	8.115555e-05
34	0xb9003976	-0.00012228437
35	0x391a1371	0.00014693827
36	0xb6e744b3	-6.892334e-06
37	0xbc01a0b3	-0.007911849
38	0x393c2bc7	0.00017945385
39	0x3b47034f	0.0030366962
40	0xbba96eb1	-0.005170666
41	0x3a515e48	0.0007986766
42	0x3b368fba	0.0027856664
43	0x3a31343d	0.0006759798
44	0xba6ad91f	-0.0008958745
45	0xbb16fb9d	-0.0023038157
46	0x3b505b46	0.0031792684
47	0xb9fd1934	-0.00048274698
48	0xba7e9e41	-0.0009712913
49	0xbb9acdcf	-0.0047242413
50	0x3b0d038d	0.002151701
51	0x3915c033	0.00014281347
52	0xbaa47bce	-0.0012549104
53	0x3a97c405	0.0011578804
54	0x3ae506d0	0.0017473344
55	0xbbbd3750	-0.005774416
56	0x39362786	0.00017371596
57	0xbac36856	-0.0014908414
58	0xbb19d06f	-0.0023470183
59	0x3a1d0290	0.00059894565
60	0xbabe2de6	-0.0014509528
61	0xba8d1435	-0.0010763468
62	0xbb91d5a5	-0.0044505172
63	0x390df425	0.00013537759
64	0xbc139ae0	-0.009009093
65	0x3a3eee42	0.0007283428
66	0xb698bfa8	-4.5522647e-06
67	0x392c2e16	0.00016420367
68	0x3abb3e6c	0.0014285571
69	0xbb79b19d	-0.003810025
70	0xb98be637	-0.0002668367
71	0x3bd984a1	0.006638125
72	0xbaedbcff	-0.001813799
73	0xbba7bda2	-0.0051190415
74	0xb94a11b5	-0.00019270818
75	0x39a13394	0.00030746742
76	0x3a1adeff	0.0005907863
77	0x3891bafa	6.948966e-05
78	0xbb29a22e	-0.002588402
79	0xbba37930	-0.004988812
80	0x3b3e512f	0.0029040088
81	0x3b979976	0.0046264483
82	0x3b8322fb	0.0040019727
83	0xb79780fe	-1.806067e-05
84	0xb9594d0e	-0.00020723438
85	0x3a865586	0.0010248877
86	0xba9c78d2	-0.0011937863
87	0x3a1781db	0.0005779543
88	0xb8ef4031	-0.00011408365
89	0xbbb12d6e	-0.005407027
90	0x37d79618	2.569989e-05
91	0xb8db10ff	-0.000104458995
92	0x3b933917	0.0044928896
93	0xb90e9c4c	-0.000136004
94	0x3aa1808f	0.0012321639
95	0x3a469695	0.0007575539
96	0x3ad81bfb	0.0016487831
97	0xbaa27271	-0.0012393725
98	0xb8204297	-3.820899e-05
99	0x3b00536c	0.0019580973
100	0x3bf1dce4	0.0073810685
101	0x39368c55	0.0001740915
102	0x396f4de6	0.00022821836
103	0xba980cd8	-0.0011600507
104	0xbbb27db3	-0.0054471134
105	0x3ab0eade	0.001349773
106	0xbba1a529	-0.0049330187
107	0xba20fa5b	-0.00061408215
108	0xb85f33db	-5.3215637e-05
109	0x3c486f10	0.012233511
110	0x3abbdc4b	0.001433262
111	0x3b9be9cb	0.004758095
112	0xb8251c74	-3.9365565e-05
113	0x3b438be7	0.0029838027
114	0x3aa19227	0.0012326882
115	0xb8f08924	-0.00011469636
116	0xb9370efb	-0.0001745782
117	0xb98e367d	-0.00027124948
118	0xb9e13553	-0.00042955074
119	0xbb33f7d0	-0.002746094
120	0x39b24d34	0.00034008326
121	0x38bd8695	9.03729e-05
122	0x3a4b89a4	0.00077643455
123	0x3b29a306	0.0025884523
124	0x3a1c19f6	0.0005954796
125	0x3b25cddf	0.002529971
126	0xbb2040de	-0.0024452726
127	0xbb81cf63	-0.00396149
