models/checkpoint_1400.pth (torch, 255274 bytes, 24 tensors)

policy_log_std f4 [7]
000000 fb 1b 16 3f 5d de 78 3f b5 a6 3b 3f e1 02 0f 3f
       0.58636445 0.972143 0.7330125 0.5586377
000010 dd 3d 7d 3f b5 aa 8a 3f 82 08 1f c0
       0.9892252 1.0833346 -2.4848943

fc1.weight f4 [128, 21]
000000 11 0a 42 3f 3f ff 41 3f b5 38 d6 bd cb 84 91 be
       0.7579661 0.757801 -0.10460035 -0.28421625
000010 4c 75 0e bf 13 67 50 be 16 b3 69 bf 09 5a 2e bf
       -0.5564773 -0.2035182 -0.9128889 -0.6810613
000020 c1 8a 03 3f b9 d0 eb 3d c0 db 27 be 5a 8b b2 3f
       0.51383597 0.1151442 -0.16392422 1.3948777
000030 62 58 0c be 18 83 a8 be 70 ce 9e be a6 8a 84 be
       -0.1370559 -0.32912517 -0.31016874 -0.2588703
000040 8d d3 9b bf 86 38 69 3c 54 08 49 3e 21 32 8a bf
       -1.2173935 0.014234668 0.19632083 -1.0796548
000050 20 10 73 3d 7e 63 8a 3f 60 a4 4c be 32 87 1b 3f
       0.05934155 1.0811613 -0.19984579 0.60753167
000060 92 c3 a2 3e b7 54 45 be ef cd b2 bf 27 95 b4 be
       0.31789833 -0.19270597 -1.3969096 -0.35270044
000070 37 61 da bd 24 c8 b8 3d 0a da 90 bd 4b 7d a0 3d
       -0.106630735 0.09022549 -0.07072838 0.07836398
000080 7f 01 d6 3e b5 c9 26 3e 57 07 35 3f 13 35 49 3e
       0.41798016 0.16287883 0.70714325 0.19649152
000090 cb c5 9a be 01 ce 94 3e 57 36 e8 3e df 1c 40 bf
       -0.3022903 0.29063419 0.45353958 -0.75044054
0000a0 96 2a be 3e e8 41 06 c0 85 e3 c7 3e bf 0a e6 be
       0.37141865 -2.0977726 0.3904077 -0.44930074
0000b0 b8 84 40 3f e5 9a c3 3e 56 9f e8 3e b3 bb 46 bf
       0.7520251 0.38204113 0.45434064 -0.77630156
0000c0 fd ad ac be a5 6d 3c 3e 36 77 85 bd c1 ae 08 3e
       -0.33726493 0.18401201 -0.06516878 0.13347913
0000d0 35 48 b7 bc ab bd 40 3f 16 bb 2e 3f e2 ad 5c 3f
       -0.022373298 0.7528941 0.6825422 0.86202824
0000e0 33 ea 01 be d2 65 90 bd 58 25 d8 3e 40 e8 57 3f
       -0.12686996 -0.07050671 0.4221599 0.8433876
0000f0 ca 9c b4 be 74 67 cc 3e 33 47 68 be b5 9b 6d 3d
       -0.3527587 0.39922678 -0.2268341 0.058009822
000100 e6 24 95 bd 3a e3 7b 3b bd 44 ee be b1 96 f2 be
       -0.072824284 0.0038434998 -0.46536818 -0.47380593
000110 f7 1f be bd 21 19 89 be 75 5c 29 bf 60 6f 35 3f
       -0.092834406 -0.26776984 -0.66156703 0.7087307
000120 d5 6a 1b 3e e0 14 66 be 43 13 87 3f 7d d4 28 bf
       0.15177472 -0.224689 1.0552753 -0.6594923
000130 28 f4 f5 be 58 91 40 bf 03 27 be 3d 25 18 bb be
       -0.4803784 -0.75221777 0.09284785 -0.36541858
000140 98 f5 b1 bd 60 a4 5a 3f 7f fb 36 bf 69 d9 ed bf
       -0.086894214 0.85407066 -0.714775 -1.8581973
000150 6e 22 0b 3f 56 34 50 bf 5d 57 31 3f 03 2c 0f 3f
       0.5434941 -0.8132986 0.6927393 0.5592653
000160 76 a7 27 3f 94 99 43 bf 07 6b 09 bf df d4 09 3e
       0.654899 -0.76406217 -0.53678936 0.1346011
000170 b3 0d 99 be 7b c2 f3 3e 43 a6 09 bf 9e f6 47 40
       -0.29893264 0.47609314 -0.5376932 3.1244273
000180 94 80 03 3f 5e 7e f4 3e 69 f5 89 bd ba b1 48 3e
       0.5136807 0.4775266 -0.067362614 0.19599047
000190 47 49 45 bf 45 f0 0a 3f ba 66 0e 3f 82 fa 34 3f
       -0.7706494 0.5427287 0.556255 0.70694745
0001a0 cd f4 de bf e1 1f ce 3b 97 e7 f0 be 43 45 56 3e
       -1.7418457 0.0062904214 -0.4705169 0.20924859
0001b0 38 3f c6 3e 9f b5 da 3e 40 0a b0 bf 28 50 8b 3e
       0.38720107 0.4271669 -1.3753128 0.27209592
0001c0 c7 8e 39 3f c5 d1 49 3e 7f c1 9b 3e e5 c0 f2 bd
       0.72483486 0.19708927 0.30421063 -0.11853198
0001d0 f9 66 c6 bf 98 dc 8b bd 78 a5 b5 3d 83 23 19 be
       -1.5500175 -0.06829184 0.08869451 -0.14954953
0001e0 ea 8b e6 be 60 d8 06 bf de d6 68 3e 45 95 37 bf
       -0.4502862 -0.5267391 0.22738215 -0.7171214
0001f0 1f 8c 52 3e cc 00 9e bf 40 de 25 be 1f 29 84 3e
       0.20561264 -1.2343993 -0.16198063 0.25812623
000200 30 fb 29 bf 41 07 c2 3e c5 9d 8d 3d d1 3f 39 3f
       -0.66398907 0.3789616 0.06914858 0.72363
000210 88 6c a5 3d 29 ea 77 3e bc b3 9d 3b 7b 8b fe bd
       0.08077341 0.24210419 0.004812686 -0.124289475
000220 b4 a3 8e bd 1a 53 45 bf a4 74 2a bf 90 f0 68 bd
       -0.06964818 -0.7707993 -0.6658423 -0.056870043
000230 47 05 42 3d f8 57 94 bd d8 21 a4 3e d3 d8 cd be
       0.047368314 -0.07243341 0.3205707 -0.40204486
000240 0a 22 4e bd a0 e8 0c bf 92 08 09 40 d1 e4 ab 3e
       -0.05032543 -0.5504246 2.141148 0.3357301
000250 c5 7e 1c bf 9f e7 07 3f ac dc 84 3e 9d 93 44 be
       -0.61130935 0.530878 0.2594961 -0.19196935
000260 0d 85 d8 be 78 4d d1 3e 82 7a 27 bf ad fc f0 3e
       -0.4228901 0.40879416 -0.6542131 0.47067776
000270 f4 07 34 bd ad 61 1c bc 70 55 06 40 17 ec 87 3f
       -0.043952897 -0.009544772 2.0989647 1.0618924
000280 b7 c0 10 3f d8 ee ba 3d 99 aa b4 3e 65 1d 45 bd
       0.5654406 0.09127587 0.35286406 -0.048123736
000290 a8 4d e8 3e a8 d5 48 bc 20 fe 47 3f 9b 5a c0 bf
       0.45371747 -0.012257971 0.7812214 -1.502765
0002a0 ed 88 b2 bd 79 f6 b3 bf 58 7f 75 3e 64 72 06 3f
       -0.08717523 -1.4059592 0.23974359 0.52518296
0002b0 c9 0a 8c 3e bd 89 89 3d ec aa ad 3e 8c 25 32 3f
       0.27351978 0.067157246 0.33919466 0.6958854
0002c0 cb 03 34 be 2e bb b0 bd 20 14 ab 3e 3d f0 6c bf
       -0.17579572 -0.08629452 0.33413792 -0.92554075
0002d0 4e e9 0a 3e e8 fc c1 3c c3 62 4f 3e d2 de 8f 3e
       0.13565561 0.023680165 0.20252518 0.28099686
0002e0 fe 9a f9 3e 72 11 7e 3e 33 d9 42 3e 4e 06 bd 3f
       0.48751062 0.24811342 0.19028167 1.4767549
0002f0 ed 22 2a bf 03 ab 3c bf 39 bc 49 3e e2 c9 85 be
       -0.6645954 -0.73698443 0.19700707 -0.26130587
000300 c8 98 0f bf 85 0d 8a bf 31 50 31 3e f6 84 cd be
       -0.560925 -1.0785376 0.17315747 -0.40140504
000310 40 33 2e be 7f 66 bb 3e 18 eb 01 be fb 6e c0 3e
       -0.17011738 0.36601636 -0.12687337 0.3758467
000320 fe 6a 27 40 11 6e 5b be 49 6b 95 be 78 06 31 3e
       2.6159053 -0.21428706 -0.29183415 0.17287624
000330 ff f6 c3 3e f1 13 3a be 23 71 af be 5f 98 f4 3f
       0.3827438 -0.1817167 -0.34266004 1.9109
000340 93 c9 77 be c7 19 c3 3f e5 d3 1a bf a6 68 91 3f
       -0.24197988 1.5242242 -0.60479575 1.1360061
000350 21 48 7a bd fe 33 7b be 52 f6 62 be f0 d9 66 3f
       -0.061103944 -0.24531552 -0.22164276 0.90176296
000360 28 8c 3c bf 23 f7 94 be b8 18 cb be dd 3d 5d 3d
       -0.7365136 -0.290948 -0.39667296 0.054014076
000370 d3 20 0f be b6 ab 59 3c 3a 0c 04 3f 21 a3 80 bd
       -0.13977365 0.013285568 0.51581156 -0.06281114
000380 04 ef df bd 8b 95 62 be 64 a2 53 bf 40 53 49 be
       -0.109342605 -0.22127359 -0.82669663 -0.19660664
000390 b0 80 0b 3f e3 35 0e bf 27 99 a7 bf 8c 32 e7 3e
       0.54493237 -0.55550975 -1.3093613 0.45155752
0003a0 bd 73 84 3f db 24 62 3e d8 21 19 bf ef a5 8f bf
       1.034782 0.22084372 -0.59817266 -1.1222514
0003b0 f9 38 9b 3f 33 3a 29 3f 97 0f 04 3f 65 e1 af be
       1.2126762 0.6610443 0.5158629 -0.3435165
0003c0 0f 26 b4 3d 59 3f b8 bd 6f 27 86 40 a9 d3 2c 3d
       0.087963216 -0.089964576 4.1923137 0.042194042
0003d0 1d 56 9a bd eb 7a 5b be 1a c9 3c 3f 0f f3 71 3e
       -0.07535956 -0.21433608 0.73744357 0.23627876
0003e0 86 f3 1e be 8a 1f 74 3f 96 a7 fc be 90 ed ff 3f
       -0.15522584 0.95360625 -0.49346608 1.9994373
0003f0 52 fb d9 be 85 de 55 bd 82 d6 39 be 4f bd 89 3e
       -0.42574555 -0.052214164 -0.18148234 0.26902243

fc1.bias f4 [128]
000000 8a de b4 be f2 cb 0e 3f 26 a2 2f 3f f4 c7 cd bd
       -0.35326034 0.55779946 0.68606794 -0.10047904
000010 1b c5 00 3f b9 b4 85 3e f6 e6 80 bd fe b6 dd 3e
       0.5030076 0.26114443 -0.06294052 0.43303674
000020 b2 9b a5 3e cb af 9e bd f9 6d 77 be 11 f3 41 3e
       0.3234535 -0.077483736 -0.24163045 0.18940379
000030 90 47 14 3e 2b ba 00 3e 86 6a 27 bf 58 39 a4 bd
       0.14480424 0.12571017 -0.65396917 -0.0801875
000040 43 ab df 3d 65 f4 5e 3e 5c 4e b6 be ea c8 31 3e
       0.109213375 0.21772917 -0.35606658 0.17361799
000050 ed 3b 5d bf 93 e9 5a bc fd 49 cf be e3 8c a5 3c
       -0.86419564 -0.0133613525 -0.40486136 0.020208782
000060 2f b7 0a be 3b 3e c8 3e 6b 7d 49 bd 1a 51 a7 3e
       -0.13546441 0.39109978 -0.049191874 0.32679063
000070 d7 0b 9f 3e 45 e9 8a be d7 b1 0f 3f 04 b2 18 be
       0.3106372 -0.27131096 0.5613074 -0.14911658
000080 a7 e5 2c 3c 4a 88 30 3e 89 2b cd 3e 4b ef c8 3e
       0.0105528 0.1723949 0.40072277 0.39245066
000090 e5 47 16 3f 7e bb d1 3d c2 69 fd 3d a6 1b 7b 3c
       0.5870345 0.102408394 0.12373687 0.015326416
0000a0 49 6a 2c be 53 2a 20 be 5a da d6 3b e3 a0 30 bd
       -0.1683742 -0.15641145 0.0065567913 -0.043122184
0000b0 34 38 04 3e 92 0d 3b 3e d4 f4 c3 bb a0 c1 f2 3e
       0.12912065 0.18266895 -0.0059801135 0.4741335
0000c0 bf af fe 3e 22 1b 24 3e c6 95 74 3e 78 ff d2 3e
       0.4974346 0.16025975 0.23885259 0.41210532
0000d0 a1 22 26 be 95 b1 1b bf c4 fc 86 3d 99 72 4a 3e
       -0.16224147 -0.60817844 0.0659118 0.19770278
0000e0 46 c2 79 be 73 b6 20 be 3c 5f c8 bd c4 47 24 bf
       -0.24390516 -0.15694599 -0.097837895 -0.64172006
0000f0 1e bb 1b bb cc a5 3f be 49 08 c6 3d 14 0f 58 be
       -0.0023762654 -0.1871559 0.09669549 -0.21099502
000100 09 18 1d 3e b7 fd d3 be 9a ad 04 3d 95 6a 26 bf
       0.153412 -0.41404507 0.03239212 -0.6500638
000110 ae a9 08 bc e7 63 f2 3c 5f 94 de be 3b 62 69 3e
       -0.008341236 0.029588653 -0.43472573 0.22791378
000120 cb 93 00 3f df 35 ce 3e c1 69 8f be fe 8f d5 bb
       0.50225514 0.40275475 -0.2801037 -0.0065174093
000130 15 aa ab bd 74 1c 0a bf 29 e5 d4 3e f7 61 e3 be
       -0.0838205 -0.53949666 0.41581085 -0.4441068
000140 a4 91 58 3e 24 cb a1 3d 0b 18 32 3e e7 1e 1f be
       0.21149307 0.07900074 0.17391984 -0.15539132
000150 b4 0b 38 3f 3e 18 18 bf 1c aa 26 be 2e 79 96 be
       0.7189286 -0.5941199 -0.16275829 -0.29389328
000160 36 dc b0 be 4d 16 26 3d ec d1 00 bf 4d 68 d8 3e
       -0.34543008 0.04054861 -0.50320315 0.42267075
000170 b6 08 e5 bb eb 25 03 3f a5 0a c1 bd d2 1e ee 3e
       -0.006989564 0.51229733 -0.094258584 0.4650789
000180 8b 7f a6 be 2a 01 24 3d 94 47 23 3e 60 db 8b be
       -0.32519183 0.040040173 0.15945274 -0.27315807
000190 ad 9e b4 be d7 53 35 bf c1 dc 92 be a2 36 a9 3d
       -0.3527731 -0.70831054 -0.28684047 0.082623735
0001a0 cf f2 db bc 2e 06 85 3d 4a 90 9a 3e 67 2a 3d 3c
       -0.026849179 0.06495319 0.3018821 0.011545754
0001b0 76 40 86 3e 8a b6 06 be 60 f5 70 be 30 20 4c be
       0.26221055 -0.1315557 -0.23531103 -0.19934154
0001c0 89 26 1b 3f c4 2b d4 bc 90 45 39 3e 4d db 0b bf
       0.60605675 -0.025899775 0.18092942 -0.546315
0001d0 05 77 dc 3e 4b cc dc be 78 bd fa 3e 13 a4 0f 3e
       0.43059555 -0.43124613 0.48972678 0.14027433
0001e0 85 9a 07 bf 01 93 89 3e 8d ed c7 3e 24 63 b0 3e
       -0.52970153 0.26869968 0.39048424 0.34450638
0001f0 27 b9 93 bd 09 3c 0e 3e aa e4 a5 3e 16 15 8b 3e
       -0.072130494 0.13890089 0.3240102 0.27164525

fc2.weight f4 [128, 128]
000000 70 24 a4 3e 44 77 1d be 28 a4 d2 be 08 1e 94 3e
       0.3205905 -0.15377527 -0.41140866 0.28929162
000010 26 73 13 3e ef e2 f1 be d6 3e a1 be 56 79 4f 3f
       0.14399394 -0.4724345 -0.31493253 0.8104452
000020 ed 80 88 be 10 ee 89 3f 35 79 2e 3f 4a 4a e8 3d
       -0.26660863 1.0775776 0.681537 0.113422945
000030 f5 19 19 bf 7a 63 0f 3f f8 0d 26 3f 4a c2 15 bc
       -0.5980523 0.56011164 0.64865065 -0.00914056
000040 e9 b7 0e 3d 00 74 96 bd e5 6e 05 3e e8 b0 45 3f
       0.03484336 -0.07346344 0.13030584 0.7722306
000050 f8 fc 04 3d 9c 23 46 3f 30 2e a5 be c6 70 ef bf
       0.032467812 0.77398086 -0.322618 -1.8706291
000060 c2 c5 56 be 28 41 8e 3d c7 14 dc be 63 ce 68 bf
       -0.20973876 0.06946021 -0.42984602 -0.9093992
000070 d5 09 ce bd ec f3 3e 3e 4f 1d f6 3f 9b 74 3c 3f
       -0.10060469 0.18647736 1.9227694 0.73615426
000080 a3 7c 5d 3e 25 25 47 3e 83 3b 25 bf 90 40 63 bd
       0.21629576 0.19447763 -0.6454393 -0.055481493
000090 a4 54 c7 3c 50 c9 97 3e 20 e2 22 bf 71 c3 ba be
       0.024332352 0.29645777 -0.6362629 -0.36477235
0000a0 10 22 63 bf 99 71 06 be 10 a9 2f 3f 04 3b 6d 3d
       -0.8872385 -0.13129272 0.68617344 0.05791761
0000b0 d1 af bd 3e b2 83 30 be ba e2 b3 3f 1c 93 27 bf
       0.370482 -0.17237738 1.4053566 -0.65458846
0000c0 1c 0e d8 be 92 8b ba 3e 6f 65 90 3c 5e c9 0e bf
       -0.42198265 0.3643461 0.017626492 -0.5577601
0000d0 63 ce 5d bf eb 7a a4 bf 5b c8 e7 ba d5 eb 07 bf
       -0.86643046 -1.2850012 -0.0017683612 -0.53094226
0000e0 15 61 b0 bc 32 84 cf 3d 68 06 87 3e 2f 20 a1 be
       -0.021530667 0.10132636 0.26372075 -0.31469867
0000f0 3b d8 74 bf 17 de d4 3d 90 0f 6d 3d 1a e3 62 bd
       -0.9564244 0.10393923 0.05787617 -0.055392362
000100 fd 1f 10 3f b5 0c 76 bf be bc 44 3f 67 d4 bb bf
       0.5629881 -0.9611314 0.768505 -1.4674195
000110 f4 4a 60 3e 0f 59 b2 be 69 6f 3a bd a1 bb 8f 3d
       0.21903592 -0.3483357 -0.045516405 0.07018209
000120 d6 b3 5a 3d 54 6d 1e bf 8c c4 ef 3f b1 bf 47 bd
       0.05339416 -0.6188557 1.8731856 -0.048766796
000130 a9 bb 79 3b b0 91 ab 3e a3 0a 15 bf 7d c4 52 bd
       0.003810624 0.33509588 -0.58219355 -0.051456917
000140 84 f5 57 bd db c2 1f be 92 e1 70 3f 98 7b 48 3f
       -0.052724376 -0.15601675 0.94094193 0.7831359
000150 63 db 30 bf 79 42 25 3f d2 01 c3 be e8 ce 2b bf
       -0.6908476 0.64554554 -0.38087326 -0.6711259
000160 99 b4 af 3d 33 47 c3 bd 81 76 30 3f 68 5e 66 bf
       0.08579368 -0.095350645 0.6893082 -0.899878
000170 bb f1 da bd e1 4f 42 bd 02 e3 70 3e e0 a0 45 be
       -0.10690638 -0.04743946 0.23524097 -0.1929965
000180 4b 3a 85 be 48 fc 79 bf 08 de 0e bf a3 7f 7a be
       -0.26021037 -0.97650576 -0.5580754 -0.24462752
000190 dd 3e 01 3f e3 46 4c 3e 07 d8 84 be bc d0 78 3e
       0.50486547 0.19948916 -0.25946066 0.24298376
0001a0 be 6e 9e be df 87 1d 3f 56 2e 01 bf b4 8f d2 3e
       -0.30943865 0.6153545 -0.5046133 0.41125262
0001b0 74 d1 0b 3e 59 5e 60 be 7f 7c 32 3e b3 ec 0d 3f
       0.13654119 -0.21910991 0.17430304 0.554393
0001c0 2e da c1 3d 1e 2e 2f 3f 7b ef 92 bf 4a cc 86 be
       0.094654426 0.68429744 -1.1479334 -0.26327735
0001d0 4a 3a 41 bd cc 01 0c be 9e 6b e7 3f 4c d5 18 be
       -0.04717473 -0.1367256 1.8079717 -0.14925116
0001e0 19 6e ed 3e 70 23 3c 3f 3c 3a ab be a1 ec 1e bf
       0.4637306 0.73491573 -0.33442867 -0.6207982
0001f0 be b6 f0 3e aa 62 b3 3e e3 36 1d bf f4 f6 2d 3e
       0.4701442 0.35036212 -0.61411875 0.16988736
000200 06 c1 c2 be d9 a6 a5 3f 74 bd 3b bf 5f 40 3f be
       -0.3803789 1.2941543 -0.7333596 -0.186769
000210 b7 74 19 3f a4 3f b4 be 55 9d 6e bd 0c ca 7e bc
       0.5994372 -0.35204804 -0.058255512 -0.015551101
000220 0c a8 73 3e e1 4e a5 be ef d7 5d 3d 19 9e 67 3e
       0.23794574 -0.32286742 0.05416101 0.22618903
000230 d1 32 a5 3d 7f 94 d5 bb 32 ea b4 3f d0 79 38 bf
       0.08066333 -0.0065179463 1.4133971 -0.7206087
000240 15 97 14 3f d5 c7 b6 be 14 2a c5 be a7 1e a4 3f
       0.5804303 -0.35699335 -0.38508666 1.2821854
000250 9d 59 26 be d4 3d 86 3e c4 a0 0f bf 71 da 9d be
       -0.16245122 0.26219046 -0.56104684 -0.3083072
000260 c1 4c 28 bf ff 5e 34 be ad ea 32 bf c7 5d 92 be
       -0.6574212 -0.17614363 -0.69889337 -0.2858717
000270 f5 89 02 bf 4f f4 48 be 98 c4 26 bd fc 66 ab bc
       -0.50991756 -0.19624446 -0.04071483 -0.02092313
000280 8a a5 3b 3f cf ee a1 3b c2 33 29 bf 92 40 88 3e
       0.7329947 0.0049417983 -0.660946 0.26611763
000290 9a cf 2d bf 83 c4 e3 bd b4 8f 52 bd 42 fe 0a 3f
       -0.678949 -0.11121466 -0.051406577 0.54294217
0002a0 52 df e2 be 33 74 4a 3f 6c fc f0 3e 95 9c e7 3e
       -0.44311005 0.79083556 0.47067583 0.4523665
0002b0 a3 c5 29 3f e1 cc 04 bf 5e c6 11 3f 18 8b 98 bf
       0.66317195 -0.5187512 0.5694331 -1.1917448
0002c0 1f f7 cb be 4b 94 0b bf e0 63 ba 3f 61 47 c8 be
       -0.39836976 -0.5452315 1.456173 -0.39116958
0002d0 d2 dd 5e bf 25 8c c6 3e a9 69 fb 3e 22 7c d0 bf
       -0.8705722 0.38778797 0.4910405 -1.6287882
0002e0 91 ca 83 3e 48 85 e1 be 29 d7 84 be 99 d3 a2 3e
       0.25740483 -0.44046998 -0.25945404 0.3180206
0002f0 22 1a 47 bf 67 72 c9 bd ef e4 6b be 75 9d 19 bf
       -0.7777425 -0.09836274 -0.2303655 -0.60005885
000300 47 e6 c2 3d 1f c0 97 be 0a b7 1b 3e cc 55 9b be
       0.09516578 -0.29638764 0.15206543 -0.30338895
000310 98 ca dc 3d fc 16 2d 3e 17 5b 04 bf fb 70 c0 3d
       0.10780829 0.16903299 -0.5170149 0.09396549
000320 65 71 20 bf 64 2e 9f bf 59 3d ff bd 9d ae 62 be
       -0.62673026 -1.2436032 -0.12462873 -0.22136922
000330 5b 9e 96 3e b6 df 68 3f a5 a4 01 3e a5 7d c8 bf
       0.2941769 0.90966356 0.12660463 -1.5663344
000340 5e 00 72 bd 50 26 80 bd 1b c1 33 3f ee a0 84 3e
       -0.05908238 -0.062573075 0.7021653 0.2590403
000350 57 d7 8c bf 0e ca 6e bd 08 44 04 bf ca 84 29 be
       -1.1003217 -0.058298163 -0.5166631 -0.16554561
000360 e4 b4 e3 bd 6d 22 e1 be 51 84 1e 3f 65 27 96 bf
       -0.111184865 -0.43971577 0.6192065 -1.1730772
000370 77 a8 b1 3e f5 e5 51 bf fd 0c d6 3e 20 7b af 3e
       0.3469884 -0.8199151 0.41806784 0.34273624
000380 4a dd 87 be 7f ef 21 bf 08 94 01 3f 9b 6c 54 bf
       -0.26536018 -0.6325607 0.506165 -0.8297822
000390 45 13 44 3e fa b6 60 3f 96 d3 27 be 4d 85 0c 3d
       0.19147976 0.877792 -0.16389307 0.034306813
0003a0 db e7 cc bd d2 a7 e5 3e 0d 5b 1d bf 12 2b 8c 3f
       -0.100051604 0.448546 -0.6146706 1.0950644
0003b0 c6 c6 c8 bd 6a 6a be 3e d4 c5 34 bf 37 7f 01 be
       -0.09803538 0.37190562 -0.7061436 -0.12646185
0003c0 b9 27 b2 be 54 32 2d 3f 54 09 31 3e fa c4 bd 3e
       -0.3479593 0.6765492 0.17288715 0.37064344
0003d0 d6 ae 83 3e b2 25 a5 be f8 a6 00 3f 30 b2 d5 3c
       0.25719327 -0.32255322 0.50254774 0.026085943
0003e0 d0 0b ab 3e 4d 72 69 3f 4e 3d ce bc 84 41 95 3f
       0.3340745 0.91190034 -0.025175717 1.1660619
0003f0 82 60 4a 3f 61 a1 89 3f 0d ce 97 bd 77 8f 8d 3d
       0.7905351 1.0752374 -0.07412348 0.06912129

fc2.bias f4 [128]
000000 84 5a d4 be fe 60 21 3e cb 57 9d 3d 76 31 0a bf
       -0.41475308 0.15759656 0.07682761 -0.5398172
000010 70 96 98 bd eb 05 7d be 1e 0c 23 3f 5d 40 ad be
       -0.07450569 -0.24709289 0.63690364 -0.33838168
000020 f3 b8 62 be 2a be a9 3e d3 44 c3 3e 62 c3 28 3f
       -0.22140865 0.33152896 0.38138446 0.6592313
000030 33 60 34 be 4b 79 05 3c f8 04 f5 3e 91 ce 3c bd
       -0.17614822 0.008146594 0.47855353 -0.046095435
000040 41 a8 fd 3d b3 dc 7c 3d 24 a6 41 3e 4b 9c 18 3e
       0.123856075 0.061733913 0.18911034 0.14903371
000050 67 c7 0f 3e 62 50 2b be b5 1a 5f 3e d5 77 1b bf
       0.1404091 -0.16729882 0.21787532 -0.60729724
000060 59 19 85 be a8 90 8b 3e b4 0d 0a 3e 88 09 4a bd
       -0.259959 0.272588 0.1348179 -0.049325496
000070 f2 0f 14 3f 32 b6 99 3d d7 73 04 be 40 cb c9 be
       0.5783683 0.07505454 -0.12934814 -0.3941288
000080 38 38 cc 3e 5a c5 4b 3f 52 6b d7 3e 4a ce cb 3e
       0.39886642 0.7959801 0.42074066 0.39805824
000090 31 71 de be f1 95 11 be f6 81 f5 be 30 a4 05 3f
       -0.43445733 -0.14217354 -0.47950715 0.52203655
0000a0 82 83 17 3e a8 7a 09 bf 30 ef f0 be b1 7e d9 bc
       0.1479626 -0.53702784 -0.47057486 -0.026549669
0000b0 63 c9 f1 bd 9d e2 39 3e 61 82 28 3e 44 b6 54 be
       -0.118059896 0.18152852 0.16455986 -0.20772654
0000c0 51 7e 01 be 04 7a a5 3e 59 d6 f8 bd 3e c0 75 3e
       -0.12645842 0.32319653 -0.121502586 0.23999116
0000d0 3a 56 84 be 0e bc 24 bf 42 39 1d 3e de 69 57 be
       -0.25847036 -0.6434945 0.15353873 -0.21036479
0000e0 02 2c 3e be ff f2 21 bf f8 91 bf bd 3f 0a 01 be
       -0.18571475 -0.6326141 -0.09354013 -0.12601565
0000f0 cd e4 ce 3d 5c e7 8f 3e c7 dd 73 be 17 6f c1 3d
       0.10102234 0.281062 -0.2381507 0.09445017
000100 f7 cc 1a 3f 4c 3d ba be 53 e8 5f 3e d5 95 fd 3d
       0.60469 -0.3637489 0.21865968 0.12382094
000110 5f 89 a8 3d 84 5b c3 3e 61 0a 8b 3e b6 b2 d3 bd
       0.082293265 0.38155758 0.27156356 -0.10336821
000120 5b 6f 03 3f 46 6a bc bd 61 a0 d2 3d f1 3d a9 bd
       0.5134179 -0.091999575 0.10284496 -0.082637675
000130 95 bb 6b be c5 06 19 be f1 25 9f 3e 18 2c 87 bd
       -0.23020776 -0.14943989 0.31083634 -0.06600207
000140 e7 25 c0 be 1e 21 db 3e 96 7a 2b bd 95 d7 c9 be
       -0.37528917 0.42798704 -0.041864954 -0.3942229
000150 af 73 5f be 07 7e 60 3e a8 2b 06 bd 69 ee 13 be
       -0.21821474 0.21923076 -0.032756478 -0.14446415
000160 ab 28 3c be 56 8f 1a be 90 5d e5 bb 09 4e 81 3e
       -0.18374889 -0.15093741 -0.006999679 0.2525485
000170 79 2d 2e be 60 a4 2a 3b c9 96 b9 3d af f1 89 3e
       -0.17009534 0.0026037917 0.09061963 0.26942202
000180 ca 51 ab bd 3a 93 17 bf 0b 58 de 3d 1e 06 e4 bd
       -0.083652094 -0.59209025 0.108566366 -0.11133979
000190 97 f2 c7 3d 5b a9 ac 3d 68 80 d6 3d 15 b0 c4 bd
       0.09763067 0.084307395 0.1047371 -0.096038975
0001a0 5f 67 dc be d1 28 e3 bd c2 f1 67 3e 47 9a d2 3e
       -0.43047616 -0.110917695 0.22650817 0.4113333
0001b0 b2 ef 6b 3e cc c6 8d 3e b4 d3 5e be 7a c7 0b 3e
       0.23040655 0.27690732 -0.21760446 0.13650313
0001c0 66 52 84 be fc 4d 86 3d 17 d4 b0 be c7 83 12 bd
       -0.25844115 0.06557843 -0.34536812 -0.035770204
0001d0 e4 f9 fe bd f9 a6 65 3e 99 9a 14 be 57 d2 c7 3e
       -0.124500066 0.22426976 -0.145121 0.39027664
0001e0 70 e2 29 bd d3 85 2d be 0b 02 f6 be 46 58 9c 3d
       -0.041475713 -0.16945581 -0.48048434 0.07634024
0001f0 78 43 0a bf 44 12 b0 be a5 42 b1 be 49 76 b6 3d
       -0.540092 -0.34388936 -0.34621158 0.0890928

policy_mean.weight f4 [7, 128]
000000 09 0b ed bc 59 6b 03 3d 34 de 91 bd b4 8a 03 3d
       -0.028935926 0.032084797 -0.0712246 0.0321147
000010 f9 a6 38 bc bf e8 c3 3d 30 c1 36 be 43 48 2f bd
       -0.011270278 0.09565877 -0.17847133 -0.042793524
000020 7a ef 42 bd 65 72 82 3d f7 e6 0d bd c2 cc 06 bd
       -0.047591664 0.06369475 -0.034644093 -0.032910116
000030 47 66 23 bd 42 bd 79 bd 99 35 2d 3c ac 78 ee bd
       -0.03989246 -0.060971506 0.010571861 -0.1164411
000040 17 f1 94 bc e8 2a 80 3d 8a 8d 87 3c de d7 36 bc
       -0.018181367 0.06258184 0.016546983 -0.011159865
000050 af fb 8c 3d 5e 8b c6 3b 9c ef 17 bd 6c 8d 1c bc
       0.06883942 0.0060590943 -0.037093744 -0.009555202
000060 20 82 a6 bc 11 3e e8 bd d5 a9 e5 3b ab 3e eb bd
       -0.02032572 -0.11339963 0.007008771 -0.11486562
000070 77 4a 91 bd d1 01 2f bc d6 a2 76 bd 54 15 0f 3d
       -0.07094281 -0.010681585 -0.060213886 0.03493245
000080 cc d7 33 bd 87 e7 01 3d be a9 ee bc a9 fe 96 3d
       -0.04390697 0.031714942 -0.029133674 0.07372791
000090 ea d1 6a bd e3 eb 86 bb b4 23 dc bc 59 b7 c1 3c
       -0.057329096 -0.0041174754 -0.026872493 0.023646997
0000a0 8f 6e 9e 3c 1b ad 99 3d 9a b2 8e bc 59 d7 61 3d
       0.019339828 0.075037204 -0.017419148 0.055137012
0000b0 3f 6d 4b 3c 0c 64 17 bd 71 2a 99 bd a9 14 06 3e
       0.012416183 -0.036960647 -0.07478798 0.13093819
0000c0 6d 5a 02 bd 1b 4f bb 3d af f2 ed bd 30 6e fa bd
       -0.031824518 0.091459475 -0.11618554 -0.12228048
0000d0 00 64 a2 3d a3 d0 b3 3b 04 ca cf bd d6 3e 96 3c
       0.0792923 0.005487518 -0.10145953 0.01834051
0000e0 f1 0a e0 bd b6 b1 42 bd 50 be 36 3b 93 ac 9c 3d
       -0.10939587 -0.04753276 0.0027884431 0.076501034
0000f0 6c 75 b4 bd 10 dd 91 bd e9 87 ee bb 73 f4 66 bd
       -0.08811459 -0.071222425 -0.0072793853 -0.05638547
000100 b4 0a e2 39 c6 ae 14 bb 83 55 e1 bd fa 9f a1 3d
       0.00043114054 -0.002268718 -0.11002638 0.07891841
000110 7a 35 55 3c 9d 38 55 bd 79 96 b7 bb 7d a7 c3 bd
       0.013013238 -0.052055944 -0.0056026545 -0.0955343
000120 1d 66 94 bc 7e f2 50 bd 59 de 83 bd 84 b7 6b 3d
       -0.018115098 -0.05101251 -0.06438894 0.05754806
000130 4a 76 f0 bc 33 68 d4 bd 6a 03 4d be ea 81 77 3d
       -0.02935328 -0.10371437 -0.20020834 0.06042663
000140 31 d9 85 3d 40 8c 2f bc ab 83 0c bc 37 59 c6 3d
       0.065355666 -0.010714591 -0.008576314 0.09684985
000150 27 5a 8c 3d ad 26 8d bd 52 e3 06 3c 34 93 0c bd
       0.06853133 -0.068921424 0.008232908 -0.03432007
000160 ad 4e 1d 3d 5f 73 7c bd de 25 0f 3c 7d 04 d1 3d
       0.03840511 -0.061633464 0.008737056 0.10205934
000170 44 d2 c6 3d 4e 68 b3 bb 5f f7 a4 3c 29 28 8f 3d
       0.09708074 -0.0054750806 0.020137487 0.06990082
000180 94 b6 08 bd 38 a9 97 3d ab 41 82 3b 8b 14 3e 3e
       -0.033377245 0.07405323 0.0039751134 0.18562524
000190 bb 2a f7 3d 46 f7 03 bc 18 90 64 3d b5 51 6d bd
       0.12068697 -0.00805456 0.05580148 -0.05793925
0001a0 ec 37 8b 3d 7a 19 06 3d 61 57 27 3e 3d 42 bb bd
       0.067977756 0.03273914 0.16341926 -0.09143493
0001b0 3d f7 21 bc f4 4a 08 bd 11 e7 af bd ff f0 ff 3b
       -0.009885606 -0.033274606 -0.08588994 0.0078107114
0001c0 c2 32 a4 bd 1d 60 12 3d d9 ac 8f bd 03 4f ef bd
       -0.08017494 0.035736192 -0.0701539 -0.11684992
0001d0 a7 90 e4 3d b9 46 16 3e c6 df 07 3d 81 b8 63 3c
       0.11160403 0.14675416 0.03317239 0.01389897
0001e0 99 b4 22 3c 17 83 a4 3c a0 0b 7a 3d 3c d1 66 3d
       0.009930753 0.02008204 0.061046243 0.056351885
0001f0 ac 75 66 3b 25 5f f9 3d 54 7e 00 3c a0 f4 6b 3d
       0.0035165353 0.121763505 0.007842619 0.05760634
000200 b1 a4 8c 3c 29 4c e1 bd 85 40 98 3e d9 27 d8 3d
       0.017168375 -0.110008545 0.29736724 0.10554475
000210 1b a4 86 3d 24 aa f1 3d 44 ec db bc 99 36 8d be
       0.065742694 0.1180003 -0.026846059 -0.27580717
000220 bc b3 f6 3d 6c 4a 82 bd 18 6a 2c be 53 b9 5a 3c
       0.12046 -0.06361851 -0.16837347 0.013349849
000230 74 60 82 3e 6b b7 cf 3d 84 b3 a2 bd 9d 1f 9e 3c
       0.25464213 0.10142406 -0.07944396 0.019302184
000240 de 12 b0 3d 81 21 e5 3d 1d b7 b6 bc 33 19 82 3d
       0.08597349 0.11188031 -0.022304112 0.063524626
000250 6e f0 44 3e 5e ed d8 bd 59 18 3c 3d 80 d6 53 3e
       0.19232342 -0.10592149 0.045921657 0.20687294
000260 f9 05 49 bc b2 a0 7b 3e 22 70 10 be 07 a6 d5 3d
       -0.01226949 0.24573019 -0.14105275 0.10432058
000270 d8 db db 3b 56 32 bd bb a9 8f ae 3d 93 05 ef 3c
       0.006709557 -0.005773823 0.08523495 0.029177463
000280 37 b8 c2 bd 14 08 73 bc ad 70 2d 3d dd ef bd 3b
       -0.095077924 -0.014833469 0.042343784 0.005796416
000290 39 85 b2 bc 8c 55 3d bd fd e3 1b 3d 79 66 01 bd
       -0.021792041 -0.046224162 0.038059223 -0.031591866
0002a0 b2 31 9d 3e 2b e5 b7 3c c1 b3 6c 3d 3d a2 9a bc
       0.30701977 0.022448143 0.057788614 -0.01887619
0002b0 f5 3b 61 3d 82 3a ba 3d b1 13 57 3c 1a bd 8f 3d
       0.05498882 0.09093191 0.013127253 0.0701849
0002c0 45 2f 2b 3d 91 75 41 3d 26 41 3c 3b 24 d3 0a bd
       0.041793127 0.04723126 0.0028725355 -0.033892766
0002d0 14 89 e0 3d b0 21 91 bd c8 db b3 3c ce b4 bb 3b
       0.109636456 -0.070865035 0.021955386 0.0057283407
0002e0 62 d0 9e bb 36 de f9 3b de af 78 3e b5 ed ac 3c
       -0.0048466185 0.0076253666 0.24285838 0.021109441
0002f0 73 c1 88 bd bc a7 e0 bd ce 37 33 3e 39 23 5f bd
       -0.066775225 -0.10969493 0.17501757 -0.05447695
000300 d9 92 69 bd c2 10 8b 3e a7 3e 8e bd a5 ce 21 be
       -0.05702481 0.27161223 -0.06945544 -0.15801485
000310 57 38 00 3d 84 fd cd 3c e3 92 15 bd 8e 61 02 3e
       0.03130373 0.0251453 -0.036517035 0.12732527
000320 bb 02 16 3e 61 7a b6 bc e9 fb 88 bd 49 90 9b bd
       0.14649479 -0.022275152 -0.06688673 -0.075958796
000330 4d cd 22 3c 8d 63 9a bc 1e 9e 04 3e 69 58 35 bd
       0.009936643 -0.018846298 0.12950942 -0.044273768
000340 8c 46 e1 bd 67 75 61 3d 31 0e 63 3d 21 5f 92 3c
       -0.10999784 0.055043604 0.055433456 0.017867627
000350 1f 41 d2 3d 58 b2 52 be b7 40 bd 3d eb a1 a5 3c
       0.10266327 -0.20575845 0.09240859 0.02021881
000360 6c 58 d5 bc f7 0c 77 bc 8a 31 26 3d 2f 0a 0c be
       -0.02604314 -0.015078775 0.040574588 -0.1367576
000370 29 4f bf ba 50 72 d2 3c a7 16 30 3e 8d 00 00 bc
       -0.0014595735 0.025689274 0.17196141 -0.007812631
000380 cf f8 14 3e 34 b2 45 be cc 41 1c 3e 80 e5 63 3d
       0.14548038 -0.1930626 0.15259475 0.05563879
000390 db 0b 90 be b5 f3 78 3d 4a 97 ca 3d 31 dc 84 3d
       -0.28134045 0.060779292 0.09892137 0.06487311
0003a0 3c 3e ef 3d b6 08 4b be 22 e9 57 bd f3 9b 99 bc
       0.11681792 -0.19827542 -0.052712567 -0.01875112
0003b0 f9 37 ee bc 0f 87 c9 bd d7 31 98 3c a3 78 7f 3d
       -0.029079424 -0.098402135 0.018578453 0.062370908
0003c0 61 e9 d8 3b e5 a3 08 be ed 4d 69 bd 9e 82 1c 3e
       0.006619618 -0.13343771 -0.05695908 0.15284202
0003d0 b7 6e 10 be 36 b4 87 be 21 91 31 3d d1 70 8d 3e
       -0.14104734 -0.26504678 0.043351296 0.27625135
0003e0 a5 a4 ca 3d 22 3a 8a 3d 1c ec 8f 3d 17 cc 0d 3d
       0.09894685 0.06749369 0.07027456 0.034618463
0003f0 ff c1 d4 bd 15 05 05 3e 01 53 7c 3d 6f fa 1b be
       -0.10388564 0.1299022 0.061602596 -0.15232252

policy_mean.bias f4 [7]
000000 49 dd a4 bd 3e a1 e1 bd d6 b5 e1 3d 29 20 86 3c
       -0.08050019 -0.11017083 0.110210106 0.016372757
000010 74 9f 01 be ae 2b 53 bd 98 b0 94 bc
       -0.12658483 -0.051555328 -0.018150613

value_head.weight f4 [1, 128]
000000 87 c8 0e c1 c7 1a 17 41 57 ba 1f c1 32 52 0f 41
       -8.923957 9.444037 -9.982993 8.957567
000010 27 6f 12 41 81 5a 13 41 ce 35 17 41 a9 b3 30 41
       9.152137 9.209596 9.450636 11.043862
000020 50 4d 09 41 67 b0 09 c1 e2 06 09 c1 db 0a 17 c1
       8.581375 -8.605567 -8.56418 -9.44015
000030 9a 9b fd 40 35 5b 07 c1 e8 75 fc 40 a9 62 0f 41
       7.9252443 -8.459767 7.889393 8.961587
000040 08 6e ed 40 cc 28 f9 c0 02 ac cf c0 41 8d 1b c1
       7.4196815 -7.78623 -6.489747 -9.721986
000050 84 79 14 41 9c 95 02 c1 3b 87 0e c1 af 70 03 41
       9.279667 -8.161526 -8.908015 8.215011
000060 54 d1 1a 41 75 d0 07 41 1d a0 05 c1 be 1c 09 41
       9.6761055 8.488393 -8.35159 8.569517
000070 21 8a 2a c1 b0 5e 09 c1 58 21 0d 41 20 22 0d 41
       -10.658723 -8.585617 8.820641 8.820831
000080 9d 63 0a 41 ff 40 17 c1 f1 28 1a c1 0b 15 09 41
       8.64932 -9.453368 -9.634995 8.567637
000090 42 77 17 41 72 be 16 41 3b 90 07 c1 fd bd 0f c1
       9.466616 9.421495 -8.4727125 -8.983884
0000a0 35 bb 0b 41 55 db 1d 41 d4 07 0f 41 89 35 01 c1
       8.733205 9.866048 8.939411 -8.07557
0000b0 46 60 f4 40 a2 8d 30 c1 b9 01 16 c1 36 6c 00 c1
       7.636752 -11.034578 -9.375421 -8.026419
0000c0 df 85 0b 41 5e 31 05 41 ab 00 02 41 94 a6 0b c1
       8.720183 8.324553 8.125163 -8.7281685
0000d0 20 39 09 41 02 29 03 41 c7 eb 0a 41 c0 c5 1a 41
       8.576447 8.197512 8.682563 9.673279
0000e0 71 4c 0c 41 22 a4 18 41 18 f0 03 41 72 06 11 41
       8.768662 9.5400715 8.246117 9.064074
0000f0 a2 d2 10 c1 74 78 14 c1 2e 1d 11 41 e0 e4 0b c1
       -9.051424 -9.2794075 9.069624 -8.743378
000100 73 d7 0a 41 17 7f 08 41 ef e2 17 c1 62 b9 0f c1
       8.6776 8.531028 -9.492904 -8.982759
000110 ea cb d4 c0 c9 02 12 c1 d5 3f 14 c1 b3 1c 21 c1
       -6.649892 -9.12568 -9.265584 -10.069507
000120 04 83 1c 41 14 d0 07 c1 95 63 15 c1 ca 0c 0c 41
       9.781986 -8.4883 -9.336812 8.753122
000130 ef 6b 26 41 d4 d8 f4 40 1d 11 07 c1 f9 e8 0c 41
       10.401351 7.6514683 -8.441678 8.806878
000140 67 6d fe c0 c2 3c 0e c1 85 ec 0a c1 2a 98 00 41
       -7.950855 -8.889833 -8.682744 8.037149
000150 dd 34 08 c1 77 d4 11 41 46 23 20 c1 41 84 f2 40
       -8.512906 9.114371 -10.008612 7.5786443
000160 98 ae 03 c1 d2 ed 05 41 83 f1 12 41 79 fd 0c c1
       -8.230125 8.370562 9.183963 -8.811883
000170 42 65 de c0 44 47 18 41 85 21 f1 c0 fb 47 0e 41
       -6.9498606 9.517399 -7.5353417 8.892573
000180 6b 4c 1b 41 62 79 ea 40 42 34 de 40 61 bd 15 c1
       9.706157 7.327317 6.943879 -9.358735
000190 f4 e5 18 41 54 b2 16 c1 60 fc 20 c1 37 ea e6 40
       9.556141 -9.418537 -10.061615 7.2160907
0001a0 2f 74 17 41 04 5d 0d 41 ea 42 19 41 99 3e 18 c1
       9.465865 8.835209 9.578836 -9.515283
0001b0 f0 a8 0f c1 99 e3 22 c1 ca bd ff 40 25 58 0a 41
       -8.9787445 -10.180566 7.9919176 8.64652
0001c0 de b2 13 c1 06 d0 12 41 6d 75 07 41 99 69 08 c1
       -9.231169 9.175787 8.466168 -8.525781
0001d0 38 e7 0b 41 37 ee 1b 41 8b 70 0e c1 7f ea 0f c1
       8.74395 9.745658 -8.902476 -8.99475
0001e0 d1 9c 15 c1 de 2f 0b 41 f6 4e f6 40 81 7f 0d c1
       -9.350785 8.699186 7.697139 -8.843629
0001f0 0c 0d 07 41 52 64 12 41 ab 19 fa 40 98 42 13 c1
       8.440685 9.149492 7.8156333 -9.203758

exp_avg f4 [7]
000000 00 ae 81 b8 5e 1b a4 3a 56 c6 5f 3a 0a e5 83 ba
       -6.1836094e-05 0.0012520363 0.0008536329 -0.0010062766
000010 66 d6 22 b9 32 51 b1 ba 64 c3 f7 b9
       -0.00015529394 -0.0013528226 -0.0004725709

exp_avg_sq f4 [7]
000000 7a af c1 37 77 d2 c8 37 8e 82 97 37 41 c8 b3 37
       2.3089106e-05 2.3939863e-05 1.8061397e-05 2.1431713e-05
000010 51 2d b5 37 40 c3 8d 37 bb a1 a9 37
       2.1597984e-05 1.689943e-05 2.0221682e-05

exp_avg f4 [128, 21]
000000 88 0e 5f 38 6e e8 ce b7 10 6c d0 b9 4d 98 f3 b9
       5.3180876e-05 -2.4665347e-05 -0.00039753364 -0.00046462045
000010 d4 ab bc b8 7c 96 5a 39 d3 c3 93 38 b8 7b a1 b7
       -8.996544e-05 0.0002084616 7.045981e-05 -1.9250307e-05
000020 e5 46 a1 37 f2 b0 53 37 32 de a9 b6 7a e7 d6 35
       1.9225708e-05 1.2617778e-05 -5.0624594e-06 1.6011611e-06
000030 85 d7 56 b8 f4 c8 cf b9 f9 06 0a 35 d2 63 4c b7
       -5.1222294e-05 -0.00039631838 5.141915e-07 -1.2182589e-05
000040 88 e4 34 39 cf d6 03 ba 4e 57 58 b8 a9 c6 de b7
       0.00017251272 -0.00050292624 -5.1579722e-05 -2.655697e-05
000050 dd 0f a3 35 1e 95 d1 b7 85 27 0c b8 9e 70 d5 b9
       1.2149063e-06 -2.498418e-05 -3.3415407e-05 -0.00040710432
000060 d4 65 99 b9 39 b4 51 b9 ba f3 36 b9 28 32 6c 38
       -0.00029258302 -0.00019998931 -0.00017447668 5.6313496e-05
000070 87 7a 9d b6 1e 40 92 36 0a 66 09 37 9f d6 67 b5
       -4.6932287e-06 4.3586033e-06 8.189594e-06 -8.636652e-07
000080 65 1c 85 b6 6b 93 4f b8 2a aa c8 b9 9d 17 ed 35
       -3.9670144e-06 -4.948994e-05 -0.00038273755 1.7664748e-06
000090 7a af 34 b6 7c 64 7e b9 31 1f a3 b9 05 4e b0 37
       -2.692423e-06 -0.00024260761 -0.00031113022 2.1017166e-05
0000a0 d4 d7 86 b7 4e 67 cc 37 55 bc 58 b4 55 af 12 36
       -1.6074548e-05 2.43668e-05 -2.0185082e-07 2.1857752e-06
0000b0 2c 74 aa 37 58 a3 7d 37 3f 7d 2a 37 0b 0a 0e 37
       2.0319676e-05 1.5118007e-05 1.0161951e-05 8.466198e-06
0000c0 4c 2f 1d b6 bd dc 97 34 d4 10 a1 b4 5f 3f f2 33
       -2.3422353e-06 2.828655e-07 -3.000083e-07 1.128053e-07
0000d0 9f 0f e4 34 0e e2 39 34 33 26 28 36 27 35 a1 37
       4.2479675e-07 1.7311706e-07 2.5056186e-06 1.9217447e-05
0000e0 c4 2c 59 b3 87 4e a3 b3 9d 46 42 37 db a8 85 37
       -5.0564964e-08 -7.604563e-08 1.1579742e-05 1.5933465e-05
0000f0 3d 4f c9 34 ef b6 ab 34 6d f0 93 b5 80 0b 1f b8
       3.749682e-07 3.1984334e-07 -1.1022327e-06 -3.7919264e-05
000100 ec 88 08 37 dc b8 97 ba 05 28 a3 ba 99 af ee b8
       8.138111e-06 -0.0011575478 -0.001244784 -0.00011381432
000110 fc d2 8c 39 63 52 d7 38 5f 4e 2d b8 dc c9 20 38
       0.00026860076 0.000102673446 -4.1319403e-05 3.833497e-05
000120 83 5e 75 37 ad f0 48 38 4f 20 33 36 fd c1 16 b9
       1.4625143e-05 4.7907863e-05 2.6691885e-06 -0.00014377381
000130 0b 87 90 ba d2 b5 23 35 2b 67 c5 b7 0a a5 86 39
       -0.0011026574 6.0986815e-07 -2.3532271e-05 0.00025681435
000140 1b 87 aa ba 89 3d 2a 38 8c 4a 1f b9 cb 39 66 38
       -0.0013010235 4.0588468e-05 -0.00015191193 5.4890097e-05
000150 b0 72 cc b6 55 5c 8b b7 6c 5b 36 b9 61 a5 03 b9
       -6.093025e-06 -1.6613087e-05 -0.0001739093 -0.00012554742
000160 a9 59 ae b8 58 4b 98 b8 3d bb d3 37 6f 82 1d b6
       -8.313667e-05 -7.261959e-05 2.524035e-05 -2.3470745e-06
000170 54 0b 1c 36 b6 cc 54 36 07 cc 2c b6 48 12 d8 b5
       2.3252405e-06 3.170962e-06 -2.5748757e-06 -1.6098575e-06
000180 a8 87 b2 b7 4b ae 2a b9 0d 87 8c b3 a0 97 de b4
       -2.1282423e-05 -0.00016277393 -6.5438236e-08 -4.1461044e-07
000190 41 86 d1 b8 56 d1 0b b9 1f 6e 96 36 56 ad 9c b6
       -9.990903e-05 -0.00013334057 4.483168e-06 -4.6693413e-06
0001a0 d7 d1 3a 37 34 68 d4 b7 d9 1d 0c b9 56 6e 41 ba
       1.1135321e-05 -2.5320893e-05 -0.0001336256 -0.0007378807
0001b0 6e 9b c0 b9 25 a4 0a ba 43 2a 36 ba c5 2a 07 39
       -0.00036736898 -0.00052887417 -0.00069490465 0.00012890536
0001c0 ed 58 99 35 20 7f 4e b4 95 3b b9 b7 98 4e a3 b7
       1.1425269e-06 -1.9231493e-07 -2.2081464e-05 -1.9467712e-05
0001d0 1f 0d 3c b7 f8 1e bc b8 0b de 32 ba 4b 44 0b 34
       -1.1208728e-05 -8.970307e-05 -0.0006823248 1.2970229e-07
0001e0 cd c8 d0 37 e8 f6 50 ba 99 72 d2 b9 3e c3 6c 37
       2.4889037e-05 -0.0007971362 -0.00040139703 1.41121545e-05
0001f0 87 39 38 38 a8 04 69 38 1f 32 45 b9 a7 00 46 b9
       4.3922595e-05 5.5555865e-05 -0.00018806056 -0.00018882994
000200 89 56 c5 ba f9 36 45 ba a8 36 69 ba 21 52 a5 ba
       -0.0015055697 -0.0007523145 -0.0008896389 -0.0012612977
000210 22 db 93 39 5e a4 a0 36 f2 44 ad b6 d6 bd ff 37
       0.00028201292 4.7875064e-06 -5.163828e-06 3.0486768e-05
000220 0b 35 ae b7 96 57 df b7 e4 ff 36 b9 c8 96 b2 ba
       -2.0767116e-05 -2.6624457e-05 -0.00017452199 -0.0013625259
000230 1e 09 9d 37 cf 23 3b b6 b1 7f e0 ba d8 65 42 ba
       1.8720104e-05 -2.7886015e-06 -0.0017127899 -0.00074156886
000240 2b 47 29 39 8a 0c 70 37 22 fe 15 39 74 3c 9a 37
       0.00016143608 1.4308034e-05 0.00014304419 1.8386381e-05
000250 65 e4 8b 37 f1 5e 02 39 fe 52 6f 38 e6 78 8c 38
       1.6676446e-05 0.00012433135 5.7059333e-05 6.698239e-05
000260 ae b2 ef 38 87 ff b8 b7 de d4 68 b5 d4 88 39 35
       0.0001142969 -2.2053498e-05 -8.67365e-07 6.911698e-07
000270 52 0c a3 35 77 44 36 35 73 5a 1d 36 c1 c7 64 37
       1.2148032e-06 6.7899913e-07 2.3447471e-06 1.3636368e-05
000280 21 b5 e2 38 b5 51 1b b6 28 81 5a 35 24 43 28 39
       0.00010810258 -2.314436e-06 8.1399276e-07 0.0001604674
000290 00 46 4f 38 26 91 86 b7 0f 04 4c b6 ed 22 88 b7
       4.941784e-05 -1.6041635e-05 -3.0400731e-06 -1.6228727e-05
0002a0 4d 21 4b b8 5f 79 2a b8 5b 8a a2 b9 d8 cf f0 b8
       -4.8429985e-05 -4.0644194e-05 -0.0003100213 -0.00011482806
0002b0 1a d1 5d b9 6b 58 c1 b9 6f 6b 07 38 55 58 af 36
       -0.00021154099 -0.00036877705 3.2286564e-05 5.2256896e-06
0002c0 73 10 ad b6 63 96 82 b6 a1 04 2e 35 d3 44 d5 b6
       -5.1577167e-06 -3.8918092e-06 6.4826787e-07 -6.355907e-06
0002d0 06 9f 14 b8 10 b8 8f b9 80 35 52 36 a0 17 4c 36
       -3.5434052e-05 -0.00027412223 3.132358e-06 3.041212e-06
0002e0 6c db e6 b9 ea c5 e6 b8 b4 78 30 38 ac d2 ae 36
       -0.000440325 -0.00011004119 4.2074083e-05 5.2101295e-06
0002f0 68 92 16 38 8c 19 62 37 71 36 d3 36 09 74 3c 39
       3.589914e-05 1.3476598e-05 6.294628e-06 0.00017972304
000300 a5 b5 d6 38 84 6b 73 38 8e 39 2c 39 20 df c1 37
       0.00010238149 5.8035846e-05 0.00016424639 2.3111294e-05
000310 cd c9 eb b5 bd 9d d2 35 a8 fd 6e 37 0f 45 e4 35
       -1.7567596e-06 1.5692127e-06 1.4244964e-05 1.7007422e-06
000320 f6 67 21 36 3e c2 a2 37 7e fa 20 39 80 48 11 b6
       2.4051383e-06 1.9402356e-05 0.00015352105 -2.1648884e-06
000330 d9 43 bc 33 32 04 39 39 25 5e c2 38 92 bf 39 b7
       8.7667736e-08 0.00017644538 9.268177e-05 -1.1071463e-05
000340 45 e9 5b 37 51 cc db b7 9f 04 6d 39 be b9 6e 39
       1.31077295e-05 -2.6201977e-05 0.00022603803 0.00022766643
000350 a9 ad 38 3b 7e 3c 0d 3b 49 60 60 3a ab af 62 3a
       0.0028179681 0.0021550949 0.00085592695 0.00086473924
000360 ea 08 ce b9 c9 94 2c 38 5a ec 21 b8 ca 14 a3 b8
       -0.00039298023 4.1146563e-05 -3.860551e-05 -7.776318e-05
000370 09 f8 4e b8 34 e0 c4 37 c6 be ab 39 a3 9b 26 3b
       -4.9345228e-05 2.3469423e-05 0.000327578 0.0025422357
000380 51 f9 cb b7 cc 17 94 38 ad ce aa 3a db 11 0f 3b
       -2.4315583e-05 7.0616225e-05 0.0013031565 0.002183071
000390 99 68 54 b9 ab 87 d1 38 35 90 90 b9 f8 5e 85 b7
       -0.00020256861 9.991167e-05 -0.00027573263 -1.5899059e-05
0003a0 c1 d7 c3 38 e8 c0 c7 39 01 34 32 37 ae 57 d0 39
       9.338512e-05 0.00038099964 1.0621735e-05 0.00039738178
0003b0 6e ee 60 3a bc 8f fd 38 4b 64 93 b7 63 61 6e 37
       0.00085804507 0.00012090753 -1.7570468e-05 1.420858e-05
0003c0 59 eb 6d 38 82 c8 1b 38 b0 e6 78 37 1f 06 2c 38
       5.6724388e-05 3.7141617e-05 1.4835663e-05 4.1013696e-05
0003d0 53 05 b2 39 c8 26 95 b7 a7 94 e1 b6 33 ba 86 3a
       0.00033954773 -1.7780243e-05 -6.722828e-06 0.001027888
0003e0 56 c8 8b b8 34 e9 00 38 62 a9 5b b8 cd dc 2d b8
       -6.665352e-05 3.0734765e-05 -5.237142e-05 -4.145205e-05
0003f0 7b 7b e1 35 33 73 7b b8 fc 0b a6 b9 d5 f2 8e 38
       1.6799744e-06 -5.995035e-05 -0.00031670916 6.816319e-05

exp_avg_sq f4 [128, 21]
000000 1b c9 d6 33 83 fd 65 34 b3 9e 9a 37 dd 30 8b 37
       1.00017324e-07 2.1419514e-07 1.843213e-05 1.6592845e-05
000010 0e 61 63 36 67 36 0a 35 b1 24 a8 34 09 d8 ec 32
       3.388213e-06 5.148817e-07 3.1319135e-07 2.7572257e-08
000020 83 60 eb 32 52 c8 1c 32 a4 00 2c 32 c5 3a 30 31
       2.7401489e-08 9.125943e-09 1.0011863e-08 2.5644777e-09
000030 7a 09 a6 34 e8 31 93 37 46 88 fe 32 9f 5f 8b 33
       3.0926805e-07 1.7547005e-05 2.9631462e-08 6.490085e-08
000040 f6 97 de 34 42 9d a9 37 f0 be cf 33 60 ea 88 33
       4.1461288e-07 2.0219599e-05 9.67392e-08 6.375626e-08
000050 9b fe cf 32 40 0f 02 33 da 38 f5 32 9c c9 58 36
       2.4213753e-08 3.0281853e-08 2.8547607e-08 3.230386e-06
000060 a5 ac 31 36 66 84 35 35 15 e1 a9 34 3a 71 47 33
       2.6475548e-06 6.762042e-07 3.1642472e-07 4.6436277e-08
000070 35 d4 8a 31 99 49 87 31 4b 64 f6 30 e1 d3 37 31
       4.0404537e-09 3.937384e-09 1.7927361e-09 2.6750444e-09
000080 1d 9d 72 2f 0d d2 69 33 5d d2 50 36 22 ee 7b 31
       2.206559e-10 5.444058e-08 3.1116863e-06 3.666067e-09
000090 9b 0e 92 32 60 23 bd 34 66 6b 5d 36 5a d5 01 33
       1.7003279e-08 3.5229732e-07 3.299408e-06 3.0229195e-08
0000a0 e5 19 7e 32 28 e4 82 31 71 d6 c6 2d e7 f1 22 2e
       1.4790634e-08 3.8094363e-09 2.2605225e-11 3.7049388e-11
0000b0 fd 1f 79 31 25 33 37 31 df fb 53 30 d2 7d ef 2f
       3.6252452e-09 2.6659077e-09 7.7119283e-10 4.3563247e-10
0000c0 5f b6 61 2e 32 c2 72 2c db 11 71 2c b0 7d b2 2b
       5.1321055e-11 3.4498068e-12 3.4258072e-12 1.2682546e-12
0000d0 e0 90 ff 2b 76 2d fa 2a 30 66 7a 2e 9d fe 65 31
       1.8159051e-12 4.4440466e-13 5.693418e-11 3.3468617e-09
0000e0 0a 7f 61 2e fe ee c1 2d f1 ea 5c 30 67 42 4e 31
       5.127191e-11 2.2047694e-11 8.0369406e-10 3.001469e-09
0000f0 64 5a b4 2d a3 a0 39 2d 25 94 13 2d 32 16 08 34
       2.0503772e-11 1.0551701e-11 8.388877e-12 1.2674062e-07
000100 24 54 80 34 2d f7 17 38 49 e8 0f 38 3e 15 a8 36
       2.3903078e-07 3.6231406e-05 3.431019e-05 5.009263e-06
000110 8f b6 21 35 82 4a 35 35 2e de 55 33 16 a8 51 33
       6.024283e-07 6.753618e-07 4.9795e-08 4.8814478e-08
000120 02 db 9b 32 d4 10 c8 32 eb 28 b4 31 b0 81 20 35
       1.8143968e-08 2.3290717e-08 5.2433413e-09 5.9793365e-07
000130 f9 6e 0f 38 ea b7 47 33 c8 d8 fe 34 d4 7c 94 35
       3.4197208e-05 4.6500567e-08 4.7468916e-07 1.1063189e-06
000140 b6 9f 22 38 8d cf 06 34 67 04 93 34 29 e7 7f 33
       3.8772552e-05 1.2555229e-07 2.7384087e-07 5.9582053e-08
000150 c4 fc 83 30 af 85 a7 31 a6 47 ce 34 c4 f0 97 34
       9.603345e-10 4.8755378e-09 3.842262e-07 2.8301122e-07
000160 3b 0d 91 33 bb 4a 64 33 89 f4 20 32 0a 89 8c 2f
       6.754495e-08 5.3153354e-08 9.368827e-09 2.5563224e-10
000170 a4 43 89 2f 77 ea 41 2f ff 50 66 2f 45 3c 4c 2e
       2.4968216e-10 1.7636546e-10 2.0947154e-10 4.643776e-11
000180 ed d4 c3 31 d5 d1 bc 34 ec 12 19 30 b6 e1 54 30
       5.699454e-09 3.5170402e-07 5.5687965e-10 7.7445905e-10
000190 83 a3 e9 33 3e 3d a2 34 95 49 72 30 fe 77 5c 30
       1.08796506e-07 3.021941e-07 8.8143653e-10 8.0206053e-10
0001a0 a5 b1 84 30 bc 0e 60 34 9d 08 f5 34 55 4a 1e 38
       9.654754e-10 2.0866986e-07 4.5641073e-07 3.7739363e-05
0001b0 62 e4 05 38 8e 05 ea 36 61 dd 3d 36 e5 96 46 35
       3.192237e-05 6.97439e-06 2.8292054e-06 7.398033e-07
0001c0 3a ac 41 33 be b6 3f 33 92 41 af 32 a6 77 c1 32
       4.5092953e-08 4.4636856e-08 2.04025e-08 2.2522567e-08
0001d0 c6 ba ee 31 5b e5 24 35 1a b8 15 38 db 76 6b 33
       6.9479453e-09 6.1428517e-07 3.5695826e-05 5.48233e-08
0001e0 0b 1a 55 34 39 10 96 36 2e e7 1d 38 46 3f 58 34
       1.9846645e-07 4.472237e-06 3.764702e-05 2.0139586e-07
0001f0 61 c3 ef 33 cf dc 6e 33 a4 44 2b 35 db 94 60 35
       1.1164844e-07 5.5614517e-08 6.380235e-07 8.3663116e-07
000200 47 12 ca 38 be c4 ad 38 a3 95 a2 37 b3 3c e6 36
       9.635515e-05 8.285929e-05 1.9381585e-05 6.8616005e-06
000210 cd b7 b4 35 e4 08 05 34 7b 4c 04 34 8c 0b 5a 33
       1.3464538e-06 1.2389825e-07 1.2321281e-07 5.0767582e-08
000220 5e 08 90 33 48 c3 ed 31 10 42 d5 35 3f 84 c2 38
       6.7070445e-08 6.9198087e-09 1.5888963e-06 9.2752736e-05
000230 ae d8 2f 33 99 fa 10 34 68 5e 23 37 eb 90 d2 38
       4.094243e-08 1.3502212e-07 9.737538e-06 0.000100405734
000240 e9 6d 28 35 c4 56 d2 34 d8 8c e8 33 b4 7b 85 30
       6.274482e-07 3.9178678e-07 1.0828961e-07 9.712182e-10
000250 5d d5 54 31 ca c0 ad 34 7b 55 83 34 d6 af a5 33
       3.0971343e-09 3.2364034e-07 2.4462847e-07 7.7153956e-08
000260 7e 68 e8 32 8f b7 ea 31 60 fc b8 2f 69 dd b7 2f
       2.7055872e-08 6.8311645e-09 3.3648728e-10 3.3444827e-10
000270 2d 25 2d 2f 45 0e 3c 2f 48 f4 15 2e 66 e2 a8 31
       1.5747466e-10 1.710357e-10 3.4095643e-11 4.915182e-09
000280 ff 10 a2 34 b3 b4 56 30 5d 42 a1 30 7c 10 80 33
       3.0187218e-07 7.8109536e-10 1.1733153e-09 5.963463e-08
000290 27 0b 9e 34 e0 99 65 30 cc 40 b7 30 f4 fe 28 30
       2.9437908e-07 8.3528384e-10 1.3333419e-09 6.1480354e-10
0002a0 fe c4 8f 33 dc 97 36 34 bb d3 56 37 83 b8 32 37
       6.694789e-08 1.7005317e-07 1.2804691e-05 1.0652587e-05
0002b0 15 e4 39 36 ba 3d 37 35 cb f1 62 34 66 c9 90 32
       2.769991e-06 6.8262636e-07 2.1135854e-07 1.6855392e-08
0002c0 b8 08 90 32 cb c6 e4 31 66 8f 01 32 24 ce e6 30
       1.6767771e-08 6.6582735e-09 7.541393e-09 1.6793291e-09
0002d0 8f 6b 61 34 97 9f 4a 37 ee 5e 23 33 db c3 8f 33
       2.0993888e-07 1.2077296e-05 3.8037733e-08 6.694582e-08
0002e0 57 c8 8c 35 d6 fb 5b 37 71 bb 89 33 1e 3e 18 33
       1.0489119e-06 1.3112052e-05 6.413655e-08 3.5446753e-08
0002f0 d3 95 b3 32 0f 54 8c 33 4f 1e 3e 33 7b 08 ce 36
       2.0906475e-08 6.534548e-08 4.4265388e-08 6.1402657e-06
000300 99 4d c5 36 5d 56 3a 35 54 76 c1 34 8a c3 ed 33
       5.880091e-06 6.9416075e-07 3.6035146e-07 1.1071741e-07
000310 e8 6c 19 32 85 d3 15 32 2d b2 39 31 70 69 5b 31
       8.9305345e-09 8.7210354e-09 2.7022324e-09 3.1928629e-09
000320 73 ea f1 2f 04 0f df 33 e6 49 c8 36 41 91 5a 31
       4.400423e-10 1.0386978e-07 5.9690674e-06 3.1805742e-09
000330 06 e4 98 32 54 21 7f 34 ec 21 e3 36 de 6d 8f 33
       1.7798822e-08 2.376085e-07 6.769076e-06 6.678941e-08
000340 38 f8 00 33 52 82 ee 31 f9 63 08 36 37 e9 57 36
       3.0028076e-08 6.9415274e-09 2.032377e-06 3.2173245e-06
000350 11 85 ae 39 ba 83 a0 39 c0 57 47 38 fc 87 49 37
       0.00033287008 0.00030615722 4.752702e-05 1.2012195e-05
000360 01 3e e1 36 60 08 fa 34 0a b6 f5 34 44 0f 30 34
       6.7127407e-06 4.6572222e-07 4.5767257e-07 1.6396831e-07
000370 29 49 42 34 43 12 f8 32 20 61 c0 36 27 56 a5 39
       1.8094273e-07 2.8879304e-08 5.7333527e-06 0.0003153544
000380 4e c4 16 35 41 f7 02 36 3f ee 2f 37 94 05 bc 39
       5.6165015e-07 1.951543e-06 1.0486284e-05 0.0003586231
000390 b0 1f 0a 36 5f bc c4 35 58 22 06 35 86 6e 44 35
       2.0582047e-06 1.4657961e-06 4.9968867e-07 7.317652e-07
0003a0 5d 5a 75 35 4e 95 ed 38 df 78 d9 38 ed bd 87 37
       9.140111e-07 0.00011328851 0.0001036988 1.6181695e-05
0003b0 63 e1 a8 36 d2 fe 3a 36 1e 20 14 34 38 75 0f 34
       5.0330286e-06 2.7864485e-06 1.3795258e-07 1.3360557e-07
0003c0 d9 6a 88 33 f1 22 af 33 41 fc 99 32 ef 14 ef 35
       6.352429e-08 8.155428e-08 1.7926256e-08 1.781298e-06
0003d0 a9 6f e0 38 85 4e 6e 34 4f fb 0f 35 d8 6b 2c 37
       0.00010701951 2.2194043e-07 5.3637353e-07 1.0277108e-05
0003e0 41 b9 f2 38 89 f8 3b 35 7a ff 31 35 9f a8 63 34
       0.000115739655 7.0024595e-07 6.6309406e-07 2.1202366e-07
0003f0 13 5a 1a 35 11 99 bc 35 e6 e8 45 39 05 a9 37 39
       5.7500546e-07 1.405164e-06 0.00018874145 0.00017515205
