models/checkpoint_3500.pth (torch, 255274 bytes, 24 tensors)

policy_log_std f4 [7]
00000000: da56 3b3f c1a2 6e3f bf09 873f 2a9b c43e
00000010: 2a9b 3e3f 41d0 8e3f f45f 27c0
0.731794 0.9321709 1.0549849 0.3839963 0.7445551 1.1157304 -2.6152315

fc1.weight f4 [128, 21]
00000000: 9f33 373f f704 343f 5548 88be fbcf d7be
00000010: 9c20 13bf 1dcf d2bd 5fc1 64bf 015e 23bf
00000020: 68ea 023f d0ce dd3c f49a c1ba f982 c93f
00000030: 90a7 9ebe 9bac f0be c067 21be 9183 d7bd
00000040: 9690 2cbf 2038 1dbe e7a1 473e 5cba b2bf
00000050: ec7d 3f3f 7354 373f ad2f a6be 1aad e93e
00000060: 91d9 133e 54d9 9fbc 2353 f0bf 99a4 f9be
00000070: 314d 2bbf 1466 3a3f f47d 00bd 6917 f53c
00000080: 5b7b 403f e422 373e ce2b 123f 1767 693e
00000090: 4208 12bd 3a60 eb3e 181d c53e 2b1d 70be
000000a0: 422d 433f 38ef e8bf 5102 2d3f 5da2 b7be
000000b0: bdc6 4a3f d348 d93e 4c4d 193f 5037 1cbf
000000c0: 25db eb3e fead fe3e c1f9 febe a0d9 95bd
000000d0: 6812 7c3e a35a 0b3f 3d27 2a3f aa96 663f
000000e0: cd49 3fbe 4521 cbbc 59f4 b03e e704 563f
000000f0: 3203 46bf c9b1 7e3e d9b3 51be cdbe a43c
00000100: f418 7cbe bd07 c9bd 4f3f 0abf 89ee 27bf
00000110: 0c41 37be 55ad 9ebe 847f 57bf 9a2e 553f
00000120: 5a53 053e 19d3 65be a9ca 433f cd4b 1ebf
00000130: 2a1d 10bf c4c3 8ebe 02ae 0f3e c850 b93d
00000140: 6aa7 3dbe ad9f 363f cc36 ecbe 504e 96bf
00000150: 9c5d 2d3f 505f 5fbf e4e0 1f3f 36f7 013f
00000160: 4fb2 163f 633b 7ebf 6d38 a2be bd9c 6e3e
00000170: 3402 d0be 0df7 033f 61cf 1fbf 5638 4a40
00000180: 764e 0f3f a35f d23e c914 9c3d 250f d33e
00000190: 2679 cdbe d839 033f 4a19 d03e c7df 7e3f
000001a0: 9d18 fabf d787 3f3e 41f1 d5be 7051 083e
000001b0: 86c5 a13e 6291 d83d 85f2 2ebf 7c78 acbe
000001c0: 2c1c 983f 7989 a3be eaaa 263d a55d 003d
000001d0: e655 d0bf 335d eb3c 9976 283c 37c5 58bf
000001e0: 7c2d 11bf dd7c 76bf aba2 2c3e 9b6e 36bf
000001f0: 714f 123f 62da c7bf 6def eebb 3048 953e
00000200: 1463 35bf 5f69 9f3e df14 cfbd 5756 313f
00000210: 5422 a93d 6a96 eb3e 7d02 77be 3441 04be
00000220: 3960 b1bd 972c 1cbf 20aa 0dbf b7a3 03be
00000230: 82c4 d6bd a758 d0bc 4270 95bd 02ca dbbe
00000240: 3541 ebbd b33e b1be 0d29 cc3f 402d 4cbe
00000250: 4370 ffbe 3cbc 083f f906 783e 543d bdbc
00000260: 809f 29bd 8792 f63e b2cc 19bf 7b0b d23e
00000270: 5ef5 453d d6f2 29bd cdc6 db3f e27d 7a3f
00000280: d611 183f bbf6 a43e 0ccb e43c a2e0 1b3f
00000290: aa89 e43e 8d1a 913e b8fc c13e 251b 77bf
000002a0: 7e6d 17be 05bb afbf e602 883e 8948 0b3f
000002b0: f05b 5a3e d018 073e 6aab bb3e 7fc2 6c3f
000002c0: 5ca0 edbe 8438 09be ef64 a23e c7d5 86bf
000002d0: ee9a 8b3e b96f 143d 14c5 9a3d 7915 1a3a
000002e0: 6977 ab3d bfe3 883e 8b45 813e 3be5 e63f
000002f0: d16e 9bbf 7a29 93bf f8ad 993e 24d0 a0be
00000300: 0a7e 25bf 50c2 50bf 0503 f0bd d79c 1abf
00000310: a948 1abf 268e bc3e b4b1 2d3c e22a f33c
00000320: 67f3 1940 0a65 08be 35e0 bbbe ba05 ee3e
00000330: 250b 943e f1e7 a03e fb3f 96be aedf 0940
00000340: 05f8 15be bc46 763f 8e91 85bf 73c9 6e3f
00000350: 7837 3fbc fa87 2abe a7a6 203e b646 3c3f
00000360: ae50 8cbf fe19 42be a939 ddbe eac9 0abe
00000370: 4597 6ebd d804 8d3e c553 ac3e 3727 9d3c
00000380: e906 14bd b3a6 0abe 2620 54bf c42b fdbd
00000390: 9452 8b3f 4a93 d6be 8a6c 37bf c526 ba3e
000003a0: f29c 9c3f bd4c 6b3e 84f8 15bf 4602 b6bf
000003b0: 56ea 893f 5dae 423f 25ae b83e aa7f 22be
000003c0: da10 a73d 6480 bf3d 275b 4940 e3a3 203d
000003d0: 76f3 94bd 8845 3d3e 512d bf3e 959c 573e
000003e0: 6eeb 17bd c681 ff3e b2c4 5fbf e38b cd3f
000003f0: cc68 bfbe 5b9c cdbd 0ba6 15be 18c3 883e
0.7156314 0.70320076 -0.26617685 -0.42150864 -0.5747163 -0.1029341 -0.8935756 -0.63815314
0.51138926 0.027076155 -0.0014770911 1.5743095 -0.30987215 -0.47006688 -0.15762234 -0.10523141
-0.6740812 -0.15353441 0.19495355 -1.3963122 0.74801517 0.71613234 -0.3245825 0.4563988
0.14438464 -0.01951281 -1.8775371 -0.4875839 -0.6691466 0.7281201 -0.03137012 0.02991839
0.75188226 0.17884403 0.5709809 0.22793232 -0.035652407 0.45971853 0.3849876 -0.23448627
0.7624093 -1.8198004 0.6758166 -0.3586606 0.792095 0.42438373 0.5988357 -0.610219
0.46065632 0.4974212 -0.49799922 -0.07316899 0.24616396 0.54435176 0.6646612 0.90073645
-0.18680497 -0.024796138 0.34561422 0.8360123 -0.77348626 0.24872507 -0.20478763 0.020110512
-0.24618894 -0.09815929 -0.5400285 -0.6559835 -0.17895907 -0.30991617 -0.8417895 0.83274233
0.13020077 -0.22443809 0.7648111 -0.6183441 -0.562945 -0.27883732 0.14031222 0.09048611
-0.18520895 0.71337396 -0.46135557 -1.1742649 0.6772096 -0.8725481 0.6245253 0.5076784
0.5886583 -0.99309367 -0.31683674 0.23301978 -0.4062668 0.51548845 -0.6242581 3.1596885
0.55979097 0.4108859 0.07621152 0.41222492 -0.4013149 0.5126014 0.40644294 0.9956021
-1.9538761 0.18704163 -0.41785625 0.13312316 0.3159601 0.105746046 -0.68338805 -0.33685672
1.1883597 -0.3194082 0.04069034 0.031339306 -1.6276214 0.028730964 0.010282182 -0.84675926
-0.5671003 -0.96284276 0.16858928 -0.7126252 0.5715247 -1.561352 -0.0072917254 0.29156637
-0.70854306 0.3113508 -0.10111403 0.6927237 0.08258501 0.46013194 -0.24122043 -0.12915498
-0.08660931 -0.6100554 -0.55337715 -0.12855421 -0.104867 -0.025432898 -0.07296802 -0.42927557
-0.11487047 -0.34618148 1.5950028 -0.19939137 -0.49890336 0.5341222 0.2422141 -0.023100533
-0.041411877 0.48158666 -0.60077965 0.41024384 0.048329704 -0.041491352 1.7170044 0.9784833
0.59402215 0.3221949 0.027928852 0.6088964 0.4463628 0.2834057 0.37888122 -0.96525794
-0.14787862 -1.3728949 0.2656471 0.54407555 0.21324134 0.13193059 0.36654216 0.9248428
-0.46411407 -0.13400465 0.3171763 -1.053399 0.2726664 0.03623936 0.07557121 0.00058778335
0.08372385 0.26736256 0.2524837 1.8038706 -1.2143193 -1.1497033 0.3001554 -0.314088
-0.64645445 -0.815465 -0.11719326 -0.6039557 -0.6026712 0.368272 0.01060145 0.029683534
2.405481 -0.13319793 -0.36694494 0.46488744 0.28914753 0.31426957 -0.29345688 2.1542773
-0.14645393 0.9620168 -1.0435045 0.9327614 -0.01167094 -0.16653433 0.15688573 0.73545396
-1.0962121 -0.18955228 -0.43208054 -0.13553587 -0.05824973 0.27542758 0.3365766 0.019183738
-0.036139403 -0.13540153 -0.82861555 -0.12361863 1.0884576 -0.41909248 -0.7164999 0.36357704
1.2235396 0.22978492 -0.5858233 -1.4219444 1.0774639 0.7604731 0.36070362 -0.15869012
0.08157511 0.093506604 3.1461885 0.039218795 -0.07272999 0.18483555 0.3733926 0.21055825
-0.037089758 0.49903697 -0.8740951 1.6058315 -0.3738464 -0.10039588 -0.14614122 0.26711345

fc1.bias f4 [128]
00000000: 10b1 fbbe 58d8 d83e bf80 373f ef7f 39be
00000010: 74c4 e23e ea46 393e baf2 0bbe d5bc e93e
00000020: b2bb ad3e 78b5 23be 62e7 18be a46b 413e
00000030: 9b35 293e 892c 103e 051f 12bf 1deb 62bd
00000040: b6a0 fa3c 3ddb 713e 4c6b 4ebe 9cde 4f3e
00000050: 0872 38bf 1b9e 9dbc c080 c0be 9256 13bb
00000060: ff55 28be fc10 c23e d3ea 893c 9945 b23e
00000070: dbb8 673e 6953 39be 234c 083f 5aa6 cabd
00000080: b077 85bd 5cc6 5f3e 92d4 1f3f 3950 bf3e
00000090: b936 0b3f eec8 a13d 1026 4d3e b48e 823c
000000a0: ad12 84be 1685 84bd 3a33 01bc 5c70 cc3d
000000b0: b6df 293e c61e 003d 09b5 7dbd 9d39 1f3f
000000c0: 5d58 033f 3b5c 44bd 27d8 1f3e b62a cf3e
000000d0: 3a3c a2bd 212d 22bf b16f 413d 3d6b 6f3e
000000e0: 539f c2be 651b 2fbe 362e fabd 25a5 1ebf
000000f0: d28b d5bc a6c7 85be 8420 2cbc 6035 cdbe
00000100: a283 2e3e 7039 f9be 0302 53be a1b0 14bf
00000110: e050 103e 189a fe3d da9b 98be 5d98 363e
00000120: 54a7 963e 033b 9b3e 213c d0be 97e6 56bd
00000130: fe17 ab3e baa4 3fbf f550 983e f846 a7be
00000140: d6d8 553e 0b74 da3d 2f2d 083e cbdc 49be
00000150: 4c57 453f 9866 0dbf dcf8 7bbe f54f a5be
00000160: 3b6b cfbe 7842 a1bd 02d4 4cbf 6514 e73e
00000170: 74e5 f23c 53f5 483f b062 9abd 9911 1b3f
00000180: 2772 c5be 5bef 183e f011 893e fe3b 62be
00000190: 9e1d afbe 04e6 38bf 6cc8 8fbe 0244 38bd
000001a0: d698 9b3c 6839 2dbd 20da a53e 0861 aebc
000001b0: 2387 203f c5ab d2bd 67b5 53be f71f 2ebe
000001c0: 2743 1f3f ead9 3ebd 47d4 853e 5c48 2bbf
000001d0: d713 293f 0b11 4bbe d4b3 de3e 51fc 143e
000001e0: 1202 0fbf 6c2e 6e3e 5458 d63e 0e1c b63e
000001f0: 5910 7bbe be41 6d3d 04ef ad3e c4fd 583e
-0.49158525 0.42352557 0.71680826 -0.18115209 0.44290507 0.18093458 -0.13666812 0.4565188
0.33932263 -0.15987194 -0.14932016 0.18888718 0.16524355 0.14079489 -0.5707858 -0.055400003
0.030594211 0.23618789 -0.20158118 0.20299762 -0.72049 -0.01924043 -0.37598228 -0.002248202
-0.16439055 0.37903583 0.016835606 0.34818724 0.2262911 -0.18098225 0.53241175 -0.0989501
-0.06516969 0.21853012 0.6243373 0.37365893 0.54380375 0.078996524 0.20034051 0.015937187
-0.25795498 -0.06470697 -0.0078857485 0.09982368 0.16589245 0.031279348 -0.061940227 0.62197286
0.51306707 -0.04793952 0.156098 0.40462273 -0.079216436 -0.6335011 0.047225658 0.23380752
-0.3801218 -0.17100294 -0.12215845 -0.6197074 -0.026067648 -0.26128882 -0.010505799 -0.40079784
0.17042401 -0.48676634 -0.20606236 -0.58082014 0.14093351 0.12431735 -0.29806405 0.1783156
0.29424536 0.3031846 -0.40670875 -0.052466 0.33416742 -0.7486073 0.29749265 -0.32671332
0.20883498 0.10666665 0.13298486 -0.19713132 0.7708633 -0.5523467 -0.24606651 -0.32287565
-0.40511498 -0.07874006 -0.80011 0.45132747 0.029650427 0.78499335 -0.075383544 0.60573727
-0.38563654 0.14935057 0.26771498 -0.22093198 -0.34202284 -0.72225976 -0.28082597 -0.044986732
0.018993776 -0.042291075 0.3239298 -0.021286502 0.627062 -0.10286669 -0.20674668 -0.17004381
0.6221184 -0.046594538 0.26138517 -0.66907287 0.660459 -0.1983072 0.43496573 0.14549376
-0.55862534 0.23259896 0.41864264 0.3556828 -0.24517955 0.057924025 0.33971417 0.21190554

fc2.weight f4 [128, 128]
00000000: b83b c83e f95e 7bbe d848 fcbe ec29 9c3e
00000010: 1f6f 7f3d d627 0abf beaf 50be 2672 393f
00000020: 2184 a8be 59b5 933f 4ae4 5a3f ce93 003e
00000030: 54e6 39be e5c9 0f3f 9bf5 383f 0639 2bbe
00000040: 3842 24bd 5fad 38be 6324 643e 534b aa3e
00000050: 5ac6 ed3d aa43 2d3f 211e 7dbe 0ba2 d9bf
00000060: 6a0a d0bd 9d6c ccbc a2fa 2bbf fd2c 80bf
00000070: 4baa 42be 12d8 bb3e d074 ec3f a2c7 463f
00000080: 31c7 5e3e 5fcc 0b3e e956 3abf 5a96 0cbe
00000090: e643 6bbd 30e8 353e 885e 58bf 3d4d 40be
000000a0: 2d08 5abf d05a f3bd 6cf8 1b3f 7ad1 d0bc
000000b0: 2c6c 6d3e 0baf 54be dde9 4a3f 0eb3 3abf
000000c0: 3915 09bf 5c02 133f 577a c3bd 92c3 22bf
000000d0: 21c9 04bf 9748 9cbf 40d3 0fbe 9cb3 8cbe
000000e0: 5e30 783d dde1 55bd b7a3 9d3e ab32 68be
000000f0: 18ef 3dbf 1da3 423e 785c 213e 5fc1 4d3c
00000100: 9220 0c3f bffc 5ebf 973c 0f3f fd25 b2bf
00000110: 61f6 dd3d f823 80be 1dc2 183d fa0e 9d3c
00000120: 8a5f d1be 95f4 26bf c48b f53f edde eb3c
00000130: d03e aebd 5c6b d43e 2136 1ebf 980e a23d
00000140: 78c5 b6bd 82af f7bd c4fc 2b3f 9e06 643f
00000150: 8d68 45bf 3fc0 383f dda6 99be e713 1abf
00000160: 5459 203e f12b 223e 65cf 433f ea9b 79bf
00000170: 4e7c 1bbe d1d9 00be 20cd 583e 508a 8bbe
00000180: 5295 62be f504 abbe fb70 b5be 01d2 3a3c
00000190: b73f 093f 4e28 8f3e ef79 55be b584 4d3e
000001a0: 0166 dabd d252 053f ee14 05bf 4023 c33e
000001b0: 8202 ae3d 90a5 99be 1ab8 513e 6905 b53e
000001c0: 3f05 763c 33f6 ff3e 2ff3 94bf 17d3 3cbe
000001d0: 6150 cebd 1714 69bd 47b3 dd3f f6ed 053d
000001e0: d988 093f 4795 353f 315d d0be df7f 38bf
000001f0: 7a85 1a3f a4bb 7f3e 40f3 2ebf 4d7f 8bbc
00000200: 06ed a3be ddbc 9b3f ca49 4fbf eb08 debd
00000210: e4b6 053f 9d8a d9be ea53 873d 166f bebd
00000220: 9be8 2b3e 002e 6fbe b3d6 473e bc72 c23e
00000230: 19f6 1c3f 983f fdbd 9d40 be3f a2ef 8dbf
00000240: d21d 063f 5e9d c3be 7bd9 97be 51a9 a43f
00000250: 8013 b4bd be28 c8bd eda1 f8be 344b 86be
00000260: c0e2 ffbe e40f 5cbe 8be8 d8be da66 88be
00000270: 2b89 a9be d9e7 37be 8ec3 10be 05d9 443b
00000280: 2a46 883f fbdb aebd 384c 37bf 1394 403e
00000290: 7a71 41bf 1023 87be afa5 8cbc 5abd bb3e
000002a0: a591 97be 4c04 153f c983 c63e 965f b83e
000002b0: 3f26 0b3f 8e1d abbe de63 ec3e 1a11 a2bf
000002c0: 2935 ccbe 0353 ddbe 42f1 ae3f 7372 f0be
000002d0: 0661 2dbf 597b ef3e e4c1 ad3e 4165 c3bf
000002e0: f597 aa3e 71c8 603c 02c8 54be 6003 c93e
000002f0: 2656 5dbf b179 bbbc dbf1 ddbd 9e82 f3be
00000300: de0b 223d 2872 59be 5a2b 20bd 56a3 66be
00000310: ec3f f93d c549 d8bd a91c e1be f7e3 113d
00000320: f426 01bf 6fd1 a5bf e49e 61bd d0b3 0fbe
00000330: 003d 3e3d 04fa 7c3f 3566 af3d 82d9 bebf
00000340: 938c e1bd 2522 c3bd ff44 ee3e 7d19 c43c
00000350: 2b62 96bf f2ce 9a3b c52a e3be 7a15 30bd
00000360: 7bd1 1fbd 36e9 b8be 3111 333f d3d1 9fbf
00000370: 8a7c 6f3e 42eb 64bf 96ac b23e 381f 673e
00000380: 7eae 01be 1892 58bf da21 813e 14c3 2abf
00000390: 1882 603e 5a3f 743f f1ff c9bd 499f e23c
000003a0: 3b18 b3bc 245b 543e 5541 34bf 6a3e 593f
000003b0: 5ced 45be 818d bb3e 07fe 1bbf 7296 2dbc
000003c0: d837 d6be 7fa0 1a3f 6ced 323e 7da7 e43e
000003d0: 4f42 103e 6760 7dbe a423 e73e c59e 543d
000003e0: 50fb d33e 1f34 503f 2286 ccbd 7e7c 8d3f
000003f0: cc82 443f 78ba 833f 4bce f3bd 2261 e13c
0.39108062 -0.24547948 -0.49274325 0.30500734 0.062361833 -0.53967035 -0.2037954 0.724398
-0.32913306 1.1539718 0.8550459 0.12556383 -0.1815427 0.5616744 0.72249764 -0.16720971
-0.040102214 -0.18034886 0.22279505 0.33260593 0.11610098 0.6768137 -0.24718525 -1.7002577
-0.10158236 -0.024954135 -0.6717931 -1.0013729 -0.19010274 0.36688286 1.8473148 0.77648365
0.21755673 0.1365218 -0.72788864 -0.1372923 -0.0574378 0.17764354 -0.84519243 -0.18779464
-0.85168725 -0.118825555 0.60925937 -0.025490511 0.23185796 -0.20769899 0.792631 -0.72929466
-0.5354801 0.57425475 -0.09544819 -0.63579667 -0.518694 -1.2209653 -0.14045429 -0.2748078
0.060593 -0.052217353 0.30788967 -0.22675578 -0.74192953 0.19007535 0.1575793 0.01255831
0.547372 -0.8710441 0.5595183 -1.3917843 0.10838009 -0.25027442 0.037294496 0.01917218
-0.40893203 -0.6521695 1.9183278 0.028792823 -0.08508074 0.4148816 -0.61801344 0.0791294
-0.08924383 -0.12094022 0.67182565 0.890726 -0.77112657 0.72168344 -0.3001012 -0.6018662
0.15659076 0.15837075 0.76488334 -0.9750353 -0.15184137 -0.1258309 0.21171999 -0.27253962
-0.22127274 -0.3340222 -0.3543776 0.011402608 0.53612846 0.27960438 -0.20847295 0.20070155
-0.10663987 0.520795 -0.5198506 0.3811283 0.08496572 -0.30009127 0.20480385 0.3535569
0.015015899 0.49992523 -1.1636714 -0.184399 -0.10073925 -0.056903925 1.7320336 0.03269764
0.5372444 0.70930904 -0.406961 -0.72070116 0.6035992 0.24973923 -0.6833992 -0.017028475
-0.32016772 1.2167011 -0.8097197 -0.10841545 0.52232194 -0.42488566 0.06607802 -0.09298532
0.1678795 -0.23357391 0.19515495 0.3797816 0.61313015 -0.12365645 1.4863468 -1.1088755
0.5238925 -0.38206 -0.29658112 1.2864171 -0.08792782 -0.09773396 -0.4856104 -0.2622925
-0.49977684 -0.21490437 -0.42364916 -0.2664097 -0.33112463 -0.17959537 -0.14137098 0.003003658
1.0646412 -0.08538052 -0.71600676 0.18806486 -0.75563776 -0.26393938 -0.017168848 0.366679
-0.29603305 0.5820968 0.3877242 0.36010426 0.54355234 -0.33420986 0.46169943 -1.2661469
-0.39884308 -0.43227395 1.3667376 -0.46962318 -0.6772617 0.46773794 0.3393699 -1.5265275
0.3331906 0.013719664 -0.20779422 0.39260387 -0.8645958 -0.022885175 -0.10837146 -0.4756059
0.0395621 -0.21234953 -0.039103843 -0.22523245 0.12170395 -0.105609454 -0.43967178 0.035617795
-0.5045006 -1.2954539 -0.05508317 -0.14033437 0.046444893 0.98818994 0.08564416 -1.4910128
-0.110131405 -0.09527997 0.46537015 0.023937935 -1.1748708 0.004724377 -0.44368568 -0.04298923
-0.039018136 -0.36115426 0.69948107 -1.2485908 0.23387352 -0.89421475 0.34897298 0.22570503
-0.1266422 -0.8459792 0.2522114 -0.66703916 0.21924627 0.95409167 -0.0986327 0.027663844
-0.02186214 0.20737892 -0.7041219 0.8486086 -0.19328827 0.36631396 -0.6093449 -0.010594951
-0.4183948 0.6040115 0.17473382 0.44659033 0.14087795 -0.24743806 0.4514438 0.051909227
0.41402674 0.8132953 -0.09986521 1.1053617 0.7676208 1.0291281 -0.11904582 0.027512137

fc2.bias f4 [128]
00000000: 264a febe 3759 a53d 1abd 1b3e 1619 d3be
00000010: 7096 98bd 13f5 a3be 2d68 1a3f a1a1 aabe
00000020: 374f 9bbe ef35 dc3e 6633 d03e 62c3 283f
00000030: 0433 1cbe 9116 5e3c 2b7f 043f 938f 2fbd
00000040: 094e 9f3c 96ce 7c3e 8bcc 3b3e ba2f 203e
00000050: ac30 893d a4b9 eebd 7139 7c3e 9573 02bf
00000060: 6785 9bbe b47b 363d a61f 083e 0251 48bd
00000070: 79ba 113f 7000 9b3d 37af 1ebe 9c6f d5be
00000080: aa90 c33e 4440 4a3f aea3 d63e 66f6 be3e
00000090: dace d1be 7433 b2be 5d66 c8be 6c54 183f
000000a0: 920f 653e 6419 06bf e03e f8be b874 24be
000000b0: 90ef e1bd 0931 113e b35e ab3e a171 54be
000000c0: 517e 01be 755d 883e c305 1fbe d1ab 083e
000000d0: cdaf 4ebe 0e5c 03bf 0e7e 023e 35b3 50be
000000e0: 5c45 34be 2ca6 adbe 5326 62be f499 8ebe
000000f0: 3902 863d 4e43 b83e c209 9ebe 2cba 50bc
00000100: 7537 183f a41b cfbe a58a bd3e 5d11 123e
00000110: 827a 313d 585c 793e 610a 8b3e 8db6 003e
00000120: e937 c53e d6e3 c1bd b5ac d23d 795e bbbd
00000130: 857f 62be 043a 0dbe 0335 403e 6bde 18bd
00000140: 5bbb 51be 2fc1 ce3e 9d4e 18bd 95d7 c9be
00000150: 216e 6dbd 85e9 f33d 977c 86bd 76e2 33bd
00000160: 6acb 25be db7d 02be a067 bc3c cd0a 6d3e
00000170: 4e27 96be 8def 153e ff51 5f3e 32cc 7c3e
00000180: 5430 fbbd 907f 08bf 806f 233d 6d7b 23be
00000190: 2c13 583e 09cd bc3c 46e4 e43d 6512 26bd
000001a0: a2f8 0cbf 21f7 1cbe 67cb 653c 479a d23e
000001b0: 2a6d 8e3e ccc6 8d3e 09ca 7abe 9fe9 a23e
000001c0: f38f 4ebe fa30 283d ff91 c2be 4382 8cbb
000001d0: 4aa6 10be 48cd 2c3e 1a18 01be 6cfb c83e
000001e0: a76d eabd a9e9 36be fe0f 17bf f979 9c3d
000001f0: e34d 95be ccdd 43be 00be bfbe e7d7 113e
-0.49665946 0.08073657 0.15208855 -0.41230077 -0.07450569 -0.32022914 0.6031521 -0.33326438
-0.30333874 0.43009898 0.40664214 0.6592313 -0.15253836 0.013555185 0.5175654 -0.042861532
0.01944639 0.24688181 0.18339746 0.15643206 0.066987365 -0.11656502 0.24631287 -0.50957614
-0.30375215 0.044551566 0.13293323 -0.04890538 0.5692516 0.07568443 -0.15496527 -0.41686714
0.38196307 0.7900431 0.41921753 0.37297362 -0.40978128 -0.3480488 -0.39140597 0.5950382
0.22369221 -0.52382493 -0.4848547 -0.1606015 -0.11032021 0.14178862 0.33470687 -0.20746471
-0.12645842 0.26633802 -0.15529542 0.13346793 -0.2018425 -0.5131234 0.12743399 -0.20380862
-0.17604584 -0.33915842 -0.22084932 -0.27851832 0.06543393 0.3598885 -0.3086682 -0.012739699
0.5945962 -0.40450776 0.3701984 0.14264436 0.043329723 0.24351633 0.27156356 0.12569638
0.3851922 -0.094672844 0.102868475 -0.091488786 -0.22118957 -0.13791662 0.18770222 -0.03732149
-0.20481627 0.40381762 -0.037184346 -0.3942229 -0.057966355 0.11909775 -0.065667324 -0.04391714
-0.16190878 -0.12743323 0.022998631 0.23148651 -0.29326862 0.14642163 0.21808623 0.2468727
-0.12265077 -0.53319645 0.039901257 -0.15965052 0.21101063 0.023046987 0.11176352 -0.040544886
-0.55066884 -0.15328647 0.014025546 0.4113333 0.2781766 0.27690732 -0.24491133 0.31818864
-0.201721 0.041062333 -0.3800201 -0.0042879893 -0.14125934 0.16875184 -0.1260685 0.3925432
-0.11446696 -0.17862572 -0.5900878 0.07640452 -0.29160985 -0.19127578 -0.37449646 0.14242516

policy_mean.weight f4 [7, 128]
00000000: 3753 633e 8f99 0f3e 4334 66bc 845a f63b
00000010: ad28 48bb e289 6bbb 8764 43be f5ab 6d3c
00000020: 5a9d 72bd c8ca c73d f9ad 86bb c573 28bd
00000030: 0ca5 723d 4116 58bd 625b 7bba 41ed 0abe
00000040: 438a 673b b810 da3c 7c7d 083c 20d8 a6bd
00000050: fe8d 6dbd cf69 903d 43f6 46bd e9c8 a5bc
00000060: 96f3 36bc cbb2 533d 83a8 92bd f711 fcbd
00000070: 881d a2bd c9ba 1abb 8ea0 94bd 3bdc da3c
00000080: f17e 55bd 4b20 be3c 35fc 18bd 21d2 783d
00000090: a57e 25bd 5eec f53d a5b4 b3bc fba0 c03c
000000a0: 609a c739 2e80 aa3d d102 d2bc 646d 9abb
000000b0: bb04 a93c 62c1 3fbd 05cd 9d3d a175 ec3d
000000c0: e766 c1bc 93d9 2b3d 98aa 8e3d 45c2 79bc
000000d0: 60f1 e3bd 9554 6f3d 0df0 a2bc 8b41 893c
000000e0: 8ebd f2bd 9bb8 713b c73c 6cbd 5ee1 9f3d
000000f0: 37eb 35bd 67ad 8fbc bb40 103d 7b0b 2a3b
00000100: 8319 ffbb 9688 683d 04a0 08be adaf 273a
00000110: a4cf 133e 1efb dcbd 6e68 62bc 2c27 95bd
00000120: 995a 95bc 0824 84bd 94b1 94bd 090f 4a3d
00000130: ff27 adbc 51a7 633d b534 0bbe db1d cf3d
00000140: a8a0 76bd bd07 733c 0bd0 bdb9 482c d73d
00000150: cca7 ca3d 571c e2bc 4f59 ac3d 2d3a d5bc
00000160: d20e b33d 1153 9a3b 5042 d03d 6031 c03d
00000170: ff68 293d 0e7e 6e3a 48f6 073e 5da9 7c3d
00000180: 3393 68bc ee4e d43d 5170 1cbd ba1e 1a3e
00000190: 4277 cabc 8092 e3bd 2148 b33d 4e1d 7c3c
000001a0: 0ece 2abc 393f 2c3d f3e0 de3d 4e15 ccbd
000001b0: 50e4 79bc 19f2 29bd 04a1 b3bd 69ab e73b
000001c0: 028a 86bd d959 003e 2e80 a0bd f47b debd
000001d0: f803 d23d 0e12 0c3e d3a3 a43d 6487 c2bc
000001e0: bc8d 22bb 62e5 cd3c 7de7 9ebc fc3b 843d
000001f0: 327f 133e ab4a a43b 399c 343d 3131 b5bd
00000200: 67d3 8e3d 3bf3 b7bd 2336 393e b85c 123e
00000210: 3b14 0b3d c2c7 0f3e fee5 3dbe 7221 79bd
00000220: 411c 023e b762 c1bd 29fd 1dbe ebe2 383d
00000230: c4f7 a33e 659c 8e3d 8e5e 93be eeab 87bd
00000240: 96bf 02be 0abe c6bd e966 1b3c 5b13 bd3d
00000250: 9ae3 703d a62a 31bd 6f74 a33d 4eb4 283e
00000260: 2b48 2dbd 4831 863e fcf8 a2bd 7c60 0b3e
00000270: bbb0 1d3d 8157 19bd ff77 e63d 5fb7 793d
00000280: 0a9d 81bd b06e 8b3c bbd2 973d f9d4 be3c
00000290: 2a9c 85bc 35c2 12bd c09c 0f3c 7527 ac3c
000002a0: 6e90 4e3e 2b0a 19bc e374 b73d fd25 eabc
000002b0: b90e be3c 2891 083e f41e 163d ec45 6f3e
000002c0: cfe7 233c 259a 1e3d 6588 4d3e bdfd c4bc
000002d0: 8594 b43d f238 e13d 097c 063e a799 babc
000002e0: b726 bf3c c8e3 903d 6815 3c3e 91bf 7f3d
000002f0: 0064 7bbd b55b 2cbd 2c89 253e 17e2 873d
00000300: 33bd cebc 6714 5c3e cd7b a23c 2630 39bd
00000310: 0a0f 703e d755 e93c 5ced 9abb 3d3d 973d
00000320: 9db7 d53b b777 4dbe d3c3 0fbd 41ec 34bd
00000330: 0f03 b3bc 25f8 0cbe 1909 28bd a056 9d3c
00000340: 3513 9ebe c834 203d 23b4 c13c ab16 64bc
00000350: f5ec 023d ceff 3dbe eb1f bf3d cbf1 3bbc
00000360: d93b 583e 49fc 83bb 6f49 01be 8ff8 d6bd
00000370: 8b93 073e 4581 de3c cfe7 84bc 6b69 c43c
00000380: db40 19bd f965 12be 241c b13c 62ff 30be
00000390: 2d58 0abe 7d17 ff3c 9d01 9f3d 75f2 d2bb
000003a0: 78c4 af3d 5265 6ebe 3b2f 4bbe d39c 553c
000003b0: 1590 26bc 176c 88bd f54f 3e3d 479a c83d
000003c0: 7f8c 6dbc 6494 35be ab32 cebc 71ea f73d
000003d0: f739 e0bd bd7b 00be 90a2 bdbd db9a 8f3e
000003e0: fd54 063e 0f37 3c3c ec51 6d3d 236e 393b
000003f0: 2b66 623e 2156 cd3d c530 ba3d 5fc9 cebd
0.22199713 0.14023422 -0.014050546 0.0075181145 -0.0030541823 -0.003594034 -0.19081317 0.01450633
-0.059232093 0.09755474 -0.0041100946 -0.04112603 0.059239432 -0.052755598 -0.0009588507 -0.13567068
0.0035330213 0.0266193 0.008330699 -0.08146691 -0.057996742 0.070514314 -0.048574697 -0.020237403
-0.011166474 0.051684182 -0.07161047 -0.12308114 -0.07915789 -0.0023609868 -0.07257186 0.026716342
-0.052123014 0.023208758 -0.0373499 0.06074727 -0.04040398 0.12007974 -0.021936724 0.023514261
0.00038071256 0.083252296 -0.025636109 -0.0047127474 0.020632138 -0.046815284 0.0770512 0.115458734
-0.023608638 0.04195554 0.06966132 -0.015244071 -0.11130023 0.058430273 -0.019889856 0.016754886
-0.11852561 0.0036883715 -0.05767515 0.07806657 -0.04441377 -0.01753874 0.03521798 0.0025946784
-0.0077850237 0.056770884 -0.13342291 0.0006396722 0.14434677 -0.10790084 -0.013818843 -0.07282862
-0.018231677 -0.06452185 -0.07260433 0.049330745 -0.021137236 0.055579487 -0.13594325 0.10113116
-0.060211807 0.014833388 -0.00036203893 0.10506493 0.09895286 -0.027601404 0.08415472 -0.026028717
0.08743061 0.0047096093 0.10168898 0.093844175 0.041359898 0.0009097763 0.13277543 0.061684955
-0.014195251 0.10366617 -0.03819305 0.15050784 -0.02471507 -0.11111927 0.08753992 0.015387846
-0.010425104 0.04205248 0.108827494 -0.09965001 -0.015252188 -0.041490648 -0.08770946 0.007069994
-0.06569292 0.12534274 -0.07836948 -0.10863486 0.10254663 0.13678762 0.080390595 -0.0237462
-0.0024803719 0.025133792 -0.019397492 0.064567536 0.1440399 0.005013784 0.044094298 -0.08847273
0.069739155 -0.089819394 0.18087058 0.14293182 0.03395484 0.14041045 -0.18544766 -0.06082291
0.1270609 -0.094426565 -0.15428604 0.04513828 0.32024968 0.06963424 -0.28783077 -0.0662459
-0.12768397 -0.09704216 0.009484985 0.092322074 0.058810808 -0.043253563 0.07981192 0.16475031
-0.042305153 0.26209474 -0.07957646 0.13611025 0.03849862 -0.037436966 0.11253356 0.060965892
-0.06328781 0.017020553 0.074132405 0.023294913 -0.016309816 -0.03582974 0.008765399 0.021014908
0.20172283 -0.009340803 0.08957841 -0.028582567 0.02320038 0.13336623 0.036650613 0.23366517
0.010003998 0.038721222 0.20071562 -0.024046773 0.0881739 0.109971896 0.13133253 -0.022778345
0.02333389 0.07074696 0.18367541 0.06243855 -0.061374664 -0.042079646 0.16165608 0.0663492
-0.025236702 0.21492158 0.019834423 -0.045211934 0.23443237 0.028483314 -0.0047280025 0.07384727
0.0065221325 -0.20065199 -0.035098862 -0.04417062 -0.021852044 -0.13766535 -0.0410243 0.019206345
-0.3087403 0.039112836 0.023645466 -0.01392142 0.03196426 -0.18554613 0.0933226 -0.011471222
0.2111658 -0.0040278775 -0.12625669 -0.104966275 0.13239877 0.02716125 -0.016223816 0.023976048
-0.037415367 -0.14296712 0.021619864 -0.17284921 -0.13510199 0.03113913 0.077639796 -0.0064375945
0.08582395 -0.23280838 -0.19842236 0.013037878 -0.010166188 -0.066612415 0.04646297 0.09795051
-0.014498829 -0.17732388 -0.025170645 0.12105263 -0.10948556 -0.12547202 -0.09259522 0.28047833
0.13118358 0.011487736 0.057939455 0.0028294406 0.22109286 0.100261934 0.09091333 -0.10097002

policy_mean.bias f4 [7]
00000000: 61b0 b5bd c586 a0bd 88f6 af3d e031 0e3d
00000010: 150e cfbd a5fe 24bd faff a1bc
-0.08871532 -0.07838205 0.08591944 0.034715533 -0.10110108 -0.04028191 -0.01977538

value_head.weight f4 [1, 128]
00000000: 0a4f 11c1 44cc 1341 6464 1fc1 ffaf 1141
00000010: 8bbc 1041 e4b7 1341 39ba 1741 2f84 2f41
00000020: 3ff5 0a41 e8b9 0ac1 e24d 0bc1 3f58 15c1
00000030: 88b3 fa40 d10d 09c1 c2c4 f540 a96c 0f41
00000040: 2391 ed40 0881 00c1 d245 ccc0 91b1 1ac1
00000050: 30ea 1241 6332 03c1 fdd3 0cc1 e3c5 0741
00000060: 8920 1941 0d82 0341 f152 04c1 5bcf 0a41
00000070: 85d7 28c1 5911 0bc1 abdd 0e41 bdd4 0e41
00000080: 3916 0c41 d38e 15c1 5576 18c1 45cd 0a41
00000090: 4621 1641 05a1 1741 3b42 09c1 f517 0ec1
000000a0: 7956 0b41 b928 1c41 71ba 1041 9095 fbc0
000000b0: 16fa f040 b3d0 35c1 c392 12c1 721c 02c1
000000c0: 43d3 0941 409c 0641 09c0 0441 16f3 12c1
000000d0: 212c 0a41 430d 0541 3046 0a41 6df2 1841
000000e0: 59fb 0d41 0e1a 1a41 9434 0041 b3c3 1241
000000f0: 3884 0fc1 c15c 11c1 2436 1441 2482 0dc1
00000100: 0f8a 0c41 e75e 0941 63a1 15c1 c412 0ec1
00000110: fd85 c9c0 4159 14c1 398d 12c1 ab05 21c1
00000120: f142 1c41 ac69 09c1 f9b0 13c1 6bbf 0d41
00000130: 53b9 2441 0d67 f440 a0c4 0ac1 41ba 0c41
00000140: 918f fbc0 590b 0ec1 279f 0cc1 d5c9 fd40
00000150: f0ec 08c1 2e7f 1441 5b1e 1dc1 ea1e ef40
00000160: 1c7d fbc0 4096 0741 4e16 1041 dd4a 0bc1
00000170: 53b4 d9c0 81f8 1b41 028a e7c0 97fa 0f41
00000180: 4ee6 1941 2197 e640 1793 dd40 4c0c 13c1
00000190: b9eb 1b41 d634 16c1 c101 24c1 3b13 e540
000001a0: 7ac6 1341 8ac8 0941 7543 1941 fd8b 16c1
000001b0: dbf4 0dc1 fd30 21c1 939c 0141 bb01 0c41
000001c0: a973 15c1 d997 0d41 0b28 0941 351c 0ac1
000001d0: 1d9d 0d41 2a5a 1c41 ede2 11c1 e1e3 0cc1
000001e0: 0d69 16c1 f4d2 0941 afac f540 1d32 0fc1
000001f0: 707f 0941 f939 1141 0ac3 fd40 2d99 10c1
-9.081797 9.23737 -9.962009 9.105468 9.046031 9.232395 9.4829645 10.969771
8.684875 -8.670387 -8.706514 -9.334044 7.8344154 -8.565873 7.6802683 8.964028
7.423967 -8.031502 -6.383523 -9.668351 9.182175 -8.199801 -8.801755 8.485812
9.570443 8.219251 -8.270249 8.675624 -10.552617 -8.691735 8.929118 8.926938
8.755425 -9.347369 -9.52889 8.675115 9.383123 9.476811 -8.57867 -8.880849
8.7086115 9.759942 9.045518 -7.862007 7.530528 -11.363452 -9.1608305 -8.131945
8.614078 8.413147 8.296884 -9.184347 8.635774 8.315738 8.642136 9.559186
8.873864 9.631361 8.012836 9.172778 -8.96978 -9.085145 9.263218 -8.844273
8.783706 8.5856695 -9.351901 -8.879581 -6.297606 -9.2717905 -9.159478 -10.063884
9.766343 -8.588299 -9.230706 8.859233 10.295245 7.6375794 -8.673004 8.795472
-7.861275 -8.87777 -8.788856 7.9308877 -8.557846 9.28105 -9.819911 7.4725237
-7.859022 8.474182 9.0054455 -8.705777 -6.803262 9.74817 -7.2355967 8.998679
9.618727 7.2059484 6.9242053 -9.190502 9.745049 -9.387899 -10.250428 7.1585975
9.235956 8.61146 9.578969 -9.409177 -8.872279 -10.07446 8.100726 8.7504225
-9.340737 8.849572 8.572276 -8.6318865 8.850858 9.772013 -9.117902 -8.8056345
-9.400647 8.614002 7.6773295 -8.949735 8.593613 9.0766535 7.9300585 -9.037396

exp_avg f4 [7]
00000000: 7981 9b38 931b 78b9 32a5 023a c856 6b3a
00000010: 0759 6939 c16e e6b9 ef49 3f3b
7.415092e-05 -0.00023661395 0.00049837225 0.000897747 0.00022253777 -0.00043951537 0.0029188355

exp_avg_sq f4 [7]
00000000: 2633 dc36 8c83 0637 d703 2537 55f6 0637
00000010: f89e fa36 7eaa 0637 42b1 7037
6.5624654e-06 8.0176505e-06 9.83566e-06 8.044376e-06 7.469087e-06 8.026718e-06 1.4346386e-05

exp_avg f4 [128, 21]
00000000: 4079 be37 b991 b6b8 26e6 d5b9 f14d acb9
00000010: 758b cfb9 1720 45b6 b938 2eb8 56c2 ef34
00000020: 3e9b 3d36 0430 9f37 9ec5 c2b7 1b23 b5b7
00000030: c93f 87b8 dfc2 dfb9 0d0a a937 77cb 1bb9
00000040: 84eb c837 d3ea ccb9 30ce 39b8 b747 bd37
00000050: 9ccb 9db7 de4d 8bb8 0e78 3739 e6d1 763a
00000060: 9aad 523a 6327 413a f0fc b037 c50a 9038
00000070: 1901 55b5 d01e f5b6 930d 1cb8 431b 4b38
00000080: 107b ff37 87e5 1a39 d21e 7b3a c781 a9b8
00000090: 1d88 3939 c695 de38 7ee2 7e3a a32c cb38
000000a0: 4894 e4b7 f79d 8937 775d b133 a8a3 b5b4
000000b0: c82a 35b6 1096 18b6 ccfd 29b6 fa7d 2a30
000000c0: 7f4b 83b4 5fd7 5733 4315 6033 2965 cb34
000000d0: 0204 1bb5 251d 6fb4 48d9 24b5 4bef 3bb6
000000e0: 7f05 8f35 e66b f5b5 ec3f 57b5 0000 2bb6
000000f0: ede5 a3b4 db0e 94b4 4f93 d8b3 4e07 6ab8
00000100: 999c 0b39 870a 073a 629a ce39 8b68 053a
00000110: d3ef 3437 8e3c 6f38 562c 2f36 335d b2b6
00000120: 7375 79b7 d695 9d37 8c60 9c37 19ae a538
00000130: 9ecf 0b3a 4655 3ab6 cb3a e538 00b8 d738
00000140: 291a 093a c91b 9c38 3a16 63b8 d4a2 9837
00000150: a0b0 40b7 a449 a537 f287 a938 6d97 8938
00000160: 58e3 a638 76e5 9836 0f74 fa36 6593 b634
00000170: b048 67b5 93f1 39b6 2f0d 3236 4b4d 2736
00000180: fdbb 5237 c355 b238 3fbe 14b6 e4d1 f336
00000190: 19e9 6037 4b57 b938 f583 6a37 92ae efb6
000001a0: 11dd 8c36 0beb 4cb9 eb2c 0c3a ca0b 1f3b
000001b0: c54e 013b 3020 073b a211 13b8 d957 5439
000001c0: 41e7 a8b6 8e94 1bb7 510b bdb8 1600 cb38
000001d0: 69f2 e638 562a c539 f635 243b 83a2 85b8
000001e0: 888b 553a b6f1 3839 fc71 1b3b 2332 a039
000001f0: f65e 26b9 8945 a538 b540 85b8 e0f5 8239
00000200: b210 a23a c240 863a e87b 9d3a cecb f1b7
00000210: 12dd 0c39 f287 f935 54e6 44b7 bf4b 84b8
00000220: b58e 9938 285e 9738 d53f 4c39 b54d aa3a
00000230: 7345 9cb8 2923 173a 0b50 ffb8 b1d3 973a
00000240: 6d4f 0e39 bfaf 66b8 45d0 8338 6c16 a136
00000250: a412 ebb7 ab41 1fb9 a9cc 02b9 fb49 e3b8
00000260: a7c8 3436 1fed 2fb7 849b c634 45a3 8e33
00000270: bc22 7536 e7de 82b6 04e4 7ab6 f68a bab7
00000280: cf84 1eb9 9f66 1837 b2f0 dbb7 b52f 03b7
00000290: f889 20b9 3744 0fb7 b81e c236 52dc 3c35
000002a0: 45bb 05b9 078e da39 af64 083b d630 df3a
000002b0: 2f36 db3a c8d3 d137 703f 2f39 d441 16b5
000002c0: eff5 1fb7 e07b 91b8 a2d8 a738 28cc a038
000002d0: 042e a339 41c2 0a3b 600d 84b8 a226 023a
000002e0: cffa cc38 8a14 073b 5721 5639 0980 ddb8
000002f0: 6365 1738 bf8b 3538 533c 15b9 dfe3 63ba
00000300: 2dc0 43ba fccd 0dba 1e96 9bb7 6ad9 27b8
00000310: 4132 fb35 919f d935 35f1 9137 96de b7b7
00000320: feac dfb7 421e 02b9 22f3 61ba f1a4 8836
00000330: 216a 8eb9 2cf8 81b8 9d6e 58ba 1fb1 92b8
00000340: 83f0 9837 185e f836 0820 b637 a2de 5539
00000350: c614 463b aa4f 3c3b 9bb2 2c3a 2d1f 0439
00000360: 4343 74b8 ddb0 b2b6 4ba6 da36 48e3 df37
00000370: f83c 24b8 1cf7 4538 a019 c739 9541 3a3b
00000380: bcbf ba38 3300 2e3a d6a4 4637 f128 393b
00000390: 24ce d537 a254 3839 5f33 3db9 b913 eeb8
000003a0: 203d b038 2748 69b9 627d a3b9 add0 083a
000003b0: 7d24 dc37 62bd 4b38 2eda 4837 8486 7fb7
000003c0: b646 8a36 a01f ba35 be86 ed37 a6da a3b7
000003d0: d587 03b9 4f57 f238 0d8b 6139 4760 8538
000003e0: 9911 87b9 b5ba 1439 bf33 d9b8 ed80 cb38
000003f0: 64cd aab8 b0f9 5639 fa33 8b39 1709 1a39
2.2706226e-05 -8.705579e-05 -0.00040798 -0.00032864467 -0.0003958602 -2.9373966e-06 -4.153766e-05 4.4658617e-07
2.8253558e-06 1.8976636e-05 -2.3218625e-05 -2.1593229e-05 -6.4491825e-05 -0.00042679065 2.015105e-05 -0.00014857748
2.3951528e-05 -0.0003908487 -4.4299464e-05 2.256395e-05 -1.8810671e-05 -6.6425404e-05 0.00017496964 0.00094154326
0.0008036733 0.0007368235 2.1098618e-05 6.868461e-05 -7.935028e-07 -7.305156e-06 -3.720594e-05 4.842436e-05
3.0455674e-05 0.0001477209 0.0009579483 -8.082721e-05 0.00017693681 0.000106136824 0.0009723081 9.6881085e-05
-2.7248767e-05 1.640523e-05 8.259206e-08 -3.3832953e-07 -2.6996004e-06 -2.2737113e-06 -2.5330692e-06 6.2024663e-10
-2.4455582e-07 5.0254467e-08 5.21734e-08 3.78853e-07 -5.774783e-07 -2.2269212e-07 -6.1410947e-07 -2.8004458e-06
1.065593e-06 -1.8285325e-06 -8.018676e-07 -2.5480986e-06 -3.052841e-07 -2.7577957e-07 -1.0085079e-07 -5.579675e-05
0.0001331441 0.000515141 0.00039406406 0.00050891255 1.07846745e-05 5.7038436e-05 2.610284e-06 -5.315663e-06
-1.4868902e-05 1.8785631e-05 1.8641607e-05 7.900241e-05 0.00053333666 -2.7765795e-06 0.00010930522 0.000102862716
0.00052300334 7.443835e-05 -5.4141718e-05 1.8195635e-05 -1.14852155e-05 1.9703824e-05 8.08387e-05 6.560874e-05
7.957843e-05 4.5566658e-06 7.4640916e-06 3.4007385e-07 -8.615998e-07 -2.7707763e-06 2.653174e-06 2.492993e-06
1.2560745e-05 8.503676e-05 -2.2164456e-06 7.266399e-06 1.3405713e-05 8.837747e-05 1.39782105e-05 -7.1430777e-06
4.1980607e-06 -0.00019542516 0.00053472695 0.0024268501 0.0019730788 0.002061855 -3.5063953e-05 0.00020250621
-5.0337117e-06 -9.273308e-06 -9.01433e-05 9.67981e-05 0.00011012407 0.0003760631 0.0025056577 -6.3722044e-05
0.0008146097 0.00017637652 0.0023719063 0.00030554933 -0.0001586637 7.880765e-05 -6.353987e-05 0.00024978723
0.0012364595 0.0010242688 0.0012015076 -2.8824343e-05 0.00013433796 1.8591511e-06 -1.1736138e-05 -6.308359e-05
7.32219e-05 7.217779e-05 0.00019478735 0.0012993129 -7.4515956e-05 0.0005765432 -0.00012174257 0.0011583475
0.00013571764 -5.499995e-05 6.28536e-05 4.800784e-06 -2.8022863e-05 -0.00015187885 -0.00012474008 -0.000108379834
2.6938885e-06 -1.0486022e-05 3.6993526e-07 6.642089e-08 3.6528063e-06 -3.900251e-06 -3.7385626e-06 -2.2237637e-05
-0.00015117529 9.083799e-06 -2.6218917e-05 -7.819316e-06 -0.00015310186 -8.539347e-06 5.7852267e-06 7.0356066e-07
-0.00012753632 0.0004168602 0.0020811965 0.0017028104 0.0016724522 2.501336e-05 0.00016712933 -5.5975147e-07
-9.534399e-06 -6.937212e-05 8.0035315e-05 7.6674216e-05 0.00031124067 0.0021172913 -6.296742e-05 0.0004964863
9.774195e-05 0.0020611607 0.0002042105 -0.000105619496 3.609563e-05 4.328391e-05 -0.0001423222 -0.0008693318
-0.0007467296 -0.0005409417 -1.8547344e-05 -4.0018385e-05 1.8715583e-06 1.62142e-06 1.7397668e-05 -2.191895e-05
-2.6664227e-05 -0.00012409038 -0.00086192985 4.0723176e-06 -0.00027163423 -6.197425e-05 -0.0008256229 -6.994814e-05
1.8231809e-05 7.40193e-06 2.1711006e-05 0.000203962 0.0030224784 0.0028734007 0.00065878936 0.00012600115
-5.8236776e-05 -5.325403e-06 6.5162653e-06 2.6689508e-05 -3.915743e-05 4.71986e-05 0.0003797533 0.0028420438
8.9048845e-05 0.0006637603 1.18400985e-05 0.0028253163 2.548757e-05 0.00017579136 -0.00018043582 -0.00011352398
8.4037194e-05 -0.0002224749 -0.000311832 0.00052190834 2.6243035e-05 4.8575348e-05 1.1971728e-05 -1.5230504e-05
4.1209523e-06 1.3867284e-06 2.8315346e-05 -1.953293e-05 -0.00012543735 0.00011555722 0.00021509473 6.359867e-05
-0.00025762318 0.00014183934 -0.00010357005 9.7038086e-05 -8.144489e-05 0.00020501646 0.00026550872 0.0001468997

exp_avg_sq f4 [128, 21]
00000000: aedc fd32 21cb d934 9efd 6637 a9ac 4d37
00000010: 782c 5b36 49bd d033 e740 a433 3f7a ae2f
00000020: ff20 a62f da61 a831 fd4a a531 eef0 d931
00000030: 5fcd 7b34 47b5 5e37 0dcd 1235 ddba fe35
00000040: 305c 5235 f0d9 5437 98b1 2533 d7c1 3e33
00000050: 0de1 5d32 6adf 8433 99b3 0135 f938 c537
00000060: d840 b037 c3bb af36 0f02 2e34 bfe1 1b34
00000070: 70c9 2530 8fd5 0e30 63aa 1932 8c18 3132
00000080: d7a9 8c32 9c04 cf34 b100 bc37 73de 5b35
00000090: 0b8e 7536 337f 9935 5c08 b237 3654 af33
000000a0: 0b71 8a33 8522 1033 1994 ee2c 649b 662e
000000b0: c9f6 2c31 c98e 1f31 a7bb 1130 abcf 972d
000000c0: 3e55 882d 9431 c029 771e 9929 901f 982b
000000d0: 447d df2b 0546 602c aebd 1f2e a39e 2731
000000e0: dad3 962f ab6f 2230 8c07 812f 29f4 fa30
000000f0: 1c4d 372d 0f65 b52c baf5 1c2c 5483 9732
00000100: ad15 1834 ac50 ca36 3025 b636 38aa b035
00000110: 5602 1c33 4b67 1233 00c3 4c2f 0601 4a2f
00000120: 4c1b 2c31 dd76 3231 8890 5f31 781e d633
00000130: dedd c036 dcee 0d34 1dae 1935 feba 6834
00000140: 6f47 c536 3991 da32 bb83 a932 dadd 2d32
00000150: 4dc7 b230 e73e 7732 ffd7 1235 c8af 0a35
00000160: ea82 cd33 67b6 8431 7412 5931 29cc 092d
00000170: ec30 fa2c be8d 3a2f e3df 262f 22ea 282f
00000180: 52a3 2832 d19f 0c35 7ca8 c932 d07d aa33
00000190: 6027 7932 19ba 0935 b247 a030 d7d6 0d31
000001a0: c99e 4230 a1f6 4735 3c9b c336 90cd 8039
000001b0: 5b0d 5639 2a11 9b38 55d6 ae35 a23b c735
000001c0: e6c7 2732 a473 2232 8de7 0d34 ce0d 0134
000001d0: 2ced 0a34 5430 9736 32c1 7839 7280 8436
000001e0: 2c38 7e37 01e7 2737 0695 8439 b779 8e35
000001f0: c8c6 ee34 a609 6d34 5a62 7734 726b 2e36
00000200: de37 0339 cbc1 dc38 eb37 0a38 09aa 3135
00000210: 494a 2e35 7c03 3731 010e 2f31 741f 3133
00000220: 221b 1e33 9d44 3b33 04db 0f36 1431 f738
00000230: 58f9 7836 3379 3837 9fbb 8936 7d7a ff38
00000240: e865 9034 6946 9c34 72f0 5734 53cb 2130
00000250: 93c1 df31 117a 9634 be5e 6934 383b c933
00000260: 0908 a330 b720 9730 c6e3 f52c b3ff d22c
00000270: 4b6c ba2e 39cb c52e 7567 0a2f 1f40 a731
00000280: 3318 8f34 1b8f a331 eb8d 1333 bc4a 3732
00000290: 577e 8d34 deac 6630 172b 0330 7303 b42f
000002a0: 5f65 9434 a3f5 7336 ce82 0439 2615 e438
000002b0: d37a 1038 68e7 5035 9d0e 3735 0dfd 4731
000002c0: 866f 3e31 b23e 6033 a530 5533 fd39 6033
000002d0: 1151 1436 4a30 0039 fa7a 5136 ece9 5437
000002e0: 25de af36 de30 0339 e08e c834 cdb2 ba34
000002f0: d0f5 df33 96ef 1f32 f31c 9933 9b84 6936
00000300: 12e1 4636 e4ed 8535 3762 6c32 bbdd 5332
00000310: a5e4 032f 379b cd2e ea61 e630 47ca 2031
00000320: 3433 9931 c203 6f33 0a93 6336 c8c2 dd33
00000330: 24de 5035 7bb3 2834 9d17 4436 484b a132
00000340: e6a5 db31 8d3a 3531 ee15 8134 22f2 1236
00000350: ceae 1e39 6c6a 0f39 75e4 cb37 adfb 6435
00000360: d080 3a35 63e2 ac31 a244 aa31 fa7f 3733
00000370: 5df9 2d33 6960 f532 e3b6 2236 01ad 1039
00000380: 74b7 a236 138f e236 4649 3936 0d57 1b39
00000390: 5dd1 8334 c287 fd34 7e87 f334 b72b 5a34
000003a0: 9453 c835 afac ce38 21a3 c938 a6fb 1737
000003b0: 0549 3235 ba8c 2335 0136 2931 cd49 2b31
000003c0: 9dec d732 12aa e732 2c54 fa32 5973 ce35
000003d0: fe65 bd38 454c 5336 ece3 8436 f116 4936
000003e0: 181a cc38 c2ae 5134 e1f4 c234 b331 9c34
000003f0: 2273 d535 a229 6637 d2b6 113a 56ac fc39
2.955343e-08 4.0567195e-07 1.3768118e-05 1.2259153e-05 3.2659427e-06 9.7201855e-08 7.648651e-08 3.1737277e-10
3.021867e-10 4.900568e-09 4.810657e-09 6.3429217e-09 2.345091e-07 1.3274438e-05 5.4687627e-07 1.8978859e-06
7.8365247e-07 1.2686927e-05 3.8578577e-08 4.441412e-08 1.2915064e-08 6.187368e-08 4.8317594e-07 2.351076e-05
2.101103e-05 5.2372648e-06 1.6205762e-07 1.4517626e-07 6.031291e-10 5.1962784e-10 8.944514e-09 1.0308337e-08
1.637538e-08 3.8560108e-07 2.2411668e-05 8.1907564e-07 3.6590525e-06 1.1436408e-06 2.1223146e-05 8.1643904e-08
6.446688e-08 3.3559008e-08 6.780809e-12 5.243396e-11 2.5169575e-09 2.321871e-09 5.301736e-10 1.7258936e-11
1.5499265e-11 8.535113e-14 6.79985e-14 1.080901e-12 1.5879871e-12 3.1871183e-12 3.6320884e-11 2.4391873e-09
2.743537e-10 5.9093946e-10 2.3470326e-10 1.8259289e-09 1.0419467e-11 5.155549e-12 2.230534e-12 1.7638435e-08
1.4163989e-07 6.0294606e-06 5.428352e-06 1.3162562e-06 3.6323705e-08 3.408722e-08 1.862297e-10 1.8372157e-10
2.504481e-09 2.5969975e-09 3.2532927e-09 9.970694e-08 5.7478746e-06 1.3218545e-07 5.725031e-07 2.1674711e-07
5.8793735e-06 2.544458e-08 1.9734093e-08 1.01203685e-08 1.3007849e-09 1.4391595e-08 5.4703554e-07 5.16648e-07
9.5698695e-08 3.8624424e-09 3.1588145e-09 7.832881e-12 7.1108588e-12 1.6966958e-10 1.5177153e-10 1.5362692e-10
9.816022e-09 5.238663e-07 2.3476098e-08 7.939127e-08 1.450266e-08 5.1307285e-07 1.1661909e-09 2.0640323e-09
7.0802436e-10 7.449217e-07 5.8295245e-06 0.00024567218 0.00020413606 7.394173e-05 1.3026389e-06 1.4844011e-06
9.766131e-09 9.455935e-09 1.3215886e-07 1.2019083e-07 1.2938534e-07 4.505777e-06 0.00023723094 3.9488596e-06
1.5152658e-05 1.00077605e-05 0.00025288033 1.0615248e-06 4.4475587e-07 2.2075855e-07 2.3039448e-07 2.5990562e-06
0.00012513946 0.00010526514 3.295384e-05 6.618507e-07 6.492815e-07 2.6631986e-09 2.5473812e-09 4.123963e-08
3.681192e-08 4.3601734e-08 2.1436144e-06 0.00011787019 3.7100017e-06 1.09954735e-05 4.10476e-06 0.00012182163
2.6896237e-07 2.9108494e-07 2.0110909e-07 5.88604e-10 6.512161e-09 2.8028492e-07 2.1734283e-07 9.370564e-08
1.1862095e-09 1.0995994e-09 6.9886067e-12 5.9969473e-12 8.4775374e-11 8.9946224e-11 1.2587782e-10 4.8676294e-09
2.6653433e-07 4.7601936e-09 3.435518e-08 1.0668995e-08 2.635522e-07 8.391917e-10 4.7718757e-10 3.274426e-10
2.7640905e-07 3.63528e-06 0.0001263723 0.000108758264 3.4446664e-05 7.782278e-07 6.819408e-07 2.9102154e-09
2.7712033e-09 5.2211085e-08 4.963717e-08 5.2206804e-08 2.2100905e-06 0.0001222502 3.1215009e-06 1.2690649e-05
5.2412674e-06 0.00012511338 3.7356858e-07 3.4775294e-07 1.042896e-07 9.309494e-09 7.1298835e-08 3.4796892e-06
2.9635307e-06 9.978507e-07 1.37593394e-08 1.2332232e-08 1.1995611e-10 9.3498924e-11 1.6762531e-09 2.3398046e-09
4.458707e-09 5.564994e-08 3.3911224e-06 1.0326545e-07 7.7809295e-07 1.5711514e-07 2.922002e-06 1.87771e-08
6.3925993e-09 2.6372249e-09 2.4044078e-07 2.1896635e-06 0.00015133174 0.00013677188 2.430587e-05 8.5302855e-07
6.9477846e-07 5.031596e-09 4.955454e-09 4.2724402e-08 4.0506496e-08 2.8565596e-08 2.4246335e-06 0.00013797359
4.849333e-06 6.751981e-06 2.76098e-06 0.00014814381 2.4552983e-07 4.72237e-07 4.536086e-07 2.0318735e-07
1.4925486e-06 9.85501e-05 9.614812e-05 9.058893e-06 6.6416425e-07 6.0927016e-07 2.4623434e-09 2.4925726e-09
2.5136893e-08 2.6969278e-08 2.9142107e-08 1.5381767e-06 9.03122e-05 3.1485845e-06 3.96044e-06 2.9964688e-06
9.7323384e-05 1.9528218e-07 3.631349e-07 2.9093425e-07 1.5903245e-06 1.3718762e-05 0.00055585534 0.00048193586

exp_avg f4 [128]
00000000: cb43 f4b9 3cb2 883a f8cb 4db6 f507 183a
00000010: 8c20 c238 d6e1 323b ff1c ba3a 2671 2cb9
00000020: 5419 173b 8b86 75ba 55fe 493b e8bc 0db9
00000030: da81 093a 4d03 14bc f11d e7b7 962c 913b
00000040: 76ac 133b dda0 bc39 f527 3b39 7b5d 50ba
00000050: 44e8 3e39 6872 e13a f19f 0b39 4626 2f3c
00000060: 74f4 593a 49a6 cfb8 3664 533b 0c20 d9bb
00000070: 4305 33bb d55e 3a3b d1c9 e6ba f353 dd3b
00000080: eb83 003a 7557 f837 7f43 01b6 08b3 4639
00000090: 60e9 3f37 74ef 89bb b0fa a93a 3147 15bb
000000a0: 2250 0ebb d74e 0c3b cc75 093a 3d6a a439
000000b0: 7b41 9eba 2b49 a6ba 02ce dc3a b9d3 79b7
000000c0: 2c49 12ba cecc a4ba b688 d93a 7cba e439
000000d0: 6e37 89b9 1037 a03a e7d4 02ba 4e02 80ba
000000e0: 17da 4d38 b831 bd3a fea4 70bb 62a0 2c39
000000f0: 8179 bd3b 5d68 29ba cc23 a4bb 8c15 15b9
00000100: d476 35bc ec89 2c3a 73c9 1e39 4b5f 9339
00000110: 1196 0eba ddf8 7fbb bdcf c0b8 1ea3 983b
00000120: e85e 96bb f139 12bb 70e3 f5ba 3a47 78b9
00000130: ca2f d539 b906 81b7 908f 30bc 6eea 14bb
00000140: b6bf 953b 5924 bc3b d6de 88b9 9cd8 30ba
00000150: f3d4 aeb7 8e1b 293b 9adb 5bb9 7bcc aab8
00000160: b252 a7b8 41c3 c9bb 2a98 36b7 58c5 b938
00000170: 162f bd3b 157b 1837 70a4 bab9 a47d 0839
00000180: 281e 1f3b 002b 26b9 7212 23ba e78d 843b
00000190: e782 af3b e340 8736 dcee ce38 4c2f 00bb
000001a0: fb08 debb 17f7 48bb 94a3 60ba ecf8 28ba
000001b0: 3f4f 6d38 8902 183c c5fb 3f3a 4fb3 043b
000001c0: be34 1ab7 e035 353a 1996 ad3b cb80 00b9
000001d0: 137b efb7 44f0 8539 fbca 54bb b140 eeba
000001e0: 029d d437 4f3d 32ba 2185 8439 32c2 d83a
000001f0: 0d16 a1ba e8de 20bb 3993 8bbb 10d2 5f3a
-0.00046589816 0.0010429095 -3.0666106e-06 0.00057995255 9.256703e-05 0.0027295253 0.0014199315 -0.0001644535
0.0023055868 -0.0009366057 0.003082176 -0.00013517181 0.00052454846 -0.00903399 -2.7551288e-05 0.004430364
0.0022533215 0.00035978007 0.00017848595 -0.00079485 0.00018206338 0.0017200233 0.00013315656 0.010690277
0.00083143194 -9.901502e-05 0.0032255775 -0.0066261347 -0.0027316369 0.0028437872 -0.0017607753 0.0067543923
0.000490247 2.960463e-05 -1.9261786e-06 0.00018949446 1.1438824e-05 -0.0042094532 0.0012968387 -0.002277803
-0.0021715243 0.0021409297 0.00052436884 0.0003135967 -0.0012073958 -0.0012686601 0.0016846063 -1.4890852e-05
-0.00055803615 -0.0012573244 0.0016596529 0.0004362649 -0.00026171975 0.0012223441 -0.00049908314 -0.0009766312
4.907892e-05 0.0014434373 -0.0036719437 0.00016462945 0.0057823067 -0.000646239 -0.00500915 -0.00014217774
-0.011075694 0.0006581831 0.000151431 0.00028109024 -0.0005439232 -0.0039058246 -9.193968e-05 0.004658117
-0.0045889504 -0.0022312368 -0.0018759798 -0.00023677657 0.00040662132 -1.5381129e-05 -0.0107764155 -0.0022722739
0.004569973 0.0057416377 -0.00026105967 -0.00067461445 -2.0841579e-05 0.0025803777 -0.00020967275 -8.144319e-05
-7.978584e-05 -0.0061573093 -1.0883474e-05 8.8582456e-05 0.0057734353 9.088563e-06 -0.000355992 0.00013016775
0.002427945 -0.00015847012 -0.0006220705 0.0040452364 0.005356181 4.0308673e-06 9.8673365e-05 -0.001955944
-0.006775973 -0.0030664855 -0.0008569297 -0.00064457837 5.6579007e-05 0.009277948 0.00073235884 0.0020248478
-9.191395e-06 0.000691263 0.005297434 -0.0001225501 -2.8548331e-05 0.0002554675 -0.0032469619 -0.0018177239
2.5345482e-05 -0.0006799297 0.0002527619 0.0016537367 -0.0012289897 -0.0024546925 -0.0042594937 0.00085380767

exp_avg_sq f4 [128]
00000000: 7e51 8337 0fbe dd37 bbc6 4531 ab83 e336
00000010: 56e4 2535 cca2 9239 96b5 1139 1fb1 a834
00000020: a82a 1739 d742 8636 75a2 2a39 ef5d df38
00000030: 060c 263a f101 0d3b fd92 b835 1bf8 093a
00000040: 19c8 ab39 e99f 1736 7486 7e36 4f24 fd39
00000050: a27e 5535 9bb7 6939 fb53 9736 4013 0e3b
00000060: 6629 3e37 2872 fb37 fa61 d839 cca5 7a39
00000070: f5e5 a938 ab6b 5f38 0807 f137 0917 4439
00000080: 8e28 063a 910f 1234 c549 1432 8ecd 5134
00000090: e948 af30 3f34 ef3a 8c1f d137 b332 9839
000000a0: d22e 7539 b8f3 a138 7216 a936 74a7 df34
000000b0: 76be 0338 fe8e 7637 79cd c738 40a8 7634
000000c0: 4322 dd37 7933 4239 90d6 1739 1117 0f36
000000d0: cc03 c138 cbb8 aa37 7b61 a838 abb2 9839
000000e0: e3da 6133 1327 3d39 9341 9939 851b 6935
000000f0: 92aa fd39 93d8 1c37 791c 1a39 d9e9 6c35
00000100: f22d 123b 4af0 1e38 962a 1038 efd9 d735
00000110: 196e c036 6ba2 773a 3368 8235 0039 bd39
00000120: f488 ed38 2d43 0339 2886 b637 bdc0 1b36
00000130: dba3 ff34 43ec 0232 9273 cc39 24e9 8a39
00000140: e9e7 9c39 a9cb 283a bdef b539 451a 9438
00000150: 6b41 2233 c8ba 2938 bbde 7a34 fb66 ab36
00000160: 032f b734 e5bc 533a b5f6 3e31 7c94 fc33
00000170: c8c8 4339 4bb0 aa30 76f3 f636 adfa be36
00000180: 423b 9839 acb7 da39 cd73 0d39 fea8 a438
00000190: 007a 8839 3712 7632 01d0 fd34 1732 b438
000001a0: 8ee2 9b39 e00f 5539 c171 4a39 8c42 5c39
000001b0: 645b 6033 17e3 a83a db87 0939 2005 743a
000001c0: 0813 0233 8e5f 5f38 cad9 3d39 7979 1934
000001d0: e16f 5f33 56a1 6d35 92a2 d538 7b09 9439
000001e0: 68b8 bb35 e590 ad37 149b 4236 c4d3 d238
000001f0: 9fb2 d137 85d5 1739 509d 0839 d09b 0b38
1.5654365e-05 2.6433756e-05 2.8780238e-09 6.7804554e-06 6.179956e-07 0.00027968583 0.00013895924 3.142131e-07
0.00014416373 4.0012924e-06 0.00016272983 0.00010650965 0.0006334189 0.002151605 1.3751848e-06 0.0005263106
0.00032764746 2.2593833e-06 3.7927211e-06 0.00048282972 7.953296e-07 0.0002228901 4.5099273e-06 0.0021678954
1.1334521e-05 2.997469e-05 0.0004127173 0.00023903622 8.101381e-05 5.3267617e-05 2.8732713e-05 0.00018700598
0.00051177375 1.3602973e-07 8.631507e-09 1.9539422e-07 1.2753648e-09 0.0018249823 2.4929432e-05 0.00029029473
0.00023382463 7.7224744e-05 5.0392055e-06 4.1658825e-07 3.1410214e-05 1.4696036e-05 9.527332e-05 2.2971744e-07
2.6361207e-05 0.00018520457 0.00014480413 2.1322087e-06 9.2036644e-05 2.035163e-05 8.0290214e-05 0.00029124817
5.258597e-08 0.00018039001 0.0002923129 8.683931e-07 0.00048383005 9.34875e-06 0.00014697191 8.8257144e-07
0.0022305218 3.7893922e-05 3.4371937e-05 1.6082175e-06 5.734863e-06 0.00094465044 9.716081e-07 0.00036091357
0.0001132655 0.00012518158 2.1758562e-05 2.3208988e-06 4.7616672e-07 7.620716e-09 0.0003899602 0.00026495114
0.00029927425 0.0006439039 0.0003470163 7.062083e-05 3.777806e-08 4.0466693e-05 2.3364093e-07 5.1081856e-06
3.4120612e-07 0.0008077159 2.7788876e-09 1.17616736e-07 0.00018671446 1.2419233e-09 7.359714e-06 5.6916238e-06
0.0002903585 0.00041717046 0.00013489947 7.851607e-05 0.00026030838 1.4323226e-08 4.7276265e-07 8.592399e-05
0.000297327 0.00020319177 0.00019306598 0.00021005626 5.2237183e-08 0.0012885061 0.00013115948 0.0009308625
3.0285292e-08 5.3256335e-05 0.00018105577 1.4293427e-07 5.2022987e-08 8.8524155e-07 0.000101869126 0.00028235823
1.3986255e-06 2.0690679e-05 2.899852e-06 0.00010053025 2.4997918e-05 0.00014480024 0.00013028574 3.3285294e-05
