models/checkpoint_1800.pth (torch, 255274 bytes, 24 tensors)

policy_log_std f4 [7]
0	0x3f4f727d	0.8103407
1	0x3fa2e34c	1.2725616
2	0x3f743a29	0.95401245
3	0x3f1d6c91	0.61493784
4	0x3f8f922a	1.1216481
5	0x3f86b7f3	1.0524887
6	0xc0104ff1	-2.2548792

fc1.weight f4 [128, 21]
0	0x3f30a5cb	0.6900298
1	0x3f73c25d	0.9521845
2	0xbd3ea512	-0.046544142
3	0xbe4e9132	-0.20172575
4	0xbf3aadd5	-0.72921497
5	0xbe96e5aa	-0.29472095
6	0xbf712c23	-0.9420797
7	0xbf28f9ff	-0.66006464
8	0x3ef367fb	0.47540268
9	0x3ddcbea0	0.10778546
10	0xbd5e40e8	-0.05426112
11	0x3fc5fc75	1.5467669
12	0xbdbb26fb	-0.09138294
13	0xbe843ff6	-0.25830048
14	0xbf038235	-0.51370555
15	0xbd7cc871	-0.061714593
16	0xbfaef664	-1.3668942
17	0x3d9bcc46	0.076073214
18	0x3e945e56	0.28978223
19	0xbfbab600	-1.4586792
20	0x3e958dd9	0.29209784
21	0x3f878163	1.0586361
22	0xbe35236e	-0.17689297
23	0x3f1ccd22	0.6125051
24	0x3ea47249	0.32118443
25	0xbe5e120f	-0.21686576
26	0xbfa842c6	-1.3145378
27	0xbee01348	-0.4376471
28	0xbdfed73a	-0.12443395
29	0x3dfc5cfd	0.123224236
30	0xbc040c19	-0.008059525
31	0x3d195718	0.037436575
32	0x3e8551f5	0.2603909
33	0x3e294da3	0.16533522
34	0x3f367e3d	0.71286374
35	0x3e3a68ef	0.18204091
36	0xbe78bcf9	-0.24290837
37	0x3ea422fb	0.32057938
38	0x3ee48c93	0.446385
39	0xbf3329bd	-0.6998556
40	0x3eb68c92	0.35654122
41	0xc00c94ef	-2.1965902
42	0x3ed5bc38	0.41745162
43	0xbee9395a	-0.45551568
44	0x3f430555	0.7618001
45	0x3ec8432d	0.3911375
46	0x3f0afff9	0.54296833
47	0xbf87dc61	-1.0614129
48	0xbed3c8ff	-0.41364285
49	0x3e984576	0.29740494
50	0xbe0d8702	-0.13821033
51	0x3ea2c4d2	0.31790787
52	0xbe2c8a3f	-0.16849612
53	0x3f50cf5a	0.81566393
54	0x3f2b81da	0.6699501
55	0x3f5f58f5	0.8724511
56	0xbe29a6e0	-0.16567564
57	0xbd6d70ea	-0.05796901
58	0x3f1ccf3a	0.612537
59	0x3f5d2606	0.86386144
60	0xbebe7bc0	-0.3720379
61	0x3e8d34d0	0.27579355
62	0xbe42a6b2	-0.19008902
63	0x3e973025	0.2952892
64	0x3d88b8c9	0.0667587
65	0x3cdd7264	0.027032085
66	0xbede4449	-0.43411472
67	0xbf2d4e91	-0.6769801
68	0xbe73fc32	-0.23826674
69	0xbe85da82	-0.2614327
70	0xbf403cb7	-0.75092643
71	0x3f5491f8	0.8303523
72	0x3e747df2	0.2387617
73	0xbe8e33ee	-0.27773994
74	0x3f4f48bb	0.8097035
75	0xbf1f57bb	-0.6224324
76	0xbeeac081	-0.45849994
77	0xbf4b6e03	-0.7946474
78	0x3e383129	0.17987503
79	0xbee192bd	-0.44057265
80	0xbd97df80	-0.07415676
81	0x3f1fad86	0.6237415
82	0xbf59ea51	-0.85123163
83	0xbff4f9a8	-1.9138689
84	0x3ef1ea91	0.47249272
85	0xbf32a309	-0.6978002
86	0x3f3ad62d	0.72983056
87	0x3f1bbc79	0.6083446
88	0x3f10abaa	0.5651194
89	0xbf2f5723	-0.68492335
90	0xbf29f77b	-0.6639325
91	0x3e642f26	0.2228361
92	0xbec29076	-0.3800084
93	0x3f08b0de	0.5339488
94	0xbeea143d	-0.45718566
95	0x403a9c4c	2.9157896
96	0x3f0e38b8	0.55555296
97	0x3f030af3	0.5118858
98	0xbd87ae04	-0.06624988
99	0x3e509811	0.20370509
100	0xbf3592b7	-0.70926994
101	0x3f0d5889	0.5521322
102	0x3f1c068b	0.60947484
103	0x3f0e0374	0.5547402
104	0xbfec38a5	-1.8454787
105	0xbca7de11	-0.020491632
106	0xbf183b84	-0.59465814
107	0x3e30727d	0.17231174
108	0x3eb38141	0.3505955
109	0x3e7caa5d	0.24674363
110	0xbf9e05d5	-1.234553
111	0x3f02f6dc	0.5115793
112	0x3f5b6a6e	0.85709274
113	0x3dbe618a	0.09295948
114	0x3db7ff1e	0.089842066
115	0xbcdb5523	-0.026773995
116	0xbfc06eed	-1.5033852
117	0xbd6df9a3	-0.0580994
118	0x3d236a7a	0.039896466
119	0xbea615b0	-0.3243842
120	0xbef8cdb3	-0.48594436
121	0xbf13e0d5	-0.5776494
122	0x3e5e81c8	0.21729195
123	0xbf2a6899	-0.66565853
124	0x3eff7ea8	0.4990132
125	0xbfbf8874	-1.4963517
126	0xbe660c94	-0.22465736
127	0x3ecd242c	0.4006666
128	0xbf0f77d7	-0.56042236
129	0x3eefef64	0.46862328
130	0x3eb47c76	0.35251206
131	0x3f9de076	1.2334125
132	0xbed2e6c1	-0.41191676
133	0x3e94f14b	0.29090342
134	0xbc97791b	-0.018490365
135	0xbe3a427d	-0.18189426
136	0xbd7f06ad	-0.062262226
137	0xbf92ed32	-1.1478636
138	0xbf1a9ed7	-0.6039862
139	0x3d35d946	0.04439666
140	0x3cf3f116	0.029778045
141	0x3ba2d3fa	0.004969117
142	0x3ee925b9	0.45536593
143	0xbe91de94	-0.28490126
144	0xba910633	-0.001106447
145	0xbf0e85b7	-0.5567278
146	0x3ffc4a32	1.9710143
147	0x3f0a8b87	0.5411915
148	0xbf9191fd	-1.1372677
149	0x3e98bb8e	0.29830593
150	0x3d9a0a18	0.075214565
151	0xbf0083bd	-0.50201017
152	0xbf62e01d	-0.8862322
153	0x3f35963d	0.7093237
154	0xbf3d9b6a	-0.7406527
155	0x3efe1e54	0.49632514
156	0x3e5de8a8	0.21670783
157	0xbe786aa7	-0.24259435
158	0x400f47f2	2.2387662
159	0x3f58ad5e	0.8463954
160	0x3ea6be52	0.32567078
161	0x3d8ea3ba	0.06964822
162	0x3e9ef519	0.3104637
163	0xbeb724d0	-0.35770273
164	0x3e5fccd6	0.21855482
165	0xbe8207a4	-0.25396454
166	0x3f963cb9	1.1737281
167	0xbfd17d0c	-1.6366286
168	0xbd984a9b	-0.07436105
169	0xbfbde0e4	-1.4834256
170	0x3e31af5d	0.17352052
171	0x3ee51113	0.4473959
172	0x3e7aae88	0.24480641
173	0x3e303e54	0.17211276
174	0x3eda4b0c	0.4263538
175	0x3f3656fc	0.7122648
176	0xbe2937ce	-0.16525194
177	0xbe57a26e	-0.21058056
178	0x3e86612e	0.26246017
179	0xbf8fe9c9	-1.124322
180	0x3dab2d1b	0.083582126
181	0xbd5a96d3	-0.053366493
182	0x3e9daa45	0.30793968
183	0x3e95ff06	0.2929613
184	0x3efd6213	0.49488887
185	0x3e33cc2d	0.17558356
186	0x3e51b853	0.2048047
187	0x3fd4913d	1.6606823
188	0xbf66e02a	-0.901858
189	0xbf34bcbf	-0.70600504
190	0x3e867853	0.26263675
191	0xbe054f03	-0.13018422
192	0xbed54e90	-0.416615
193	0xbf8dc141	-1.1074601
194	0x3d0f222e	0.034944706
195	0xbef06e78	-0.4695928
196	0x3d9efcd0	0.07763064
197	0x3c966cc2	0.018362407
198	0xbd74a180	-0.05972433
199	0x3ea07436	0.31338662
200	0x40265d66	2.5994506
201	0xbdc9e7f7	-0.09858697
202	0xbe2917ef	-0.16513036
203	0x3cac6299	0.021043109
204	0x3e4eb9a0	0.20187998
205	0xbed60a93	-0.41804942
206	0xbe56d3e3	-0.20979266
207	0x3ff4dd29	1.9129993
208	0xbe0ec9fd	-0.1394424
209	0x3fa2689c	1.2688174
210	0xbf275219	-0.65359646
211	0x3f8aecba	1.0853493
212	0xbd902f3d	-0.0704026
213	0xbe8a78cd	-0.2704529
214	0xbe30e255	-0.17273839
215	0x3f625046	0.8840374
216	0xbf407b0d	-0.7518776
217	0xbea77337	-0.3270509
218	0xbec618b8	-0.38690734
219	0xbc4d25c6	-0.012521213
220	0xbe03aca5	-0.12858827
221	0x3e4e1681	0.20125772
222	0x3f00d575	0.5032571
223	0xbd9dd0ba	-0.07705827
224	0xbda1b7b0	-0.07896364
225	0xbe910a63	-0.28328237
226	0xbf61c5c2	-0.8819238
227	0xbe69f9e5	-0.22849233
228	0x3f1a20d8	0.60206366
229	0xbed8ef00	-0.42369843
230	0xbfaf9784	-1.3718114
231	0x3f4b2c6d	0.79364663
232	0x3f4a934b	0.79131
233	0x3db5f03c	0.08883712
234	0xbf459d9a	-0.77193606
235	0xbf741b5a	-0.95354235
236	0x3f6b749f	0.91974825
237	0x3f246461	0.64215666
238	0x3ea2ebb7	0.3182046
239	0xbe52209b	-0.2052025
240	0x3e987c91	0.29782537
241	0xbe664ea2	-0.22490934
242	0x4082d2c0	4.0882263
243	0xbdb2ef2a	-0.08737023
244	0xbe50e9f4	-0.20401746
245	0xbe3b9e5c	-0.18322128
246	0x3f13b7b4	0.57702184
247	0x3e8cd76f	0.27508113
248	0xbe94712d	-0.28992596
249	0x3f21079d	0.6290224
250	0xbe8d4779	-0.27593592
251	0x4007cebe	2.1219935
252	0xbe8f4ca7	-0.2798817
253	0xbeba810a	-0.36426574
254	0xbe924b75	-0.28573194
255	0x3e139f47	0.14416228

fc1.bias f4 [128]
0	0xbe8ffb4f	-0.2812142
1	0x3f100691	0.5626002
2	0x3f32662a	0.6968714
3	0xbda05125	-0.07827977
4	0x3f0957a4	0.53649354
5	0x3e594c1b	0.21220438
6	0x3d108f19	0.03529272
7	0x3e490182	0.19629481
8	0x3e7ad86a	0.24496618
9	0x3d4689fa	0.04847143
10	0xbe83063f	-0.25590703
11	0x3d7faeff	0.06242275
12	0x3d2eba48	0.04265812
13	0x3dd9abbc	0.10628459
14	0xbf2d5de3	-0.67721385
15	0xbddc7eb9	-0.10766358
16	0x3df74916	0.12074487
17	0x3e49fe5c	0.19725937
18	0xbe838524	-0.25687516
19	0x3e17e305	0.14832695
20	0xbf5142bd	-0.8174246
21	0x3d4afa68	0.049555212
22	0xbe9c1c75	-0.3049046
23	0x3c71b71a	0.0147531275
24	0xbe93471d	-0.28765193
25	0x3eb858a8	0.3600514
26	0x3c84be17	0.016203923
27	0x3ea1fa1e	0.31636137
28	0x3ec77ab4	0.38960803
29	0xbeacf0d5	-0.3377749
30	0x3efc2088	0.4924357
31	0xbe229385	-0.15876587
32	0x3e0177c8	0.12643349
33	0x3ccb615a	0.024826694
34	0x3e6300e7	0.22168313
35	0x3ee370a6	0.4442188
36	0x3f336284	0.700722
37	0x3ded3282	0.11581899
38	0x3d520bd1	0.0512808
39	0x3d96554f	0.0734049
40	0xbdfcda25	-0.12346295
41	0xbe360f6c	-0.1777932
42	0x3d6f81d9	0.05847344
43	0x3b34a58a	0.002756449
44	0x3e1532c3	0.14570145
45	0x3ddf8df6	0.10915749
46	0xbd391235	-0.04518338
47	0x3ecf9da3	0.40549955
48	0x3f31262b	0.69198865
49	0x3e17a9cc	0.14810866
50	0x3e473f6b	0.19457786
51	0x3f08e6a7	0.5347695
52	0xbe712624	-0.23549706
53	0xbf1ac6f2	-0.60459816
54	0x3d221931	0.039574806
55	0x3e19f073	0.1503313
56	0xbe92ae34	-0.2864853
57	0xbe2a3c61	-0.16624595
58	0xbdc7343f	-0.09726762
59	0xbf17610a	-0.59132445
60	0xbde59d1a	-0.11211605
61	0xbe43bbe3	-0.19114642
62	0x3dbcc7e4	0.092178136
63	0xbe94fe83	-0.29100427
64	0x3e114413	0.14186125
65	0xbed3f19e	-0.41395277
66	0x3cae3bfb	0.021268835
67	0xbf163736	-0.58677995
68	0x3c6e2195	0.014534374
69	0xbd395198	-0.04524383
70	0xbed720b9	-0.42017153
71	0x3e85b2ca	0.26112968
72	0x3ed6e3f0	0.41970778
73	0x3ed50989	0.41608837
74	0xbe4cdd8d	-0.2000639
75	0xbd47f01b	-0.048812967
76	0xbd7ad723	-0.061240327
77	0xbf36ba18	-0.71377707
78	0x3ed4dd42	0.41575056
79	0xbedaf768	-0.4276688
80	0x3e55a706	0.20864496
81	0x3db340d3	0.087525986
82	0x3e9ed00d	0.31018105
83	0xbe353164	-0.17694622
84	0x3f467b29	0.7753168
85	0xbf176daa	-0.5915171
86	0x3d36cbfa	0.04462812
87	0xbe9725fc	-0.29521167
88	0xbe95d2bd	-0.29262343
89	0x3d3c6d59	0.04600272
90	0xbef86ad1	-0.48518994
91	0x3ef219fb	0.47285447
92	0x3c928294	0.01788453
93	0x3efe4946	0.49665278
94	0xbe00d63b	-0.12581722
95	0x3ee85dd5	0.45384088
96	0xbe78e093	-0.24304418
97	0x3e21306e	0.1574113
98	0x3e2c288a	0.1681234
99	0xbe96e7bb	-0.2947367
100	0xbea86062	-0.32886034
101	0xbf42a9b4	-0.76040196
102	0xbe77671c	-0.24160427
103	0x3d0bfb6e	0.03417533
104	0xbd8d903a	-0.06912275
105	0xbd6c3145	-0.057664175
106	0x3ea86ebc	0.32896984
107	0x3d6935bb	0.056936007
108	0x3eb33eb4	0.35008776
109	0xbe1f1978	-0.1553706
110	0xbe4d21c6	-0.20032415
111	0xbdff35ae	-0.124614105
112	0x3f1f4815	0.62219363
113	0xbdc9abd1	-0.098472245
114	0x3e1c6df4	0.15276319
115	0xbf1fe1e7	-0.62454075
116	0x3ee75306	0.4518053
117	0xbe9f4458	-0.3110683
118	0x3eb46b54	0.35238135
119	0x3e129f32	0.1431854
120	0xbf1b76fe	-0.6072844
121	0x3e602b0f	0.21891426
122	0x3f061f15	0.5239118
123	0x3ea79daa	0.32737476
124	0xbd99e02f	-0.07513463
125	0x3e52cd0e	0.20586035
126	0x3ea4663b	0.32109246
127	0x3e9f4f29	0.31115082

fc2.weight f4 [128, 128]
0	0x3e98a14b	0.29810557
1	0xbded3aec	-0.11583504
2	0xbec000eb	-0.375007
3	0x3e85ef51	0.26159146
4	0x3e397223	0.18109946
5	0xbed3978c	-0.4132656
6	0xbedff2c7	-0.43739912
7	0x3f60f658	0.8787589
8	0xbe563e2b	-0.20922153
9	0x3f8583f9	1.04309
10	0x3f13ce63	0.57736796
11	0x3d9ff10a	0.078096464
12	0xbf184324	-0.5947745
13	0x3f18c3d3	0.59673804
14	0x3f1ccf3a	0.612537
15	0x3df41929	0.119188614
16	0x3dc0beec	0.094114155
17	0xbb3da190	-0.002893541
18	0x3dc227c8	0.09480244
19	0x3f3dd3f2	0.7415153
20	0xbb88d08f	-0.0041752527
21	0x3f87588e	1.05739
22	0xbeb7ad21	-0.35874274
23	0xbff7d08f	-1.9360522
24	0xbe85b9a9	-0.2611821
25	0x3dc0e8e0	0.094194174
26	0xbe81c145	-0.25342765
27	0xbf499d07	-0.7875523
28	0xbec73b87	-0.38912603
29	0x3e238df7	0.15972124
30	0x3ffaebf7	1.9603261
31	0x3f2f3607	0.68441814
32	0x3ed43840	0.41449165
33	0x3e6c792e	0.23093101
34	0xbf1a008f	-0.601571
35	0xbc9ac9b6	-0.018895011
36	0x3d787987	0.060662773
37	0x3eb33994	0.35004866
38	0xbf1f4ab7	-0.6222338
39	0xbef7103d	-0.48254576
40	0xbf50364d	-0.81332856
41	0x3da1a489	0.07892711
42	0x3f392f84	0.7233813
43	0x3dccc062	0.099976316
44	0x3ecb53d6	0.397124
45	0xbe66673d	-0.2250032
46	0x3fb7e43d	1.4366528
47	0xbf1e14c9	-0.61750466
48	0xbec36633	-0.3816391
49	0x3e964db1	0.2935615
50	0x3d465d28	0.048428684
51	0xbf0567ed	-0.52111703
52	0xbf68555f	-0.90755266
53	0xbfa9888d	-1.3244797
54	0x3d99912a	0.07498391
55	0xbf15e574	-0.5855324
56	0xbd5d1eb6	-0.053984366
57	0x3da5bfd9	0.08093233
58	0x3e5b0bdc	0.21391243
59	0xbeb4fb3e	-0.35347933
60	0xbf81b3a2	-1.0132945
61	0x3d59838f	0.05310398
62	0x3d8f2b2f	0.069906585
63	0xbdc3c287	-0.095585875
64	0x3f18f3f5	0.5974725
65	0xbf814102	-1.0097964
66	0x3ed9e01f	0.42553803
67	0xbfc098da	-1.5046647
68	0x3e888697	0.26665184
69	0xbdc61f52	-0.096739426
70	0xbda8a2d4	-0.08234182
71	0x3e123799	0.14279021
72	0x3de0c01e	0.109741434
73	0xbf156648	-0.58359194
74	0x3fef0493	1.8673271
75	0xbdc3a2eb	-0.095525585
76	0x3e2c8872	0.16848925
77	0x3e98acb3	0.2981926
78	0xbf0640c0	-0.5244255
79	0xbdb9d59e	-0.09073947
80	0x3bd4dbac	0.0064959135
81	0xbdc3ce30	-0.095608115
82	0x3f7cac2b	0.9870021
83	0x3f496f8c	0.7868583
84	0xbf277ff6	-0.6542963
85	0x3f1b6219	0.6069656
86	0xbede0037	-0.4335954
87	0xbf36be72	-0.71384346
88	0x3d50d4c4	0.05098416
89	0xbf161837	-0.586307
90	0x3f25f1aa	0.64821875
91	0xbf5d1972	-0.8636695
92	0xbd0ab975	-0.03386827
93	0xbc376708	-0.011193998
94	0x3e8edadd	0.27901354
95	0xbe113779	-0.14181317
96	0xbeb1193b	-0.34589562
97	0xbf7e4d8e	-0.9933709
98	0xbf04bbb7	-0.5184893
99	0x3e489d82	0.19591334
100	0x3eebbdc1	0.46043208
101	0x3e270c87	0.16313373
102	0xbe9469a2	-0.2898684
103	0x3e4ab6ac	0.19796246
104	0xbe80f51b	-0.25187
105	0x3f30d05a	0.6906792
106	0xbeee49d3	-0.46540698
107	0x3eb8596e	0.3600573
108	0x3e25db19	0.1619686
109	0xbe5870b0	-0.21136737
110	0x3e584af6	0.21122345
111	0x3edc8420	0.43069553
112	0x3e065921	0.13119937
113	0x3f231937	0.6371035
114	0xbf8982f2	-1.0743086
115	0xbe99fbf4	-0.30075037
116	0xbb86ef6b	-0.0041178963
117	0xbe30e8f8	-0.1727637
118	0x3fedb708	1.8571482
119	0xbec843db	-0.3911427
120	0x3eda6005	0.42651382
121	0x3f4bc741	0.7960091
122	0xbe97dbd6	-0.2965991
123	0xbf1b64da	-0.6070076
124	0x3ee43d3c	0.44577968
125	0x3ed10a04	0.40827954
126	0xbf123239	-0.57107884
127	0x3dda45ae	0.106578216
128	0xbe8cf7c1	-0.2753277
129	0x3f9919a1	1.1960946
130	0xbf53c2a8	-0.82718897
131	0xbdd6c001	-0.104858406
132	0x3f019f5f	0.50633806
133	0xbefb5053	-0.4908472
134	0x3c4d2ec6	0.012523359
135	0xbdb5254e	-0.08845006
136	0x3e19b236	0.15009388
137	0xbe7fa9e7	-0.24967156
138	0x3e193df3	0.14965038
139	0x3e944f08	0.28966546
140	0x3e3c1dc6	0.18370733
141	0xbdcb5987	-0.09929185
142	0x3fc0d870	1.5066051
143	0xbf62dedc	-0.88621306
144	0x3ef52282	0.4787789
145	0xbeeb3237	-0.45936748
146	0xbe9536bc	-0.29143322
147	0x3fab6a0b	1.3391737
148	0xbd8d27a4	-0.068923265
149	0x3dd51159	0.104036994
150	0xbef1f35c	-0.4725598
151	0xbeac9384	-0.33706295
152	0xbf1f3596	-0.6219114
153	0xbe8a2154	-0.26978552
154	0xbf511082	-0.81665814
155	0xbeaa7566	-0.33292693
156	0xbf16b6c1	-0.5887261
157	0xbdc58e74	-0.096463114
158	0xbe026e62	-0.1273742
159	0x3d63ecc1	0.055645708
160	0x3f3372aa	0.7009684
161	0xbda14585	-0.07874588
162	0xbf3e0734	-0.7422974
163	0x3e307464	0.172319
164	0xbf45d260	-0.7727413
165	0xbe5579ad	-0.20847197
166	0x3e0c9df5	0.13732131
167	0x3f09f262	0.5388547
168	0xbea5c454	-0.3237635
169	0x3f68467f	0.9073257
170	0x3ec13ef6	0.37743348
171	0x3ec33c3d	0.38131896
172	0x3f178935	0.59193736
173	0xbedab403	-0.42715463
174	0x3ea7ef34	0.32799685
175	0xbfa31e6b	-1.2743658
176	0xbef10292	-0.47072273
177	0xbe74492a	-0.23856035
178	0x3faf9d17	1.3719815
179	0xbef86a22	-0.48518473
180	0xbf71d262	-0.94461644
181	0x3efa516b	0.48890242
182	0x3edbe3f2	0.42947346
183	0xbfce0f63	-1.6098446
184	0x3eb39310	0.35073137
185	0xbedc1470	-0.42984343
186	0xbe3d3bc8	-0.18479836
187	0x3ed1fb8a	0.41012222
188	0xbf4281d3	-0.75979346
189	0x3bc5f184	0.006040754
190	0xbdf0e707	-0.11762815
191	0xbf00be77	-0.50290626
192	0x3dae2798	0.08503646
193	0xbe4f4003	-0.20239262
194	0xbe833583	-0.25626764
195	0xbe58ca4e	-0.21170923
196	0x3dcb83af	0.09937226
197	0x3e567a37	0.20945059
198	0xbed8b386	-0.42324466
199	0xbbba4e15	-0.0056855776
200	0xbf374479	-0.71588856
201	0xbfaa2ae0	-1.3294334
202	0xbe65d2df	-0.22443722
203	0xbe1fa0fb	-0.15588753
204	0x3f113edf	0.5673656
205	0x3f807a68	1.0037355
206	0x3d27caae	0.040964775
207	0xbfbbcf51	-1.4672643
208	0xbe1a2952	-0.15054825
209	0xbdff9239	-0.12479062
210	0x3f279786	0.6546558
211	0x3d980096	0.07421987
212	0xbf98d6eb	-1.1940588
213	0x3d06c058	0.032898277
214	0xbee59feb	-0.4484857
215	0xbd9fb82c	-0.077988
216	0xbd30445a	-0.043033935
217	0xbeb3c2f0	-0.35109663
218	0x3f360678	0.7110362
219	0xbfa220b1	-1.2666227
220	0x3e81eb56	0.2537486
221	0xbf6a4f08	-0.9152684
222	0x3ec1677b	0.37774262
223	0x3e93ae38	0.28843856
224	0xbe30b876	-0.17257866
225	0xbf4db131	-0.803485
226	0x3ee30a01	0.4434357
227	0xbf18c84d	-0.59680635
228	0x3e865236	0.26234597
229	0x3f78b060	0.97144127
230	0xbd94982a	-0.072555855
231	0x3dda347d	0.106545426
232	0xbe23671a	-0.15957299
233	0x3ee43aae	0.4457602
234	0xbf37b378	-0.7175822
235	0x3f5b5a93	0.8568508
236	0xbe3b1b21	-0.18272068
237	0x3e9cb840	0.30609322
238	0xbf3cd220	-0.73758125
239	0xbd7d158f	-0.061788138
240	0xbee243e9	-0.44192436
241	0x3ee4f9cb	0.44721827
242	0x3ea6c62d	0.3257307
243	0x3eee2b65	0.46517482
244	0x3e17c692	0.14821842
245	0xbe69f76b	-0.22848289
246	0x3ed3c03b	0.41357598
247	0x3e1c8200	0.15283966
248	0x3edeaffe	0.43493646
249	0x3f6aef2e	0.9177121
250	0xbdf3e575	-0.11909
251	0x3f90764a	1.1286099
252	0x3f6ab857	0.9168753
253	0x3f8164d4	1.0108895
254	0xbe24fcb7	-0.16112028
255	0xbdd2b739	-0.10288853

fc2.bias f4 [128]
0	0xbec1c3cd	-0.37844697
1	0x3d82b09e	0.06381343
2	0x3e04e175	0.1297663
3	0xbf029c66	-0.51019895
4	0xbd989670	-0.07450569
5	0xbe871cc0	-0.26389122
6	0x3f29b74f	0.6629533
7	0xbecd7579	-0.40128687
8	0xbe4e6356	-0.20155081
9	0x3ebc3eaf	0.36766574
10	0x3ee2e0f7	0.4431226
11	0x3f28c362	0.6592313
12	0xbdfa39d4	-0.12218061
13	0x3c0434b0	0.008069202
14	0x3f10befc	0.5654142
15	0xbd880969	-0.0664242
16	0x3d59727e	0.053087704
17	0x3e055d38	0.13023841
18	0x3e41a624	0.18911034
19	0x3d7426c9	0.0596073
20	0x3e81a2ff	0.2531967
21	0xbe2687a6	-0.16262683
22	0x3e5dcb55	0.21659596
23	0xbf31339d	-0.6921938
24	0xbe850e2e	-0.2598738
25	0x3e8eaf7f	0.27868268
26	0x3e07972c	0.13241261
27	0xbd4a5662	-0.049398787
28	0x3f140ff2	0.5783683
29	0x3d97e243	0.07416203
30	0xbe6381df	-0.2221751
31	0xbec9cb40	-0.3941288
32	0x3ecc3838	0.39886642
33	0x3f4bc55a	0.7959801
34	0x3ed76b52	0.42074066
35	0x3ebaf7f6	0.36517304
36	0xbed3a8cc	-0.4133972
37	0xbe8fb0e5	-0.28064647
38	0xbeda89ef	-0.4268336
39	0x3ef84912	0.48493248
40	0x3e32eecc	0.17473906
41	0xbf097aa8	-0.53702784
42	0xbef0ef30	-0.47057486
43	0xbdebb6de	-0.115094885
44	0xbdf1c963	-0.118059896
45	0x3e26a11f	0.162724
46	0x3e857437	0.26065227
47	0xbe5b0520	-0.21388674
48	0xbe017e51	-0.12645842
49	0x3eb24257	0.34816238
50	0xbe5f08bb	-0.21780674
51	0x3e737050	0.23773313
52	0xbea3c423	-0.31985578
53	0xbf173ca4	-0.59076905
54	0x3e24b2e9	0.16083874
55	0xbe5769de	-0.21036479
56	0xbe22bc7d	-0.15892215
57	0xbf242696	-0.6412138
58	0xbd74a272	-0.059725232
59	0xbe0f1d4f	-0.13976024
60	0x3db1c3f4	0.08679953
61	0x3e7cb69e	0.24679038
62	0xbe75f2f4	-0.2401846
63	0x3e4f704e	0.20257685
64	0x3f1accf7	0.60469
65	0xbecfcd3e	-0.40586275
66	0x3e293735	0.16524966
67	0x3dae2b35	0.08504335
68	0x3d3c8ea6	0.046034478
69	0x3ec4241a	0.38308793
70	0x3e8b0a61	0.27156356
71	0xbd7c8ec2	-0.061659582
72	0x3ef55aff	0.47920987
73	0xbe101650	-0.14071012
74	0x3dd2a061	0.10284496
75	0xbe0cc073	-0.13745289
76	0xbe6bbb95	-0.23020776
77	0xbe3b345b	-0.18281691
78	0x3ea5b506	0.32364672
79	0xbc640fd2	-0.0139197875
80	0xbebbc89a	-0.36676484
81	0x3ef83601	0.48478702
82	0xbd2b7a96	-0.041864954
83	0xbec9d795	-0.3942229
84	0xbdd5c1fc	-0.1043739
85	0x3e7917b8	0.24325454
86	0x3bc0d453	0.005884686
87	0xbe13ee69	-0.14446415
88	0xbe29bb3d	-0.16575332
89	0xbe020ae9	-0.12699474
90	0x3db350f9	0.08755679
91	0x3e814e09	0.2525485
92	0xbe589d4d	-0.21153755
93	0x3be38150	0.0069429055
94	0x3b22c2ee	0.0024835425
95	0x3e89f1af	0.26942202
96	0xbd9a9559	-0.07548017
97	0xbed753d2	-0.42056137
98	0x3e1128f1	0.14175774
99	0xbd718768	-0.058967024
100	0x3dbf12b9	0.09329743
101	0x3ae47813	0.0017430804
102	0x3e24ef12	0.16106823
103	0xbc60b55d	-0.013715115
104	0xbed8405d	-0.42236605
105	0xbdc902c5	-0.09814981
106	0x3e3430b6	0.17596707
107	0x3ed29a47	0.4113333
108	0x3e73a625	0.23793848
109	0x3e8dc6cc	0.27690732
110	0xbe5f38e3	-0.21799044
111	0x3de8b487	0.11362558
112	0xbe8dfc4f	-0.2773156
113	0x3cddaca1	0.027059855
114	0xbeb0d417	-0.34536812
115	0xbcb6fcf1	-0.022337409
116	0xbe00591e	-0.12533996
117	0x3e2e8629	0.17043366
118	0xbe5010a5	-0.2031885
119	0x3ec30391	0.38088658
120	0xbcb944cc	-0.022615813
121	0xbe648744	-0.22317225
122	0xbece6c2a	-0.40316898
123	0x3d9c5846	0.07634024
124	0xbf0e0ca0	-0.55488014
125	0xbe9ff4f2	-0.31241566
126	0xbea4de57	-0.32200882
127	0x3d8196d4	0.06327596

policy_mean.weight f4 [7, 128]
0	0x3d403f06	0.046935104
1	0x3de03c23	0.1094897
2	0xbd592cdd	-0.0530213
3	0x3ca6c02a	0.020355303
4	0xbad9ff7d	-0.0016631928
5	0x3e031959	0.12802638
6	0xbe0f9891	-0.14023043
7	0xbe002a1b	-0.12516062
8	0xbd6a48f6	-0.057198487
9	0x3d356ac8	0.044291288
10	0xbd8ff8a8	-0.07029849
11	0xbd2e263c	-0.042516932
12	0xbd2186c4	-0.039435163
13	0xbd5263c8	-0.05136469
14	0xbd5c4bed	-0.053783346
15	0xbdba9276	-0.091099665
16	0x3ce054b4	0.02738414
17	0x3d6b589d	0.057457555
18	0x3be3681a	0.0069399
19	0xbd12c027	-0.035827782
20	0xbbc0f160	-0.005888149
21	0x3cb85d1e	0.02250534
22	0xbd3f4916	-0.04670056
23	0x3dac16d7	0.08402794
24	0xbc2f9da9	-0.010718741
25	0xbdfbbd44	-0.12291959
26	0x3c4faa00	0.0126748085
27	0xbdfeebc2	-0.12447311
28	0xbda4f770	-0.080550075
29	0xba8cd6f7	-0.0010745217
30	0xbd9439ca	-0.07237585
31	0x3ccf772d	0.025325382
32	0xbd5b3146	-0.053513788
33	0x3cb51bcd	0.022107983
34	0xbd1eae60	-0.038740516
35	0x3d42fe93	0.047606062
36	0xbd437862	-0.047722228
37	0xbd638f51	-0.0555566
38	0xbc9e8af7	-0.019353373
39	0x3cbac2e5	0.022798011
40	0xbb85aac4	-0.0040791947
41	0x3dad5a14	0.08464447
42	0xbcdd65cb	-0.027026078
43	0x3d5bae59	0.053633068
44	0x3cb46a1d	0.022023255
45	0xbd5e6355	-0.05429395
46	0xbcbdc4ca	-0.023165125
47	0x3dc0301b	0.093841754
48	0xbcb6019d	-0.022217566
49	0x3d63b292	0.05559022
50	0xbdd9f1d9	-0.10641832
51	0xbded7848	-0.115952075
52	0x3db903d9	0.09033937
53	0x3c6d64ae	0.014489336
54	0xbdf78069	-0.12085039
55	0x3ce4f207	0.027947439
56	0xbdf3b7ea	-0.11900313
57	0xbd1b583c	-0.037925944
58	0x3d24e8b0	0.04026097
59	0x3d88ff52	0.066893235
60	0xbdbbb6c8	-0.09165722
61	0xbdbc36b5	-0.09190122
62	0xbc8a5575	-0.016886452
63	0x3d05abd3	0.032634567
64	0xbc165675	-0.009175886
65	0x3d08c724	0.03339304
66	0xbdddba5f	-0.10826563
67	0x3d4fa1e6	0.050691508
68	0xbc450541	-0.012025178
69	0xbcd4afb1	-0.025962682
70	0xbc7931fb	-0.01520967
71	0xbd867592	-0.065653935
72	0xbca84906	-0.020542633
73	0xbd044e69	-0.03230134
74	0xbd978b52	-0.0739962
75	0x3d3e4373	0.046451043
76	0xbca1c319	-0.01974635
77	0xbbc7bee7	-0.0060957554
78	0xbe4bd015	-0.19903596
79	0x3ca59259	0.020211386
80	0x3d88a4b5	0.066720404
81	0xbc15333f	-0.009106456
82	0x3a871877	0.0010306974
83	0x3dda0630	0.106457114
84	0x3d83d8de	0.064378485
85	0xbd8bb050	-0.06820738
86	0xbb734ffd	-0.0037126534
87	0xbcca731b	-0.02471309
88	0x3cfcc1e5	0.030854175
89	0xbdea5056	-0.11441104
90	0x3df90235	0.12158624
91	0x3dbd5784	0.09245208
92	0x3d71e5fb	0.059057217
93	0xbe0bcc99	-0.13652267
94	0xbd08c3f8	-0.033390015
95	0x3d76f67c	0.06029366
96	0xbcf305d6	-0.029665869
97	0x3dd5dfb1	0.104430564
98	0xbdb08ec5	-0.08620981
99	0x3d551d2f	0.052029785
100	0x3de2a4db	0.110666
101	0x3d4845c0	0.048894644
102	0x3d8348d2	0.06410374
103	0xbd5a0b8a	-0.05323366
104	0x3d4ce810	0.050026
105	0x3dd8a7f3	0.10578909
106	0x3e1b42eb	0.15162246
107	0xbdceef36	-0.101042196
108	0xbc9faee3	-0.019492572
109	0xbd2fa46e	-0.04288142
110	0xbdc39408	-0.09549719
111	0xbc5592f1	-0.013035522
112	0xbd9085ac	-0.07056746
113	0x3c684df5	0.014178743
114	0xbda359d2	-0.07976116
115	0xbddba208	-0.107242644
116	0x3dd0e3ae	0.101996765
117	0x3e196eb9	0.14983644
118	0xbdfe93e5	-0.124305524
119	0x3af3e6af	0.0018608178
120	0xbbe1f4ce	-0.006895638
121	0x3afc498c	0.0019247993
122	0x3e058be2	0.13041642
123	0x3d87156a	0.06595881
124	0x3c570427	0.013123549
125	0x3e13634f	0.14393352
126	0xbae7432d	-0.0017643921
127	0x3d89f8ac	0.067368835
128	0xbd468028	-0.048462063
129	0xbdce09d2	-0.10060467
130	0x3e966cf0	0.29379988
131	0x3e025c4b	0.1273052
132	0x3d5699e4	0.052392855
133	0x3d09fecf	0.03369027
134	0x3dc9636a	0.09833415
135	0xbe3b4f59	-0.18291987
136	0x3e0905c7	0.1338111
137	0xbd6ae1e3	-0.05734433
138	0xbd2dc00b	-0.042419475
139	0x3cdab978	0.026699767
140	0x3e58b0d6	0.21161208
141	0x3db46053	0.08807435
142	0xbdf98a51	-0.12184585
143	0x3c595514	0.013264913
144	0x3d803a29	0.06261093
145	0x3d8e6ae1	0.06953979
146	0xbc12b494	-0.008954186
147	0xbdf68cb3	-0.12038555
148	0x3e78cd34	0.24297029
149	0xbe82524e	-0.25453418
150	0x3d72c6e8	0.059271723
151	0x3e4c6436	0.19960102
152	0xbcd1df96	-0.02561931
153	0x3e84a388	0.25906014
154	0x3c8b0cc5	0.016973862
155	0x3df0fd25	0.117670335
156	0x3ca453b2	0.02005944
157	0xbc9ca95e	-0.01912373
158	0x3dc13591	0.09434045
159	0x3d2e3130	0.042527378
160	0xbda7611f	-0.08172821
161	0xbac274e3	-0.001483586
162	0x3d641f14	0.0556937
163	0x3ac6c1e5	0.0015163986
164	0xbd0ff0e4	-0.03514184
165	0xbe15a58c	-0.14613932
166	0x3cdd09d3	0.026982224
167	0xbc954b05	-0.018224249
168	0x3e9a302f	0.30114886
169	0x3c15109b	0.009098197
170	0x3d91b0f7	0.071138315
171	0x3d58ea23	0.052957665
172	0x3d2a8d9c	0.041638955
173	0x3db9e9ab	0.09077772
174	0xbd6ef71d	-0.058341134
175	0x3df07c18	0.11742419
176	0x3ce901c8	0.028443232
177	0x3db7889f	0.08961605
178	0xbd07de51	-0.033171
179	0xbd323715	-0.04350956
180	0x3dc00e6a	0.09377749
181	0xbd996d62	-0.07491566
182	0x3d321310	0.04347521
183	0xbbf9be0b	-0.007621532
184	0x3c0b5155	0.008503278
185	0xbbbb945f	-0.0057244743
186	0x3e112321	0.14173557
187	0x3d0d259a	0.034459688
188	0xbc71c947	-0.014757461
189	0xbd4bac6f	-0.049724992
190	0x3e40e3d5	0.18836911
191	0xbd4d2ec0	-0.050093412
192	0xbd32e480	-0.043674946
193	0x3e542b8f	0.20719741
194	0x3e160e00	0.14653778
195	0xbe0fb980	-0.14035606
196	0x3d3c16a8	0.045920044
197	0x3c8a1cc5	0.016859422
198	0xbcbdc918	-0.023167178
199	0x3dc7b28b	0.09750851
200	0x3d89de3d	0.06731842
201	0xbd1c43ce	-0.0381506
202	0xbd5b497e	-0.053536884
203	0xbd7def7f	-0.06199598
204	0xbb5fb074	-0.0034132274
205	0xbd0550ab	-0.032547634
206	0x3e1892ff	0.14899825
207	0xbd1e4471	-0.03863949
208	0xbe047881	-0.12936594
209	0x3d686176	0.05673357
210	0x3d2c5fd8	0.04208359
211	0x3b94097d	0.0045177327
212	0x3d470630	0.048589885
213	0xbe5f894b	-0.21829717
214	0x3e1fc746	0.1560336
215	0x3be114cb	0.006868934
216	0x3d41c192	0.047303744
217	0x3e2ac0b6	0.16675076
218	0xbd360329	-0.044436608
219	0xbdfcbceb	-0.12340721
220	0xbc3ec587	-0.011643774
221	0x3e2ea703	0.17055897
222	0x3e8ebf77	0.2788045
223	0x3bb57173	0.005537206
224	0x3e16e719	0.14736594
225	0xbde2cd01	-0.11074258
226	0x3e27764b	0.16353719
227	0xbbc56a56	-0.006024639
228	0xbe94ac6c	-0.29037797
229	0x3e62a9ea	0.2213513
230	0x3d6149b4	0.05500193
231	0xbbec0f2c	-0.007203957
232	0x3e2aafe8	0.16668665
233	0xbe863499	-0.26212004
234	0xbd2542a9	-0.040346775
235	0xbbb0fcbf	-0.0054012234
236	0xbc80db50	-0.015729576
237	0xbdae2ff7	-0.08505242
238	0x3d02c756	0.031928383
239	0x3dfeb7e6	0.124374196
240	0xbbdc88f3	-0.006730193
241	0xbe5017f0	-0.20321631
242	0xbd329f94	-0.043609217
243	0x3e0ed697	0.13949047
244	0xbe02c2c9	-0.12769617
245	0xbe7c60a1	-0.24646236
246	0xbd9da4f7	-0.0769748
247	0x3e7cb96d	0.2468011
248	0x3e150ab7	0.14554869
249	0x3e30fc83	0.17283826
250	0xbc9dd9c7	-0.019268883
251	0x3cae3b9c	0.021268658
252	0xbdf01927	-0.117235474
253	0x3dde00d8	0.10840005
254	0x3d998093	0.07495227
255	0xbe2c1c5a	-0.1680769

policy_mean.bias f4 [7]
0	0xbdb88a3e	-0.090107426
1	0xbdc64a29	-0.09682114
2	0x3dca413d	0.098757245
3	0xbb147933	-0.0022655248
4	0xbde491c1	-0.11160613
5	0xbd555c0c	-0.052089736
6	0xbcadb135	-0.021202663

value_head.weight f4 [1, 128]
0	0xc10e54c6	-8.895697
1	0x41150fa9	9.316323
2	0xc11f0c1a	-9.9404545
3	0x410eccf1	8.9250345
4	0x4112ded8	9.179405
5	0x411198f8	9.099846
6	0x41166fab	9.402263
7	0x412e6685	10.900029
8	0x4108dd9e	8.554106
9	0xc109c17a	-8.6097355
10	0xc1069f5d	-8.413907
11	0xc1177a8c	-9.467419
12	0x40fe2d0c	7.942999
13	0xc106eb84	-8.432499
14	0x4100291a	8.010035
15	0x41104bbc	9.01849
16	0x40eeaf98	7.458935
17	0xc0f83e89	-7.7576337
18	0xc0d08af1	-6.5169606
19	0xc11b731c	-9.715603
20	0x41129bc1	9.163026
21	0xc100de41	-8.054261
22	0xc10ef6ec	-8.935284
23	0x41031c77	8.194449
24	0x411b4106	9.703375
25	0x4107607c	8.461056
26	0xc1050f73	-8.316272
27	0x4108ad0c	8.542248
28	0xc12af9d2	-10.685991
29	0xc108eefe	-8.558348
30	0x410cb596	8.7943325
31	0x410cb26e	8.793562
32	0x4109f3ec	8.622051
33	0xc117b0b0	-9.480637
34	0xc11a98a2	-9.662264
35	0x41089c9e	8.538237
36	0x4117e6f5	9.493886
37	0x4117fe27	9.499549
38	0xc1071cc0	-8.444519
39	0xc1103a8b	-9.014293
40	0x410afe2a	8.687052
41	0x411e4b06	9.893316
42	0x410e9822	8.912142
43	0xc101ba4c	-8.107983
44	0x40f53f35	7.6639657
45	0xc130bcfe	-11.046141
46	0xc115feca	-9.374704
47	0xc0fe07b0	-7.9384384
48	0x410bf590	8.747452
49	0x4104cb39	8.299615
50	0x4101933f	8.098449
51	0xc10b3570	-8.700546
52	0x4109805e	8.59384
53	0x4103ec47	8.245185
54	0x410a9de1	8.663545
55	0x411b3572	9.700548
56	0x410bdcc0	8.741394
57	0x411913d4	9.567341
58	0x40fde0d3	7.9336944
59	0x411096bf	9.036803
60	0xc110e56f	-9.056014
61	0xc1169f3d	-9.413877
62	0x4110ad7c	9.042355
63	0xc1093f29	-8.57792
64	0x410a67c2	8.6503315
65	0x410a9977	8.662467
66	0xc118f2f6	-9.559317
67	0xc10ee24e	-8.93025
68	0xc0d6635e	-6.69963
69	0xc110a636	-9.040579
70	0xc114af86	-9.292852
71	0xc120adad	-10.042401
72	0x411c6da4	9.776768
73	0xc1078510	-8.469986
74	0xc115d346	-9.36408
75	0x410b9d83	8.725955
76	0x4126dba0	10.428619
77	0x40efd8fd	7.495238
78	0xc1070fe9	-8.441384
79	0x410edc05	8.928716
80	0xc0fd9268	-7.924122
81	0xc10e868f	-8.907851
82	0xc10a7cd4	-8.655476
83	0x410107dc	8.064419
84	0xc107a48b	-8.477672
85	0x4111523a	9.082575
86	0xc11ecd7c	-9.925167
87	0x40f36331	7.6058583
88	0xc1034e1f	-8.206573
89	0x41060d7b	8.378291
90	0x4112c8dc	9.174038
91	0xc10d6d2a	-8.839151
92	0xc0dec56b	-6.961599
93	0x41188668	9.532814
94	0xc0f5b9a8	-7.678913
95	0x410dd84a	8.865305
96	0x411b7755	9.716634
97	0x40e90e69	7.283009
98	0x40de12d4	6.9397984
99	0xc112b2af	-9.168624
100	0x41197642	9.591372
101	0xc116339e	-9.387602
102	0xc1202666	-10.009375
103	0x40eb5f94	7.3554173
104	0x4116c27a	9.42248
105	0x410cc6d4	8.798542
106	0x4118d489	9.551888
107	0xc118ae4a	-9.542551
108	0xc11018a2	-9.006014
109	0xc123534a	-10.207834
110	0x40fedef3	7.9647155
111	0x410bc87e	8.736448
112	0xc1134329	-9.2038965
113	0x4112b87a	9.170038
114	0x410705bc	8.4389
115	0xc107f9e8	-8.498512
116	0x410b7786	8.716681
117	0x411acfae	9.675703
118	0xc10e91bd	-8.910581
119	0xc110147a	-9.004999
120	0xc1162769	-9.384622
121	0x41093640	8.575745
122	0x40f4abe4	7.6459827
123	0xc10d0fd0	-8.81636
124	0x41077cbe	8.467955
125	0x4112cd58	9.175133
126	0x40f93abb	7.7884192
127	0xc112cc69	-9.174905

exp_avg f4 [7]
0	0xbb19a6f7	-0.0023445466
1	0xba530bf4	-0.00080507924
2	0xb9fc1323	-0.00048079444
3	0xb9aa3785	-0.00032466292
4	0x3a7cfeda	0.0009651013
5	0xb98318d7	-0.00025004774
6	0x3b0c857a	0.0021441863

exp_avg_sq f4 [7]
0	0x3758aab2	1.2914346e-05
1	0x37665519	1.3728882e-05
2	0x37773616	1.473494e-05
3	0x37851d5e	1.586851e-05
4	0x37608aa4	1.338372e-05
5	0x377f4dec	1.5217327e-05
6	0x37585c61	1.2896112e-05

exp_avg f4 [128, 21]
0	0x38b55155	8.645902e-05
1	0xb8b74ec2	-8.74079e-05
2	0xba90f758	-0.0011060042
3	0xba977693	-0.0011555724
4	0xb8f410ab	-0.00011637931
5	0xb756a728	-1.2794313e-05
6	0x390f2c43	0.00013654031
7	0xb7322d1a	-1.0620128e-05
8	0x374a1d8e	1.20470195e-05
9	0xb72c8721	-1.0283461e-05
10	0xb5e7b690	-1.7263974e-06
11	0xb6b9289e	-5.518158e-06
12	0xb910b2b5	-0.00013799484
13	0xba8f14ba	-0.0010916211
14	0x37c8650c	2.3888912e-05
15	0x385be5a5	5.2427542e-05
16	0xb90114b2	-0.00012310108
17	0xba98fc6a	-0.0011671905
18	0xb8c0e3db	-9.197715e-05
19	0xb8542d46	-5.0586903e-05
20	0x3771501f	1.4383374e-05
21	0x375cd469	1.3162477e-05
22	0xb76b80eb	-1.4037108e-05
23	0xb978b985	-0.00023720234
24	0xb97f7ca6	-0.0002436513
25	0xb81b02c2	-3.6957448e-05
26	0xb815027c	-3.5526682e-05
27	0x374a8327	1.20706745e-05
28	0xb73a7819	-1.1114426e-05
29	0x3766b020	1.3750076e-05
30	0x368e3514	4.238109e-06
31	0xb72c47f5	-1.0268753e-05
32	0xb47acf0a	-2.3358385e-07
33	0xb7f3dc96	-2.9070576e-05
34	0xb97664eb	-0.00023497983
35	0xb7fe147f	-3.0288704e-05
36	0x3791ac83	1.7365679e-05
37	0xb8348d07	-4.3046686e-05
38	0xb974b7e5	-0.0002333816
39	0xb760bfad	-1.3396068e-05
40	0xb77c3838	-1.503346e-05
41	0x361524c1	2.2224124e-06
42	0xb35b4c25	-5.1059164e-08
43	0x35ce32c9	1.5362976e-06
44	0x37aacc11	2.0360605e-05
45	0x37ae7dd4	2.080101e-05
46	0x35bb3bd2	1.3949996e-06
47	0x35bbe32a	1.3998699e-06
48	0xb61393c7	-2.1990725e-06
49	0x35a120ea	1.2005014e-06
50	0xb5ab0649	-1.2742322e-06
51	0x34536492	1.9687494e-07
52	0xb4af51b2	-3.265573e-07
53	0xb3d328db	-9.832885e-08
54	0x361b28f1	2.312063e-06
55	0x37a5ca39	1.97637e-05
56	0x36c9e15a	6.016501e-06
57	0xb5d64080	-1.5963014e-06
58	0x35bde46e	1.4148079e-06
59	0x379f55c1	1.899421e-05
60	0xb34b0555	-4.726947e-08
61	0x35503e28	7.757649e-07
62	0xb5203b1f	-5.969068e-07
63	0x39228e6a	0.00015502577
64	0xb90c68c2	-0.00013390466
65	0xbaa00c93	-0.0012210779
66	0xbaa309e4	-0.0012438861
67	0x381af6c0	3.6946265e-05
68	0xb875762c	-5.8522608e-05
69	0x3995d60e	0.00028578978
70	0xb7440b64	-1.16851625e-05
71	0x37a8c2d6	2.0117888e-05
72	0xb80630f6	-3.1993688e-05
73	0x360c2b8c	2.0886973e-06
74	0x37a13da5	1.9221401e-05
75	0xb92108df	-0.00015357461
76	0xba9e1900	-0.0012061894
77	0x36c88d03	5.9768804e-06
78	0x37563a76	1.27690055e-05
79	0xb9da1bcf	-0.0004160092
80	0xbaa3492c	-0.001245772
81	0xb90e66b6	-0.00013580438
82	0xb7a500f6	-1.966998e-05
83	0x3779c894	1.4888257e-05
84	0x369412f7	4.4129515e-06
85	0xb70eef80	-8.5196225e-06
86	0xb8c9ba83	-9.6191674e-05
87	0xb8ceb203	-9.856003e-05
88	0xb72d1ef0	-1.0318807e-05
89	0xb6d16fbb	-6.2416925e-06
90	0x3738dac3	1.1018189e-05
91	0xb674757a	-3.6427214e-06
92	0x369120b3	4.3251434e-06
93	0x35c3bf59	1.4584322e-06
94	0xb63b4422	-2.790483e-06
95	0x35728a7c	9.0353547e-07
96	0xb7519413	-1.2491847e-05
97	0xb8c6a237	-9.4715906e-05
98	0xb763822c	-1.3560562e-05
99	0x37085e19	8.1281405e-06
100	0xb7b8e924	-2.2043074e-05
101	0xb8c53c4c	-9.404923e-05
102	0xb66b834e	-3.5094158e-06
103	0xb6854929	-3.972226e-06
104	0x35c61341	1.4757753e-06
105	0x388a22f7	6.5868655e-05
106	0xb8510287	-4.9831837e-05
107	0xba1ee481	-0.00060612714
108	0xba2321ad	-0.00062229746
109	0xb8da4c8c	-0.00010409308
110	0x3816b406	3.5930447e-05
111	0x3839fc11	4.4342192e-05
112	0xb844a421	-4.68829e-05
113	0x3830bb44	4.2136075e-05
114	0xb76b447c	-1.4023037e-05
115	0x38575e15	5.1347615e-05
116	0xb6a07917	-4.7824683e-06
117	0xb888368c	-6.4951455e-05
118	0xba174ef9	-0.0005771961
119	0xb82128a7	-3.842325e-05
120	0xb73fe334	-1.1437387e-05
121	0x372d0645	1.0313063e-05
122	0xba26fa15	-0.00063696626
123	0xb8942a89	-7.065113e-05
124	0xb77daa58	-1.5119636e-05
125	0x37f2b174	2.8931281e-05
126	0xb8fe70ed	-0.00012132698
127	0xb95b4841	-0.00020912384
128	0xbb36d00a	-0.0027894997
129	0xbb33ad0d	-0.0027416379
130	0xb9b8e2a4	-0.00035264075
131	0x3949f17c	0.00019258814
132	0x39c82814	0.00038176833
133	0xb929ed0a	-0.000162054
134	0x3934ea93	0.00017253523
135	0x387428f1	5.8212263e-05
136	0xb88438a4	-6.3048006e-05
137	0xb7c670a9	-2.36559e-05
138	0xb996fe0c	-0.0002879951
139	0xbb29fb4b	-0.0025937136
140	0xb8adbcee	-8.284474e-05
141	0x391fc6b3	0.00015237443
142	0xb9ec8d3d	-0.00045118658
143	0xbb34fd5d	-0.0027616837
144	0x38ccd4c5	9.7671094e-05
145	0xb8a567aa	-7.887122e-05
146	0x394d4c06	0.00019578644
147	0xb83123d0	-4.223344e-05
148	0x393837bf	0.00017568374
149	0x3ae7456e	0.0017644593
150	0x3aecbd61	0.001806181
151	0x38a19e2e	7.7065415e-05
152	0xb68ce78d	-4.199281e-06
153	0xb9837294	-0.00025071634
154	0x38890272	6.5331245e-05
155	0xb89696d0	-7.1806484e-05
156	0xb58b79d7	-1.0391767e-06
157	0x37504d8a	1.241582e-05
158	0x365f4b6a	3.3273486e-06
159	0x39645f56	0.0002177929
160	0x3adeb6a5	0.0016991688
161	0x392a50ef	0.00016242613
162	0xb86316cc	-5.414225e-05
163	0x39ed0032	0.00045204308
164	0x3ae2868f	0.0017282533
165	0x383f188b	4.5560806e-05
166	0x38309e6f	4.2109223e-05
167	0xb888ec86	-6.529041e-05
168	0x37c3acdf	2.332631e-05
169	0xb7e7ba3c	-2.7624068e-05
170	0xb9a325b9	-0.00031117888
171	0xb9990d6e	-0.0002919244
172	0x38cf8081	9.894465e-05
173	0x36b92a71	5.5183705e-06
174	0x3915715f	0.00014251981
175	0xb789df85	-1.6435757e-05
176	0x37a4afe9	1.9632238e-05
177	0xb7a85832	-2.006823e-05
178	0x37aa954c	2.0335101e-05
179	0x37331637	1.0674404e-05
180	0xb7ec22f5	-2.814967e-05
181	0xb996d0bb	-0.00028765746
182	0xb8bc57e0	-8.9809066e-05
183	0xb85d237b	-5.272355e-05
184	0xb9551a35	-0.00020323026
185	0xb9872ea5	-0.0002578396
186	0xb7544397	-1.2651922e-05
187	0xb50d15cd	-5.255832e-07
188	0x37c55036	2.3521581e-05
189	0xb80ba617	-3.3294866e-05
190	0x383b4c95	4.4655597e-05
191	0xba274210	-0.00063803885
192	0xba1cfd8f	-0.0005988711
193	0xb9a89252	-0.00032152474
194	0xb81d9455	-3.7569862e-05
195	0x3774c613	1.4589651e-05
196	0xb891f034	-6.95888e-05
197	0x3896a1bf	7.182685e-05
198	0xb6b36321	-5.346156e-06
199	0x3756841d	1.2786154e-05
200	0xb73e2929	-1.1334466e-05
201	0xb7f55228	-2.9244533e-05
202	0xba1e0164	-0.0006027429
203	0xb7681f6c	-1.3835594e-05
204	0x38af877f	8.3698884e-05
205	0x391015eb	0.00013741075
206	0xba33b4fe	-0.0006855278
207	0x37b83787	2.1960366e-05
208	0xb89afada	-7.390017e-05
209	0x38140aa8	3.5295874e-05
210	0xb917cb46	-0.00014476207
211	0x3992f90b	0.00028032842
212	0x3b59d2bb	0.0033237177
213	0x3b5b0919	0.003342217
214	0x39b47c21	0.0003442476
215	0x39175874	0.00014433434
216	0xba0d95ef	-0.0005401065
217	0x390e663c	0.0001358026
218	0xb930d4b0	-0.000168639
219	0xb7e0013b	-2.6703454e-05
220	0x39211b45	0.00015364315
221	0xb8238332	-3.8984414e-05
222	0x39df2ba3	0.00042566386
223	0x3b538fea	0.0032281824
224	0x39b7d49e	0.00035062892
225	0xb89fa0ba	-7.6116485e-05
226	0x3a778a72	0.0009442932
227	0x3b4f9382	0.0031673615
228	0x38ddd4fa	0.00010577771
229	0x39186518	0.0001453351
230	0xb8c85af0	-9.5536816e-05
231	0x3818117b	3.6255904e-05
232	0x389ff384	7.627069e-05
233	0x39fec2f8	0.00048591918
234	0x39fffbb5	0.00048824926
235	0x38c2d916	9.291076e-05
236	0xb83cc19a	-4.5003e-05
237	0xb8aa3671	-8.116372e-05
238	0x3809d97b	3.286589e-05
239	0xb800fe9c	-3.07547e-05
240	0xb89ac3c9	-7.37976e-05
241	0x38882245	6.4913685e-05
242	0x36e35038	6.774466e-06
243	0x38729130	5.7832513e-05
244	0x39ec6e41	0.00045095573
245	0xb91e54e8	-0.00015099684
246	0xb894d836	-7.0974624e-05
247	0x386e25d9	5.677887e-05
248	0x3a151205	0.0005686584
249	0xb7f74ed8	-2.9481409e-05
250	0xb79aaba9	-1.8438166e-05
251	0xb812a59c	-3.496335e-05
252	0xb93649a5	-0.00017384307
253	0x39912916	0.00027687167
254	0x3b5ea715	0.00339741
255	0x3b68e4dd	0.0035536804

exp_avg_sq f4 [128, 21]
0	0x346c36f1	2.19992e-07
1	0x360ad375	2.0686687e-06
2	0x38909789	6.894681e-05
3	0x38979f59	7.229922e-05
4	0x35ec3a63	1.7600363e-06
5	0x35a8d087	1.2577665e-06
6	0x35ac2ba8	1.2827704e-06
7	0x33b577e4	8.450277e-08
8	0x33b14133	8.2540645e-08
9	0x3385f6f3	6.238215e-08
10	0x338057c2	5.9764275e-08
11	0x326659a6	1.3408146e-08
12	0x35b1828d	1.3225523e-06
13	0x3887f630	6.4831576e-05
14	0x3598b492	1.1377435e-06
15	0x33a16891	7.516167e-08
16	0x3605bd89	1.9928868e-06
17	0x389a50d0	7.358345e-05
18	0x34888b17	2.5433175e-07
19	0x348c8461	2.617335e-07
20	0x33c993b0	9.386656e-08
21	0x3281008b	1.5017823e-08
22	0x334bcc48	4.7450413e-08
23	0x3636388f	2.7153035e-06
24	0x364507cb	2.9359824e-06
25	0x33b8f04b	8.611877e-08
26	0x32eb8f4d	2.7422766e-08
27	0x33154367	3.4753068e-08
28	0x3168f80e	3.3901446e-09
29	0x316874d8	3.3826861e-09
30	0x31337809	2.611616e-09
31	0x3124a08a	2.3956397e-09
32	0x30a0429a	1.1660461e-09
33	0x337b5145	5.8514406e-08
34	0x362e91d3	2.6012901e-06
35	0x34accfa5	3.2188578e-07
36	0x332dc2fb	4.0457035e-08
37	0x3394894d	6.916762e-08
38	0x3634a927	2.692055e-06
39	0x328cd7f4	1.639635e-08
40	0x31efde70	6.9811037e-09
41	0x315080db	3.034123e-09
42	0x2db1f718	2.0232302e-11
43	0x2ea2a8e3	7.3969074e-11
44	0x319bb1a7	4.5312905e-09
45	0x31a83275	4.89518e-09
46	0x2eb2f0f0	8.137302e-11
47	0x2e1709c7	3.434211e-11
48	0x2e9343a4	6.6968014e-11
49	0x2cc417e2	5.5733066e-12
50	0x2cc44168	5.5779166e-12
51	0x2c93bde9	4.1990755e-12
52	0x2c8b28c9	3.9551457e-12
53	0x2bc2e49c	1.3847981e-12
54	0x2ec08944	8.7555324e-11
55	0x319384d7	4.293365e-09
56	0x2fe82049	4.2223494e-10
57	0x2e97d288	6.904083e-11
58	0x2e7fd630	5.8170524e-11
59	0x319abf07	4.503707e-09
60	0x2dbdb927	2.1569036e-11
61	0x2d1e9877	9.015114e-12
62	0x2ce2ee81	6.4497856e-12
63	0x34e5dcf8	4.281535e-07
64	0x35cf8116	1.5460271e-06
65	0x38c78c1a	9.5151554e-05
66	0x38d13481	9.975676e-05
67	0x35cec5df	1.5405784e-06
68	0x350a012f	5.141073e-07
69	0x35f17fee	1.7993132e-06
70	0x33f006df	1.1177121e-07
71	0x33eb3e5f	1.09543855e-07
72	0x33a58443	7.7074695e-08
73	0x339d082e	7.31237e-08
74	0x32ca8e31	2.3580556e-08
75	0x35e6555b	1.7161177e-06
76	0x38b79d41	8.755411e-05
77	0x36d3f392	6.3166453e-06
78	0x351c44b8	5.821453e-07
79	0x35e7aad2	1.7260556e-06
80	0x38c8a01f	9.566568e-05
81	0x34da9a29	4.071783e-07
82	0x34896e1a	2.5598348e-07
83	0x34806360	2.3914163e-07
84	0x30a7107b	1.2155533e-09
85	0x314787ed	2.9035576e-09
86	0x34400206	1.788213e-07
87	0x344f167d	1.9286558e-07
88	0x316ec846	3.47474e-09
89	0x30a4b9ca	1.1985375e-09
90	0x314021dc	2.7958924e-09
91	0x2f70b837	2.1893319e-10
92	0x2f70352a	2.184676e-10
93	0x2f3ee5be	1.736202e-10
94	0x2f3b6fb8	1.7047241e-10
95	0x2f113d28	1.32094e-10
96	0x3162dc69	3.3012617e-09
97	0x3435b4a6	1.6922658e-07
98	0x32394e38	1.0786202e-08
99	0x32873eaa	1.5744565e-08
100	0x31729aef	3.5303704e-09
101	0x34384c50	1.7164098e-07
102	0x30743bc2	8.8851604e-10
103	0x2fb11728	3.2212566e-10
104	0x2f8f0005	2.6011562e-10
105	0x3414f13f	1.3871339e-07
106	0x3580dde3	9.601321e-07
107	0x38082b4b	3.2465246e-05
108	0x38105460	3.4410856e-05
109	0x35939f36	1.099869e-06
110	0x3523998f	6.094569e-07
111	0x351084d7	5.383749e-07
112	0x3321d628	3.7680508e-08
113	0x331eef39	3.7004813e-08
114	0x3303c05d	3.0675768e-08
115	0x32f7b46b	2.8836629e-08
116	0x322484cb	9.57625e-09
117	0x352fc3ab	6.5477315e-07
118	0x38020ca2	3.100618e-05
119	0x34c50b3b	3.670228e-07
120	0x33ab858d	7.987101e-08
121	0x358f697e	1.0685033e-06
122	0x38137f3a	3.516602e-05
123	0x3436d7da	1.7028597e-07
124	0x3415d313	1.3953495e-07
125	0x32fe7aff	2.9625424e-08
126	0x350b138e	5.180999e-07
127	0x35f7abf8	1.8452984e-06
128	0x38fa0eed	0.00011923709
129	0x3905634a	0.00012720856
130	0x3644c4e4	2.9320881e-06
131	0x3557bb6a	8.0366465e-07
132	0x35ec7046	1.7616046e-06
133	0x34101191	1.3417436e-07
134	0x3410b4a6	1.3476765e-07
135	0x3401cdab	1.2088883e-07
136	0x33e99a18	1.08779375e-07
137	0x33132b2e	3.4265376e-08
138	0x360ae1b9	2.069499e-06
139	0x38eb86a1	0.0001123075
140	0x366bf0eb	3.5157962e-06
141	0x354d3776	7.644916e-07
142	0x3642a587	2.9004602e-06
143	0x390400f8	0.00012588862
144	0x35229e6c	6.0580237e-07
145	0x34673ad1	2.1534949e-07
146	0x34551bd6	1.9847297e-07
147	0x34134832	1.3716706e-07
148	0x35302722	6.5622055e-07
149	0x38130de9	3.5060486e-05
150	0x381c8648	3.7318357e-05
151	0x35610a7e	8.38343e-07
152	0x34a8cfd5	3.1443656e-07
153	0x351093cd	5.385926e-07
154	0x33393506	4.3121894e-08
155	0x33375748	4.268739e-08
156	0x330688b9	3.1323655e-08
157	0x32f92fda	2.9009176e-08
158	0x3223c701	9.533097e-09
159	0x352a3515	6.340718e-07
160	0x380a7ad9	3.3016175e-05
161	0x35c1fff3	1.4454112e-06
162	0x352334d3	6.07991e-07
163	0x356e4713	8.8765336e-07
164	0x381742c6	3.6063393e-05
165	0x340c9e12	1.3096022e-07
166	0x33a97d2d	7.892445e-08
167	0x336d5619	5.5259168e-08
168	0x34845eb2	2.4655816e-07
169	0x36423aee	2.8942554e-06
170	0x38b0db66	8.4332e-05
171	0x38b99da7	8.8508525e-05
172	0x3629af6c	2.5285071e-06
173	0x35ebb810	1.7562434e-06
174	0x35d1265d	1.5582879e-06
175	0x33e00aa9	1.0432752e-07
176	0x33dbd9cc	1.0237599e-07
177	0x3399e971	7.1670804e-08
178	0x33931bba	6.8502644e-08
179	0x328d2d1f	1.6435079e-08
180	0x35d9a50f	1.6215798e-06
181	0x38a732c0	7.9726335e-05
182	0x35b0275e	1.3124479e-06
183	0x347fcc19	2.3822976e-07
184	0x3646bd77	2.9614582e-06
185	0x38bc993f	8.993083e-05
186	0x34a64a96	3.0974178e-07
187	0x34dc4a9c	4.103248e-07
188	0x33d7e65a	1.00536184e-07
189	0x349a8981	2.8784783e-07
190	0x35f3634d	1.8133811e-06
191	0x38998ee6	7.3222254e-05
192	0x38a3dcf9	7.813605e-05
193	0x35fc6a2a	1.8806361e-06
194	0x356c6ccf	8.807519e-07
195	0x3592c5e3	1.093544e-06
196	0x33bd8386	8.824922e-08
197	0x33b9be54	8.649354e-08
198	0x338a1c18	6.431236e-08
199	0x337720cf	5.753901e-08
200	0x329bc91f	1.8135834e-08
201	0x35cb722f	1.515791e-06
202	0x389198d7	6.9426074e-05
203	0x365c00d7	3.2783043e-06
204	0x345fe2e1	2.0851031e-07
205	0x36086b83	2.032816e-06
206	0x38a04c55	7.6436125e-05
207	0x34b4284a	3.3556927e-07
208	0x347bb790	2.3442976e-07
209	0x33bcbcf3	8.788802e-08
210	0x35c19ca7	1.4425212e-06
211	0x3654b4a0	3.16956e-06
212	0x394a8b00	0.00019316003
213	0x3959f25e	0.00020785021
214	0x3680f391	3.843052e-06
215	0x35b5743c	1.351938e-06
216	0x364ebdb7	3.080682e-06
217	0x345ce5bb	2.0572672e-07
218	0x345957f4	2.0241697e-07
219	0x346c7929	2.202329e-07
220	0x34555a65	1.9870056e-07
221	0x33935568	6.860756e-08
222	0x36716cc9	3.597512e-06
223	0x393f9d8a	0.00018273867
224	0x37150aed	8.883636e-06
225	0x360bdf8c	2.0842735e-06
226	0x36a25c4c	4.838721e-06
227	0x395180dd	0.00019979799
228	0x35b3577a	1.3361998e-06
229	0x34f41333	4.546251e-07
230	0x34a763c4	3.1178763e-07
231	0x33b2cae3	8.325676e-08
232	0x34af4a7f	3.2650493e-07
233	0x37b76dd3	2.186644e-05
234	0x37c4cd82	2.3460718e-05
235	0x34fddf77	4.7287514e-07
236	0x34136f8d	1.3731024e-07
237	0x349e7e16	2.9521533e-07
238	0x32d20d0a	2.4453147e-08
239	0x32ce5765	2.4021299e-08
240	0x32a9c5c9	1.9764132e-08
241	0x328c4e83	1.6333848e-08
242	0x31da4f23	6.353632e-09
243	0x34dd349c	4.1202736e-07
244	0x37ad2883	2.0642072e-05
245	0x358dbb01	1.0559744e-06
246	0x334ec26d	4.8139942e-08
247	0x34c106b9	3.5953943e-07
248	0x37be95af	2.2719467e-05
249	0x33c13636	8.997124e-08
250	0x33685a1c	5.4098663e-08
251	0x33100c49	3.3538786e-08
252	0x3567ee59	8.640105e-07
253	0x3615b20e	2.2306372e-06
254	0x39290227	0.00016117898
255	0x3935dc3b	0.00017343547

exp_avg f4 [128]
0	0xba9b20c8	-0.0011835331
1	0xb98525a2	-0.00025395775
2	0x37b32e21	2.1359943e-05
3	0xbaab335e	-0.0013061573
4	0xb8d63929	-0.00010214962
5	0xba24d443	-0.0006287733
6	0xbb38168b	-0.0028089609
7	0x3af15b72	0.0018414094
8	0xb9a499ac	-0.00031395012
9	0xba2a2d02	-0.0006491692
10	0x3b64de56	0.0034922562
11	0x39fe76f5	0.00048535285
12	0x3b6e688f	0.003637824
13	0x3c1a0579	0.009400719
14	0x3866487e	5.4903787e-05
15	0xbc30fd3d	-0.010802564
16	0xbb3e311f	-0.0029020978
17	0xba41d2ba	-0.00073937664
18	0xb802961f	-3.1134226e-05
19	0x3be777de	0.00706385
20	0xb8bd08f5	-9.013891e-05
21	0x380dfe9a	3.3854136e-05
22	0xba430aa9	-0.0007440248
23	0xbbbd6b80	-0.0057806373
24	0xb9c6a92f	-0.00037891555
25	0x3a023b7b	0.000496797
26	0xbb7b2668	-0.0038322452
27	0x3ab95923	0.0014140945
28	0xbb293c14	-0.0025823163
29	0x390b1dc9	0.00013267169
30	0x3af78484	0.0018884097
31	0xbb0843f9	-0.0020792468
32	0x3a7557de	0.00093591015
33	0xba59b598	-0.00083049526
34	0x386641e5	5.4897642e-05
35	0xb7d04937	-2.4829626e-05
36	0xb5cffd15	-1.5496358e-06
37	0x3b2dc38e	0.0026514265
38	0xb9df9124	-0.00042642013
39	0x3bc9ed73	0.0061623394
40	0x3b2bfb25	0.0026242223
41	0x3b86a339	0.004108813
42	0xb9ced045	-0.00039446555
43	0xbaac47b6	-0.001314393
44	0x3ac34533	0.0014897942
45	0xba5c61fa	-0.00084069336
46	0xbaeb1ab5	-0.0017937036
47	0x39ea299a	0.00044662954
48	0x38c6eaac	9.485087e-05
49	0xb9ea2bb4	-0.0004466452
50	0xbb2cbfb2	-0.0026359376
51	0xb905ed14	-0.00012772187
52	0x34c45ddb	3.6576134e-07
53	0xba5d9a54	-0.00084534776
54	0xbb4e0fc8	-0.0031442512
55	0xbbc54e2a	-0.006021281
56	0x38cd26e7	9.782408e-05
57	0x3ac646b4	0.0015127272
58	0x397593a6	0.00023420024
59	0xb99f8407	-0.0003042521
60	0xbab1e9c6	-0.0013573698
61	0x3accd562	0.0015627558
62	0x3ae95167	0.0017800749
63	0xba8c0db2	-0.0010685234
64	0x3c0408b6	0.0080587175
65	0xbaeb6441	-0.0017958955
66	0xbb324b10	-0.0027205385
67	0xb9b01bbb	-0.00033589997
68	0xbab9a9d4	-0.0014164993
69	0x3bd6c393	0.006554076
70	0x3904fd8f	0.00012682959
71	0xbb825f4b	-0.003978645
72	0xbb1119de	-0.0022140662
73	0x3a453bca	0.0007523863
74	0xba90f539	-0.001105941
75	0xb9e1e206	-0.00043083745
76	0x3b269f33	0.002542448
77	0x3708fd75	8.165244e-06
78	0x3a612d66	0.0008589834
79	0x39a31cc6	0.0003111122
80	0xbb402e0a	-0.0029324316
81	0xbbbe1132	-0.0058003897
82	0x39c1fcd4	0.000370002
83	0x39a9918f	0.00032342641
84	0x37ed2a0d	2.8272183e-05
85	0xb9fb4a40	-0.0004792977
86	0xb893a008	-7.0393144e-05
87	0xba1d4532	-0.00059993856
88	0xba5d2b1a	-0.00084369036
89	0x3aa73ca9	0.0012759167
90	0x39c27078	0.0003708636
91	0xb83d650c	-4.515522e-05
92	0xb9e49094	-0.00043595268
93	0xb941b090	-0.00018471689
94	0xbb14b57a	-0.0022691176
95	0xbb6773b1	-0.003531676
96	0xbbcfd04c	-0.0063419696
97	0xbacd6677	-0.0015670796
98	0x39b807d4	0.00035101047
99	0xbb3db3d3	-0.0028946295
100	0xbbd8a972	-0.0066119963
101	0xb80be0c1	-3.33495e-05
102	0xb98dd0a7	-0.00027049074
103	0x3b45b026	0.0030164807
104	0x3b0d41df	0.0021554155
105	0xbb110748	-0.0022129584
106	0xb994cbfe	-0.00028380746
107	0x3bd2fd7d	0.0064389096
108	0xbab6bdfd	-0.0013942119
109	0xba764b66	-0.00093953905
110	0xbba129e0	-0.004918322
111	0xb9de46fa	-0.0004239602
112	0x35cb3c05	1.5142147e-06
113	0x3b19fbcf	0.0023496037
114	0xba5c22e3	-0.00083975325
115	0x3905d0d6	0.00012761666
116	0x3a2ef496	0.00066740194
117	0x3857b200	5.142577e-05
118	0x3aea64a8	0.0017882781
119	0x3bb86d8a	0.0056282924
120	0xba20af8b	-0.00061296736
121	0x3b1133fd	0.0022156232
122	0xb896fc6a	-7.199573e-05
123	0x3a5669e1	0.00081792293
124	0x3b95b7af	0.004569016
125	0x3b8a4dd7	0.004220705
126	0x3ade8227	0.0016976044
127	0x3bcf2b75	0.006322319
