models/checkpoint_1000.pth (torch, 255274 bytes, 24 tensors)

policy_log_std f4 [7]
0.6788619 0.9800858 0.9257843 0.6270108 0.95392305 0.8974601 -2.7290933
00000000: e5c9 2d3f e7e6 7a3f 3300 6d3f c883 203f
00000010: 4d34 743f f2bf 653f 77a9 2ec0

fc1.weight f4 [128, 21]
-1.2679491 1.0132569 -0.059920397 -0.2342186 0.07522848 -0.060652286 -0.8797321 -0.8204255
0.9512725 -0.044822592 0.17893909 1.0908725 0.08250686 -0.32130432 0.0026124793 1.1817448
-1.5096357 0.035685748 2.2185447 -1.3495098 -1.5618942 2.0084794 -0.13252208 0.4389555
0.1796482 -0.5607072 -1.4641881 -0.5421648 -0.65023524 -0.06731238 -0.63908327 0.65073043
1.1189271 0.41436177 0.5486866 0.10088904 -0.112890534 0.35805216 0.323016 -1.342284
1.2535304 -1.6109787 -0.24736689 -0.6751951 0.661254 0.28296363 1.1274871 -0.78010046
-0.6110106 0.33060446 0.17578864 0.26492283 -0.055100866 0.4359306 0.37976417 0.7909202
0.36997363 0.44656175 0.50003403 0.7508531 0.41022876 0.08181355 0.45993716 -1.6704944
0.017963525 0.22892398 -0.29942164 -0.35483566 0.43290132 -0.23097666 -1.0565319 0.67512333
0.0857749 -0.013130269 1.034352 -0.535617 -0.23474434 -0.943387 0.84029585 -0.6971165
0.02938048 3.7301795 -1.3906116 -1.066426 0.67215073 -0.79203594 0.32061923 0.22684188
0.2031353 -0.546409 -0.7206757 -0.19278654 -0.7257399 0.8631774 -0.9466419 4.3147187
0.777787 0.10395613 -0.042043388 0.8474378 -1.3656274 0.25070742 1.530931 2.0803704
-1.6986469 1.9862027 -1.0628837 -0.021153081 0.14665657 -0.5946327 -1.8268235 0.15243968
0.7833508 0.20407188 0.4962331 -0.4998128 -0.7058677 -0.48212072 -0.1464488 -0.64439994
-1.9917152 -0.49961412 -0.028833633 -2.5884852 2.0690694 -1.3408935 0.29105854 0.60904545
-0.5011873 0.5651873 0.1989174 0.98056126 -0.32867745 0.64863855 -0.89756304 -0.1685572
-0.056816645 -0.7809849 -0.47956383 0.18955258 0.06690047 -0.39660785 0.48559466 -0.16512942
-0.79694057 -1.5944258 6.167512 0.20172633 -0.9918215 0.20806006 -0.019529426 -1.2115281
-1.577196 0.6224755 -1.8974427 1.9631718 0.14233422 -0.15569742 2.6815765 0.9635344
0.25600213 0.75033456 0.91939 0.0021601054 0.26502815 0.5503232 2.0171077 -0.5835593
1.5011408 -1.7331266 0.16957925 0.45079392 -0.388439 0.0201435 0.3274232 0.51176566
-0.3759693 -0.5215817 0.6464979 -0.42810556 -0.06388991 -0.017165469 0.018033404 -0.42434263
0.697531 0.20909293 -1.1724715 2.2517998 0.75414526 -2.3416417 0.5033884 0.030035455
-0.25326687 -0.9163562 -0.41058835 -0.525449 -0.39025146 0.63193595 -0.032628097 0.16167799
3.461903 0.3992289 0.04340064 0.31363696 0.9351288 0.061482284 0.028759472 4.784523
0.82044363 3.729619 -0.7734666 1.7748381 -0.039222427 -0.17020173 -0.31576574 0.786699
-1.0162712 0.35668257 -0.67712855 -0.1811632 -0.029725632 0.07430017 0.9257444 -0.12673242
-0.52995586 -0.60025 -0.8675165 -0.17100361 0.5424873 -0.8754002 -5.02187 -0.9109645
1.1803112 0.23493816 -0.55085814 -0.97003067 1.3477931 0.63105637 -0.25132278 -0.1656879
-0.073585324 -0.08126805 4.5644903 0.267099 0.021158144 -0.26919496 0.9190681 0.039619386
-0.11718541 3.9448311 -1.390022 6.513703 -0.18777877 -0.18012813 -0.073738225 0.38376075
00000000: 284c a2bf 67b2 813f 176f 75bd 00d7 6fbe
00000010: 6411 9a3d 886e 78bd 1f36 61bf 6807 52bf
00000020: 9886 733f e597 37bd cf3b 373e b6a1 8b3f
00000030: 5bf9 a83d 0082 a4be 2136 2b3b 6a43 973f
00000040: be3b c1bf 382b 123d a3fc 0d40 bdbc acbf
00000050: 26ec c7bf ed8a 0040 deb3 07be c6be e03e
00000060: b3f5 373e 828a 0fbf 846a bbbf 50cb 0abf
00000070: d175 26bf 13db 89bd f69a 23bf 4596 263f
00000080: 0139 8f3f 3a27 d43e ba76 0c3f ea9e ce3d
00000090: 2733 e7bd 9d52 b73e 5a62 a53e f6cf abbf
000000a0: af73 a03f 8d34 cebf bf4d 7dbe 96d9 2cbf
000000b0: f147 293f 9ce0 903e 7f51 903f aab4 47bf
000000c0: 316b 1cbf fd44 a93e f001 343e f7a3 873e
000000d0: 72b1 61bd 4c32 df3e 7370 c23e bf79 4a3f
000000e0: 2f6d bd3e bea3 e43e 3b02 003f e937 403f
000000f0: 8109 d23e dd8d a73d e27c eb3e c3d2 d5bf
00000100: 3e28 933c 0c6b 6a3e cb4d 99be 05ad b5be
00000110: 3ea5 dd3e 2585 6cbe 703c 87bf e2d4 2c3f
00000120: c0aa af3d 5720 57bc a565 843f 321e 09bf
00000130: d260 70be cf81 71bf a11d 573f 3a76 32bf
00000140: 55af f03c 43bb 6e40 90ff b1bf a680 88bf
00000150: 1212 2c3f dec2 4abf 3428 a43e 3d49 683e
00000160: b302 503e 76e1 0bbf 347e 38bf d669 45be
00000170: 17ca 39bf 32f9 5c3f 2057 72bf 2d12 8a40
00000180: 0d1d 473f f4e6 d43d b035 2cbd aff1 583f
00000190: e1cc aebf b95c 803e 8cf5 c33f ca24 0540
000001a0: 436d d9bf e43b fe3f 930c 88bf 3a49 adbc
000001b0: 242d 163e d939 18bf 5ad5 e9bf 2619 1c3e
000001c0: ae89 483f 38f8 503e 4412 fe3e 77e7 ffbe
000001d0: bfb3 34bf 87d8 f6be adf6 15be 65f7 24bf
000001e0: 86f0 febf 6ccd ffbe 8334 ecbc bea9 25c0
000001f0: a26b 0440 66a2 abbf a005 953e 67ea 1b3f
00000200: d04d 00bf 1db0 103f 01b1 4b3e 1006 7b3f
00000210: 6948 a8be 2d0d 263f b1c6 65bf 429a 2cbe
00000220: 92b8 68bd a0ee 47bf 6489 f5be 121a 423e
00000230: 1d03 893d 2f10 cbbe dd9f f83e b017 29be
00000240: 4c04 4cbf 2516 ccbf 425c c540 5991 4e3e
00000250: 04e8 7dbf b20d 553e 2dfc 9fbc 5a13 9bbf
00000260: 8fe1 c9bf 8e5a 1f3f 67df f2bf 3749 fb3f
00000270: 10c0 113e 256f 1fbe f39e 2b40 31aa 763f
00000280: b612 833e ed15 403f 255d 6b3f 8e90 0d3b
00000290: c5b1 873e fbe1 0c3f 4b18 0140 2464 15bf
000002a0: 6225 c03f 18d7 ddbf 2fa6 2d3e 76ce e63e
000002b0: 7ae1 c6be fb03 a53c 03a4 a73e 1303 033f
000002c0: 0c7f c0be 6186 05bf e380 253f a730 dbbe
000002d0: b7d8 82bd 999e 8cbc caba 933c 7043 d9be
000002e0: 6491 323f 751c 563e 8c13 96bf 7d1d 1040
000002f0: aa0f 413f 75dd 15c0 10de 003f ea0c f63c
00000300: 32ac 81be 5296 6abf a338 d2be d383 06bf
00000310: 0acf c7be 8ec6 213f 0aa5 05bd ea8e 253e
00000320: d28f 5d40 bb67 cc3e dfc4 313d 0695 a03e
00000330: 9a64 6f3f d9d4 7b3d fc98 eb3c d01a 9940
00000340: 9808 523f 14b2 6e40 e801 46bf e52d e33f
00000350: b2a7 20bd 5d49 2ebe 0cac a1be 1b65 493f
00000360: 2d15 82bf 199f b63e 4c58 2dbf d982 39be
00000370: 2b83 f3bc b02a 983d 96fd 6c3f 25c6 01be
00000380: 30ab 07bf fca9 19bf 9015 5ebf 921b 2fbe
00000390: 73e0 0a3f 3a1a 60bf 29b3 a0c0 f834 69bf
000003a0: 7014 973f a193 703e 0a05 0dbf ee53 78bf
000003b0: 7c84 ac3f e98c 213f 61ad 80be 17aa 29be
000003c0: e7b3 96bd dd6f a6bd 4e10 9240 33c1 883e
000003d0: d853 ad3c ecd3 89be 0c48 6b3f f047 223d
000003e0: e7fe efbd 1d78 7c40 3eec b1bf 4170 d040
000003f0: 1449 40be 8273 38be 1104 97bd 4a7c c43e

fc1.bias f4 [128]
-0.29335567 0.37812236 0.6028867 0.043577094 0.12258184 0.025057603 0.11469845 0.12906776
0.23104972 0.20890458 -0.15250725 0.19055331 0.24954446 0.082063206 -0.46462488 -0.122883126
-9.044686e-05 0.1733158 -0.036435314 0.10037102 -0.69500464 -0.10147555 -0.22662438 -0.021816647
0.09508477 0.29620755 -0.110684186 0.11710744 0.3140244 -0.20668286 0.27057898 0.034858428
-0.15692137 -0.009163889 0.44752485 0.12406592 0.05127233 0.0446229 0.06485657 -0.00785447
-0.0660489 -0.15883595 -0.10925883 -0.14059378 -0.08474194 0.09525613 -0.051046807 0.46093592
0.21102498 0.102667 -0.013801506 0.22712016 0.02784584 -0.5810767 -0.07571645 0.2444713
-0.016913444 -0.11175738 -0.027235942 -0.5973644 0.08163628 -0.12767546 0.044861954 0.06236205
0.099786624 -0.3809908 0.02163396 -0.33751595 -0.085574076 0.00021005262 -0.064102 0.11938778
0.35498238 0.38474244 -0.14655617 0.13191769 -0.022836754 -0.24295501 0.15927328 -0.26413044
0.08781664 -0.033527203 -0.015450194 -0.13851766 0.63510275 -0.5279729 -0.014494777 -0.076337144
-0.25926483 -0.0022537163 -0.25628254 0.026390847 -0.077939376 0.13478191 -0.26593682 0.28429812
-0.13286428 0.02313368 0.18148936 -0.25415406 -0.26961878 -0.4034406 -0.19186974 0.12594938
0.026709044 0.029288203 0.25393862 -0.083154984 0.1750093 -0.16285014 -0.25983799 -0.09282756
0.14404681 -0.093421146 0.10822179 -0.29893383 0.22728473 -0.37000144 0.20066713 0.09551244
-0.2083786 -0.002197894 0.09844536 0.04831663 -0.033560183 0.021247448 0.29216266 0.3491575
00000000: b732 96be 4199 c13e c856 1a3f e57d 323d
00000010: 300c fb3d 9a45 cd3c 05e7 ea3d 572a 043e
00000020: 4c98 6c3e 15eb 553e dc2a 1cbe 6820 433e
00000030: 9588 7f3e c110 a83d 50e3 edbe 26aa fbbd
00000040: 4aae bdb8 b279 313e 323d 15bd 528f cd3d
00000050: d3eb 31bf 6ad2 cfbd 3910 68be d3b8 b2bc
00000060: cebb c23d 84a8 973e 64ae e2bd 07d6 ef3d
00000070: cec7 a03e aca4 53be 5489 8a3e b6c7 0e3d
00000080: ffaf 20be 2324 16bc fa21 e53e 4616 fe3d
00000090: ef02 523d 81c6 363d 85d3 843d 09b0 00bc
000000a0: a544 87bd e4a5 22be 18c3 dfbd d1f7 0fbe
000000b0: 2f8d adbd a515 c33d 7516 51bd cbff eb3e
000000c0: ef16 583e 1343 d23d b61f 62bc 3092 683e
000000d0: f61c e43c 71c1 14bf 3a11 9bbd af56 7a3e
000000e0: 108e 8abc 0ee1 e4bd e91d dfbc e0ec 18bf
000000f0: ec30 a73d 5bbd 02be 2bc1 373d 596f 7f3d
00000100: ee5c cc3d 3a11 c3be b439 b13c e4ce acbe
00000110: 7641 afbd 9241 5c39 e947 83bd 9581 f43d
00000120: 40c0 b53e f6fc c43e d212 16be 6e15 073e
00000130: 2514 bbbc 33c9 78be 8918 233e 1b3c 87be
00000140: 36d9 b33d d253 09bd cf22 7dbc 93d7 0dbe
00000150: 1896 223f 3b29 07bf 807b 6dbc a656 9cbd
00000160: 5cbe 84be 16b3 13bb 7737 83be 9e31 d83c
00000170: ae9e 9fbd 4504 0a3e df28 88be 868f 913e
00000180: 930d 08be d882 bd3c 59d8 393e 7b20 82be
00000190: 790b 8abe c48f cebe 8079 44be e0f8 003e
000001a0: edcc da3c d0ed ef3c 3e04 823e 294d aabd
000001b0: a335 333e 30c2 26be 7c09 85be 601c bebd
000001c0: 0281 133e 9653 bfbd 63a3 dd3d db0d 99be
000001d0: 54bd 683e d470 bdbe af7b 4d3e 079c c33d
000001e0: 3361 55be 8b0a 10bb b99d c93d a9e7 453d
000001f0: 6776 09bd 210f ae3c 5896 953e c6c4 b23e

fc2.weight f4 [128, 128]
0.36995247 -0.092688866 -0.34765217 0.3691307 0.16538352 -0.5063334 -0.9301857 1.2284095
-0.21936803 1.3362057 0.8122751 -0.14140467 -1.0412487 0.7291612 0.62080187 0.15340659
0.08980864 -0.039541766 0.18493855 0.8317123 -0.044338673 1.2346011 -0.21689038 -2.2482696
-0.73282874 0.12757285 -0.5116852 -1.0293655 -0.4107518 0.13251042 2.2359154 1.3343062
0.21967512 0.24627095 -0.56879944 -0.0068050455 0.06218688 0.21646363 -1.2778394 -0.97657245
-0.76212007 0.1210432 0.73847145 0.01965957 0.45241526 -0.03911715 1.9006456 -0.56860054
-0.36253145 0.24990737 0.13320953 -0.54467994 -0.780017 -1.3419105 -0.27709568 -0.63271886
-0.03694363 0.54742193 0.19910234 -0.36814573 -0.52134913 0.049211413 -0.114143424 -0.35142022
0.6143385 -1.0482744 1.2702476 -1.5594498 -0.1542598 0.033905305 -0.10898492 0.13995843
-0.16959594 -0.58946705 2.2714832 -0.604605 -0.15886001 0.36442375 -0.9289456 -0.13614176
0.061584223 -0.1296893 0.6151561 1.0927546 -0.62844515 0.5940795 -0.43039688 -1.1547769
-0.012291975 -0.31597897 0.70108503 -1.4002147 -0.09722876 -0.97036695 0.13387467 -0.57484484
-0.6447475 -1.3981545 -0.6211464 -0.46422786 0.862439 0.1692856 -0.31298208 0.44689056
0.10947079 0.8602354 -0.5419051 0.70151496 0.23476532 -0.17015241 -0.8096202 0.44064647
-0.0005887612 0.85323954 -1.4730505 -0.28186968 0.01959606 -0.18763046 2.2391732 -0.4508202
0.32370245 1.1423951 -0.65209275 -0.5575082 0.5642889 0.54979396 -0.56710595 0.6690567
-0.5295197 1.3642595 -0.66056204 -0.20461413 0.6616678 -1.1019862 -0.0447825 -0.1178762
0.3278596 -0.79575014 -0.21168084 0.44870833 0.32039115 0.2978186 1.3581777 0.09910476
0.67614496 -0.28467986 -0.6690282 1.3737078 -0.25092557 0.53274345 -0.6853569 0.1448334
-1.0659215 -0.17139782 -0.51873225 -0.009172771 -0.36104372 -0.52166295 -0.48103437 0.12295513
0.7046823 0.09495066 -0.587138 0.34570912 -0.62894857 -0.03996876 -0.4763105 -0.160824
-0.16423404 0.50280976 0.56288534 0.49873507 1.1660651 -0.58749276 1.8915095 -1.1106919
-0.2299912 -0.9520107 1.7613158 -0.34686124 -0.7287563 0.30639195 0.55738336 -1.1897341
0.094887026 -0.18620285 -0.3407474 0.23075525 -1.2191507 -0.16612972 -0.4426241 -0.22239107
0.3486777 -0.38755035 0.9551162 -0.50873363 -0.050742004 0.24568772 -0.60046214 0.18031192
-0.3156624 -1.1880699 -0.005292999 -0.2860587 0.0065654847 0.8411115 -0.25792837 -1.6794392
-0.019150862 -0.2509259 0.42590776 0.76822686 -1.0267706 -0.13616255 -0.57457113 -0.040242434
-0.4640354 -1.0649897 0.5962634 -1.3220677 0.33444363 -0.98751915 0.3196055 -0.025087237
0.076803245 -1.4744768 1.1982566 -1.4469033 -0.1358586 0.77064043 -0.28430477 -0.30829296
-0.24906982 0.68827045 -0.48665062 1.736656 -0.29095608 0.59024906 -0.76204234 0.19001763
-0.25599468 1.7155087 0.0245645 0.3200408 0.05123816 -0.4015973 0.09436388 -0.8420108
0.19309571 0.39382204 -0.1882231 1.3033319 0.32453063 1.2736155 0.049544856 0.6409675
00000000: 696a bd3e a9d3 bdbd 77ff b1be b3fe bc3e
00000010: 4c5a 293e 119f 01bf a620 6ebf 863c 9d3f
00000020: 03a2 60be ca08 ab3f 43f1 4f3f 63cc 10be
00000030: a347 85bf 4faa 3a3f dfec 1e3f 9e16 1d3e
00000040: 98ed b73d 8cf6 21bd 8860 3d3e 19eb 543f
00000050: 789c 35bd 6907 9e3f 8318 5ebe a6e3 0fc0
00000060: aa9a 3bbf 75a2 023e cdfd 02bf 40c2 83bf
00000070: 0f4e d2be d0b0 073e 3d19 0f40 8cca aa3f
00000080: 84f2 603e 742e 7c3e d79c 11bf dcfc debb
00000090: abb7 7e3d a4a8 5d3e 3e90 a3bf a700 7abf
000000a0: 4d1a 43bf 7fe5 f73d 770c 3d3f 1b0d a13c
000000b0: f9a2 e73e 4e39 20bd 5b48 f33f ce8f 11bf
000000c0: b99d b9be b8e7 7f3e 1468 083e 2570 0bbf
000000d0: 32af 47bf b9c3 abbf 7cdf 8dbe ddf9 21bf
000000e0: 3452 17bd d823 0c3f 7ce1 4b3e 997d bcbe
000000f0: 2377 05bf e891 493d 07c4 e9bd 5aed b3be
00000100: 4a45 1d3f db2d 86bf 7997 a23f 0d9c c7bf
00000110: 48f6 1dbe 4ae0 0a3d 7c33 dfbd 4351 0f3e
00000120: 8faa 2dbe 50e7 16bf fb5f 1140 65c7 1abf
00000130: 33ac 22be c095 ba3e 61cf 6dbf bf68 0bbe
00000140: bd3f 7c3d 46cd 04be df7a 1d3f 62df 8b3f
00000150: c8e1 20bf 9815 183f fb5c dcbe bbcf 93bf
00000160: 4864 49bc ffc7 a1be 4f7a 333f 3c3a b3bf
00000170: df1f c7bd f869 78bf 7116 093e 0829 13bf
00000180: 2c0e 25bf baf6 b2bf 7303 1fbf 46af edbe
00000190: cdc8 5c3f 3459 2d3e 303f a0be d7ce e43e
000001a0: 3932 e03d 6338 5c3f 4bba 0abf 7c96 333f
000001b0: 5266 703e 6f3c 2ebe 4543 4fbf 6a9c e13e
000001c0: 1857 1aba e86d 5a3f eb8c bcbf 3951 90be
000001d0: eb87 a03c 3322 40be 9d4e 0f40 e8d1 e6be
000001e0: 54bc a53e 013a 923f 8def 26bf dbb8 0ebf
000001f0: 3d75 103f 4cbf 0c3f db2d 11bf 4d47 2b3f
00000200: 9a8e 07bf 0ea0 ae3f 981a 29bf 5e86 51be
00000210: 1063 293f e20d 8dbf db6d 37bd 1469 f1bd
00000220: 37dd a73e 48b6 4bbf ddc2 58be 19bd e53e
00000230: 4f0a a43e ae7b 983e c4d8 ad3f 70f7 ca3d
00000240: d617 2d3f 8fc1 91be 6f45 2bbf a8d5 af3f
00000250: 5179 80be e061 083f 8d73 2fbf 354f 143e
00000260: 1e70 88bf e982 2fbe a3cb 04bf 6449 16bc
00000270: b9da b8be b48b 05bf 234a f6be e6cf fb3d
00000280: 0f66 343f 7e75 c23d ad4e 16bf c900 b13e
00000290: c602 21bf 48b6 23bd f8de f3be 0caf 24be
000002a0: f82c 28be 24b8 003f 4119 103f 345a ff3e
000002b0: 9f41 953f ed65 16bf fc1c f23f 272b 8ebf
000002c0: d082 6bbe f9b6 73bf cc72 e13f cc97 b1be
000002d0: c68f 3abf 68df 9c3e adb0 0e3f 3549 98bf
000002e0: 2154 c23d f6ab 3ebe 7176 aebe 1b4b 6c3e
000002f0: 210d 9cbf e91d 2abe a09f e2be 7cba 63be
00000300: e285 b23e 006d c6be 7f82 743f 5e3c 02bf
00000310: d9d6 4fbd 9095 7b3e e3b7 19bf b0a3 383e
00000320: 819e a1be ad12 98bf e570 adbb 4976 92be
00000330: 4723 d73b 1553 573f 300f 84be ddf7 d6bf
00000340: 45e2 9cbc 5c79 80be 9510 da3e 84aa 443f
00000350: 386d 83bf 326e 0bbe 1817 13bf 40d5 24bd
00000360: 0c96 edbe 9551 88bf b8a4 183f 8439 a9bf
00000370: 323c ab3e 0ece 7cbf 55a3 a33e c083 cdbc
00000380: 054b 9d3d a8bb bcbf 7960 993f 2134 b9bf
00000390: 841e 0bbe b148 453f 6590 91be 93d8 9dbe
000003a0: 290c 7fbe 7e32 303f 452a f9be be4a de3f
000003b0: 32f8 94be 901a 173f 3515 43bf fb93 423e
000003c0: bc11 83be ca95 db3f 7e3b c93c 63dc a33e
000003d0: 1bdf 513d 299e cdbe da41 c13d 058e 57bf
000003e0: e2ba 453e 0ba3 c93e 8ebd 40be 94d3 a63f
000003f0: e128 a63e d505 a33f 8cef 4a3d 7216 243f

fc2.bias f4 [128]
-0.35100445 0.22994253 0.012057762 -0.5365148 -0.16480105 -0.27352795 0.442786 -0.5279114
-0.37155896 0.48679852 0.39175507 0.6990805 -0.04126539 -0.03200643 0.3478604 -0.15041476
0.19582249 0.25419948 -0.020512661 0.1714725 0.26570427 -0.053386256 -0.09512562 -0.83300936
-0.06956327 0.07033091 0.20611188 -0.28259507 0.6624597 0.108103484 -0.087706186 -0.36244476
0.19869107 0.7889481 0.4636887 0.27123186 -0.23865171 -0.32534584 -0.4516067 0.45188898
0.1345228 -0.5015467 -0.4968699 0.0912373 -0.05241604 0.091716185 0.24501276 -0.08756916
-0.27659288 0.23999047 -0.15894428 0.4492182 -0.23641987 -0.818166 0.16068573 -0.4498627
-0.21183468 -0.50534934 -0.18761326 -0.16387717 -0.08540356 0.24822536 -0.41771445 0.1647509
0.55427843 -0.31322175 0.13130005 0.11330347 -0.036266316 0.44532305 0.31161264 0.07760372
0.36513415 0.043611236 -0.1892807 -0.30347803 -0.09203249 0.08211998 0.10704989 0.07298234
-0.2455299 0.42851126 0.04479209 -0.3237361 -0.037707284 0.01962575 0.10435094 0.2425929
-0.21301007 0.054029603 0.074600786 0.31364578 -0.06692221 -0.124698 -0.0465421 0.06392403
0.18346566 -0.4858581 0.13704863 -0.14751405 0.12614684 -0.11262659 0.08678981 -0.15813047
-0.5774324 -0.10702292 0.45281628 0.49129564 0.12764591 0.047666043 -0.43832138 0.059751313
-0.11164882 -0.11727948 -0.632544 -0.0713917 -0.39161292 0.1379995 -0.04419945 0.56494695
-0.025395632 -0.36582217 -0.47935385 0.37446898 -0.56145346 -0.34091574 -0.7397417 0.16336186
00000000: dbb6 b3be 0e76 6b3e eb8d 453c 0959 09bf
00000010: 9bc1 28be db0b 8cbe d9b4 e23e 3425 07bf
00000020: fa3c bebe a83d f93e 1f94 c83e f1f6 323f
00000030: e605 29bd 2d19 03bd c21a b23e 5406 1abe
00000040: b185 483e 6f26 823e 2b0a a8bc 7d96 2f3e
00000050: 640a 883e 8cab 5abd 39d1 c2bd 1a40 55bf
00000060: 3077 8ebd a709 903d fe0e 533e 4db0 90be
00000070: f596 293f 5c65 dd3d 4d9f b3bd 5c92 b9be
00000080: ac75 4b3e 81f8 493f 9b68 ed3e e7de 8a3e
00000090: 1d61 74be bb93 a6be fe38 e7be fe5d e73e
000000a0: 58c0 093e 5d65 00bf bb65 febe 9fda ba3d
000000b0: 34b2 56bd b2d5 bb3d a0e4 7a3e 7657 b3bd
000000c0: 959d 8dbe 10c0 753e 4ac2 22be eeff e53e
000000d0: 0d18 72be 5473 51bf cd8a 243e 6754 e6be
000000e0: 31eb 58be 935e 01bf b11d 40be 6bcf 27be
000000f0: 10e8 aebd ca2e 7e3e abde d5be 76b4 283e
00000100: 31e5 0d3f 9a5e a0be 8573 063e a60b e83d
00000110: fd8b 14bd 6201 e43e b18b 9f3e b3ee 9e3d
00000120: ddf2 ba3e b2a1 323d cdd2 41be 7961 9bbe
00000130: 887b bcbd 852e a83d f93c db3d c477 953d
00000140: 316c 7bbe d465 db3e e977 373d bdc0 a5be
00000150: f472 1abd 2ec6 a03c f2b5 d53d 466a 783e
00000160: 501f 5abe 254e 5d3d 4cc8 983d 2e96 a03e
00000170: 830e 89bd aa61 ffbd eea2 3ebd 9aea 823d
00000180: 6cde 3b3e 65c2 f8be 7a56 0c3e ec0d 17be
00000190: a32c 013e c5a8 e6bd dbbe b13d f4ec 21be
000001a0: 9cd2 13bf d52e dbbd 89d7 e73e 1a8b fb3e
000001b0: 9cb5 023e 783d 433d a96b e0be cbbd 743d
000001c0: 23a8 e4bd 3930 f0bd 67ee 21bf d035 92bd
000001d0: 7d81 c8be be4f 0d3e 7c0a 35bd 5da0 103f
000001e0: 800a d0bc 0b4d bbbe de6d f5be 66ba bf3e
000001f0: 6abb 0fbf 828c aebe b65f 3dbf 5548 273e

policy_mean.weight f4 [7, 128]
0.057244115 -0.09865893 0.011547899 0.104656756 0.0152138155 0.10056071 0.049997322 -0.04680679
-0.053856473 0.03574543 0.009924827 -0.03644244 -0.0039628274 -0.033472314 0.056245968 0.01932442
0.044087633 0.01618319 0.027660575 0.04691246 -0.062076274 0.017165784 -0.051259875 -0.041966096
-0.014656761 -0.10767466 -0.013127165 -0.04141126 -0.04481887 -0.00093477854 -0.002600492 -0.056261778
-0.016868014 -0.03915671 -0.07940441 0.07487396 -0.0428612 0.030013572 -0.025281798 0.023458077
0.01996939 0.09240465 -0.034839984 0.018032689 -0.044942115 0.045628034 0.024137318 0.020077713
-0.08763115 0.01380144 -0.070919834 0.043253798 -0.0043278574 -0.08703296 -0.0477249 0.066224515
-0.07470562 -0.03390972 0.13397703 -0.030520698 -0.06509439 -0.05503671 -0.021952013 -0.012568684
-0.057512283 0.04351385 0.00078160805 0.045877747 -0.040305696 0.0726082 -0.031682365 -0.034723498
-0.038624782 -0.039885715 -0.027846215 0.014919974 -0.04685594 -0.049887527 -0.06914751 0.008999734
0.008582794 -0.04517611 0.021393662 0.11409954 -0.026200067 -0.12856448 -0.057380177 -0.036720153
-0.0048274975 0.026454212 0.07397002 0.0069746054 0.044671915 0.035899416 -0.029397387 0.0539989
0.014089337 -0.03489879 -0.041179616 0.12554657 0.06975069 0.000682732 0.066405945 0.029722711
-0.054129273 0.07213967 0.13700041 -0.08273207 0.084159546 0.014524799 0.00045676844 0.08935344
-0.113823466 -0.048927285 0.047412593 -0.09099783 0.050879117 0.025500698 -0.077715114 -0.013551755
-0.12523483 0.020614142 0.018102895 -0.01829987 -0.027965086 0.054168798 0.06667072 0.038349237
-0.029917065 -0.06742864 0.047509614 0.11661983 0.020630375 0.013117488 0.01390485 -0.021105777
0.15980987 0.036776047 -0.059259906 0.014723814 0.09572755 0.038784146 0.015206456 0.0538846
-0.01680585 0.0025789263 0.14702114 -0.05158775 0.018830894 -0.034790438 0.02238575 0.13907667
-0.047118764 0.16811909 0.046222202 0.008057774 0.061311267 -0.051391143 0.0839544 -0.0054370346
-0.06630295 0.057125177 0.08934431 0.03371439 -0.0076104463 -0.09830997 -0.003037475 -0.04660334
0.0014354539 -0.013641881 0.1115396 -0.014879928 -0.03410908 0.011454934 -0.10413353 0.030596394
-0.029931203 0.057121247 0.04826097 0.023155838 -0.045880023 0.032896608 -0.0027414279 -0.08125147
0.05197956 0.0039341496 0.06699267 0.06930414 0.007964123 0.04450658 0.016493315 -0.13576055
0.116014 0.03705729 0.104001746 0.110916704 0.07183635 -0.08598551 0.009501617 0.044572935
0.06696502 -0.121778995 -0.048568174 0.014470494 0.006244396 -0.04987044 0.021567186 -0.16323608
-0.076114155 0.14192082 0.011878295 -0.06692683 -0.024613282 -0.01962064 -0.038291924 -0.029992877
0.0049344725 -0.06607231 0.03558063 -0.006141946 0.0048866523 0.15457667 0.034511954 0.014802347
0.20440999 -0.09662497 0.031428404 -0.088095166 -0.19057533 0.15165319 0.08472612 0.018781153
0.046215244 -0.098699436 -0.0075531825 0.024712987 0.056169923 -0.031782195 0.08898796 0.08603948
-0.08104866 -0.08747215 0.014866163 0.091633804 -0.005639723 -0.07481463 -0.037186224 0.021447103
0.048091292 0.17511532 -0.03435026 -0.023614757 -0.025460834 0.040255964 0.1540627 -0.07053999
00000000: ce78 6a3d b10d cabd 6633 3d3c 4856 d63d
00000010: 5e43 793c c6f2 cd3d fec9 4c3d 7ab8 3fbd
00000020: 9b98 5cbd cd69 123d be9b 223c ab44 15bd
00000030: 9bda 81bb 441a 09bd 2c62 663d 3f4e 9e3c
00000040: 3c95 343d 9c92 843c 6e98 e23c 4827 403d
00000050: b143 7ebd 429f 8c3c e0f5 51bd a4e4 2bbd
00000060: e922 70bc 8884 dcbd 5213 57bc da9e 29bd
00000070: fe93 37bd ed0b 75ba 046d 2abb c072 66bd
00000080: ca2e 8abc c962 20bd c89e a2bd 8557 993d
00000090: 3a8f 2fbd 06df f53c c61b cfbc 272b c03c
000000a0: d996 a33c a63e bd3d 5fb4 0ebd 4ab9 933c
000000b0: 3915 38bd 76e4 3a3d a0bb c53c 047a a43c
000000c0: f677 b3bd 6f1f 623c 6b3e 91bd e52a 313d
000000d0: b3d0 8dbb 563e b2bd 2f7b 43bd b8a0 873d
000000e0: 43ff 98bd ebe4 0abd 4631 093e 8b06 fabc
000000f0: 3550 85bd 2c6e 61bd b5d4 b3bc e2ec 4dbc
00000100: 0092 6bbd 943b 323d d4e4 4c3a 4eea 3b3d
00000110: 9617 25bd 9cb3 943d 5ec5 01bd 3a3a 0ebd
00000120: 0535 1ebd 345f 23bd bf1d e4bc e872 743c
00000130: 04ec 3fbd dd56 4cbd 369d 8dbd 9f73 133c
00000140: d99e 0c3c 960a 39bd c341 af3c 05ad e93d
00000150: 86a1 d6bc 68a6 03be 7a07 6bbd df67 16bd
00000160: fc2f 9ebb 81b6 d83c 987d 973d 3b8b e43b
00000170: e6f9 363d 440b 133d cad2 f0bc f32d 5d3d
00000180: f6d6 663c 09f2 0ebd f5ab 28bd 488f 003e
00000190: 73d9 8e3d 5ef9 323a d7ff 873d 0b7d f33c
000001a0: a8b6 5dbd f7bd 933d d649 0c3e 6e6f a9bd
000001b0: d75b ac3d 6cf9 6d3c 6c7a ef39 f0fe b63d
000001c0: 471c e9bd fa67 48bd b533 423d 125d babd
000001d0: 9f66 503d d7e6 d03c 1a29 9fbd 2e08 5ebc
000001e0: 8f3d 00be fdde a83c 864c 943c 9ce9 95bc
000001f0: 0917 e5bc 1ae0 5d3d a98a 883d 1714 1d3d
00000200: a214 f5bc 0718 8abd 7199 423d 61d6 ee3d
00000210: 0801 a93c bbea 563c 2bd1 633c 06e6 acbc
00000220: 33a5 233e 7ba2 163d 84ba 72bd 273c 713c
00000230: ce0c c43d 20dc 1e3d 8024 793c 19b6 5c3d
00000240: 6cac 89bc 3403 293b b68c 163e ad4d 53bd
00000250: 3f43 9a3c 6b80 0ebd 5262 b73c 1d6a 0e3e
00000260: 9bff 40bd 6927 2c3e 7e53 3d3d c104 043c
00000270: 8621 7b3d 857f 52bd 49f0 ab3d 2729 b2bb
00000280: d7c9 87bd 17fc 693d 26fa b63d 1a18 0a3d
00000290: 0d61 f9bb bd56 c9bd 6010 47bb 25e3 3ebd
000002a0: d725 bc3a 3282 5fbc e06e e43d f1ca 73bc
000002b0: f6b5 0bbd 7aad 3b3c f643 d5bd 4aa5 fa3c
000002c0: 4832 f5bc f8f7 693d 4bad 453d 50b1 bd3c
000002d0: b1ec 3bbd 98be 063d 87a9 33bb 2c67 a6bd
000002e0: 85e8 543d 0aea 803b 7433 893d 54ef 8d3d
000002f0: f47b 023c 884c 363d fd1c 873c d004 0bbe
00000300: bf98 ed3d 63c9 173d defe d43d 4c28 e33d
00000310: f01e 933d 2c19 b0bd acac 1b3c 1c92 363d
00000320: f524 893d 4467 f9bd 6cef 46bd a715 6d3c
00000330: ca9d cc3b f244 4cbd abad b03c 5c27 27be
00000340: bde1 9bbd b153 113e 2e9d 423c ef10 89bd
00000350: cba1 c9bc 77bb a0bc fed7 1cbd 9fb3 f5bc
00000360: 5bb1 a13b eb50 87bd ffbc 113d 6142 c9bb
00000370: 3620 a03b 5949 1e3e 685c 0d3d 8b85 723c
00000380: da50 513e 50e3 c5bd 12bb 003d 3d6b b4bd
00000390: 2e26 43be f94a 1b3e e384 ad3d efda 993c
000003a0: 324c 3d3d ee22 cabd b080 f7bb e472 ca3c
000003b0: 6f12 663d 0c2e 02bd 523f b63d 7835 b03d
000003c0: d7fc a5bd 9924 b3bd 3591 733c 81aa bb3d
000003d0: 6dcd b8bb 6a38 99bd 9550 18bd d6b1 af3c
000003e0: 60fb 443d 6e51 333e dcb2 0cbd bc73 c1bc
000003f0: 3d93 d0bc 70e3 243d 9dc2 1d3e 4577 90bd

policy_mean.bias f4 [7]
-0.10691165 -0.06494532 0.048104044 -0.015741434 -0.11648943 -0.064955615 -0.012064403
00000000: 7ff4 dabd 0d02 85bd bf08 453d 2ef4 80bc
00000010: 0392 eebd 7307 85bd c6a9 45bc

value_head.weight f4 [1, 128]
-11.730583 12.523215 -11.6395645 10.818868 7.802407 12.42604 11.166332 10.991777
8.27275 -9.660718 -11.686293 -8.048348 11.024121 -9.908563 10.733507 8.818826
11.4013 -10.876805 -6.0610375 -9.908915 12.598211 -12.57775 -8.634887 9.062117
12.956158 10.462452 -12.146049 11.00371 -9.058795 -9.965056 9.237717 10.358527
10.228659 -8.639685 -8.281827 10.001442 9.319882 11.570633 -9.977737 -8.261682
12.840681 8.539529 10.362288 -7.8859515 11.321029 -12.852188 -12.300537 -11.16608
7.761552 10.606061 11.093237 -8.7473135 8.400591 8.427435 13.542428 8.480391
10.296798 8.7907505 10.913046 10.655518 -10.675802 -13.92341 12.177741 -11.890259
10.404247 11.987811 -13.917597 -11.962981 -9.062877 -12.548381 -7.9155617 -14.00536
12.141394 -11.310152 -10.296369 10.296653 9.085773 11.789663 -8.388104 9.280175
-10.916994 -8.573741 -10.077824 6.714166 -10.351061 11.2864065 -14.308617 7.035008
-11.851526 9.962888 13.366087 -7.786017 -5.9193096 12.888932 -12.429475 10.30169
12.243119 8.740819 9.228353 -12.113321 12.831416 -11.673313 -13.78495 7.748485
9.657829 13.235137 10.92783 -8.186719 -12.938968 -8.80679 10.214403 10.817809
-10.698993 13.207352 9.70733 -9.885584 10.503926 12.913705 -11.830882 -11.482152
-11.037098 9.391774 11.602582 -10.892744 7.593956 8.884274 9.502015 -13.403766
00000000: 78b0 3bc1 175f 4841 a83b 3ac1 151a 2d41
00000010: 51ad f940 0fd1 4641 4ca9 3241 52de 2f41
00000020: 2f5d 0441 4d92 1ac1 0efb 3ac1 09c6 00c1
00000030: cd62 3041 7989 1ec1 72bc 2b41 e919 0d41
00000040: ba6b 3641 6507 2ec1 05f4 c1c0 ea8a 1ec1
00000050: 4692 4941 773e 49c1 7f28 0ac1 6efe 1041
00000060: 6c4c 4f41 3466 2741 3756 42c1 320f 3041
00000070: d3f0 10c1 df70 1fc1 b0cd 1341 87bc 2541
00000080: 96a8 2341 263c 0ac1 5d82 04c1 e805 2041
00000090: 3d1e 1541 5021 3941 d0a4 1fc1 d92f 04c1
000000a0: 6e73 4d41 e9a1 0841 efcb 2541 b759 fcc0
000000b0: ef22 3541 90a2 4dc1 00cf 44c1 44a8 32c1
000000c0: a25e f840 6db2 2941 e67d 3141 fff4 0bc1
000000d0: d268 0641 c6d6 0641 c9ad 5841 aeaf 0741
000000e0: afbf 2441 eaa6 0c41 d69b 2e41 007d 2a41
000000f0: 16d0 2ac1 4ac6 5ec1 07d8 4241 803e 3ec1
00000100: cc77 2641 13ce 3f41 7aae 5ec1 5f68 3fc1
00000110: 8b01 11c1 2bc6 48c1 484c fdc0 f415 60c1
00000120: 2643 4241 62f6 34c1 edbd 24c1 17bf 2441
00000130: 545f 1141 76a2 3c41 ad35 06c1 997b 1441
00000140: 02ac 2ec1 0b2e 09c1 c43e 21c1 73da d640
00000150: f29d 25c1 1f95 3441 18f0 64c1 c91e e140
00000160: da9f 3dc1 fd67 1f41 7edb 5541 0d27 f9c0
00000170: fc6a bdc0 1139 4e41 21df 46c1 b9d3 2441
00000180: d1e3 4341 65da 0b41 55a7 1341 2ad0 41c1
00000190: 7b4d 4d41 e4c5 3ac1 288f 5cc1 97f3 f740
000001a0: 7886 1a41 1fc3 5341 64d8 2e41 cdfc 02c1
000001b0: 0306 4fc1 9de8 0cc1 326e 2341 bf15 2d41
000001c0: 132f 2bc1 5051 5341 3951 1b41 5a2b 1ec1
000001d0: 1510 2841 899e 4e41 4b4b 3dc1 e5b6 37c1
000001e0: f497 30c1 b544 1641 2da4 3941 ae48 2ec1
000001f0: b001 f340 fc25 0e41 4108 1841 d375 56c1

exp_avg f4 [7]
0.00075772847 -9.94233e-05 1.7993094e-05 -0.00045704254 -0.00011842297 -0.0001264513 -0.00017414593
00000000: 4ca2 463a 7a81 d0b8 e0ef 9637 369f efb9
00000010: d959 f8b8 0398 04b9 f19a 36b9

exp_avg_sq f4 [7]
1.5267304e-06 1.362504e-06 1.6637518e-06 1.507956e-06 1.489825e-06 1.3036093e-06 1.493507e-06
00000000: 0fea cc35 48df b635 144e df35 f964 ca35
00000010: fff5 c735 adf7 ae35 8374 c835

exp_avg f4 [128, 21]
-6.934489e-05 -0.00010522974 -0.0017884275 -0.0016416641 0.000504148 0.0001372891 -0.00019987785 -2.0407742e-05
1.787458e-05 -5.889495e-05 3.8538146e-05 -9.092456e-05 -9.202886e-05 -0.001815439 0.00028190215 -4.542062e-05
0.00032078198 -0.0016717392 -2.1579637e-05 1.3200762e-05 -2.7011658e-05 4.0311148e-05 -6.901016e-05 -0.00044812373
-0.00041986484 0.00016178588 1.1193911e-05 -8.914796e-05 -4.9593978e-06 7.6825745e-06 1.4188856e-05 -9.4908455e-06
4.5996127e-05 -6.7937086e-05 -0.0004400197 0.000116638155 3.1895484e-05 0.00016579842 -0.00040504624 5.6849703e-06
1.0730963e-06 8.103905e-06 -3.8528815e-06 1.7903116e-06 -9.412474e-06 -9.328422e-06 -9.866075e-07 -7.274076e-07
4.175803e-07 -4.4672626e-07 2.6892957e-07 -1.0816755e-06 7.0967883e-07 -4.6316854e-06 1.7941812e-06 -1.0035371e-05
-2.6861032e-06 -2.9014232e-06 -2.1213493e-06 -1.17173495e-05 -7.7880355e-07 3.866278e-09 -6.229152e-07 -4.160487e-05
-0.00014783481 -0.0016396737 -0.0014524932 0.00070947484 0.00028990535 -0.00013889279 -2.2399732e-05 2.3262539e-05
-1.6445068e-05 1.0943553e-06 -4.565945e-05 -0.00015719057 -0.0016488893 3.9612245e-05 1.6487584e-06 0.0006288983
-0.0014982005 -4.054592e-06 -9.355711e-06 -9.215863e-06 0.00010602771 -0.00025325242 -0.0019813497 -0.0018470462
0.00061375665 7.847089e-05 -0.0003465384 -3.249944e-05 4.0435418e-05 2.7790096e-05 -1.7648923e-05 0.00012754563
-0.0002594351 -0.0019550233 0.00058611523 0.00013195099 0.00060393993 -0.0017719752 2.1517902e-05 -6.1826663e-06
2.6325839e-05 -7.034576e-05 0.00038058593 0.003108842 0.003021749 -0.0008449872 -0.00015647996 0.00024187054
2.6801552e-05 -2.968839e-05 2.3143184e-05 9.295635e-06 -3.2328237e-05 0.00033878675 0.003132341 -0.00058771047
-5.250409e-05 -0.00073816726 0.0029879187 3.801753e-05 -4.1799234e-05 2.349901e-05 0.00029168805 0.00019190626
0.0038626792 0.0034604087 -0.0008624029 -7.3963514e-05 0.0006184588 8.696345e-05 -7.855947e-05 7.051858e-05
-8.4658794e-05 0.00025469676 0.00014825295 0.0038124 -0.00067852903 0.00044114862 -0.0006060691 0.0034732723
-3.699135e-05 -4.365317e-05 -5.0280843e-05 2.8493827e-05 -0.00031165703 -0.002495656 -0.0024221882 0.0005100475
0.00018024717 -0.00026995494 -5.696189e-05 6.318028e-05 -7.982747e-06 1.6578882e-05 5.4837972e-05 -0.00029726766
-0.0024668432 0.0006210118 3.8880265e-05 0.00040525576 -0.0023586862 2.6344136e-05 1.4389331e-05 2.8812661e-05
4.7652324e-05 -2.9332705e-05 0.00040725205 0.0003458647 -0.00011760904 -2.7748712e-05 3.5364799e-06 3.9068614e-06
-3.9882823e-07 4.4221408e-05 -2.6346434e-05 6.651817e-05 -3.634996e-05 0.00044350492 -4.565201e-05 4.151212e-05
-2.3505568e-06 0.00039927795 1.8865845e-05 -7.017257e-06 3.6252633e-05 5.6675442e-05 -0.00062614813 -0.0053425627
-0.005174147 0.0012834748 0.00060659327 -0.0006068061 -0.00010376053 0.00011577001 -5.5937853e-05 9.868204e-06
7.091339e-05 -0.00062648725 -0.005314621 0.00088680786 9.958297e-05 0.0010235702 -0.0051989974 1.4237951e-05
-3.39193e-07 2.7940878e-05 -0.000179354 0.00072529394 0.0050787907 0.0049647186 -0.001262411 -0.0004898367
0.00023318274 6.351576e-05 -8.550248e-05 -5.2882504e-05 6.0979324e-05 -0.00020273872 0.00076502113 0.005006685
-0.0004961583 -0.0001708907 -0.0012581794 0.005037006 -2.3384717e-05 3.9727496e-05 -7.210524e-05 0.00016894517
-0.0007351612 -0.004729675 -0.0047521032 0.0011700392 0.00050921063 -7.454138e-05 -6.2094914e-05 7.923592e-05
2.6620832e-05 -4.362556e-05 0.00015404822 -0.0007398051 -0.0046854224 0.0003398574 0.00030168614 0.0012018479
-0.0048226886 -1.489696e-05 -4.644076e-06 4.4253924e-05 5.4697142e-05 0.00018975942 0.001934512 0.001887936
00000000: 416d 91b8 c9ae dcb8 ab69 eaba 1b2d d7ba
00000010: cd28 043a 43f5 0f39 4d96 51b9 4b31 abb7
00000020: 5ef1 9537 f905 77b8 05a4 2138 c0ae beb8
00000030: 9eff c0b8 06f4 edba 44cc 9339 0582 3eb8
00000040: a12e a839 421e dbba eb05 b5b7 d778 5d37
00000050: 1897 e2b7 c413 2938 8cb9 90b8 26f2 eab9
00000060: 4e21 dcb9 11a5 2939 7bcd 3b37 f2f4 bab8
00000070: e768 a6b6 68e4 0037 ac0c 6e37 df3a 1fb7
00000080: f7eb 4038 7279 8eb8 72b2 e6b9 a29b f438
00000090: 84c7 0538 2dda 2d39 635c d4b9 86c1 be36
000000a0: 4f07 9035 02f6 0737 0048 81b6 a34a f035
000000b0: 45ea 1db7 4481 1cb7 936b 84b5 1243 43b5
000000c0: cd2f e034 97d5 efb4 6661 9034 162e 91b5
000000d0: c280 3e35 e069 9bb6 99cf f035 975d 28b7
000000e0: e742 34b6 12b6 42b6 815c 0eb6 a295 44b7
000000f0: f90e 51b5 24d8 8431 6836 27b5 e480 2eb8
00000100: 1b04 1bb9 52ea d6ba 9661 beba 0dfc 393a
00000110: 70fe 9739 c0a3 11b9 0fe7 bbb7 ec23 c337
00000120: 84f3 89b7 c3e1 9235 7682 3fb8 86d3 24b9
00000130: 8b1f d8ba 5325 2638 e84a dd35 a7dc 243a
00000140: 445f c4ba ae0c 88b6 79f6 1cb7 d59d 1ab7
00000150: 325b de38 f7c6 84b9 88d9 01bb 9618 f2ba
00000160: 83e4 203a bd90 a438 99af b5b9 0250 08b8
00000170: 3399 2938 c71e e937 c60c 94b7 c5bd 0539
00000180: ca04 88b9 d91f 00bb 87a5 193a 535c 0a39
00000190: b951 1e3a 9f41 e8ba 5881 b437 b374 cfb6
000001a0: 4fd6 dc37 9886 93b8 6189 c739 b7bd 4b3b
000001b0: 8908 463b 2282 5dba c514 24b9 a19e 7d39
000001c0: e5d3 e037 550b f9b7 9c23 c237 73f4 1b37
000001d0: 2e98 07b8 309f b139 f647 4d3b 9510 1aba
000001e0: d637 5cb8 9181 41ba f5d0 433b 0375 1f38
000001f0: 9651 2fb8 bd1f c537 b5ed 9839 723a 4939
00000200: 0125 7d3b 06c8 623b e112 62ba dc1c 9bb8
00000210: 1120 223a 2660 b638 4bc0 a4b8 60e3 9338
00000220: d88a b1b8 d288 8539 5974 1b39 75d9 793b
00000230: 50df 31ba f749 e739 9ce0 1eba d79f 633b
00000240: 2927 1bb8 3c18 37b8 a5e4 52b8 0706 ef37
00000250: e665 a3b9 298e 23bb 93bd 1ebb b5b4 053a
00000260: bb00 3d39 bd88 8db9 5dea 6eb8 a87f 8438
00000270: a3ed 05b7 e112 8b37 d301 6638 97da 9bb9
00000280: c3aa 21bb 65cb 223a 5e13 2338 8278 d439
00000290: 3094 1abb 9afd dc37 b569 7137 b8b2 f137
000002a0: 4bde 4738 810f f6b7 7284 d539 2d55 b539
000002b0: dfa4 f6b8 e8c5 e8b7 4354 6d36 af17 8336
000002c0: 891e d6b4 607a 3938 8902 ddb7 ac7f 8b38
000002d0: 7976 18b8 3986 e839 797a 3fb8 4d1d 2e38
000002e0: 42be 1db6 2e56 d139 1842 9e37 c775 ebb6
000002f0: f80d 1838 cbb6 6d38 1724 24ba aa10 afbb
00000300: e48b a9bb 453a a83a c903 1f3a 1112 1fba
00000310: 039a d9b8 8dc9 f238 d09e 6ab8 9d8f 2537
00000320: 56b7 9438 d93a 24ba 4626 aebb ab78 683a
00000330: 33d7 d038 5129 863a 5a5c aabb 89df 6e37
00000340: 551a b6b4 9462 ea37 f910 3cb9 a721 3e3a
00000350: fc6b a63b 14af a23b 7c77 a5ba 6268 00ba
00000360: 8482 7439 c433 8538 cb4f b3b8 28ce 5db8
00000370: 0dc4 7f38 4396 54b9 b38b 483a 1e0f a43b
00000380: 9f10 02ba 1f31 33b9 7fe9 a4ba 780d a53b
00000390: 4c2a c4b7 13a1 2638 3537 97b8 e026 3139
000003a0: d5b7 40ba 64fb 9abb 88b7 9bbb 005c 993a
000003b0: 8c7c 053a 1953 9cb8 f438 82b8 762b a638
000003c0: cd4f df37 97fa 36b8 0188 2139 7bef 41ba
000003d0: 2c88 99bb e32e b239 a12b 9e39 5387 9d3a
000003e0: a507 9ebb f5ed 79b7 4fd4 9bb6 4a9d 3938
000003f0: 9c6a 6538 28fa 4639 748f fd3a 9f74 f73a

exp_avg_sq f4 [128, 21]
8.3312585e-08 1.7244705e-06 0.00014905396 0.00014148979 7.83486e-06 3.2451155e-07 4.6465148e-06 6.098101e-08
7.081753e-08 1.123526e-08 1.0479254e-08 1.222139e-07 1.5996711e-06 0.00014515077 3.5735616e-06 4.0620898e-07
8.079494e-06 0.00014127564 2.3328473e-08 1.5547538e-08 3.4982317e-08 1.2709417e-08 1.2368847e-07 1.0611148e-05
9.821839e-06 6.467036e-07 2.4458242e-08 5.703833e-07 4.509861e-09 5.5493263e-09 7.973429e-10 7.2484163e-10
1.5925721e-08 1.2069141e-07 1.03420325e-05 5.507113e-07 4.3181398e-08 6.093008e-07 9.768848e-06 1.1587549e-09
1.5315076e-09 2.260165e-09 1.6644121e-10 1.88747e-09 1.776407e-07 1.6345456e-07 1.124646e-08 3.946523e-10
7.4812565e-09 7.1065674e-11 8.6162286e-11 7.701166e-12 7.212102e-12 2.2264203e-10 1.7710506e-09 1.7352029e-07
9.956302e-09 7.095359e-10 1.1428226e-08 1.600844e-07 2.1783122e-11 1.8030119e-11 3.0137226e-11 1.0337815e-07
2.936618e-06 0.00019194496 0.00019040155 5.8362266e-06 4.7419883e-07 6.0657762e-06 7.329873e-08 8.4460254e-08
1.3016957e-08 1.3210248e-08 1.0951602e-07 2.9634757e-06 0.00018606041 3.974117e-06 5.72923e-07 6.302911e-06
0.00019305473 1.7199081e-08 2.6519455e-08 5.4259235e-08 9.91346e-08 1.0133751e-06 7.5023236e-05 6.8259826e-05
4.838304e-06 2.4961423e-07 4.211343e-06 3.1623895e-08 3.966257e-08 5.6952194e-09 5.562475e-09 1.1585823e-07
9.4743723e-07 7.303748e-05 5.340077e-06 6.3761587e-07 4.79201e-06 6.63016e-05 1.086912e-08 1.4341577e-08
1.6974006e-08 7.735267e-08 1.7127458e-06 0.00012321645 0.00011857562 5.1750894e-06 2.858487e-07 4.6781583e-06
5.528088e-08 6.463483e-08 1.8854626e-08 1.7988468e-08 9.517702e-08 1.7417328e-06 0.00011943204 3.0390722e-06
3.397954e-07 5.5390874e-06 0.000119632285 2.7344353e-08 3.851701e-08 5.608375e-08 6.1556636e-07 1.0486584e-05
0.0008882846 0.0008451006 4.7448382e-05 2.128072e-06 3.325241e-05 3.662959e-07 4.2676152e-07 6.202392e-08
6.172461e-08 7.592558e-07 9.870305e-06 0.0008640374 2.596236e-05 2.8029613e-06 4.9002916e-05 0.0008421098
8.640053e-08 9.559405e-08 2.0103339e-07 2.4005258e-08 3.7322988e-07 2.4014758e-05 2.2706783e-05 1.1145186e-06
7.134789e-08 1.1914815e-06 1.0247294e-08 1.2225317e-08 2.3856124e-09 2.4048012e-09 2.7143512e-08 3.6110416e-07
2.3302004e-05 1.2819302e-06 2.0892632e-07 1.3260193e-06 2.2267937e-05 3.8886387e-09 4.957944e-09 7.692902e-09
5.74362e-08 1.0505138e-06 7.969653e-05 7.639328e-05 4.0460413e-06 2.3277364e-07 3.1676968e-06 3.2198546e-08
3.744108e-08 8.8695655e-09 8.583779e-09 8.099922e-08 9.69204e-07 7.7545315e-05 2.4881779e-06 3.8043066e-07
4.538634e-06 7.571832e-05 1.782037e-08 1.2808078e-08 2.226485e-08 1.3853794e-07 2.4065523e-06 0.00017839327
0.00017219147 7.813715e-06 5.3719634e-07 7.285186e-06 8.398376e-08 9.627209e-08 2.2092426e-08 2.201432e-08
1.799092e-07 2.428242e-06 0.00017266827 5.8570167e-06 4.978732e-07 8.289005e-06 0.00017266751 2.4390376e-08
6.2356264e-08 7.519583e-08 4.786906e-07 7.269826e-06 0.00041721668 0.00041776503 1.7761684e-05 1.6355473e-06
2.235727e-05 1.7816012e-07 2.0633209e-07 7.6435064e-08 7.9264e-08 5.4670585e-07 7.376324e-06 0.0004038557
1.2066994e-05 1.8049387e-06 1.8091827e-05 0.0004223335 6.134839e-08 9.367008e-08 1.3978391e-07 5.366316e-07
7.2973976e-06 0.0004653764 0.00045725418 2.2419876e-05 1.6300776e-06 2.652254e-05 1.7878122e-07 2.1337783e-07
4.45145e-08 4.833224e-08 6.5214584e-07 7.6048314e-06 0.00045213464 1.3436236e-05 2.0930202e-06 2.3187093e-05
0.00046462484 6.700391e-08 5.93277e-08 1.15922646e-07 3.4386634e-08 1.0350063e-06 6.1012528e-05 6.1253835e-05
00000000: 94e9 b233 5b74 e735 5e4b 1c39 e05c 1439
00000010: 7872 0337 8738 ae34 42e9 9b36 aaf4 8233
00000020: 5914 9833 3205 4132 3f08 3432 e739 0334
00000030: 48b4 d635 9d33 1839 52d1 6f36 f014 da34
00000040: 2a8d 0737 6423 1439 db63 c832 668d 8532
00000050: 773f 1633 9b58 5a32 3acf 0434 8906 3237
00000060: 7ac8 2437 2299 2d35 3e18 d232 711c 1935
00000070: 28f5 9a31 64ac be31 052c 5b30 323e 4730
00000080: 08cd 8832 6797 0134 b182 2d37 98d4 1335
00000090: 7376 3933 d58e 2335 e2e4 2337 1042 9f30
000000a0: 227d d230 3e51 1b31 0901 372f b9b4 0131
000000b0: 81bd 3e34 0c82 2f34 7436 4132 60f6 d82f
000000c0: ea86 0032 6b46 9c2e 0e79 bd2e f87a 072d
000000d0: d7c0 fd2c 29cc 742f 4e69 f330 e550 3a34
000000e0: 470c 2b32 2609 4330 df55 4432 aae3 2b34
000000f0: 3b9b bf2d 3898 9e2d 808b 042e bd00 de33
00000100: b712 4536 d544 4939 87a6 4739 ced4 c336
00000110: 6495 fe34 9f88 cb36 6768 9d33 8460 b533
00000120: 2fa1 5f32 49f3 6232 122f eb33 20e0 4636
00000130: 3619 4339 6859 8536 f8ca 1935 987d d336
00000140: bc6e 4a39 2ebd 9332 e6cc e332 a90a 6933
00000150: d3e3 d433 4e03 8835 cb55 9d38 b726 8f38
00000160: b758 a236 b802 8634 294f 8d36 d7d2 0733
00000170: 7559 2a33 aeaf c331 0c20 bf31 bccd f833
00000180: 6453 7e35 b32b 9938 ea2e b336 a128 2b35
00000190: 0dcb a036 670b 8b38 e5ba 3a32 ec62 7632
000001a0: 3cce 9132 141d a633 7fe1 e535 aa33 0139
000001b0: cdab f838 aea5 ad36 bf76 9934 13f9 9c36
000001c0: f86d 6d33 60cd 8a33 c3f5 a132 0f85 9a32
000001d0: 1f64 cc33 7cc5 e935 9777 fa38 ddf2 4b36
000001e0: 206d b634 66dc b936 18e3 fa38 dee2 ea32
000001f0: e66d 2533 bce0 7033 663d 2535 89ef 2f37
00000200: c5db 683a be89 5d3a 5003 4738 00d0 0e36
00000210: 8178 0b38 53a7 c434 a81d e534 0332 8533
00000220: 778d 8433 a9cf 4b35 a398 2537 9280 623a
00000230: bec9 d937 821a 3c36 7b88 4d38 08c1 5c3a
00000240: 328b b933 6249 cd33 a3db 5734 1f34 ce32
00000250: 5360 c834 4d73 c937 727a be37 9196 9535
00000260: eb37 9933 feea 9f35 130c 3032 8307 5232
00000270: 23f0 2331 b641 2531 3729 e932 c7dd c134
00000280: ac78 c337 c90e ac35 3b55 6034 adf9 b135
00000290: 08cc ba37 d49c 8531 895a aa31 be29 0432
000002a0: c5af 7633 61ff 8c35 c022 a738 5435 a038
000002b0: 3bc3 8736 55f0 7934 9e94 5436 ad4a 0a33
000002c0: e7ce 2033 c360 1832 dc77 1332 cbf1 ad33
000002d0: 9915 8235 d39f a238 92fa 2636 fe3d cc34
000002e0: 924a 9836 f7ca 9e38 6813 9932 860a 5c32
000002f0: ec40 bf32 05c1 1434 4180 2136 140f 3b39
00000300: 4c8e 3439 a617 0337 da33 1035 4573 f436
00000310: 8f5a b433 24be ce33 c2c5 bd32 001a bd32
00000320: 102d 4134 e1f4 2236 490e 3539 6487 c436
00000330: 96a5 0535 0111 0b37 150e 3539 0183 d132
00000340: b8e8 8533 587b a133 5e7f 0035 54ef f336
00000350: e0bd da39 7907 db39 edfe 9437 fa84 db35
00000360: df8b bb37 484c 3f34 228c 5d34 9f24 a433
00000370: d837 aa33 57c1 1235 2482 f736 98bc d339
00000380: 5873 4a37 3941 f235 e7c3 9737 a56c dd39
00000390: a2be 8333 ac27 c933 8217 1634 0b0d 1035
000003a0: 2bdc f436 c3fd f339 9ebb ef39 5112 bc37
000003b0: 0ac9 da35 b97c de37 02f7 3f34 da1c 6534
000003c0: 3630 3f33 dc95 4f33 1f0f 2f35 012d ff36
000003d0: 7c0c ed39 326c 6137 d075 0c36 e781 c237
000003e0: e498 f339 cae3 8f33 7fcf 7e33 26f1 f833
000003f0: 81b0 1333 8cea 8a35 b4e7 7f38 6775 8038

exp_avg f4 [128]
-0.0017272836 -0.00045331076 -8.338622e-06 -0.0015666882 -0.0019891087 0.0031792242 0.0036390314 -0.0025384598
0.00036922062 -0.005444897 0.005244771 -0.004978608 0.0019548822 0.0008127706 -0.00040499124 0.00053515
-0.0015296555 0.00054578966 -0.00052825984 0.006850321 0.0005415279 0.00026080053 -0.002342251 0.0013030954
0.003446146 -0.0014330787 -0.0036501589 -0.0001439956 -0.0018827626 0.004274776 -0.0043354966 -0.0034774092
0.0039180145 0.00061228685 0.000150384 0.001006857 -0.00064670644 -0.004414891 0.0023918694 -6.325113e-05
7.316664e-05 0.0040653786 0.0007181825 0.00042142393 0.0009063444 -0.0010518843 -9.393703e-05 0.0012050726
-0.0068055294 -0.0031624322 -0.0026867096 -0.0010370368 -0.0038089524 7.579655e-05 -0.0063561583 -0.006407299
0.0014224667 0.0090623805 0.00027386867 0.00023543595 0.0051071616 0.00019159459 -0.0054661864 -0.0017964444
0.0016487053 9.814134e-05 0.0011252445 0.0043773917 -0.00081153103 -0.00021355756 0.002682948 -0.0027895279
-0.0033408252 0.00021797814 -0.0027999543 -0.00011507705 0.0021941117 5.6423145e-05 0.0010025563 0.0007010223
-0.0024040025 -0.0040529734 -0.0029263084 0.001689109 1.5439464e-06 -0.0008037272 -0.00042726242 -0.0017206754
-0.0010369314 -0.0011343397 -0.00072198646 0.0013622859 0.0071419794 -0.00083792495 -0.001060249 -0.0061605647
0.0008678247 0.00075177837 0.003694498 0.0007536459 0.0022531215 0.0007545186 -0.00041366936 0.0015310778
-0.005332219 -0.0044771 -0.0012349732 -0.0033004999 -0.0033194702 0.0009469486 -0.0033000852 0.0036373523
-0.0011665572 0.0022842926 -0.0003632466 0.0012130374 0.00042459584 0.00015499078 -0.0054641017 -0.0028581738
0.0006010877 -0.007894749 -0.0022679034 0.002430722 -0.00035948836 0.002545797 0.0018387395 0.0021889133
00000000: 0566 e2ba 57aa edb9 1ce6 0bb7 5559 cdba
00000010: b55b 02bb 885a 503b d17c 6e3b 4a5c 26bb
00000020: f493 c139 1b6b b2bb 54dc ab3b 9723 a3bb
00000030: 7b1d 003b 1d10 553a 0155 d4b9 4f49 0c3a
00000040: b97e c8ba 5313 0f3a eb7a 0aba a878 e03b
00000050: 52f5 0d3a 0ebc 8839 7380 19bb a0cc aa3a
00000060: bcd8 613b 24d6 bbba 8137 6fbb 86fd 16b9
00000070: 08c7 f6ba 6c13 8c3b c810 8ebb 3fe5 63bb
00000080: b062 803b e081 203a 66b0 1d39 84f8 833a
00000090: bc87 29ba caaa 90bb e9c0 1c3b b1a5 84b8
000000a0: 0a71 9938 de36 853b 6944 3c3a 90f2 dc39
000000b0: be97 6d3a 61df 89ba 0f00 c5b8 87f3 9d3a
000000c0: eb00 dfbb cf40 4fbb 8213 30bb 2eed 87ba
000000d0: 9e9f 79bb f7f4 9e38 5247 d0bb 52f4 d1bb
000000e0: 1072 ba3a 617a 143c 0896 8f39 5bdf 7639
000000f0: fa59 a73b c8e6 4839 b21d b3bb ac76 ebba
00000100: 5f19 d83a 3bd1 cd38 f17c 933a 3970 8f3b
00000110: edbc 54ba 6cee 5fb9 66d4 2f3b 83d0 36bb
00000120: bff1 5abb 1091 6439 707f 37bb 8555 f1b8
00000130: 16cb 0f3b e4a7 6c38 3568 833a cfc4 373a
00000140: 788c 1dbb cece 84bb 4fc7 3fbb 1865 dd3a
00000150: 9839 cf35 38b1 52ba 3102 e0b9 4988 e1ba
00000160: a5e9 87ba 20ae 94ba b143 3dba bb8e b23a
00000170: 4407 ea3b 31a8 5bba 0ef8 8aba 90de c9bb
00000180: bb7e 633a fe12 453a 641f 723b 5290 453a
00000190: 1ba9 133b e3ca 453a c3e1 d8b9 72ae c83a
000001a0: e5b9 aebb a3b4 92bb d3de a1ba 334d 58bb
000001b0: 788b 59bb a53c 783a 3e46 58bb a560 6e3b
000001c0: 2ae7 98ba 12b4 153b 2272 beb9 c8fe 9e3a
000001d0: 4a9c de39 0585 2239 350c b3bb 3350 3bbb
000001e0: 5092 1d3a fa58 01bc 1ba1 14bb bf4c 1f3b
000001f0: b679 bcb9 63d7 263b dc01 f13a df73 0f3b

exp_avg_sq f4 [128]
0.0001519986 1.0833377e-05 1.8065425e-07 0.00020452071 7.626907e-05 0.0001282863 0.0009078409 2.501315e-05
8.229345e-05 0.00018693057 0.00044917568 0.00049690215 6.52353e-05 0.002783213 3.8821567e-05 4.849757e-05
0.00012769988 0.00017439146 0.00030566897 0.0013438185 2.9550738e-06 0.0001342269 0.00025535887 0.001371418
0.0003019578 0.000111187444 0.00035479243 0.00068017864 0.0011377343 8.786368e-05 0.0017862378 0.00069489714
0.0012317534 0.000139597 3.0288913e-06 3.7171973e-05 1.1076988e-05 0.0012176586 0.00018283859 0.0005465183
0.00029762805 0.0007093756 4.554011e-05 6.829422e-05 0.00028921952 0.00012582265 0.00014451548 5.2199634e-05
0.00026076872 0.00061236974 0.0005370231 3.508297e-05 0.0002436891 1.0034927e-05 0.0004917882 0.0004076588
0.00029980968 0.00028354267 5.8893107e-05 7.615132e-06 0.00033681947 2.3908282e-05 0.00022071325 7.356678e-05
0.0019542812 1.1743968e-05 0.00040328683 0.00018952796 0.0006831958 0.0010109546 8.974829e-05 0.00017901571
9.86894e-05 8.3793966e-05 0.00016702146 0.00014185948 0.00014176797 3.8523613e-05 0.00039751528 0.00012813906
0.00019372055 0.0003582548 0.0010389667 0.00024940312 2.075285e-06 6.0171842e-05 2.3583007e-06 0.00023135653
9.195332e-05 0.00011540898 3.329702e-05 0.00012489311 0.00029523083 0.0002885972 7.494475e-05 0.0007515083
0.0004088337 0.00021368102 0.0010121514 0.0011806195 0.00025068698 7.714036e-05 1.2044031e-05 0.000203607
0.0018821803 0.00013378961 0.0009818065 0.00017574053 0.0017645821 0.00034735037 0.00027318374 0.0014163522
3.525827e-05 0.00026498124 0.00021380186 4.980038e-05 4.083372e-05 1.5262266e-06 0.00031845827 0.00042620726
0.000210005 0.00055637315 0.0002612722 0.0005708324 8.346885e-05 0.00027608842 0.00017127758 0.00044401322
00000000: d061 1f39 00c1 3537 ddf9 4134 9c74 5639
00000010: a5f2 9f38 9784 0639 2cfc 6d3a 55d3 d137
00000020: f694 ac38 cb02 4439 577f eb39 8a42 023a
00000030: efce 8838 9166 363b 57d4 2238 df69 4b38
00000040: 2de7 0539 dadc 3639 3242 a039 1123 b03a
00000050: c84f 4636 42bf 0c39 b0e1 8539 27c1 b33a
00000060: 1750 9e39 4e2d e938 6f03 ba39 044e 323a
00000070: 0720 953a 7443 b838 3220 ea3a c229 363a
00000080: c972 a13a c960 1239 f543 4b36 1ae9 1b38
00000090: 4dd7 3937 d899 9f3a 5cb8 3f39 3944 0f3a
000000a0: f60a 9c39 64f5 393a 5202 3f38 2e39 8f38
000000b0: 63a2 9739 43ef 0339 1489 1739 eef0 5a38
000000c0: c9b7 8839 7087 203a 03c7 0c3a 0d26 1338
000000d0: cb86 7f39 af5b 2837 59eb 003a 0abb d539
000000e0: c62f 9d39 74a8 9439 fe03 7738 7c85 ff36
000000f0: 2597 b039 a58e c837 436f 6739 dd47 9a38
00000100: 6613 003b f507 4537 3e70 d339 06bc 4639
00000110: 7e18 333a 0282 843a 3f37 bc38 2ab6 3b39
00000120: 78f7 ce38 8bba af38 7b22 2f39 1dc0 1439
00000130: 8da7 1439 6a94 2138 9969 d039 115d 0639
00000140: 7721 4b39 25d4 bb39 f02d 883a 52c2 8239
00000150: 2045 0b36 0661 7c38 4c43 1e36 4c98 7239
00000160: 10d7 c038 b907 f238 67a8 0b38 bdf5 0239
00000170: 36c9 9a39 dc4e 9739 a82b 9d38 de00 453a
00000180: bb58 d639 900f 6039 2aaa 843a 04bf 9a3a
00000190: a36e 8339 6ac6 a138 b810 4a37 567f 5539
000001a0: 7eb3 f63a e049 0c39 f6af 803a fd46 3839
000001b0: 8d49 e73a 941c b639 1a3a 8f39 e5a4 b93a
000001c0: 47e2 1338 2eed 8a39 0030 6039 c0e0 5038
000001d0: df44 2b38 bfd8 cc35 bff6 a639 9274 df39
000001e0: ca34 5c39 92d9 113a 5cfb 8839 eaa3 153a
000001f0: ff0b af38 f6bf 9039 fa98 3339 72ca e839
