models/checkpoint_4800.pth (torch, 255274 bytes, 24 tensors)

policy_log_std f4 [7]
000000 fd d1 30 3f 43 e3 26 3f ba 0c 5f 3f b0 34 b8 3e
       0.69070417 0.65190524 0.87128794 0.35977697
000010 e9 9c b5 3e 77 ea 7f 3f da 86 43 c0
       0.35471275 0.9996714 -3.0551057

fc1.weight f4 [128, 21]
000000 3d a9 13 3f 86 27 38 3f ad 49 5a be 98 8d be be
       0.5768011 0.7193531 -0.21317168 -0.37217402
000010 e8 20 05 bf 74 ea 40 be 1f ff 98 bf 74 a6 01 bf
       -0.52003336 -0.18839437 -1.1952857 -0.5064461
000020 6f e9 8f 3e 2f 44 bd 3d ac cd 47 3d bb 49 de 3f
       0.28107783 0.092415206 0.04878013 1.7366251
000030 77 82 26 be 5b de d5 be de 5a a6 be dc 0c 9a bd
       -0.16260706 -0.41771206 -0.324912 -0.07521984
000040 78 2e 42 bf f7 2a ca bd 50 bd e1 3e f2 e0 97 bf
       -0.75852156 -0.09871476 0.44089746 -1.1865523
000050 16 a1 22 3f c5 45 a5 3f af e5 dd be 0c 76 d6 3e
       0.6352705 1.2911917 -0.43339297 0.41886938
000060 d1 5d e8 3d 28 67 97 bc 6d 14 ea bf c7 f6 dc be
       0.11346019 -0.018481806 -1.8287483 -0.43157026
000070 fd 13 c4 be b9 dc 65 3f 40 3b 58 3c 64 e1 11 3d
       -0.382965 0.8978992 0.01319772 0.03561534
000080 84 2a a8 3f 17 a0 cc 3d f2 59 06 3f ab 51 5c 3e
       1.3137975 0.09991472 0.52480996 0.21515529
000090 ef 6b e3 bc d1 61 0a 3f 45 fa 9e 3e b8 df 00 bf
       -0.027761428 0.54055506 0.31050315 -0.5034137
0000a0 88 6f 3c 3f a0 d9 06 c0 a4 f3 97 3e 2c 79 b1 be
       0.73607683 -2.1070328 0.2967807 -0.3466276
0000b0 53 79 52 3f 0e 4e d6 3e 9e 42 49 3f 3a 97 17 bf
       0.82216376 0.41856426 0.78617275 -0.5921513
0000c0 28 df d6 3d 58 44 2d 3f 67 30 32 bf 8d ce a2 be
       0.104917824 0.6768241 -0.69605106 -0.3179821
0000d0 3c 34 ce 3e 4e 43 42 3e 54 29 47 3f c6 f9 6c 3f
       0.40274227 0.18970987 0.77797437 0.92568624
0000e0 44 8d 95 be b7 46 85 be 3e 6b d9 ba 5f 0e 56 3f
       -0.2920934 -0.26030514 -0.0016587747 0.8361568
0000f0 16 96 0a bf 85 4e d1 3e 81 c4 bb be e9 13 98 3e
       -0.5413526 0.40880218 -0.36673358 0.2970269
000100 0f 63 31 be a2 33 44 bd 7a ee 00 bf bb 3f 0b bf
       -0.17322944 -0.047900803 -0.50363886 -0.5439412
000110 04 30 da 3d 60 ca 25 bf 4e 22 4b bf 40 1c 87 3f
       0.106536895 -0.64761925 -0.7934922 1.0555496
000120 24 4d 83 3d 44 d8 82 be 3d 48 53 3f fd 1a 2a bf
       0.06411198 -0.25555623 0.825321 -0.6644743
000130 1b 48 03 bf 0e 62 36 bc 3c ec 94 3e 51 a1 5b bd
       -0.512819 -0.0111317765 0.29086483 -0.05362064
000140 f9 5d 03 be 98 a3 ed 3e e2 bf 2f bf b3 08 89 bf
       -0.12828816 0.46413875 -0.68652165 -1.070578
000150 53 e5 87 3f 18 68 86 bf f7 43 0a 3f 5c 7d dd 3e
       1.0616859 -1.0500517 0.54009956 0.43259704
000160 ea 64 fe 3e 66 19 80 bf 57 8e 0a bf f2 d9 23 3e
       0.49686366 -1.0007751 -0.54123443 0.16001108
000170 fa 97 62 3e 1e ba df 3e f8 03 10 bf a7 57 7c 40
       0.22128287 0.43696684 -0.56256056 3.9428499
000180 32 09 ed 3e 38 1c ab 3e 3b 0a 90 3c 0a e4 49 3e
       0.46296078 0.33419967 0.017583003 0.19715896
000190 b1 a1 09 bf 57 e5 ca 3e 72 63 ec 3e d0 c5 88 3f
       -0.53762347 0.39628097 0.4616962 1.0685368
0001a0 76 93 da bf b2 1b 75 3e cf e0 ab be 30 03 18 3e
       -1.7076252 0.23936346 -0.33569953 0.14844966
0001b0 70 ce b5 3e 1c 91 1b 3d a3 d5 5d bf 82 d8 59 bd
       0.35509062 0.037980184 -0.8665411 -0.053184994
0001c0 c0 fb 67 3f 9b 7b 71 3d e8 cd 2f 3d 8b cb d1 3d
       0.90618515 0.05895577 0.042920977 0.10243901
0001d0 b0 a8 b9 bf 0f 24 c9 bd 1f 25 0b 3d 03 03 fc be
       -1.4504604 -0.09821331 0.03397095 -0.49221048
0001e0 28 54 a3 be 48 20 94 bf 2f 10 5d 3e 62 0f 31 bf
       -0.31900144 -1.1572351 0.21588205 -0.691641
0001f0 3c 22 00 3e c0 8c a8 bf ad 52 8b bd dd da 4b 3e
       0.1251306 -1.3167953 -0.068028785 0.19907708
000200 60 40 3b bf d9 2b 98 3e a9 89 8d be e9 55 5a 3f
       -0.73145103 0.29720953 -0.2764409 0.8528734
000210 50 57 61 3e 56 32 48 3d fe 37 81 3e 66 46 d7 bd
       0.22005963 0.04887613 0.2523803 -0.10511474
000220 87 a9 ba bd 34 be 09 bf 5d 28 25 bf 64 7b 22 be
       -0.09114366 -0.5380585 -0.64514714 -0.15867382
000230 1b da d1 bd 07 c3 b7 3d 6c 1b c1 bc bc e7 ee be
       -0.102466784 0.089727454 -0.023572646 -0.46661174
000240 c6 14 58 bc 45 a2 a8 be 34 f6 b6 3f 55 cf 15 bd
       -0.0131885465 -0.32936302 1.4293885 -0.03657468
000250 13 e0 36 bf 08 12 be 3e 68 85 ad 3d 4e 61 a8 bd
       -0.7143566 0.37123132 0.08472711 -0.082216844
000260 c9 21 89 3e 45 43 d4 3e 21 e1 25 bf b0 de 8d 3e
       0.2678359 0.41457573 -0.64796644 0.2770896
000270 10 cf f0 bd ed 1c 24 3e 5f bd 20 40 cb c2 53 3f
       -0.11758244 0.1602666 2.5115583 0.82719105
000280 60 72 df 3e 20 09 67 3e f5 bd 06 3c b2 6a 6d 3f
       0.4364195 0.22562075 0.008224 0.9274093
000290 8b 3e a8 3e 1e 1b f7 3e 9a 5e b4 3e ea 75 61 bf
       0.32860216 0.48262876 0.35228425 -0.8807055
0002a0 37 d1 29 3d 1b e5 b0 bf 0c 5c 90 3e 94 09 14 3f
       0.04145929 -1.3819917 0.28195226 0.57827115
0002b0 93 0e 43 3e 63 30 21 bc 10 39 1b 3f 68 ad 46 3f
       0.19048528 -0.009838196 0.60633945 0.77608347
0002c0 8e 85 d2 bd e1 31 b2 bd fa 7e 4c 3e d4 03 67 bf
       -0.1027938 -0.0870092 0.19970313 -0.90240216
0002d0 d8 55 46 3e ad c9 7b 3d 0f 8e 62 3e d1 69 e9 3d
       0.19368684 0.06147163 0.22124504 0.11397136
0002e0 2a 91 f9 3d 27 f0 95 3e 6a 49 28 3e e1 1d d3 3f
       0.12185891 0.29284784 0.16434255 1.6493493
0002f0 71 57 5d bf 81 b3 a1 bf a2 1c 85 3e 28 d5 88 be
       -0.8646155 -1.2632905 0.25998408 -0.26725125
000300 27 8f 18 bf 00 de 20 bf 42 94 dd bd 92 62 c7 be
       -0.59593433 -0.62838745 -0.108192936 -0.3894239
000310 c1 fb f1 be f5 ca 06 3f b8 4f 45 bc 46 e2 aa 3d
       -0.47262385 0.5265344 -0.012042932 0.083439395
000320 2a 44 2e 40 58 17 b1 3c b2 18 a1 be 0e c4 94 3e
       2.7229104 0.021617576 -0.31464154 0.29055828
000330 63 c3 36 3e 0d fa 25 3e d5 0a 66 be ad f4 1d 40
       0.17847972 0.16208668 -0.2246507 2.4680588
000340 b2 8c 58 3e 2f a4 8f 3f 19 f3 2a bf 27 46 78 3f
       0.21147421 1.122198 -0.6677719 0.96982044
000350 37 58 40 bd 18 96 4a be d3 3e 3b be 35 e9 43 3f
       -0.04695913 -0.19783819 -0.18285684 0.7652772
000360 0d 40 4b bf d6 b6 de be 3c 3a 20 bf 83 aa 93 3d
       -0.7939461 -0.43498868 -0.6258886 0.07210257
000370 a5 0f 0e be 82 f2 aa 3e e3 cf ae 3e 33 f5 d7 bc
       -0.13873155 0.33388144 0.3414298 -0.026362037
000380 85 97 cb 3d e3 02 14 3d 8e 67 2e bf 49 3b 1b be
       0.099410094 0.036135565 -0.6812676 -0.15159334
000390 89 7f 49 3f 3b 39 92 be bd 55 a2 bf 77 44 7d 3f
       0.7871023 -0.28559288 -1.2682415 0.98932594
0003a0 88 3c 59 3f d2 8d 12 3e 81 be 38 bf a8 f6 90 bf
       0.8485799 0.14311913 -0.72165686 -1.1325274
0003b0 1f 9f 9d 3f 49 02 18 3f 0a fc 12 3e 24 5e ee 3d
       1.2314185 0.59378487 0.14353958 0.1163905
0003c0 61 c2 af bd e3 fe 9e 3e a7 f6 49 40 37 9c 07 be
       -0.08581997 0.31053838 3.1556795 -0.13243185
0003d0 9c 9c 30 be bf 37 48 3e 56 e4 00 3e 28 a2 96 be
       -0.17247242 0.19552515 0.12587103 -0.2942059
0003e0 4d 9e db bd a5 a0 d8 bd 6f c2 4d bf 3d 13 9f 3f
       -0.10723553 -0.105775155 -0.8037481 1.2427746
0003f0 3f 23 ae be 50 19 07 be a2 10 48 be b8 fe 52 3e
       -0.34011266 -0.1319325 -0.19537595 0.2060498

fc1.bias f4 [128]
000000 f3 b5 e0 be 91 16 c1 3e 04 af 3d 3f c7 85 07 be
       -0.43888816 0.3771253 0.7409518 -0.13234626
000010 a5 15 ba 3e 15 7e 50 3e dd 5c 29 be 78 f3 99 3e
       0.36344638 0.20360596 -0.16539331 0.30068564
000020 c5 59 ba 3e bc 7a d8 bd 07 ae 48 be c7 a6 b9 3d
       0.36396614 -0.10570285 -0.19597636 0.090650134
000030 94 b6 bb 3d 83 b9 27 3e c1 b9 26 bf 3d 89 b2 3d
       0.091656834 0.16379361 -0.6512719 0.087175824
000040 ef 85 35 3d 70 7d 9d 3e a5 d7 72 be b9 de 18 3e
       0.044317182 0.30759764 -0.23715074 0.14928712
000050 40 b1 19 bf 3f 40 12 be 43 32 ec be ae 2d 24 3c
       -0.6003609 -0.1428232 -0.46132097 0.0100206565
000060 3a 21 83 be df b5 ab 3e 44 2b b5 3c 63 cc cd 3e
       -0.25611287 0.33537194 0.022115357 0.40194997
000070 83 d8 5e 3e a4 7d e4 bd d8 9b 09 3f 88 cc d5 bd
       0.2176228 -0.111567765 0.53753424 -0.10439402
000080 62 81 94 bd 00 73 b7 3e 14 ee 46 3f 08 ba f9 3e
       -0.0725124 0.35829926 0.7770703 0.48774743
000090 2e 56 f7 3e 1c 80 d6 3d fc ac 11 3d c5 35 07 be
       0.48307937 0.10473654 0.03556536 -0.13204105
0000a0 e1 b0 b8 be 7a 34 b7 bd c0 2a 8e 3d f7 47 13 3e
       -0.36072448 -0.08945556 0.06941748 0.14382921
0000b0 51 63 9f 3e db 6e 10 3e a3 d3 89 3d 46 62 3b 3f
       0.3113046 0.14104788 0.067298196 0.7319683
0000c0 97 f8 e8 3e a5 b0 ea 3c ca 13 24 3e c5 bd f1 3e
       0.4550216 0.028648684 0.16023174 0.47215095
0000d0 00 41 4d be 5b c2 27 bf 06 23 2a bd 63 2e a7 3e
       -0.20044327 -0.6553094 -0.041537307 0.32652578
0000e0 ad 1e d2 be 63 7c 0f bd fc 9d 33 be 43 48 1a bf
       -0.4103903 -0.035030734 -0.17540735 -0.6026651
0000f0 26 6f 4a 3d bf 8c 9a be 02 84 cf 3b 1a 20 66 be
       0.049422406 -0.30185506 0.006332875 -0.22473183
000100 f9 b0 3e 3e e9 aa 03 bf d5 87 3e bd d1 9f 13 bf
       0.18622197 -0.51432663 -0.04651626 -0.57665735
000110 41 f6 8a 3e 96 69 21 3e af 23 51 be d7 22 64 3e
       0.27141002 0.15762934 -0.20423768 0.22278915
000120 5e 8f a1 3e ae 21 b5 3e a2 dd a4 be 00 bf a1 bd
       0.31554693 0.35377258 -0.32200342 -0.078977585
000130 3e af ce 3e 3f 88 53 bf 12 95 99 3e 98 86 a4 be
       0.40368074 -0.8262977 0.29996544 -0.32133937
000140 cf 2d 5b 3e fa 1b dd 3d f4 8a 32 3e 66 73 f2 bd
       0.21404193 0.10796352 0.17435819 -0.11838417
000150 79 81 4d 3f 2a 51 11 bf e1 0c 99 bc 63 67 bc be
       0.80275685 -0.5676447 -0.018682899 -0.36797628
000160 6d 45 e1 be d1 d3 3d bd c6 01 35 bf 7b 2f 15 3f
       -0.4399828 -0.046344582 -0.7070583 0.58275574
000170 4e 70 0d 3d 59 f1 44 3f 3e d9 e2 3d 2c ba f7 3e
       0.03453093 0.7693077 0.11076592 0.48384225
000180 71 87 e9 be 70 6e 95 3d f4 1b 9b 3e 79 fc 03 be
       -0.45611146 0.07296455 0.30294764 -0.1288928
000190 c2 24 a0 be 21 dc 2b bf 8a a2 b7 be cc 50 59 bd
       -0.31278044 -0.67132765 -0.35866195 -0.05305557
0001a0 76 f1 5e bd 4c 6d c5 bd 1e 5b b5 3e 34 60 ab 3d
       -0.054429494 -0.09639987 0.3542108 0.08367959
0001b0 9b da 0b 3f 3d 51 04 be 09 fb b2 bd 6a 55 15 be
       0.5463044 -0.12921615 -0.087392874 -0.14583364
0001c0 e1 3b 04 3f b2 48 5d 3d e8 c8 7a 3e 01 cd 2a bf
       0.5165387 0.054024406 0.24490702 -0.6671906
0001d0 bf 6f bd 3e 2f aa 43 be 6a a8 f3 3e 5b 4f 9a 3d
       0.36999318 -0.19107889 0.47589427 0.07534667
0001e0 14 a5 d2 be c0 ae 36 3e 5d b1 ec 3e 78 7c 65 3e
       -0.4114157 0.178401 0.46229067 0.22410762
0001f0 5a 3a 0c bf 6b 86 8d bd 83 ee af 3e 28 57 52 3e
       -0.5477654 -0.06910404 0.34361658 0.2054106

fc2.weight f4 [128, 128]
000000 86 5c 6c 3e bc 3f c0 bd b3 61 ad be a8 18 1b 3e
       0.2308217 -0.09387156 -0.338636 0.15146124
000010 20 54 59 3e 20 e0 1f bf 19 00 ad be 1e a4 61 3f
       0.21223497 -0.6245136 -0.33789137 0.8814105
000020 51 d6 3f be 95 37 80 3f 9b cb 2e 3f e4 c1 c0 3b
       -0.18734099 1.0016962 0.6827943 0.0058824886
000030 87 91 a6 be d7 3b 35 3f 8a 67 12 3f 64 55 93 3d
       -0.32532904 0.70794433 0.5718924 0.07194021
000040 c4 75 02 3e 08 7e 35 bb dc 51 82 3d ba 93 19 3f
       0.12740237 -0.0027693529 0.0636327 0.5999104
000050 f6 a4 15 bd 9b dd 2c 3f 21 5d cf be d6 db c6 bf
       -0.036534272 0.67525643 -0.4050074 -1.5535839
000060 bb 58 86 be fb 23 10 3e 72 14 c2 be 3a 9a 59 bf
       -0.2623957 0.14076225 -0.37906224 -0.85000956
000070 b7 9a 9b 3d ff 16 65 3e ea 9d ff 3f a3 8b 29 3f
       0.07597869 0.22372054 1.9970067 0.66228694
000080 2d 3a f2 3e 48 70 92 3e f1 e2 12 bf 30 e6 8d 3c
       0.4731001 0.2860129 -0.57377535 0.017321676
000090 05 15 c6 3d dc b5 92 3e 8a 9e 4e bf 96 2b d7 be
       0.09671978 0.28654373 -0.8071066 -0.4202544
0000a0 cd 6c 81 bf 60 7c 0b 3e 9b b8 43 3f cc cf 04 3e
       -1.0111328 0.13621664 0.7645356 0.12969893
0000b0 47 58 c6 3e 1a 6a b4 be 5e 1f 7b 3f 53 31 13 bf
       0.38739225 -0.352372 0.9809474 -0.5749714
0000c0 57 8a c0 be ac a9 c5 3e 62 28 65 3d b4 47 f6 be
       -0.37605545 0.38606012 0.055946715 -0.4810158
0000d0 07 a6 33 bf ef fd b0 bf 17 c9 ec bc 4c f1 24 be
       -0.7017521 -1.3827494 -0.02890448 -0.16107672
0000e0 11 54 c0 bd 06 39 94 3a 82 fa 1e 3e b3 d4 c1 be
       -0.093910344 0.0011308498 0.15525249 -0.3785759
0000f0 a5 e4 86 bf 61 9d 20 3d 54 44 1f bd 14 ae b3 bd
       -1.0538527 0.03921259 -0.038883522 -0.08773437
000100 6c 41 37 3f 60 ec 82 bf 9c 1c 3d 3f 75 d9 c5 bf
       0.715842 -1.0228386 0.7387178 -1.5456988
000110 0a 2f 83 3e df f1 56 be 6f d4 e6 bd 07 27 e7 3d
       0.25621825 -0.20990704 -0.11270987 0.11286741
000120 44 77 77 be 66 5d 07 bf 92 ba e3 3f fe 9e 17 be
       -0.2416659 -0.5287689 1.7791312 -0.14806744
000130 c0 7f 87 3d e7 7d 85 3e 9c 14 f1 be 19 59 a6 bd
       0.06616163 0.26072618 -0.47086036 -0.08122463
000140 03 68 4f 3d 90 79 3f 3d 17 2e 58 3f 56 20 8d 3f
       0.050636303 0.04674679 0.8444533 1.1025493
000150 83 f2 1d bf 8c c2 11 3f 52 b9 eb be e1 53 3f bf
       -0.6169817 0.5693748 -0.46039826 -0.74737364
000160 18 85 6f bb ba 65 5a bc 06 49 1c 3f 53 3a 52 bf
       -0.0036547836 -0.013329918 0.61048925 -0.82120246
000170 55 0c cb bc 46 72 e5 3c 86 32 ba 3e 52 9b 1c be
       -0.024786154 0.028008591 0.3636667 -0.15293625
000180 41 ec b0 be e6 be 89 be b2 33 54 be ef 08 6f be
       -0.34555247 -0.26903456 -0.20722845 -0.23343252
000190 0a 1d 19 3f 45 e1 00 3e 26 66 ba be a7 47 85 3c
       0.59809935 0.12585934 -0.36406058 0.016269518
0001a0 88 09 8d be cd 2f 1b 3f 17 12 c8 be 4a cb 02 3f
       -0.27546334 0.60619813 -0.390763 0.51091444
0001b0 1d 31 73 3e 4d be e1 bd 29 62 a2 3e 18 70 9a 3e
       0.23749204 -0.11022625 0.31715515 0.30163646
0001c0 9b 12 30 3e 8a b8 2d 3f 75 58 83 bf 2c 90 ac be
       0.17194597 0.6785971 -1.026137 -0.33703744
0001d0 d6 16 0d 3b 26 aa 5f be 3f 8b f2 3f 27 12 84 be
       0.0021528504 -0.2184225 1.8948745 -0.257951
0001e0 f1 f0 d1 3e 3a 53 3d 3f 37 93 83 be f2 d6 0e bf
       0.41004136 0.7395512 -0.25698254 -0.5579673
0001f0 9d 64 e1 3e e2 e5 8d 3e 9c 5f 08 bf 19 04 7f 3e
       0.44022074 0.2771445 -0.5327089 0.24903907
000200 8f ac b7 be c9 3b a2 3f 4a 38 41 bf a2 fa 1e be
       -0.3587384 1.2674495 -0.75476515 -0.15525296
000210 94 12 14 3f 44 3a b8 be ca e4 ed 3c 94 99 13 bd
       0.5784085 -0.35981953 0.02903976 -0.036035135
000220 90 53 48 3e c4 b3 96 be 73 04 9b 3e b2 e8 6e 3f
       0.19563127 -0.29434025 0.30276832 0.93323815
000230 c0 b1 5c 3f 0e 01 0c bd 58 f3 b6 3f b7 91 9d bf
       0.86208725 -0.034180693 1.4293013 -1.2310094
000240 df f7 f8 3e ea 0f bb be 0e f8 b5 be 2a 2c 9a 3f
       0.4862661 -0.3653558 -0.35540813 1.2044728
000250 1e c9 10 be 44 c1 e8 be 51 28 0a bf a1 55 d7 bd
       -0.1413922 -0.4545995 -0.5396777 -0.10514379
000260 78 29 10 bf c8 9e 11 be 1a 78 13 bf af 1f 5b be
       -0.56313276 -0.14220726 -0.57605135 -0.21398805
000270 69 33 ad be 5e e7 30 be 82 83 04 be f0 f0 52 bd
       -0.33828285 -0.1727576 -0.12940791 -0.051499307
000280 63 89 8e 3f 2b 3d 29 bd 14 20 29 bf 85 72 77 3e
       1.1135677 -0.0413181 -0.6606457 0.2416478
000290 92 63 33 bf 6c 30 95 be 64 1d d5 bd 96 56 92 3e
       -0.7007381 -0.29138505 -0.104059964 0.28581685
0002a0 47 52 bb be aa a0 a3 3a 46 f1 e0 3e 89 42 cd 3e
       -0.3658621 0.0012483795 0.43934077 0.40089825
0002b0 c8 53 1e 3f 24 c0 58 be 79 95 1c 3f fe 04 9b bf
       0.6184659 -0.21167046 0.6116558 -1.2110898
0002c0 3e 06 b1 be b4 05 c9 be c7 81 b4 3f 2d f3 db be
       -0.34575075 -0.39262164 1.4102105 -0.42958966
0002d0 c1 b8 58 bf 22 ae d5 3e 90 f0 b7 3e 09 f3 a6 bf
       -0.8465691 0.41734415 0.35925722 -1.3042918
0002e0 2a bc 8d 3e 83 0c 13 3e b7 f4 86 be c6 00 b0 3e
       0.2768262 0.14360242 -0.26358578 0.3437559
0002f0 71 03 9f bf 37 bb 92 bd d2 e2 e3 bc 65 54 02 bf
       -1.2422925 -0.07164615 -0.027818117 -0.50910026
000300 cd 4b 6a 3e ef 1b 89 be 3f c4 b7 bb 82 e4 8d be
       0.22880478 -0.26779124 -0.005608111 -0.277134
000310 9f 0a 37 3e e6 e8 f4 3d f1 bc fc be a3 b2 05 bd
       0.17875145 0.11958484 -0.493629 -0.032641064
000320 8b b0 18 bf e0 43 9e bf af e3 f9 bd f0 ba c7 bd
       -0.59644383 -1.2364464 -0.1220163 -0.097524524
000330 98 31 ca 3d fb ed 6e 3f 52 c2 fe 3d 62 13 c6 bf
       0.098727405 0.9333188 0.124394074 -1.5474665
000340 ff 8c de bd f3 74 ed bd 06 02 20 3f 5f 7a 35 bd
       -0.108667366 -0.11594572 0.6250309 -0.044306155
000350 af 58 8f bf 1f e1 49 bd e9 17 fd be f7 a2 85 bd
       -1.1198939 -0.049286958 -0.49432305 -0.06525224
000360 a3 78 ab bd f4 c1 bc be d2 8f 25 3f fd c7 98 bf
       -0.08372619 -0.36866724 0.6467258 -1.1936032
000370 48 e2 8a 3e d6 e4 56 bf 09 71 cb 3e 09 1c 94 3e
       0.27125764 -0.83942926 0.39734676 0.2892764
000380 57 65 3c be 74 92 6f bf 93 62 90 3e eb 43 3f bf
       -0.18398033 -0.93582845 0.28200206 -0.7471301
000390 4b a0 62 3e 74 65 66 3f 20 22 1d be fa a7 4d bc
       0.2213146 0.89998555 -0.15345049 -0.012552256
0003a0 fe bf 8e 3d 75 bd 0b bd d9 46 2c bf 09 08 86 3f
       0.06970213 -0.034116227 -0.67295605 1.0471202
0003b0 35 50 1f be 20 64 fe 3e a7 48 12 bf ad fc 8e 3d
       -0.1555794 0.49685764 -0.5714211 0.06981788
0003c0 8d 91 b9 be 8e 3f 30 3f 8f fa 90 3e d8 6c c9 3e
       -0.3624386 0.68846977 0.2831616 0.39340854
0003d0 e6 b3 1f 3e 98 c1 9a be a6 b0 02 3f b8 85 fe 3d
       0.1559597 -0.30225825 0.51050794 0.124278486
0003e0 d8 0b b9 3e b5 10 42 3f da cd 67 bd f9 ac 98 3f
       0.3614185 0.7580674 -0.0565928 1.1927787
0003f0 5d ce 33 3f 9b 4b 92 3f 2c 90 7b bd 1c 69 6c 3d
       0.7023676 1.1429323 -0.06141679 0.057717428

fc2.bias f4 [128]
000000 d6 4f af be 5e 1e 0b 3e ed 10 0f 3e e0 36 cd be
       -0.34240597 0.13585803 0.139713 -0.4008093
000010 70 96 98 bd 33 09 8d be 73 41 ff 3e b5 e7 b6 be
       -0.07450569 -0.2754608 0.4985462 -0.35723653
000020 18 62 bd be af 21 a1 3e 75 58 d0 3e 62 c3 28 3f
       -0.36988902 0.3147101 0.40692487 0.6592313
000030 36 98 f5 bd 91 16 5e 3c d5 ab 09 3f 92 dd 96 bd
       -0.119919226 0.013555185 0.5377782 -0.0736648
000040 11 b7 84 bd a1 8f 24 3e 8b cc 3b 3e 79 fc 1c 3e
       -0.0648023 0.16070415 0.18339746 0.15330686
000050 8d 98 cd 3c 37 3f ca bd 5e d9 2b 3e ce bc e7 be
       0.025097156 -0.098753385 0.16782138 -0.45261234
000060 90 4f 9b be 09 27 03 bd 01 10 3a 3e 52 3f f1 bc
       -0.3033414 -0.03201965 0.18170168 -0.029449139
000070 79 ba 11 3f 70 00 9b 3d 50 2a cd bd 37 b0 cb be
       0.5692516 0.07568443 -0.10017836 -0.3978288
000080 aa 90 c3 3e 7b d2 3b 3f ae a3 d6 3e c9 31 d0 3e
       0.38196307 0.7336804 0.41921753 0.40662983
000090 92 b3 a9 be 84 6e 54 be fc f6 e2 be b5 04 06 3f
       -0.33144814 -0.20745283 -0.4432906 0.5235093
0000a0 e1 45 13 3e 4c 5c 0a bf 6b 37 f8 be ae 17 16 be
       0.14382125 -0.54047084 -0.4847978 -0.1465747
0000b0 90 ef e1 bd 9f 1c b1 3d 6b ba 88 3e 4a 64 3e be
       -0.11032021 0.08648037 0.26704726 -0.18592945
0000c0 f3 67 01 be 94 2a 3a 3e b4 b9 d1 bc b1 94 88 3d
       -0.1263731 0.18180305 -0.025601245 0.06668986
0000d0 ac aa 55 be eb 6d c1 be 34 53 27 3e 79 2f 51 be
       -0.20865887 -0.37779173 0.16340333 -0.20428266
0000e0 52 95 24 be 95 78 e6 be 89 2a e6 bd df 98 a6 be
       -0.16072586 -0.45013872 -0.11238582 -0.32538506
0000f0 dc 0c fd 3c c6 db 68 3e 9b 4f ae be 96 13 4c 3d
       0.03088992 0.22740087 -0.3404511 0.049823366
000100 75 37 18 3f 33 71 f8 be a5 8a bd 3e 3c 57 14 3d
       0.5945962 -0.48523864 0.3701984 0.036216006
000110 d2 dc 19 3b e7 e9 78 3e 61 0a 8b 3e d2 71 4c 3d
       0.0023477566 0.24307977 0.27156356 0.049913235
000120 35 e6 de 3e fe cd 68 bd b5 ac d2 3d fc 11 a1 bd
       0.4353501 -0.056837074 0.102868475 -0.07864758
000130 85 7f 62 be 0f 90 27 be 6f 9c 8d 3d 9d a2 46 bb
       -0.22118957 -0.16363548 0.06914603 -0.0030309327
000140 6f 9b 94 be 9f f3 03 3f 9d 4e 18 bd 95 d7 c9 be
       -0.29024836 0.5154361 -0.037184346 -0.3942229
000150 d7 3a 65 bd d5 73 41 3d 20 40 e6 bd 76 e2 33 bd
       -0.055964317 0.047229607 -0.112426996 -0.04391714
000160 34 22 4a be a0 da 28 be e2 91 a9 bd 24 e0 74 3e
       -0.1973961 -0.16489649 -0.08279778 0.23913628
000170 e1 23 a1 be 2e 19 fa 3d 6d 16 5c 3e 32 cc 7c 3e
       -0.31472686 0.12211834 0.2149293 0.2468727
000180 3b e4 ed bd db 23 07 bf 7b 1d 29 3e 26 a1 58 be
       -0.11615797 -0.52789086 0.16515152 -0.21155223
000190 2f ac 51 3e 68 67 59 3d 2e ca 49 3e b7 58 e1 bd
       0.20475839 0.05307713 0.19706032 -0.11003249
0001a0 a0 61 02 bf 12 2a 21 bd 0e 9d c2 3a 47 9a d2 3e
       -0.50930214 -0.039346762 0.0014847831 0.4113333
0001b0 2a 6d 8e 3e cc c6 8d 3e 09 ca 7a be b9 1f 2c 3e
       0.2781766 0.27690732 -0.24491133 0.16808976
0001c0 bd e8 65 be d0 84 69 3c ac 95 ad be 43 82 8c bb
       -0.22452064 0.014252856 -0.33903253 -0.0042879893
0001d0 e5 7b 10 be fc 35 75 3d 84 22 e0 bd 36 a5 c0 3e
       -0.14109762 0.059865937 -0.10944083 0.37626046
0001e0 93 72 bc bd 28 a9 3a bd 42 d3 e0 be f9 79 9c 3d
       -0.09201541 -0.045571476 -0.43911177 0.07640452
0001f0 c9 a3 95 be 54 60 88 bd 99 e4 a8 be 36 24 0a 3e
       -0.2922652 -0.06658998 -0.32986906 0.13490376

policy_mean.weight f4 [7, 128]
000000 dc 8e 9b 3e 91 94 4d 3e 58 ba c2 bc ac cc 4c 3b
       0.3038243 0.20076205 -0.023770496 0.0031249924
000010 e8 80 af 3a a3 d8 81 3d 50 fd 2d be 58 bf d2 3c
       0.0013389857 0.06340148 -0.16991162 0.025726005
000020 88 89 57 bc 9f 92 c7 bb 1b 6c 07 be e2 71 3a bd
       -0.013155349 -0.0060904766 -0.13224833 -0.045518763
000030 3a 24 f9 3d 24 18 46 bd fa 3d 1a bd 4e b6 00 be
       0.12165113 -0.048362866 -0.03765676 -0.12569544
000040 dc 5c 0b 3d cf 8a 04 3e 0f 07 81 3b 92 47 3b 3d
       0.034024104 0.12943576 0.003937609 0.04572255
000050 f8 b9 1a be 0f 8d 16 bc bd b9 57 bd 60 c6 c9 bc
       -0.15110004 -0.009188904 -0.05266737 -0.024630725
000060 64 f3 dd bb da ab 84 bb ac 17 b5 bd e0 88 02 be
       -0.006773399 -0.0040488066 -0.08842406 -0.12747526
000070 2d 1d ab bd 0c 2f 05 3b 3b a0 9d bd 00 df b6 3c
       -0.08355174 0.0020322232 -0.07696577 0.022323132
000080 0c 7d 67 bd cc 05 9b 3c 62 fa 2a bd d4 d2 66 3d
       -0.05651574 0.018923663 -0.04174269 0.056353405
000090 60 88 f0 bc 38 9d cd 3b e0 b6 8f bc 1e f0 9e 3c
       -0.029361904 0.0062748455 -0.017543256 0.019401606
0000a0 ac 1b e1 3d d3 7f b3 3d bc 00 f6 bc 06 5a ca bd
       0.10991606 0.08764615 -0.030029647 -0.09880452
0000b0 4a 02 cd 3c 3b d2 73 3d 6b 9c 68 3e 9c aa 69 bd
       0.025025506 0.059526663 0.22715919 -0.05704747
0000c0 58 69 9d bc 11 96 9d 3d 59 28 25 3e 93 c8 3d bc
       -0.01921527 0.076946385 0.16128673 -0.011583465
0000d0 3e a5 85 be 82 26 5d bc da ec 29 ba d8 3e ad 3c
       -0.26102632 -0.0134979505 -0.0006482132 0.02114813
0000e0 4c bd fb bd c7 f1 4e bd a9 17 9f 3b 32 14 4c 3d
       -0.12291965 -0.050523546 0.0048551154 0.049823947
0000f0 1e d8 82 3c 4c 87 23 bd 6f 29 b9 3d 9c a6 db bd
       0.015972193 -0.03992395 0.09041106 -0.107251376
000100 fb 86 47 bc e1 6d 78 3c 11 1f 0d be 61 44 2d 3d
       -0.012178178 0.015162916 -0.13781382 0.04230154
000110 9f 34 ef 3d 79 fb d3 bd 44 31 95 bc 9d 30 a5 bd
       0.116799586 -0.10350699 -0.018211968 -0.08065913
000120 25 e4 ec bc c7 40 06 be 39 b1 9d bd ec 10 38 3d
       -0.028917382 -0.13110648 -0.07699818 0.044938013
000130 48 2a 89 bc 8b 49 8f 3d 0a e8 9d be 30 a8 3f 3d
       -0.016743794 0.06996449 -0.30841094 0.046791255
000140 91 42 10 3d 2e 56 bb 3c 87 17 84 3b ed 2b e0 3d
       0.035219733 0.022868242 0.004031125 0.10945878
000150 1a 40 95 3d cc 1e be bc d6 b7 9c bc e4 3c b1 bc
       0.07287617 -0.023208044 -0.019130629 -0.02163548
000160 4f 3f 29 bd be c6 09 3e f8 94 5d 3d bb 31 b7 3d
       -0.04132014 0.1345472 0.054097146 0.08945032
000170 50 73 e1 bc 22 8b 65 bb 41 77 03 3e e6 a9 6a 3d
       -0.027520806 -0.0035025557 0.1283846 0.057290934
000180 89 6d d6 bd 6e 57 16 3e 2d 58 b9 3b 28 a9 89 bc
       -0.10470111 0.1468179 0.0056562633 -0.016804293
000190 76 c9 3b 3d 12 ce a3 bd db 33 b8 3d b2 f8 1f 3d
       0.045846425 -0.07998289 0.08994266 0.039055534
0001a0 29 a1 0d be 8c 2c 9c bb 78 57 21 3c f3 14 d5 bd
       -0.13831009 -0.0047660526 0.009847514 -0.10404386
0001b0 8e ef a0 bc 34 f0 3b bd a9 a0 bc bd 51 c1 34 bc
       -0.019645479 -0.045883372 -0.09210331 -0.011032418
0001c0 ab 14 7b bd 76 55 14 bd d4 7f a9 bd 4f 7c d5 bd
       -0.061299007 -0.036214314 -0.082763344 -0.104241006
0001d0 53 04 c9 3d 1c c8 87 3d 58 39 0e 3d 00 62 87 bc
       0.09815278 0.06629965 0.034722656 -0.016526222
0001e0 7c 45 8a bc 8b c5 62 3d 56 c6 04 bd 09 3b 8d 3d
       -0.016878836 0.055364173 -0.03241571 0.06896026
0001f0 ee c4 f9 3d 79 87 ff bc 26 9e 22 3d 8d d3 86 bd
       0.121957645 -0.031192528 0.039701603 -0.06583319
000200 a5 51 31 3d 89 00 4d 3d a3 25 80 3e 1c 77 ef 3d
       0.043290753 0.05004934 0.25028715 0.1169264
000210 25 96 75 3d 8e 6d 50 3e e1 f7 01 be f1 33 07 3e
       0.059957642 0.20354292 -0.12692215 0.13203408
000220 d4 b1 87 bc 1c 73 6b be b3 ff 66 be 72 c2 9c 3c
       -0.016564287 -0.2299313 -0.22558479 0.019135688
000230 04 9b 9d 3e 56 dd c3 3d 94 62 18 be b7 77 c2 bc
       0.3078233 0.09563701 -0.14881355 -0.023738725
000240 ac ab cf bd 46 93 84 3d cc 50 87 bc ee 62 80 3e
       -0.10140166 0.06473403 -0.01651802 0.25075477
000250 4b 96 a4 bc e5 bf 63 bd 67 f3 5c 3d 36 13 0e 3e
       -0.020091197 -0.055602927 0.053943064 0.13874516
000260 aa 8c 85 bc e1 25 6b 3e bb 52 6d bd 52 7e e1 3d
       -0.016302425 0.22963668 -0.057940226 0.11010422
000270 52 bb 4c 3c 16 56 3b bc f4 36 b1 3d 6f 35 0f 3d
       0.0124958325 -0.011434099 0.086530596 0.034963068
000280 06 de b6 bd f6 d9 16 bc d7 23 45 3d e2 7c 31 bb
       -0.08929066 -0.009207239 0.048129883 -0.0027082493
000290 ea e0 3a 3c 7c e8 25 bd 9f 69 0e 3d f9 ff 9a bb
       0.011406163 -0.040504918 0.034768697 -0.0047302213
0002a0 aa f3 1d 3e 36 7f 88 3c dc 33 82 3d 60 62 92 be
       0.15424982 0.016662221 0.06357548 -0.2859068
0002b0 99 89 49 3d d8 7b bc 3d 00 84 6d bd 98 08 c7 3d
       0.04920349 0.09203309 -0.057987213 0.09718436
0002c0 5f 7c 13 3d b6 f9 d9 3d a8 e9 1b 3e db 7e 11 3b
       0.03600728 0.10643332 0.15225852 0.0022200856
0002d0 93 55 96 3d 7c b0 26 3d 32 2b 15 3d 48 57 53 3b
       0.07340541 0.040695652 0.036418147 0.0032248069
0002e0 0e ef 2e bb 37 0a 8e 3d 80 32 9f 3d a7 d8 a8 bd
       -0.002669278 0.06935542 0.07773304 -0.08244448
0002f0 0b f6 95 bd 32 d4 71 bd f8 34 71 3e 9a 5d b4 3d
       -0.073223196 -0.059040256 0.23555362 0.088069156
000300 d7 e0 51 bd 93 a6 0b 3e 8d 23 ca bb 74 5b b6 3a
       -0.051239815 0.13637762 -0.0061687888 0.0013912753
000310 cc b4 97 3e 15 2d 5f 3d bf bf fb bc b5 c0 db 3d
       0.29630125 0.054486353 -0.03073108 0.10730115
000320 1c 68 01 3e 19 e2 92 be b4 45 7a bd 1c b7 8f bd
       0.12637371 -0.28688124 -0.06110163 -0.07017347
000330 40 05 88 3b af 52 44 be c0 c1 b1 3d 1e 27 20 3d
       0.0041510165 -0.19172166 0.08679533 0.039099805
000340 99 4a 95 be 10 9a c3 3d 65 5c 4b 3d 6a f2 45 3c
       -0.29158476 0.095508695 0.04964866 0.012081722
000350 92 21 f8 3c de 73 fd bd 90 97 83 3d f5 16 6e 3c
       0.030289445 -0.123756155 0.06425393 0.014531841
000360 75 b1 1e 3e 31 40 02 bd 6d 1e 2a bd da 1c 06 be
       0.15497382 -0.0317995 -0.041532923 -0.13096943
000370 1a 71 8b bc 89 4b 99 3a 5b f6 2c bd 2b da 04 bb
       -0.017021704 0.0011695485 -0.04222713 -0.002027164
000380 f2 58 cf 3d 11 e2 d7 bc 7a 6a 3f 3d b2 9a 0d be
       0.10124387 -0.026352914 0.046732403 -0.13828543
000390 7a ba 77 be 1f 94 03 3d 7e 8a 8b 3e be e6 8a 3d
       -0.24192229 0.03212368 0.272541 0.06782292
0003a0 45 4d 9f 3d d0 a2 33 be 5a a4 88 3c 57 6c 54 bc
       0.0777841 -0.17542577 0.016679931 -0.012965283
0003b0 79 26 14 bd 04 ad bd bd 8a 9c a7 3c 8a 56 c6 3d
       -0.036169503 -0.09261516 0.020460386 0.09684475
0003c0 a4 7c 3c 3c b9 69 02 be 95 9b 51 bd 12 96 16 3e
       0.011504326 -0.12735642 -0.051173765 0.14705685
0003d0 6a bd 0a be 98 7d 2b 3e 3b c2 e6 bd e9 b9 57 3e
       -0.13548818 0.16747129 -0.11267515 0.21067013
0003e0 e4 e4 1a be fe 45 f5 bc 49 c8 4f 3d c6 31 ec 3c
       -0.15126377 -0.029940601 0.050728116 0.028832328
0003f0 12 d2 c4 3d f8 dd b2 3d d4 ef 84 3d ab de a6 3c
       0.0961038 0.087337434 0.06491056 0.020369848

policy_mean.bias f4 [7]
000000 05 b0 be bd c4 c7 d5 bd 4d 52 e0 3d c6 c1 f8 3c
       -0.09310917 -0.10438493 0.10953198 0.030365836
000010 c4 cd f2 bd 28 d2 fe bc 77 70 8b bc
       -0.11855653 -0.03110607 -0.0170214

value_head.weight f4 [1, 128]
000000 35 7c 12 c1 b1 97 11 41 00 ac 1d c1 06 74 13 41
       -9.155324 9.099534 -9.854492 9.215826
000010 84 f8 0e 41 9c 4f 12 41 4d 45 15 41 d2 71 2e 41
       8.935673 9.144436 9.329419 10.902788
000020 b5 95 0b 41 e4 e0 07 c1 61 9a 06 c1 38 94 13 c1
       8.72405 -8.492405 -8.41269 -9.223686
000030 d3 b6 f8 40 d8 d1 0a c1 37 fa f3 40 05 93 0d 41
       7.7723174 -8.676231 7.624294 8.848393
000040 e4 72 e7 40 d7 e1 fa c0 5d bf c8 c0 52 7f 19 c1
       7.2327747 -7.8400683 -6.27336 -9.593584
000050 95 0a 0e 41 6d 21 00 c1 4d 10 0b c1 ea 89 09 41
       8.8775835 -8.008161 -8.69148 8.59617
000060 82 5c 17 41 69 cc 01 41 a0 41 05 c1 62 93 0c 41
       9.460085 8.112405 -8.328522 8.785982
000070 7e 13 27 c1 60 d5 0c c1 b2 a1 10 41 c4 98 10 41
       -10.442259 -8.8020935 9.039476 9.037296
000080 40 da 0d 41 38 cb 13 c1 4e b2 16 c1 4c 91 0c 41
       8.865784 -9.237114 -9.418531 8.785473
000090 1f 86 14 41 d0 2c 17 41 42 06 0b c1 bd 54 0c c1
       9.282744 9.448441 -8.689028 -8.770688
0000a0 c8 3d 09 41 b2 64 1a 41 78 7e 12 41 d6 9c ed c0
       8.577583 9.649584 9.155876 -7.425395
0000b0 a1 73 ed 40 27 3a 30 c1 18 4d 10 c1 dd 4f 00 c1
       7.420365 -11.014197 -9.018822 -8.019498
0000c0 3c 0f 08 41 2f c3 02 41 7d eb 03 41 a2 b4 14 c1
       8.503719 8.172652 8.244992 -9.2941
0000d0 3a 2b 0b 41 7d f8 05 41 5a 10 09 41 66 2e 17 41
       8.698053 8.373166 8.566492 9.448828
0000e0 60 bf 0f 41 9f 00 18 41 61 a4 00 41 a6 8c 11 41
       8.984222 9.500152 8.040132 9.096838
0000f0 e0 cf 0d c1 dd a9 0f c1 2f 31 0f 41 c4 c4 0f c1
       -8.863251 -8.978971 8.949508 -8.9855385
000100 16 4e 0e 41 75 e4 06 41 5c dd 13 c1 01 ca 0b c1
       8.894064 8.430776 -9.241543 -8.736817
000110 9c cb c8 c0 48 1d 16 c1 32 c9 10 c1 64 72 1c c1
       -6.2748547 -9.382149 -9.04912 -9.777927
000120 e9 a0 11 41 56 84 08 c1 f2 ec 11 c1 72 83 0f 41
       9.101785 -8.532309 -9.120348 8.969591
000130 4c f5 22 41 88 db e9 40 0d 18 0c c1 98 0a 08 41
       10.184887 7.3080482 -8.755872 8.502586
000140 f0 1e f9 c0 fe 1d 0d c1 2e 63 0e c1 5f 43 fa 40
       -7.7850266 -8.819822 -8.899214 7.820724
000150 12 96 09 c1 b7 88 15 41 05 ca 1d c1 75 98 eb 40
       -8.599138 9.345878 -9.861821 7.3623605
000160 ce 9a f5 c0 20 93 05 41 c1 2a 0c 41 d6 86 09 c1
       -7.675147 8.348419 8.760438 -8.595419
000170 62 3b dc c0 67 bc 1d 41 8d 03 e4 c0 9e be 11 41
       -6.882249 9.858497 -7.1254334 9.109037
000180 8f 28 15 41 b0 fa e2 40 20 76 d7 40 13 b4 12 c1
       9.322402 7.0931015 6.7331696 -9.168963
000190 e8 1d 18 41 98 8a 14 c1 1c 3e 21 c1 f4 52 e6 40
       9.507301 -9.283836 -10.077663 7.197626
0001a0 a2 41 12 41 53 84 07 41 8b 03 16 41 f6 c7 14 c1
       9.141024 8.469806 9.375865 -9.298819
0001b0 d4 30 0c c1 f6 6c 1f c1 9a 60 03 41 bf 8a 0d 41
       -8.761921 -9.964102 8.211084 8.846374
0001c0 b0 37 17 c1 8f 94 0c 41 12 ec 0a 41 3c e0 0b c1
       -9.451096 8.786269 8.682634 -8.742245
0001d0 24 61 0f 41 69 24 1d 41 f2 fc 0f c1 a6 69 08 c1
       8.961216 9.821389 -8.999254 -8.525793
0001e0 79 25 16 c1 c6 fa 08 41 05 ee f2 40 24 f6 10 c1
       -9.384149 8.561224 7.591555 -9.060093
0001f0 93 7d 0a 41 72 41 13 41 9c a4 00 41 4d bb 12 c1
       8.655658 9.203478 8.040188 -9.170728

exp_avg f4 [7]
000000 12 3e 49 3a 15 07 a8 3a b8 d8 d9 b8 1e 39 52 39
       0.00076767907 0.0012819493 -0.00010387733 0.00020048438
000010 3e 82 24 39 48 5a 1b ba f3 fa aa b9
       0.00015688778 -0.0005926234 -0.00032611898

exp_avg_sq f4 [7]
000000 c8 12 35 37 64 5d 0f 37 12 08 27 37 ef 95 47 37
       1.0792814e-05 8.545208e-06 9.955855e-06 1.1896233e-05
000010 69 59 1e 37 69 97 3a 37 45 4a 0b 37
       9.438351e-06 1.1121717e-05 8.302338e-06

exp_avg f4 [128, 21]
000000 cd d6 f0 36 6f 1c 28 36 95 3a 32 b7 71 23 63 b7
       7.1775635e-06 2.5050501e-06 -1.06232665e-05 -1.3538506e-05
000010 19 fd 6f 36 fb ae 08 b7 7e a5 79 35 48 79 ca b3
       3.5761097e-06 -8.1469725e-06 9.300055e-07 -9.428419e-08
000020 13 47 2b 32 67 b6 30 b6 f1 64 d5 35 48 14 41 36
       9.96967e-09 -2.6332216e-06 1.5899114e-06 2.8771046e-06
000030 2a 3c a7 b6 dc 83 8b b7 96 53 1c b8 cf 21 00 37
       -4.983992e-06 -1.6631493e-05 -3.7271144e-05 7.637266e-06
000040 72 df 13 38 9f f1 ce b7 ab 4c 90 b6 62 4a fb b6
       3.525563e-05 -2.4669627e-05 -4.3004598e-06 -7.489042e-06
000050 59 9a c9 b6 0c 31 9e b7 b1 67 13 39 d7 02 8d 3a
       -6.0082352e-06 -1.8857907e-05 0.0001405764 0.0010758293
000060 80 dc 9c 3a 7f bf 4c 39 ab 62 ad 38 69 32 d6 b8
       0.001196757 0.00019526294 8.267661e-05 -0.00010213705
000070 1f 82 8d 35 51 86 44 34 e9 75 82 35 1b f8 15 b7
       1.0543189e-06 1.8302786e-07 9.720071e-07 -8.938859e-06
000080 ef 3b 93 b7 5d 22 2a 39 41 3f 8f 3a e5 4d 3f 38
       -1.7551674e-05 0.00016225265 0.0010928885 4.5610494e-05
000090 25 8d f0 b7 b6 3b 14 b9 62 c8 9f 3a 1e 51 af 35
       -2.8675955e-05 -0.00014136624 0.0012190456 1.3062124e-06
0000a0 74 d5 b5 37 95 1a 8f 37 fd 7e 15 33 50 1d 36 b5
       2.1676278e-05 1.7059307e-05 3.480726e-08 -6.784294e-07
0000b0 e3 d4 cd b6 43 89 e2 b6 93 a7 8d b5 02 dc 2b b5
       -6.1342594e-06 -6.751304e-06 -1.0554089e-06 -6.402262e-07
0000c0 39 06 4a 34 68 42 2a b2 99 7b 91 31 cc e8 3d b3
       1.881498e-07 -9.910401e-09 4.234107e-09 -4.421672e-08
0000d0 92 5e 53 33 6f 8a cd 33 7f d4 6e b5 59 c7 d0 b6
       4.9213277e-08 9.571237e-08 -8.897113e-07 -6.22209e-06
0000e0 ef e9 19 b5 93 ef 3f 34 08 d8 a0 35 2b 61 ea b6
       -5.733736e-07 1.7875418e-07 1.1983802e-06 -6.9850553e-06
0000f0 f7 ca 82 33 cb dc 62 b4 5b 9d bc b3 a0 22 f5 b5
       6.090516e-08 -2.1128214e-07 -8.783055e-08 -1.8264e-06
000100 c1 cf e1 37 b9 64 94 39 11 eb a8 39 6f de cc 37
       2.6918833e-05 0.00028303804 0.00032218595 2.4422274e-05
000110 85 96 55 37 c9 4a a1 36 49 b3 98 35 a2 9c c5 b5
       1.2730835e-05 4.80688e-06 1.1377061e-06 -1.472323e-06
000120 e8 f1 76 35 13 63 9c b6 74 30 3f b6 72 a8 33 38
       9.199416e-07 -4.660696e-06 -2.8489421e-06 4.2833803e-05
000130 a4 45 97 39 de af 72 37 37 25 04 b7 90 83 94 b8
       0.0002885285 1.4465271e-05 -7.876478e-06 -7.0816954e-05
000140 b4 7f aa 39 15 3e 89 b5 2c 81 85 37 fc 39 b8 36
       0.00032520073 -1.0225364e-06 1.5914986e-05 5.4903776e-06
000150 de cf 7c b7 d5 f0 c6 37 a2 2d 40 39 01 25 67 39
       -1.5068768e-05 2.3715585e-05 0.00018327546 0.00022043662
000160 9d 6d 0c 37 4b 67 05 38 e6 ac 08 b8 e7 fd 83 34
       8.370172e-06 3.180587e-05 -3.258595e-05 2.458539e-07
000170 72 8b 5f 33 3b 98 3f 36 40 6a 80 b6 6e e4 2b b6
       5.204806e-08 2.8549828e-06 -3.8270664e-06 -2.561395e-06
000180 64 14 de 37 eb 85 48 39 d4 87 5d 37 04 80 f1 b6
       2.6473957e-05 0.00019123375 1.3204251e-05 -7.1972627e-06
000190 6a 92 c9 b8 bc 48 6e 39 c3 d6 51 37 43 1c 39 36
       -9.6116986e-05 0.00022724544 1.2507374e-05 2.7583599e-06
0001a0 71 84 05 37 60 e6 d4 b8 2b 27 0c b9 a1 90 92 ba
       7.958254e-06 -0.000101518584 -0.00013366032 -0.0011182019
0001b0 9d 27 9f ba 71 76 6d b9 65 91 3f b8 d4 38 a0 b8
       -0.0012142543 -0.00022646204 -4.5673358e-05 -7.6399796e-05
0001c0 49 41 04 b6 e7 53 d2 35 a2 93 fc 36 9e f4 51 36
       -1.9707534e-06 1.5670638e-06 7.527372e-06 3.1285813e-06
0001d0 57 fc 8b b5 c7 cc 18 b9 67 e1 8f ba 0e 19 ce 38
       -1.0429748e-06 -0.00014572135 -0.0010977209 9.827512e-05
0001e0 87 ba bb b7 f9 a1 63 b9 62 cf 96 ba 73 b6 d2 38
       -2.2378996e-05 -0.00021708746 -0.0011505897 0.00010047564
0001f0 cb 59 4a b7 67 ce ab 37 e1 75 30 b8 34 07 6b b8
       -1.2061045e-05 2.0480902e-05 -4.2071453e-05 -5.6035075e-05
000200 d7 c4 32 b9 68 55 1b b9 c0 80 57 b9 78 81 8a 37
       -0.00017048731 -0.00014813768 -0.00020551961 1.651117e-05
000210 a5 2f 0f 38 ad 05 3b 35 92 0f 05 b5 ce b4 79 36
       3.413823e-05 6.967119e-07 -4.956902e-07 3.7209134e-06
000220 79 83 33 b6 b2 b9 60 36 f8 b7 03 b8 9b a6 3f b9
       -2.6749606e-06 3.348669e-06 -3.1404168e-05 -0.00018277245
000230 98 d4 ad 37 59 f0 c1 b6 3b 5a 51 b9 43 ad 25 b9
       2.0722204e-05 -5.7798284e-06 -0.00019965407 -0.00015800171
000240 78 81 3e 38 6e 9e ce 37 dc 1c 4e b7 9e 94 04 37
       4.5420107e-05 2.4630888e-05 -1.2285276e-05 7.902416e-06
000250 e4 65 6c b6 2e bb 04 39 33 62 04 39 95 9a 0a 38
       -3.5226049e-06 0.00012658231 0.00012625083 3.304573e-05
000260 a8 a4 a8 b6 7b 03 fa 37 52 b7 5c 34 00 ac 76 b4
       -5.0259587e-06 2.9803943e-05 2.0555788e-07 -2.2973109e-07
000270 d6 9d fb 34 e1 47 5a 35 70 a3 74 34 c7 28 98 37
       4.6867234e-07 8.1315926e-07 2.2783729e-07 1.81388e-05
000280 08 ec 01 39 b5 51 26 b7 ec 5f 07 36 e4 4c 0a 38
       0.00012390327 -9.913395e-06 2.0172401e-06 3.2973374e-05
000290 b8 7a 07 39 10 c2 00 b7 83 b5 b5 37 02 ca 33 b6
       0.0001292032 -7.674578e-06 2.1661404e-05 -2.6790663e-06
0002a0 a1 b2 ca b7 42 eb 95 36 2a 07 d5 37 ba 71 75 38
       -2.4163457e-05 4.4679336e-06 2.5394915e-05 5.8518468e-05
0002b0 30 94 9a b7 34 18 99 37 93 c2 fd b7 f6 6f e7 b3
       -1.8427236e-05 1.8250292e-05 -3.0250556e-05 -1.0777141e-07
0002c0 72 3b ce 34 94 90 b8 36 07 a5 86 b6 3c 68 b4 b6
       3.8413742e-07 5.5004584e-06 -4.012723e-06 -5.3765525e-06
0002d0 1b 34 4b 37 f8 2d 48 38 ea 79 68 38 5e fa 88 b7
       1.2111875e-05 4.7726528e-05 5.542665e-05 -1.632905e-05
0002e0 b0 0b e3 b8 8c 41 98 38 99 98 9d 37 83 3e 00 37
       -0.000108263805 7.260134e-05 1.8786917e-05 7.643949e-06
0002f0 8b 54 bb 37 a0 fa de b6 45 17 a3 37 86 88 d1 38
       2.2331506e-05 -6.645292e-06 1.944195e-05 9.991326e-05
000300 46 30 f6 38 79 8b 22 38 b2 24 9a 37 4a c2 3c b8
       0.00011739186 3.8753704e-05 1.8375318e-05 -4.500364e-05
000310 57 8b ee 32 f8 7a 8e 34 0a 1c 8e 35 56 d9 d2 b5
       2.7770211e-08 2.6539033e-07 1.0587985e-06 -1.5709472e-06
000320 f7 c7 22 b5 26 44 82 37 11 57 e1 38 2d 8c 57 b6
       -6.064069e-07 1.5528942e-05 0.000107450534 -3.211909e-06
000330 e0 e0 d3 b5 a0 c4 4d b8 57 b1 04 39 a1 a1 ca 36
       -1.5786172e-06 -4.905893e-05 0.00012654565 6.038885e-06
000340 79 4c 83 b6 51 e8 fc 36 88 eb 10 b8 fc cd 09 b8
       -3.913007e-06 7.5372304e-06 -3.455163e-05 -3.2855183e-05
000350 d4 6d 50 b9 dc fc 07 b9 93 55 ef b8 8d 11 10 39
       -0.0001987734 -0.00012968801 -0.000114123475 0.00013739448
000360 f8 05 a9 b7 06 38 f1 35 23 37 e2 b5 0f 1f 9b 36
       -2.014915e-05 1.7972204e-06 -1.6854359e-06 4.6229757e-06
000370 71 da 6f b7 b6 1c 57 36 4e 61 d8 b7 9a 6b 28 b9
       -1.429637e-05 3.2054209e-06 -2.5794518e-05 -0.00016061813
000380 b2 98 47 b7 ec bd bc b6 ad e1 5e b9 b1 96 07 b9
       -1.18968765e-05 -5.6249464e-06 -0.0002125564 -0.0001293074
000390 56 5d 1e 38 e7 ea ec 36 d3 08 20 38 c2 05 31 b6
       3.775706e-05 7.0606943e-06 3.815519e-05 -2.6378407e-06
0003a0 c3 e8 25 b7 6c a3 5e 39 d4 31 81 39 55 b3 81 b8
       -9.88896e-06 0.00021232449 0.00024641922 -6.1846025e-05
0003b0 b6 f0 00 b8 79 4b f9 37 6c 20 0f 36 76 b1 36 b6
       -3.0741758e-05 2.9718258e-05 2.1327533e-06 -2.722341e-06
0003c0 1d 05 a1 35 e5 00 04 b6 b3 c2 a5 36 56 80 c9 37
       1.1996923e-06 -1.9670053e-06 4.940049e-06 2.4020828e-05
0003d0 dc 86 53 39 5b 2e 05 b7 25 fc 2f 35 35 42 e1 b8
       0.00020172767 -7.938211e-06 6.55595e-07 -0.00010741168
0003e0 5e 76 7c 39 8f 45 fe 36 59 3a 0e 38 ec c8 31 b7
       0.00024076688 7.5778876e-06 3.390978e-05 -1.0596803e-05
0003f0 17 fc 29 35 ef d4 9d b9 57 f8 44 ba 48 9f 80 ba
       6.3324245e-07 -0.0003010402 -0.0007513812 -0.0009813095

exp_avg_sq f4 [128, 21]
000000 de 2e 0c 33 1e 02 3a 33 19 f1 b9 36 69 3e c6 36
       3.2638916e-08 4.3308425e-08 5.541497e-06 5.9081253e-06
000010 2a 2a b7 34 97 88 ee 32 17 92 b0 33 de d1 01 2e
       3.4117085e-07 2.776896e-08 8.222212e-08 2.9517604e-11
000020 a0 9f ce 2d ae 53 a1 30 e9 54 1d 30 85 6f 3f 31
       2.3490376e-11 1.1738075e-09 5.723693e-10 2.785755e-09
000030 e1 7e d8 33 a8 a6 b4 36 0c f9 1e 34 f9 81 55 34
       1.0081363e-07 5.3838194e-06 1.48055e-07 1.9884455e-07
000040 cf 3d 00 35 8b e0 b7 36 7b a3 ca 32 f0 58 15 33
       4.777366e-07 5.4799652e-06 2.3590237e-08 3.4772654e-08
000050 8c df 90 31 d0 57 33 34 f3 83 c8 34 c7 10 5b 38
       4.216366e-09 1.670262e-07 3.734891e-07 5.2229294e-05
000060 d9 4d 5c 38 37 76 ea 36 3f 8b af 34 44 27 4f 35
       5.252459e-05 6.9875055e-06 3.2697605e-07 7.717065e-07
000070 aa 62 25 2f 6d cc d2 2e 11 f5 26 32 6d 88 ae 31
       1.5041715e-10 9.586008e-11 9.718193e-09 5.0795763e-09
000080 a8 93 a4 32 35 d2 86 35 dd 23 57 38 1b b6 87 35
       1.9159259e-08 1.0044956e-06 5.1293395e-05 1.0111283e-06
000090 a4 7e e7 35 9b 01 71 36 a4 1d 63 38 da 7c 14 34
       1.7247698e-06 3.5912733e-06 5.4148622e-05 1.3828995e-07
0000a0 ad 59 ac 34 15 ab d9 32 73 45 b2 2d e7 c5 ef 2d
       3.2102744e-07 2.5339924e-08 2.0267099e-11 2.725904e-11
0000b0 c2 fe b4 31 39 b7 bf 31 0a e5 f9 2f 24 23 ae 2d
       5.267652e-09 5.5796616e-09 4.5455578e-10 1.9797115e-11
0000c0 1f 67 70 2e 23 c7 6a 28 ee 21 38 28 77 1d 41 2b
       5.4661272e-11 1.303279e-14 1.0221409e-14 6.8608265e-13
0000d0 cf 62 da 2a 0c 81 31 2c 48 eb a2 2e 78 00 b2 31
       3.879314e-13 2.5224848e-12 7.4087014e-11 5.180535e-09
0000e0 6d d0 4c 30 5f 63 64 30 10 88 75 30 14 17 73 31
       7.451096e-10 8.308713e-10 8.9323837e-10 3.5374272e-09
0000f0 d3 61 9f 2d 65 b6 62 2e f2 af 19 2c 2b 78 0a 33
       1.811965e-11 5.154845e-11 2.1840277e-12 3.223992e-08
000100 26 a5 6c 33 3c 90 0e 37 d1 86 14 37 94 ea 26 35
       5.5098234e-08 8.497442e-06 8.852877e-06 6.2181175e-07
000110 1d 94 2c 33 68 fc 34 34 b5 d4 13 2e 3f 82 f1 2d
       4.018158e-08 1.6855631e-07 3.3612852e-11 2.7456369e-11
000120 c8 44 b5 30 9d a5 46 30 de 16 09 32 d9 4e 26 34
       1.3189032e-09 7.226733e-10 7.979649e-09 1.548864e-07
000130 5a 00 0a 37 89 91 60 34 bb 34 59 35 b9 f1 98 35
       8.225523e-06 2.0914571e-07 8.091553e-07 1.1395233e-06
000140 4a 02 fd 36 76 d4 a6 32 20 96 52 33 f5 f5 ed 31
       7.540254e-06 1.942156e-08 4.9030973e-08 6.92557e-09
000150 1e 07 1a 32 c4 be 20 33 2d 27 76 36 c0 31 7b 36
       8.965598e-09 3.7426403e-08 3.667966e-06 3.7430873e-06
000160 bd c8 f0 34 f0 5a a0 32 a6 59 e5 32 84 7c 35 2d
       4.484954e-07 1.8667805e-08 2.6699876e-08 1.0316307e-11
000170 4c 7c dc 2c 3d 17 26 30 a5 c3 ab 2f b2 04 98 30
       6.266576e-12 6.042347e-10 3.1243733e-10 1.106079e-09
000180 a5 2d 97 33 68 05 70 36 9c 75 46 32 76 91 a5 32
       7.039788e-08 3.5765934e-06 1.1551858e-08 1.9274676e-08
000190 9e f8 8a 34 9e 76 84 36 6f 1d 2c 32 38 fd 58 32
       2.5885396e-07 3.9477154e-06 1.001841e-08 1.263043e-08
0001a0 13 f3 2e 31 0b 6b 65 34 fb e7 00 35 4b 63 21 38
       2.5458504e-09 2.1366229e-07 4.802129e-07 3.8477865e-05
0001b0 03 6f 16 38 8c c3 d5 36 b7 4b 81 34 c9 e6 45 34
       3.5866175e-05 6.3706593e-06 2.4083212e-07 1.8431014e-07
0001c0 cf d8 a8 2e fb cd 8a 2e b9 ef 6a 31 8b c6 01 31
       7.6782684e-11 6.312103e-11 3.4187748e-09 1.888483e-09
0001d0 07 30 0a 33 b6 5c 46 35 83 56 17 38 61 e9 8b 34
       3.217431e-08 7.389566e-07 3.6081776e-05 2.6060573e-07
0001e0 18 81 ec 35 fb 50 b3 36 1c cf 14 38 37 54 2d 34
       1.7620941e-06 5.344043e-06 3.5478835e-05 1.6142518e-07
0001f0 40 8f d4 33 26 0d a3 33 29 e5 1a 34 2a 22 71 34
       9.898076e-08 7.592671e-08 1.4425736e-07 2.2457303e-07
000200 29 dc 08 38 80 af 13 38 e9 19 e9 35 9a c9 27 34
       3.2629967e-05 3.521098e-05 1.7367394e-06 1.5626429e-07
000210 f5 7e d6 34 04 88 19 2f 03 e3 f5 2e dc b4 b1 31
       3.995298e-07 1.3963591e-10 1.11816355e-10 5.1719393e-09
000220 29 f8 44 31 8a 45 a1 32 10 bc 19 35 52 75 04 38
       2.8662817e-09 1.877449e-08 5.727061e-07 3.1580515e-05
000230 bb 03 6f 35 7c a9 08 36 6b dc 1b 36 a9 98 06 38
       8.9039867e-07 2.0364232e-06 2.32251e-06 3.2090265e-05
000240 04 ea fb 33 a7 7c 6b 34 6d b6 ea 32 b5 17 af 32
       1.17306655e-07 2.1931429e-07 2.7324143e-08 2.0383462e-08
000250 d6 d4 35 33 69 9b d1 36 71 59 e7 36 c0 56 a1 34
       4.233592e-08 6.2467775e-06 6.894749e-06 3.0051706e-07
000260 d4 ed 16 33 22 6c b8 33 7b f5 7e 2d b0 5f 3b 2d
       3.51409e-08 8.587837e-08 1.4492736e-11 1.0650966e-11
000270 6e 6c a7 30 30 74 5d 30 1b 6f 0c 31 f9 2f f7 33
       1.2181667e-09 8.0564444e-10 2.0435837e-09 1.151056e-07
000280 63 76 d0 36 a7 4b 80 34 66 83 8e 34 2f 33 99 35
       6.212665e-06 2.3896902e-07 2.6545166e-07 1.1414285e-06
000290 40 bf b9 36 3a 6f 8c 32 21 ac 3a 33 de f5 d0 30
       5.535694e-06 1.6348725e-08 4.346305e-08 1.5203871e-09
0002a0 21 7f 68 33 ac 09 12 34 65 8e 4e 37 a7 e4 53 37
       5.4132332e-08 1.3600828e-07 1.2311711e-05 1.2629817e-05
0002b0 1f 4b af 35 4e 62 6b 33 6f ad f0 33 de 6e 38 2e
       1.3060379e-06 5.480461e-08 1.1207418e-07 4.1935226e-11
0002c0 3f 01 f4 2d 62 3a 07 31 de a1 7b 30 be c7 ba 31
       2.7740142e-11 1.9678272e-09 9.1543295e-10 5.4360205e-09
0002d0 b5 07 78 34 79 d0 47 37 56 4e 32 34 05 30 a7 34
       2.3099604e-07 1.1909863e-05 1.660604e-07 3.1141113e-07
0002e0 1c be 41 35 15 b3 57 37 b5 1a 2e 33 9d ed 2d 33
       7.217475e-07 1.2856694e-05 4.0536822e-08 4.049581e-08
0002f0 dc d2 3d 32 40 6c 04 32 71 29 cc 32 2f dd 60 36
       1.1049192e-08 7.708024e-09 2.3767571e-08 3.3507347e-06
000300 ef c1 6c 36 2d 5d 67 34 2b 9e 8f 32 18 84 ac 32
       3.5279625e-06 2.1547449e-07 1.6719317e-08 2.0083505e-08
000310 6b 5b c4 2d 56 6d bd 2d 2d 76 04 30 08 26 ed 2f
       2.2323218e-11 2.1535367e-11 4.818926e-10 4.3137072e-10
000320 a4 bd 05 31 0f cc 85 33 c7 ac 57 36 97 ca 68 33
       1.9461845e-09 6.230413e-08 3.2138066e-06 5.4200964e-08
000330 c8 e3 35 34 6f e6 70 34 78 18 5f 36 74 fd e6 31
       1.6939805e-07 2.2435573e-07 3.3243832e-06 6.7226953e-09
000340 5e d0 b7 32 70 6b 86 31 e8 5a 24 34 5f 9a ed 34
       2.1398758e-08 3.9121275e-09 1.5306762e-07 4.425701e-07
000350 95 cc 75 38 fa 13 84 38 b1 bc 7d 36 c4 6f a2 34
       5.8603084e-05 6.2979714e-05 3.780977e-06 3.0256172e-07
000360 1f 8a 54 35 f8 75 45 2f 36 21 1e 2f 2b 92 41 32
       7.9177147e-07 1.7958957e-10 1.4381815e-10 1.1267313e-08
000370 c6 13 06 32 17 be c4 32 8b 6a 95 35 4b 40 71 38
       7.8043225e-09 2.2903846e-08 1.1132373e-06 5.7518755e-05
000380 9f 72 9e 35 95 2b 18 36 4b 27 11 37 93 12 69 38
       1.1805276e-06 2.2675133e-06 8.651822e-06 5.5568828e-05
000390 4c 81 08 34 ce 53 b6 34 aa 74 3f 33 cf 18 90 34
       1.2713025e-07 3.3961118e-07 4.457676e-08 2.684014e-07
0003a0 a3 f8 3c 34 1d ef ca 37 6a 2c d6 37 b6 d6 5e 35
       1.7599318e-07 2.4191622e-05 2.553147e-05 8.301389e-07
0003b0 c8 e3 e6 33 8f 80 55 35 24 a5 ef 2e bd 52 d4 2e
       1.0751643e-07 7.953576e-07 1.08977966e-10 9.655341e-11
0003c0 d5 a0 80 31 bc ee 1d 31 b9 de 0e 33 00 dd e5 34
       3.743575e-09 2.2982212e-09 3.3264516e-08 4.2815373e-07
0003d0 6f ba c1 37 bd 5c af 35 11 c3 39 36 18 be 09 36
       2.3094208e-05 1.3065506e-06 2.7680692e-06 2.052524e-06
0003e0 b2 ab b1 37 da 97 35 34 bf a3 20 34 1f 2a f0 32
       2.1179996e-05 1.6912182e-07 1.4960732e-07 2.7958832e-08
0003f0 6e 64 98 34 5e ac 25 35 d2 8d ec 38 72 47 e9 38
       2.8385278e-07 6.171812e-07 0.00011279773 0.000111236135
