models/checkpoint_2100.pth (torch, 255274 bytes, 24 tensors)

policy_log_std f4 [7]
0.32806954 1.1179974 0.6239744 0.6790296 0.8640913 1.0224681 -2.5568163
00000000: bbf8 a73e 8a1a 8f3f c9bc 1f3f e2d4 2d3f
00000010: 1635 5d3f 3ce0 823f e1a2 23c0

fc1.weight f4 [128, 21]
0.6066924 0.766801 -0.20090987 -0.37265542 -0.5288785 -0.19067232 -1.0920247 -0.381167
0.2568138 0.16584286 -0.1653735 0.73492134 -0.23814863 -0.40137532 0.23430502 0.034903746
-0.9723727 -0.15839905 -0.0956897 -1.339783 0.63821787 0.916201 -0.46187142 0.40180916
0.11392359 -0.35504967 -1.5748096 -0.5973667 -0.26141626 0.29489607 -0.05128505 0.044362456
0.30440208 0.0105595365 0.49833062 0.018420994 -0.06867032 0.43466946 0.41538718 -0.76170737
0.66019773 -2.4734244 0.53689677 -0.5765426 0.5940907 0.21491824 0.4329179 -0.78264624
0.49423432 0.08489035 -0.20921494 -0.035042144 0.07170113 0.52860403 0.5504385 0.7094091
0.04779893 -0.11503603 0.22575696 0.5277698 -0.60592353 0.49511454 0.0928461 0.19076964
-0.26609597 -0.111580886 -0.54894227 -0.59366155 -0.31402138 -0.1744403 -0.53087384 0.46697357
0.08876705 -0.06927324 0.21825469 -0.6439342 -0.58683234 -0.36488017 0.31499583 0.10652328
-0.16511837 0.2260005 -0.40975598 -1.3365507 0.58004475 -0.75360405 0.70901555 0.61633
0.44658735 -1.0405943 -0.19210151 0.3576413 -0.47380352 0.86666113 -0.7531051 1.4760158
0.4353276 0.49446672 0.18957204 0.2584976 -0.32949877 0.8475532 -0.24029723 0.29335845
-2.1004782 0.23398273 -0.378554 0.4728356 0.6578762 0.46457785 -0.32835856 -0.013830278
0.7999439 -0.33385587 0.17115732 -0.08712445 -0.80097884 0.29099944 0.35880196 -0.2253496
-0.31736794 -0.4634604 0.4738999 -0.22567195 1.0299613 -1.0861783 -0.23329358 0.17928146
-0.66758996 0.36678794 -0.28598422 0.9163045 0.19608727 0.37632057 -0.24719383 -0.05332508
-0.14096141 -0.54948926 -0.65645176 -0.08981435 -0.054970447 -0.11102704 -0.13954915 -0.37504807
0.09984152 -0.41851637 1.4620599 -0.09617651 -0.40813637 0.58140105 0.28479487 -0.067375146
-0.16252808 0.090469405 -0.5506224 0.65467423 0.11369847 -0.063824445 1.2376324 1.0189636
0.6419276 0.19711009 0.09989869 0.27907556 0.41951406 -0.019046305 0.21366628 -0.757732
-0.13943724 -1.4579798 0.18813577 0.48722416 0.18152429 0.023377907 0.52257484 0.41074198
-0.18434957 -0.20602125 0.35091263 -0.83253264 0.15678096 -0.03536596 -0.024725804 -0.06265234
0.24013975 0.22925895 0.3238449 1.7997222 -0.7233438 -1.0349255 0.1277575 -0.47870237
-0.815315 -0.6386615 -0.16263641 -1.1008188 -0.36010164 0.752114 0.15481219 0.0031660893
1.555648 -0.34556055 -0.5259041 0.4236552 0.11945455 -0.0034562247 -0.5046527 1.3253255
-0.27221432 1.1135565 -0.91023064 1.2661902 0.040577866 -0.08799659 0.30170867 0.84220254
-1.4477978 -0.024540482 -0.087394886 -0.1311108 0.10531073 0.10104515 0.4386289 0.09457552
-0.1002601 -0.20060092 -0.67106104 -0.041047294 0.956396 -0.93551296 -0.011854778 0.25744697
0.9525537 0.12318118 -0.69999564 -1.7399276 0.7186596 0.40232608 0.5124664 -0.4346642
-0.01114802 0.1605494 2.0809412 -0.14568426 -0.22128595 0.14287959 0.6292884 0.44929805
-0.20067511 0.0040490986 -0.727696 0.19844994 -0.07708564 0.008712563 -0.13412766 0.27404013
00000000: 3150 1b3f 124d 443f 51bb 4dbe b1cc bebe
00000010: 9564 07bf 9b3f 43be 77c7 8bbf 5228 c3be
00000020: 197d 833e b6d2 293e ac57 29be ce23 3c3f
00000030: 3cdd 73be 1181 cdbe a8ed 6f3e 3bf7 0e3d
00000040: 6bed 78bf 5c33 22be f6f8 c3bd 027e abbf
00000050: 3f62 233f 268c 6a3f 697a ecbe eeb9 cd3e
00000060: c550 e93d 12c9 b5be 5c93 c9bf 06ed 18bf
00000070: 5ad8 85be 9efc 963e 4610 52bd 68b5 353d
00000080: 97da 9b3e e801 2d3c 3125 ff3e a0e7 963c
00000090: 06a3 8cbd ff8c de3e a1ad d43e 41ff 42bf
000000a0: b802 293f 964c 1ec0 1172 093f 4c98 13bf
000000b0: 5416 183f 8713 5c3e 6aa7 dd3e 815b 48bf
000000c0: 480c fd3e feda ad3d 713c 56be 5a88 0fbd
000000d0: 0bd8 923d 9852 073f 8ae9 0c3f d69b 353f
000000e0: d0c8 433d 0398 ebbd d52c 673e ec1b 073f
000000f0: ce1d 1bbf a77f fd3e 1926 be3d 1e59 433e
00000100: bb3d 88be 8584 e4bd 7b87 0cbf 34fa 17bf
00000110: 69c7 a0be 7aa0 32be 59e7 07bf 2917 ef3e
00000120: 80cb b53d 21df 8dbd 287e 5f3e dfd8 24bf
00000130: a53a 16bf 93d1 babe 2247 a13e e128 da3d
00000140: ca14 29be ad6c 673e 89cb d1be 1814 abbf
00000150: d07d 143f 32ec 40bf 0b82 353f cec7 1d3f
00000160: 19a7 e43e 3232 85bf 42b6 44be c31c b73e
00000170: 6096 f2be 81dd 5d3f 7fcb 40bf 16ee bc3f
00000180: 42e3 de3e be2a fd3e 2c1f 423e cc59 843e
00000190: 10b4 a8be 3ff9 583f 7a10 76be 1433 963e
000001a0: 3c6e 06c0 2b99 6f3e d4d1 c1be 8217 f23e
000001b0: 936a 283f 26dd ed3e 9d1e a8be 6498 62bc
000001c0: 20c9 4c3f 28ef aabe dd43 2f3e 4e6e b2bd
000001d0: f30c 4dbf e1fd 943e e4b4 b73e 0cc2 66be
000001e0: 0d7e a2be ae4a edbe 02a3 f23e 8c16 67be
000001f0: c6d5 833f e407 8bbf 83e4 6ebe 8f95 373e
00000200: 2de7 2abf a1cb bb3e 866c 92be ef92 6a3f
00000210: 1acb 483e 17ad c03e 6120 7dbe 666b 5abd
00000220: 3058 10be 54ab 0cbf 390d 28bf 96f0 b7bd
00000230: b128 61bd 2562 e3bd f9e5 0ebe 4d06 c0be
00000240: b679 cc3d c747 d6be c724 bb3f 31f8 c4bd
00000250: 40f7 d0be b3d6 143f a2d0 913e fbfb 89bd
00000260: c36d 26be 0648 b93d 97f5 0cbf bb98 273f
00000270: beda e83d 64b6 82bd bd6a 9e3f 666d 823f
00000280: 5e55 243f 3ad7 493e af97 cc3d fee2 8e3e
00000290: 8cca d63e ff06 9cbc 55cb 5a3e b9fa 41bf
000002a0: a3c8 0ebe 159f babf aaa6 403e 7275 f93e
000002b0: 81e1 393e 0683 bf3c 77c7 053f c64c d23e
000002c0: 22c6 3cbe 3cf7 52be d2aa b33e dc20 55bf
000002d0: 308b 203e e6db 10bd c58d cabc df4f 80bd
000002e0: 32e7 753e dcc2 6a3e 00cf a53e 4c5d e63f
000002f0: 0f2d 39bf 7078 84bf ddd2 023e 7a18 f5be
00000300: 7cb8 50bf 527f 23bf 298a 26be a1e7 8cbf
00000310: 3e5f b8be 8b8a 403f 1687 1e3e 2a7e 4f3b
00000320: 791f c73f 50ed b0be a7a1 06bf 56e9 d83e
00000330: 96a4 f43d d481 62bb eb30 01bf 44a4 a93f
00000340: ad5f 8bbe 0589 8e3f e004 69bf 8512 a23f
00000350: fa34 263d 8e37 b4bd 8f79 9a3e 969a 573f
00000360: 7051 b9bf 1f09 c9bc 17fc b2bd e941 06be
00000370: 27ad d73d c2f0 ce3d f893 e03e cfb0 c13d
00000380: 2b55 cdbd 546a 4dbe a8ca 2bbf 3521 28bd
00000390: 5ed6 743f c77d 6fbf 8b3a 42bc 17d0 833e
000003a0: 8fda 733f 6a46 fc3d ea32 33bf f3b5 debf
000003b0: 13fa 373f affd cd3e ff30 033f 4e8c debe
000003c0: 2fa6 36bc 1067 243e 242e 0540 412e 15be
000003d0: c998 62be 074f 123e 0b19 213f 650a e63e
000003e0: c77d 4dbe 4dae 843b 494a 3abf 7636 4b3e
000003f0: 13df 9dbd 23bf 0e3c c358 09be fd4e 8c3e

fc1.bias f4 [128]
-0.43926758 0.3660161 0.5120414 -0.19351654 0.53623146 0.5391807 -0.08007515 0.49142405
0.28262967 -0.32123223 -0.08589176 0.053502966 0.17146431 0.14154014 -0.44491768 -0.007278008
0.044770874 0.42099747 -0.31342718 0.20608862 -0.6943839 -0.060983658 -0.6049243 -0.011750426
0.019299472 0.39832407 0.02789155 0.36822814 0.077096276 -0.018753 0.55676705 -0.14859807
-0.15032709 0.37972537 0.49770156 0.396021 0.25427577 0.075602174 0.27087462 0.03634151
-0.11194853 0.31421185 0.06998536 0.1773649 0.06695595 -0.037950408 -0.014704424 0.5682154
0.38937706 -0.022300169 0.2674107 0.33449683 -0.014811576 -0.5308343 0.08187246 0.21106161
-0.47752997 -0.29937118 -0.10889963 -0.51250696 0.10001184 -0.2197338 -0.09863479 -0.46187863
0.17915122 -0.40791672 -0.42585406 -0.6111447 0.25470936 0.050392155 -0.36192888 0.20029256
0.29301715 0.2954867 -0.46593806 -0.34980944 0.32053673 -0.56761146 0.43552324 -0.29120076
0.21257044 0.09951678 0.06577073 -0.11545837 0.6271677 -0.5353551 0.14825636 -0.4189688
-0.50064516 -0.03866906 -0.5599883 0.26835668 0.1063281 0.42016798 0.07082721 0.6221644
-0.36976162 0.16884096 0.32317865 -0.052174877 -0.30320808 -0.47746328 -0.17290659 -0.076310605
0.067365766 0.2621657 0.32384232 -0.16849399 0.56408966 -0.12968864 -0.038841415 -0.1826683
0.6440716 -0.07567488 0.1725771 -0.63733643 0.5254748 -0.51705617 0.42303002 0.067838244
-0.52952254 0.80801404 0.21178566 0.2772449 -0.15569536 0.036026824 0.35493124 0.2134782
00000000: aee7 e0be 7666 bb3e 2515 033f 3329 46be
00000010: 7746 093f bf07 0a3f 71fe a3bd ef9b fb3e
00000020: d6b4 903e 8d78 a4be 05e8 afbd ed25 5b3d
00000030: 5794 2f3e e6ef 103e 40cc e3be 5b7c eebb
00000040: aa61 373d fb8c d73e 8779 a0be e508 533e
00000050: 25c3 31bf 00ca 79bd 52dc 1abf dc84 40bc
00000060: ed19 9e3c 22f1 cb3e d27c e43c 6688 bc3e
00000070: a7e4 9d3d e49f 99bc 4988 0e3f 182a 18be
00000080: 58ef 19be 5d6b c23e bdd2 fe3e 44c3 ca3e
00000090: 6f30 823e 50d5 9a3d 14b0 8a3e d6da 143d
000000a0: 4545 e5bd 60e0 a03e 7c54 8f3d 259f 353e
000000b0: 3320 893d e371 1bbd d3ea 70bc 9176 113f
000000c0: 6e5c c73e d8ae b6bc 0eea 883e 2b43 ab3e
000000d0: 41ac 72bc c2e4 07bf c0ac a73d 8920 583e
000000e0: cf7e f4be 2e47 99be c506 dfbd a833 03bf
000000f0: 02d3 cc3d e601 61be 0901 cabd 5b7b ecbe
00000100: 6b73 373e 76da d0be 8b09 dabe fb73 1cbf
00000110: 4469 823e 0168 4e3d be4e b9be 7e19 4d3e
00000120: 5806 963e 084a 973e 6f8f eebe 391a b3be
00000130: 641d a43e fc4e 11bf e7fc de3e 4418 95be
00000140: 11ac 593e 74cf cb3d ceb2 863d 7075 ecbd
00000150: 108e 203f 080d 09bf 84d0 173e 1483 d6be
00000160: 482a 00bf 7363 1ebd 655b 0fbf 0c66 893e
00000170: 8cc2 d93d 4220 d73e db0d 913d 2b46 1f3f
00000180: 6551 bdbe a5e4 2c3e ac77 a53e 53b5 55bd
00000190: 173e 9bbe 1176 f4be 6d0e 31be bc48 9cbd
000001a0: 10f7 893d 953a 863e a9ce a53e b089 2cbe
000001b0: 2e68 103f 19cd 04be 2d18 1fbd 660d 3bbe
000001c0: e0e1 243f 6efb 9abd 0db8 303e 7b28 23bf
000001d0: 8485 063f cb5d 04bf 6497 d83e c7ee 8a3d
000001e0: ca8e 07bf 02da 4e3f 57de 583e 0bf3 8d3e
000001f0: 9b6e 1fbe dd90 133d 8cb9 b53e 079a 5a3e

fc2.weight f4 [128, 128]
0.2084422 -0.04475441 -0.29428393 0.111144654 0.26247406 -0.333021 -0.394852 0.9197399
-0.15543756 0.9575848 0.8631961 -0.016830573 0.16002181 0.691149 0.52733684 -0.32347944
0.10299253 -0.022336468 0.041826516 0.8418238 -0.06896672 0.60356194 -0.43674633 -1.6935782
-0.25502858 0.12480277 -0.6336805 -0.8047893 -0.3721274 0.18605445 2.0320895 0.58687264
0.3989671 0.3479945 -0.5367533 0.059585012 0.14261794 0.32055795 -0.61383325 0.07876048
-0.9978065 0.060995 0.7916116 0.16710632 0.4065402 -0.3813922 0.67364645 -0.5327305
-0.34277084 0.41231316 0.11542402 -0.45399204 -0.70130783 -1.3864098 0.02836699 -0.46816567
-0.13464937 -0.19028527 0.14363503 -0.41280332 -0.6717224 -0.0013962047 -0.015766822 -0.18706875
0.68880993 -1.0697904 0.3490558 -1.5913726 0.26388544 -0.094419904 -0.16234861 0.14714098
-0.37951156 -0.47135246 1.7315443 -0.1380771 0.11762731 0.21542795 -0.40987962 -0.1193171
0.0732953 0.028322535 0.5782332 0.6140417 -0.5737233 0.52551174 -0.57004255 -0.7869713
-0.015285675 -0.038078394 0.5634502 -0.77698666 0.04122379 0.06552837 0.3801181 -0.077605434
-0.42687675 -0.015883015 -0.19627383 0.08490444 0.40074092 0.08443392 -0.354868 0.079660386
0.06210894 0.6854185 -0.37634543 0.4227352 0.28042725 -0.19208619 0.25412935 0.09918234
0.2132161 0.3999521 -1.0295728 -0.38336274 0.09350009 -0.24619794 1.9396014 0.11532933
0.33914867 0.91130155 -0.24647523 -0.53139067 0.4937142 0.25793737 -0.49043316 -0.06958733
-0.29335117 1.1848307 -0.84246886 -0.06417995 0.48988768 -0.48404208 0.11832208 -0.1332838
0.1325998 -0.20075653 0.26199937 0.23402062 0.4428235 -0.113148555 1.5231351 -0.5784773
0.4949615 -0.39513016 -0.2529696 1.2456393 -0.04896918 -0.10564211 -0.4480474 -0.21343282
-0.4563077 -0.3048971 -0.45247176 -0.33756343 -0.389335 0.10530814 -0.15553142 0.07156362
0.7367438 -0.1264154 -0.74794775 0.15919675 -0.7863967 -0.33101386 -0.02876928 0.2730828
-0.28042257 0.5008764 0.3649387 0.32885346 0.4712259 -0.33131817 0.19426076 -1.3010898
-0.48598182 -0.4196568 1.3329517 -0.48320776 -0.49252358 0.52032113 0.2891152 -1.5085086
0.36157668 0.07824933 -0.16101967 0.43050525 -0.6644666 -0.0009072754 -0.1095976 -0.43638363
-0.0066084694 -0.1752763 0.039434854 -0.18051268 0.09414085 -0.009957113 -0.40664434 0.029291851
-0.63793135 -1.358815 -0.019386945 -0.07172478 0.023302605 1.0193114 0.024324754 -1.4468303
-0.13290727 -0.1371992 0.5275697 0.16395263 -1.2097249 0.045855485 -0.4375008 -0.0065623494
0.01203959 -0.33295867 0.728595 -1.294228 0.25317076 -0.933449 0.322593 0.1845975
-0.09881665 -0.829961 0.24789831 -0.58294123 0.37597027 0.9888544 -0.06173206 0.08293447
-0.2924521 0.21496505 -0.72997844 0.45693105 -0.22214743 0.31400868 -0.47801688 -0.017354246
-0.4512611 0.4111195 0.10161057 0.47825846 0.108312905 -0.21766289 0.389574 0.04235745
0.4499394 0.746964 -0.14214073 1.0616999 0.7891367 0.8009228 -0.17341292 -0.06428062
00000000: df71 553e 6650 37bd 62ac 96be cf9f e33d
00000010: 0063 863e ba81 aabe 0b2a cabe 1374 6b3f
00000020: 062b 1fbe 4724 753f 6bfa 5c3f 45e0 89bc
00000030: c2dc 233e 24ef 303f 8cff 063f 199f a5be
00000040: bfed d23d f8fa b6bc 4852 2b3d c481 573f
00000050: 6c3e 8dbd 0983 1a3f 379d dfbe 2cc7 d8bf
00000060: 1b93 82be 9898 ff3d e338 22bf ac06 4ebf
00000070: 7c87 bebe 0f85 3e3e c10d 0240 493d 163f
00000080: 6a45 cc3e 562c b23e aa68 09bf 6a0f 743d
00000090: 700a 123e 2c20 a43e 2d24 1dbf 2d4d a13d
000000a0: 3f70 7fbf e5d5 793d 0fa7 4a3f eb1d 2b3e
000000b0: 0926 d03e d745 c3be 1874 2c3f 0761 08bf
000000c0: a97f afbe b61a d33e 6e63 ec3d a571 e8be
000000d0: e988 33bf e075 b1bf e461 e83c 69b3 efbe
000000e0: 86e1 09be 24da 42be 1015 133e f55a d3be
000000f0: 00f6 2bbf db00 b7ba 6c29 81bc f38e 3fbe
00000100: d955 303f e4ee 88bf 71b7 b23e 19b2 cbbf
00000110: fe1b 873e 395f c1bd b73e 26be 20ac 163e
00000120: 574f c2be 1c55 f1be 3ea3 dd3f 1564 0dbe
00000130: 96e6 f03d 2599 5c3e bedb d1be 865c f4bd
00000140: d91b 963d a904 e83c 1707 143f d631 1d3f
00000150: 88df 12bf f087 063f 4fee 11bf f376 49bf
00000160: c570 7abc 17f8 1bbd 463e 103f 99e8 46bf
00000170: 47da 283d bd33 863d d79e c23e 99ef 9ebd
00000180: 978f dabe 191d 82bc 02fc 48be 61e2 ad3d
00000190: ea2d cd3e b1eb ac3d 42b1 b5be fc24 a33d
000001a0: f265 7e3d 9677 2f3f 59b0 c0be c070 d83e
000001b0: 2994 8f3e 3eb2 44be 3e1d 823e 1c20 cb3d
000001c0: 5255 5a3e 86c6 cc3e 0bc9 83bf 1f48 c4be
000001d0: fa7c bf3d 501b 7cbe dc44 f83f c931 ec3d
000001e0: e5a4 ad3e 0f4b 693f 0164 7cbe 3809 08bf
000001f0: 1cc8 fc3e 5e10 843e 0e1a fbbe cd83 8ebd
00000200: 2032 96be 88a8 973f 0aac 57bf c770 83bd
00000210: 8fd2 fa3e 5dd4 f7be d952 f23d 8c7b 08be
00000220: 3ec8 073e 1f93 4dbe c824 863e 1aa3 6f3e
00000230: c3b9 e23e 6eba e7bd 17f6 c23f 1717 14bf
00000240: 986b fd3e 804e cabe 3b85 81be 1c71 9f3f
00000250: e893 48bd e45a d8bd 7866 e5be 228e 5abe
00000260: 2aa1 e9be 791b 9cbe 61aa e7be 1dd5 acbe
00000270: eb56 c7be cbab d73d a143 1fbe f28f 923d
00000280: 3e9b 3c3f 0a73 01be 8179 3fbf 7904 233e
00000290: 4b51 49bf a67a a9be 8ead ebbc 82d1 8b3e
000002a0: 8c93 8fbe 7039 003f 3fd9 ba3e 7b5f a83e
000002b0: 8544 f13e 89a2 a9be 4bec 463e 1c8a a6bf
000002c0: 9cd2 f8be 42dd d6be 299e aa3f 0267 f7be
000002d0: 0d2c fcbe c433 053f e806 943e cf16 c1bf
000002e0: 9420 b93e 2f41 a03d 57e2 24be 2f6b dc3e
000002f0: 7c1a 2abf 39d6 6dba b574 e0bd ad6d dfbe
00000300: dc8b d8bb a17b 33be 7186 213d 51d8 38be
00000310: ebcc c03d 2923 23bc b033 d0be 77f5 ef3c
00000320: 784f 23bf a6ed adbf 5fd1 9ebc 71e4 92bd
00000330: 1be5 be3c cc78 823f b544 c73c bc31 b9bf
00000340: d818 08be f27d 0cbe cf0e 073f 33e3 273e
00000350: 44d8 9abf f6d2 3b3d 1b00 e0be fa08 d7bb
00000360: b341 453c 8f79 aabe 3485 3a3f 43a9 a5bf
00000370: 999f 813e 83f6 6ebf e92a a53e 2107 3d3e
00000380: 6260 cabd 5378 54bf 0ed9 7d3e a33b 15bf
00000390: 2d7f c03e 9025 7d3f c2da 7cbd 8cd9 a93d
000003a0: 48bc 95be cc1f 5c3e dedf 3abf def2 e93e
000003b0: 9e7a 63be bfc5 a03e a1be f4be 7e2a 8ebc
000003c0: b20b e7be 417e d23e 3419 d03d 4bde f43e
000003d0: 28d3 dd3d 05e3 5ebe 3e76 c73e 017f 2d3d
000003e0: 755e e63e 0839 3f3f 578d 11be c8e5 873f
000003f0: dd04 4a3f 4709 4d3f 2893 31be 8fa5 83bd

fc2.bias f4 [128]
-0.2960361 0.048616707 0.07406015 -0.41851228 -0.07450569 -0.25078222 0.5661832 -0.32011873
-0.26861504 0.37402532 0.424241 0.6592313 -0.14486799 0.013555185 0.4936744 0.039511878
0.09960978 0.19451106 0.18339746 0.19129 0.053120628 -0.16230436 0.24663337 -0.47911695
-0.29864308 0.07540367 0.13376372 -0.07125276 0.5692516 0.080218576 -0.14883554 -0.43324974
0.38196307 0.7900431 0.41921753 0.31920418 -0.44124424 -0.34786332 -0.3813504 0.5949703
0.1322242 -0.52382493 -0.48441136 -0.07547213 -0.11032021 0.16965333 0.22393604 -0.11697088
-0.12645842 0.34570894 -0.24299543 0.29037854 -0.1420605 -0.5868001 0.090358265 -0.1850341
-0.19232756 -0.42874676 -0.13361582 -0.24387187 0.0630547 0.35383555 -0.37453982 -0.028665228
0.55931216 -0.39100918 0.37018052 0.056804962 0.08360769 0.3018822 0.27156356 0.1662356
0.3000549 -0.11878268 0.10291607 -0.091488786 -0.22118957 -0.10752353 0.081227414 -0.07061066
-0.23024465 0.42503217 -0.032667596 -0.3942229 -0.11834603 0.13994206 0.030577887 -0.043517515
-0.21355657 -0.031314846 0.0036936256 0.20082408 -0.10063081 0.14586762 0.22037499 0.24576972
-0.08021774 -0.5892214 0.01948345 -0.15595633 0.09645603 -0.0057003205 0.22273947 0.027871113
-0.42681888 -0.08737609 -0.03990533 0.4113333 0.2781766 0.27690732 -0.27206513 0.31818864
-0.06887583 0.07725411 -0.41428095 -0.0042879893 -0.1470009 0.13441259 -0.286814 0.35007247
-0.09197471 -0.24092682 -0.45775592 0.07640452 -0.3310023 -0.28818604 -0.4182318 0.22510692
00000000: 0b92 97be 5022 473d d9ac 973d 3e47 d6be
00000010: 7096 98bd 8766 80be 62f1 103f 9ae6 a3be
00000020: e987 89be 3f80 bf3e 1e36 d93e 62c3 283f
00000030: 4658 14be 9116 5e3c e4c2 fc3e 35d7 213d
00000040: 3600 cc3d e82d 473e 8bcc 3b3e 87e1 433e
00000050: 0495 593d 1d33 26be 758d 7c3e d14e f5be
00000060: bfe7 98be 3d6d 9a3d 5bf9 083e f8ec 91bd
00000070: 79ba 113f a349 a43d 5868 18be e9d2 ddbe
00000080: aa90 c33e 4440 4a3f aea3 d63e bb6e a33e
00000090: c4ea e1be 241b b2be 5c40 c3be f94f 183f
000000a0: c865 073e 6419 06bf c404 f8be 2291 9abd
000000b0: 90ef e1bd 9ab9 2d3e 7d4f 653e 6e8e efbd
000000c0: 517e 01be c300 b13e cbd3 78be 7fac 943e
000000d0: 4f78 11be 8838 16bf c10d b93d 9479 3dbe
000000e0: 84f1 44be b284 dbbe 96d2 08be 8cb9 79be
000000f0: d322 813d ef29 b53e afc3 bfbe 57d3 eabc
00000100: 152f 0f3f 5b32 c8be 4d88 bd3e 52ac 683d
00000110: 823a ab3d 4e90 9a3e 610a 8b3e aa39 2a3e
00000120: cca0 993e 5544 f3bd a9c5 d23d 795e bbbd
00000130: 857f 62be 4c35 dcbd 8f5a a63d 529c 90bd
00000140: 41c5 6bbe d19d d93e 75ce 05bd 95d7 c9be
00000150: 675f f2bd f94c 0f3e 7a7e fa3c 6c3f 32bd
00000160: 93ae 5abe ff43 00bd c110 723b d4a4 4d3e
00000170: 8717 cebd 525e 153e fba9 613e 0fab 7b3e
00000180: 3349 a4bd 37d7 16bf c29b 9f3c 04b3 1fbe
00000190: bd8a c53d c1c9 babb d115 643e f651 e43c
000001a0: 0188 dabe 3cf2 b2bd c573 23bd 479a d23e
000001b0: 2a6d 8e3e ccc6 8d3e 1f4c 8bbe 9fe9 a23e
000001c0: c50e 8dbd 6737 9e3d a21c d4be 4382 8cbb
000001d0: 6787 16be 74a3 093e 49d9 92be b33c b33e
000001e0: 3d5d bcbd 85b5 76be fc5e eabe f979 9c3d
000001f0: 2279 a9be 1f8d 93be 7a22 d6be 6e82 663e

policy_mean.weight f4 [7, 128]
0.1352292 0.00568973 0.118102916 0.013968687 -0.009504822 -0.04812543 -0.18081959 -0.06851533
-0.053185076 0.08582305 -0.10333823 -0.03467542 0.1414142 -0.059206225 -0.06985606 -0.12345317
0.025499428 0.044843648 0.014781308 -0.075622946 0.013854252 -0.0014079935 -0.04212398 -0.0137805
-0.017617047 0.09120943 -0.04236368 -0.116630524 -0.07270768 -0.008811572 -0.06597018 0.033167474
-0.045672297 0.02965952 -0.030899353 0.06719926 -0.047334082 0.113629535 -0.027971804 0.029965032
0.13270831 0.07680209 -0.019185342 0.06300794 0.014181332 -0.096036516 -0.017698241 -0.0012149056
-0.030059457 0.091376275 0.03271902 -0.09202476 -0.10107395 0.06896516 -0.03450423 0.010304215
-0.112075344 0.050494067 0.011206103 0.07460311 0.035135556 -0.011088048 0.16974755 -0.0038571463
-0.0013344937 0.14677511 -0.12697124 0.012398074 0.1369656 -0.1143513 -0.00736823 -0.1083878
-0.048777856 -0.036355805 -0.066154 0.055781446 -0.027587906 0.016893523 -0.0997629 0.09154554
-0.081281975 -0.06857216 -0.0068126135 0.09861472 0.07041825 -0.089091964 0.14154051 -0.03247951
-0.008912746 -0.02728782 -0.10201493 0.10029433 0.07710548 0.0073603326 0.13922793 0.068135425
0.0038830163 0.1299555 0.04057057 0.08219094 0.06373143 -0.06964047 0.1153866 0.051088348
0.07826552 -0.19810826 0.123963214 -0.093199804 -0.008801515 -0.035039976 -0.081259176 0.013520525
-0.06998192 0.041406214 -0.07191925 -0.115085065 0.10899685 0.061222725 0.029552719 0.07201258
0.03961074 0.022504887 -0.012143198 0.058116898 -0.01607588 0.044573937 0.05063913 -0.021421222
0.023441127 -0.064730614 0.1682363 0.133507 0.043378543 0.08671901 -0.020972503 -0.08663741
0.12926692 -0.10379779 -0.086201526 0.035714712 0.35830823 0.07905797 -0.03945294 -0.02029921
-0.16532794 -0.071976975 6.108679e-05 0.035143893 0.10414367 -0.14697696 0.07038837 0.15532811
-0.032881524 0.18760827 0.030112393 0.12668572 0.029075168 -0.028013516 0.10308359 0.051543076
-0.07271192 0.0075966865 0.06470881 0.013871174 7.646397e-05 -0.026406467 0.017596234 0.011591073
0.14868455 8.308521e-05 0.08015486 -0.074623875 0.03262413 0.07271265 -0.08936004 0.21753679
0.019427732 0.031597007 -0.02937727 -0.018261757 0.11552415 0.097131 0.10394639 -0.013354562
0.013910152 0.052006874 0.13680439 0.043624226 -0.10606549 -0.051503208 0.08163606 0.07577457
-0.034660537 0.23402528 0.010410709 -0.008417632 0.09378189 0.037907083 -0.014151791 0.06295085
0.0015723885 0.08560622 -0.044522572 -0.053594153 -0.012428287 0.0033050368 0.04281075 0.01343264
-0.027636651 0.09497076 0.033069383 -0.004497411 0.080345206 -0.09017486 -0.086403295 -0.0020473455
0.09251833 0.01534587 -0.05121799 -0.11438987 0.06657643 0.017737813 -0.025647338 0.01455256
0.06926512 -0.07028705 0.018772865 -0.033369236 0.11302942 0.051284555 0.060456052 -0.0018046753
0.046836346 -0.23457062 -0.058910012 0.003613879 -0.019589897 -0.0760361 0.037039403 0.08852696
-0.006330762 0.013612447 -0.034594465 0.1304764 -0.11890908 -0.14410135 0.01835091 0.2485499
0.06518538 0.10357472 0.030905027 0.012253227 -0.008821035 0.057108596 0.08162709 -0.10606635
00000000: 8679 0a3e ea70 ba3b f1df f13d ebdc 643c
00000010: 1dba 1bbc 2c1f 45bd c528 39be c451 8cbd
00000020: 98d8 59bd ffc3 af3d fea2 d3bd d007 0ebd
00000030: e2ce 103e 3a82 72bd b210 8fbd 04d5 fcbd
00000040: 2de4 d03c f9ad 373d 4d2d 723c 34e0 9abd
00000050: f2fc 623c 6c8c b8ba 328a 2cbd 9bc7 61bc
00000060: a051 90bc 02cc ba3d 8a85 2dbd fcdb eebd
00000070: c4e7 94bd 695e 10bc 601b 87bd 9eda 073d
00000080: e012 3bbd 86f8 f23c a420 fdbc c49f 893d
00000090: 62e1 41bd 9ab6 e83d 2025 e5bc 3a79 f53c
000000a0: b0e4 073e 6a4a 9d3d 942a 9dbc 4f0a 813d
000000b0: d158 683c cbae c4bd e7fb 90bc 783d 9fba
000000c0: 403f f6bc 7c23 bb3d 6104 063d 7a77 bcbd
000000d0: dcff cebd 9b3d 8d3d 4f54 0dbd 03d3 283c
000000e0: c287 e5bd ded2 4e3d cd99 373c 84c9 983d
000000f0: 4dea 0f3d a5aa 35bc 4dd2 2d3e 2dc8 7cbb
00000100: 2eea aeba 374c 163e c004 02be 4b21 4b3c
00000110: b640 0c3e 0431 eabd 3171 f1bb 6cfa ddbd
00000120: 4acb 47bd d3e9 14bd c07b 87bd 167b 643d
00000130: 0800 e2bc 4964 8a3c 7e50 ccbd 3a7c bb3d
00000140: 2a77 a6bd 906f 8cbd 583c dfbb 84f6 c93d
00000150: 7237 903d d975 b6bd ffef 103e 3c09 05bd
00000160: c406 12bc b58a dfbc 34ed d0bd 1d67 cd3d
00000170: 7ae9 9d3d f22e f13b c491 0e3e 968a 8b3d
00000180: 347a 7e3b 0e13 053e 532d 263d b953 a83d
00000190: a085 823d aa9f 8ebd cf4f ec3d 0442 513d
000001a0: ac49 a03d e4dc 4abe 6de0 fd3d 8adf bebd
000001b0: 3b34 10bc 1486 0fbd 366b a6bd 3185 5d3c
000001c0: ae52 8fbd 9099 293d 664a 93bd b8b1 ebbd
000001d0: be39 df3d aec4 7a3d 8b18 f23c 557b 933d
000001e0: df3e 223d 2b5c b83c 44f4 46bc fc0b 6e3d
000001f0: 90b1 83bc 2993 363d fa6a 4f3d 8f7b afbc
00000200: 9b07 c03c 7c91 84bd 2346 2c3e 0fb6 083e
00000210: b3ad 313d bc99 b13d 87ce abbc f46e b1bd
00000220: 8c5e 043e f093 d4bd 6d8a b0bd 9749 123d
00000230: 2d74 b73e 25e9 a13d 6899 21bd 874a a6bc
00000240: ba4b 29be aa68 93bd b81b 8038 0bf3 0f3d
00000250: 4749 d53d 2181 16be c727 903d 550e 1f3e
00000260: c7ae 06bd 621c 403e 44ae f63c e7b9 013e
00000270: 0c2f ee3c 9a7c e5bc 7d1d d33d d51e 533d
00000280: fde9 94bd a0ed f83b 0d86 843d ec43 633c
00000290: 485b a038 6052 d8bc fa25 903c 7ce8 3d3c
000002a0: c340 183e 083e ae38 3b28 a43d 67d4 98bd
000002b0: e1a0 053d 5fea 943d 6602 b7bd f7c1 5e3e
000002c0: e826 9f3c dd6b 013d 9aa8 f0bc ae99 95bc
000002d0: ed97 ec3d 9eec c63d d8e1 d43d 18cd 5abc
000002e0: 68e7 633c 2905 553d 7316 0c3e 51af 323d
000002f0: dd38 d9bd 07f5 52bd ce30 a73d b32f 9b3d
00000300: 35f8 0dbd 53a4 6f3e ae91 2a3c 1cea 09bc
00000310: b810 c03d 7544 1b3d eadc 67bc 60ec 803d
00000320: 9a18 ce3a 5052 af3d 4d5d 36bd 8b85 5bbd
00000330: 04a0 4bbc 5199 583b 535a 2f3d 9314 5c3c
00000340: 4266 e2bc 0880 c23d c373 073d 055f 93bb
00000350: 078c a43d 99ad b8bd 36f4 b0bd c22c 06bb
00000360: 407a bd3d 3e6d 7b3c f5c9 51bd 3c45 eabd
00000370: 3959 883d e44e 913c 5e1a d2bc dc6d 6e3c
00000380: dfda 8d3d a8f2 8fbd 8dc9 993c 2eae 08bd
00000390: f87b e73d c10f 523d c4a0 773d db8a ecba
000003a0: 78d7 3f3d 4833 70be a04b 71bd d4d6 6c3b
000003b0: fe7a a0bc d1b8 9bbd a1b6 173d 9f4d b53d
000003c0: 4872 cfbb be06 5f3c edb2 0dbd 9b9b 053e
000003d0: 9b86 f3bd 4e8f 13be a654 963c dd83 7e3e
000003e0: ea7f 853d fc1e d43d 8a2c fd3c c2c1 483c
000003f0: 1a86 10bc b4ea 693d 1b2c a73d 5139 d9bd

policy_mean.bias f4 [7]
-0.082265094 -0.0878057 0.08283105 0.046745393 -0.11173625 -0.04647225 -0.022919394
00000000: 9a7a a8bd 7ad3 b3bd 53a3 a93d 1978 3f3d
00000010: fad5 e4bd b059 3ebd 74c1 bbbc

value_head.weight f4 [1, 128]
-9.054068 9.329459 -9.984672 9.006557 9.144941 9.441601 9.520468 11.125677
8.58585 -8.768841 -8.955498 -9.432955 8.0318775 -8.466964 7.7215266 8.879849
7.4762673 -8.173093 -6.48227 -9.79192 9.4674 -8.330103 -8.900665 8.386903
9.6693535 8.513958 -8.139251 8.576714 -10.651526 -8.592826 8.830327 8.828029
8.656516 -9.44628 -9.6278 8.576204 9.479863 9.575722 -8.480369 -8.979758
8.7751875 9.858851 8.946608 -8.122343 7.629275 -11.694693 -9.72705 -8.090922
8.712988 8.3277 8.190658 -9.045038 8.683854 8.7003145 8.669341 9.658096
8.774954 9.575595 8.277621 9.071398 -8.812686 -9.184055 9.127128 -8.745358
8.684795 8.565322 -9.450811 -8.957696 -6.331724 -9.172881 -9.258388 -10.194578
9.869941 -8.475588 -9.329616 8.760324 10.394155 7.6911077 -8.531818 9.023819
-8.142361 -8.759729 -8.689946 8.029699 -8.520452 9.251016 -9.84495 7.5712705
-7.902797 8.373369 9.3211775 -8.8046875 -6.9109807 9.6492605 -7.3343434 8.899769
9.898896 7.3560996 7.1456385 -9.560328 9.79792 -9.311193 -10.15804 6.964592
9.788562 8.9434805 9.771808 -9.508086 -8.971189 -10.173369 8.001874 8.651513
-9.242751 9.283975 8.473366 -8.532976 8.751948 9.837573 -9.052298 -9.071417
-9.32884 8.872476 7.987431 -8.850824 8.836317 9.201486 7.831363 -8.887748
00000000: 76dd 10c1 7745 1541 37c1 1fc1 dc1a 1041
00000010: ae51 1241 cc10 1741 d653 1841 c602 3241
00000020: a45f 0941 2c4d 0cc1 b849 0fc1 62ed 16c1
00000030: 9282 0041 af78 07c1 bf16 f740 dd13 0e41
00000040: 953d ef40 fdc4 02c1 c16e cfc0 b4ab 1cc1
00000050: 787a 1741 1a48 05c1 2069 0ec1 c130 0641
00000060: acb5 1a41 2c39 0841 5f3a 02c1 383a 0941
00000070: a76c 2ac1 377c 09c1 0549 0d41 9b3f 0d41
00000080: 1781 0a41 f623 17c1 780b 1ac1 2238 0941
00000090: 85ad 1741 2836 1941 97af 07c1 17ad 0fc1
000000a0: 2b67 0c41 dbbd 1d41 4e25 0f41 1ef5 01c1
000000b0: 0523 f440 761d 3bc1 ffa1 1bc1 6b74 01c1
000000c0: 6668 0b41 423e 0541 ef0c 0341 7ab8 10c1
000000d0: 11f1 0a41 7d34 0b41 9fb5 0a41 9087 1a41
000000e0: 3666 0c41 a335 1941 2371 0441 7224 1141
000000f0: c300 0dc1 e4f1 12c1 b708 1241 fdec 0bc1
00000100: ecf4 0a41 8f0b 0941 8636 17c1 b952 0fc1
00000110: 7c9d cac0 1fc4 12c1 5b22 14c1 fe1c 23c1
00000120: 47eb 1d41 029c 07c1 1b46 15c1 492a 0c41
00000130: 754e 2641 8e1d f640 5482 08c1 9061 1041
00000140: 1c47 02c1 da27 0cc1 050a 0bc1 a679 0041
00000150: c553 08c1 2904 1441 ea84 1dc1 d947 f240
00000160: b7e3 fcc0 52f9 0541 8b23 1541 00e0 0cc1
00000170: c126 ddc0 5f63 1a41 f1b2 eac0 7465 0e41
00000180: e161 1e41 2b65 eb40 12a9 e440 1af7 18c1
00000190: 48c4 1c41 a6fa 14c1 5587 22c1 f0dd de40
000001a0: f39d 1c41 7f18 0f41 5359 1c41 1f21 18c1
000001b0: fd89 0fc1 1fc6 22c1 ad07 0041 996c 0a41
000001c0: 4fe2 13c1 298b 1441 e892 0741 1287 08c1
000001d0: fb07 0c41 b366 1d41 36d6 10c1 8624 11c1
000001e0: ee42 15c1 a9f5 0d41 0999 ff40 fa9c 0dc1
000001f0: 8e61 0d41 4939 1341 879a fa40 3734 0ec1

exp_avg f4 [7]
-0.00028861934 -0.0010726101 -0.0011171997 -0.00022257393 9.3213945e-05 0.0004350149 -0.0008947471
00000000: d551 97b9 d396 8cba 006f 92ba bc62 69b9
00000010: db7b c338 b612 e439 768d 6aba

exp_avg_sq f4 [7]
1.0397633e-05 9.426757e-06 8.254867e-06 8.120563e-06 9.362485e-06 8.467742e-06 8.366902e-06
00000000: 7e71 2e37 9d27 1e37 627e 0a37 8d3d 0837
00000010: 9113 1d37 ad10 0e37 925f 0c37

exp_avg f4 [128, 21]
7.074353e-05 5.2275213e-05 0.0005654036 0.00067204953 7.046182e-05 -0.00017727118 -5.367013e-05 1.00356e-05
-1.1942784e-06 2.9836821e-05 -3.2489774e-05 -8.078754e-07 0.00011972853 0.0005539053 6.639202e-05 1.25855595e-05
0.0002113182 0.0005827965 -7.15514e-05 6.74533e-05 -1.1498743e-05 -0.00010643331 -0.00010995331 -0.001477071
-0.0015601105 0.00036614656 -7.082036e-05 5.347761e-05 -3.7141384e-05 3.0220901e-05 -2.6348915e-05 2.4627856e-05
1.1269634e-06 -0.00020194342 -0.0014737641 -1.4302217e-05 -1.4692366e-05 -5.3926095e-05 -0.0015855049 0.000107560256
-9.199009e-05 3.3070953e-06 1.4010065e-05 1.2222973e-05 0.0001279961 0.000141949 -1.1031928e-05 -1.0145275e-05
-9.997622e-06 3.426252e-06 -1.943791e-06 3.5371552e-06 -6.0139428e-06 -3.179771e-07 2.4470675e-05 0.00012662647
8.94248e-06 9.400083e-07 2.8821785e-05 0.0001349127 -1.4328037e-05 1.2247695e-05 -1.3696146e-06 -4.7721063e-05
-4.6889556e-05 -0.00090621086 -0.00092637504 0.00019018046 -4.448477e-05 3.2352352e-07 -2.5242458e-05 2.0001165e-05
-1.26458e-05 6.268555e-06 -6.3840957e-06 -0.00011109717 -0.00088422425 -1.5349788e-05 -2.5969948e-05 -1.3894084e-05
-0.0009697102 4.1336967e-05 -6.420765e-05 2.198644e-05 -7.6195397e-06 -9.8680775e-06 -9.407363e-05 -9.7367774e-05
2.5537905e-05 -8.344033e-06 2.6572989e-06 -2.8979753e-06 2.105667e-06 9.566279e-07 4.457662e-08 -1.10707894e-07
-1.3466623e-05 -9.382001e-05 1.8490211e-06 -8.266704e-07 -9.94242e-06 -9.837553e-05 7.508828e-06 -3.5985447e-06
2.536281e-07 -1.2897632e-05 -1.8813156e-05 -5.4530483e-05 -7.312034e-05 -3.034515e-05 3.3489643e-05 1.0632336e-05
-2.9018731e-06 3.3681127e-07 9.333838e-06 3.6363772e-06 1.4432635e-06 -2.0539246e-05 -5.313186e-05 -5.1287975e-06
2.0589725e-06 -5.8405545e-05 -4.6462694e-05 1.43408915e-05 -1.7260794e-06 1.3986213e-06 -0.0004202977 -0.00037299102
-0.0041066627 -0.0043726345 0.00096472236 -0.00014303117 0.00034804997 -9.029061e-05 6.993587e-05 -9.634105e-05
8.598287e-05 1.1432309e-06 -0.00055795984 -0.004099025 2.214656e-05 -1.4455661e-06 -0.0001829466 -0.0043600383
0.00042144087 -0.00018496873 7.638598e-06 6.7377905e-06 1.9337017e-06 5.033341e-05 5.3890864e-05 -6.1076685e-06
-3.0538167e-06 -8.696138e-06 5.1443953e-07 -6.137944e-07 1.5535137e-06 -1.2679878e-06 7.627111e-07 5.323026e-06
4.9041693e-05 2.3416674e-06 2.4814622e-07 4.571165e-06 5.409702e-05 -5.975081e-06 3.389324e-06 -1.2917367e-06
-0.00019961945 -0.0002460488 -0.0014249122 -0.0015994328 1.7329705e-05 0.00019822833 0.0001258185 -4.5960358e-05
1.7856013e-05 2.4917432e-05 7.019152e-05 6.4162214e-06 -0.0003256618 -0.0013915995 -8.561527e-05 -4.9106625e-06
-0.0006297989 -0.00140313 0.0002060356 -7.961312e-05 3.3312615e-05 1.5540749e-07 -2.2859497e-06 -1.3357704e-05
-1.5228014e-05 -9.4035465e-07 -2.6022685e-06 -3.8783633e-06 -1.3137821e-06 9.666876e-07 -3.4466595e-08 2.638018e-07
1.3707019e-07 -1.8453399e-06 -1.3562343e-05 9.695066e-07 -4.3601256e-07 8.586656e-07 -1.4187832e-05 -1.8337431e-08
4.4061053e-07 -2.0463855e-07 0.00045341477 0.00040042432 0.0060906964 0.0062663723 -0.0014583112 0.0004491232
-0.00024346981 0.0001502409 -0.00011887458 8.1055994e-05 -7.405267e-05 3.614181e-05 0.0007629922 0.005970241
7.465544e-06 0.0001030965 0.00040681622 0.006410396 -0.00041727288 0.00036256821 -0.00012045668 -0.00018721264
-0.0003747388 -0.003403057 -0.0035759439 0.0011186723 -0.0002165742 -4.0827686e-05 -0.00013278822 0.000102686005
-2.2244645e-05 -3.807161e-06 -3.5842724e-05 -0.00033349363 -0.0034713356 6.848418e-05 -8.9089815e-05 5.3379277e-05
-0.003743576 0.00015136984 4.1245155e-05 -6.8276815e-05 -0.00023413093 -1.341805e-05 -0.0011937752 -0.0013091359
00000000: 255c 9438 1542 5b38 9837 143a 7b2c 303a
00000010: e7c4 9338 dfe1 39b9 dd1b 61b8 935e 2837
00000020: 184b a0b5 164a fa37 a145 08b8 c6dc 58b5
00000030: c416 fb38 f533 113a f23b 8b38 9126 5337
00000040: 4c95 5d39 d0c6 183a de0d 96b8 b775 8d38
00000050: baea 40b7 f334 dfb8 bc96 e6b8 479a c1ba
00000060: 9f7c ccba 5cf7 bf39 6485 94b8 264d 6038
00000070: 42c8 1bb8 e482 fd37 dd07 ddb7 eb97 ce37
00000080: 2b42 9735 c6c0 53b9 512b c1ba 8ef3 6fb7
00000090: 3b7f 76b7 b42e 62b8 b7d0 cfba f991 e138
000000a0: ceea c0b8 77ef 5d36 c50c 6b37 4511 4d37
000000b0: b136 0639 25d8 1439 c515 39b7 a035 2ab7
000000c0: 76bb 27b7 90ee 6536 1372 02b6 dd5f 6d36
000000d0: 60cb c9b6 71b6 aab4 6046 cd37 09c7 0439
000000e0: a907 1637 e154 7c35 50c6 f137 5a77 0d39
000000f0: 7362 70b7 737b 4d37 99d3 b7b5 1a28 48b8
00000100: 47ab 44b8 c88e 6dba fad7 72ba 2e6b 4739
00000110: 2895 3ab8 bcb0 ad34 c4bf d3b7 2dc8 a737
00000120: 4c29 54b7 7a56 d236 f736 d6b6 d7fc e8b8
00000130: 49cb 67ba 6bc3 80b7 0ada d9b7 a31a 69b7
00000140: 2634 7eba 3b61 2d38 38a7 86b8 856f b837
00000150: 59ab ffb6 128f 25b7 6549 c5b8 ed31 ccb8
00000160: 3c3a d637 59fd 0bb7 0c54 3236 d67a 42b6
00000170: 154f 0d36 7c65 8035 8374 3f33 4fbe edb3
00000180: b5ee 61b7 3cc1 c4b8 e22b f835 5be8 5db5
00000190: 5ece 26b7 f64e ceb8 57f4 fb36 877e 71b6
000001a0: 612a 8834 e862 58b7 f2d0 9db7 a9b7 64b8
000001b0: 2f58 99b8 b78d feb7 3b77 0c38 8961 3237
000001c0: cdbd 42b6 fdd2 b434 8798 1c37 7c08 7436
000001d0: 28b6 c135 b24b acb7 e6d9 5eb8 0918 acb6
000001e0: e12c 0a36 7af8 74b8 f0e0 42b8 a999 7037
000001f0: a3ab e7b5 43b8 bb35 675b dcb9 028e c3b9
00000200: 2f91 86bb 5148 8fbb 6ce5 7c3a a3fa 15b9
00000210: 7a7a b639 675a bdb8 89aa 9238 b50a cab8
00000220: b451 b438 1d71 9935 0d44 12ba 1d51 86bb
00000230: 60c7 b937 4605 c2b5 5bd5 3fb9 a7de 8ebb
00000240: d6f4 dc39 2af4 41b9 8727 0037 2e15 e236
00000250: bec4 0136 161d 5338 e008 6238 79f0 ccb6
00000260: 2cf0 4cb6 a1e5 11b7 0418 0a35 a1c3 24b5
00000270: 5382 d035 bb2f aab5 1cbd 4c35 729c b236
00000280: 1eb2 4d38 8a25 1d36 f538 8534 0262 9936
00000290: 3ce6 6238 8e7d c8b6 2574 6336 bc5f adb5
000002a0: f050 51b9 1c00 81b9 1fc4 baba 0fa4 d1ba
000002b0: 425f 9137 83db 4f39 25ee 0339 8fc5 40b8
000002c0: 7fc9 9537 c705 d137 c933 9338 ec4a d736
000002d0: 96bd aab9 5566 b6ba 598c b3b8 45c6 a4b6
000002e0: 1719 25ba 3be9 b7ba 430b 5839 f8f5 a6b8
000002f0: 26b9 0b38 16de 2634 5168 19b6 e71a 60b7
00000300: d27b 7fb7 ae6c 7cb5 a2a2 2eb6 e322 82b6
00000310: 3655 b0b5 22bf 8135 6c08 14b3 a5a0 8d34
00000320: 912d 1334 65ad f7b5 d289 63b7 fe1f 8235
00000330: 1c15 eab4 0d7f 6635 4608 6eb7 7084 9db2
00000340: 0d8d ec34 9eba 5bb4 4db8 ed39 0bf0 d139
00000350: 7794 c73b 2456 cd3b ce24 bfba 4c78 eb39
00000360: ee4b 7fb9 fc89 1d39 4e4c f9b8 9bfc a938
00000370: b94c 9bb8 f996 1738 8a03 483a 03a2 c33b
00000380: 8980 fa36 8335 d838 f349 d539 4d0e d23b
00000390: 6bc5 dab9 1517 be39 b09d fcb8 834e 44b9
000003a0: 9778 c4b9 d305 5fbb 625a 6abb 6aa0 923a
000003b0: 3218 63b9 653e 2bb8 113d 0bb9 2159 d738
000003c0: 039a bab7 877e 7fb6 d555 16b8 c2d8 aeb9
000003d0: 597f 63bb 2a9f 8f38 bbd5 bab8 90e3 5f38
000003e0: c856 75bb 08b9 1e39 a6fe 2c38 d62f 8fb8
000003f0: 0b81 75b9 161e 61b7 7378 9cba 5097 abba

exp_avg_sq f4 [128, 21]
2.0008221e-07 5.4934736e-07 4.0507166e-05 4.0163624e-05 7.1470845e-06 3.4296312e-07 2.1917374e-07 6.247623e-08
6.2251154e-08 6.541702e-08 2.6031516e-08 2.2072546e-08 7.914245e-07 4.0399624e-05 5.0138226e-08 4.5393264e-08
8.392411e-06 4.007008e-05 1.9195879e-07 2.0143011e-07 8.115502e-09 1.6319802e-07 3.561484e-07 3.238315e-05
3.342902e-05 4.388399e-06 2.6055773e-07 1.4313355e-07 4.5841585e-08 4.6204782e-08 5.1349293e-08 2.3582139e-08
1.7995546e-08 6.604495e-07 3.225669e-05 9.18788e-08 2.249257e-07 6.1587607e-06 3.2282893e-05 1.6273482e-07
2.0707546e-07 9.2573424e-09 6.2940995e-09 1.588618e-08 1.0753284e-06 1.0810688e-06 1.7619031e-07 1.03725855e-08
5.4701874e-09 1.6022902e-09 1.6089974e-09 1.5352335e-09 7.4494827e-10 5.864712e-10 2.0852246e-08 1.0754896e-06
4.445799e-09 1.34061935e-08 2.0000529e-07 1.0693644e-06 6.257243e-09 4.875473e-09 1.8670902e-10 3.9914774e-08
8.965918e-08 7.377025e-06 7.614434e-06 1.0192402e-06 4.2676874e-08 2.4934156e-08 1.0843286e-08 1.0817126e-08
1.38536596e-08 5.355859e-09 5.019267e-09 1.5770395e-07 7.3494834e-06 2.0722743e-08 2.0410942e-08 9.398254e-07
7.770223e-06 4.064128e-08 3.8527794e-08 2.939004e-09 1.0019077e-09 2.3186566e-09 1.201938e-07 1.2624294e-07
1.3989328e-08 1.3746236e-09 5.8648114e-10 1.79809e-10 1.8220239e-10 2.419569e-10 6.902751e-11 8.106151e-11
2.8897793e-09 1.2038225e-07 9.1647534e-10 3.6170225e-09 2.6484773e-08 1.1180603e-07 9.0045044e-10 4.3090287e-10
1.565145e-11 1.1870447e-08 2.9618308e-08 1.359256e-06 1.4087971e-06 1.6908503e-07 2.0302197e-08 8.373105e-09
2.16939e-09 2.1865891e-09 2.5527132e-09 5.9843097e-10 5.1166804e-10 3.2828147e-08 1.360092e-06 2.2618052e-09
3.6740933e-09 2.961284e-07 1.315823e-06 9.6092245e-09 2.1364435e-09 1.169992e-10 1.7482196e-06 4.345955e-06
0.0003780239 0.000398861 4.2087748e-05 2.7453123e-06 1.5046319e-06 5.483136e-07 5.533142e-07 6.5614546e-07
2.581927e-07 1.7654308e-07 7.3990977e-06 0.00037592024 6.1558313e-07 5.599889e-07 4.201154e-05 0.0004066573
1.6130116e-06 1.6943297e-06 1.2345181e-07 4.5741844e-10 1.6799733e-09 1.4560943e-07 1.5031755e-07 1.9431036e-08
6.756777e-10 5.1884363e-10 2.1853465e-10 2.1903379e-10 2.2010684e-10 9.856079e-11 6.177672e-11 2.7300695e-09
1.4451007e-07 1.9481058e-10 4.5827006e-10 1.4046608e-08 1.5744726e-07 3.8945872e-10 5.7419247e-10 6.101135e-11
1.0719322e-06 2.8005727e-06 0.00014083504 0.00014535816 1.8670191e-05 1.9609874e-06 8.2937817e-07 2.1699204e-07
2.1769895e-07 2.5203255e-07 8.395276e-08 6.891965e-08 2.9395796e-06 0.00014083373 3.0521196e-07 4.92079e-07
2.1115666e-05 0.00014682025 9.0967706e-07 3.110336e-07 2.220518e-08 1.2072037e-09 1.940101e-09 1.7445899e-07
1.6442954e-07 3.984961e-08 1.288225e-09 1.0168524e-09 2.6009864e-10 2.6109837e-10 2.3398614e-10 1.1539561e-10
1.486682e-10 3.6729946e-09 1.7520624e-07 1.3699673e-09 1.1648009e-08 6.633124e-08 1.279456e-07 1.2751722e-09
1.6091535e-09 2.9079756e-11 1.4193614e-06 4.686077e-06 0.0003590435 0.00037742459 4.134866e-05 2.4063866e-06
1.2390835e-06 5.2887367e-07 5.3007597e-07 7.9660475e-07 2.538921e-07 1.7937974e-07 7.504448e-06 0.00035641875
4.7343357e-07 1.7229669e-06 2.9031236e-05 0.00039508127 1.2455771e-06 1.4860431e-06 1.6918747e-07 4.9992315e-07
1.5000006e-06 0.0001051138 0.000110784975 1.3485248e-05 7.6302314e-07 3.0507138e-07 1.5832738e-07 1.5745559e-07
2.4708e-07 7.5872805e-08 6.617118e-08 2.3161547e-06 0.00010583925 1.8572227e-07 5.610137e-07 1.2349385e-05
0.00011317005 5.3681174e-07 3.8634195e-07 1.3096536e-08 4.912039e-07 1.348577e-06 9.9536264e-05 0.00010361087
00000000: 2ed6 5634 dd76 1335 3de6 2938 5d75 2838
00000010: fdd0 ef36 7e20 b834 0556 6b34 ac2a 8633
00000020: efae 8533 637b 8c33 e99b df32 0b9a bd32
00000030: 4772 5435 c472 2938 9057 5733 6cf6 4233
00000040: 21cd 0c37 ec10 2838 3b1d 4e34 b048 5834
00000050: 5b6c 0b32 883b 2f34 aa34 bf34 24d3 0738
00000060: 2336 0c38 0f40 9336 c8e2 8b34 40b0 1934
00000070: 5be3 4433 b272 4633 258b 5c33 ac91 ca32
00000080: a094 9a32 be49 3135 5b4b 0738 e84e c533
00000090: 1b83 7134 5aa7 ce36 7e67 0738 35bc 2e34
000000a0: 7858 5e34 390a 1f32 7c43 d831 1476 8832
000000b0: 0154 9035 3e19 9135 d32e 3d34 1d33 3232
000000c0: 47f4 bb31 9337 dc30 9023 dd30 3a00 d330
000000d0: 13c5 4c30 3e35 2130 931e b332 8b59 9035
000000e0: a9c1 9831 1051 6632 09c1 5634 1587 8f35
000000f0: 4bff d631 1d85 a731 eb49 4d2f c26e 2b33
00000100: a88a c033 2a88 f736 7d7f ff36 d4cc 8835
00000110: b84b 3733 ca2e d632 4749 3a32 39d6 3932
00000120: 0a01 6e32 a206 b831 f075 ac31 5555 2934
00000130: 959b f636 cb01 b232 2354 af32 4f48 7c35
00000140: db5c 0237 8f8d 2e33 c279 2533 81f7 4931
00000150: 7eb3 8930 3d56 1f31 9f0e 0134 658d 0734
00000160: b755 7032 45ed bc30 f135 2130 bcb3 452f
00000170: 6a55 482f 6804 852f 09cb 972e 9341 b22e
00000180: 8995 4631 6c42 0134 38eb 7b30 558f 7831
00000190: a280 e332 041a f033 9183 7730 30e4 ec2f
000001a0: efab 892d c7ee 4b32 596b fe32 ae6f b635
000001b0: e615 bd35 bd8d 3534 0165 ae32 4ed9 0f32
000001c0: 5014 1531 e242 1631 ce6b 2f31 d67e 2430
000001d0: 70a5 0c30 eefe 0c33 688c b635 196e 1b31
000001e0: 557b 7c31 94fb 9e34 569b b035 d115 2532
000001f0: b6d0 1231 59a4 002f 5ea4 ea35 78d3 9136
00000200: 8231 c639 381e d139 6087 3038 1b3c 3836
00000210: c2f2 c935 d32f 1335 7687 1435 f921 3035
00000220: bc9d 8a34 cb8f 3d34 c445 f836 2917 c539
00000230: 8d3e 2535 2552 1635 8c35 3038 9e34 d539
00000240: a87e d835 ba68 e335 2d8e 0434 ec77 fb2f
00000250: cee4 e630 d158 1c34 f966 2134 4de9 a632
00000260: 97ba 3930 609e 0e30 0948 702f 88d4 702f
00000270: 9102 722f cbbc d82e 34d9 872e e49b 3b31
00000280: a02a 1b34 4e32 562f c7ef fb2f a351 7132
00000290: c60e 2934 711b d62f 34d5 1d30 562a 862e
000002a0: 4fdf 8f35 79f1 3b36 1ead 1339 496b 1839
000002b0: ee9d 9c37 8299 0336 6fa2 5e35 51fe 6834
000002c0: a2c0 6934 174f 8734 8549 b433 fa00 9433
000002d0: 9845 4536 c4ac 1339 03dc a334 6917 0435
000002e0: 8c21 b137 c3f3 1939 8830 7435 22fc a634
000002f0: b5bd be32 b4ea a530 9e52 0531 ec52 3b34
00000300: 0c8e 3034 1c27 2b33 630d b130 50c1 8b30
00000310: a1fd 8e2f 548a 8f2f 9fa2 802f f4c1 fd2e
00000320: 6176 232f 0168 7c31 5320 3c34 7049 bc30
00000330: 7c1c 4832 fc71 8e33 6b61 0934 2242 af30
00000340: 0e29 dd30 cac9 ff2d e380 be35 183d 9d36
00000350: 013e bc39 12e1 c539 c96d 2d38 687d 2136
00000360: 964e a635 ecf7 0d35 8b4a 0e35 43d6 5535
00000370: aa4e 8834 879b 4034 b8ce fb36 b7dd ba39
00000380: 372c fe34 b140 e735 1b88 f337 e922 cf39
00000390: b42d a735 0d74 c735 e6a9 3534 7532 0635
000003a0: a153 c935 8b70 dc38 3b55 e838 b33e 6237
000003b0: 8dd2 4c35 b1c8 a334 b300 2a34 1011 2934
000003c0: 6ba6 8434 84ef a233 fe19 8e33 3c6f 1b36
000003d0: 04f6 dd38 f36a 4734 9198 1635 3430 4f37
000003e0: b555 ed38 6c19 1035 6f6a cf34 2dff 6032
000003f0: 46db 0335 c100 b535 20be d038 aa49 d938

exp_avg f4 [128]
0.00059979944 -0.001599118 0.00013738549 -0.0009609107 -0.00010175151 -5.7206144e-05 -0.004441059 5.3139695e-05
-0.0015068952 -1.47888495e-05 0.00647879 -0.0037680443 -0.0011816729 0.014824982 -0.0014103366 -0.0057375054
-0.0062203123 -4.3455086e-05 -0.0004421521 -0.0009899216 -0.00014122554 0.002534507 -0.00025571883 -0.008103563
0.00016592725 -0.00041503515 -0.0076377615 0.0019767259 0.00032551156 -0.0005105091 0.0026277686 -0.0037953204
-0.00150389 6.807268e-05 0.00022003954 -0.00023005826 -3.82291e-05 0.0076094544 0.00020984226 0.0004456021
0.006340922 -0.00011966443 -0.0013326366 -6.3142455e-05 0.0025274362 0.0013727231 0.0005401141 0.00058324076
0.00010089415 0.0013078257 -0.0013766038 -0.0011597984 -0.0022298156 -0.0017788112 -0.0028648616 0.0033761784
-0.00011056865 0.0012299299 0.0016813084 -0.0010512611 0.0045430544 0.0012298316 0.002481443 -0.00013983705
0.011100271 -0.0016610401 2.6587935e-05 -0.0005216823 -0.00096753583 0.007613161 0.0002626337 -0.006629004
0.0016404289 0.0058972337 -4.12985e-06 6.116632e-05 -0.0004335199 0.0001306214 0.00091137516 0.0046577393
-0.0041856184 -0.00642239 -0.0010577748 0.0026158951 0.00016848504 -0.001615628 0.0019787753 -0.00057934475
-0.00020846077 0.003096393 0.00019757052 0.00049295503 -0.0028999576 3.9963827e-05 -0.00037711242 -0.00052031246
-0.004554906 0.0035091466 0.0029243531 -0.0014219015 -0.0065473355 -0.0008299777 -0.0013836484 0.0031567565
0.006449393 -0.00046426582 0.0034672553 0.004389437 8.7806206e-05 -0.005524673 -0.0020241614 -0.0045131617
-1.6915888e-05 -0.002178217 -0.002064764 0.00016444207 0.00014377946 -2.1741498e-05 0.0011482378 0.0041079335
-0.00042638346 7.94637e-06 -0.0030056257 -0.0010859715 0.00049280334 0.004589476 0.0022339905 0.005820193
00000000: dc3b 1d3a 7f99 d1ba 230f 1039 a0e5 7bba
00000010: 6d63 d5b8 a1f0 6fb8 4e86 91bb 50e2 5e38
00000020: 0383 c5ba a01d 78b7 084c d43b 4bf1 76bb
00000030: 5de2 9aba 7be4 723c 0bdb b8ba af01 bcbb
00000040: c3d3 cbbb 8b43 36b8 a6d0 e7b9 42c0 81ba
00000050: f115 14b9 f919 263b 0012 86b9 cfc4 04bc
00000060: c2fc 2d39 1399 d9b9 3046 fabb f58b 013b
00000070: 6ca9 aa39 b0d3 05ba a436 2c3b e9ba 78bb
00000080: 2d1e c5ba 3ec2 8e38 6aba 6639 cb3b 71b9
00000090: 2f58 20b8 bb58 f93b 1a09 5c39 b49f e939
000000a0: 82c7 cf3b 5af4 fab8 ddab aeba 596b 84b8
000000b0: 58a3 253b f2ec b33a 7296 0d3a a0e4 183a
000000c0: 2297 d338 596b ab3a 296f b4ba 6004 98ba
000000d0: 1922 12bb 0027 e9ba 67c0 3bbb e042 5d3b
000000e0: 18e1 e7b8 9935 a13a 595f dc3a 78ca 89ba
000000f0: e7dd 943b 4d32 a13a b59f 223b 39a1 12b9
00000100: e9dd 353c 42b7 d9ba 2809 df37 82c1 08ba
00000110: 3ba2 7dba d377 f93b 19b2 8939 1e38 d9bb
00000120: a903 d73a 953d c13b 2493 8ab6 6b46 8038
00000130: 0e4a e3b9 6af7 0839 5ae9 6e3a f39f 983b
00000140: 8327 89bb ea72 d2bb 08a5 8aba 706f 2b3b
00000150: 5cab 3039 7bc3 d3ba 57ae 013b 2bdf 17ba
00000160: 4396 5ab9 dbec 4a3b ef2a 4f39 a739 013a
00000170: 370d 3ebb d59e 2738 2cb7 c5b9 9465 08ba
00000180: 5241 95bb b6f9 653b 81a6 3f3b 195f baba
00000190: 088b d6bb dc92 59ba 895b b5ba 96e1 4e3b
000001a0: 6e55 d33b b468 f3b9 e43a 633b 44d5 8f3b
000001b0: 9924 b838 5108 b5bb cba7 04bb 25e3 93bb
000001c0: 98e6 8db7 6bc0 0ebb fe50 07bb 156e 2c39
000001d0: 81c3 1639 8361 b6b7 7880 963a d89b 863b
000001e0: 388c dfb9 6651 0537 08fa 44bb 2857 8eba
000001f0: 792f 013a 5163 963b 2468 123b 51b7 be3b

exp_avg_sq f4 [128]
4.764586e-05 3.8041708e-05 1.2682533e-06 8.6702485e-06 1.4192256e-07 1.6029769e-06 0.000443376 1.7047452e-07
0.00016602267 2.065561e-07 0.0004204902 0.00012485852 0.00011536187 0.0033183473 6.7693756e-05 0.0006647765
0.00047637627 1.6845364e-06 9.810643e-06 0.0002825899 5.1238753e-06 0.00018756193 2.3437294e-06 0.0013467049
6.8408975e-05 4.213323e-05 0.00065037084 3.1414922e-05 4.0768133e-05 8.2413266e-05 0.00021921183 0.00011738582
0.00017000757 5.5930593e-07 2.785535e-06 1.8031471e-06 8.2783805e-07 0.0015463689 3.8511103e-06 9.11063e-05
0.00024742482 2.5298275e-06 2.7412563e-05 3.492658e-06 4.8324433e-05 4.324198e-05 3.325975e-05 7.7576715e-06
6.925236e-06 0.00020709286 2.9882589e-05 3.002407e-05 7.8603094e-05 6.06575e-05 7.3276125e-05 0.000749419
1.6066184e-07 1.9282235e-05 0.00012105688 3.100945e-05 0.00015162595 1.6206859e-05 0.00014302187 1.1411994e-06
0.001691986 5.3401698e-05 7.8297313e-07 5.1506363e-06 2.5713392e-05 0.0010752801 7.312315e-07 0.0005754665
0.00021009933 0.0007343906 2.521464e-06 6.7761897e-07 3.5090288e-06 1.2567153e-06 6.9796033e-06 0.00030132147
0.00036410778 0.00091771595 0.00014849783 0.00010659021 1.0554999e-06 2.431406e-05 0.00010451115 7.839873e-06
3.14943e-06 0.00024903764 1.4605189e-06 1.0057557e-05 0.00023316551 9.471155e-06 8.829632e-06 4.8308916e-06
0.00029190592 0.00035726058 0.00010798002 8.5335785e-05 0.00081138895 2.1225258e-05 3.864195e-05 0.00017256108
0.0006677937 2.5548761e-06 0.00028383624 0.00045220018 2.8059237e-06 0.00092780514 7.30144e-05 0.0004814133
6.43228e-08 0.00019208288 0.000116788746 3.212062e-07 3.807632e-06 2.2256388e-07 3.023314e-05 0.00040553964
9.170099e-06 5.01344e-09 8.0812795e-05 0.00011424425 6.3808686e-05 0.00026934876 4.954245e-05 0.0003904772
00000000: 5ad7 4738 f98e 1f38 da38 aa35 6f76 1137
00000010: 6063 1834 de25 d735 eb74 e839 ae0b 3734
00000020: 5f16 2e39 b5c9 5d34 3d75 dc39 74ec 0239
00000030: 6fee f138 a178 593b cff6 8d38 6544 2e3a
00000040: 24c2 f939 3b18 e235 6498 2437 9328 9439
00000050: c1ed ab36 46ac 4439 f748 1d36 eb83 b03a
00000060: ca76 8f38 36b8 3038 a67d 2a3a 84c3 0338
00000070: 73fe 2a38 49d5 ac38 3adc 6539 082d f638
00000080: 0f44 3239 3623 1635 20ef 3a36 aa03 f235
00000090: 9938 5e35 88af ca3a c938 8136 5310 bf38
000000a0: ccb8 8139 1bc6 2936 08f4 e537 6863 6a36
000000b0: f7af 4a38 b95e 3538 6280 0b38 f226 0237
000000c0: 535f e836 1127 5939 5fac fa37 33dc fb37
000000d0: b7d7 a438 7f6a 7e38 d2ab 9938 a874 443a
000000e0: 6482 2c34 49c0 a137 ebdf fd38 2510 0238
000000f0: c8fd 1e39 f7f3 8737 24f8 1539 502b 9935
00000100: a1c5 dd3a a3fb 5f38 812d 5235 a1d3 ac36
00000110: 17b3 d737 6af0 8c3a d949 4435 e7da 163a
00000120: 1c4e 5c39 1e84 403a 6c36 2936 9fe5 3535
00000130: a87c 6b36 69ac a835 5632 ea36 affa 9d39
00000140: b8e5 be39 e092 703a 15b6 1b39 2f89 df38
00000150: b3aa 8d35 0cf6 cb37 ff2c db38 0088 0337
00000160: cc5a 5336 4491 8239 0c07 c435 e1bc 2837
00000170: e47d 7439 4de6 1e37 fb22 1437 0b19 a236
00000180: f30a 9939 b44e bb39 5573 e238 4df6 b238
00000190: 64b3 543a e50c b237 7a13 2238 83f1 3439
000001a0: e00e 2f3a 7074 2b36 dbcf 9439 4815 ed39
000001b0: 674d 3c36 f337 733a 4f1f 9938 3366 fc39
000001c0: d521 8a33 db69 4939 7bec f438 3e72 ac34
000001d0: 9f86 7f36 e5f9 6e34 2c9d fd37 9c9e d439
000001e0: 46d9 1937 af42 ac31 0a7a a938 6a96 ef38
000001f0: 07d1 8538 6137 8d39 cdcb 4f38 f6b8 cc39
