models/checkpoint_0.pth (torch, 85437 bytes, 8 tensors)

policy_log_std f4 [7]
0	0x00000000	0.0
1	0x00000000	0.0
2	0x00000000	0.0
3	0x00000000	0.0
4	0x00000000	0.0
5	0x00000000	0.0
6	0x00000000	0.0

fc1.weight f4 [128, 21]
0	0x3b840a60	0.004029557
1	0xbe18493e	-0.1487169
2	0x3c562b20	0.013071805
3	0xbe3aacca	-0.18229976
4	0xbd84373e	-0.06455849
5	0x3e4e32d3	0.20136575
6	0xbe5b64aa	-0.21425119
7	0x3e19e0df	0.15027188
8	0xbe39734a	-0.18110386
9	0xbe55d80b	-0.20883195
10	0x3dcae3ae	0.09906708
11	0x3ce6e880	0.028187037
12	0xbe2da1ad	-0.16956206
13	0x3d48b55c	0.049001083
14	0x3ddf904e	0.10916196
15	0x3e184f57	0.14874016
16	0x3db8e94a	0.09028871
17	0xbe447a12	-0.19187191
18	0x3d43a034	0.047760203
19	0x3e3aaac9	0.18229212
20	0xbe126388	-0.1429578
21	0xbe581d5b	-0.21104948
22	0xbd303464	-0.043018714
23	0xbe26530d	-0.16242619
24	0xbd987c2e	-0.074455604
25	0x3e0a8021	0.1352544
26	0x3d78b19c	0.060716256
27	0x3df95ab6	0.12175505
28	0x3d225ddc	0.039640293
29	0x3d70efcc	0.058822438
30	0xbb925900	-0.004466176
31	0xbe076496	-0.13221964
32	0x3e4acacd	0.19803925
33	0xbdcc84d8	-0.099862754
34	0x3cad5a98	0.021161363
35	0x3d317bfc	0.04333113
36	0xbe3b6d4d	-0.18303414
37	0x3e2e2cfb	0.17009346
38	0xbdb9c92a	-0.09071572
39	0xbdbe27e6	-0.09284954
40	0x3dc6faa6	0.09715776
41	0xbb247980	-0.0025096834
42	0x3de1df72	0.11028947
43	0xbe139489	-0.1441213
44	0x3d79ca1c	0.060983762
45	0x3ddff162	0.10934712
46	0xbe0cd966	-0.13754806
47	0x3df4f612	0.11960997
48	0xbe4bf37d	-0.19917102
49	0xbe2a95c4	-0.16658694
50	0x3d679804	0.056541458
51	0x3e0b0d33	0.13579254
52	0xbe16a344	-0.14710718
53	0x3cbd5498	0.023111627
54	0xbe415720	-0.18880892
55	0xbda4e418	-0.08051318
56	0x3df2d382	0.11856748
57	0xbe202928	-0.156407
58	0xbd865f5a	-0.065611556
59	0x3e4b1da9	0.19835533
60	0xbd4047a0	-0.046943307
61	0xbcd38818	-0.02582173
62	0x3e4048e3	0.18777804
63	0x3e3baa35	0.18326648
64	0x3e357d61	0.1772361
65	0xbe408a88	-0.18802845
66	0xbca62d68	-0.020285323
67	0x3c273e90	0.010207787
68	0xbd0470e0	-0.03233421
69	0x3e1e6edf	0.15471981
70	0xbe37ce14	-0.17949706
71	0xbe09a3fc	-0.13441461
72	0xbd194910	-0.037423193
73	0xbbe27600	-0.0069110394
74	0xbdc5030a	-0.0961972
75	0x3d7db664	0.06194152
76	0x3dd1738a	0.102271155
77	0x3e3fd0e5	0.1873203
78	0x3da14946	0.07875304
79	0xbe145194	-0.14484245
80	0x3e2e359d	0.1701264
81	0x3d4d0874	0.05005689
82	0x3d06b6ec	0.03288929
83	0x3dbdbd0e	0.09264575
84	0x3e3866cd	0.18007965
85	0xbdb7b0c8	-0.08969265
86	0xbceacf10	-0.028663188
87	0xbe11e648	-0.14248002
88	0xbe0ec903	-0.13943867
89	0xbdc04868	-0.093888104
90	0xbe4c867c	-0.19973177
91	0xbdf519b4	-0.11967793
92	0xbddb061f	-0.10694527
93	0xbe19898b	-0.14993875
94	0x3e112255	0.14173253
95	0xbe4edf2f	-0.20202325
96	0x3e1fe40b	0.15614335
97	0xbd39bb48	-0.04534462
98	0x3de83a0a	0.11339195
99	0x3d719f4c	0.058989808
100	0xbe4f7d97	-0.20262752
101	0xbe4c96ec	-0.19979447
102	0x3e5e76d1	0.21725012
103	0xbda8abbe	-0.08235882
104	0x3de27a42	0.11058475
105	0xbe15befa	-0.14623633
106	0x3e45b32f	0.19306634
107	0x3e320a51	0.17386748
108	0x3e208785	0.15676697
109	0xbe3f3809	-0.1867372
110	0xbde33fa3	-0.11096122
111	0xbd8d6854	-0.06904665
112	0xbd095700	-0.033530235
113	0x3de4895a	0.1115901
114	0x3e090c9b	0.13383715
115	0xbe2dd394	-0.16975242
116	0x3dd34b42	0.10317089
117	0x3da00e32	0.078152075
118	0xbdbbcec6	-0.09170298
119	0x3cb49be8	0.022046998
120	0xbe0c0514	-0.13673812
121	0xbded870f	-0.11598026
122	0xbe35e910	-0.17764688
123	0xbc8efd90	-0.017454892
124	0xbd8d7094	-0.06906238
125	0xbe47246d	-0.19447489
126	0x3dcf3156	0.10116832
127	0x3e27bbf5	0.16380294
128	0x3da4de82	0.080502525
129	0x3d54af94	0.051925257
130	0x3e4e4029	0.20141663
131	0xbda18274	-0.0788621
132	0xbe0b1a5c	-0.13584274
133	0xbc48c2e0	-0.012253493
134	0xbe54b1b5	-0.20770915
135	0x3d60df74	0.0549006
136	0x3d4fac84	0.050701633
137	0xbd275ea0	-0.040861726
138	0xbe3bdf42	-0.18346885
139	0xbe081126	-0.13287792
140	0x3cd66f28	0.02617605
141	0x3e13a8bb	0.14419834
142	0xbd2b6968	-0.04184857
143	0xbd9c576e	-0.076338634
144	0xbe0daacc	-0.13834685
145	0xbe4835c7	-0.19551764
146	0x3e211a19	0.15732612
147	0x3e4593a5	0.19294603
148	0xbe4d94e1	-0.20076324
149	0x3de617d6	0.11235015
150	0xbe0186d2	-0.12649086
151	0x3dd34cbe	0.10317372
152	0xbde52b7c	-0.111899346
153	0x3e5caae7	0.21549569
154	0xbd9e3a62	-0.077259794
155	0xbde66016	-0.11248796
156	0xbdccaf81	-0.09994412
157	0xbcb33780	-0.02187705
158	0x3d1e12bc	0.038592085
159	0xbdd6a47e	-0.10480593
160	0xbca8b540	-0.02059424
161	0xbe4c00d6	-0.19922194
162	0x3c609d10	0.013709322
163	0xbd850bc0	-0.06496382
164	0xbe4a5e68	-0.19762576
165	0xbe403d1d	-0.18773313
166	0x3bfa7380	0.007643163
167	0xbe1147d8	-0.14187562
168	0xbe2e3e9c	-0.17016071
169	0x3dae909e	0.08523677
170	0x3d0535ec	0.032522127
171	0xbdccd62f	-0.1000179
172	0x3d8ce776	0.06880085
173	0xbc6a2030	-0.014289901
174	0xbe5d85d5	-0.21633084
175	0xbe0ac014	-0.13549834
176	0xbe1a7a2c	-0.15085667
177	0x3b712800	0.0036797523
178	0x3e55d875	0.20883353
179	0xbe29f161	-0.16595985
180	0xbe2f9954	-0.17148334
181	0xbe00f2ca	-0.12592617
182	0xbe5096a8	-0.20369971
183	0xbc15c610	-0.00914146
184	0x3e2ec2d9	0.17066516
185	0xbd4dd2c0	-0.050249815
186	0x3cd25fc0	0.025680423
187	0x3e32f45f	0.17476033
188	0x3d41826c	0.04724352
189	0xbe529a4a	-0.20566669
190	0xbe0dac44	-0.13835245
191	0x3e368daf	0.17827486
192	0x3c0d63d0	0.008629754
193	0xbe0ec500	-0.13942337
194	0x3d74613c	0.059663042
195	0xbdf575ac	-0.11985335
196	0x3da315ba	0.079631284
197	0x3da45686	0.080243155
198	0xbd42db94	-0.047572687
199	0x3c48de60	0.01226005
200	0x3e49eacb	0.19718473
201	0x3e393e09	0.18090071
202	0xbd9378f4	-0.07200804
203	0xbe5bfb4f	-0.21482585
204	0xbe31801b	-0.17334025
205	0xbc3b8070	-0.011444196
206	0x3b34e8c0	0.002760455
207	0xbccc3770	-0.024928778
208	0x3df6ed5e	0.12056993
209	0xbe3ab018	-0.18231237
210	0x3e5b5cdd	0.21422143
211	0x3dfece8a	0.12441738
212	0x3d492714	0.049109533
213	0x3c806610	0.015673667
214	0x3d39442c	0.04523103
215	0x3dd2ddba	0.10296197
216	0xbd658788	-0.056037456
217	0xbe4b1d25	-0.19835337
218	0x3e33e6b9	0.17568482
219	0x3da92352	0.0825869
220	0xbd5f33ec	-0.054492876
221	0xbe136d6a	-0.14397207
222	0x3e11d7f9	0.14242543
223	0xbc009d90	-0.007850066
224	0xbd8e0838	-0.06935161
225	0xbe0be3af	-0.13661073
226	0xbe4b91e8	-0.19879878
227	0xbcb8ab38	-0.022542581
228	0xbca18240	-0.019715428
229	0x3de3b7b6	0.111190245
230	0xbe29f7e2	-0.16598466
231	0x3e385c75	0.1800402
232	0xbe52611e	-0.2054486
233	0xbe492424	-0.19642693
234	0xbdfddeef	-0.12396037
235	0xbcd5cde8	-0.02609916
236	0xbd83801e	-0.06420921
237	0xbdc36bf0	-0.09542072
238	0xbdba04f8	-0.09082979
239	0x3d17adac	0.03703086
240	0xbdebdce4	-0.11516741
241	0x3e2e881d	0.1704411
242	0x3c0a61f0	0.008446202
243	0xbbc2ad80	-0.005941093
244	0xbe0cbff1	-0.13745095
245	0xbe3f0bc7	-0.18656836
246	0x3e131199	0.14362182
247	0x3e0a0ef9	0.13482274
248	0x3e16ed6d	0.14739008
249	0x3e2169af	0.15762971
250	0xbe5c19d3	-0.21494226
251	0xbce3de58	-0.027815983
252	0x3da0868e	0.07838164
253	0xbe0439ca	-0.1291267
254	0x3e5e9531	0.217366
255	0x3cebaf20	0.02877003

fc1.bias f4 [128]
0	0x3e5f2f49	0.21795382
1	0x3e203261	0.15644218
2	0xbdf452de	-0.11929868
3	0x3e31d5b9	0.17366685
4	0x3df3527a	0.118809655
5	0xbb89f5e0	-0.004210219
6	0xbe089342	-0.13337424
7	0xbdbf999a	-0.09355469
8	0xbe45a6d3	-0.1930192
9	0xbd4f8700	-0.050665855
10	0xbdafd560	-0.0858562
11	0x3d94b0e6	0.07260303
12	0x3e3ba923	0.1832624
13	0x3e286cf1	0.16447808
14	0xbe1c63ac	-0.15272397
15	0xbca77cf0	-0.020445317
16	0xbe59f79c	-0.21285862
17	0xbe232530	-0.15932155
18	0x3ddcdb5a	0.107840255
19	0xbda1f8a8	-0.079087555
20	0xbddbc813	-0.107315205
21	0xbe26131d	-0.16218229
22	0x3daa907a	0.08328338
23	0x3d212654	0.039343193
24	0xbe4d18f5	-0.20029052
25	0xbdce52e1	-0.10074402
26	0xbe2d02ee	-0.16895649
27	0x3e5847ab	0.21121089
28	0x3dda3f12	0.10656561
29	0xbb14c7c0	-0.0022702068
30	0x3dcafd5a	0.09911604
31	0xbd29b9e8	-0.04143706
32	0x3d8be56e	0.068308696
33	0x3dd4bcd2	0.10387577
34	0xbce05828	-0.027385786
35	0xbd074bfc	-0.03303145
36	0x3deb1d0a	0.11480148
37	0xbe3e4f10	-0.18584847
38	0xbe3b003f	-0.18261813
39	0xbdb8705e	-0.09005807
40	0x3d83d896	0.06437795
41	0x3bbf0e40	0.005830556
42	0xbe4faca3	-0.202807
43	0xbe28b2e6	-0.16474494
44	0xbd2ef30c	-0.042712256
45	0x3e40df31	0.18835141
46	0xbb0f3800	-0.0021853447
47	0xbe349451	-0.17634703
48	0x3da96322	0.08270861
49	0x3e4ac293	0.19800787
50	0xbe3468d6	-0.17618117
51	0xbc4aea50	-0.012384966
52	0x3e2fedb7	0.17180525
53	0xbd582b04	-0.052775398
54	0x3d3f2bbc	0.046672568
55	0x3e4ef3d5	0.20210202
56	0xbcce3030	-0.025169462
57	0x3e443ac5	0.19163044
58	0xbc95bc88	-0.018278375
59	0x3e34cc33	0.17656021
60	0x3d390ec4	0.045180097
61	0xbcbd2cd0	-0.023092657
62	0x3dbf51f6	0.09341805
63	0xbdadda2e	-0.0848888
64	0xbd5386cc	-0.051642224
65	0x3d94627e	0.072453484
66	0xbdc1228b	-0.09430417
67	0x3cd0a6d8	0.025470182
68	0xbe1588a1	-0.14602901
69	0x3da06ce6	0.07833271
70	0xbd7cd484	-0.06172611
71	0x3bf83100	0.0075742006
72	0xbe01d854	-0.12680179
73	0xbe5921ec	-0.21204346
74	0xbe3a0982	-0.1816769
75	0x3dd47862	0.10374524
76	0xbe140c4c	-0.14457816
77	0xbe07ec1c	-0.13273662
78	0xbd95079e	-0.072768435
79	0x3e241195	0.16022332
80	0x3e087dbf	0.13329218
81	0xbe4eb3ee	-0.20185825
82	0x3e0772a1	0.13227321
83	0x3d934ae2	0.07192017
84	0x3d8dd346	0.06925063
85	0xbcc10888	-0.023563638
86	0xbdb5fda4	-0.08886269
87	0xbc1590f0	-0.009128794
88	0x3cc11c20	0.023572981
89	0xbe37859a	-0.17922059
90	0xbd96f4f6	-0.07370941
91	0xbe09b2ce	-0.13447115
92	0xbe2f7905	-0.17136009
93	0x3caab938	0.020840272
94	0xbe093c0f	-0.13401817
95	0xbb846c20	-0.00404121
96	0xbe1f467a	-0.15554228
97	0xbe406614	-0.1878894
98	0x3e1c7773	0.15279941
99	0xbe52cf99	-0.20587005
100	0x3e38f683	0.18062787
101	0xbe279efb	-0.1636924
102	0x3e22aafb	0.15885536
103	0xbd545b60	-0.051844954
104	0x3bab29c0	0.005223483
105	0xbe26739a	-0.16255036
106	0x3e412ba3	0.18864302
107	0x3c518390	0.012787715
108	0x3d3e4fa4	0.04646267
109	0x3e02f28f	0.12787841
110	0xbe150812	-0.1455386
111	0xbdda4f1e	-0.10659622
112	0xbe499b0e	-0.19688055
113	0x3e5a7e67	0.21337281
114	0x3e2cb7b9	0.1686696
115	0x3df941f6	0.12170784
116	0x3e099b07	0.13438044
117	0x3dbf9b96	0.093558475
118	0x3d937e66	0.07201843
119	0xb9a64c00	-0.00031718612
120	0xbe5a2d9a	-0.21306458
121	0xbdb84cfa	-0.08999057
122	0xbe314af5	-0.1731375
123	0xbe3ed1e7	-0.18634759
124	0x3d7d0014	0.061767653
125	0x3e49e887	0.19717608
126	0xbe3e667e	-0.18593785
127	0xbe58c4ab	-0.21168773

fc2.weight f4 [128, 128]
0	0xbdb1b2b5	-0.08676664
1	0x3c5210e0	0.012821406
2	0xbcd0acd0	-0.025473028
3	0x3b1ddce0	0.002408795
4	0x3d28035e	0.041018836
5	0xbda7be08	-0.081905425
6	0xbceed6a4	-0.029155083
7	0xbd951a3a	-0.07280393
8	0xbd99d56f	-0.07511412
9	0xbd5737f3	-0.05254359
10	0xbd5200f1	-0.05127043
11	0x3c870354	0.01648108
12	0x3c738cf8	0.014865153
13	0xbda8e505	-0.08246807
14	0x3be06870	0.0068483874
15	0x3d5b43c2	0.053531416
16	0xbda97fba	-0.08276315
17	0x3cd411f0	0.02588746
18	0x3d9128b9	0.07087845
19	0xbd0cdeee	-0.03439229
20	0x3d3c878a	0.046027698
21	0x3cb25bc4	0.021772273
22	0x3d8a6995	0.067584194
23	0xbd6abae2	-0.05730713
24	0xbd85a733	-0.06526031
25	0x3cdac5d8	0.026705667
26	0xbd0b8bc6	-0.034068845
27	0x3d18a396	0.037265383
28	0xbdab214f	-0.083559625
29	0xbd9bc7ec	-0.076064914
30	0xbcf4e964	-0.029896446
31	0xbd2aaa92	-0.041666575
32	0x3dacd301	0.08438683
33	0x3cad3714	0.021144427
34	0x3d83d98f	0.064379804
35	0xbd850436	-0.06494944
36	0xbda92f65	-0.08260993
37	0xbd80c2b7	-0.06287139
38	0xbd953cb7	-0.07286971
39	0x3ca519c8	0.020153895
40	0x3cc66ac0	0.024220824
41	0x3dab917d	0.08377359
42	0xbc3dc300	-0.011582136
43	0xbd184b78	-0.037181348
44	0xbdacae12	-0.08431639
45	0x3d9bb387	0.076026015
46	0xbd68bb83	-0.05681945
47	0x3cb29c20	0.021802962
48	0xbd878e3e	-0.066189274
49	0x3d3ea2ae	0.046541862
50	0xbd963f89	-0.07336337
51	0xbbf09100	-0.007341504
52	0xbc206088	-0.00978864
53	0x3d1e8366	0.03869953
54	0xbc844780	-0.016147375
55	0x3b8fe0f0	0.0043908283
56	0x3d26cb26	0.04072108
57	0xbc8b0098	-0.016968057
58	0x3d39feda	0.04540906
59	0xbd008194	-0.031373575
60	0x3bdb2290	0.00668747
61	0xbdae318e	-0.085055456
62	0xbb51b2e0	-0.0031997487
63	0xbd5d2687	-0.05399182
64	0xbd50c09f	-0.050964948
65	0xbd533735	-0.05156632
66	0xbd632a8f	-0.05546051
67	0xbd6ba049	-0.057525907
68	0x388d0c00	6.725639e-05
69	0xbd7652f7	-0.060137715
70	0x3d958435	0.07300607
71	0xbdafd48d	-0.08585463
72	0xbd8d54b7	-0.06900924
73	0xbd69a14a	-0.057038583
74	0xbd27a9fa	-0.040933587
75	0xbd81c242	-0.0633588
76	0x3d5d85c2	0.05408264
77	0xbd18d298	-0.037310213
78	0x3da423b7	0.080146246
79	0xba976d40	-0.0011552945
80	0xbd81f44f	-0.06345426
81	0xbccb5eb0	-0.024825424
82	0x3dadaabd	0.08479831
83	0x3da672b7	0.08127349
84	0xbbaccce0	-0.0052734464
85	0x3db4697d	0.08809183
86	0xbd96effa	-0.07369991
87	0xbd34b4ed	-0.044117857
88	0x3d3a9fce	0.045562558
89	0xbcb0a6d8	-0.021563932
90	0x3d8b7433	0.068092726
91	0x3d2ce87e	0.04221391
92	0xbd10211e	-0.035187833
93	0x3db28549	0.087168284
94	0x3d37d076	0.04487654
95	0xbcc12088	-0.023575082
96	0x3d06c51e	0.03290283
97	0xbcd30c88	-0.025762811
98	0x3d59e60e	0.053197913
99	0x3d4c14c6	0.0498245
100	0x3d1c5512	0.038167067
101	0xbd97bec6	-0.07409434
102	0x3d7fe236	0.06247159
103	0xbcb0bff0	-0.021575898
104	0xbcca38fc	-0.024685375
105	0xbd8826ef	-0.06648051
106	0xbd3f475d	-0.046698917
107	0xbd359cef	-0.044339117
108	0xbd9aadac	-0.075526565
109	0xbcbbc3a4	-0.022920437
110	0x3bef7180	0.0073072314
111	0x3cce1e24	0.025160857
112	0x3d560552	0.052251168
113	0x3da000a3	0.078126214
114	0xbd8fd7f9	-0.070236154
115	0xbcd6aefe	-0.02620649
116	0xbce8c3bc	-0.028413646
117	0x3d8c28e9	0.068437405
118	0x3d98e9fb	0.07466503
119	0x3c009a50	0.007849291
120	0xbda51e0c	-0.080623716
121	0xbd8a1992	-0.067431584
122	0xbd24ad85	-0.040204544
123	0x3d66a5ea	0.05631057
124	0xbbc5c490	-0.006035395
125	0x3d8c3c85	0.06847481
126	0xbaa6c940	-0.0012724772
127	0xbdaba854	-0.083817154
128	0x3d2a5d96	0.041593157
129	0xbd6bbd08	-0.05755332
130	0xbd2112d8	-0.03932461
131	0x3c93e998	0.018055722
132	0xbbe30330	-0.00692787
133	0xbda04804	-0.07826236
134	0xbc4df4b8	-0.0125705525
135	0xbb4fb060	-0.003169082
136	0x3da042fb	0.078252755
137	0xbc5b07f8	-0.013368599
138	0x3d9b1607	0.07572561
139	0xbdae1fb2	-0.08502139
140	0x3d25ac02	0.040447243
141	0xbd8654c0	-0.065591335
142	0xbd334151	-0.043763462
143	0x3b826f10	0.003980525
144	0x3a86d840	0.0010287836
145	0xbda2c774	-0.07948199
146	0xbd789b74	-0.060695127
147	0x3d9389df	0.07204031
148	0xbd1981bc	-0.03747724
149	0x3d33e406	0.043918632
150	0x3d89b505	0.0672398
151	0x3d6f1cc6	0.05837705
152	0xbd8b461d	-0.068004824
153	0x3c16b980	0.0091995
154	0xbc12fc90	-0.008971348
155	0xbd86c2db	-0.065801345
156	0xbd9f4b06	-0.077779815
157	0x3be4e2e0	0.0069850534
158	0xbcd2187c	-0.02564644
159	0xbd29c134	-0.04144402
160	0xbc30d4f8	-0.010792963
161	0xbd0823c5	-0.033237237
162	0x3db1f601	0.086895
163	0x3d314a3e	0.043283693
164	0xbd8000d6	-0.062501594
165	0xbd96c271	-0.073613055
166	0xba8905c0	-0.0010453984
167	0x3d93d431	0.07218207
168	0x3d253a6e	0.040338926
169	0x3d98d419	0.074623294
170	0x3b8e7170	0.004347019
171	0x3da04fe9	0.07827742
172	0xbbb1bc50	-0.00542406
173	0xbd2052be	-0.03914141
174	0xbbe8c8c0	-0.0071040094
175	0xbcf117c0	-0.02943027
176	0xbd3dd455	-0.046345074
177	0xbd1c48bb	-0.0381553
178	0xbd3bee4f	-0.045881566
179	0x3cb1f2f0	0.021722287
180	0xbdb09bfa	-0.086235
181	0xbdb083be	-0.08618878
182	0xbd859920	-0.06523347
183	0xbda80d0d	-0.08205614
184	0x3da930db	0.082612716
185	0xbd466a9b	-0.04844151
186	0x3da18a71	0.07887734
187	0xbd754a68	-0.059885412
188	0xbd9ea61a	-0.07746525
189	0xbc6d2880	-0.014474988
190	0x3cb8f040	0.022575498
191	0xbdac1d7b	-0.084040605
192	0x3c1750a0	0.009235531
193	0xbdae02bb	-0.084966145
194	0x3d0eb02a	0.034835972
195	0x3b6c81a0	0.0036088005
196	0x3c20fc78	0.009825818
197	0x3c2b4978	0.010454528
198	0xbd9287aa	-0.07154782
199	0xbd96e369	-0.07367594
200	0xbdb0618f	-0.08612358
201	0x3d709cea	0.058743395
202	0xbc9e5744	-0.01932872
203	0xbad4fe80	-0.0016250163
204	0x3c5cdd30	0.01348047
205	0xbcb9f3e8	-0.022699311
206	0x3d747fc6	0.059692167
207	0xbd1dc2fa	-0.038516022
208	0x3d7ee6ea	0.062231936
209	0x3d80796f	0.062731616
210	0xbd8f4c42	-0.06996967
211	0xbd5d5105	-0.054032344
212	0xbd57c3d0	-0.052676976
213	0x3b0fb0e0	0.0021925494
214	0xbc951178	-0.018196806
215	0x3d32e21a	0.04367266
216	0xbd03367d	-0.032034386
217	0x3c05b208	0.008160122
218	0xbd8e5c02	-0.06951143
219	0x3cedc618	0.029025123
220	0x3be3a890	0.0069475845
221	0xbcec7714	-0.028865375
222	0xbd9a8a0f	-0.07545864
223	0x3d912055	0.07086245
224	0x3d88ea49	0.06685311
225	0xbdac3b4b	-0.08409747
226	0xbd979dad	-0.07403121
227	0xbc6ea580	-0.014565825
228	0xbd419beb	-0.047267836
229	0x3cde78f0	0.027157277
230	0x3d9ca2b7	0.07648223
231	0x3d63f5da	0.055654384
232	0x3d5b04de	0.05347144
233	0xbd66855d	-0.05627953
234	0xbdad6ec8	-0.084683955
235	0xbd72e58c	-0.059300944
236	0x3db4f86b	0.088364445
237	0x3a6c7480	0.00090200454
238	0xbdaabca1	-0.08336759
239	0xbdb1fa3b	-0.08690306
240	0x3d294d9e	0.041333787
241	0x3d313c76	0.04327055
242	0xbd825df0	-0.063655734
243	0x3c4bf070	0.0124474615
244	0xbda37027	-0.07980376
245	0x3d472f0e	0.04862886
246	0x3d83e7ad	0.06440673
247	0x3d7d979a	0.061912157
248	0x3d1558c2	0.0364616
249	0xbd61d093	-0.055130553
250	0xbce01ecc	-0.027358435
251	0xbd186c4e	-0.037212662
252	0xbabfe8c0	-0.0014641508
253	0x3da85a91	0.08220399
254	0x3d9a088f	0.07521164
255	0xbc639ec8	-0.013892837

fc2.bias f4 [128]
0	0x3d94ef1f	0.07272171
1	0xbcad6d28	-0.021170214
2	0x3cecfab8	0.028928146
3	0x3c9d8db8	0.019232616
4	0x3c3fc8b8	0.01170557
5	0x3bb91740	0.0056485236
6	0x3d5846ee	0.05280202
7	0x3db22519	0.08698482
8	0x3cf758fc	0.030193798
9	0x3d15b820	0.03655255
10	0xbb9ac7d0	-0.0047235265
11	0x3da250d5	0.07925574
12	0xbd84e7bc	-0.06489512
13	0x3c6f8120	0.014618188
14	0x3da01081	0.07815648
15	0x3da87e8d	0.08227263
16	0xbd549e08	-0.051908523
17	0x3d6a9dce	0.0572794
18	0xbd504bb8	-0.05085346
19	0xbb2a2320	-0.0025960878
20	0x3cc86e94	0.02446679
21	0x3d907955	0.07054392
22	0x3c2509d8	0.010073148
23	0xbd4bb197	-0.04972991
24	0xbd3bf531	-0.04588813
25	0xbcafdf04	-0.021468647
26	0xbd77055e	-0.060307853
27	0x3c0e34d0	0.008679584
28	0xbd26edf4	-0.040754274
29	0xbda9ff72	-0.083006755
30	0x3c441738	0.011968426
31	0xbcba4220	-0.022736609
32	0x3c89ba5c	0.016812496
33	0xbd751264	-0.05983199
34	0xbce237d2	-0.027614508
35	0x3c84191c	0.016125254
36	0xbd8f167f	-0.06986713
37	0x3d490676	0.049078427
38	0x3cbe9e9c	0.02326899
39	0x3cea7e28	0.02862461
40	0x3db40711	0.0879041
41	0x3d82c47d	0.063851334
42	0x3cd21c20	0.025648177
43	0xbc1931d0	-0.009350255
44	0xbca659fc	-0.02030658
45	0xbcdffc16	-0.027341884
46	0xbd8debd6	-0.06929748
47	0xbdae0bb8	-0.08498329
48	0xbd59c72e	-0.05316847
49	0x3d88aad1	0.06673206
50	0xbdaedca3	-0.08538177
51	0x3d0696da	0.032858707
52	0x3dac2147	0.08404785
53	0x3d988a85	0.074482955
54	0xbd176f0d	-0.03697114
55	0xbbbe91c0	-0.0058157146
56	0xbd3355ca	-0.043782987
57	0x3d260992	0.04053647
58	0xbd8f44d6	-0.06995551
59	0xbd87b50d	-0.066263296
60	0x3d5c7eee	0.053831987
61	0xbda268c9	-0.079301424
62	0xbb40c740	-0.0029415637
63	0x3dab1e51	0.08355392
64	0xbd267b9d	-0.04064523
65	0x3cdc2454	0.026872791
66	0xbb9c95a0	-0.004778579
67	0xbcc5509c	-0.02408629
68	0x3ce3d740	0.0278126
69	0xbd69a936	-0.057046138
70	0x3bd4a320	0.0064891726
71	0xbc351878	-0.011053197
72	0x3d2bacb6	0.041912757
73	0xbd8d9555	-0.069132484
74	0xbcaddef4	-0.021224476
75	0xbbe36710	-0.0069397762
76	0x3ad34740	0.0016119257
77	0x3dac8691	0.08424104
78	0xbbd24b90	-0.006417699
79	0x3d9a5cff	0.07537269
80	0x3a94f600	0.0011364818
81	0x3da3b29f	0.07993054
82	0x3b6167c0	0.0034394115
83	0x3c23b268	0.009991266
84	0xbd06da0f	-0.0329228
85	0xbd041fca	-0.03225688
86	0xbbfff260	-0.007810876
87	0xbd06691e	-0.03281509
88	0xbd12c74a	-0.035834588
89	0x3b811e80	0.0039404035
90	0xbd7ee4e2	-0.06223
91	0x3b6551c0	0.0034991354
92	0xbc68e9b8	-0.014215879
93	0x3c4d26f0	0.01252149
94	0x3cab0fbc	0.020881526
95	0x3ce599e0	0.028027475
96	0x3cf11ff8	0.02943419
97	0xbdab51cd	-0.08365212
98	0x3d3f638a	0.046725787
99	0x3d187f52	0.037230797
100	0xbc866268	-0.016404346
101	0x3db3b6cd	0.08775101
102	0x3d8724ff	0.06598853
103	0x3d49d4e2	0.049275286
104	0xbc00eb00	-0.007868528
105	0xbd84d774	-0.06486407
106	0x3d5defc6	0.054183744
107	0xbd2addef	-0.04171556
108	0xbbe72bd0	-0.0070547834
109	0xbd92e6ac	-0.071729034
110	0x3da695ef	0.08134066
111	0x3a7d0c00	0.0009652972
112	0x3b355f40	0.0027675182
113	0xbcd2afb4	-0.025718547
114	0xbd27f573	-0.041005563
115	0xbd981fd0	-0.07427943
116	0xbcdb15e6	-0.02674384
117	0xbd423c03	-0.047420513
118	0x3d65d426	0.056110524
119	0x3d8917bf	0.06693982
120	0xbc680090	-0.01416029
121	0x3ce59f8c	0.02803018
122	0x3daac929	0.083391495
123	0xbd54cf4c	-0.051955506
124	0xbda48346	-0.08032851
125	0x3c6f9340	0.0146225095
126	0xbcd098b0	-0.025463432
127	0x3cec7bd4	0.02886764

policy_mean.weight f4 [7, 128]
0	0x3cb78404	0.022401817
1	0x3d82ff59	0.0639636
2	0x3d3f1036	0.04664632
3	0x3d083bb2	0.033260055
4	0x3d6c05ce	0.057622723
5	0xbdac7176	-0.084200785
6	0x3d1feb6e	0.039042883
7	0x3d57c9da	0.052682735
8	0xbd246573	-0.040135812
9	0x3cdcc404	0.026948936
10	0xbcdafda8	-0.02673228
11	0xbcf59214	-0.029976882
12	0xbc5099e8	-0.012732007
13	0xbcc8d10c	-0.024513744
14	0xbcafe62c	-0.02147206
15	0x3c9341fc	0.0179758
16	0xbca1848c	-0.019716524
17	0xbc374498	-0.011185788
18	0x3ce2e64c	0.027697705
19	0x3cb31100	0.021858692
20	0x3da7fb29	0.08202202
21	0xbbc9a080	-0.0061531663
22	0xbbee49b0	-0.007271968
23	0x3da1e79f	0.07905506
24	0x3d921c79	0.07134337
25	0xbd939abf	-0.0720725
26	0x3d428c06	0.047496818
27	0x3d1a1e72	0.03762669
28	0x3cb73014	0.022361793
29	0x3d860527	0.065439515
30	0xbd7721f6	-0.060335122
31	0x3c4241a8	0.011856474
32	0xbcc0d128	-0.023537233
33	0xbd844e7f	-0.064602844
34	0xbbe790a0	-0.007066801
35	0x3d1543c0	0.036441565
36	0x3d509852	0.050926514
37	0x3da667bd	0.08125255
38	0xbccc3c44	-0.02493108
39	0x3b6a9fa0	0.003580071
40	0x3b8c0f70	0.004274301
41	0x3da5bd2d	0.08092723
42	0x3cf3f45c	0.029779606
43	0xbdaeaed6	-0.08529441
44	0x3d8bfdbd	0.06835506
45	0x3d2c774e	0.042105965
46	0x3dac507d	0.084137894
47	0x3d415c16	0.04720696
48	0xbd821f52	-0.0635363
49	0x3c9d368c	0.019191049
50	0x3d063238	0.032762736
51	0x3db37385	0.08762268
52	0x3d937a1b	0.07201024
53	0xbdaca533	-0.08429947
54	0xbbf5b470	-0.0074983165
55	0x3a1c6f00	0.0005967468
56	0xbcf69a78	-0.030102953
57	0xbcc6ff18	-0.02429156
58	0x3d85cab1	0.06532801
59	0x3ac46e00	0.0014986396
60	0xbd7a0eeb	-0.061049383
61	0xbcc22920	-0.02370125
62	0x3dafffab	0.08593687
63	0xbd32c4a8	-0.043644577
64	0xbd1a4d2c	-0.037671253
65	0xbd6dfff7	-0.058105435
66	0xbccd68b4	-0.02507434
67	0x3d38902e	0.045059375
68	0xbd944006	-0.07238774
69	0xbd898317	-0.067144565
70	0xbb4347e0	-0.002979748
71	0xbd40efc9	-0.047103677
72	0xbda18f70	-0.07888687
73	0xbd279f84	-0.04092361
74	0x3d5d168a	0.053976573
75	0x3be819a0	0.007083133
76	0x3dab88eb	0.083757244
77	0x3d5ad55e	0.05342614
78	0x3da91599	0.082560726
79	0xbd39c247	-0.045351293
80	0x3d55bc66	0.052181624
81	0x3d6a8852	0.05725891
82	0x3d48045a	0.048832275
83	0x3d129294	0.03578432
84	0xbd81d00a	-0.063385084
85	0xbbf1f210	-0.0073835924
86	0xbd650584	-0.055913463
87	0x3da06ef3	0.07833662
88	0xbc482be8	-0.012217499
89	0xbc835a98	-0.01603441
90	0x3d385886	0.045006298
91	0x3d1b27f6	0.037879907
92	0xbd9803bb	-0.074225865
93	0x3cecd30c	0.028909229
94	0x3d991775	0.07475177
95	0xbca5b0d8	-0.020225927
96	0x3d78fe6a	0.060789503
97	0x3d6c9006	0.05775454
98	0x3a06b300	0.00051383674
99	0xbc2a1cd0	-0.010382846
100	0x3bb65d60	0.0055653304
101	0x3c9dc90c	0.019260906
102	0xbd1c3bd1	-0.038142983
103	0x3c2c2210	0.010506168
104	0x3d92170d	0.07133303
105	0x3dadffbf	0.08496045
106	0xbd8c6fd5	-0.06857268
107	0x3d9de9b9	0.07710595
108	0x3da2be0d	0.079464056
109	0xbd0922e4	-0.03348054
110	0xbc113640	-0.008863032
111	0xbd114566	-0.035466574
112	0xbdb0073f	-0.08595132
113	0x3d179556	0.037007652
114	0x3d49bcbe	0.049252264
115	0xbd122ad2	-0.035685368
116	0x3da774dd	0.08176587
117	0xbdb48c4e	-0.088158235
118	0xbc7a3378	-0.01527106
119	0xbd8bc39c	-0.06824419
120	0x3cb1e800	0.021717072
121	0xbd93b65a	-0.07212515
122	0xbd98d22f	-0.07461964
123	0x3a872ec0	0.0010313615
124	0x3d7d394a	0.061822213
125	0x3d030766	0.031989478
126	0xbd12a660	-0.0358032
127	0x3cbeec80	0.023306131
128	0xbcbdf2f4	-0.023187138
129	0x3da34bab	0.07973417
130	0x3d0b5afe	0.034022324
131	0x3d6d617a	0.05795429
132	0x3d8e2211	0.069400914
133	0x3d1f703a	0.038925387
134	0xbcd46dfe	-0.025931355
135	0x3d53cb9a	0.05170784
136	0x3d6a4f9a	0.05720482
137	0xbd8b8929	-0.068132706
138	0xbda59ac9	-0.080861636
139	0x3c2712a0	0.010197312
140	0xbdb485e7	-0.08814602
141	0x3d5123d2	0.05105955
142	0x3bb94160	0.0056535453
143	0xbd9245ca	-0.071422175
144	0xbc8f1300	-0.017465115
145	0xbba2ce00	-0.004968405
146	0x3c4471a8	0.011989988
147	0x3d6cac12	0.057781287
148	0xbd64f746	-0.05589988
149	0x3a1e9a00	0.00060501695
150	0x3b1a6ce0	0.002356343
151	0xbb150e40	-0.002274409
152	0x3d910ac3	0.07082131
153	0xbb986570	-0.004650764
154	0x3d41c636	0.04730817
155	0x38af4000	8.356571e-05
156	0x3da5c3fd	0.080940224
157	0x3d5df4ce	0.054188542
158	0xbd7379fe	-0.059442513
159	0x3d0372c2	0.032091863
160	0x3d4aa126	0.04947009
161	0xbd887268	-0.06662446
162	0xbd98db06	-0.074636504
163	0xbd8d4eb8	-0.0689978
164	0x39552c00	0.00020329654
165	0xbd9d4b73	-0.076804064
166	0x3da47469	0.08030016
167	0x3daf516d	0.085604526
168	0x3d4211a6	0.047380112
169	0x3d79995e	0.060937278
170	0x3bdc6f40	0.006727129
171	0x3da9f655	0.08298937
172	0x3d824f69	0.063628025
173	0xbd52e1b9	-0.051484797
174	0xbbc64160	-0.006050274
175	0xbc406f58	-0.011745296
176	0x3d46f8ee	0.04857724
177	0x3c645cd8	0.013938151
178	0xbd59dcf0	-0.053189218
179	0xbd8ed53a	-0.069742635
180	0xbbc87ae0	-0.0061181635
181	0x3d84b33b	0.06479498
182	0xbdb2c9d1	-0.087299
183	0xbce16006	-0.027511608
184	0xbc92e85c	-0.017933063
185	0x3d32ce7e	0.043653958
186	0xbd24cf89	-0.040236983
187	0x3dab6637	0.08369105
188	0x3d15e956	0.03659948
189	0xbd3e8da6	-0.046521805
190	0x3d8bdc6b	0.06829151
191	0x3bc31fe0	0.0059547275
192	0xbd9c8bdf	-0.07643866
193	0x3c4f7438	0.012661986
194	0x3d9d78c3	0.07689049
195	0x3bcba010	0.0062141493
196	0xbc23eff8	-0.0100059435
197	0x3a868080	0.0010261685
198	0x3d2585da	0.040410854
199	0x3b2fcc60	0.0026824698
200	0x3d6b780e	0.05748754
201	0xbd8734a5	-0.06601838
202	0xbc0e0130	-0.008667275
203	0x3d57c3ae	0.05267685
204	0x3d89b273	0.067234896
205	0xbc147f60	-0.009063572
206	0x3d64ab7e	0.05582761
207	0xbd044bb2	-0.03229875
208	0x3c422d40	0.011851609
209	0x3caf1088	0.021370187
210	0x3d3ff146	0.046860956
211	0x3cb2db7c	0.021833174
212	0xbd122fcd	-0.035690118
213	0x3d405c72	0.046963163
214	0x3d7aaaea	0.061198153
215	0x3d87796b	0.066149555
216	0x3d074b08	0.03303054
217	0xbd80dfda	-0.06292696
218	0xbd26bfe7	-0.040710356
219	0xbd320aa2	-0.04346717
220	0xbbf9c200	-0.0076220036
221	0xbd025125	-0.031815667
222	0x3d66c51e	0.05634033
223	0x3bac5670	0.0052593276
224	0xbd8f1e21	-0.069881685
225	0xbd808a5d	-0.06276391
226	0x3d268b26	0.040660046
227	0xbbe40080	-0.0069580674
228	0x3d3eee36	0.046613894
229	0xbccbb990	-0.024868757
230	0x3c9c1480	0.019052744
231	0x3dab8c9b	0.08376428
232	0xbcf2b6ee	-0.029628243
233	0xbd5f6888	-0.05454305
234	0xbba66320	-0.0050777346
235	0xbb1a2b60	-0.0023524389
236	0xbdb38266	-0.08765106
237	0xbd82b300	-0.06381798
238	0xbd3e4e14	-0.04646118
239	0xbd36f2cf	-0.044665154
240	0x3d9067d1	0.070510514
241	0x3b7fda20	0.0039039925
242	0xbd5519f3	-0.0520267
243	0xbd7e947c	-0.062153324
244	0xbd5af0b5	-0.053452212
245	0xbda19a26	-0.078907296
246	0xbd2ca5a4	-0.042150155
247	0xbd5897ef	-0.05287927
248	0x3d06c288	0.032900363
249	0xbd8ef1ad	-0.0697969
250	0xbdb0f845	-0.08641104
251	0xbd5197ce	-0.051170163
252	0xbc3b6720	-0.011438161
253	0xbce330c0	-0.027733207
254	0x39c41400	0.00037398934
255	0xbc5c7ac0	-0.013457

policy_mean.bias f4 [7]
0	0xbd3a26b6	-0.045447074
1	0xba228700	-0.0006199926
2	0xbce27892	-0.027645383
3	0xbd41efbf	-0.04734778
4	0x3d22766a	0.03966371
5	0x3d7ef782	0.06224776
6	0x3d2b5e6a	0.041838087

value_head.weight f4 [1, 128]
0	0xbd551095	-0.052017767
1	0xbc461d88	-0.012092002
2	0x3d51a36e	0.05118125
3	0xbda777c4	-0.0817714
4	0x3d5c827e	0.053835385
5	0xbc3b6f90	-0.011440173
6	0x3d0a692c	0.033791706
7	0x3bd2d330	0.006433867
8	0x3ce95a84	0.028485544
9	0x3bc8f450	0.00613264
10	0xbda2eeae	-0.07955681
11	0x3d789682	0.06069041
12	0xbaa870c0	-0.0012850985
13	0xbce95a6a	-0.028485496
14	0xbd9311c2	-0.071811214
15	0xbd4298cd	-0.047509003
16	0xbdb39571	-0.08768738
17	0x3d182572	0.037145086
18	0x3ca31188	0.01990582
19	0xbd8247a1	-0.063613184
20	0xbcd5f56c	-0.026118003
21	0xbcb4a0ec	-0.02204939
22	0x3ccd5c0c	0.025068305
23	0xbd88d72b	-0.06681665
24	0xbcb3090c	-0.0218549
25	0xbd5b755e	-0.053578727
26	0xbd9e935f	-0.077429526
27	0x3d0446a0	0.032293916
28	0x3d3c876e	0.046027593
29	0x3d04542e	0.032306843
30	0xbd9fb12e	-0.07797466
31	0x3b7d1b60	0.0038621053
32	0xbda84e64	-0.08218077
33	0x3da9360b	0.08262261
34	0x3cc9398c	0.024563573
35	0x3d4af9de	0.0495547
36	0xbd7f9d6b	-0.062405985
37	0xbc8a58d0	-0.016888052
38	0x3d7aec8e	0.061260752
39	0x3c11d8c8	0.008901782
40	0xbd0fe8a6	-0.03513398
41	0x3ccf5118	0.025307223
42	0x3cb50538	0.022097215
43	0x3daab3cd	0.083350755
44	0x3ca93b38	0.02065812
45	0x3c24aab0	0.010050461
46	0x3d52a80e	0.0514298
47	0x3d342862	0.043983825
48	0x3d8a78e3	0.067613386
49	0x3cb282c4	0.02179087
50	0x3d5dac8a	0.054119624
51	0x3c77bb08	0.015120275
52	0x3d5d22d2	0.053988285
53	0xbd90deb9	-0.07073731
54	0x3d15f100	0.03660679
55	0x3d8c29a3	0.06843879
56	0xbcf8793a	-0.030331243
57	0xbc005880	-0.0078336
58	0xbda0337e	-0.07822321
59	0x3da9068d	0.082532026
60	0xbc0e3220	-0.008678943
61	0x3da44c17	0.080223255
62	0xbda2c226	-0.07947187
63	0xbc96b0bc	-0.01839482
64	0xbc9b1dcc	-0.018935107
65	0x3c6f23a0	0.014595896
66	0xbd777834	-0.06041737
67	0xbc666248	-0.014061518
68	0xbcf81ece	-0.030288126
69	0x3d2eb4b6	0.042652808
70	0xbd5d78ce	-0.054070286
71	0xbb54a880	-0.0032449067
72	0x3d6c37ce	0.057670407
73	0xbd3a3806	-0.045463584
74	0xbd34a74d	-0.044104863
75	0x3c6f2d08	0.014598139
76	0xbcacfe08	-0.021117225
77	0x3cba0bbc	0.022710674
78	0x3dae2371	0.08502854
79	0xbd8e55d4	-0.06949964
80	0xbbf40b40	-0.00744763
81	0x3b2f7aa0	0.002677597
82	0x3d1e0bba	0.038585402
83	0xbcfc0768	-0.03076525
84	0x3d7bdb12	0.06148822
85	0x3ce12670	0.027484149
86	0xbdb4e20d	-0.08832178
87	0xbbdc44b0	-0.0067220554
88	0x3d126508	0.035740882
89	0x3d2af01e	0.0417329
90	0xbd9c75fe	-0.07639693
91	0xbc409b08	-0.011755712
92	0xbd827766	-0.0637043
93	0xbb8a1140	-0.004213482
94	0x3d84cac9	0.06483991
95	0x3c786560	0.015160888
96	0x3d9eedcb	0.07760199
97	0xbd457486	-0.04820683
98	0xbd200eed	-0.039076734
99	0xbd379454	-0.04481919
100	0x3d13a416	0.036045156
101	0x3c0c2018	0.008552574
102	0x3d8e3be3	0.06945016
103	0x3d0838da	0.033257343
104	0xbda961f4	-0.08270636
105	0x3d99969d	0.0749943
106	0xbd193fa2	-0.0374142
107	0x3d6a2e66	0.057173155
108	0x3d4da9fa	0.05021093
109	0x3d38a242	0.045076616
110	0xbd80ee8a	-0.06295498
111	0x3d87d407	0.06632238
112	0xbd70db61	-0.058802966
113	0x3ce5a810	0.02803424
114	0x3cfa4d80	0.030554533
115	0xbbcacc20	-0.0061888844
116	0xbd7b300c	-0.061325118
117	0x3d827781	0.0637045
118	0xbd62726a	-0.055284895
119	0xbcdffb8e	-0.02734163
120	0x3d89258d	0.06696615
121	0x3d282042	0.04104639
122	0x3d3e78e2	0.046502
123	0x3d9ea0ab	0.07745489
124	0x3cb28a18	0.021794364
125	0xbd049a68	-0.032373816
126	0xbdb0cd5a	-0.08632918
127	0x3d72b05a	0.059250213
