models/checkpoint_2300.pth (torch, 255274 bytes, 24 tensors)

policy_log_std f4 [7]
000000 97 d5 e3 3e b7 76 85 3f 1b 53 0f 3f 15 25 d7 3e
       0.44498894 1.0426854 0.55986184 0.4202048
000010 b0 05 5e 3f da 81 9b 3f bf 5d 1f c0
       0.8672743 1.2149003 -2.4900968

fc1.weight f4 [128, 21]
000000 b5 c5 21 3f 3e 0d 2b 3f 72 fb 75 be ca 1f d3 be
       0.631923 0.6681708 -0.240217 -0.4123519
000010 03 21 0d bf fe d9 de bd 1c 94 88 bf 61 ae b9 be
       -0.55128497 -0.108814225 -1.0670199 -0.36265853
000020 77 f6 7b 3e 0c aa 10 3e e5 d7 3f be ab 18 70 3f
       0.24605738 0.14127368 -0.18734701 0.9378764
000030 eb 0d 9b be 8a 07 e2 be 18 73 fc bb e9 1b 2f 3c
       -0.30284056 -0.44146377 -0.00770415 0.010687807
000040 28 3b 61 bf 24 c2 2b be bb 40 9c bd a8 67 a9 bf
       -0.8798089 -0.16773278 -0.07629534 -1.3234758
000050 1f e7 1d 3f 2e f2 6f 3f 86 2c be be b4 3c e6 3e
       0.6168079 0.9372891 -0.37143344 0.44968188
000060 08 cb 2b 3e a3 60 9e be 75 45 cd bf 4e bc d9 be
       0.16776669 -0.30933103 -1.6036822 -0.42526478
000070 27 fa 43 be 2e 89 89 3e ba 99 c8 bc f4 93 3b 3d
       -0.19138394 0.26862472 -0.024487365 0.045795396
000080 db 87 b3 3e 0c 17 97 3d 7f ac 0c 3f bb db 14 3d
       0.35064587 0.07377443 0.5495071 0.036342364
000090 c2 2b 06 3a 0b f5 f7 3e 29 cc d4 3e cf 39 45 bf
       0.0005118215 0.4842914 0.41562012 -0.77041334
0000a0 ec aa 2a 3f 3e 12 11 c0 d3 6a fe 3e ab a8 12 bf
       0.66667056 -2.2667384 0.49690875 -0.57288617
0000b0 47 f5 18 3f d1 56 5e 3e cc bf e3 3e a0 ea 1c bf
       0.59749264 0.21712805 0.44482267 -0.6129551
0000c0 52 7d ad 3e 29 53 7c 3d e3 d0 4d be e0 3a a4 bd
       0.33884674 0.061602745 -0.20099215 -0.08019042
0000d0 b9 23 00 3e b0 9f 18 3f 9c c6 0c 3f a8 bf 35 3f
       0.12513627 0.59618664 0.54990554 0.7099557
0000e0 28 4d 27 bd 7a 40 63 be f8 af 8e 3e 6e 29 1a 3f
       -0.040845066 -0.22192565 0.27868629 0.60219467
0000f0 f5 af 0f bf 45 cf f5 3e 0d a7 ab bd ea e4 45 3e
       -0.56127864 0.48009697 -0.08381472 0.19325605
000100 e1 da 8e be fe d3 86 bd 62 e6 01 bf 41 c2 21 bf
       -0.27901366 -0.06583403 -0.5074216 -0.6318703
000110 a1 f0 b1 bd 25 39 59 be e1 4f 1b bf 1b e5 0f 3f
       -0.086884744 -0.21213205 -0.6066876 0.5620896
000120 fc 40 73 3d 63 8d ab bd f8 68 dd 3e 05 0a 20 bf
       0.059388146 -0.08376577 0.43244147 -0.6251529
000130 6b 1b 0b bf a4 67 e3 be 64 c4 8d 3e 19 e8 63 bd
       -0.5433871 -0.4441501 0.27688897 -0.055641267
000140 9d f5 0b be 6a 84 a1 3e f7 fb a6 be 69 dc ba bf
       -0.13667913 0.31546336 -0.3261411 -1.4598514
000150 31 62 18 3f 47 aa 22 bf a8 44 48 3f bd 2b 31 3f
       0.5952483 -0.6354107 0.7822976 0.69207364
000160 c2 66 d8 3e 25 b0 88 bf 44 74 7f bd 11 05 d1 3e
       0.42265898 -1.0678755 -0.06236674 0.40824178
000170 0a e7 f8 be 3e ea 45 3f 77 6e 43 bf 6e 98 d1 3f
       -0.4861377 0.7731055 -0.7634043 1.6374643
000180 65 d9 02 3f 69 86 11 3f fe 58 b4 3d 63 63 98 3e
       0.5111297 0.5684572 0.088060364 0.29763326
000190 b3 7c 81 be 65 4c 53 3f 2a 7d 61 be 66 7c 8a 3e
       -0.2529045 0.82538444 -0.22020403 0.27048033
0001a0 04 30 02 c0 99 91 88 3e 72 0b c3 be 3f 81 dc 3e
       -2.0341806 0.26673582 -0.3809467 0.43067357
0001b0 eb 27 1d 3f 71 ad 03 3f 2d 87 d3 be f0 9b d1 3d
       0.61389035 0.51436526 -0.41314068 0.10234821
0001c0 25 2b 67 3f 4e 15 c9 be 54 9e 0e 3e d9 d1 b0 3d
       0.9030021 -0.39274067 0.13927585 0.08633775
0001d0 28 28 87 bf d7 07 6d 3e a2 51 a0 3e 63 2d 95 be
       -1.055913 0.23147522 0.3131228 -0.2913619
0001e0 c8 5c a0 be 0e 85 12 bf be 8a c0 3e b4 14 aa be
       -0.31320786 -0.57234275 0.37605852 -0.3321892
0001f0 a9 5a 73 3f c6 37 b1 bf f5 92 65 be 62 88 89 3e
       0.9506021 -1.3845146 -0.22419341 0.26861864
000200 72 ee 2b bf 03 69 bb 3e d4 8e 41 be 22 cd 59 3f
       -0.67160714 0.36603555 -0.18902141 0.8507863
000210 0b 27 53 3e 52 81 be 3e 01 6d 44 be d2 55 86 bd
       0.20620362 0.3720804 -0.19182207 -0.06559338
000220 ad b9 e2 bd 23 81 30 bf e6 df 21 bf 52 3e c0 bd
       -0.11070571 -0.68947047 -0.63232267 -0.09386887
000230 77 a2 60 bd 40 5f c0 bd 82 e4 ba bd 41 f5 cc be
       -0.05484244 -0.093931675 -0.09125616 -0.40030864
000240 ef 48 6b 3d 17 21 f6 be 38 67 bb 3f 45 35 1b be
       0.0574426 -0.4807212 1.4640875 -0.1515704
000250 0a ac f3 be f2 cc 0d 3f 9e 83 81 3e 98 bb f9 bd
       -0.47592193 0.55390847 0.25295728 -0.12193984
000260 07 41 c6 bd d6 14 1a 3e 84 1e ce be a8 6b fa 3e
       -0.09680372 0.15047011 -0.40257657 0.4891026
000270 7b 28 20 3d ae bf 4d bd c1 8c ab 3f 94 8d 80 3f
       0.039101105 -0.050231628 1.340233 1.0043206
000280 2d a6 1c 3f 96 d7 37 3e 13 9e f9 3d cb c6 d4 3e
       0.61191064 0.17953333 0.121883534 0.41557917
000290 30 5c d9 3e 70 94 75 3d 29 8b 93 3e 21 dc 65 bf
       0.42453146 0.059956014 0.28817108 -0.89789015
0002a0 a1 da 19 be 06 81 b3 bf 59 b3 64 3e 9c ad 05 3f
       -0.15024807 -1.402375 0.2233404 0.5221803
0002b0 59 03 43 3e 42 bd 41 3d 8b 2c 11 3f 60 f9 eb 3e
       0.19044246 0.04729963 0.5670859 0.46088696
0002c0 cc da 36 be f0 c3 68 be 09 f2 de 3e 77 f7 71 bf
       -0.17856902 -0.22730994 0.43544033 -0.94518226
0002d0 31 2e 51 3e 4b a7 5f ba 04 c2 5e 3d 35 ce e0 bd
       0.20427777 -0.00085317035 0.054384246 -0.10976831
0002e0 ce 24 3c 3e 84 b4 6e 3e df 9a 9f 3e 95 d4 e5 3f
       0.18373415 0.23311049 0.31172845 1.79555
0002f0 5f 88 46 bf 7d 14 95 bf ee f6 fa 3d 07 3e 03 bf
       -0.77551836 -1.1646878 0.12254129 -0.5126652
000300 12 d6 59 bf d3 57 0e bf c2 b7 fc bd 66 66 55 bf
       -0.8509227 -0.5560276 -0.123397365 -0.8335937
000310 ee be c0 be 4d 1c 4d 3f 8b d0 88 3d c0 84 64 bd
       -0.37645668 0.8012131 0.066804014 -0.055790663
000320 f1 70 c7 3f 34 83 aa be db 43 0f bf a2 69 88 3e
       1.5581342 -0.33303225 -0.55962914 0.2664309
000330 de e1 37 3e ad a4 9a 3c 4c 78 0c bf 29 05 bc 3f
       0.17957255 0.018877352 -0.5487106 1.4689075
000340 0c 61 98 be cf e3 8e 3f a6 63 73 bf 44 76 97 3f
       -0.2976154 1.1163272 -0.95073926 1.1832967
000350 da 0e b9 3c 78 1a e1 bd 9c 48 4a 3e 53 b7 2a 3f
       0.02259009 -0.10991377 0.19754261 0.6668598
000360 4b 61 b2 bf 5b 0d d1 3d 08 7e 6f be 51 fb de bd
       -1.3935941 0.102076255 -0.23387921 -0.108877786
000370 ac 03 df 3c c0 db e0 bc c0 16 d2 3e f6 f4 9f 3d
       0.02722343 -0.027448535 0.41032982 0.078103945
000380 38 b0 a4 bc 77 aa 20 be 1b 20 2d bf b1 54 50 bd
       -0.020103559 -0.15690027 -0.67627114 -0.050862018
000390 27 d6 78 3f 93 bf 65 bf 89 ab b4 3d e1 4b 8c 3e
       0.9720177 -0.89745444 0.0882178 0.2740164
0003a0 49 b0 6b 3f 2e a4 1f 3e f6 23 2b bf 1e 66 e2 bf
       0.92065865 0.15589973 -0.6685175 -1.7687414
0003b0 37 91 88 3f 88 4f 29 3f e5 2e 0b 3f 12 fe cc be
       1.0669316 0.6613698 0.5436843 -0.4003759
0003c0 29 a0 25 bd 08 b9 8b 3e 53 c3 0c 40 79 d0 df bd
       -0.040435944 0.27289605 2.1994216 -0.10928435
0003d0 7c cb 3e be 70 7d e4 3d 35 c6 11 3f 6e 8e b9 3e
       -0.1863231 0.11156738 0.56943065 0.36241478
0003e0 b2 b6 26 be 57 9c c1 3d 68 b6 18 bf 0c f8 c2 3e
       -0.1628063 0.094536476 -0.5965333 0.3807987
0003f0 19 28 49 be c4 2d 5a 3c 2d 19 12 be c2 aa 87 3e
       -0.19644202 0.013316575 -0.14267416 0.26497465

fc1.bias f4 [128]
000000 86 88 f5 be 7f 7e d5 3e 43 29 03 3f 26 71 1a be
       -0.47955722 0.4169807 0.51234835 -0.15082225
000010 e0 24 1c 3f d6 e3 fc 3e f4 a0 ad bd 6d 9d ec 3e
       0.60993767 0.49392575 -0.08477965 0.46213856
000020 8a 53 a2 3e c5 ac b5 be eb 0a cf bd f8 1a b6 3d
       0.3170436 -0.35483375 -0.10109504 0.08891863
000030 9e 45 28 3e d8 a3 17 3e ab 75 e6 be 70 ba 04 bd
       0.16432807 0.14808595 -0.4501165 -0.032404363
000040 ca 1a 46 3d 09 6e c3 3e 7e 28 88 be 2b 00 61 3e
       0.04836539 0.38169888 -0.26593393 0.2197272
000050 d7 46 2e bf 08 ee 8b bd 34 45 13 bf 4c 57 c6 bc
       -0.68076843 -0.0683251 -0.5752747 -0.024211548
000060 4d 59 57 bd d0 87 bc 3e d5 82 ca 3c c8 20 c3 3e
       -0.0525754 0.36822367 0.024720589 0.38110948
000070 a8 1e a0 3d 87 7f 56 bd 1a 6e 13 3f bd d3 1e be
       0.07818347 -0.052367713 0.57589877 -0.15510459
000080 55 4f 04 be 02 bc 8d 3e b4 ea 00 3f ba 1f ce 3e
       -0.12920888 0.276825 0.5035813 0.4025858
000090 54 81 ba 3e b1 82 9c 3d 8b bf a4 3e 31 c1 2d 3d
       0.36426795 0.07642115 0.32177386 0.04242057
0000a0 e3 7d 05 be e0 49 a0 3e 04 ce b0 3d 9f ea 31 3e
       -0.13036303 0.31306362 0.08633044 0.17374657
0000b0 7e 64 fb 3d 5d b3 86 bd 68 b7 46 bd 95 3f 12 3f
       0.12275027 -0.065771796 -0.048514754 0.5712827
0000c0 63 22 ad 3e 7d 16 5a bd 4d 61 94 3e 75 66 9c 3e
       0.33815297 -0.053244103 0.28980485 0.3054692
0000d0 c6 00 11 bd 77 7b ff be c5 36 d7 3d 49 f7 3b 3e
       -0.03540113 -0.49898884 0.10508493 0.1835605
0000e0 75 fb 00 bf a6 aa 93 be fd 9a 18 be a7 e9 05 bf
       -0.5038369 -0.28841132 -0.14902873 -0.5230965
0000f0 0b 9f b9 3d df ab 70 be 77 5b bb bd 62 8d 05 bf
       0.09063538 -0.23503064 -0.09148305 -0.5216886
000100 ba ee 3e 3e dc c1 d6 be f2 a6 ed be 83 5c 18 bf
       0.18645754 -0.41944778 -0.46416432 -0.5951616
000110 61 70 89 3e 8b fd 21 3d 99 42 c8 be 7e 57 50 3e
       0.2684355 0.039548438 -0.3911331 0.20345876
000120 d0 e6 a3 3e ba 10 94 3e 86 8a 08 bf 1c 06 a4 be
       0.32012033 0.2891901 -0.5333637 -0.3203591
000130 39 83 ba 3e 33 2c 25 bf 54 92 da 3e 47 9d a5 be
       0.3642824 -0.6452057 0.42689764 -0.32346556
000140 af 0d 6d 3e 4b a7 d2 3d d0 9e 9f 3d 78 19 38 be
       0.23149751 0.10285815 0.07793963 -0.17978466
000150 b9 b1 1b 3f 19 5a 0a bf 0f 5b ba 3d fc 43 d1 be
       0.6081806 -0.5404373 0.09099399 -0.4087218
000160 f0 a1 fe be 26 ca 80 bd f8 a1 1e bf e0 a3 86 3e
       -0.49732924 -0.06288557 -0.61965895 0.26296902
000170 c2 51 ff 3d 12 59 df 3e 6c 45 8d 3d 15 1d 21 3f
       0.12466766 0.43622643 0.06898007 0.62935
000180 f4 89 b9 be fd ca 02 3e 01 8a 9b 3e 29 46 b8 bd
       -0.36238062 0.12772746 0.30378726 -0.08997757
000190 36 50 99 be d1 1c f7 be 8c 0c 18 be 8a 8c 99 bd
       -0.2994401 -0.48264173 -0.14848536 -0.07497509
0001a0 f0 21 80 3d 96 0c 88 3e 87 bc 9f 3e e0 77 0c be
       0.06256473 0.26572102 0.31198522 -0.13717604
0001b0 9f fd 12 3f be 6b c0 bd 54 0a 61 bd 0e 51 31 be
       0.57418245 -0.0939555 -0.05494149 -0.17316076
0001c0 10 1f 18 3f 43 bf 3a bd d4 62 50 3e 09 f8 2a bf
       0.594224 -0.045592558 0.203502 -0.6678472
0001d0 30 41 0e 3f a1 02 fc be 09 af e3 3e eb 2a a9 3d
       0.5556822 -0.49220756 0.4446948 0.08260139
0001e0 74 2a 09 bf 28 fc 50 3f 27 23 79 3e 3b 9d 95 3e
       -0.53580403 0.8163476 0.24329816 0.2922152
0001f0 e5 62 2a be 77 2c 4c 3d 69 cc a9 3e 2f 3b 74 3e
       -0.16639288 0.049847092 0.33163765 0.23850702

fc2.weight f4 [128, 128]
000000 38 0b 41 3e 5a 2e d8 bc be ff 8c be 1e 4b b4 3d
       0.18851936 -0.02638929 -0.27538866 0.0880339
000010 42 1d 90 3e 1b bb a0 be 1b b6 d4 be 22 5f 70 3f
       0.28147322 -0.3139275 -0.41545185 0.9389516
000020 07 4b 06 be 9d 5a 70 3f 0a f5 58 3f 19 56 b1 bd
       -0.13114558 0.93888265 0.847489 -0.08659
000030 94 f0 40 3e 2f 4d 3c 3f 45 de 00 3f 25 be 73 be
       0.18841773 0.7355527 0.50339156 -0.23803003
000040 15 c6 ff 3d 44 73 b6 3b 15 50 5e 3c 75 05 4d 3f
       0.12488953 0.00556794 0.013568898 0.8008645
000050 e4 7e b6 bd ae f8 12 3f c1 8c ea be 89 f5 d4 bf
       -0.08910921 0.57410705 -0.45810512 -1.6637431
000060 c0 2e 77 be 63 73 19 3e 67 73 1b bf 41 22 49 bf
       -0.24138927 0.14985423 -0.60722965 -0.7856789
000070 7e de ca be 6a c1 5c 3e 95 99 03 40 90 79 10 3f
       -0.39622873 0.21558157 2.056249 0.5643549
000080 58 a4 ba 3e 73 6e bf 3e 5f 40 04 bf fc f1 a3 3d
       0.3645351 0.37388954 -0.5166072 0.08005139
000090 b5 94 25 3e 6e 62 ae 3e 68 e6 17 bf fe da 81 3d
       0.16170008 0.3405947 -0.5933595 0.063405976
0000a0 6a c0 7f bf 52 fd b5 3d 27 40 50 3f e9 30 47 3e
       -0.99902976 0.08886208 0.8134789 0.19452251
0000b0 27 23 dc 3e e8 1c cd be 60 bb 31 3f f2 0e 03 bf
       0.4299557 -0.40061116 0.69426537 -0.5119468
0000c0 ff 08 a6 be 50 f7 c9 3e 83 ec 08 3e 8f 15 d9 be
       -0.32428738 0.39446497 0.13371472 -0.4239926
0000d0 84 76 25 bf db 7f b3 bf 3a 2a 4c 3d 31 1c cd be
       -0.64633965 -1.4023393 0.049844958 -0.4006057
0000e0 40 91 1d be 68 35 5e be 19 65 f0 3d 00 a9 df be
       -0.1538744 -0.2170006 0.11738033 -0.43683624
0000f0 28 d2 33 bf 9e 78 9b bc 9e 0a 22 bd 22 21 53 be
       -0.7024255 -0.018978413 -0.039560907 -0.20618108
000100 f0 fd 38 3f 6b 24 8b bf 04 bb a8 3e a5 7a ce bf
       0.7226248 -1.0870489 0.32955182 -1.6131178
000110 51 d3 98 3e b1 69 9f bd 7d a2 39 be 73 44 2f 3e
       0.29848722 -0.07783831 -0.1812839 0.17115955
000120 2a c6 ba be 05 30 e1 be f1 2e db 3f 23 55 26 be
       -0.36479312 -0.43981948 1.71237 -0.16243415
000130 cc 72 0b 3e 1a 81 49 3e 21 52 c8 be ca 7c 09 be
       0.1361801 0.19678155 -0.3912516 -0.1342651
000140 97 aa c8 3d 86 b7 82 3d b4 14 09 3f 03 8f 1c 3f
       0.097981624 0.063826606 0.53547215 0.6115572
000150 7a f1 0d bf aa 4b 01 3f d1 3e 15 bf 71 6e 4f bf
       -0.5544659 0.5050608 -0.58298975 -0.81027895
000160 48 a7 42 bd bf 14 5a bd 7f 4a 0c 3f 76 5b 41 bf
       -0.047522813 -0.05324244 0.5480117 -0.75530183
000170 28 36 87 3d 90 24 bc 3d 57 c7 d4 3e f7 e1 6f bd
       0.06602126 0.09186661 0.41558334 -0.058565106
000180 48 02 e4 be 91 51 77 bd 31 98 27 be 0f 25 f3 3d
       -0.4453299 -0.060380522 -0.1636665 0.11872303
000190 e8 bd c0 3e 8a 07 7b 3d 06 45 d0 be 5a d9 30 3d
       0.37644887 0.061286487 -0.4067766 0.043176033
0001a0 96 51 a9 3d 22 e3 34 3f 0d b1 b1 be 17 a8 b3 3e
       0.082675144 0.7065908 -0.34705392 0.3508918
0001b0 cc 3d 9a 3e 0e 00 24 be a0 37 9c 3e 38 ab a5 3d
       0.30125272 -0.16015646 0.30511189 0.08089298
0001c0 21 c5 6d 3e b6 66 0a 3f d8 06 81 bf 6c 0d ce be
       0.2321973 0.54062974 -1.0080214 -0.40244615
0001d0 94 2b e4 3d 6f 81 88 be e3 74 fa 3f 17 5a bd 3d
       0.11141124 -0.2666125 1.9566921 0.09245699
0001e0 d9 69 a4 3e b6 23 6e 3f 1a 5e 67 be d1 9b 03 bf
       0.32112005 0.9302324 -0.2259449 -0.5140963
0001f0 35 09 f1 3e 8b a7 6b 3e 10 d1 f0 be 18 11 00 be
       0.47077337 0.23013131 -0.47034502 -0.12506521
000200 d6 00 97 be 28 95 97 3f 8b 48 57 bf 8d 0b 8b bd
       -0.29492825 1.1842394 -0.84095067 -0.067893125
000210 6a 90 fb 3e a6 c6 f6 be da 34 ff 3d fe 9f 06 be
       0.49133617 -0.48198432 0.124612525 -0.1314697
000220 a8 6e 09 3e b1 09 50 be 12 9a ac 3e 6a de 94 3e
       0.13421118 -0.20316197 0.33711296 0.29075938
000230 23 61 00 3f 33 2a a9 bd d4 cb c1 3f 36 ee 19 bf
       0.5014822 -0.08260002 1.5140328 -0.60129106
000240 27 4f f8 3e 55 e0 cc be a3 95 82 be de 3c 9e 3f
       0.48497888 -0.40014902 -0.2550479 1.2362325
000250 84 97 50 bd 40 53 5c be ca 7a e6 be bd 4c 01 be
       -0.050925747 -0.21516132 -0.45015556 -0.1262693
000260 76 e4 eb be 03 fb 9b be be 8d 04 bf 7d e9 ac be
       -0.4607274 -0.30464944 -0.5177878 -0.33771887
000270 8d 56 cb be 6f c7 82 3d 74 00 29 be da 79 92 3d
       -0.3971447 0.06385695 -0.16504079 0.071521476
000280 a4 55 4b 3f 6f 8d fd bd 95 01 3f bf 50 e9 22 3e
       0.7942755 -0.12380492 -0.7461179 0.15909314
000290 05 24 49 bf 5f e0 c8 be 35 60 14 bd 91 6f 9f 3e
       -0.78570586 -0.39233682 -0.036224563 0.31139806
0002a0 e8 92 96 be 30 79 01 3f 96 5f bc 3e 3a ae a7 3e
       -0.29408956 0.5057554 0.36791676 0.32750112
0002b0 17 72 f8 3e 87 d8 ac be 80 2d 7a 3e b5 22 a6 bf
       0.48524544 -0.33758947 0.2443142 -1.2979342
0002c0 cb 5b f6 be 41 d1 d5 be 00 95 aa 3f 6f 5d ff be
       -0.48116907 -0.4176121 1.3326721 -0.49875972
0002d0 97 76 00 bf 60 eb 06 3f d7 2b 8b 3e b5 9b bb bf
       -0.50180954 0.52702904 0.27181885 -1.4656893
0002e0 8d 8b b8 3e be 0d 8c 3d e5 39 2c be cd fc dc 3e
       0.3604397 0.068385586 -0.1681896 0.43161622
0002f0 5c 1b 30 bf 06 a5 80 ba 7e e0 d3 bd b4 a9 e0 be
       -0.6879175 -0.0009814806 -0.10345553 -0.43879473
000300 48 59 8a 3c 85 7d 34 be f0 d3 1b 3d f1 33 3b be
       0.016888276 -0.17626007 0.038043916 -0.18281533
000310 89 ea ca 3d e7 af 62 3c 3b e4 d0 be e9 09 b5 3c
       0.09908015 0.013835884 -0.40799126 0.022099452
000320 20 84 1c bf 20 66 aa bf 3c 65 c4 bc f2 f6 93 bd
       -0.61139107 -1.3312416 -0.023974054 -0.072248355
000330 49 ae c8 3c 52 54 82 3f f8 f5 d6 3c 53 1b b9 bf
       0.024497168 1.0181983 0.026240334 -1.4461464
000340 91 2d 06 be 2c 98 01 be 94 de ff 3e aa 99 24 3e
       -0.1310332 -0.12655705 0.499745 0.16074243
000350 c0 8d 9a bf 24 c2 34 3d c7 4d e3 be 11 03 99 bb
       -1.2074509 0.04413046 -0.44395277 -0.004669555
000360 83 87 09 3c be 54 aa be de 64 3a 3f b1 b8 a4 bf
       0.008394125 -0.33267778 0.7281016 -1.2868863
000370 d1 c7 82 3e 57 5d 6d bf 65 e7 a6 3e d4 50 3f 3e
       0.25543073 -0.9272055 0.32598415 0.18683177
000380 7c 92 cd bd 58 12 65 bf 49 fb 7f 3e 5a 2b 13 bf
       -0.10037705 -0.89481115 0.24998201 -0.57488024
000390 35 e8 c7 3e 8a ab 7c 3f 7e 0a 67 bd f3 d6 95 3d
       0.39044347 0.9869925 -0.05640649 0.07316389
0003a0 66 e9 86 be d9 02 5f 3e cc ea 3b bf 20 ac 0e 3f
       -0.26349944 0.2177843 -0.73405147 0.5573139
0003b0 37 4f 63 be fe d7 a9 3e e3 b9 ec be 5d 4a a2 bc
       -0.22198187 0.331726 -0.4623557 -0.01981085
0003c0 69 2f e6 be 3f 91 ed 3e 72 a4 04 3e 19 1e f4 3e
       -0.44958046 0.46399876 0.12953356 0.47679213
0003d0 d6 b0 e2 3d 1d a9 5f be f1 1b c8 3e 60 e6 40 3c
       0.11068885 -0.21841855 0.39083818 0.011773676
0003e0 1c 0f e6 3e 5e aa 3f 3f ac 6a 16 be d0 05 89 3f
       0.44933403 0.74869335 -0.1468913 1.0704899
0003f0 80 18 5c 3f 66 1d 58 3f 72 d2 2f be 68 90 47 bd
       0.85974884 0.8441986 -0.17170122 -0.0487217

fc2.bias f4 [128]
000000 97 f1 8d be cc 43 4e 3d a4 b7 5f 3d 3e 47 d6 be
       -0.2772338 0.050357625 0.054618493 -0.41851228
000010 70 96 98 bd b8 24 85 be dd 8c 12 3f 0a 4f a2 be
       -0.07450569 -0.26004577 0.5724619 -0.31700927
000020 d0 5a 89 be a6 75 cc 3e d4 91 e8 3e 62 c3 28 3f
       -0.26827097 0.3993351 0.45423758 0.6592313
000030 cc 50 26 be 91 16 5e 3c 0c fc 00 3f 19 2b 1f 3d
       -0.16241759 0.013555185 0.50384593 0.03885946
000040 5e e3 07 3e 2e e0 75 3e 8b cc 3b 3e 58 32 1f 3e
       0.13270327 0.24011299 0.18339746 0.15546548
000050 8f b0 74 3d 81 5a 35 be 75 8d 7c 3e d1 4e f5 be
       0.059738692 -0.17710306 0.24663337 -0.47911695
000060 bf e7 98 be 39 c7 26 3d 91 97 0a 3e f8 ec 91 bd
       -0.29864308 0.040717337 0.1353438 -0.07125276
000070 79 ba 11 3f a3 49 a4 3d 58 68 18 be e9 d2 dd be
       0.5692516 0.080218576 -0.14883554 -0.43324974
000080 aa 90 c3 3e 44 40 4a 3f ae a3 d6 3e d8 b6 a3 3e
       0.38196307 0.7900431 0.41921753 0.31975436
000090 b7 da e9 be 24 1b b2 be 9b bf c3 be f9 4f 18 3f
       -0.4567468 -0.34786332 -0.3823212 0.5949703
0000a0 3b be 03 3e 64 19 06 bf c4 04 f8 be 32 1e da bd
       0.12865536 -0.52382493 -0.48441136 -0.106502905
0000b0 90 ef e1 bd af aa fc 3d 04 c9 a4 3e 8e 17 11 be
       -0.11032021 0.12337243 0.32184613 -0.14169142
0000c0 51 7e 01 be 26 0b b1 3e 21 c8 89 be 84 31 90 3e
       -0.12645842 0.34578818 -0.269105 0.28162777
0000d0 91 54 40 be 58 fe 0d bf b9 a6 ff 3d 43 44 3d be
       -0.1878226 -0.5546622 0.12482972 -0.18483071
0000e0 84 f1 44 be 9c b8 bd be 04 a9 38 be a4 7a 50 be
       -0.19232756 -0.37054908 -0.18033224 -0.20359284
0000f0 8b 83 da 3d fa 02 b5 3e 35 8a be be 5f e0 ef bc
       0.10669621 0.35353833 -0.3721482 -0.029281793
000100 da 03 11 3f 44 68 d5 be 4d 88 bd 3e ba f6 5a 3d
       0.566465 -0.4168111 0.37018052 0.053457953
000110 b6 60 ca 3d 4e 90 9a 3e 61 0a 8b 3e cd 6f 1b 3e
       0.098817274 0.3018822 0.27156356 0.15179367
000120 aa 6d b9 3e 82 fa dd bd a9 c5 d2 3d 79 5e bb bd
       0.3621648 -0.10838796 0.10291607 -0.091488786
000130 85 7f 62 be fb 11 b7 bd e8 b4 a4 3d 3b 83 4a bd
       -0.22118957 -0.089389764 0.08042318 -0.049441557
000140 aa 2c 84 be d6 54 e3 3e 75 ce 05 bd 95 d7 c9 be
       -0.25815326 0.44400662 -0.032667596 -0.3942229
000150 67 5f f2 bd 3c f1 0e 3e 2a 68 8a 3c 6c 3f 32 bd
       -0.11834603 0.13959211 0.016895372 -0.043517515
000160 1c f1 8d be fe de a7 bd a5 08 f7 3c 92 35 65 3e
       -0.27723014 -0.08196829 0.03015549 0.22383717
000170 fd 9a ce bd 99 dc 15 3e fb a9 61 3e 0f ab 7b 3e
       -0.100881554 0.14634933 0.22037499 0.24576972
000180 34 2c b3 bd 9e 70 13 bf de ad c4 3b d9 30 27 be
       -0.087486655 -0.57593715 0.006002172 -0.16327228
000190 8e a9 e8 3d b4 95 a6 bc 4e 62 f2 3d 7f 8e f9 3c
       0.11360465 -0.020335056 0.118351564 0.030463455
0001a0 f2 c8 dc be d0 d5 b4 bd ec 97 15 bb 47 9a d2 3e
       -0.4312206 -0.08829844 -0.0022826148 0.4113333
0001b0 2a 6d 8e 3e cc c6 8d 3e 1f 4c 8b be 9f e9 a2 3e
       0.2781766 0.27690732 -0.27206513 0.31818864
0001c0 a5 e8 ce bd 8b 3d 92 3d a2 1c d4 be 43 82 8c bb
       -0.10102967 0.07140645 -0.41428095 -0.0042879893
0001d0 67 87 16 be 15 09 19 3e ad b3 99 be 77 c5 b0 3e
       -0.1470009 0.14944871 -0.30019894 0.34525654
0001e0 f9 e0 00 be 5f 20 81 be 2e 73 f3 be f9 79 9c 3d
       -0.1258582 -0.2522001 -0.47548813 0.07640452
0001f0 a5 88 a4 be c5 4d 5c be 7a 22 d6 be 5c 4c 64 3e
       -0.32135502 -0.21514042 -0.4182318 0.22294754

policy_mean.weight f4 [7, 128]
000000 8b 69 09 3e 7a ef 61 3c 29 91 8f 3c 27 ea 3e 3c
       0.13419168 0.013790006 0.017525272 0.011652506
000010 a2 8e eb bb 95 89 eb bc 0a 07 45 be 0c fc db bd
       -0.007188634 -0.028752128 -0.19240966 -0.107414335
000020 64 55 63 bd 55 15 a9 3d d7 bc be bd 9c 84 17 bd
       -0.055501357 0.08256022 -0.09313362 -0.0369917
000030 e6 d6 8d 3d 6e 05 69 bd c3 98 d8 ba f2 d8 ad bd
       0.06925754 -0.056889944 -0.0016525019 -0.08488645
000040 34 46 b1 3d 56 e3 dc 3b 71 3a 4c 3c 1a 55 60 bd
       0.08655968 0.0067409677 0.012465105 -0.05476866
000050 bf 6d 0f bd bd 6e 6e 3a fe 06 36 bd 5a dd 83 bc
       -0.03501677 0.0009095481 -0.044440262 -0.01609676
000060 91 b0 7a bc dd 45 d4 3d e2 d3 69 bd 52 9a f3 bd
       -0.015300886 0.10364888 -0.057086833 -0.11894669
000070 1a a6 99 bd 2b d7 d4 bb b6 d9 8b bd 9d bb fc 3c
       -0.075023845 -0.0064953766 -0.068286344 0.03085118
000080 ac 8f 44 bd 0b ff df 3c 20 0d 08 bd 6c e1 84 3d
       -0.04798858 0.027343294 -0.033215642 0.06488308
000090 96 64 38 bd f0 74 ed 3d ab 2b d2 bc cb 7f e2 3c
       -0.0450178 0.1159457 -0.025655588 0.027648827
0000a0 44 af cf 3d c0 08 a2 3d 09 24 b0 bc a8 c0 ec 3d
       0.10140851 0.07911825 -0.021501558 0.11560184
0000b0 e8 25 87 3c 76 3e cd bd 18 8e 50 bc c6 96 ce 3b
       0.016497567 -0.10021679 -0.01272919 0.0063045947
0000c0 cf 45 e3 bc 26 65 b6 3d 43 53 49 3d c9 4f bc bd
       -0.027743248 0.08906011 0.04915167 -0.09194905
0000d0 e5 d1 cc bd 2d c5 2f 3d 61 5a 06 bd cf c5 4e 3c
       -0.10000972 0.04291265 -0.032801036 0.012620403
0000e0 18 46 ea bd da 16 3b 3d 83 a5 ee 3c 8e 50 94 3d
       -0.114391506 0.04567609 0.029131657 0.07241927
0000f0 b3 7f 4f bd 63 9d 5b bc f2 18 29 3e 62 fa c9 ba
       -0.050658893 -0.013404223 0.16513422 -0.0015409703
000100 ae 3f 6f bb e7 b4 c3 3d df 63 04 be 9a 6b 48 bc
       -0.0036506462 0.09555989 -0.12928723 -0.012232685
000110 3b 80 06 3e ae 72 e5 bd 5b ab 1e bc 63 4a e0 bd
       0.13134854 -0.11203514 -0.009684409 -0.10951688
000120 a0 cb 3d bd fc b1 99 bd 16 3a 8c bd 4a fe 5a 3d
       -0.04633677 -0.07504651 -0.068470165 0.053465165
000130 93 06 cf bc 2c 63 12 3b 28 92 c7 bd c2 30 d4 3d
       -0.02527169 0.0022336943 -0.09744674 0.10360862
000140 6c d6 ae bd bd d3 14 3c e7 56 93 bb da b4 ce 3d
       -0.085369915 0.009083685 -0.0044964436 0.100930884
000150 c8 f5 94 3d ce 53 92 bd ea 35 bb 3d ff 18 f7 bc
       0.072734416 -0.07144891 0.09141143 -0.030163286
000160 e5 b7 f3 3d 87 c6 a5 bc c2 2f 97 bd d0 a8 c8 3d
       0.119003095 -0.020236267 -0.07382156 0.097978234
000170 24 2b 99 3d 75 49 a5 3b a5 32 0c 3e 40 cc 86 3d
       0.074789315 0.005044157 0.13691194 0.06581926
000180 72 9b 17 3a 17 44 eb 3d d7 5c 02 3c 34 47 c2 3d
       0.0005783356 0.114875965 0.007956705 0.09486237
000190 05 0c 64 3d b1 51 a1 bd 13 4d d2 3d 7e c6 47 3d
       0.055675525 -0.078769095 0.10268607 0.04877328
0001a0 fc 88 a6 3d 3b e6 54 be f7 2a de 3d e0 9d c3 bd
       0.081315964 -0.20790951 0.10848039 -0.09551597
0001b0 05 27 36 bc e0 02 19 bd 8c 29 ab bd 67 92 37 3c
       -0.011117701 -0.037356257 -0.08357534 0.011204339
0001c0 86 01 8f bd 56 3d 24 3d bc 08 98 bd 62 f3 e6 bd
       -0.069827124 0.040097557 -0.07423541 -0.1127689
0001d0 68 7b da 3d 43 09 4a 3d 56 6b 27 3d 29 3e 72 3d
       0.10668069 0.04932524 0.040873848 0.05914131
0001e0 ec c1 05 3d d2 83 25 3d e6 52 76 bd c8 88 77 3d
       0.03265564 0.040408917 -0.06013765 0.06043318
0001f0 b6 30 fa bc 00 fb 8d bb 2e ee 45 3d 8f 87 15 bd
       -0.030540805 -0.0043329 0.04832285 -0.036506232
000200 91 09 03 3d 87 7a 86 bd 56 19 34 3e 64 34 15 3e
       0.031991545 -0.06566339 0.1758779 0.14570767
000210 7b 68 ff 3c 41 bb c7 3d 35 13 23 3c 18 6e 05 be
       0.03117775 0.09752513 0.00995331 -0.13030279
000220 e8 dc 10 3e 66 88 bb bd 5c 19 80 bd 11 43 44 3d
       0.14146769 -0.09156875 -0.06254837 0.047915522
000230 3b e8 af 3e 90 ec 88 3d f4 c5 74 bd 05 2b d9 3b
       0.34356865 0.06685746 -0.059759095 0.006627443
000240 6e 39 4b be a2 34 37 be f4 e5 48 3c 51 f9 49 3d
       -0.19846126 -0.17891172 0.012261856 0.049310032
000250 95 50 4f 3e 4d f8 22 be 5c 24 a9 3d aa 8c 2b 3e
       0.20245583 -0.15915032 0.08258888 0.16752878
000260 51 a8 38 bd 5a 20 4c 3e 98 56 d4 bc 28 38 0e 3e
       -0.045082394 0.19934216 -0.025920197 0.1388861
000270 d1 10 29 3d a1 b7 24 bd 12 1a ec 3d 23 8c 82 3d
       0.041275803 -0.040214185 0.1152841 0.06374385
000280 b3 da 77 bd 61 2e a2 3c a8 82 9d 3d c5 94 d5 3c
       -0.060511302 0.019797506 0.07690936 0.026071915
000290 08 a5 46 bc 83 22 1e bd fd cc b0 3b 39 e7 c2 3c
       -0.012124307 -0.03860713 0.0053955303 0.023791896
0002a0 79 b4 3b 3e 42 89 46 bc d0 24 bd 3d 49 0f 93 bd
       0.18330564 -0.012117686 0.09235537 -0.0718065
0002b0 d3 4e a7 3c 68 4b bc 3d a0 5e da bd 8a d5 6c 3e
       0.020423329 0.0919407 -0.106625795 0.23128334
0002c0 f0 d0 ec 3b 3d 65 33 3d 64 b4 37 bd 9a 45 dd bb
       0.0072270557 0.04379772 -0.04484977 -0.006752682
0002d0 ea 4f fc 3d 16 45 fb 3d 1c 9c ba 3d 69 59 d1 bc
       0.1231993 0.122690365 0.09111807 -0.02555533
0002e0 85 e6 d5 3c b5 88 8d 3d 5e 75 f0 3d 1d 0a 64 3d
       0.026110897 0.069108404 0.11741136 0.055673707
0002f0 84 de f4 bd 93 fb 20 bd 4c f6 16 3e 1e 33 82 3d
       -0.11956504 -0.03930242 0.14742392 0.06357406
000300 6b fd b7 bc de 99 1c 3e cd 3b b9 3c 03 c3 a9 bd
       -0.022459706 0.1529307 0.022611523 -0.08289149
000310 56 ed d4 3d 07 96 d2 3c 25 b8 ff ba 94 5f 98 3d
       0.10396831 0.025706304 -0.0019509835 0.07440105
000320 11 17 26 bc e6 b5 30 bd d5 63 04 bd 17 8c 29 bd
       -0.010137335 -0.043142222 -0.03232177 -0.041393366
000330 e9 c2 c9 bc d1 3c b4 3c a9 c1 fa 3c ee 38 45 bc
       -0.024629073 0.022001656 0.030609922 -0.012037499
000340 20 a8 06 be 69 3e 52 3d 7b f4 aa 3c 9b ca 88 bc
       -0.13150072 0.05132905 0.02086853 -0.016698172
000350 72 8f 8b 3d 36 7a 39 be 77 14 23 bd d6 70 69 bc
       0.068144694 -0.18113026 -0.03981444 -0.014248094
000360 2b 6c cb 3d b4 94 ca 3c 4a ff 64 be a2 48 d1 bd
       0.09932741 0.02472911 -0.2236301 -0.10218932
000370 c6 55 a1 3d 8d 41 f5 3c 76 4f 5c bc b3 29 db 3c
       0.07877688 0.029938484 -0.013446679 0.026753282
000380 ac 92 99 3d 53 30 bb bd e2 72 20 3d 88 c9 26 be
       0.074986786 -0.091400765 0.03917206 -0.16287816
000390 f2 a2 b0 3d cb 75 66 3d 3f ef 4d 3d 8e 4e 2a 3c
       0.08624829 0.05626468 0.05027699 0.010394705
0003a0 58 de 72 3d 36 a7 a4 be fc 8c 79 bd b1 8d 81 3c
       0.059294075 -0.32158822 -0.06092547 0.015814634
0003b0 6d 21 f2 bb 3b bc 82 bd 15 b0 49 3d 34 4a ce 3d
       -0.0073892386 -0.06383558 0.04924019 0.10072747
0003c0 69 85 8d bc a2 00 d3 3c d9 72 b7 bc 66 3a f2 3d
       -0.017275529 0.025757138 -0.02239363 0.11827545
0003d0 0a 8a da bd aa 1b 68 be 73 61 05 bb 0e db 66 3e
       -0.1067086 -0.22666803 -0.0020352274 0.225445
0003e0 7f f9 74 3d 77 ba a9 3d 9c 63 ae 3c f0 e8 5b 38
       0.05980825 0.082875185 0.021287732 5.243061e-05
0003f0 72 07 bf ba db 58 62 3d b0 28 c0 3d 1b 3d f1 bd
       -0.0014574362 0.05526052 0.093827605 -0.11779233

policy_mean.bias f4 [7]
000000 e9 38 ad bd de d6 9a bd 59 1b 9f 3d a3 27 1d 3d
       -0.084581204 -0.07560514 0.07768888 0.03836788
000010 aa c5 fb bd 77 8a 55 bd 06 3a 7d bc
       -0.12293561 -0.052134003 -0.015455728

value_head.weight f4 [1, 128]
000000 50 2a 11 c1 51 b7 15 41 42 9c 1f c1 29 bf 0f 41
       -9.07283 9.357255 -9.975649 8.98417
000010 61 ad 12 41 03 f1 16 41 ad bd 17 41 0a b1 31 41
       9.167329 9.433841 9.483808 11.105722
000020 f1 03 09 41 04 a4 0c c1 e2 84 0f c1 15 49 17 c1
       8.563462 -8.790043 -8.969942 -9.455342
000030 57 68 00 41 fc 1c 07 c1 6d ba f7 40 81 27 0e 41
       8.025474 -8.444576 7.741507 8.8846445
000040 ee 89 ef 40 f6 5f 03 c1 02 26 d0 c0 13 41 1d c1
       7.485587 -8.210928 -6.5046396 -9.828387
000050 48 05 18 41 3f ec 04 c1 d3 c4 0e c1 0e d5 05 41
       9.501289 -8.307677 -8.923053 8.364515
000060 5f 11 1b 41 d0 bf 07 41 cb e3 01 c1 85 de 08 41
       9.691741 8.484329 -8.1181135 8.554326
000070 5a c8 2a c1 84 20 09 c1 52 ed 0c 41 e8 e3 0c 41
       -10.673914 -8.570438 8.80794 8.805641
000080 64 25 0a 41 a9 7f 17 c1 2b 67 1a c1 6f dc 08 41
       8.634129 -9.468667 -9.6501875 8.553817
000090 38 09 18 41 db 91 19 41 e4 53 07 c1 ca 08 10 c1
       9.502251 9.598109 -8.457981 -9.002146
0000a0 0e b5 0c 41 8e 19 1e 41 9b c9 0e 41 e7 20 02 c1
       8.794203 9.881239 8.92422 -8.133033
0000b0 46 da f4 40 82 3a 3b c1 4b a7 1a c1 d3 ee 01 c1
       7.6516447 -11.701784 -9.665843 -8.120807
0000c0 19 c4 0b 41 8f e2 04 41 c9 6f 03 41 04 13 11 c1
       8.735375 8.305312 8.214791 -9.0671425
0000d0 9e 97 0a 41 6f ab 09 41 f4 0c 0b 41 43 e3 1a 41
       8.662016 8.604354 8.690662 9.680484
0000e0 83 0a 0c 41 0d b4 18 41 5c 66 04 41 3c c8 10 41
       8.752566 9.543958 8.27499 9.048885
0000f0 a8 ef 0c c1 97 4d 13 c1 65 f0 10 41 4a 91 0b c1
       -8.80851 -9.206443 9.05869 -8.722971
000100 39 99 0a 41 83 19 07 41 39 92 17 c1 9b 86 0e c1
       8.662408 8.443728 -9.473199 -8.907863
000110 c8 57 cb c0 6c 68 12 c1 0e 7e 14 c1 fe 6e 23 c1
       -6.3544655 -9.150494 -9.280775 -10.214598
000120 e0 46 1e 41 fa 2c 07 c1 ce a1 15 c1 96 ce 0b 41
       9.892303 -8.448481 -9.352003 8.737936
000130 28 aa 26 41 85 79 f5 40 a1 26 08 c1 71 14 10 41
       10.416542 7.671084 -8.509431 9.004991
000140 87 b2 01 c1 1a df 0b c1 52 ae 0a c1 59 d5 00 41
       -8.106086 -8.741968 -8.667559 8.052087
000150 12 f8 07 c1 73 2d 13 41 fe 45 1d c1 1a ff f2 40
       -8.498064 9.198596 -9.829588 7.5936403
000160 35 8f f9 c0 c7 ab 05 41 66 3d 13 41 b3 3b 0d c1
       -7.7987313 8.354438 9.20249 -8.827075
000170 02 de dd c0 ac 07 1a 41 32 6a eb c0 c1 09 0e 41
       -6.9333506 9.626873 -7.3567133 8.877381
000180 27 22 1e 41 64 69 eb 40 b8 bb e5 40 db 64 16 c1
       9.883338 7.356615 7.179165 -9.399623
000190 28 c5 1c 41 7c 8e 14 c1 11 bf 22 c1 b3 26 de 40
       9.798134 -9.284786 -10.171647 6.942224
0001a0 4d 29 1c 41 91 d2 0d 41 02 cb 1c 41 d2 7c 18 c1
       9.760083 8.863908 9.799562 -9.530474
0001b0 b0 e5 0f c1 d2 21 23 c1 12 58 ff 40 e6 10 0a 41
       -8.993576 -10.195757 7.979501 8.629126
0001c0 d4 82 13 c1 2b 2d 14 41 35 37 07 41 5f 2b 08 c1
       -9.21944 9.261027 8.450978 -8.510589
0001d0 48 ac 0b 41 78 2a 1c 41 be aa 10 c1 a7 c1 10 c1
       8.729561 9.760368 -9.041685 -9.047278
0001e0 af 6b 14 c1 88 53 0e 41 8c 40 fd 40 47 41 0d c1
       -9.27629 8.895393 7.9141293 -8.828437
0001f0 c9 f7 0c 41 89 cb 11 41 46 e3 f9 40 62 ba 0d c1
       8.810494 9.112191 7.8089933 -8.858004

exp_avg f4 [7]
000000 74 29 d2 39 84 46 e5 b9 58 d5 fd 39 9e b8 c2 39
       0.00040085206 -0.00043730822 0.00048414874 0.00037140114
000010 6b 5b 3f 39 c4 cf 76 b9 a2 7a e8 3a
       0.00018249235 -0.00023537787 0.0017736743

exp_avg_sq f4 [7]
000000 f4 4d 57 37 8a 0a 78 37 18 2f 6b 37 b0 01 59 37
       1.28331485e-05 1.4784406e-05 1.4018056e-05 1.2934601e-05
000010 84 4d 3f 37 23 cf 55 37 7d a9 7e 37
       1.1402535e-05 1.2744017e-05 1.5179042e-05

exp_avg f4 [128, 21]
000000 0d 9d 56 37 01 16 a3 b7 5d ab e3 b6 17 c1 ce b7
       1.279196e-05 -1.944136e-05 -6.7850765e-06 -2.4647028e-05
000010 1e ae e5 b7 c2 3e f5 b7 4b c9 95 b6 62 21 d4 b5
       -2.7380007e-05 -2.92355e-05 -4.4639796e-06 -1.5804947e-06
000020 d7 78 52 35 4e c1 74 b7 d6 a2 0a 34 10 6e 2e b7
       7.840694e-07 -1.4588541e-05 1.2911491e-07 -1.0396834e-05
000030 a7 e6 2e b5 50 e2 fb b6 b4 ca 26 37 9b 1e 53 35
       -6.5155695e-07 -7.506729e-06 9.9415665e-06 7.864816e-07
000040 d9 87 cb 38 fb e2 51 b7 8f 85 c2 b7 ca 9e 9d 37
       9.705098e-05 -1.2510219e-05 -2.3188795e-05 1.87898e-05
000050 04 b1 41 b5 a7 8d 42 b7 81 80 84 b8 60 33 79 b9
       -7.2155694e-07 -1.1596282e-05 -6.318186e-05 -0.00023765629
000060 38 27 71 b9 61 87 af 38 bc 2f 75 b6 9f e6 b7 38
       -0.00022998161 8.3698666e-05 -3.653563e-06 8.7690765e-05
000070 44 08 0b 35 a3 45 02 36 fd ef da 36 c8 98 d3 36
       5.1793563e-07 1.9412043e-06 6.5248446e-06 6.306076e-06
000080 a1 42 55 37 c5 d0 8b b8 db 7e 74 b9 5e 06 f3 b7
       1.2711303e-05 -6.666923e-05 -0.0002331691 -2.8970822e-05
000090 13 73 d9 36 ab b9 dd b8 71 eb 73 b9 26 e8 cb 37
       6.4805004e-06 -0.000105726846 -0.00023261995 2.4307588e-05
0000a0 53 08 6a b6 c3 91 96 36 c1 02 2e 36 41 8f c3 36
       -3.4873563e-06 4.4873173e-06 2.5929623e-06 5.82813e-06
0000b0 c2 92 09 37 ed 58 e3 36 77 6a 50 b5 fd 7c 09 b7
       8.200006e-06 6.7754795e-06 -7.7640965e-07 -8.194937e-06
0000c0 c5 35 d6 35 d4 df 47 34 6e 28 b4 b4 c1 3f f0 35
       1.5959891e-06 1.8614747e-07 -3.355703e-07 1.7899948e-06
0000d0 69 ea c3 b4 b4 79 22 b6 d2 00 73 36 9a 13 f9 36
       -3.6492136e-07 -2.4210722e-06 3.62103e-06 7.42306e-06
0000e0 35 96 9f 35 04 4e 86 35 21 17 41 37 f3 a7 a7 36
       1.1890139e-06 1.0006484e-06 1.1509082e-05 4.9965397e-06
0000f0 3b 3e a8 b6 b0 1d 14 b6 0c 8e 50 b5 aa 1e 4f b8
       -5.0140347e-06 -2.2071e-06 -7.7692744e-07 -4.9381204e-05
000100 e5 ab c2 b7 8b 49 ce b9 fe 92 db b9 06 40 15 38
       -2.3206647e-05 -0.00039346176 -0.00041880453 3.5583995e-05
000110 d7 b2 af b7 a4 86 60 38 95 3f ee 35 38 46 0c b6
       -2.0944904e-05 5.3531156e-05 1.7750887e-06 -2.0902498e-06
000120 16 21 46 37 00 e1 a4 35 74 3d 22 b8 1c ad 73 b8
       1.1809423e-05 1.2284436e-06 -3.8681042e-05 -5.8096935e-05
000130 ae b8 cd b9 80 f0 34 b8 ec 7d 99 37 ad 49 ba 36
       -0.00039238244 -4.3139327e-05 1.8297658e-05 5.551809e-06
000140 39 45 01 ba d7 84 33 37 34 57 12 b8 21 ce 90 35
       -0.00049312745 1.0700161e-05 -3.4890327e-05 1.0788827e-06
000150 82 28 06 35 a3 58 c1 b6 79 f9 0f b8 70 40 15 b8
       4.9977837e-07 -5.762167e-06 -3.4326196e-05 -3.558438e-05
000160 97 ae 1c 37 df 83 2c b5 56 6a eb 36 3e 37 c3 b3
       9.338974e-06 -6.426689e-07 7.015925e-06 -9.0904436e-08
000170 46 55 36 34 12 46 ff 34 83 d1 0a 34 ec 0a 0d 36
       1.6981093e-07 4.7548434e-07 1.2928471e-07 2.1016995e-06
000180 7f 64 f5 b6 32 fa 0f b8 26 5d 23 b6 e3 37 24 35
       -7.3132683e-06 -3.432687e-05 -2.4343112e-06 6.1176087e-07
000190 74 a4 6c b7 76 83 16 b8 91 01 d7 35 49 2f d0 b5
       -1.4104986e-05 -3.588522e-05 1.6019204e-06 -1.551097e-06
0001a0 83 f2 39 b0 b2 3e be 35 ed c6 87 37 41 c5 98 b7
       -6.764724e-10 1.417435e-06 1.6185886e-05 -1.8211666e-05
0001b0 0a 4f 7f b7 97 86 0b 38 8c 48 a3 b7 ac f3 76 37
       -1.5217587e-05 3.326553e-05 -1.9464896e-05 1.4719477e-05
0001c0 7d 84 00 b5 47 6d 14 35 aa b3 25 b6 4a 76 f3 34
       -4.787651e-07 5.5293316e-07 -2.4691494e-06 4.5348344e-07
0001d0 5c a8 d3 36 b7 ed e5 b5 af 03 9e b7 0f 9d 06 b7
       6.3078896e-06 -1.7131014e-06 -1.8836783e-05 -8.02359e-06
0001e0 c2 22 94 36 ee 2d 20 37 df c4 73 b8 a0 18 a4 36
       4.41479e-06 9.547437e-06 -5.8119065e-05 4.8904476e-06
0001f0 cf 25 96 b7 50 d2 27 b5 76 6a 19 38 96 6b 89 b9
       -1.7899e-05 -6.2518393e-07 3.6577192e-05 -0.00026210834
000200 65 65 a5 ba c4 96 9a ba ad 58 2c 3a 3d 5e 1d 38
       -0.0012618719 -0.0011794199 0.0006574493 3.7519483e-05
000210 be f9 12 3a d6 12 5b 36 e9 ca 08 37 78 f0 9e 38
       0.00056066725 3.2644507e-06 8.153475e-06 7.578818e-05
000220 76 9f 74 37 92 9b 34 39 ff 09 ac b9 df a2 a2 ba
       1.4580661e-05 0.00017224092 -0.00032813844 -0.0012408159
000230 6d 69 77 b9 c6 ac 93 38 72 9e 3d ba 0e ac a5 ba
       -0.0002359503 7.041688e-05 -0.0007233388 -0.0012639777
000240 f5 40 0e 39 93 79 8a b8 2d a2 b0 37 84 b3 a7 34
       0.00013566374 -6.602998e-05 2.1056354e-05 3.123679e-07
000250 fe ca 00 b6 a9 b3 1c 37 d3 6a e5 36 ce 93 b4 b6
       -1.9191643e-06 9.340155e-06 6.837168e-06 -5.3816248e-06
000260 a4 7d 0f b7 f8 52 3a b6 27 8e a1 b4 35 a8 f9 33
       -8.552717e-06 -2.7764454e-06 -3.0092016e-07 1.1625563e-07
000270 b1 c5 54 b6 1f 2a 05 36 71 b4 b5 b6 af 40 98 b5
       -3.1705533e-06 1.9843062e-06 -5.4152265e-06 -1.1343708e-06
000280 7d f7 15 37 ad 36 37 37 e6 80 4c b6 3b 98 09 37
       8.938715e-06 1.092038e-05 -3.0473398e-06 8.20128e-06
000290 1e 7f 43 37 a9 2f c0 b6 85 aa 52 35 01 85 d7 b4
       1.16525025e-05 -5.7275943e-06 7.8479235e-07 -4.0143644e-07
0002a0 df 6e bd b7 d1 60 46 38 d6 e8 fe b8 91 5e c5 b8
       -2.2582184e-05 4.7297046e-05 -0.00012155033 -9.4113064e-05
0002b0 7d 2f b7 38 3a 47 7a 37 30 9e 1e 38 91 08 8c 36
       8.7349654e-05 1.4917745e-05 3.781746e-05 4.1733224e-06
0002c0 3d a8 35 b6 89 90 ce 37 91 1e 93 36 f1 55 d5 37
       -2.706903e-06 2.4624418e-05 4.3845e-06 2.5431598e-05
0002d0 1a 21 b5 b7 0b 20 fa b8 42 b7 2d b8 2e 9b 0d 37
       -2.1592296e-05 -0.000119268974 -4.1417086e-05 8.4403855e-06
0002e0 d1 79 41 b9 24 64 3d b9 68 62 49 38 b9 78 90 b8
       -0.00018451294 -0.0001806175 4.8013782e-05 -6.8889414e-05
0002f0 52 15 19 36 ec 81 70 35 b4 71 e0 b7 ad 44 0f b9
       2.2811187e-06 8.959603e-07 -2.6755828e-05 -0.00013663126
000300 43 47 15 b9 cb b4 03 38 e8 f7 03 b6 98 0e cc 37
       -0.00014236294 3.140121e-05 -1.9664822e-06 2.432549e-05
000310 da b7 25 b5 81 72 59 35 86 9a 82 b5 30 2c 42 36
       -6.173483e-07 8.1005425e-07 -9.730727e-07 2.8933973e-06
000320 4b 4b 0f 36 d6 5f 03 b8 e0 6c 0e b9 c2 df 68 b6
       2.1352487e-06 -3.1322088e-05 -0.00013582734 -3.4700938e-06
000330 10 68 65 35 d7 ca 43 b8 13 c1 10 b9 a0 55 a6 35
       8.546058e-07 -4.6680532e-05 -0.00013804836 1.2392884e-06
000340 e1 37 99 b6 78 cb 57 35 0a da 26 b9 d9 87 80 39
       -4.5662605e-06 8.038983e-07 -0.0001591222 0.00024515277
000350 f0 14 24 3b 5b 8a 2c 3b 66 d9 3f ba af b3 93 39
       0.0025036894 0.0026327583 -0.00073184667 0.000281719
000360 6b c2 31 ba 01 99 a4 b6 89 e6 c0 36 cb 8d 3c b8
       -0.00067809847 -4.905393e-06 5.7488837e-06 -4.4954748e-05
000370 b4 5a da b7 ee e2 6d b8 d2 e3 f7 39 b9 05 26 3b
       -2.6029862e-05 -5.6716548e-05 0.0004728125 0.0025333
000380 fb bc 1b 39 b3 fe bb b8 56 43 2c 3a 22 47 3b 3b
       0.00014852353 -8.964296e-05 0.0006571313 0.0028576334
000390 94 c2 d6 38 fc b7 6e 39 43 63 f8 37 59 f7 a3 b8
       0.00010240558 0.00022765988 2.9610126e-05 -7.818518e-05
0003a0 fc f5 30 36 cb 73 e9 b9 69 0a ed b9 1f f0 a5 38
       2.6369225e-06 -0.00044527496 -0.0004521192 7.912539e-05
0003b0 48 0e 1c b9 cd 8c 63 39 01 60 29 37 8a 20 4d b7
       -0.0001488264 0.0002170086 1.0095538e-05 -1.2226528e-05
0003c0 68 d2 e5 37 88 14 65 38 b8 43 15 b9 aa 78 0c b9
       2.7396905e-05 5.4616976e-05 -0.00014234975 -0.00013396391
0003d0 22 64 e2 b9 30 5e e7 b6 06 6b 2d 38 3e bb 73 39
       -0.00043180684 -6.8953013e-06 4.1346088e-05 0.00023244039
0003e0 55 04 3c ba 17 90 86 b8 8b 3c 0f b9 b9 f6 61 37
       -0.00071722764 -6.416457e-05 -0.00013660097 1.346849e-05
0003f0 38 69 2e 38 3b 7a e1 39 64 e6 1c 3b 30 61 24 3b
       4.1582825e-05 0.00043006413 0.0023941034 0.0025082342

exp_avg_sq f4 [128, 21]
000000 61 26 0b 33 8c f7 1f 34 02 5d 6b 37 92 5a 82 37
       3.2398365e-08 1.4898086e-07 1.4028747e-05 1.5539383e-05
000010 38 eb 0c 35 35 54 09 34 85 3f 4f 33 c3 f3 84 30
       5.249635e-07 1.2789754e-07 4.8253714e-08 9.673545e-10
000020 1a aa 6b 30 b7 f5 26 32 a1 ec e0 31 56 39 c0 31
       8.573423e-10 9.718341e-09 6.5461596e-09 5.594454e-09
000030 85 3c 94 34 ca 10 67 37 31 9a 34 36 3a c9 ce 34
       2.7611182e-07 1.3772582e-05 2.6911841e-06 3.8516902e-07
000040 69 dd 37 36 cd 53 36 37 c6 47 1e 33 3e b0 41 33
       2.7398003e-06 1.0867557e-05 3.685252e-08 4.5096606e-08
000050 9f 4a de 31 1a 78 bc 33 b9 51 71 34 97 38 a8 37
       6.469534e-09 8.7762785e-08 2.2474605e-07 2.0053512e-05
000060 1c ef ba 37 b8 98 68 35 17 e5 71 34 2f 8a 99 33
       2.2284272e-05 8.664897e-07 2.2528216e-07 7.149753e-08
000070 80 45 36 31 45 d1 2b 31 7a d6 85 32 3f 42 45 32
       2.6523992e-09 2.500273e-09 1.558077e-08 1.1481972e-08
000080 30 89 99 32 41 c2 ea 34 53 81 a6 37 44 6d 8a 36
       1.787393e-08 4.3727235e-07 1.9848963e-05 4.1254407e-06
000090 43 6b 41 35 58 07 9e 36 7b 5d 76 37 89 3c ac 33
       7.205419e-07 4.709622e-06 1.4684508e-05 8.0203854e-08
0000a0 04 99 9e 33 4d 6f e4 31 a0 3b 7f 30 00 97 5f 31
       7.385282e-08 6.648327e-09 9.285319e-10 3.2536605e-09
0000b0 72 dd c9 34 76 80 dd 34 3f aa 99 32 34 3d 9a 31
       3.760029e-07 4.1257925e-07 1.7888963e-08 4.488948e-09
0000c0 43 c6 8d 30 0b 16 ea 2d 8c 4c d9 2d a2 eb 54 2f
       1.031545e-09 2.6612509e-11 2.4704037e-11 1.9365001e-10
0000d0 a2 ba 2b 2f be ee 7a 2f be c1 e7 31 6d a5 c6 34
       1.5618665e-10 2.2822186e-10 6.7450108e-09 3.7000737e-07
0000e0 98 8c f6 33 96 8b 34 32 c0 fe ff 33 0a 11 4c 34
       1.14808415e-07 1.0509117e-08 1.19207016e-07 1.900518e-07
0000f0 67 6d 60 30 e8 20 ba 30 31 08 0e 2f 47 c4 55 33
       8.1646195e-10 1.3542634e-09 1.2917735e-10 4.977144e-08
000100 82 8a 2f 34 cb 2f 25 37 8c 33 38 37 ae 31 fe 34
       1.6348534e-07 9.845894e-06 1.0979256e-05 4.7347334e-07
000110 5e 42 84 33 a9 62 2d 33 09 97 ee 30 90 b6 df 30
       6.158801e-08 4.0369432e-08 1.7359706e-09 1.6277273e-09
000120 ab 56 0e 32 a2 17 00 32 75 2a a3 32 aa e4 a3 34
       8.285194e-09 7.455954e-09 1.8995005e-08 3.052749e-07
000130 90 37 24 37 01 87 ea 35 88 b1 62 34 3f 17 f7 35
       9.788098e-06 1.747365e-06 2.1112476e-07 1.84097e-06
000140 91 11 08 37 f4 cc 24 33 d4 5b 3d 33 8a b9 4a 31
       8.110322e-06 3.837063e-08 4.408851e-08 2.9500336e-09
000150 01 0d b9 2f 1d 20 55 30 27 fa 39 33 5e 70 50 33
       3.3660544e-10 7.7534584e-10 4.330118e-08 4.853097e-08
000160 af 92 14 31 f9 99 c8 2f 60 b9 41 2f 2f 86 79 2d
       2.1620215e-09 3.6489192e-10 1.7619106e-10 1.4183806e-11
000170 46 4b 74 2d 29 d2 4c 2e d7 d9 13 2e a2 a3 20 2f
       1.3886508e-11 4.657089e-11 3.361741e-11 1.4610049e-10
000180 dc 8b c4 30 37 3b 3a 33 19 b1 1e 32 60 97 04 31
       1.4300627e-09 4.3360355e-08 9.237078e-09 1.9294575e-09
000190 ac a5 5d 32 47 11 f6 32 2c f3 58 2f dd 43 48 2f
       1.29015625e-08 2.8646026e-08 1.9731478e-10 1.8214004e-10
0001a0 56 a8 ef 2c 71 c8 05 32 06 6a 6e 33 bb 35 17 36
       6.8114776e-12 7.787194e-09 5.551012e-08 2.2532029e-06
0001b0 06 74 2e 36 a4 04 1f 33 d2 e8 d9 32 ff e8 00 32
       2.5995555e-06 3.7024293e-08 2.5368e-08 7.503558e-09
0001c0 cf 6a dd 2f 26 f0 c4 2f 7d 74 1b 31 2b 5d 07 31
       4.0275558e-10 3.5822828e-10 2.2621685e-09 1.9698045e-09
0001d0 d3 7c 3c 31 e1 2b 97 33 32 eb 17 36 76 03 21 34
       2.7428555e-09 7.039467e-08 2.2637655e-06 1.4995553e-07
0001e0 b3 60 44 33 a7 e9 4f 35 15 53 f2 35 c1 8b 12 32
       4.5722754e-08 7.745352e-07 1.8054585e-06 8.530095e-09
0001f0 95 61 8f 31 5c d7 a0 2f 65 61 a8 35 d6 25 8e 36
       4.1729415e-09 2.9256852e-10 1.2545321e-06 4.2363345e-06
000200 77 82 99 39 05 d7 ad 39 ae ad 25 37 10 4b c9 35
       0.00029279638 0.00033157333 9.875204e-06 1.4997513e-06
000210 bc c4 aa 35 05 f0 5d 33 d5 73 4c 33 b0 14 a1 34
       1.2723244e-06 5.167387e-08 4.76028e-08 3.000364e-07
000220 f8 94 63 34 8f fe 2c 35 38 37 06 37 38 b4 98 39
       2.1195217e-07 6.4445425e-07 7.999879e-06 0.00029125973
000230 6f 21 f6 37 82 70 01 37 85 93 4b 38 a3 af 8e 39
       2.9341054e-05 7.715194e-06 4.853636e-05 0.0002721521
000240 00 68 7d 35 0c 98 9c 35 50 1e d6 33 9c c7 b3 30
       9.4401184e-07 1.1667157e-06 9.9706654e-08 1.3080697e-09
000250 42 24 9b 31 b6 7b bc 34 d5 e6 d2 34 27 75 62 32
       4.5152158e-09 3.510774e-07 3.92835e-07 1.3181569e-08
000260 fd d5 55 31 64 ea 9e 30 ee 13 0d 2e ce 54 04 2e
       3.1117218e-09 1.1562631e-09 3.207739e-11 3.0088647e-11
000270 93 d0 ad 2f 0b 16 64 2f 80 67 05 30 b4 64 09 32
       3.1616718e-10 2.074431e-10 4.85322e-10 7.997347e-09
000280 5a 89 ba 34 20 c4 7a 33 75 c1 7c 32 ec 3d 96 33
       3.4745136e-07 5.8386036e-08 1.4712318e-08 6.996183e-08
000290 e2 9b 95 34 26 84 a4 30 71 bc 96 30 9a 75 e5 2e
       2.7866832e-07 1.1970129e-09 1.0967495e-09 1.04346046e-10
0002a0 fa 8f 48 34 d5 22 8a 35 8d 5d 79 38 4f d0 8c 38
       1.867883e-07 1.0291939e-06 5.9453352e-05 6.714521e-05
0002b0 fe d7 e8 35 0f 11 eb 34 ba dd 7a 34 0b 68 25 32
       1.7348209e-06 4.3784573e-07 2.3363728e-07 9.627921e-09
0002c0 54 d7 17 32 db 58 5f 33 49 79 32 33 c4 be 76 33
       8.838317e-09 5.2002047e-08 4.1554163e-08 5.744984e-08
0002d0 aa 57 c7 35 fe 48 77 38 a5 32 f0 36 0d cf de 35
       1.4852169e-06 5.895737e-05 7.158453e-06 1.6600549e-06
0002e0 75 0e 2e 37 91 5c 5e 38 90 5f 61 34 eb e3 21 34
       1.0374574e-05 5.3015134e-05 2.0989523e-07 1.507721e-07
0002f0 19 7e ad 32 35 22 9b 30 dd 38 46 31 b1 0a 56 34
       2.0197193e-08 1.1287457e-09 2.8845115e-09 1.9934193e-07
000300 ad 12 71 34 8b be 0e 32 0a 6d a4 30 d2 bc 73 30
       2.2451668e-07 8.308812e-09 1.1963561e-09 8.8671215e-10
000310 af b8 11 2e bf 52 11 2e b9 4e 63 2f 51 50 05 2f
       3.3133215e-11 3.3042676e-11 2.0673498e-10 1.2124814e-10
000320 82 27 d2 2f d6 08 c7 31 b2 d3 55 34 06 a1 df 32
       3.822685e-10 5.792667e-09 1.9914185e-07 2.6033842e-08
000330 71 ec 9d 31 a2 e1 14 33 fe fc 2d 34 d5 72 60 30
       4.5961817e-09 3.4664147e-08 1.6203919e-07 8.165391e-10
000340 a1 63 6e 30 48 87 28 2e 87 9d 8c 35 46 5d 5d 36
       8.6725477e-10 3.831893e-11 1.0476659e-06 3.2985859e-06
000350 59 49 49 39 ac 66 62 39 58 c5 f9 36 4b 51 68 35
       0.00019196178 0.00021591288 7.443752e-06 8.654503e-07
000360 66 19 73 35 18 b3 36 33 a9 40 29 33 35 d2 81 34
       9.0561514e-07 4.2538062e-08 3.9407187e-08 2.4181068e-07
000370 04 d3 27 34 c5 53 fa 34 bc 23 bb 36 8a b3 47 39
       1.5629854e-07 4.662708e-07 5.5771943e-06 0.00019045002
000380 a6 8f 8f 37 fa 58 81 36 09 23 29 38 87 46 35 39
       1.711382e-05 3.854858e-06 4.032537e-05 0.00017287779
000390 40 48 6b 35 a3 1b 49 35 8f 86 cb 33 87 03 a9 34
       8.764946e-07 7.491855e-07 9.4774e-08 3.148127e-07
0003a0 e0 a5 d3 35 aa 51 c2 38 76 37 dc 38 72 0d 3d 36
       1.5769001e-06 9.265852e-05 0.00010500748 2.817102e-06
0003b0 3a 57 35 35 1d 34 dd 34 ac 34 4e 32 28 c0 49 32
       6.7554686e-07 4.1202375e-07 1.2002754e-08 1.1743431e-08
0003c0 f9 08 bc 33 db c6 98 33 cf 86 52 34 af 4a 2d 36
       8.756064e-08 7.114223e-08 1.9606817e-07 2.582248e-06
0003d0 21 78 c1 38 13 35 bb 36 64 d1 87 35 31 ac b0 37
       9.225333e-05 5.579213e-06 1.0119224e-06 2.1061018e-05
0003e0 80 f9 b2 38 58 f7 92 34 a4 16 a4 34 62 25 f3 32
       8.5341744e-05 2.7374585e-07 3.0563854e-07 2.8305923e-08
0003f0 0b 3b 00 35 da a8 c3 35 b5 61 c4 38 f5 a4 dd 38
       4.7769635e-07 1.4577774e-06 9.364208e-05 0.00010568827
