models/checkpoint_3200.pth (torch, 255274 bytes, 24 tensors)

policy_log_std f4 [7]
0.6105478 0.9823677 1.0192991 0.51307917 0.94309235 1.2321258 -2.2467358
00000000: dc4c 1c3f 737c 7b3f 6578 823f 2859 033f
00000010: 806e 713f 4cb6 9d3f 85ca 0fc0

fc1.weight f4 [128, 21]
0.75631607 0.7495729 -0.25460225 -0.4107943 -0.57453233 -0.12607947 -0.9983109 -0.5257322
0.49564847 0.07888396 -0.06883596 1.4031135 -0.22715183 -0.45877528 -0.13540271 -0.04456059
-0.73992455 -0.13823622 0.055565335 -1.3036104 0.7121987 0.70103467 -0.32506558 0.521018
0.21480127 0.0030242007 -1.7007476 -0.4802119 -0.5479558 0.5679015 -0.040789858 0.06602789
0.6687562 0.13460034 0.6329689 0.16431767 -0.030676372 0.38215232 0.42864215 -0.2413964
0.6620903 -1.9341979 0.7621581 -0.41799384 0.6808803 0.31285712 0.46624082 -0.6956763
0.32424465 0.42588744 -0.41325337 -0.115519464 0.26017871 0.6170232 0.65406823 0.78871226
-0.2073427 0.011968465 0.36032316 0.7673327 -0.8072191 0.36971697 -0.1662758 0.0924521
-0.21457924 -0.03786128 -0.48464254 -0.6132046 -0.03682388 -0.29643723 -0.97674656 0.8710782
0.11441272 -0.22579911 0.7408493 -0.6221765 -0.50908375 -0.2737851 0.14016543 0.056937553
-0.12785149 0.63470405 -0.5348247 -1.3634139 0.62781703 -0.814936 0.70167255 0.59142995
0.6478352 -0.960689 -0.24315083 0.2249965 -0.38179088 0.5907533 -0.6729158 2.8299065
0.5241222 0.4901452 0.20113231 0.30812353 -0.47446096 0.5444223 0.32229587 0.78923756
-1.9899726 -0.03764992 -0.42932457 0.21467087 0.3942673 0.2848473 -0.8400906 -0.0956879
0.6775492 0.1842918 0.10961447 0.030547827 -1.4086227 0.06441531 0.09962879 -0.7751444
-0.57914984 -0.8109852 0.22722423 -0.39867398 0.65426457 -1.3382007 -0.09109114 0.27710694
-0.6725757 0.35070637 -0.0744493 0.7202029 0.10734783 0.40993088 -0.22615792 -0.12007346
-0.09456476 -0.56458485 -0.6161154 -0.08935654 -0.12529401 0.022456776 -0.023644764 -0.4246611
0.013712688 -0.483395 1.6675988 -0.17319724 -0.4949518 0.49447003 0.20220917 -0.08567929
-0.09689536 0.38756117 -0.45734757 0.31810316 0.12388163 -0.11650002 1.5291936 1.0420041
0.5497118 0.17282286 -0.10069465 0.38884062 0.4194388 0.17793383 0.57364714 -1.0859678
-0.21009466 -1.4251771 0.2592916 0.53876626 0.23786487 0.11682805 0.4064738 0.7044499
-0.32243025 -0.16120423 0.36162698 -0.97066057 0.17973746 0.03236096 0.100246474 0.0007310641
0.16459002 0.2626066 0.3723985 1.7050937 -1.1332768 -1.0061623 0.21219793 -0.46868327
-0.80285007 -0.98111916 -0.092669986 -0.6410023 -0.1423586 0.04840667 0.0193609 0.0002069675
2.2616596 -0.22766638 -0.5232112 0.3026609 0.31214535 0.07508945 -0.45929983 1.8852832
-0.1198071 0.94068754 -1.1548715 0.98955584 -0.059651617 -0.20368157 0.18282166 0.8544132
-1.0626425 -0.20866635 -0.19833004 -0.107827336 -0.049315237 -0.005310506 0.34440187 -0.018793339
-0.014492845 -0.18594 -0.6339336 -0.1393362 1.0545485 -0.55634046 -0.41160074 0.5596173
1.154289 0.23941357 -0.57587564 -1.5425658 1.103336 0.62623703 0.5070521 -0.34125376
0.10537678 0.100161366 3.2308772 -0.0149204545 -0.07620463 0.088779375 0.40034765 0.2668653
-0.031567987 0.38528207 -0.8303858 1.3165154 -0.4520075 -0.16105978 -0.17084739 0.24538071
00000000: ee9d 413f 02e4 3f3f 3a5b 82be a153 d2be
00000010: 8d14 13bf fa1a 01be 4e91 7fbf 6396 06bf
00000020: a3c5 fd3e ea8d a13d def9 8cbd 3999 b33f
00000030: 7d9a 68be 98e4 eabe 02a7 0abe 2a85 36bd
00000040: b26b 3dbf cc8d 0dbe 7a98 633d b5dc a6bf
00000050: a752 363f 0277 333f ff6e a6be 7061 053f
00000060: ddf4 5b3e ab31 463b 19b2 d9bf 56de f5be
00000070: d546 0cbf fe61 113f 4413 27bd a139 873d
00000080: 9b33 2b3f acd4 093e 400a 223f e442 283e
00000090: 044d fbbc 78a9 c33e fc76 db3e 9e30 77be
000000a0: c07e 293f cc93 f7bf cb1c 433f 4a03 d6be
000000b0: 2c4e 2e3f cf2e a03e 1eb7 ee3e d817 32bf
000000c0: 6503 a63e eb0d da3e f295 d3be 7895 ecbd
000000d0: 2536 853e 3cf5 1d3f 0471 273f 0ce9 493f
000000e0: a551 54be 6117 443c 477c b83e ea6f 443f
000000f0: e9a5 4ebf 8b4b bd3e 3444 2abe 8757 bd3d
00000100: a9ba 5bbe 6e14 1bbd 1123 f8be fafa 1cbf
00000110: a3d4 16bd 9fc6 97be 100c 7abf fbfe 5e3f
00000120: 3751 ea3d e237 67be 4da8 3d3f f646 1fbf
00000130: 5053 02bf 902d 8cbe 8787 0f3e 5a37 693d
00000140: 80eb 02be f77b 223f 46ea 08bf 5984 aebf
00000150: 9eb8 203f a59f 50bf d0a0 333f f467 173f
00000160: 87d8 253f b7ef 75bf 88fc 78be 7c65 663e
00000170: 187a c3be 9c3b 173f 3644 2cbf 301d 3540
00000180: df2c 063f 50f4 fa3e a1f5 4d3e 5ec2 9d3e
00000190: 8cec f2be 435f 0b3f f703 a53e 790b 4a3f
000001a0: 6cb7 febf cd36 1abd 6ed0 dbbe aed2 5b3e
000001b0: 67dd c93e 81d7 913e 2d10 57bf 05f8 c3bd
000001c0: dd73 2d3f fdb6 3c3e 8d7d e03d 703f fa3c
000001d0: c04d b4bf 2dec 833d 2e0a cc3d dd6f 46bf
000001e0: 2a43 14bf ba9c 4fbf 78ad 683e ff1e ccbe
000001f0: e27d 273f 294a abbf fe8d babd f6e0 8d3e
00000200: ec2d 2cbf c98f b33e e078 98bd 385f 383f
00000210: 2ed9 db3d 76e2 d13e f195 67be 13e9 f5bd
00000220: 2bab c1bd a288 10bf bdb9 1dbf 9000 b7bd
00000230: 134d 00be 46f7 b73c aab2 c1bc 2e6d d9be
00000240: 2fab 603c 8d7f f7be e173 d53f 9e5a 31be
00000250: 536a fdbe 2d2b fd3e ec0f 4f3e a078 afbd
00000260: 1371 c6bd 6b6e c63e 7629 eabe 6bde a23e
00000270: a7b5 fd3d 9097 eebd 9ebc c33f 6460 853f
00000280: eab9 0c3f 7af8 303e ff38 cebd 1e16 c73e
00000290: afc0 d63e 4934 363e 8ada 123f fe00 8bbf
000002a0: 0e23 57be 346c b6bf dec1 843e 96ec 093f
000002b0: d992 733e 8b43 ef3d 551d d03e d456 343f
000002c0: 9415 a5be b912 25be 2c27 b93e 367d 78bf
000002d0: 190d 383e ed8c 043d 064e cd3d e2a4 3f3a
000002e0: 498a 283e 5f74 863e 04ab be3e 8340 da3f
000002f0: 370f 91bf edc9 80bf 6a4a 593e 41f7 efbe
00000300: 9587 4dbf a02a 7bbf c3c9 bdbd ba18 24bf
00000310: 74c6 11be 1346 463d c09a 9e3c 6a05 5939
00000320: 08bf 1040 6021 69be 2bf1 05bf 5ff6 9a3e
00000330: 84d1 9f3e 7fc8 993d 5929 ebbe f650 f13f
00000340: 6d5d f5bd e6d0 703f d4d2 93bf 8853 7d3f
00000350: 4155 74bd e791 50be 9a35 3b3e d3ba 5a3f
00000360: ab04 88bf a2ac 55be 0817 4bbe 94d4 dcbd
00000370: c6fe 49bd c103 aebb 7155 b03e 7df4 99bc
00000380: 6673 6dbc 0e67 3ebe 7949 22bf 26ae 0ebe
00000390: 72fb 863f 546c 0ebf 55bd d2be 1443 0f3f
000003a0: bebf 933f d528 753e 966c 13bf cc72 c5bf
000003b0: 1d3a 8d3f 1251 203f 2bce 013f d0b8 aebe
000003c0: c8cf d73d 6721 cd3d b1c6 4e40 ec74 74bc
000003d0: 2c11 9cbd f6d1 b53d 5efa cc3e 92a2 883e
000003e0: 6f4d 01bd b143 c53e 2a94 54bf 9483 a83f
000003f0: 876d e7be dbec 24be 9ef2 2ebe 1545 7b3e

fc1.bias f4 [128]
-0.48207265 0.48700166 0.60328835 -0.12651898 0.52281976 0.272765 -0.09569412 0.41053253
0.3373276 -0.31798592 -0.1878979 0.18548954 0.14681675 0.1459678 -0.6254563 -0.035277337
0.034987982 0.31656143 -0.25299996 0.172783 -0.7011583 -0.06915681 -0.3894456 0.019133227
-0.1393227 0.42843875 0.026270032 0.38044178 0.1937123 -0.17175771 0.5140047 -0.1173334
-0.093269706 0.24940014 0.5747761 0.44388533 0.5358362 0.0835308 0.22542775 0.010031143
-0.24630098 -0.09332303 0.017279884 0.16558577 0.14378333 0.04599572 -0.087191224 0.57573533
0.44731578 -0.046887163 0.21472518 0.41563165 -0.045336284 -0.57084346 0.07807161 0.28686455
-0.41506553 -0.1585974 -0.12700509 -0.5892446 -0.010393201 -0.27193144 -0.023916906 -0.40971234
0.17658183 -0.4376948 -0.23643276 -0.5718297 0.1751178 0.10542986 -0.31736648 0.1796204
0.34539407 0.31356117 -0.53988785 -0.05088773 0.3515144 -0.7067157 0.32453105 -0.34212932
0.2115574 0.10216581 0.14513904 -0.2135161 0.71037173 -0.5446205 -0.14074303 -0.27209115
-0.36300418 -0.0683766 -0.85870904 0.5337383 0.056458525 0.7322066 -0.041115955 0.6006226
-0.36587134 0.11035461 0.23305783 -0.19291438 -0.32090122 -0.6959095 -0.1889834 -0.06489609
0.039101753 0.041796293 0.3283497 -0.033600997 0.61811477 -0.11296081 -0.16142803 -0.18137142
0.619213 -0.0371997 0.2843209 -0.6439146 0.5995649 -0.37297863 0.39112875 0.15414365
-0.56698525 0.29027912 0.37720212 0.39040452 -0.29211578 0.03822566 0.31381944 0.24832124
00000000: 3ad2 f6be 4858 f93e 1b71 1a3f 318e 01be
00000010: 84d7 053f dba7 8b3e 47fb c3bd 5231 d23e
00000020: 34b6 ac3e 0dcf a2be 4f68 40be f8f0 3d3e
00000030: 2157 163e 9578 153e e71d 20bf f87e 10bd
00000040: 8f4f 0f3d 5714 a23e 3689 81be 07ee 303e
00000050: 1c7f 33bf 16a2 8dbd 6a65 c7be 49bd 9c3c
00000060: 9caa 0ebe 535c db3e 4034 d73c 44c9 c23e
00000070: 845c 463e 41e1 2fbe d095 033f 7e4c f0bd
00000080: 3004 bfbd c062 7f3e 8724 133f f044 e33e
00000090: 902c 093f 3212 ab3d 88d6 663e aa59 243c
000000a0: 5336 7cbe 2520 bfbd 8b8e 8d3c 518f 293e
000000b0: f03b 133e 0266 3c3d 5091 b2bd 6463 133f
000000c0: 9306 e53e c10c 40bd ebe0 5b3e accd d43e
000000d0: 8ab2 39bd cc22 12bf 02e4 9f3d e9df 923e
000000e0: 7883 d4be 5b67 22be 9f0d 02be bcd8 16bf
000000f0: 3f48 2abc 993a 8bbe 63ed c3bc d1c5 d1be
00000100: ded1 343e 8819 e0be 6e1b 72be 6e63 12bf
00000110: 1552 333e 9ceb d73d dc7d a2be 69ee 373e
00000120: 7ed7 b03e 178b a03e 1736 0abf a76f 50bd
00000130: b2f9 b33e 52eb 34bf ef28 a63e 932b afbe
00000140: 81a2 583e 4f3c d13d 549f 143e f7a3 5abe
00000150: ecda 353f 406c 0bbf f11e 10be 884f 8bbe
00000160: afdb b9be 0809 8cbd 5bd4 5bbf 13a3 083f
00000170: 0e41 673d e471 3b3f 3469 28bd 67c2 193f
00000180: 7d53 bbbe 9901 e23d b6a6 6e3e 598b 45be
00000190: 2a4d a4be 2027 32bf dd84 41be 3ee8 84bd
000001a0: 2929 203d 9732 2b3d 741d a83e 33a1 09bd
000001b0: c53c 1e3f ff57 e7bd 644d 25be 6eb9 39be
000001c0: be84 1e3f b65e 18bd 8292 913e 96d7 24bf
000001d0: 167d 193f 0ef7 bebe 0742 c83e d5d7 1d3e
000001e0: f225 11bf 779f 943e a320 c13e 1ae3 c73e
000001f0: 3390 95be 8292 1c3d f1ac a03e ec47 7e3e

fc2.weight f4 [128, 128]
0.3553122 -0.2082328 -0.45573872 0.26768443 0.09924994 -0.49163648 -0.23599118 0.76091456
-0.29427928 1.1189144 0.84608036 0.060140435 -0.21420996 0.5884341 0.6856635 -0.14862016
-0.007239049 -0.14725648 0.18717168 0.37323835 0.07980934 0.68646365 -0.28451252 -1.7299072
-0.13499771 0.010921014 -0.6455575 -0.9764737 -0.21453209 0.33223757 1.885651 0.7465587
0.233994 0.17383744 -0.69085807 -0.1004473 -0.020260118 0.20478721 -0.8073344 -0.15727185
-0.8828785 -0.06913235 0.642752 0.010253548 0.25938272 -0.23437998 0.8215837 -0.6922076
-0.50400037 0.5418549 -0.05993315 -0.5990756 -0.5249578 -1.2578081 -0.10611148 -0.24947847
0.024298767 -0.07424465 0.27940384 -0.26316175 -0.7529132 0.15451406 0.12785594 -0.023493992
0.5626606 -0.9057991 0.510711 -1.4288751 0.1398473 -0.24148676 0.0005743209 0.04981781
-0.4202337 -0.6165999 1.8921686 -0.006291723 -0.048653398 0.3779562 -0.5840063 0.047958206
-0.055161633 -0.08306471 0.6968202 0.89747775 -0.73416495 0.68626064 -0.33601975 -0.63781464
0.1189657 0.13547955 0.72784185 -0.93770444 -0.12014765 -0.088741176 0.24562383 -0.23696053
-0.25304893 -0.28088862 -0.3292778 0.0038164414 0.5061186 0.24253514 -0.24562204 0.166847
-0.11035138 0.54253805 -0.4929192 0.35015553 0.12134606 -0.28865832 0.22210881 0.30758882
0.052065022 0.5230573 -1.155955 -0.22126994 -0.06440684 -0.09298622 1.7664536 0.059848055
0.4997603 0.74525505 -0.37159428 -0.70162344 0.56686306 0.28305012 -0.65113884 -0.050227452
-0.36776447 1.2604797 -0.7629106 -0.15012856 0.56912386 -0.40805942 0.033619348 -0.046931446
0.21633421 -0.27951005 0.24141443 0.3820008 0.68361473 -0.06186827 1.4397395 -0.94642043
0.56445074 -0.33830237 -0.34122762 1.2791373 -0.13274223 -0.246469 -0.52851015 -0.21631376
-0.54978913 -0.17536908 -0.39866745 -0.22583966 -0.35330895 -0.191174 -0.10034928 -0.035213526
1.0860922 -0.038983185 -0.6691443 0.2348114 -0.7086599 -0.2599022 0.03718595 0.31386182
-0.3433339 0.60402405 0.43415737 0.40956616 0.5903456 -0.3753017 0.46732786 -1.219347
-0.3549462 -0.4665487 1.4042965 -0.42234573 -0.7000035 0.42622617 0.37828887 -1.335526
0.28660014 -0.0419725 -0.2664735 0.34834072 -0.9705557 -0.06678479 -0.15093002 -0.52085626
0.1077788 -0.25687274 -0.06391339 -0.2703276 0.17440574 -0.0410671 -0.48583755 0.0761284
-0.4504653 -1.2542665 -0.10412269 -0.17740735 0.09173917 0.9413455 0.12859786 -1.5305699
-0.06562794 -0.025841776 0.5381099 0.017811198 -1.1281347 -0.041852407 -0.49127772 -0.07820195
-0.0817533 -0.39413622 0.65286285 -1.2018105 0.2720085 -0.8472296 0.40337336 0.2704333
-0.16814126 -0.9466329 0.27542302 -0.6555752 0.20075187 0.9072102 -0.13984415 -0.027546542
-0.0039552394 0.30284894 -0.6658119 0.772995 -0.14679012 0.44611493 -0.4718079 -0.009568874
-0.37224025 0.64412576 0.23079354 0.3999546 0.18617909 -0.29379746 0.49111587 0.0758372
0.37056816 0.8320615 -0.0519492 1.1558778 0.72966164 0.9380212 -0.074722685 0.018131474
00000000: 7beb b53e fb3a 55be 9656 e9be ef0d 893e
00000010: 8d43 cb3d c7b7 fbbe aca7 71be 4ccb 423f
00000020: c6ab 96be 9638 8f3f b998 583f d155 763d
00000030: db59 5bbe 9ea3 163f a587 2f3f e22f 18be
00000040: 8b35 edbb 67ca 16be efa9 3f3e 1919 bf3e
00000050: 1473 a33d 15bc 2f3f a0ab 91be 996d ddbf
00000060: d73c 0abe 0dee 323c 4243 25bf 2efa 79bf
00000070: 4dae 5bbe 0b1b aa3e 035d f13f 791e 3f3f
00000080: 209c 6f3e 7102 323e 13dc 30bf 50b7 cdbd
00000090: 8cf8 a5bc bdb3 513e 78ad 4ebf df0b 21be
000000a0: 5304 62bf 4395 8dbd 658b 243f 7ffe 273c
000000b0: d0cd 843e 4e01 70be 4f53 523f 8434 31bf
000000c0: 2b06 01bf 01b7 0a3f 767c 75bd 055d 19bf
000000d0: a263 06bf dbff a0bf fa50 d9bd 4977 7fbe
000000e0: 350e c73c 940d 98bd 050e 8f3e 23bd 86be
000000f0: ebbe 40bf ef38 1e3e abec 023e 7976 c0bc
00000100: 860a 103f 73e2 67bf f5bd 023f 61e5 b6bf
00000110: 2134 0f3e 4e48 77be 068e 163a c30d 4c3d
00000120: df28 d7be 7ed9 1dbf 9532 f23f cc2a cebb
00000130: c948 47bd 7a83 c13e 7081 15bf d36f 443d
00000140: 2af1 61bd d51d aabd cf62 323f 1ac1 653f
00000150: 3cf2 3bbf c7ae 2f3f c80a acbe d247 23bf
00000160: 4aa4 f33d 27bb 0a3e d853 3a3f 660d 70bf
00000170: f90f f6bd efbd b5bd d084 7b3e c8a5 72be
00000180: a18f 81be a2d0 8fbe 1a97 a8be 431d 7a3b
00000190: fd90 013f 225b 783e 5884 7bbe f1d9 2a3e
000001a0: e8ff e1bd c6e3 0a3f e85f fcbe 9647 b33e
000001b0: 4884 f83d 06cb 93be 7e70 633e 487c 9d3e
000001c0: 2242 553d 15e7 053f 55f6 93bf 9694 62be
000001d0: bce7 83bd 8f6f bebd 271b e23f 3c23 753d
000001e0: 95e0 ff3e 09c9 3e3f 9b41 bebe 989d 33bf
000001f0: f01d 113f f2eb 903e 09b1 26bf 4dbb 4dbd
00000200: a04b bcbe 6657 a13f 1c4e 43bf 4dbb 19be
00000210: 1ab2 113f 2aed d0be 71b4 093d 303b 40bd
00000220: b786 5d3e f11b 8fbe 5835 773e 9c95 c33e
00000230: 6001 2f3f 9569 7dbd 6249 b83f 9c48 72bf
00000240: d87f 103f f835 adbe 63b5 aebe c5ba a33f
00000250: 94ed 07be 5f62 7cbe 714c 07bf 5b81 5dbe
00000260: fbbe 0cbf f493 33be 241e ccbe 8342 67be
00000270: e9e4 b4be 1ec3 43be ec83 cdbd 0f3c 10bd
00000280: 1205 8b3f d5ac 1fbd 0a4d 2bbf 6672 703e
00000290: bc6a 35bf e711 85be 4b50 183d 7fb2 a03e
000002a0: 76c9 afbe 52a1 1a3f e049 de3e a8b2 d13e
000002b0: e420 173f 8b27 c0be 9945 ef3e 9013 9cbf
000002c0: 82bb b5be 79df eebe fdbf b33f b33d d8be
000002d0: 6e33 33bf 513a da3e 14af c13e 84f2 aabf
000002e0: 41bd 923e 5beb 2bbd 376f 88be b759 b23e
000002f0: 5776 78bf 77c6 88bd 668d 1abe d656 05bf
00000300: 22bb dc3d d384 83be 06e5 82bd 6168 8abe
00000310: 6b97 323e fa35 28bd b3bf f8be 35e9 9b3d
00000320: 63a3 e6be ce8b a0bf 473e d5bd 46aa 35be
00000330: bfe1 bb3d 05fc 703f 28af 033e b7e9 c3bf
00000340: f167 86bd 22b2 d3bc 92c1 093f cae8 913c
00000350: b866 90bf 6e6d 2bbd c188 fbbe 5828 a0bd
00000360: 466e a7bd 39cc c9be 0522 273f edd4 99bf
00000370: b344 8b3e 0ae4 58bf f486 ce3e 3c76 8a3e
00000380: 392d 2cbe 8956 72bf 3f04 8d3e c7d3 27bf
00000390: e691 4d3e ed3e 683f 4e33 0fbe 49a9 e1bc
000003a0: f49a 81bb 040f 9b3e a672 2abf 00e3 453f
000003b0: 2650 16be 2d69 e43e ce90 f1be c4c6 1cbc
000003c0: 4696 bebe 6de5 243f 2455 6c3e d9c6 cc3e
000003d0: bba5 3e3e 9f6c 96be 8a73 fb3e 8950 9b3d
000003e0: 1cbb bd3e fc01 553f afc8 54bd cef3 933f
000003f0: 1bcb 3a3f 2822 703f 3508 99bd 7588 943c

fc2.bias f4 [128]
-0.4594867 0.12783304 0.12916635 -0.41230077 -0.07450569 -0.32160443 0.57207 -0.34181982
-0.28659236 0.3856698 0.40844062 0.6592313 -0.15208457 0.013555185 0.53548694 0.007628002
-0.0019345244 0.30389443 0.18339746 0.14435548 0.024886187 -0.12682714 0.24631287 -0.5103648
-0.30375215 0.019789433 0.116913565 -0.04890538 0.5692516 0.07568443 -0.17471962 -0.41686714
0.38196307 0.7900431 0.41921753 0.37313923 -0.37856644 -0.3480488 -0.37989002 0.5950382
0.17816442 -0.52382493 -0.4848547 -0.14077064 -0.11032021 0.13039441 0.33168906 -0.23280361
-0.12645842 0.28244478 -0.12142771 0.15879597 -0.20836747 -0.53139836 0.16759825 -0.20380862
-0.17604584 -0.34620768 -0.16980505 -0.25985596 0.044385955 0.35664555 -0.27382213 0.008342505
0.5945962 -0.4095744 0.3701984 0.10417311 0.06598789 0.24351925 0.27156356 0.13528025
0.38931206 -0.095804445 0.102868475 -0.091488786 -0.22118957 -0.1677525 0.08866688 -0.014910804
-0.21825317 0.38243634 -0.037184346 -0.3942229 -0.038383674 0.16161652 -0.042152382 -0.04339684
-0.1680519 -0.10587972 0.013515069 0.230687 -0.22671555 0.14642163 0.21808623 0.2468727
-0.09170813 -0.56774247 -0.024219267 -0.10909098 0.1793349 -0.036257416 0.07613318 -0.053303972
-0.53568876 -0.1571198 0.088219315 0.4113333 0.2781766 0.27690732 -0.24491133 0.31818864
-0.20329273 0.026749868 -0.3800201 -0.0042879893 -0.14125934 0.14702547 -0.2209375 0.39738053
-0.119686656 -0.2743491 -0.59296244 0.07640452 -0.2923462 -0.17924361 -0.3948328 0.090077505
00000000: d741 ebbe aae6 023e 2f44 043e 1619 d3be
00000010: 7096 98bd 56a9 a4be 2e73 123f 0203 afbe
00000020: 3cbc 92be 8376 c53e 211f d13e 62c3 283f
00000030: 0fbc 1bbe 9116 5e3c ac15 093f 52f4 f93b
00000040: de8f fdba 0d98 9b3e 8bcc 3b3e ecd1 133e
00000050: 1ede cb3c f9de 01be 7139 7c3e 44a7 02bf
00000060: 6785 9bbe 731d a23c 6170 ef3d 0251 48bd
00000070: 79ba 113f 7000 9b3d b3e9 32be 9c6f d5be
00000080: aa90 c33e 4440 4a3f aea3 d63e 1b0c bf3e
00000090: 76d3 c1be 7433 b2be f280 c2be 6c54 183f
000000a0: bc70 363e 6419 06bf e03e f8be 2e26 10be
000000b0: 90ef e1bd 1d86 053e 26d3 a93e 1264 6ebe
000000c0: 517e 01be 9a9c 903e 17af f8bd 699b 223e
000000d0: 485e 55be b909 08bf e09e 2b3e 35b3 50be
000000e0: 5c45 34be 2242 b1be 60e1 2dbe d70b 85be
000000f0: 0cce 353d 3f9a b63e 6a32 8cbe 01af 083c
00000100: 7537 183f bcb3 d1be a58a bd3e b658 d53d
00000110: a924 873d 1c5d 793e 610a 8b3e e886 0a3e
00000120: e953 c73e 1f35 c4bd b5ac d23d 795e bbbd
00000130: 857f 62be 50c7 2bbe fb96 b53d 724c 74bc
00000140: c27d 5fbe b2ce c33e 9d4e 18bd 95d7 c9be
00000150: 3338 1dbd cd7e 253e faa7 2cbd e3c0 31bd
00000160: cc15 2cbe 77d7 d8bd 4f6e 5d3c 3739 6c3e
00000170: 1f28 68be 8def 153e ff51 5f3e 32cc 7c3e
00000180: 79d1 bbbd 9257 11bf 7c67 c6bc 176b dfbd
00000190: 91a3 373e a882 14bd b6eb 9b3d 4455 5abd
000001a0: e622 09bf 03e4 20be 54ac b43d 479a d23e
000001b0: 2a6d 8e3e ccc6 8d3e 09ca 7abe 9fe9 a23e
000001c0: f82b 50be 8a22 db3c ff91 c2be 4382 8cbb
000001d0: 4aa6 10be d88d 163e 713d 62be 7675 cb3e
000001e0: 471e f5bd 7c77 8cbe 63cc 17bf f979 9c3d
000001f0: 67ae 95be a38b 37be 8627 cabe 8e7a b83d

policy_mean.weight f4 [7, 128]
0.22103874 0.09080249 -0.014268776 0.008475217 -0.0040111635 -0.00013363369 -0.21144736 0.01760453
-0.061313935 0.09851228 0.0025843848 -0.040169153 -0.004845324 -0.05371244 0.00941112 -0.12026143
-0.008293967 0.027028846 0.00928778 -0.07503436 -0.032808457 0.030544477 -0.047617827 -0.019280372
-0.012123458 0.028346237 -0.11923896 -0.122123696 -0.07820081 -0.0033179217 -0.07161478 0.027673265
-0.051166143 0.024165696 -0.03639294 0.061704453 -0.04136088 0.11912266 -0.02289365 0.024471233
0.03812207 0.08229522 -0.024679152 0.076064065 0.019675171 -0.13279493 0.06079226 0.10472101
-0.024565639 0.07423127 0.04608982 -0.016203217 0.003020991 0.009429273 -0.051799856 0.015797831
-0.11756853 0.018880248 -0.07138047 0.06849485 -0.07009854 -0.01658166 0.07267697 0.0016377288
-0.0068281027 -0.01775997 -0.13246465 0.013263763 0.0991883 -0.10885792 -0.012861781 -0.09015894
-0.014416055 -0.089605734 -0.071647234 0.050287616 -0.022094162 0.02099269 -0.10258447 0.08003261
-0.027026255 0.0214494 -0.001318956 0.10410785 0.08882485 -0.025935926 0.06320983 -0.026985468
0.08887623 0.0027348106 0.097977266 0.09480127 0.06858097 0.0018666983 0.13373378 0.06264221
-0.023302065 0.10376567 -0.06503194 0.165859 0.026741378 -0.1666362 0.08924841 0.0064847604
-0.03455414 0.042558964 0.20453583 -0.09869293 -0.014295115 -0.040533755 -0.08675238 0.008027081
-0.066650026 0.058509707 -0.077412404 -0.10959194 0.10350371 0.15051916 0.1339623 0.07994007
0.054421794 0.029053453 -0.020354455 0.06361074 0.10510874 -0.039482277 0.045051184 -0.08515615
0.06146766 -0.1651546 0.21760379 0.15120193 0.025683975 0.13224642 -0.18613078 -0.08601652
0.14653614 -0.08615548 -0.14999345 0.05340906 0.39575467 0.061362784 -0.29469037 -0.06240678
-0.1277557 -0.09962047 0.01775589 0.104958914 0.18774639 -0.09140951 0.08808338 0.17302042
-0.05057593 0.23642786 -0.07078073 0.14438036 0.046769384 -0.045707736 0.12080491 0.0692373
-0.05501699 0.025291564 0.08240386 0.031565957 -0.024580821 -0.044100564 0.0004945407 0.02928595
0.20191178 -0.017611714 0.09784987 -0.03497754 0.014929368 0.111008875 0.006262944 0.2485572
0.0017331154 0.0497369 0.048235454 -0.032316275 0.14836808 0.1960533 0.055115037 -0.031049442
0.03160496 0.0824228 0.18372343 0.06732619 -0.08813042 -0.03380891 0.16881177 0.058078207
-0.0169657 0.14101173 0.02810551 -0.047288008 0.21465153 0.020212447 0.0035429038 0.0677275
0.0022792928 -0.1503047 -0.026827985 -0.035899837 -0.030123128 -0.06038733 0.019904852 0.0052354964
-0.322969 0.038818486 0.015374461 -0.022192312 0.042725503 -0.15162691 0.12848884 -0.01974216
0.2240076 0.002918959 -0.12863089 -0.09669482 0.083769195 0.03543221 -0.007952877 0.032247156
-0.046468083 -0.14125572 0.13961788 -0.05425877 -0.11630586 0.03144681 0.11360092 0.05073117
0.077732995 -0.23646997 -0.15278265 0.021308774 -0.0018953109 -0.058341306 0.05473375 0.10622197
-0.022769747 -0.08455503 -0.016899643 0.11278132 -0.1012141 -0.22206637 -0.014459269 0.26801494
0.13688259 0.08469102 0.04966866 -0.00544149 0.1802627 0.085925624 0.09918479 -0.10301516
00000000: fb57 623e a8f6 b93d 96c7 69bc a3db 0a3c
00000010: 1470 83bb 0520 0cb9 a885 58be 6037 903c
00000020: 5224 7bbd cec0 c93d c85e 293b 6988 24bd
00000030: 86c5 9ebb 9301 5cbd 1931 1a3c a04b f6bd
00000040: 6be3 07bc 996b dd3c c62b 183c 9dab 99bd
00000050: 2962 06bd 6938 fa3c e90a 43bd dff1 9dbc
00000060: 78a1 46bc 5e36 e83c 8e33 f4bd fd1b fabd
00000070: bf27 a0bd 7d71 59bb c5aa 92bd 0bb3 e23c
00000080: 9793 51bd 23f7 c53c c310 15bd cfbd 7c3d
00000090: 076a 29bd 95f6 f33d 778b bbbc e577 c83c
000000a0: e325 1c3d 658a a83d ef2b cabc 7ac7 9b3d
000000b0: d32d a13c 65fb 07be 4e01 793d f877 d63d
000000c0: e13d c9bc 9006 983d aec8 3c3d 9cbc 84bc
000000d0: d2fb 453b 3d7d 1a3c 162c 54bd 746a 813c
000000e0: c5c7 f0bd c0aa 9a3c ed2f 92bd 0747 8c3d
000000f0: d38f 8fbd 43d6 87bc aad7 943d 0fa9 d63a
00000100: 47be dfbb 5b7d 91bc d0a4 07be 4150 593c
00000110: 3c23 cb3d e7f0 debd 38ba 52bc 40a5 b8bd
00000120: 5131 6cbc 3683 b7bd c9bb 92bd 63fa 4d3d
00000130: d1fe b4bc ddf8 ab3c ce17 d2bd 23e8 a33d
00000140: 2a66 ddbc a7b6 af3c d2e0 acba 7f36 d53d
00000150: cee9 b53d 9477 d4bc 2874 813d a110 ddbc
00000160: be04 b63d 823a 333b 4ea8 c83d 2b27 c23d
00000170: 2e74 8c3d 00ac f43a 82f1 083e 8f4a 803d
00000180: f9e3 bebc 1883 d43d 772f 85bd f1d6 293e
00000190: bc10 db3c aea2 2abe dfc7 b63d 1d7e d43b
000001a0: a488 0dbd 4f52 2e3d d771 513e 851f cabd
000001b0: 0f36 6abc b906 26bd 3bab b1bd 0584 033c
000001c0: cf7f 88bd e0a7 6f3d 658a 9ebd bd71 e0bd
000001d0: c1f9 d33d b221 1a3e 6a2d 093e 9fb7 a33d
000001e0: 63e9 5e3d 8201 ee3c 63be a6bc 5946 823d
000001f0: 4043 d73d 2bb8 21bd 9787 383d 5966 aebd
00000200: 83c5 7b3d 4a1e 29be 87d3 5e3e aed4 1a3e
00000210: 3367 d23c 9b6b 073e 1199 3ebe 6e29 b0bd
00000220: 920d 163e 4972 b0bd e297 19be 75c3 5a3d
00000230: 5ba0 ca3e 8b57 7b3d a8e1 96be 409e 7fbd
00000240: 64d2 02be d105 ccbd cd74 913c b3f4 d63d
00000250: 9740 403e e934 bbbd 0f65 b43d 442c 313e
00000260: b528 4fbd 251a 723e 7df5 90bd 72d8 133e
00000270: 4191 3f3d 0938 3bbd 9168 f73d 49cc 8d3d
00000280: 7f59 61bd 4130 cf3c 5bc3 a83d 4e4b 013d
00000290: b85d c9bc cba2 34bd 11a4 013a 17e9 ef3c
000002a0: f6c1 4e3e 7146 90bc 8365 c83d 9c44 0fbd
000002b0: 4f9a 743c 9f58 e33d 6239 cd3b c785 7e3e
000002c0: b429 e33a ebb8 4b3d 8a92 453d 125e 04bd
000002d0: cded 173e 32c2 483e 4ec0 613d 665b febc
000002e0: 3474 013d 49cd a83d ff21 3c3e 50e2 893d
000002f0: b97d b4bd 367b 0abd fedc 2c3e 6ae3 6d3d
00000300: a7fb 8abc 6165 103e 873d e63c 12b1 41bd
00000310: 9ccd 5b3e 9394 a53c 1030 683b b7b4 8a3d
00000320: 3060 153b 7ae9 19be 5dc6 dbbc b50b 13bd
00000330: c7c4 f6bc b458 77bd 800f a33c 878e ab3b
00000340: 315c a5be 2200 1f3d 2ae5 7b3c a7cc b5bc
00000350: f000 2f3d 1644 1bbe 9492 033e 4fba a1bc
00000360: 4062 653e 014c 3f3b d1b7 03be ef07 c6bd
00000370: 2f8f ab3d 5d21 113d c94c 02bc 9815 043d
00000380: 5155 3ebd 57a5 10be fdf7 0e3e 723e 5ebd
00000390: c431 eebd 5fce 003d 99a7 e83d 7dcb 4f3d
000003a0: 7a32 9f3d 2f25 72be 0e73 1cbe bd8f ae3c
000003b0: 156c f8ba 4bf7 6ebd 7f30 603d e78a d93d
000003c0: 9f87 babc 302b adbd 1f71 8abc e5f9 e63d
000003d0: 5749 cfbd 5e65 63be 92e6 6cbc 4139 893e
000003e0: f32a 0c3e 7c72 ad3d 5d71 4b3d 874e b2bb
000003f0: c996 383e c6f9 af3d 6521 cb3d 9df9 d2bd

policy_mean.bias f4 [7]
-0.08775825 -0.070110545 0.08206878 0.027543345 -0.12119824 -0.03754963 -0.017200757
00000000: 99ba b3bd 1e96 8fbd ad13 a83d 95a2 e13c
00000010: c836 f8bd a4cd 19bd 9ae8 8cbc

value_head.weight f4 [1, 128]
-9.071826 9.249696 -10.038038 9.095497 9.056002 9.260666 9.504978 10.984876
8.673499 -8.680358 -8.744461 -9.344015 7.8625855 -8.5559025 7.6473856 8.968598
7.4340587 -8.045569 -6.3934283 -9.680796 9.360553 -8.1605425 -8.811726 8.4758415
9.580414 8.255049 -8.2494955 8.665653 -10.562588 -8.681765 8.9191475 8.916967
8.745455 -9.35734 -9.53886 8.665144 9.393094 9.486782 -8.568699 -8.89082
8.827994 9.769913 9.035547 -8.012466 7.5404334 -11.5491905 -9.308011 -8.146798
8.624048 8.413505 8.306219 -9.174389 8.54644 8.319945 8.694408 9.569157
8.8638935 9.620973 8.030395 9.160288 -8.994296 -9.095116 9.234543 -8.834302
8.773735 8.529529 -9.361872 -8.883847 -6.352435 -9.26182 -9.169449 -10.068914
9.771656 -8.539198 -9.240677 8.849262 10.305216 7.5400352 -8.616431 8.810506
-7.9066133 -8.856577 -8.778885 7.940793 -8.550925 9.289459 -9.79741 7.482429
-7.8675995 8.46546 9.0610695 -8.715748 -6.8253517 9.738199 -7.245502 8.9887085
9.635489 7.2195644 7.0001903 -9.2745495 9.732613 -9.388359 -10.258618 7.1337576
9.255464 8.625198 9.678963 -9.4191475 -8.88225 -10.084431 8.090755 8.740452
-9.330767 9.020375 8.562305 -8.621916 8.840887 9.786926 -9.123275 -8.87943
-9.329008 8.771132 7.687235 -8.939764 8.571768 9.079011 7.920153 -9.022132
00000000: 3326 11c1 c1fe 1341 ce9b 20c1 2887 1141
00000010: 62e5 1041 b02b 1441 6414 1841 0dc2 2f41
00000020: a7c6 0a41 bfe2 0ac1 50e9 0bc1 1681 15c1
00000030: 4d9a fb40 fae4 08c1 62b7 f440 617f 0f41
00000040: cfe3 ed40 a7ba 00c1 f796 ccc0 8ae4 1ac1
00000050: d3c4 1541 9591 02c1 d4fc 0cc1 0c9d 0741
00000060: 6049 1941 ae14 0441 effd 03c1 84a6 0a41
00000070: 5c00 29c1 82e8 0ac1 d4b4 0e41 e6ab 0e41
00000080: 62ed 0b41 aab7 15c1 2c9f 18c1 6ea4 0a41
00000090: 1d4a 1641 dcc9 1741 6419 09c1 cc40 0ec1
000000a0: 773f 0d41 9051 1c41 9a91 1041 1033 00c1
000000b0: 3b4b f140 7cc9 38c1 9ded 14c1 4959 02c1
000000c0: 1afc 0941 b79d 0641 46e6 0441 4cca 12c1
000000d0: 38be 0841 7f1e 0541 4c1c 0b41 441b 1941
000000e0: 82d2 0d41 81ef 1941 7f7c 0041 8a90 1241
000000f0: a3e8 0fc1 9885 11c1 b0c0 1341 4d59 0dc1
00000100: 3861 0c41 f378 0841 3aca 15c1 3d24 0ec1
00000110: 2647 cbc0 6a30 14c1 10b6 12c1 461a 21c1
00000120: b458 1c41 8ea0 08c1 d0d9 13c1 9496 0d41
00000130: 2ae2 2441 f847 f140 e7dc 09c1 d5f7 0c41
00000140: fa02 fdc0 8ab4 0dc1 5076 0cc1 fa1a fe40
00000150: 97d0 08c1 a0a1 1441 31c2 1cc1 0f70 ef40
00000160: 60c3 fbc0 8672 0741 24fa 1041 b473 0bc1
00000170: 4869 dac0 aacf 1b41 27db e7c0 c0d1 0f41
00000180: f72a 1a41 ac06 e740 8f01 e040 8e64 14c1
00000190: c8b8 1b41 b836 16c1 4d23 24c1 be47 e440
000001a0: 6116 1441 d000 0a41 08dd 1a41 d4b4 16c1
000001b0: b21d 0ec1 d459 21c1 bc73 0141 e4d8 0b41
000001c0: d24a 15c1 7553 1041 34ff 0841 5ef3 09c1
000001d0: 4674 0d41 4097 1c41 eff8 11c1 2512 0ec1
000001e0: 9e43 15c1 8f56 0c41 d4fd f540 4609 0fc1
000001f0: f625 0941 a143 1141 e571 fd40 a75a 10c1

exp_avg f4 [7]
-7.8883924e-05 0.000333461 8.8180226e-05 0.00087779784 0.0009357285 -0.00034053004 0.0007356234
00000000: 7c6e a5b8 61d4 ae39 66ed b838 041c 663a
00000010: ad4b 753a 2b89 b2b9 dad6 403a

exp_avg_sq f4 [7]
1.6069844e-05 1.7822564e-05 1.687058e-05 2.1185591e-05 2.057204e-05 2.0470685e-05 2.1494596e-05
00000000: bacd 8637 aa81 9537 4b85 8d37 b6b7 b137
00000010: 1f92 ac37 76b8 ab37 4b4f b437

exp_avg f4 [128, 21]
-0.000107846376 -0.00022633129 -0.0007778383 -0.0007919244 -0.00037291387 -0.00014182522 5.036105e-05 1.8373258e-06
1.2144956e-06 -6.220674e-06 6.022039e-06 1.6055583e-05 -0.00010375329 -0.0007845743 2.8140537e-05 0.00010409566
8.214199e-05 -0.00085907435 0.00012390202 0.00012257799 -6.7359874e-06 4.5082856e-05 0.00011888883 0.0002971307
0.0003349515 9.1635055e-05 2.5741168e-05 -4.8606867e-05 6.2025475e-07 -2.1608491e-06 7.4981044e-06 -7.66231e-06
-1.4806882e-05 3.7776746e-05 0.00031563698 -0.000111883295 -0.00010529091 -7.957392e-05 0.00040710703 -5.9889735e-05
-8.11121e-05 1.8506496e-05 -4.6796704e-06 -1.2483662e-05 -3.4832836e-05 -3.8677354e-05 -9.7730335e-06 -2.6845566e-06
5.7393827e-06 -4.653685e-08 1.9339932e-07 -7.384123e-07 5.5861557e-07 1.6383791e-06 -4.5810716e-06 -3.6035133e-05
1.1716647e-05 9.782485e-06 6.656962e-06 -4.6344736e-05 6.3180487e-06 7.902591e-06 -1.2022682e-06 3.8351747e-05
8.0630976e-05 0.00041737742 0.00044049034 9.384508e-05 -7.2297826e-07 -1.3378706e-05 4.5439538e-06 -4.8507623e-06
6.7186807e-06 -6.991724e-06 -4.8276383e-06 2.6345402e-05 0.00041133226 2.3666036e-05 -2.353564e-05 8.296074e-05
0.0004530173 -4.3179385e-05 -5.4285596e-05 -6.045167e-06 9.374087e-06 2.0676733e-05 7.820858e-05 8.798169e-05
1.3381776e-05 2.0797625e-06 -3.6655624e-06 1.7369172e-07 -2.8635296e-07 8.7020794e-07 -3.4148925e-07 -1.8419498e-06
9.498664e-06 8.091327e-05 -1.5496213e-05 -1.3493255e-05 -1.1718566e-05 9.8094344e-05 -1.1216038e-05 -1.1178067e-05
2.704672e-06 0.00021280108 0.00023483882 0.0013998974 0.0014225275 0.00047404232 0.00030174947 6.214299e-05
-9.8851215e-06 7.664667e-06 3.0456156e-06 6.7047167e-06 1.2183442e-05 0.00017193242 0.0013851605 0.00024176705
5.8644448e-05 0.00013806953 0.0013481459 -0.00020061764 -6.29064e-05 -1.4736249e-05 0.00010380991 0.00031211422
0.00012878682 0.00010209943 0.0005354347 7.496033e-05 -0.00025105395 -1.8421734e-06 -4.4899657e-06 -2.1117994e-06
1.9149224e-06 -4.3930155e-05 6.1952385e-05 0.00017381061 -0.00033702093 -0.000403561 -0.00046199292 0.00032265345
-0.00014774002 -0.0002501617 4.502359e-05 -1.967341e-05 -4.9057053e-05 -0.00019599765 -0.00020027894 -7.178078e-05
-2.1506636e-05 1.31457155e-05 -8.4856985e-08 7.0691596e-07 1.3697473e-07 -1.3136429e-06 2.610666e-06 -2.9780278e-05
-0.00019618156 2.2339757e-06 8.005346e-06 2.9912586e-05 -0.00021006119 2.2284079e-05 1.927678e-05 -1.8395411e-07
0.00025885453 0.0005290408 0.0020663782 0.0021420587 0.0007690562 0.00027693488 -0.000105254134 -2.2952024e-06
-3.0241865e-06 6.403132e-06 -5.9726503e-06 -3.3893262e-05 0.00028085 0.0020711988 -8.494042e-05 -0.00021993274
-0.00023076417 0.0022807107 -0.00029274778 -0.00024819077 4.8209877e-06 -3.6716817e-06 -1.2292369e-05 -4.2011296e-05
-4.7767015e-05 -1.05859335e-05 -1.2183223e-06 9.249966e-06 -4.4419284e-08 1.5489998e-07 -5.752944e-07 7.2193274e-08
7.585064e-07 -6.7170754e-06 -4.3843596e-05 1.0777407e-05 4.343066e-06 6.3129673e-06 -5.3485674e-05 4.4301883e-06
5.575295e-06 -1.8323066e-06 0.0001751477 0.0004397001 0.0022039441 0.0024272809 0.00046146652 0.00013380534
0.00010776197 5.6244407e-06 -7.764315e-06 2.0628365e-06 6.378656e-06 -4.0171384e-05 0.00024326268 0.0022817804
-0.00015420534 -0.00015025347 2.518754e-05 0.0026143303 -0.0002153191 -0.0001964373 7.7836106e-05 0.00016725235
8.9161535e-05 -0.0002647181 -0.00029660144 0.0001977432 0.000120348566 -5.233429e-05 1.2420787e-05 -1.5743663e-05
2.6939895e-05 -5.527371e-05 -5.8347134e-05 -0.00023461373 -0.00024314882 -0.00022418407 -0.00049869245 0.00043961115
-0.00010859595 -0.00022559948 -0.00032377508 2.156894e-05 0.0002247758 0.00056601665 -0.0009071016 -0.0009542045
00000000: 952b e2b8 5853 6db9 d8e7 4bba 2699 4fba
00000010: a783 c3b9 ebb6 14b9 c43a 5338 099a f635
00000020: c001 a335 2fbb d0b6 ec10 ca36 1aaf 8637
00000030: 2096 d9b8 e4ab 4dba 580f ec37 ef4d da38
00000040: a543 ac38 8133 61ba b2eb 0139 4788 0039
00000050: b105 e2b6 5917 3d38 f453 f938 35c8 9b39
00000060: 6e9c af39 322c c038 bdee d737 3adf 4bb8
00000070: 957f 2635 1b03 11b6 3a98 fb36 5f8d 00b7
00000080: 136b 78b7 7972 1e38 147c a539 e3a2 eab8
00000090: a0cf dcb8 ece0 a6b8 fb70 d539 1d32 7bb8
000000a0: ba1a aab8 663e 9b37 1006 9db6 ec70 51b7
000000b0: 7919 12b8 7e39 22b8 dcf6 23b7 5528 34b6
000000c0: ec94 c036 cfdf 47b3 33a9 4f34 4f37 46b5
000000d0: c5f3 1535 47e6 db35 1bb7 99b6 6e24 17b8
000000e0: 9e92 4437 741f 2437 de5e df36 4862 42b8
000000f0: a0ff d336 5f95 0437 9f5d a1b5 e0db 2038
00000100: 6d18 a938 73d3 da39 9df1 e639 b2ce c438
00000110: b012 42b5 1b75 60b7 4478 9836 bbc3 a2b6
00000120: 0771 e136 749a eab6 19fd a1b6 5200 dd37
00000130: 15a8 d739 6d86 c637 676e c5b7 35fb ad38
00000140: f482 ed39 831b 35b8 b7b0 63b8 97d7 cab6
00000150: 6645 1d37 f272 ad37 e903 a438 cf82 b838
00000160: 4a82 6037 0c92 0b36 e2fd 75b6 0480 3a34
00000170: 0dbc 99b4 3c98 6935 ed55 b7b4 ea38 f7b5
00000180: 745c 1f37 fbaf a938 ddfd 81b7 1761 62b7
00000190: dc9a 44b7 00b8 cd38 842c 3cb7 6f89 3bb7
000001a0: e981 3536 5b23 5f39 113f 7639 c37c b73a
000001b0: 1a74 ba3a e288 f839 2134 9e39 c452 8238
000001c0: 46d8 25b7 7e97 0037 4763 4c36 14f9 e036
000001d0: 7c67 4c37 c248 3439 468e b53a d982 7d39
000001e0: fff8 7538 c2c6 1039 45b4 b03a e35c 52b9
000001f0: 9eec 83b8 b53b 77b7 85b4 d938 43a3 a339
00000200: f30a 0739 371e d638 6a5c 0c3a 0534 9d38
00000210: e49f 83b9 9940 f7b5 83a8 96b6 70b8 0db6
00000220: 1e82 0036 a541 38b8 6fec 8138 ee40 3639
00000230: 2fb2 b0b9 0a95 d3b9 a437 f2b9 d029 a939
00000240: a9ea 1ab9 2328 83b9 b6d7 3c38 5408 a5b7
00000250: 9cc2 4db8 b884 4db9 f801 52b9 0389 96b8
00000260: 2669 b4b7 6b8c 5c37 9f3a b6b3 e5c2 3d35
00000270: 5413 1334 6d50 b0b5 e632 2f36 a9d0 f9b7
00000280: 16b6 4db9 69eb 1536 b34e 0637 caec fa37
00000290: df43 5cb9 b2ee ba37 92b4 a137 ec84 45b4
000002a0: deb6 8739 54af 0a3a 136c 073b c861 0c3b
000002b0: 7d9a 493a 9231 9139 e2bb dcb8 4707 1ab6
000002c0: 21f3 4ab6 7cda d636 ad68 c8b6 9d28 0eb8
000002d0: 0d3f 9339 f3bc 073b 0a22 b2b8 bf9d 66b9
000002e0: 49f9 71b9 fa77 153b f17b 99b9 9a1f 82b9
000002f0: f8c3 a136 0367 76b6 533b 4eb7 4935 30b8
00000300: 7159 48b8 3d9a 31b7 3c85 a3b5 4d30 1b37
00000310: 85c7 3eb3 9552 2634 ee6d 1ab5 ac08 9b33
00000320: 2a9c 4b35 3d63 e1b6 b4e4 37b8 9cd0 3437
00000330: a7ba 9136 fad3 d336 ce55 60b8 07a7 9436
00000340: 6b13 bb36 93ed f5b5 daa7 3739 8c87 e639
00000350: 0c70 103b 0413 1f3b fdf0 f139 194e 0c39
00000360: 44fe e138 94b9 bc36 7b43 02b7 436f 0a36
00000370: 3d08 d636 b27d 28b8 5414 7f39 ec89 153b
00000380: 2eb2 21b9 5c8d 1db9 d549 d337 2f55 2b3b
00000390: 48c7 61b9 bcfa 4db9 f13b a338 7660 2f39
000003a0: 3cfc ba38 ddc9 8ab9 2c81 9bb9 4959 4f39
000003b0: a563 fc38 8481 5bb8 e062 5037 4211 84b7
000003c0: fcfc e137 b2d5 67b8 c2b9 74b8 a502 76b9
000003d0: c4f5 7eb9 f412 6bb9 afba 02ba 9c7b e639
000003e0: 02be e3b8 e68e 6cb9 5bc0 a9b9 f2ee b437
000003f0: cbb1 6b39 bc60 143a 8fca 6dba 9423 7aba

exp_avg_sq f4 [128, 21]
1.6958113e-07 1.516626e-06 3.683599e-05 3.9372313e-05 2.0863945e-06 3.571701e-07 1.8847264e-07 2.477165e-09
2.4082287e-09 2.4181183e-08 1.6981017e-08 1.8058877e-08 9.379798e-07 3.559298e-05 4.884508e-06 3.0431613e-06
2.9107732e-06 3.1235108e-05 1.7150975e-07 1.9040989e-07 4.097463e-08 3.5676173e-08 4.111203e-07 9.213988e-06
9.836832e-06 5.2303034e-07 7.4544396e-08 7.679637e-08 6.520441e-10 6.2015487e-10 4.46447e-09 3.9905874e-09
8.140931e-09 2.4621676e-07 8.926303e-06 2.979502e-06 1.0917e-06 4.961589e-07 5.815558e-06 3.3291904e-08
5.2423303e-08 7.935267e-09 3.4960995e-10 2.7355318e-09 8.212515e-08 8.722052e-08 4.032021e-09 9.594481e-10
6.453651e-10 4.6488347e-12 4.5821806e-12 3.7311494e-11 3.3618466e-11 8.685448e-11 1.7622831e-09 7.8691116e-08
1.7269636e-08 1.42295065e-08 5.8640994e-09 5.537837e-08 2.9059963e-10 3.7538728e-10 9.66007e-11 5.383891e-08
8.0646316e-07 2.156165e-05 2.2899323e-05 9.540199e-07 1.729069e-07 2.3774605e-07 2.8672602e-09 2.7333356e-09
1.4251307e-08 1.0105591e-08 1.6397365e-08 5.478674e-07 2.0567548e-05 5.3245667e-06 1.3267919e-06 2.1906628e-06
1.5406491e-05 5.4898475e-08 1.0350234e-07 2.5974252e-08 7.4410555e-10 3.3665152e-08 4.4558757e-07 4.8095984e-07
1.4448384e-08 1.7615694e-09 6.4902035e-09 1.136486e-11 9.844986e-12 1.3798857e-10 1.1869176e-10 4.662685e-10
1.7993305e-08 4.2781747e-07 3.4558067e-07 1.3671881e-08 2.4961777e-08 1.1859218e-07 1.0972143e-09 2.9886527e-09
2.9342023e-10 3.11985e-07 1.8689678e-06 7.118347e-05 7.5280754e-05 4.256601e-06 6.9374124e-07 4.610627e-07
2.9404377e-09 2.7601086e-09 3.775358e-08 2.300689e-08 7.255742e-08 1.3659932e-06 6.8387155e-05 3.2638404e-06
6.118815e-06 4.0328423e-06 6.712313e-05 3.5287295e-07 2.5893382e-07 8.8406225e-08 6.865282e-07 5.3485155e-06
0.00017495117 0.00018542378 1.1026306e-05 1.5889946e-06 1.045498e-06 1.8306727e-08 1.7849704e-08 1.1947377e-07
8.4856275e-08 1.1882925e-07 3.988424e-06 0.00016862569 1.5477486e-05 1.805532e-05 1.1899619e-05 0.00015365603
6.895875e-07 7.64381e-07 2.1021701e-07 6.5208634e-09 5.1797972e-08 1.4804914e-06 1.5579659e-06 1.3443882e-07
1.2873165e-08 7.958088e-09 1.9926061e-10 1.9060148e-10 1.0915658e-09 9.1790553e-10 8.599515e-10 4.301209e-08
1.4524234e-06 1.8658793e-07 1.485746e-07 1.5075155e-07 1.2364509e-06 5.6067577e-09 6.1434533e-09 1.1413874e-09
7.3162056e-07 7.4915038e-06 0.00017564984 0.00018696299 1.0430459e-05 1.49231e-06 1.179154e-06 1.1670892e-08
1.1082593e-08 1.0336646e-07 7.000607e-08 9.9788764e-08 4.3396544e-06 0.00016955017 3.2814387e-05 1.2814838e-05
1.0579592e-05 0.0001427332 7.8816396e-07 9.521159e-07 1.9107718e-07 6.612976e-10 3.744016e-09 1.8526927e-07
1.9762564e-07 1.17983845e-08 1.5083655e-09 1.503222e-09 6.805097e-12 5.9253748e-12 1.6160867e-10 6.7071904e-11
2.7982078e-10 3.5386793e-09 1.8017766e-07 2.2446425e-08 3.203109e-08 1.4739742e-08 1.4162573e-07 6.4579664e-10
4.8183985e-10 1.3609898e-10 3.8244133e-07 2.3465118e-06 7.278486e-05 7.707207e-05 4.719468e-06 6.212517e-07
4.1771827e-07 3.3938623e-09 3.0379816e-09 5.5817246e-08 2.7884964e-08 3.7715907e-08 1.4789417e-06 7.017901e-05
4.367424e-06 8.68873e-06 4.0635887e-06 6.583389e-05 4.1644734e-07 3.5216175e-07 8.1348304e-08 8.704857e-07
6.634998e-06 0.00019842845 0.00021104983 8.2191245e-06 1.7890848e-06 1.2678134e-06 2.1059456e-08 2.0854559e-08
1.18135674e-07 1.1402617e-07 1.0185211e-07 4.288372e-06 0.00018823243 2.5676716e-05 1.3963259e-05 1.39881095e-05
0.00017160762 8.4209233e-07 1.1801183e-06 3.1420586e-07 2.010809e-06 1.2305608e-05 0.0005543585 0.00058106624
00000000: 1b16 3634 df8e cb35 5880 1a38 b323 2538
00000010: fc03 0c36 16c1 bf34 f75e 4a34 bf3a 2a31
00000020: 027e 2531 fcb6 cf32 a7dd 9132 e41f 9b32
00000030: 7bc9 7b35 ac49 1538 9be5 a336 1d39 4c36
00000040: b456 4336 7102 0338 3e28 3834 7973 4c34
00000050: 15fc 2f33 5e3a 1933 f2b7 dc34 c795 1a37
00000060: df08 2537 5f66 0c35 3715 a033 40eb a433
00000070: 863b 3330 8577 2a30 e565 9931 941d 8931
00000080: 31dc 0b32 c62f 8434 2ec2 1537 74f3 4736
00000090: 8786 9235 c82f 0535 4323 c336 d6fc 0e33
000000a0: 0828 6133 ac53 0832 3a33 c02f fcfb 3b31
000000b0: c75c b033 fd4d bb33 088a 8a31 94dd 8330
000000c0: 8865 3130 fb90 a32c 9d38 a12c 0219 242e
000000d0: 07db 132e bafe be2e d334 f230 e6fc a833
000000e0: 5558 9432 0876 7432 2a7d c931 29d9 6d33
000000f0: 43c2 9f2f 105f ce2f 5c6d d42e 823c 6733
00000100: ba7b 5835 4adf b437 ec17 c037 e00b 8035
00000110: 49a8 3934 2347 7f34 6009 4531 59d5 3b31
00000120: e9d5 7432 dc9c 2d32 30da 8c32 2911 1335
00000130: 7988 ac37 aea9 b236 3914 b235 4d03 1336
00000140: 303d 8137 83c9 6b33 0345 de33 fc1d df32
00000150: c689 4c30 3a97 1033 1739 ef34 4f1b 0135
00000160: aa38 7832 b71b f230 6f00 df31 c7ee 472d
00000170: e031 2d2d 54b8 172f c380 022f bb2a 0030
00000180: b28f 9a32 c9ae e534 3f88 b934 92e1 6a32
00000190: 876b d632 beac fe33 cccc 9630 ef60 4d31
000001a0: 3a4f a12f e47e a734 3fd9 fa35 5648 9538
000001b0: 0ce0 9d38 edd3 8e36 8939 3a35 fa87 f734
000001c0: ba10 4a31 58ac 3d31 8026 2233 b0a0 c532
000001d0: ddd0 9b33 2b57 b735 136b 8f38 5a08 5b36
000001e0: 3850 cd36 da51 8736 75c4 8c38 7d72 bd34
000001f0: 9803 8b34 d6d9 bd33 dc49 3835 6677 b336
00000200: 1973 3739 516e 4239 a0fd 3837 7045 d535
00000210: 0a53 8c35 eb40 9d32 ea53 9932 b348 0034
00000220: 3b3a b633 122f ff33 4dd4 8536 1dd1 3039
00000230: a6d5 8137 8175 9737 79a4 4737 ba1e 2139
00000240: 181c 3935 dd2f 4d35 03b8 6134 1f0e e031
00000250: 7978 5e33 4cb5 c635 4d1b d135 435a 1034
00000260: c728 5d32 0bb8 0832 e016 5b2f 8c91 512f
00000270: 0f06 9630 dc4f 7c30 b561 6c30 4bbc 3833
00000280: e3f0 c235 e658 4834 e087 1f34 45de 2134
00000290: 21f4 a535 90a5 c031 6316 d331 00df 9c30
000002a0: 9564 4435 875f fb36 a52e 3839 7f0b 4439
000002b0: 7bfe 2e37 624b c835 6c43 9e35 2081 4832
000002c0: c265 3e32 50fa dd33 3e56 9633 744b d633
000002d0: 599d 9136 47c9 3139 2ea2 0938 4fff 5637
000002e0: 007f 3137 a7aa 1539 3792 5335 e894 7f35
000002f0: e52a 4d34 aec6 3530 b7a4 8031 6eee 4634
00000300: ec32 5434 d8b1 4a32 e54e cf30 ec99 ce30
00000310: dd6e ef2c 087b d02c ccb0 312f 207e 932e
00000320: 46d5 992f 1b2d 7331 dc76 4134 36d0 c032
00000330: 8e92 0933 123a 7d32 c911 1834 e683 3130
00000340: 7772 0430 75a4 152f 5652 cd34 c478 1d36
00000350: 13a4 9838 c1a1 a138 ec5b 9e36 17c4 2635
00000360: c342 e034 7539 6931 bdc4 5031 b6bb 6f33
00000370: af87 ef32 14fd 2133 0d80 c635 122d 9338
00000380: e38b 9236 d0c5 1137 f659 8836 4d10 8a38
00000390: 1694 df34 be10 bd34 b4b1 ae33 52ab 6935
000003a0: 33a2 de36 3b11 5039 424d 5d39 dfe4 0937
000003b0: 7c20 f035 bd29 aa35 3ce6 b432 a923 b332
000003c0: c6b1 fd33 8dde f433 cab9 da33 d6e4 8f36
000003d0: 4260 4539 5464 d737 be43 6a37 79ae 6a37
000003e0: 92f1 3339 250c 6235 8e64 9e35 20b0 a834
000003f0: 70f1 0636 2f74 4e37 5f52 113a b252 183a

exp_avg f4 [128]
-0.00085244287 0.00034324438 -3.9137758e-05 0.0004479248 8.795879e-05 0.0015033946 0.00018823003 -0.0002129651
0.0022497217 -4.743952e-05 0.002483217 -0.0002514852 -0.0008795157 0.00037678893 2.925286e-05 0.0011509286
0.004390202 0.0010817144 -0.00016220708 -0.00079400185 0.00017672523 -0.0046226853 -0.0002037027 -0.0003840659
0.00038839364 -0.0020943016 0.0020325682 -0.00044796246 -0.0006005555 0.0033009003 -0.00056028226 0.00019343405
-0.001421311 0.0005951571 -6.8519347e-07 5.7495938e-05 -8.547718e-06 -0.0012559464 -0.00032613767 -0.0040444457
0.0010702886 0.0036145132 0.00010473364 0.00060083723 0.00024118487 5.8601436e-06 0.0038355985 -4.1401847e-05
-0.0024100912 -0.0013773193 0.00028114748 -1.2574748e-05 -0.0034846452 0.0013799894 -0.0011061927 -0.0020220696
-0.00017929549 0.0025857396 -0.0027240363 2.443921e-05 0.00088016706 -0.00039057664 -0.0009425531 0.00012829927
-0.00040944616 0.0006830824 -0.0010525333 -1.2249902e-05 0.002698121 0.0041086953 -4.464516e-05 0.004690712
-0.0013660453 1.6681372e-05 -1.1793585e-05 0.00066607096 8.429312e-05 3.989576e-05 -0.0016238808 -0.0011250753
0.0026642329 0.004357572 -0.00042283072 0.00093674037 -6.312878e-05 0.00046747926 -3.4304816e-05 0.0005797513
0.00045886912 -0.0026946326 5.158909e-06 3.6776883e-06 7.851486e-05 -1.2865582e-05 0.0012856531 -0.00032874002
-0.00026960592 -0.0016380388 0.0011958819 0.004745981 0.004172646 5.5391203e-05 0.00021448542 -0.0005878408
0.00012757773 0.00024063802 0.0015507111 -0.0037485464 0.00019271267 0.0026361647 0.0039234166 -0.002874702
-4.6335357e-05 0.0022899343 0.00052398763 -2.1395852e-05 -0.00019067143 -0.00035705738 -0.0008294968 0.0012005587
0.000493127 0.0016067328 -0.00028505432 -0.00065924844 0.0009962681 0.0006174875 -0.00083329546 -0.0019055315
00000000: 7976 5fba 7bf5 b339 d927 24b8 73d7 ea39
00000010: 8476 b838 8d0d c53a 9d5f 4539 624f 5fb9
00000020: 1170 133b ccf9 46b8 78bd 223b c6d9 83b9
00000030: 4d8f 66ba c18b c539 0a64 f537 c1da 963a
00000040: afdb 8f3b 50c8 8d3a 2216 2ab9 9024 50ba
00000050: 514f 3939 e579 97bb 0799 55b9 745c c9b9
00000060: 50a1 cb39 8d40 09bb d634 053b 81dc eab9
00000070: 996e 1dba eb53 583b e8df 12ba 8fd4 4a39
00000080: 494b baba 5104 1c3a 23ee 37b5 cb27 7138
00000090: 2b68 0fb7 919e a4ba 75fd aab9 4587 84bb
000000a0: ed48 8c3a 78e1 6c3b 72a4 db38 8181 1d3a
000000b0: 92e6 7c39 40a2 c436 aa5e 7b3b e5a6 2db8
000000c0: 9ff2 1dbb 2b87 b4ba fa66 9339 22f8 52b7
000000d0: a55e 64bb c3e0 b43a abfd 90ba b384 04bb
000000e0: 4401 3cb9 8375 293b bf85 32bb ce02 cd37
000000f0: 03bb 663a 4fc6 ccb9 ab15 77ba 1388 0639
00000100: efaa d6b9 e210 333a 28f5 89ba ee84 4db7
00000110: f5d2 303b 3ca2 863b 6041 3bb8 8bb4 993b
00000120: e00c b3ba f9ee 8b37 10dd 45b7 449b 2e3a
00000130: 86c6 b038 bf55 2738 66d8 d4ba 4377 93ba
00000140: 699a 2e3b f7c9 8e3b 61af ddb9 958f 753a
00000150: 0164 84b8 0118 f539 84e2 0fb8 73fa 173a
00000160: 5f94 f039 6f98 30bb b11a ad36 34ce 7636
00000170: 58a8 a438 41d9 57b7 5c83 a83a bd5a acb9
00000180: e559 8db9 76b3 d6ba 23bf 9c3a 2d84 9b3b
00000190: b1ba 883b da53 6838 7ee7 6039 5419 1aba
000001a0: 63c6 0539 c753 7c39 3b41 cb3a 2caa 75bb
000001b0: ea12 4a39 81c3 2c3b 0190 803b 7f65 3cbb
000001c0: 3658 42b8 b912 163b 375c 093a 3e7b b3b7
000001d0: f9ee 47b9 6e33 bbb9 9772 59ba 115c 9d3a
000001e0: 3145 013a 0299 d23a 5873 95b9 6ad1 2cba
000001f0: 3695 823a e2de 213a 8371 5aba 07c3 f9ba

exp_avg_sq f4 [128]
4.1951487e-05 1.0522611e-05 9.277815e-08 2.4250692e-05 5.0436427e-07 8.0574886e-05 0.00019876308 1.712636e-06
0.00019981677 2.124126e-07 8.2773055e-05 0.00022191592 0.00062292995 0.0006943955 1.3763652e-06 0.000326419
0.0006136155 8.94108e-06 8.118754e-06 0.00069701555 3.2758874e-06 0.00021710478 7.657938e-06 0.00062016986
1.0240662e-05 5.79476e-05 0.00017312153 5.099324e-05 0.00019445857 0.00018860913 5.381518e-05 0.00012315279
0.00033128168 1.3869693e-06 4.127012e-08 1.1203511e-07 5.880267e-09 0.0012244676 1.612089e-05 0.0002336927
0.00011592885 0.000103263344 1.251847e-05 2.8898844e-06 2.8867826e-05 3.5636713e-05 0.00014381451 9.86384e-07
7.651754e-05 0.0002885523 9.5812866e-05 9.8905e-07 0.00018580053 6.726145e-05 2.9106108e-05 0.00047540583
9.234801e-08 0.00015367757 0.0003329554 2.8642305e-06 0.00015489722 9.070044e-06 0.00028059614 3.458748e-06
0.00079152104 4.335653e-05 2.439326e-05 1.5604945e-06 2.8861768e-05 0.00046960855 8.9974014e-07 0.00063275587
0.00013475305 0.00024280872 1.5643336e-06 1.8725977e-05 9.860908e-07 6.037064e-08 0.00011956016 0.00025877022
0.00029768728 0.00073987705 0.00022616684 0.00015693766 2.685516e-07 1.30382305e-05 2.8906118e-06 1.5685902e-05
4.390015e-06 0.00069778424 2.5536018e-09 8.815094e-08 0.00021249335 2.1863352e-08 3.2847092e-05 1.0220443e-05
0.00015395139 0.00035013875 0.00010821592 0.00013736893 0.00071161776 1.1658642e-07 4.5862826e-06 4.5297176e-05
0.00024072203 3.583298e-05 0.00013160615 0.00023201831 8.832442e-07 0.0014496113 0.00012536554 0.00033467365
9.088879e-08 7.21528e-05 5.934282e-05 3.459952e-07 7.1395976e-07 2.9705157e-07 7.798701e-05 0.0002285238
4.9974888e-06 2.9897205e-05 4.665383e-06 3.687527e-05 4.1383457e-05 0.00016167627 7.2307914e-05 9.196831e-05
00000000: 11f5 2f38 458a 3037 543d c733 f76d cb37
00000010: a663 0735 50fa a838 0f6b 5039 badd e535
00000020: e885 5139 8813 6434 7296 ad38 1ab2 6839
00000030: 1f4c 233a 1808 363a 8cbb b835 3723 ab39
00000040: 0adb 203a a501 1637 c835 0837 ecb7 363a
00000050: 51d7 5b36 9fa6 6339 987a 0037 e592 223a
00000060: 4fcf 2b37 c30c 7338 f587 3539 93e1 5538
00000070: 93e7 4b39 61c5 4539 9cb7 6138 9322 0139
00000080: e0af ad39 e727 ba35 fa40 3133 f497 f033
00000090: 600b ca31 517e a03a 593b 8737 680b 7539
000000a0: d41e f338 168f d838 6b06 5237 d6ef 4136
000000b0: 2f29 f237 a178 1538 eacc 1639 e563 8435
000000c0: 0b78 a038 d648 9739 24ef c838 80bf 8435
000000d0: 73d3 4239 b70e 8d38 e428 f437 e43f f939
000000e0: db50 c633 8224 2139 8490 ae39 1b37 4036
000000f0: e86b 2239 8b2b 1837 fa1c 9339 d71c 6836
00000100: 147e 4f3a b8d9 3538 21a0 cc37 2f72 d135
00000110: 2d1c f237 cb35 f639 ac85 7135 87df 253a
00000120: 7f4c 0d39 789a 7e39 18f6 d135 bb15 9d37
00000130: d259 8435 1ca5 8133 5fbc fa38 8dab 8739
00000140: e912 9c39 4ff4 413a 3327 6d39 a28f 2439
00000150: 732d 9034 c6be 5a37 55fc 4136 3895 8337
00000160: f14d 9336 82eb 363a 707b 2f31 7e4d bd33
00000170: c0d0 5e39 05ce bb32 4cc5 0938 7878 2b37
00000180: 036e 2139 d492 b739 fbf1 e238 b10a 1039
00000190: dc8b 3a3a 105e fa33 dee3 9936 79fd 3d38
000001a0: 546a 7c39 5f4b 1638 c2ff 0939 f149 7339
000001b0: 1418 6d35 e200 be3a 8e74 0339 2377 af39
000001c0: a42e c333 bd50 9738 dee6 7838 38c1 b934
000001d0: f1a6 3f35 757a 9f34 f58c a338 e49f 6f39
000001e0: 1ab0 a736 c2cb fa37 568b 9c36 85aa 1a38
000001f0: 2693 2d38 a587 2939 04a4 9738 1cdf c038
