models/checkpoint_600.pth (torch, 83970 bytes, 24 tensors)

policy_log_std f4 [7]
00000000: cee3 d83e c00d 103f 51ca 0f3f 9a59 173f
00000010: 9408 0a3f 7b60 de3e aed4 203f
0.423613 0.5627098 0.56168085 0.59121096 0.5391934 0.43432984 0.62824523

fc1.weight f4 [64, 21]
00000000: 62d1 573d 64d5 b53c 40d9 25be 11f1 3d3d
00000010: b3ae 983e 827a 78be 9fc5 373e 9a42 0bbd
00000020: a3bd 22be 9615 7cbd 6184 12bd 5016 5cbc
00000030: 28bd 50be 6c8e 943d 5f0a 31be 3c9a 9ebd
00000040: d3a5 fbbd f3fa 91bc 81c7 f73d f0bc 9abd
00000050: 565e 243d be1d 313d bf28 853b d218 48be
00000060: 422d 5e3e de30 613d 028f d2bc ff07 02bd
00000070: 234f d03a 7761 b03c aaf1 3b3d 59bb 203e
00000080: ace8 1e3d 6844 fbbd 5d04 0fbe 45e7 423e
00000090: 3af6 ef3d 12aa fd3d 2b31 2bbe 7631 3cbe
000000a0: 7b31 8fbb a522 df3d 0c16 383e 87ad 42be
000000b0: 6ea8 f03d 6c86 6e3e dc5e 713e 03a2 813c
000000c0: 0d3c bfbd 5fa9 4c3e 6c72 57bd 8025 0c3e
000000d0: 8dd5 38be 0d9e 12be 774f 2c3b 4d55 5d3c
000000e0: 283b ea3c 3eae 9c3d 321d df3d 1f58 513d
000000f0: a118 a7bd cb8b 64bd bbd3 8e3e 5a96 013e
00000100: 46d5 053d 4e16 893e d9df 56be 5ca0 503d
00000110: 10c6 0c3e 427c a53d a7a2 7c3b 00f0 edbc
00000120: 3057 08be dba2 55be ec1b 6fbd 6106 34be
00000130: 2e75 8bbd f05f 28be 08c5 8ebc debd 41be
00000140: f5be 373e f449 21be f1b2 f7bc bdc3 833c
00000150: 5914 4938 3a06 143e 17b7 1bbe 95b4 9f3d
00000160: 7c97 403e c323 2cbe 7b1b 683e 8a24 2abd
00000170: 82c9 e73d 0f48 10be 0549 1d3d 98fe 2cbe
00000180: 4b17 963d deb8 9e3d 171d 2f3e f496 7f3d
00000190: a205 923d 4dda e7bd 7904 14bd ab0b 8a3d
000001a0: 06cf e83d 460c ca3d 7dd7 0ebe 091d 44bc
000001b0: 1931 96be a729 a53d 3192 9d3d ed3d 0f3e
000001c0: 4561 213d 3682 a73d 859f 93bd 4cb7 4e3e
000001d0: 4eb4 86bd 5253 34be cc09 6ebd 3c6f c0bd
000001e0: 8132 2abe d690 b33d c65d b9bd f82a 7a3a
000001f0: 6396 8a3d 4b6a 3abe 0692 79be d17a 1dbe
00000200: 9294 983d a7b1 f83b 06dd 8a3d 87af 29be
00000210: ade4 433d 4392 a5bc 1679 c2bd 9190 48be
00000220: 2d66 e43c ae41 aa3d ccd7 1ebd 0ac3 c63d
00000230: 2853 32bd f83f 60bd f78b 44be 1982 6fbe
00000240: 16eb 5f3e b27e 2dbe 66ff 983d 6f76 25be
00000250: a1d4 c6bd b32b ddbc 9bea 47be 4624 dbbd
00000260: 3eba 123d 9440 79be 1ee5 77be d211 443a
00000270: ba81 50be 9d81 443e 560b 59be 1175 803d
00000280: a7f7 96bd e82b 70bd 9c34 4c3d dc6d d5bd
00000290: 8af5 c23d 4133 31be 7d7f 6d3e 22a5 9abd
000002a0: 015e babd a2ec e73c 37b9 b1bd 7910 9f3d
000002b0: 0d8d b93c b0d8 c13d 0222 aa3e 310f ad3d
000002c0: fd70 103a 7d7f 913c 3fd3 1e3e 1077 0cbe
000002d0: 1906 b7bd 580c 64be 18b0 07bd 49be 223e
000002e0: 5e0a d9bd e455 debc db67 51be 521b 61bd
000002f0: fc58 3abd 9bd1 1bbe 99b0 033e 721f 1abd
00000300: a789 6cbe e602 af3d c45c 813e 9fc2 123e
00000310: a8fc 1abd 704c 433e 5ae7 383d 3771 3ebe
00000320: f28b ac3d d93d 7abe 4b7d 8c3d 8cd6 0e3d
00000330: 7d37 28be 2847 3abe 1fda 03be ea14 ee3d
00000340: 4fe7 143e cd6d 62bd 07ad 883d 6c31 32be
00000350: 9984 6bbe 2122 983d 34fc 313e 45c9 363e
00000360: 47ef 94bc b92c 5e3d e0a2 2ebe 8684 40be
00000370: 961f 88bd 48f6 91bd 9299 e13c 9f9b 50be
00000380: d7a4 d8bd 8114 35be 9a4e b7bd d5f7 2abe
00000390: 4bb3 a3bd 6f8a a13e e5f6 10be 0811 d83d
000003a0: 7e69 8c3a d7ae 17be eabb 153e 718c 50bd
000003b0: 73ed b9bd 9930 923e 34aa 9dbd 3f44 f8bd
000003c0: 738e 3cbe 835b 38be 25df 273e b360 0cbe
000003d0: 631b 043e 852d 313e 5802 0fbe 0b7b 243e
000003e0: 83b7 673d 3673 223e 4681 02be 8980 873d
000003f0: 75bf ec3d 19de c43c faf1 81be 1dac f6bc
0.052689917 0.02219648 -0.16196156 0.046372477 0.29820785 -0.24265483 0.1794648 -0.033999063
-0.15892653 -0.061544023 -0.035770778 -0.013433054 -0.20384657 0.07253727 -0.17289113 -0.077442616
-0.12287488 -0.017819857 0.12098599 -0.07555568 0.04012903 0.043241255 0.004063695 -0.19540718
0.21696952 0.054978244 -0.025702957 -0.031745907 0.0015892725 0.02153085 0.045884766 0.15696467
0.038796112 -0.12268907 -0.13966508 0.19033535 0.11716886 0.12385954 -0.16717975 -0.18378243
-0.004369912 0.1089528 0.1797716 -0.19011508 0.117508754 0.23293465 0.23571342 0.015824324
-0.09337626 0.19986485 -0.052599356 0.1368618 -0.18050213 -0.14318104 0.0026292482 0.013509107
0.028592661 0.076504216 0.108942404 0.05110943 -0.081589945 -0.05579738 0.27895913 0.12655011
0.032674097 0.2677483 -0.20983829 0.05093418 0.1374743 0.08080341 0.0038549097 -0.029045105
-0.1331451 -0.20862906 -0.058376238 -0.17580558 -0.068094596 -0.16442847 -0.017427936 -0.18920085
0.17943938 -0.15750867 -0.030236693 0.016084546 4.7941085e-05 0.144555 -0.15206562 0.07798115
0.18807787 -0.16810517 0.22666733 -0.041538753 0.113177314 -0.14089988 0.038399715 -0.16893995
0.073286615 0.07750104 0.1710094 0.06239982 0.071299806 -0.113209344 -0.036137078 0.06740507
0.113676116 0.09865622 -0.1394939 -0.011969813 -0.29334334 0.08064585 0.076938994 0.13988467
0.039399404 0.08179133 -0.0720816 0.2018711 -0.06577359 -0.17609909 -0.05811481 -0.09396216
-0.16620828 0.0876786 -0.09051089 0.0009543146 0.06766965 -0.1820461 -0.2437211 -0.15378882
0.074502125 0.007589537 0.06780438 -0.16570865 0.047825504 -0.020211345 -0.094957516 -0.19586398
0.027880752 0.08313309 -0.03878002 0.097051695 -0.043536335 -0.054748505 -0.19194017 -0.23389472
0.21867022 -0.16942862 0.074705884 -0.1615846 -0.097085245 -0.026998376 -0.19523089 -0.10700278
0.035822146 -0.24341041 -0.24208495 0.0007479462 -0.20361987 0.19190069 -0.2119573 0.06272329
-0.07371455 -0.058635622 0.04985486 -0.10421345 0.09519489 -0.17304708 0.23193164 -0.07551028
-0.09099961 0.028311078 -0.08677905 0.07766814 0.022650266 0.09465158 0.3322907 0.08450163
0.00055100006 0.017760986 0.15510271 -0.13717294 -0.0893671 -0.22270334 -0.03312692 0.158929
-0.105976805 -0.027140565 -0.20449774 -0.054957695 -0.04549502 -0.15216677 0.12860335 -0.037627645
-0.23099385 0.08545475 0.25266087 0.14332055 -0.037838608 0.19072127 0.04514251 -0.18597876
0.0842513 -0.24437656 0.06859835 0.034872577 -0.16427417 -0.18191206 -0.12876175 0.11625083
0.14541362 -0.055280495 0.06673627 -0.17401665 -0.229998 0.074283846 0.17381364 0.17850216
-0.018180503 0.05424187 -0.1705432 -0.18800554 -0.066466495 -0.071270525 0.027539048 -0.20371865
-0.10578316 -0.17683603 -0.08950539 -0.16696103 -0.07993182 0.3155093 -0.14156683 0.105501235
0.0010712591 -0.1481279 0.14622465 -0.050915185 -0.09078493 0.28552702 -0.07698479 -0.12122392
-0.18413715 -0.18003659 0.16393717 -0.13708763 0.12901072 0.1730252 -0.13965738 0.16062562
0.056571495 0.15864262 -0.12744626 0.06616313 0.11559955 0.024031686 -0.25379926 -0.030111367

fc1.bias f4 [64]
00000000: 5466 2d3c 1d3b 72bd 86dc ccbd 193c 113e
00000010: 6a7e 1ebc 8206 c03d e6dd 64be f6d5 ba3d
00000020: a71e 7abd e8db 77be 744b d2bd 2ce7 3dbe
00000030: 97f0 153e a635 01be a49b cbbd 52fa d7bd
00000040: d2c3 8abd 1bcf 083e 8d82 29be 9378 8d3d
00000050: ecac 183e 790a 17be 0c0f 743d 3576 d33d
00000060: d579 babd 5fb8 403e 36ca 1f3d b4d4 0e3e
00000070: 8fec 60be c116 67be fc89 783d fb91 fc3d
00000080: 6769 443e 842d 6bbe f15e 86ba ac27 26be
00000090: 63ef 33be 2be1 88bd 6bef 903d 00ae 0e3e
000000a0: 1543 97bd 77d7 de3d b7e0 20be 9c31 543e
000000b0: efca f43d a813 3dbd 3eb8 27be 5740 0d3e
000000c0: 68c6 bc3b af11 88bc 1f42 10be 5b96 6c3d
000000d0: cb1a 3b3e c405 24bd ccc5 f9bd a9cd 5a3e
000000e0: a7fe a13c 1832 543e a8df 773d f493 c33c
000000f0: f023 343e ec6d 50be 0eba aebc 45fc 3f3d
0.010583479 -0.059138406 -0.10002999 0.14183082 -0.009673694 0.09376241 -0.22350273 0.09122841
-0.06106439 -0.24204981 -0.10268298 -0.18545216 0.14642559 -0.12618122 -0.099417955 -0.10545792
-0.06775631 0.13360254 -0.16553707 0.06907763 0.14909714 -0.14750089 0.059584662 0.103252806
-0.09105269 0.18820332 0.039011203 0.13948327 -0.2196524 -0.22567274 0.060678467 0.12332531
0.19180833 -0.22966582 -0.0010251683 -0.16226071 -0.17571788 -0.066835724 0.07076915 0.13933563
-0.07385842 0.108809404 -0.15710722 0.2072205 0.11952769 -0.046161324 -0.16378877 0.13794075
0.0057609566 -0.016609995 -0.14087723 0.057760578 0.1827194 -0.04004456 -0.1219593 0.21367516
0.019774748 0.20722234 0.06051603 0.02387426 0.17591834 -0.20354432 -0.021328952 0.046871442

fc2.weight f4 [64, 64]
00000000: 8e74 65bc 9990 823c 2d42 e13c a075 87bc
00000010: 5d5e aabd 9281 833d cdfd be3a 2710 6b3e
00000020: 7036 37bc bd1b 503d 3831 92bd a75b 1dbe
00000030: 0392 11be b9aa aabc 6f82 6bbd d5d9 c63d
00000040: f0b3 473c c4c6 953d 4f54 0dbe ab10 91bd
00000050: 27e2 68bd 3da6 8ebd 8caf cabd b8f5 debb
00000060: be0e 433d 9d35 103e 69b0 a23d c69e 9b3c
00000070: 64a6 7c3d a843 efbc c233 b33d 3f34 893d
00000080: 07a9 073e 8e32 0abe 6ccf 0bbd 7531 da3d
00000090: 81bd c83d 5092 d23d 4170 02be 21a0 183d
000000a0: b17b 06be 0d10 39bd eb38 01be daf5 783d
000000b0: 358a 353c 894f c23c e560 2c3a 8e31 a839
000000c0: bd50 a1bd 817e 093e 0334 7a3d 5ef5 f6bd
000000d0: 00a4 bbbd 4450 403e 831b 603d d6b7 ec3d
000000e0: 17a3 1fbe 1ecc 4cbd 87ab 95be 9e9e b03b
000000f0: b5c7 65bd 3682 9bbd 255b cbbd dd06 843e
00000100: 9274 05be eb4b b1bd 739a 10be 0091 b43d
00000110: 85f3 3b3d f973 70bc 0c01 bd3d fa6b af3d
00000120: d211 0bbe cb49 f2bc 9dd6 a23c 46d8 73be
00000130: 4186 0ebe 8081 72be 0001 97bd ac0b 84bd
00000140: e2fb 9e3d 3d67 b6bd 56a2 e3bd b2a1 123d
00000150: 7acf c23d b0eb 27be 3f1c a2bd 4b95 64bd
00000160: e940 aeba 5db2 1a3d 7ec2 bc3d 4db8 ba3d
00000170: d1df 483e ee2f f03b f9ae 403c fbda fc3d
00000180: 35ec 0c3e ce2c 0ebe f686 de3d ace9 17be
00000190: 51e0 42bd 6a68 acbd 274e 22bd d367 103d
000001a0: 2307 e33c 055f 98bd 91c8 503d 5158 193d
000001b0: caac dd3c bb86 1a3e c481 a53d 57d1 673d
000001c0: 8a59 80be 66d2 f03c 6890 ed3d c545 a2bc
000001d0: b999 ee3c 96b6 39bc 6981 193e 24c5 143d
000001e0: b4cb e63a 277a c13d 02f2 1bbe b767 a8bd
000001f0: 2f1b 713c fb52 08bd fd1f 22bd 6c03 f73c
00000200: 6859 e63d 0b1a 0d3e 79d8 1e3e 38ac dabc
00000210: 0689 293d b09c 51bd dadf 653d e98f 90bd
00000220: 2661 1c3c 3416 15be 1eb4 693d 22c9 17bc
00000230: 8298 b83c f720 3a3e 32b7 a43d dc53 c43c
00000240: bc63 84be ea8b 5ebd bf7f 24bd 6db1 88bc
00000250: 5ac0 b73d 0774 1e3e 5b4a cd3c dfb3 d13d
00000260: 55fe 2abd 8757 a23d 52ad 0b3e 9b34 a2bd
00000270: 5b8f 30be ffc7 03be 4246 f9bd 430b 8dbb
00000280: 2e66 963d 3f92 75bc f48b a1bb ac9a d43b
00000290: b01c cfbd 18bd 933d 3371 933d 994c f03b
000002a0: 9daa 1e3d 4263 00be 31f0 b93d 95f1 02be
000002b0: e208 e2bd 4923 38bd eb73 233d 1d3f 05be
000002c0: 09c9 8b3e 33af 08be 2aa1 4bbd 9dfc 503d
000002d0: f4d3 603d 70b3 3cbe 4a53 b9bd 26d7 47bd
000002e0: 8da0 c6bc 5ad6 12be f9f7 023e a819 a13c
000002f0: bbef eeba ec90 56bd 2b5a abbb 1902 44be
00000300: f244 923d 8299 05be cf59 c6bd 99c3 393d
00000310: 576f bebd a378 b53c 0725 ff3c f3d2 693d
00000320: 6a06 1dbe 02f4 4ebd e971 0abe 66c6 32be
00000330: d592 1cbe 9371 62bd f59e ebbd dbbb bcbd
00000340: 4104 7d3c 6d0e d03d bf94 15be 302f 6f3d
00000350: 0bff 92bd 0f6b bcbd 5b78 80bd 7c55 cebc
00000360: 24e5 15bd b374 7e3d ad12 db3d 758e a03c
00000370: 0af1 f63d 2688 c33d 569f 1bbd ac65 b23d
00000380: edd0 033e b842 e2bc 905c c4bd 6981 fabd
00000390: ef23 8e3d 0529 933c 16ec 413c 9a54 fa3c
000003a0: e484 0e3d a3ea fabc d16e ea3c a42c 9cbd
000003b0: a901 1c3e c92e c3bc 4748 eebd 8b6f 4dbd
000003c0: a450 aebd 5cec 2dbd 6642 263e 4aaa e7bc
000003d0: d701 e33c cd97 3c3e f8d6 4e3e 1a25 243e
000003e0: acd6 94bd fb0d 103e 0b05 9dbe 5c29 613c
000003f0: 2d7c 173e a721 373d ea39 a8bd 9106 0c3e
-0.01400484 0.01593809 0.027497375 -0.01653558 -0.083187796 0.06421198 0.0014571488 0.2295538
-0.0111824125 0.050807703 -0.07138294 -0.15366994 -0.14215855 -0.02083336 -0.057497438 0.09709517
0.012188897 0.07313302 -0.13801692 -0.07083257 -0.0568563 -0.06965301 -0.09896764 -0.0068041943
0.04762148 0.14082952 0.07943804 0.018996608 0.06168212 -0.029207066 0.087501064 0.06699418
0.13248073 -0.13495848 -0.03413336 0.106539644 0.0980177 0.10281813 -0.12738134 0.037262086
-0.13133122 -0.045181323 -0.12619369 0.060781337 0.011080314 0.023719566 0.00065757177 0.00032080378
-0.07876728 0.13427164 0.06108476 -0.12058519 -0.0916214 0.18780619 0.054713737 0.115585014
-0.15589558 -0.04999935 -0.29232427 0.0053900024 -0.05609866 -0.07593195 -0.09929494 0.25786486
-0.1303275 -0.08657058 -0.14121418 0.08816719 0.045886535 -0.014676088 0.09228715 0.08565517
-0.13581017 -0.029576203 0.019877726 -0.2381297 -0.13918401 -0.23682213 -0.073732376 -0.06447539
0.077628866 -0.0890641 -0.111149475 0.035798736 0.09512229 -0.16398501 -0.07915544 -0.05580644
-0.0013294491 0.037767757 0.09216784 0.09117184 0.19616629 0.0073299324 0.011760467 0.12346455
0.13761981 -0.13884279 0.108655855 -0.14835232 -0.047577206 -0.08418353 -0.039625313 0.035255264
0.027713364 -0.074399985 0.050972525 0.03743774 0.027059931 0.15090458 0.080813915 0.056596126
-0.25068313 0.0293972 0.11599809 -0.01980866 0.029126035 -0.011335036 0.14990772 0.03632082
0.0017608316 0.09447127 -0.15229037 -0.08222907 0.014715954 -0.03328226 -0.039581288 0.030152999
0.11247522 0.13779466 0.15512265 -0.026693448 0.04139044 -0.05117482 0.056121685 -0.07058699
0.009544646 -0.14559251 0.05705654 -0.009264262 0.022533659 0.18176638 0.08042754 0.023965769
-0.2585734 -0.05433265 -0.04016089 -0.016686166 0.08972235 0.15473948 0.02505987 0.10239386
-0.041746456 0.07926851 0.13640335 -0.0792019 -0.17242186 -0.12869261 -0.12171604 -0.004304321
0.07343708 -0.014988481 -0.004930014 0.006488165 -0.101128936 0.07213801 0.071993254 0.00733335
0.03873693 -0.12537864 0.09079016 -0.12787469 -0.110368505 -0.044955526 0.03990547 -0.13012357
0.27301815 -0.13348083 -0.049714245 0.05102216 0.054889634 -0.18427825 -0.09049089 -0.048789166
-0.024246478 -0.14339581 0.12789907 0.019665554 -0.0018229404 -0.052384302 -0.0052292547 -0.19141425
0.071420565 -0.1304684 -0.096850984 0.045352552 -0.0929858 0.02215225 0.031145586 0.057085942
-0.15334478 -0.050525673 -0.13520016 -0.17458495 -0.15290387 -0.055284094 -0.11504928 -0.09215518
0.015442909 0.101590015 -0.14607523 0.05839461 -0.07177552 -0.09200107 -0.06272956 -0.025187247
-0.03659548 0.06212301 0.106969215 0.019599179 0.12057693 0.09547453 -0.03799375 0.087107986
0.12872668 -0.027619705 -0.095879674 -0.12231714 0.069404475 0.017963896 0.011836072 0.03055792
0.034794703 -0.030629462 0.028617295 -0.07625702 0.15235008 -0.02382602 -0.116348796 -0.050155204
-0.08511475 -0.042461738 0.16236266 -0.028279442 0.027710838 0.18417282 0.20199192 0.16029778
-0.07267508 0.14067833 -0.3066791 0.013742771 0.14793463 0.044709828 -0.08214171 0.1367438

fc2.bias f4 [64]
00000000: 4d2a 1d3e dd44 1dbd 2a43 36bd 4e71 d93d
00000010: 029e fe3d 58ef c93d a752 a4bd 06ae 2d3d
00000020: 9f06 a13d fa0f 1dbe e217 b5bd 0872 0dbe
00000030: 48fb a7bd 4910 5a3c 202a 943d e255 45bd
00000040: b919 853d 5a26 b5bc 72db 823d 146e 39bd
00000050: c91b 9d3d 8edf 703d 2892 3a3e faf5 00be
00000060: f525 26be aa93 23be 1fbb df3d 46c1 b8bd
00000070: 3111 d83d 946e aebd a81f a13c 604f 81bd
00000080: 007a 8bbd 23b0 133d 9aa0 f73d 25b5 6c3d
00000090: 669e e23d 4e4f 2dbe bea9 45be 5b54 a03d
000000a0: a26a f93d d9a7 c9bd 087a 03be 16cd fb3d
000000b0: 8d51 fa3d 6204 cabc adb3 253e 13c8 d3bd
000000c0: 9678 fb3c e0ff 973d 71cc 88bd 7b1a 8c3a
000000d0: 2dde a93d 303e 143e 338d b53d a04c e5bd
000000e0: c480 0b3d 548c 3e3d a58a aa3d 454a 713d
000000f0: 8fd9 d43c c0c7 503d c9e7 e8bc 3fac 9c3d
0.15348168 -0.03839575 -0.044497646 0.10617314 0.12432481 0.09860104 -0.08023577 0.04240229
0.07862591 -0.15338126 -0.08842446 -0.1381303 -0.08202225 0.013309547 0.07234597 -0.048177607
0.06499047 -0.022113014 0.06389512 -0.045270994 0.07671315 0.05880695 0.18219817 -0.12593833
-0.16225417 -0.15974298 0.109243624 -0.09021239 0.10550154 -0.08517185 0.019668415 -0.06313968
-0.06810379 0.03605665 0.12091179 0.05778994 0.11065368 -0.16924784 -0.19303033 0.078285895
0.12178542 -0.098464675 -0.1283952 0.122949764 0.12222586 -0.024660293 0.16181822 -0.103408955
0.030697148 0.07421851 -0.06679619 0.0010689044 0.0829433 0.14476848 0.08864822 -0.11196256
0.034058347 0.046520546 0.083272256 0.05890872 0.025982646 0.050971746 -0.028430836 0.07650041

policy_mean.weight f4 [7, 64]
00000000: 914b 873d 5905 dc3c d07a d3bd dcd2 c93d
00000010: 74d2 353e 045b eb3d 843f 3e3e 6848 f33d
00000020: fbe1 503e a9db a6bd 1bb0 e7bd cfb8 09be
00000030: 20cc bfbd 244c d03d 3fe2 213e fca7 23bb
00000040: ad52 13be 47a9 37be 6c34 163e 4ab6 923c
00000050: 05d4 923d 1efd 4ebe de9e 9e3d 91a3 cbbc
00000060: 5613 11be 5e02 55bd a17d bf3d 3c63 cdbb
00000070: c796 383e c95e fe3c 7768 0a3e 46cf 473e
00000080: d0e5 1ebd c88a 29be 318d cd3d fed8 36be
00000090: f7e5 2a3e abd5 1fbe d8bd d6bd ab13 07be
000000a0: e509 fb3d 10a3 4c3d 18f0 12bd a316 163e
000000b0: 0260 043e d935 18be dcaa dd3d 506f dd3d
000000c0: ad99 49bd 29e6 d53d a284 9a3d d8fd bd3c
000000d0: 0cbb 94bd 14b5 91bd 7fde 91bd 8020 353c
000000e0: cf6e b93c 8055 dc3d 7c8a 68bd 0829 3e3e
000000f0: 2964 273d 282d 1cbe a9fb 2e3e 5aca 033e
00000100: 615c 40be 2ee4 24bc 3676 153e 0b8a 20be
00000110: 76f1 83bd bd82 0e3d 5ada 48be 0089 9c3d
00000120: 926b aebd bf3a fd3d fa87 083d ea46 033e
00000130: eee4 3abd 5bd2 9e3d 5c1f 853d 9d05 04be
00000140: 51ed 173e ad34 173e 38ed f0bd 711a 723c
00000150: 5dbb bf3c 0c56 9a3d 6303 21be 6fb1 1d3e
00000160: c64b c53d de6e 153e dd0b 633d dee8 a8bc
00000170: 9d30 98bd 4af6 a03d 2f35 8dbb 6b17 17bd
00000180: 950a 99bb d683 2f3c 04f3 d6bc e768 5e3e
00000190: 26f5 15be 9885 a4bd b02e d13d 5a28 913c
000001a0: 7158 8cbd 8588 37be 598a 3f3e 03da 39be
000001b0: 57ca f4bd 2239 73bc ae79 0ebe 97fa debd
000001c0: 1d2d f23d c963 36be 0e6b 35bd c33d 143d
000001d0: 0083 16be 1b93 013d 76c4 a03d 830f 153d
000001e0: c491 d13d e733 0cbe f112 253e 7707 0abe
000001f0: c2dd 83bc 7673 21bc 6e99 b7bd 1160 d6bd
00000200: 6189 8e3d 8782 503e 4925 15be 9fb2 7c3d
00000210: af8e 0a3e 012a b7bd d87f 553e ad2a 2c3e
00000220: d4e3 4e3e 2fc9 81bd 578a 38be e843 d7bd
00000230: 2f81 1fbe 06dd 993c e09e 3d3e eb58 8f3d
00000240: 8958 5fbd 69f3 13be c7f0 0d3e d516 19be
00000250: 7994 28bc 87a1 173d 3fcc bdbc 599c 8eba
00000260: 2c45 9fbd ca1b 39be 4e64 0dbd fb76 373e
00000270: 3b58 553e 29b7 bfbd 3ec2 f43c fdf4 df3d
00000280: 7e5c 17ba 505b de3c c7db fc3c 9f8e babd
00000290: 0aa2 393d 2216 14bb 02c8 2b3d 613c bebc
000002a0: 1691 b63c c2bb 893d 1bc3 ab3c 54b4 383e
000002b0: 9aa1 11bd a490 abbc 3ec4 dcbc aade 2a3e
000002c0: 010b 9a3d 1697 b83d cbbc 1b3d fecc 90bd
000002d0: bcca 153c 2233 b93d 8a90 00be ad5f 123d
000002e0: 875a fb3d 2107 363e 0ebe 03bd 2e3f 233e
000002f0: a5a8 32bd 487d 52be e12e 193e 6df1 213e
00000300: 050d 4fbd d290 7cbe b8b5 bd3d 07ab 15be
00000310: a6ea fb3c a3c3 76bd 9f0e 9abd 5419 a43d
00000320: b322 5abe 3b59 393d d4c8 f23c 7cd8 b6bc
00000330: e10e a93d 69a7 c5bd 7858 45bc db0b c4bc
00000340: 9e7c 3a3e f4d4 243e dc46 2fbe 664d 113e
00000350: 6ab7 2dbd 16e2 c43d 9e16 d6bd 3552 213e
00000360: 5374 653b 74ce 373e 98d8 223d 6318 0cbe
00000370: fde9 29be 1c03 d73d 433f d13d fb1b 27be
00000380: 9a8e 0f3d 8c4a 233e ecfc f4bd d83b 9d3d
00000390: 5bdd 43bc 320b 803d 54e3 ee3d c569 71bd
000003a0: 572e 17be e04d 88bd 23d3 2e3e 0961 20be
000003b0: 675e fbbd 476d 763d 9d5a d9bb 043b 1cbe
000003c0: ffb6 b2bb a740 0b3c 957e 023d ad03 b7bd
000003d0: f545 17bd 8590 c03d cabe e33b 04c2 f6bd
000003e0: 0dbc da3d 1928 0bbe d6dc 6a3d 3f35 acbb
000003f0: 362f 2dbd 1670 40bd 5a7c b6bd f376 863d
0.0660621 0.026858019 -0.10326159 0.09854671 0.17756063 0.11491969 0.18578917 0.11879045
0.20398705 -0.081473656 -0.11312886 -0.13449405 -0.09365106 0.10170773 0.15808962 -0.0024971953
-0.14387007 -0.17935668 0.14668435 0.017909188 0.07169346 -0.20213744 0.07745145 -0.024858268
-0.14167532 -0.05200421 0.09350134 -0.006267933 0.18026267 0.031051056 0.13516413 0.19512662
-0.038793385 -0.16556847 0.10036696 -0.17856213 0.16689287 -0.15608852 -0.104854286 -0.13191096
0.122577466 0.049960196 -0.035873502 0.14657073 0.12927249 -0.14864291 0.108236045 0.10812247
-0.049218822 0.1044429 0.07544829 0.023192331 -0.07262239 -0.07114616 -0.07122516 0.011055112
0.022635845 0.10758495 -0.056772694 0.1857034 0.040867005 -0.152516 0.17088188 0.1287016
-0.1878524 -0.010064168 0.14595875 -0.15677659 -0.064425394 0.03479265 -0.19614545 0.07643318
-0.08516611 0.123647206 0.033332802 0.1282002 -0.04562848 0.07754966 0.06500122 -0.12892766
0.14836623 0.14766188 -0.11763996 0.014776812 0.023404771 0.075359434 -0.15723948 0.15399717
0.09633593 0.14593074 0.055431236 -0.020618852 -0.07431147 0.07859476 -0.0043093185 -0.036887567
-0.004670451 0.0107125845 -0.026238926 0.21719705 -0.14644298 -0.080332935 0.10213983 0.017719436
-0.06852806 -0.17923172 0.18705119 -0.18149571 -0.11952656 -0.0148451645 -0.13913605 -0.1088764
0.11825011 -0.17811503 -0.04429155 0.036191713 -0.1469841 0.03163443 0.07849972 0.036391746
0.10232881 -0.13691674 0.16120507 -0.1347941 -0.016096953 -0.009854188 -0.08964811 -0.10467542
0.06959797 0.20362292 -0.14565004 0.061693784 0.13530992 -0.089435585 0.2084955 0.16813155
0.20204097 -0.06337201 -0.18021522 -0.10510999 -0.15576623 0.01878215 0.18517637 0.06999382
-0.054527793 -0.14448322 0.1386138 -0.14950116 -0.010289305 0.03701928 -0.023168681 -0.0010880335
-0.07776865 -0.18077007 -0.034519486 0.17916481 0.20834439 -0.09361107 0.029877778 0.109354
-0.0005773975 0.02714315 0.030866517 -0.09109234 0.045320548 -0.00225962 0.04193879 -0.02322215
0.02228598 0.06725265 0.020967057 0.1803754 -0.035554506 -0.020942993 -0.026949044 0.16686502
0.0752163 0.09013192 0.038021844 -0.07070349 0.009142574 0.09042956 -0.12555137 0.035735775
0.12273126 0.17776157 -0.032163672 0.1594207 -0.043617863 -0.20555604 0.14959289 0.15814753
-0.050549526 -0.2466462 0.09263176 -0.14616023 0.030751538 -0.060245167 -0.0752232 0.080126435
-0.21302299 0.045251112 0.029636778 -0.022320025 0.08254791 -0.096510716 -0.012045018 -0.023931434
0.182116 0.1609686 -0.17116874 0.14189681 -0.042411245 0.09613435 -0.10453533 0.15754016
0.0035011962 0.1794985 0.03975734 -0.13681178 -0.16593166 0.1049864 0.10217144 -0.16319267
0.035048105 0.15946406 -0.119623035 0.0767743 -0.011954631 0.06252135 0.11664453 -0.05893876
-0.14763771 -0.066554785 0.1707273 -0.15662016 -0.12273865 0.06016281 -0.0066331164 -0.15256888
-0.0054539437 0.008499301 0.031859 -0.08936248 -0.03693195 0.09402565 0.006950234 -0.12048724
0.10680399 -0.13589515 0.05733951 -0.005255371 -0.042281352 -0.046981893 -0.08910437 0.065656565

policy_mean.bias f4 [7]
00000000: d372 0d3e 8c30 e4bd da6e eb3d 0b3a e0bc
00000010: 63a0 8abd 658d 07be 3d18 9e3d
0.13813333 -0.11142072 0.11495753 -0.027371427 -0.067688726 -0.13237531 0.07719467

value_head.weight f4 [1, 64]
00000000: 8070 3d3e 743d 923d 388c d8bc a598 f33d
00000010: 5f4a 043e aff3 793e 93a1 20be 4b00 afbd
00000020: 34b4 3bbd 29ae 89be 8e0e 1a3e d2be 20be
00000030: 0be8 443e 138d 673e c65f 45be 432b 4dbe
00000040: f96c 19be 00dd 9f3d 7e43 f73d 8d5d 7cbe
00000050: eefe 0e3e 4b25 7d3e 17ac 513e 2532 4ebe
00000060: e80e e9bd 76e4 21be 0c9c 7dbe b5ce 96be
00000070: 63c6 28be 9e6d 0a3d c9b7 64be b585 c7bd
00000080: 2542 33be e7a1 21be d25c 823e c21f 1abc
00000090: 94fb 4ebe 8fb0 5bbe 07a6 67be a86f 513e
000000a0: 8078 95be 68c9 dbbd 3559 8f3e ba5c 4c3d
000000b0: dbe2 4fbd e2a9 513e aa42 493e 6c2a 58bd
000000c0: 5439 8f3d 657c 41be c198 66be 1d11 eb3d
000000d0: 319c 573e e8fc 743e 2d68 7e3d 55f1 b4bd
000000e0: a9e0 043e a35d 1ebe 7cee 293e 6ae7 1abe
000000f0: 94c6 5bbe 6d0c 623e 3f72 33be 27a4 713e
0.18499947 0.071406275 -0.026434049 0.11894349 0.12918995 0.24409364 -0.15686636 -0.08544978
-0.045826152 -0.26890686 0.15044615 -0.15697792 0.19229142 0.2261241 -0.19274816 -0.20036034
-0.14982976 0.07805824 0.1207342 -0.24645062 0.13964435 0.24721257 0.20475803 -0.20136316
-0.11379796 -0.15809807 -0.24766558 -0.2945458 -0.16481929 0.033795945 -0.22335733 -0.097422995
-0.17505701 -0.15784417 0.2546144 -0.009406986 -0.20213157 -0.2145407 -0.22621928 0.2045275
-0.29193497 -0.107317746 0.27997747 0.04989312 -0.050753456 0.20474961 0.19654337 -0.05277483
0.06993356 -0.18895109 -0.22519208 0.114778735 0.21055676 0.23924601 0.06211107 -0.08835093
0.12976326 -0.15465407 0.16594881 -0.1512734 -0.2146247 0.22075053 -0.1752405 0.23597775

exp_avg f4 [7]
00000000: b9e2 25bb 67eb 77bb 472a 56bb 0487 7ebb
00000010: 2918 3cbb eb0d 21bb cdf7 96bb
-0.002531214 -0.003782952 -0.0032679008 -0.00388378 -0.0028700924 -0.0024574946 -0.004607177

exp_avg_sq f4 [7]
00000000: 2517 4238 e6b4 ea37 dcc9 dd37 0fc2 d837
00000010: 6e58 e737 4c44 3e38 fa67 c337
4.627476e-05 2.7979211e-05 2.6439251e-05 2.5839572e-05 2.7578524e-05 4.5363136e-05 2.329423e-05

exp_avg f4 [64, 21]
00000000: 1a14 2938 d82c 053a 9973 9d3b 036e 563b
00000010: 4aca 04ba 1168 d63a 4c10 bc39 004c bb38
00000020: 4d5a b9b8 403a b1b9 e6e8 ae39 791c 471d
00000030: 0290 fb39 741d 723b b11a 7320 5182 1a1e
00000040: ae43 0b0a a905 833b 1814 29b8 8f9a ecb7
00000050: 7593 91ba 6b37 3939 3b43 5eb8 0a78 ff3a
00000060: a41d b03a 5dcc c5b9 8f40 2e3a 9dd7 bd39
00000070: d5d3 2538 253f 23b8 757e 2ab9 c789 2639
00000080: 8bf4 9e1d 624e 4f39 2880 c73a 8d0e c21f
00000090: 26a9 9b1d 47c4 5608 a0f1 d73a 6b37 39b9
000000a0: 966f 8339 86df dfb9 b43c d738 8e75 e838
000000b0: 44c0 1b3b c8a5 da3a abc7 a7b9 0df4 4b3a
000000c0: 5110 8f39 0f58 4338 7671 41b8 145e 2fb9
000000d0: 636c 2c39 e2a5 5a1d bfba 7c39 461e f33a
000000e0: 0436 e91f cd06 581d f660 2a09 44a1 033b
000000f0: b43c d7b8 ed7f 0839 9ac4 08ba 6f76 51b9
00000100: 22b5 1d39 9dfb c7ba e2f0 88ba a6a8 d039
00000110: 2909 0eba 1729 bab9 f1a3 fdb7 e660 f737
00000120: 606b 0c39 cda9 08b9 bef8 a79d 2bba 21b9
00000130: e3a1 9bba 5362 949f 9469 929d 0d34 ec05
00000140: 4777 a8ba 6e76 5139 a9b7 9fb9 f866 b139
00000150: b2aa 3c39 b49b 8239 0c64 953b 1f2d 4c3b
00000160: 42b9 2bba d5e2 cc3a 98d3 083a e73e b438
00000170: 40f3 b1b8 07f0 acb9 342e aa39 33d7 bb1d
00000180: a6e2 ef39 78dc 663b c518 6420 4e80 171e
00000190: c2dd c109 65e1 793b b0aa 3cb9 d48d 5a39
000001a0: 38d7 87ba 4333 28b8 1add 38b8 78ad 77ba
000001b0: 1428 22ba e3ba 0e39 fd19 a7b9 3c6a e5b8
000001c0: a308 8ab7 29a4 8837 5e75 6538 3f8b 62b8
000001d0: eb44 5d9c 410e c6b8 c876 3eba d80f 319f
000001e0: 9814 a99c 079b a988 dd4e 4eba 4633 2838
000001f0: 633f 53b8 bfda 6439 484e 8537 f4ff 5bb8
00000200: d348 63b9 a3e1 2eb9 1404 cdb7 e40f 3db8
00000210: b6c1 3e37 fcfd b7b6 2d14 bc36 a85d 5937
00000220: f87a 56b7 4b38 261b 0fbf bdb7 ab8d 36b9
00000230: 352f 329e f656 2317 c949 ed87 06a7 45b9
00000240: 4a4e 85b7 d940 fa37 95ec 3238 d8bf c6b9
00000250: cfaf 3eb7 19a9 aebb df9d 74bb bdb2 7b3a
00000260: 649a efba f9e2 53ba f384 d9b8 0223 d638
00000270: fad4 d439 b7c7 d0b9 cf49 2c9e d081 0dba
00000280: e229 88bb fbf2 83a0 978a 229e 0e62 8a89
00000290: 3867 93bb d8bf c639 1187 0aba d2fc 993a
000002a0: 7e37 9a39 deea b4b9 970c 853a 5235 423a
000002b0: 00a6 eab9 5eef c839 55e2 e239 d845 b137
000002c0: 6033 abb7 0ecf c1b8 7f72 bb38 ea93 cf1d
000002d0: e482 e038 67d5 573a 2558 361f 44d3 e51c
000002e0: 1d14 1b89 b4dd 693a 7d37 9ab9 970b ed39
000002f0: f90e 49b9 9883 98b2 ab7c 8fb8 cb0c 34ba
00000300: 948d 0fba 6594 7738 84a4 65b9 5bec 14b8
00000310: 2ca1 82b7 0778 8137 bc16 7c38 77c3 77b8
00000320: 1d71 5e9c c7ec 93b8 ce76 0eba a1d4 159f
00000330: 06ce 9f9c cf06 8188 a716 1aba 9881 9832
00000340: 6003 0eb6 e857 1639 2db8 4239 987c 58b9
00000350: 3b39 213a 2405 cd39 64d9 92b9 7e8d 5939
00000360: e775 9239 9d9f 4537 bd2c 3fb7 7dcc 52b8
00000370: 551a 4b38 4ef0 811d 23de 8638 0385 013a
00000380: b260 c51e c363 a11c 8247 e288 b87c 0c3a
00000390: 2cb8 42b9 d5f5 8d39 b6a1 fdb8 26d0 1e3a
000003a0: 022e c9b9 9d7e a43b 99d3 633b a75e 9cba
000003b0: 3558 e73a 0557 8e3a 945c cd38 f242 c9b8
000003c0: 0149 cfb9 6a64 ca39 7bbb 6e1e b3fb 053a
000003d0: 3ee2 803b a865 7020 5bee 1e1e e431 1a08
000003e0: da90 8b3b 25d0 1eba b592 6a3a 8571 8eba
000003f0: 4385 3b38 4e42 f539 bb33 953b 0c8a 4a3b
4.031146e-05 0.00050802296 0.00480504 0.003271938 -0.0005065544 0.0016357919 0.00035870296 8.931011e-05
-8.838307e-05 -0.0003380347 0.0003336139 2.635215e-21 0.00047981745 0.0036943825 2.0591732e-19 8.179641e-21
6.705336e-33 0.0039984775 -4.0311454e-05 -2.8205364e-05 -0.0011106568 0.0001766362 -5.2991538e-05 0.001949073
0.0013436568 -0.0003772703 0.0006647193 0.00036209534 3.953635e-05 -3.8921036e-05 -0.00016259572 0.0001588232
4.2075103e-21 0.00019770258 0.0015220689 8.218627e-20 4.1203054e-21 6.4629005e-34 0.0016475208 -0.0001766362
0.00025069405 -0.00042700412 0.00010263306 0.00011084518 0.0023765722 0.0016681487 -0.00032001486 0.0007780202
0.00027287242 4.6573634e-05 -4.6120454e-05 -0.00016724347 0.00016443575 2.893782e-21 0.00024102161 0.0018548451
9.87687e-20 2.8590878e-21 2.0508596e-33 0.0020085135 -0.00010263306 0.00013017627 -0.0005217284 -0.00019975913
0.00015040164 -0.0015257482 -0.0010447765 0.00039798504 -0.0005418235 -0.000355073 -3.0236291e-05 2.9489816e-05
0.00013391441 -0.00013033226 -4.4461725e-21 -0.0001542351 -0.0011873808 -6.28431e-20 -3.8755043e-21 2.2212454e-35
-0.001285293 0.00019975912 -0.0003046368 0.00033836788 0.00017992666 0.0002491154 0.0045590457 0.0031154824
-0.0006550738 0.0015631566 0.0005219518 8.594785e-05 -8.4853265e-05 -0.0003298523 0.0003245935 4.9721e-21
0.000457545 0.0035226624 1.9320547e-19 8.020406e-21 4.66716e-33 0.003812873 -0.00017992663 0.00020842935
-0.0010363823 -4.0102062e-05 -4.4074935e-05 -0.0009448151 -0.00061857817 0.00013611796 -0.00031872085 -0.000109393586
-1.6454904e-05 1.6288906e-05 5.470716e-05 -5.4012282e-05 -7.321184e-22 -9.444031e-05 -0.00072656246 -3.7494314e-20
-1.1188805e-21 -1.0207764e-33 -0.0007870028 4.0102073e-05 -5.0365354e-05 0.00021825264 1.5891288e-05 -5.2452044e-05
-0.00021675536 -0.0001667799 -2.4439803e-05 -4.507591e-05 1.1369984e-05 -5.4833927e-06 5.6051854e-06 1.2956014e-05
-1.2784025e-05 1.3749387e-22 -2.2619524e-05 -0.00017409648 -9.433004e-21 5.27779e-25 -3.5703164e-34 -0.00018849605
-1.5891292e-05 2.983252e-05 4.265884e-05 -0.00037908438 -1.1365816e-05 -0.0053302166 -0.0037325544 0.0009601524
-0.0018280265 -0.0008082833 -0.0001037213 0.00010210836 0.0004059447 -0.0003982165 -9.1208674e-21 -0.0005398067
-0.0041553834 -2.2353054e-19 -8.604868e-21 -3.33145e-33 -0.0044983886 0.00037908438 -0.00052844087 0.001174832
0.00029414514 -0.00034507265 0.0010150847 0.0007408458 -0.00044755638 0.00038325315 0.0004327471 2.1132568e-05
-2.0408712e-05 -9.241524e-05 8.9381814e-05 5.4945383e-21 0.000107055326 0.00082333985 3.861291e-20 1.520856e-21
-1.8666904e-33 0.0008921281 -0.0002941451 0.00045212798 -0.00019174432 -1.775497e-08 -6.8419926e-05 -0.00068683614
-0.0005476114 5.9027592e-05 -0.00021900429 -3.5506073e-05 -1.557226e-05 1.543389e-05 6.0102655e-05 -5.907143e-05
-7.3599834e-22 -7.0536094e-05 -0.00054345734 -3.172786e-20 -1.0574993e-21 -7.765506e-34 -0.0005878009 1.7754061e-08
-2.1161613e-06 0.00014337862 0.00018569893 -0.0002064578 0.00061501906 0.00039104477 -0.0002800926 0.00020747443
0.00027935134 1.1779278e-05 -1.1394904e-05 -5.0258346e-05 4.8423495e-05 3.4394485e-21 6.430994e-05 0.000494078
2.0898179e-20 1.0679874e-21 -1.3618692e-33 0.0005359161 -0.00018569891 0.00027076775 -0.00012094101 0.0006058238
-0.00038371986 0.0050199763 0.0034763573 -0.0011930064 0.0017650189 0.0010859674 9.792406e-05 -9.5968964e-05
-0.0003953651 0.00038603257 1.2638385e-20 0.00051110535 0.00393322 2.0362426e-19 8.413741e-21 4.6401335e-34
0.004259211 -0.00060582376 0.00089482527 -0.0010867572 4.4708384e-05 0.00046779442 0.004553286 0.0030905036

exp_avg_sq f4 [64, 21]
00000000: ac95 c337 9c1c e737 c974 a339 5295 5d39
00000010: 524a 8338 7101 2d38 2904 0637 6171 fb33
00000020: 4914 fa33 a8c0 8d34 4b7d 8b34 8821 5700
00000030: 199f 9036 bc67 8439 00f6 0603 f2ea e300
00000040: 0000 0000 98ec 9c39 ac95 c337 8cbb 0f38
00000050: 0f60 9136 8a11 4936 b59f 6836 66f3 7d38
00000060: a39f 4138 0a0f f536 4ecd ba36 6570 5235
00000070: 713a d832 37e5 d932 beb6 4833 56c1 4333
00000080: 2d11 0d00 e0b0 6235 1255 4f38 c677 b301
00000090: 64e2 2f00 0000 0000 a3f9 7538 8911 4936
000000a0: 360d a536 3b01 3535 79fe a336 8845 c136
000000b0: baf3 9438 e21d 4838 ea74 6e37 d832 1037
000000c0: 4ee8 d435 937b eb32 4b32 ea32 6e22 8033
000000d0: cd0f 7c33 099b 0f00 71d6 8335 816d 7138
000000e0: 1301 f501 4436 3500 0000 0000 ac0d 8f38
000000f0: 79fe a336 58af fa36 19c0 7535 8aef 4236
00000100: 8096 8b36 0064 4338 3f02 0b38 3266 ee36
00000110: aa87 a036 fcce 3635 9b2b ab32 366e aa32
00000120: 234e 1b33 5421 1733 996a 0600 b595 2e35
00000130: 2cbf 1f38 5e04 9201 084f 2500 0000 0000
00000140: ba6f 3d38 8aef 4236 436d c236 0649 0a35
00000150: 812f ba37 e638 de37 00a6 9e39 bcfb 5239
00000160: b6ae 8438 5127 2338 904e e436 8171 f833
00000170: 9c74 f633 8e13 8a34 f6df 8734 7087 4b00
00000180: 7ce5 8c36 6500 8139 2c63 0403 9e58 db00
00000190: 0000 0000 e7e1 9839 812f ba37 3038 0e38
000001a0: d405 8336 115d 4c35 13e9 7635 a13b 1537
000001b0: 4f19 ba36 f77a 0f36 7d42 b735 eddd 8934
000001c0: e20f 6231 f04d 5e31 faf3 0932 0555 0832
000001d0: 497b 0200 913e 0434 475a f236 a512 8500
000001e0: b26f 0600 0000 0000 9c7e 0f37 105d 4c35
000001f0: 7a71 9935 d4a9 0734 232f 6f33 21e7 8233
00000200: dbc4 f334 cd94 9834 b17f d833 66aa aa33
00000210: 4701 3f32 b94f 242f 3704 222f b99a c42f
00000220: 3791 c02f 3324 0000 4a3e d231 dcbc c034
00000230: 9bea 0600 7850 0000 0000 0000 e020 e434
00000240: 232f 6f33 3658 a133 e98f 2132 8cb3 d137
00000250: e053 ef37 04e2 d439 ccd7 9339 0a5b 9c38
00000260: deb3 3938 0b99 f936 f8b0 2b34 216e 2b34
00000270: 2cc5 b234 2847 af34 326c 5600 4610 bd36
00000280: 720a ad39 0c85 2803 8c37 1401 0000 0000
00000290: b825 cd39 8bb3 d137 82b7 1f38 29c1 a636
000002a0: 58ce a235 1dbd b135 65a4 b537 1759 8337
000002b0: f664 3c36 0e95 1436 67f1 9434 1ee4 1332
000002c0: fbea 1432 10bd 8532 3f86 8132 c604 0500
000002d0: fb68 a134 cabc 9337 9430 0501 3a1e 1000
000002e0: 0000 0000 1b24 af37 58ce a235 fc38 fb35
000002f0: 1322 9234 5c3e 7435 2d32 8b35 3013 2937
00000300: cb90 ce36 17dd 2c36 4c43 d035 09c6 a034
00000310: fbb3 7731 85e4 7331 5697 1932 7db9 1732
00000320: 3fd0 0200 c636 1634 08a5 0937 a89f 9a00
00000330: 53ee 0600 0000 0000 1afe 2237 5c3e 7435
00000340: aa8e ab35 98c5 0c34 4d31 8435 5dcc a835
00000350: da2e 2037 f4bf ca36 4c78 da35 66db cb35
00000360: 2dcf 1334 cc76 7a31 999c 7631 89a4 ea31
00000370: 7eea e331 89e7 0200 796c 1034 1360 0437
00000380: 695d 8900 1a81 0700 0000 0000 c7b5 1c37
00000390: 4d31 8435 0c71 e235 e4a0 ed33 b3cb b837
000003a0: 6ba4 e537 5712 c839 5d62 8d39 9889 8138
000003b0: 68d9 2138 0f7f c836 e3b5 2734 63a7 2734
000003c0: 0fac a034 5fea 9c34 04c9 4200 e010 b236
000003d0: 4ef4 a239 c24f 1803 dca1 1101 0000 0000
000003e0: d836 c139 b3cb b837 1855 1f38 a28b 9436
000003f0: fd8c be37 2cd9 df37 62ea 9839 3db4 4939
2.3315508e-05 2.7550668e-05 0.00031176794 0.00021131829 6.26041e-05 4.1247757e-05 7.987991e-06 1.1708722e-07
1.1645222e-07 2.6403472e-07 2.598193e-07 8.001717e-39 4.310056e-06 0.0002525429 3.9661455e-37 2.093094e-38
0.0 0.00029930915 2.3315508e-05 3.4268523e-05 4.3325194e-06 2.9961543e-06 3.4663656e-06 6.0546583e-05
4.616346e-05 7.3033198e-06 5.5671326e-06 7.839465e-07 2.5172286e-08 2.536636e-08 4.6732332e-08 4.5577814e-08
1.200023e-39 8.444895e-07 4.9431874e-05 6.592608e-38 4.397482e-39 0.0 5.8645044e-05 2.996154e-06
4.918921e-06 6.7429545e-07 4.887403e-06 5.7599427e-06 7.1025876e-05 4.7711546e-05 1.4213127e-05 8.594907e-06
1.586284e-06 2.7413796e-08 2.7264056e-08 5.966727e-08 5.8687693e-08 1.433149e-39 9.822671e-07 5.756086e-05
9.000033e-38 4.886748e-39 0.0 6.821318e-05 4.887403e-06 7.4709933e-06 9.154915e-07 2.9047683e-06
4.1600433e-06 4.6584755e-05 3.3142274e-05 7.10485e-06 4.784165e-06 6.8101485e-07 1.992685e-08 1.9840723e-08
3.6159815e-08 3.518774e-08 5.89253e-40 6.5037904e-07 3.8086597e-05 5.3638196e-38 3.426264e-39 0.0
4.5165165e-05 2.9047683e-06 5.7943703e-06 5.151527e-07 2.2195049e-05 2.6490958e-05 0.00030259788 0.00020120939
6.326793e-05 3.8898845e-05 6.8040754e-06 1.1569046e-07 1.1476479e-07 2.571873e-07 2.5308663e-07 6.936248e-39
4.1990406e-06 0.0002460509 3.8905157e-37 2.0143764e-38 0.0 0.0002916001 2.2195049e-05 3.3907767e-05
3.9047827e-06 7.613135e-07 9.198131e-07 8.8949755e-06 5.5461783e-06 2.1380235e-06 1.3653913e-06 2.567971e-07
3.2896357e-09 3.2349554e-09 8.029923e-09 7.935573e-09 2.27897e-40 1.231622e-07 7.2226717e-06 1.222081e-38
5.91082e-40 0.0 8.552943e-06 7.6131346e-07 1.1432414e-06 1.2634638e-07 5.5689394e-08 6.095639e-08
4.5405508e-07 2.8420473e-07 1.0081511e-07 7.947237e-08 1.1117954e-08 1.4944036e-10 1.4735312e-10 3.576213e-10
3.5027778e-10 1.2986e-41 6.118886e-09 3.59002e-07 6.35174e-40 2.8867e-41 0.0 4.249223e-07
5.5689394e-08 7.513192e-08 9.404155e-09 2.499835e-05 2.8530078e-05 0.00040604186 0.00028198806 7.455617e-05
4.427495e-05 7.438595e-06 1.5989997e-07 1.596568e-07 3.3298545e-07 3.2648063e-07 7.936666e-39 5.6345334e-06
0.00033004914 4.9523493e-37 2.722316e-38 0.0 0.0003912875 2.4998348e-05 3.807946e-05 4.9696723e-06
1.2129995e-06 1.3242567e-06 2.1653434e-05 1.5657903e-05 2.807295e-06 2.214048e-06 2.7742792e-07 8.608394e-09
8.668162e-09 1.5569213e-08 1.5078625e-08 4.6089e-40 3.006497e-07 1.7611677e-05 2.4463095e-38 1.480211e-39
0.0 2.0878439e-05 1.2129995e-06 1.8717542e-06 2.7219411e-07 9.098783e-07 1.037091e-06 1.0077652e-05
6.1561345e-06 2.5758688e-06 1.5516794e-06 2.9946412e-07 3.6045538e-09 3.5491052e-09 8.940182e-09 8.831532e-09
2.58376e-40 1.3989765e-07 8.204261e-06 1.419994e-38 6.36508e-40 0.0 9.715115e-06 9.098783e-07
1.2782014e-06 1.31104e-07 9.849115e-07 1.2576453e-06 9.547652e-06 6.0424154e-06 1.6277277e-06 1.5188532e-06
1.3765812e-07 3.6447316e-09 3.5886727e-09 6.829002e-09 6.633228e-09 2.6673e-40 1.3450507e-07 7.890182e-06
1.2614972e-38 6.89161e-40 0.0 9.340648e-06 9.849115e-07 1.6871213e-06 1.1065438e-07 2.2029364e-05
2.737549e-05 0.00038160637 0.00026966902 6.176828e-05 3.8587867e-05 5.975256e-06 1.5619257e-07 1.5613982e-07
2.9927511e-07 2.9227792e-07 6.133254e-39 5.306778e-06 0.0003108107 4.4760343e-37 2.6748422e-38 0.0
0.0003685269 2.2029364e-05 3.7987804e-05 4.426999e-06 2.2715418e-05 2.66848e-05 0.00029166328 0.00019235998

exp_avg f4 [64]
00000000: ab05 833b a4f1 d73a 44a1 033b 4377 a8ba
00000010: 68e1 793b df4e 4eba 07a7 45b9 3767 93bb
00000020: b0dd 693a a616 1aba ba7c 0c3a da90 8b3b
00000030: a36e 783b e6aa 5e3b 4cae 973b d88a 6c3b
00000040: cea8 eebb 61a8 51b9 de58 b239 be5e 50b8
00000050: 4b9f 483a db01 0b3b fa61 383a 33e2 803b
00000060: 34b3 f63a 0df8 50ba f076 803b 2aa9 b6ba
00000070: 4667 4fbb e1c4 7f38 6876 f8b9 cb84 b53a
00000080: fdf5 14ba d247 483b c513 57bb 3fd5 7bba
00000090: bb2f 4fbb d5f7 a93b b5fd 20bb 3351 683b
000000a0: dd2b 5139 d615 7d38 46fd 073b 17d0 b0ba
000000b0: 0fdf acba 1416 49bb f721 8bba 83f1 d1ba
000000c0: 3914 f83b 5111 793a f440 4cbb ef90 ce3a
000000d0: d966 9c3b 8582 84bb ad94 8abb 6089 a0ba
000000e0: c163 8b3b 4bee abba 83e8 b53b 6706 023b
000000f0: cc77 d9b9 ed50 5bb9 a43c 193a 7454 cdbb
0.0039984784 0.0016475213 0.0020085135 -0.0012852926 0.0038128737 -0.0007870029 -0.00018849607 -0.004498388
0.00089212786 -0.00058780087 0.0005359162 0.004259211 0.0037907741 0.0033976375 0.004628932 0.00360935
-0.0072833067 -0.00019994519 0.00034017017 -4.96793e-05 0.0007653131 0.0021210823 0.00070336426 0.003933215
0.0018821717 -0.0007971533 0.0039204285 -0.0013935913 -0.003164725 6.0980095e-05 -0.00047390466 0.001384878
-0.0005682407 0.0030560386 -0.003281818 -0.0009606666 -0.0031614143 0.0051870146 -0.0024565284 0.003544879
0.00019948134 6.0340237e-05 0.0020750328 -0.001348975 -0.0013189035 -0.0030683326 -0.0010614981 -0.0016017411
0.00757077 0.00095011765 -0.0031166645 0.0015759746 0.0047730026 -0.0040438795 -0.0042291493 -0.0012247972
0.004253835 -0.0013117281 0.005551399 0.0019840242 -0.0004147872 -0.00020915615 0.0005845523 -0.006266171

exp_avg_sq f4 [64]
00000000: 97ec 9c39 a3f9 7538 ac0d 8f38 b96f 3d38
00000010: e8e1 9839 9c7e 0f37 df20 e434 b925 cd39
00000020: 1b24 af37 19fe 2237 c9b5 1c37 d836 c139
00000030: 422b 9339 6901 7339 4113 c839 9656 8139
00000040: 71d1 823a 28a0 9135 792a e936 88b0 ac35
00000050: b7ce 6437 35ac ad38 feac 6d37 efd0 8d39
00000060: 51c0 8238 f208 a537 96d9 9139 9962 6138
00000070: 4f93 2839 7454 0635 923c be36 6841 3f38
00000080: 8584 1237 6092 5439 5062 4139 1603 a337
00000090: e6c9 3f39 62d7 023a e6ef d438 fb1b 6839
000000a0: 4856 8535 41e3 3336 984c a538 aa03 0a38
000000b0: 4c77 0f38 d4d0 4539 878d c437 0fe9 9738
000000c0: a4bf 963a 77ba 9e37 66e4 3d39 9bbf 7e38
000000d0: 6aea e039 fb68 bd39 3b57 ad39 0b29 1038
000000e0: ef29 b339 577e 3438 7cbe 1d3a 553d a338
000000f0: 57f5 ae36 9e49 0336 22c1 2e37 5e24 503a
0.00029930912 5.8645044e-05 6.821318e-05 4.516516e-05 0.00029160012 8.552943e-06 4.2492226e-07 0.00039128753
2.0878439e-05 9.715114e-06 9.34065e-06 0.0003685269 0.00028070254 0.00023174811 0.00038161318 0.0002466931
0.0009980631 1.0849953e-06 6.9488856e-06 1.2866376e-06 1.3637989e-05 8.281359e-05 1.4166579e-05 0.00027049283
6.234705e-05 1.9673698e-05 0.0002781867 5.3736007e-05 0.00016076605 5.0041785e-07 5.6694926e-06 4.5598863e-05
8.733133e-06 0.00020272424 0.00018442539 1.9432551e-05 0.00018290392 0.0004991201 0.00010153632 0.00022135668
9.934383e-07 2.6805358e-06 7.88208e-05 3.2905176e-05 3.420496e-05 0.00018865179 2.3430925e-05 7.2436516e-05
0.0011501205 1.8921897e-05 0.0001810953 6.0736766e-05 0.00042899261 0.00036127106 0.00033062123 3.43705e-05
0.00034172783 4.3033007e-05 0.0006017459 7.78387e-05 5.2141654e-06 1.9563372e-06 1.0416175e-05 0.00079399894

exp_avg f4 [64, 64]
00000000: dae7 0f39 2f35 b038 34f9 72b8 ee7a 0eb9
00000010: 880f 7838 a570 29b8 2b7c 3f39 48cf a4b8
00000020: 6e8f cfb7 b6ae 1739 018a d437 0b66 68b7
00000030: e8a3 f138 8347 c1b7 0bf3 bc38 4c79 0a39
00000040: a504 bab8 4168 efb8 d074 acb8 3c94 0f39
00000050: 1813 0338 9f04 dcb8 ec0b e538 e827 fc37
00000060: 24a8 bc38 fdef 2ab9 7ab3 5f39 2f61 52b8
00000070: d02d a4b2 4cdf 3b39 9a0a 93b8 59a8 ed38
00000080: 08f5 0339 cdac ee38 9d63 b1b8 b9ef 1db9
00000090: 91b2 12b9 ce16 bb38 7da6 95b8 6cc2 9638
000000a0: bc45 3cb8 e00e e538 a383 ed38 c369 9ab8
000000b0: b732 0f39 4234 0bb9 b7f9 f7b8 72b5 1cb9
000000c0: f9c5 5b38 a772 6439 0615 5eb9 8758 c2b8
000000d0: ca1a 7938 77ae 5bb8 b005 b8b8 a6d1 c434
000000e0: 9ae8 7139 8fd3 32b9 7b46 8038 6280 ad38
000000f0: b598 21b9 04f6 dd37 8092 2eb9 c689 24b7
00000100: c548 6439 1e66 a239 b104 54b9 dc3c b3b9
00000110: 05ee 2339 b1f7 2339 1d3d c339 2af6 e3b7
00000120: 008a 1b39 61e4 e339 bd02 b239 af1a 1038
00000130: f2ea 6339 12c9 9638 9fec 1c38 65d6 ff38
00000140: 97c5 c5b8 a64e f7b9 79a8 90b9 20ec e739
00000150: a13b 0f39 6d88 92b9 4016 e139 2f1e f5b7
00000160: f788 85b8 0c85 e1b9 8f3a 2839 63a4 73b9
00000170: f308 0339 f1b0 0f3a 726b b3b9 abe2 6239
00000180: 4a74 30b9 49ce 5f39 653d ddb8 53f3 8cb9
00000190: 272e 47b8 7b34 1839 f8c3 efb8 b913 cab7
000001a0: fcdd 1439 c48e 81b9 de90 8eb4 6c6a 96b9
000001b0: 78b5 3237 5b26 58b9 a175 97b9 81cf bbb9
000001c0: 177c ca38 5bcd b439 9517 bcb8 710a 8cb9
000001d0: f3de ad38 4ff5 36b9 0915 31b8 d761 72b9
000001e0: 90e3 3639 c39f d7b9 3df8 a738 8227 4b39
000001f0: d825 1cba 4257 a139 0d22 e338 e3fc 9cb8
00000200: e087 2cb9 d3e9 86b9 04be 1b39 be5c 9139
00000210: ff9e 01b9 7339 0ab9 5901 95b9 3268 5237
00000220: 739f 05b9 689a b4b9 af75 98b9 630a 07b8
00000230: d269 2bb9 59e9 a2b8 c4c3 dbb7 f6a3 a2b8
00000240: 716a 9c38 8c92 ca39 5792 6a39 29dc b7b9
00000250: 09de f1b8 033d 6039 332c bab9 0c44 d637
00000260: ea50 8e38 7b71 b539 b75b c5b8 5427 5839
00000270: 0dac d5b8 27f3 e7b9 9b8c 9339 c2b4 2bb9
00000280: 1c3c 3339 b250 30b9 e606 b538 3aef 5539
00000290: 3264 a537 d23c f1b8 3839 a938 cc1f 2d38
000002a0: 9dce 01b9 9b30 7439 947b ae37 0048 7139
000002b0: b4ab cd37 0615 3039 20f4 7039 9933 9839
000002c0: 68ae b0b8 cb42 8cb9 eab5 3c38 bed8 5e39
000002d0: d395 8ab8 3146 2139 e435 0338 eea1 5839
000002e0: 90be e5b8 2354 ac39 ca27 79b8 c043 1db9
000002f0: 4f6d ff39 cbb9 83b9 f182 03b9 fee4 8d38
00000300: 7c9b d638 341c ab38 ffab 24b8 bc13 eeb8
00000310: 7e43 5d38 5a94 9db7 863d 1039 9932 5fb8
00000320: 4c4c cd34 57a9 f138 decb 4638 4de9 71b4
00000330: 9bec b338 cd67 e2b4 d101 8c38 bd6c c138
00000340: 7b17 8db8 c3ae e5b8 bdd1 91b8 5571 e938
00000350: 7af7 1638 8b1d 9eb8 6d8f d438 55f9 c537
00000360: b8c2 6538 b94f 0fb9 ca1e 1639 af63 6db8
00000370: 1a98 5135 98a6 1c39 b9b5 94b8 972b b438
00000380: 89f7 7238 84b0 b538 f74b 88b8 a29f f5b8
00000390: 1615 cab8 58fa 9238 86c9 6cb8 4340 5038
000003a0: 7344 69b7 a965 4238 a4a0 9738 5030 92b8
000003b0: 8eb8 8d38 ed48 d6b8 62de c6b8 ec46 00b9
000003c0: fc7d 5638 b3e6 2439 2fd7 0fb9 d500 8db8
000003d0: e484 5638 64ad 62b8 7f91 89b8 07cc b7b7
000003e0: 85b9 2239 a0cd 11b9 442d 5138 1934 9738
000003f0: dfd3 12b9 7c15 1a38 13f1 b7b8 efd4 b8b7
0.00013723914 8.40224e-05 -5.7929385e-05 -0.0001358797 5.9142272e-05 -4.039765e-05 0.00018261436 -7.8587385e-05
-2.4743113e-05 0.00014465567 2.5336632e-05 -1.3852036e-05 0.000115223054 -2.3040693e-05 9.009809e-05 0.00013205892
-8.870036e-05 -0.00011415827 -8.223357e-05 0.00013692764 3.1250616e-05 -0.00010491278 0.000109217915 3.0059324e-05
8.995857e-05 -0.00016301866 0.00021333797 -5.015841e-05 -1.9112946e-08 0.00017916894 -7.011481e-05 0.00011332398
0.00012584415 0.00011380911 -8.458572e-05 -0.0001506199 -0.00013990166 8.9211026e-05 -7.1358845e-05 7.188771e-05
-4.4887638e-05 0.000109223416 0.0001132556 -7.362992e-05 0.00013656435 -0.0001327554 -0.00011824391 -0.00014944913
5.2398045e-05 0.00021786486 -0.00021179402 -9.2671304e-05 5.9391175e-05 -5.2376152e-05 -8.774863e-05 3.6660384e-07
0.00023070202 -0.00017054215 6.1166436e-05 8.273196e-05 -0.00015411044 2.6459813e-05 -0.00016648509 -9.80724e-06
0.00021770883 0.0003097513 -0.00020219643 -0.00034186884 0.0001563356 0.00015637164 0.0003723883 -2.7175138e-05
0.00014833361 0.0004346697 0.00033952846 3.4357126e-05 0.00021735931 7.19001e-05 3.741367e-05 0.000121992816
-9.430496e-05 -0.0004717011 -0.00027591342 0.0004423568 0.00013659756 -0.00027948935 0.00042931922 -2.9220331e-05
-6.367446e-05 -0.00043014472 0.00016043543 -0.00023235525 0.00012496467 0.00054813834 -0.00034221594 0.0002163748
-0.00016827989 0.00021343784 -0.00010549537 -0.00026884172 -4.748828e-05 0.000145154 -0.0001143291 -2.408946e-05
0.00014197076 -0.00024711166 -2.6554966e-07 -0.0002868952 1.0651878e-05 -0.00020613654 -0.00028888605 -0.00035822022
9.655224e-05 0.00034485277 -8.968931e-05 -0.0002671066 8.2908104e-05 -0.00017448257 -4.221968e-05 -0.00023115367
0.00017441646 -0.00041127027 8.0094185e-05 0.00019374306 -0.0005956567 0.00030773325 0.00010830546 -7.4857635e-05
-0.00016453816 -0.00025732684 0.00014852738 0.00027725653 -0.0001236163 -0.00013182107 -0.000284205 1.2541235e-05
-0.00012743268 -0.00034447317 -0.0002907938 -3.219618e-05 -0.00016347252 -7.768226e-05 -2.6197995e-05 -7.755302e-05
7.458486e-05 0.00038637628 0.00022370495 -0.00035068512 -0.00011533133 0.00021385033 -0.00035509616 2.5542475e-05
6.786159e-05 0.0003460756 -9.410775e-05 0.00020614016 -0.000101886784 -0.00044240916 0.00028142784 -0.00016375168
0.00017093163 -0.0001681473 8.6320375e-05 0.00020402382 1.971619e-05 -0.00011503104 8.069206e-05 4.1276027e-05
-0.00012379368 0.0002328776 2.0799962e-05 0.00023010373 2.451786e-05 0.000167925 0.00022979127 0.00029030142
-8.42482e-05 -0.00026752645 4.4992114e-05 0.00021252313 -6.60826e-05 0.00015380305 3.1283023e-05 0.00020659689
-0.00010955066 0.00032869083 -5.9403283e-05 -0.00014997926 0.0004871883 -0.00025124694 -0.00012541913 6.766057e-05
0.000102332764 8.159169e-05 -3.926083e-05 -0.000113524 5.2753363e-05 -1.878494e-05 0.0001375583 -5.3214466e-05
3.823974e-07 0.000115233175 4.7396745e-05 -2.2529748e-07 8.579456e-05 -4.2171305e-07 6.6760585e-05 9.223211e-05
-6.7277775e-05 -0.00010952123 -6.9532056e-05 0.000111314155 3.5993267e-05 -7.53953e-05 0.00010135663 2.3600334e-05
5.47792e-05 -0.00013667242 0.00014316585 -5.659804e-05 7.8079904e-07 0.0001493938 -7.0910384e-05 8.591188e-05
5.792783e-05 8.663631e-05 -6.499135e-05 -0.00011712244 -9.636038e-05 7.008453e-05 -5.6454468e-05 4.9650913e-05
-1.3903819e-05 4.6347883e-05 7.230163e-05 -6.9708214e-05 6.75778e-05 -0.00010217899 -9.482798e-05 -0.00012233452
5.1138908e-05 0.00015726201 -0.00013717705 -6.723559e-05 5.114534e-05 -5.404408e-05 -6.55977e-05 -2.1910308e-05
0.00015518635 -0.00013904879 4.987164e-05 7.209945e-05 -0.00014002573 3.673647e-05 -8.7710236e-05 -2.2033664e-05
