models/checkpoint_2000.pth (torch, 255274 bytes, 24 tensors)

policy_log_std f4 [7]
000000 23 61 da 3e e3 06 92 3f 98 da 08 3f 8b 76 44 3f
       0.42652234 1.1408352 0.5345855 0.7674338
000010 0e 60 4e 3f 36 30 85 3f 8c e4 17 c0
       0.8061532 1.0405338 -2.3733244

fc1.weight f4 [128, 21]
000000 60 c2 17 3f f5 fa 3e 3f e8 bd 69 be dc c7 ce be
       0.5928097 0.7460168 -0.2282635 -0.40386856
000010 db df 00 bf dc e3 eb bd 6a 79 89 bf ca fe cc be
       -0.50341576 -0.1151807 -1.0740178 -0.4003814
000020 74 26 8b 3e 5e 88 b5 3d ea 07 46 be 42 45 4a 3f
       0.27177775 0.088639006 -0.19338956 0.7901193
000030 90 cb 82 be 25 1e dc be 96 7d 0b 3e 8c a3 a2 bb
       -0.2554593 -0.42991748 0.13622126 -0.004963344
000040 72 36 76 bf 9f 2e 60 be 17 bf 86 bd c8 9d ac bf
       -0.96176827 -0.21892785 -0.06579416 -1.3485651
000050 09 83 19 3f 4e fc 66 3f 15 25 ea be 4d 1c d8 3e
       0.5996557 0.90228736 -0.45731416 0.42209092
000060 de bc 0c 3e 65 ec be be c5 11 bf bf bd 46 18 bf
       0.13743922 -0.3728973 -1.4927298 -0.5948294
000070 45 bc 55 be 52 05 74 3e 6a 2e a9 bc 17 35 20 3d
       -0.208726 0.23830155 -0.020652015 0.03911313
000080 9d 2b 90 3e e3 c6 aa 3c 40 4f 05 3f fc 1d 9b bc
       0.28158274 0.02084679 0.5207405 -0.018935196
000090 09 b3 91 bd d1 93 f5 3e 2f f4 e1 3e 3d f1 45 bf
       -0.07114226 0.47964337 0.4413161 -0.77321225
0000a0 dd e8 2a 3f f1 bd 19 c0 c6 c2 12 3f 00 8a 13 bf
       0.6676157 -2.402218 0.5732845 -0.57632446
0000b0 1e 4f 15 3f 3f b1 4b 3e 67 14 e6 3e d2 1c 52 bf
       0.5832385 0.19891833 0.4493744 -0.82075226
0000c0 6f 9b fb 3e 7a 8d 1f 3d 82 c2 24 be 2e 16 7a bd
       0.49142024 0.038953282 -0.16089824 -0.06105631
0000d0 f2 5d 23 3d c2 6f 0d 3f 30 fa 09 3f df 1b 32 3f
       0.039884515 0.55248654 0.5389738 0.6957378
0000e0 28 47 3c 3d 36 93 e1 bd bd 2c 5c 3e 11 d8 03 3f
       0.045966297 -0.110144064 0.21501441 0.51501566
0000f0 f0 c5 21 bf 5d 33 f1 3e 8a 47 27 3c 7b 10 7a 3e
       -0.63192654 0.471095 0.010209927 0.2442035
000100 47 3f 94 be 62 0a 06 be 22 df 0f bf 05 43 12 bf
       -0.28954527 -0.13089898 -0.5619985 -0.57133514
000110 50 89 8a be f8 29 49 be 03 0b 06 bf dc 20 e6 3e
       -0.27057886 -0.19644916 -0.5236055 0.44946945
000120 55 e8 10 3e 0d d0 c8 bd 1c 43 7a 3e f6 8a 28 bf
       0.14151128 -0.098053075 0.24439663 -0.6583704
000130 c3 e6 1a bf e7 66 c1 be b8 9a 90 3e 4a 07 fe 3d
       -0.60508364 -0.3777382 0.2824304 0.12403734
000140 78 58 3f be f6 f5 3f 3e b4 4d cb be d7 89 a9 bf
       -0.18686092 0.1874617 -0.3970772 -1.324519
000150 e8 4a 15 3f a8 11 33 bf a9 cd 3f 3f cf df 2a 3f
       0.5831742 -0.69948816 0.7492319 0.66747755
000160 2c 02 d5 3e 1a 2c 6c bf 83 81 5b be 76 06 e2 3e
       0.4160322 -0.92254794 -0.21436124 0.44145554
000170 cd b0 11 bf 1b ce 58 3f 95 f3 39 bf 17 db b1 3f
       -0.569104 0.8468949 -0.726373 1.3894986
000180 b9 68 fa 3e a9 dc 09 3f 54 ec 0d 3e ec 7f 56 3e
       0.48908022 0.53852326 0.13859683 0.20947236
000190 42 c7 85 be 03 59 61 3f 72 ec 90 be 33 b5 9b 3e
       -0.26128584 0.88026446 -0.28305393 0.30411682
0001a0 4f 73 02 c0 f3 8f 19 3e 94 cb b9 be 21 68 f2 3e
       -2.0382879 0.14996319 -0.3628813 0.4734507
0001b0 e8 31 2b 3f ec 18 fd 3e 44 04 b9 be 96 67 51 bb
       0.66873026 0.49433076 -0.36136067 -0.0031952611
0001c0 84 e6 3c 3f 5b 47 8c be 37 4a 0f 3e c3 f4 8a bd
       0.7378924 -0.2739819 0.13993154 -0.06784966
0001d0 a8 82 44 bf df 70 8e 3e e3 b4 b9 3e a6 e6 23 be
       -0.76761866 0.2782049 0.36270818 -0.16005954
0001e0 36 0d 94 be df f8 d5 be fe f1 f4 3e 49 be 0f be
       -0.2891633 -0.41791436 0.47840875 -0.14037432
0001f0 11 3c 77 3f 77 12 6a bf 5a db 69 be a2 2f 40 3e
       0.9657603 -0.91434425 -0.22837582 0.1876817
000200 1e 3c 26 bf 44 4a c8 3e 55 c7 94 be 09 69 6c 3f
       -0.6493548 0.3911916 -0.29058328 0.9234777
000210 f9 11 85 3e 6d 82 c1 3e b6 30 79 be e1 54 6b bd
       0.25990275 0.3779482 -0.24334988 -0.057453994
000220 a0 a6 18 be 28 e4 1b bf 95 1e 25 bf 9a 95 8a bd
       -0.14907312 -0.60895014 -0.6449979 -0.067668155
000230 d1 c3 0d bd a9 e9 f1 bc ba 56 03 be 7a 83 b3 be
       -0.034610573 -0.029530363 -0.12826052 -0.35061246
000240 4f 70 40 3d 39 b6 d4 be eb 49 cb 3f 79 f9 8d bd
       0.046982106 -0.41545275 1.5881933 -0.06932349
000250 03 91 f0 be dd 00 10 3f 94 2c 81 3e 69 c5 a6 bd
       -0.46985635 0.5625132 0.25229323 -0.08143122
000260 7f 58 00 3d 63 75 0d 3d bc 4f 06 bf d1 f2 1f 3f
       0.031334396 0.034535777 -0.52465415 0.62479883
000270 40 4e 85 3d 84 7a 94 3b a2 9b a2 3f 9f 47 77 3f
       0.06509066 0.0045312066 1.2703745 0.9659366
000280 ad da 1d 3f 32 1a 36 3e 2a 48 ca bc d6 a3 7c 3e
       0.616618 0.1778343 -0.024692614 0.24671873
000290 ff ed bb 3e 79 e1 21 bc b4 ef 4b 3e 36 e0 84 bf
       0.36705014 -0.009880417 0.19915658 -1.0380924
0002a0 33 1b 35 be ed 96 b7 bf e2 36 4d 3e 64 62 01 3f
       -0.17686157 -1.4342934 0.20040467 0.5054076
0002b0 a7 57 36 3e bc a6 2a bd 98 b7 07 3f ff 72 c7 3e
       0.17806874 -0.041662917 0.53014517 0.38954923
0002c0 66 2f 24 be 18 38 40 be 85 a8 c9 3e c9 fc 66 bf
       -0.16033706 -0.18771398 0.39386383 -0.9022947
0002d0 8a ab 1a 3e f8 e2 a2 bc 26 5c 50 3d 65 05 ea bc
       0.151045 -0.019883618 0.05086913 -0.028567025
0002e0 4d 41 63 3e 05 23 82 3e 8b 19 a3 3e 22 2b df 3f
       0.22192879 0.25417343 0.31855425 1.7435038
0002f0 d0 b9 12 bf 5d d1 81 bf 8e 8a bc 3d cd 37 ff be
       -0.5731478 -1.0142018 0.09206115 -0.4984726
000300 b7 02 55 bf f0 ad 19 bf 5a 67 1c 3d 3f dd 8c bf
       -0.8320727 -0.6003103 0.0381845 -1.1005019
000310 39 ce aa be 13 8c 37 3f 85 44 a0 3d b2 95 94 3c
       -0.3336046 0.7169811 0.07825569 0.018137787
000320 45 39 ce 3f 78 a1 b8 be 52 5b 0b bf 86 22 ae 3e
       1.6111227 -0.3606069 -0.5443622 0.34010714
000330 2e 4e 71 3d e8 3b ae 3d 77 33 0b bf 59 a4 a8 3f
       0.05891245 0.0850752 -0.54375404 1.3175155
000340 61 be 8a be 29 53 9d 3f 30 7e 6b bf 01 11 a3 3f
       -0.27098373 1.2291003 -0.9198942 1.2739564
000350 a6 cf 3b 3d 9a f4 b6 bd 9f c9 94 3e 50 49 53 3f
       0.045852326 -0.08933373 0.29060075 0.8253374
000360 ae 5f c2 bf ce b6 4f 3c aa ef fc bd 75 70 f0 bd
       -1.5185449 0.012677861 -0.123504 -0.117401995
000370 9a c5 d0 3d 2e 4c ad 3c f9 14 ea 3e 55 d2 c5 3d
       0.101939395 0.02115449 0.45719126 0.09659258
000380 94 1d c3 bd 4d cc 8d be 16 86 28 bf cb 94 1d bd
       -0.09527126 -0.27694932 -0.658296 -0.03847198
000390 67 be 71 3f eb 1c 68 bf 95 54 f7 bd e4 d4 a6 3e
       0.94431156 -0.90669125 -0.120766796 0.32584298
0003a0 00 cd 71 3f 2b 7c 1f 3e 4b d3 2c bf 4c 6a e3 bf
       0.9445343 0.1557471 -0.6750991 -1.7766814
0003b0 c2 ca 2a 3f e1 80 d0 3e de 04 25 3f 93 4e 11 bf
       0.66715634 0.40723327 0.6446055 -0.5676052
0003c0 af 1f 00 3e 03 f8 bd 3d 21 6f fd 3f 2c cb ee bd
       0.12512086 0.0927582 1.9799539 -0.11659846
0003d0 78 31 47 be 48 3a bd 3d c9 38 18 3f be 25 e7 3e
       -0.19452465 0.09239632 0.5946165 0.45145983
0003e0 71 1e 35 be 0e 23 d4 bd 44 25 26 bf 19 c9 33 be
       -0.17687394 -0.10358249 -0.6490061 -0.17557181
0003f0 9a 3a d9 bd b2 36 1a 3d 16 2e 1b be 5b 50 86 3e
       -0.106068805 0.037649818 -0.15154299 0.2623318

fc1.bias f4 [128]
000000 53 94 ef be 1a 3d c7 3e e8 dc fe 3e a8 1f 58 be
       -0.4679285 0.38913804 0.49777913 -0.21105826
000010 07 c0 14 3f fd 2b 0b 3f 10 22 6a bd ea 94 ee 3e
       0.5810551 0.54363996 -0.05716139 0.46597987
000020 6f e6 98 3e 24 99 ad be ac 13 ad bd 2d f1 a4 3d
       0.29863307 -0.339059 -0.08451018 0.08053813
000030 02 fa 23 3e 4c f2 03 3e a7 7a e9 be 75 bd 12 3b
       0.16013339 0.12885398 -0.4560139 0.0022390757
000040 d8 ef 3b 3d 84 90 d6 3e 1a 61 c0 be 14 aa 2c 3e
       0.04588303 0.41907132 -0.37574083 0.16861755
000050 2a ba 32 bf dc 4b ad bd bf ba 21 bf d9 a5 09 bc
       -0.69815314 -0.08461735 -0.63175577 -0.008401358
000060 30 a9 0c 3c 37 9f d0 3e 65 c9 1f 3d 16 fe bb 3e
       0.008585259 0.4074647 0.039010424 0.3671729
000070 2f 09 8e 3d b5 c7 0f bd d9 e3 01 3f f9 12 30 be
       0.069353454 -0.035102565 0.5073829 -0.17194737
000080 3b 96 2b be 9f b1 b8 3e d1 37 ed 3e f3 f1 ca 3e
       -0.16756527 0.36073014 0.46331647 0.39637718
000090 c7 4f 87 3e 1c 41 8b 3d 0b 2d 90 3e 9e db 9e bb
       0.26428053 0.06799528 0.28159365 -0.0048479578
0000a0 01 30 be bd 25 ad 94 3e 76 e1 94 3d e9 53 4c 3e
       -0.092865 0.2903835 0.07269566 0.19953884
0000b0 3f 57 6f 3d df 6c 40 bd e5 f9 f7 bb 1f 7a 0f 3f
       0.058432814 -0.046978828 -0.0075676315 0.56045717
0000c0 9a 58 d3 3e 0c 29 16 bd 55 6c 95 3e bd 2b a1 3e
       0.41278535 -0.03666024 0.29184213 0.31478682
0000d0 42 4c d2 3b fa 35 0d bf 84 a8 c0 3d c4 5d 6e 3e
       0.006417782 -0.55160487 0.09407142 0.23277956
0000e0 61 c4 d7 be 0d 45 ac be cc 34 04 be a7 78 02 bf
       -0.42142013 -0.33646432 -0.12910765 -0.5096535
0000f0 b2 6c 00 3e 10 a3 5d be 9e 2a d1 bd 84 c0 e1 be
       0.12541464 -0.21644235 -0.10213207 -0.4409219
000100 07 aa 2b 3e bb b6 be be 00 a4 b5 be 63 2c 19 bf
       0.16764079 -0.37248787 -0.35476685 -0.59833354
000110 ca 33 6f 3e 6a e5 1d 3d e7 c1 cd be 1c 17 51 3e
       0.233596 0.038548864 -0.40186998 0.20418972
000120 ea 05 8e 3e 06 07 9b 3e 07 05 f1 be 13 e8 96 be
       0.27738887 0.30278796 -0.47074148 -0.29473934
000130 77 cf 96 3e f1 af 18 bf 42 3d dc 3e 2e 5f 99 be
       0.29455158 -0.59643465 0.43015486 -0.2995543
000140 9c 6b 60 3e 57 7c dd 3d 4a 92 b0 3d af 29 0b be
       0.2191605 0.108147316 0.086216524 -0.1359012
000150 98 6e 20 3f 21 89 09 bf 0c c9 1e 3e 9b dd ce be
       0.6266875 -0.5372487 0.15506381 -0.40403447
000160 fd 61 ee be 8a 75 35 bd 03 75 09 bf 13 19 8d 3e
       -0.46559134 -0.044301547 -0.5369417 0.27558193
000170 34 ed c9 3d c2 6a e5 3e 3d 05 96 3d 0e 25 26 3f
       0.09859696 0.44808012 0.07325218 0.6490029
000180 d3 8f b0 be f8 92 1c 3e 20 c6 ae 3e 97 5d 8a bd
       -0.3448473 0.15290439 0.34135532 -0.06756132
000190 34 f5 9e be bc 5a f0 be 94 48 1c be 66 7a a3 bd
       -0.3104645 -0.46944225 -0.15262061 -0.0798233
0001a0 d1 78 90 3d 67 15 8c 3e 37 a2 a5 3e 49 f4 35 be
       0.07054294 0.2736008 0.32350323 -0.17768969
0001b0 d4 8c 09 3f f7 81 f4 bd 09 9b 5a bd 72 8d 36 be
       0.5373051 -0.11938851 -0.05337051 -0.17827395
0001c0 b1 82 2a 3f 97 19 d1 bd eb 69 28 3e 10 f8 15 bf
       0.6660567 -0.10209959 0.16446654 -0.5858164
0001d0 60 05 f7 3e 5f 1f e0 be 91 06 c7 3e 0d 33 66 3d
       0.48246288 -0.43773934 0.38872197 0.05620103
0001e0 b5 3b 07 bf 95 30 3f 3f 6e c2 44 3e 50 44 89 3e
       -0.5282548 0.74683505 0.19214794 0.2680993
0001f0 be ff 45 be 99 f8 c0 3c dd 00 b8 3e a0 f3 48 3e
       -0.19335839 0.02355604 0.3593816 0.19624186

fc2.weight f4 [128, 128]
000000 4c 93 56 3e b8 8d 48 bd e7 3e 99 be 70 14 eb 3d
       0.20954627 -0.04896328 -0.29930803 0.114785075
000010 57 ab 83 3e d7 ec ac be b8 9c c7 be d8 25 6a 3f
       0.2571666 -0.33774444 -0.38986754 0.91463995
000020 84 e1 1c be 23 62 76 3f 8f a3 59 3f 4b 8c 8e bc
       -0.15320402 0.96243495 0.85015196 -0.017400881
000030 a5 bc 25 3e 77 af 35 3f 41 e8 06 3f 61 1b 88 be
       0.16185243 0.70970863 0.5269814 -0.26583388
000040 2c c6 d2 3d 61 96 d0 bc d4 8b 36 3d f8 0e 32 3f
       0.102917045 -0.025462331 0.044566944 0.6955409
000050 92 af 83 bd 01 46 14 3f 3f 62 dd be ab 3b d2 bf
       -0.06429972 0.5791932 -0.43239018 -1.6424459
000060 4b 5e 64 be 97 ad 01 3e f5 7f 26 bf 22 b5 4e bf
       -0.22301595 0.12663876 -0.65038997 -0.80745137
000070 e8 d1 bf be e9 b9 00 3d c2 e4 01 40 bf 5d 16 3f
       -0.37464833 0.031427298 2.0295873 0.58736795
000080 96 dd b6 3e 72 be af 3e 60 86 0a bf 8c b4 60 3d
       0.35715932 0.34324986 -0.5411129 0.054859683
000090 60 57 0d 3e ef fd 9b 3e 3d a1 1d bf 88 c3 43 3d
       0.13802862 0.30467173 -0.61574155 0.047793895
0000a0 49 d9 84 bf 81 f8 67 3d 12 ec 49 3f 98 4a 25 3e
       -1.037881 0.056633476 0.7887584 0.16141737
0000b0 a1 64 d4 3e 94 59 c3 be 98 37 29 3f c5 7b 09 bf
       0.41483024 -0.3815428 0.66100454 -0.5370448
0000c0 c8 32 b2 be 11 5d d4 3e ab 92 de 3d 0e dc e8 be
       -0.34804368 0.41477254 0.108678184 -0.45480388
0000d0 5d 0e 30 bf 44 1a b0 bf a5 b8 ce 3c ea 8b b9 be
       -0.68771917 -1.3758016 0.02523453 -0.36239558
0000e0 04 ee 04 be 0c 16 4a be 48 9d 11 3e d5 47 d3 be
       -0.12981421 -0.19734973 0.14220154 -0.4126574
0000f0 27 5f 5f bf 23 1f 83 3b ec ca 3f bc 8b 14 3a be
       -0.87254566 0.0040015145 -0.011706095 -0.18171899
000100 d3 7c 35 3f f9 fc 87 bf 53 39 b5 3e 7d fb ca bf
       0.7089359 -1.0624076 0.35395297 -1.5857998
000110 2a 01 86 3e 61 a4 a8 bd 0e dc 20 be 05 b8 18 3e
       0.26172763 -0.08234478 -0.15708944 0.14913948
000120 73 4a a7 be 0b 7d ee be 16 28 de 3f 0b 99 07 be
       -0.32673988 -0.46579775 1.7355983 -0.13241975
000130 c7 d3 e5 3d f2 49 61 3e e6 d9 d2 be 6b 50 f7 bd
       0.11222034 0.22000864 -0.41181868 -0.120758854
000140 0a 20 9c 3d 84 fc 12 3d 0e 20 1c 3f e2 1a 1d 3f
       0.076232985 0.03588535 0.6098641 0.61369145
000150 d3 0f 14 bf 26 4b 07 3f 6f e4 10 bf a3 a4 48 bf
       -0.57836646 0.5284904 -0.5659856 -0.78376216
000160 e4 76 33 bc c7 f0 0b bd 69 6f 11 3f 02 68 47 bf
       -0.010953639 -0.03416517 0.56810623 -0.7789308
000170 1d 40 1f 3d 5e 55 82 3d 15 88 c1 3e fc 42 a8 bd
       0.038879503 0.06363939 0.37799135 -0.08215901
000180 57 94 d7 be c6 bb 24 bd a2 a5 4a be 96 19 b1 3d
       -0.42105362 -0.040218137 -0.19789746 0.08647458
000190 ae cc ca 3e d3 82 b4 3d f6 bc b7 be 1e 92 9c 3d
       0.39609283 0.08814015 -0.35886353 0.07645057
0001a0 4a 6c b4 3d 9c d3 2e 3f 95 78 bb be f9 16 de 3e
       0.08809717 0.6829164 -0.36615434 0.43376902
0001b0 dd b6 8d 3e 6c b9 33 be 49 46 85 3e 1d fd b3 3d
       0.27678576 -0.17551202 0.26030186 0.08788512
0001c0 93 0d 55 3e 20 9c 8e 3e e5 ec 82 bf 11 c8 c1 be
       0.2080596 0.2785349 -1.0228544 -0.3784795
0001d0 df 2d b4 3d 68 54 77 be 9b 2d f7 3f 9f 85 ce 3d
       0.08797812 -0.24153292 1.9310793 0.1008408
0001e0 47 55 b0 3e 4e f0 67 3f 6f bf 7d be 91 1b 08 bf
       0.3444006 0.9060105 -0.24780057 -0.53167063
0001f0 56 e7 f7 3e b9 9f 76 3e 1e fe fc be a2 2d 9e bd
       0.48418683 0.24084367 -0.49412626 -0.077235475
000200 ae 0e aa be 55 41 9c 3f d2 c6 4e bf 4d 63 c6 bd
       -0.33214325 1.2207438 -0.80772126 -0.09686909
000210 86 05 06 3f 81 56 e7 be 12 ff 9c 3d db bd cb bd
       0.5235218 -0.45183185 0.07665838 -0.099483214
000220 b0 92 22 3e 00 71 70 be 6d 19 41 3e 92 e3 b8 3e
       0.1587627 -0.23480606 0.18857355 0.36111122
000230 60 fb e8 3e 75 f2 e2 bd 7e 27 c0 3f f1 e6 41 bf
       0.45504284 -0.11081401 1.5012052 -0.75743014
000240 f5 18 08 3f 2c 5c b8 be 68 f4 93 be 24 89 a6 3f
       0.5316308 -0.36007822 -0.28897405 1.3010602
000250 05 15 ae bd 8c 3e 91 bd 28 1a f7 be 45 91 57 be
       -0.08500103 -0.07092008 -0.48262143 -0.2105151
000260 3e 3a fc be 17 99 87 be ff e2 cd be a6 50 9c be
       -0.49263185 -0.26483986 -0.40212247 -0.3053028
000270 d5 18 cd be 34 cb 7c 3d 7a 95 f0 bd 2d a5 2f 3d
       -0.40058008 0.061717227 -0.117472604 0.042882133
000280 a4 8e 4c 3f f4 2b c6 bd 80 f2 35 bf 01 4a 46 3e
       0.7990515 -0.09676352 -0.7107315 0.19364168
000290 b3 58 41 bf b3 9d 85 be 45 3f ae 3a a8 46 ca 3e
       -0.7552597 -0.26096877 0.0013294002 0.3950703
0002a0 63 ef aa be a4 e8 07 3f 1d 85 cb 3e 08 cb b6 3e
       -0.33385763 0.53089356 0.39749995 0.35701776
0002b0 14 91 ff 3e 16 d7 b9 be 85 14 76 3e 8a 54 a2 bf
       0.49915373 -0.3629691 0.24031265 -1.2682049
0002c0 ef b4 e7 be a8 7e ee be 9d 26 af 3f de f4 e9 be
       -0.4525523 -0.46581006 1.3683659 -0.4569463
0002d0 fa ac 05 bf 73 db f8 3e 6c 5c ab 3e 03 28 cb bf
       -0.52217066 0.48604926 0.3346895 -1.5871586
0002e0 36 70 a7 3e 1c f4 35 3d 65 65 39 be 4f 8b c8 3e
       0.32702798 0.044422254 -0.18105085 0.39168784
0002f0 90 ea 2a bf 36 1c 16 bd 20 cd 13 be 41 ec f0 be
       -0.66764164 -0.036647998 -0.14433718 -0.47055247
000300 6f b9 51 3b 17 07 59 be 19 18 19 3c 7e 74 5a be
       0.0032001396 -0.21194111 0.009344124 -0.213335
000310 91 41 eb 3d 8c ce 9b 3c 21 8f e1 be 0d 3c 63 3d
       0.11487115 0.019019388 -0.4405451 0.05547719
000320 b0 9c 16 bf 34 38 ad bf 14 5c 53 bd 72 5f df bd
       -0.58832836 -1.3532777 -0.051601484 -0.109068766
000330 66 8c 61 3d af 7c 7c 3f 8d b9 67 3d c1 f6 bd bf
       0.055065535 0.9862775 0.05657344 -1.4840928
000340 5e bd e0 bd fb cb 0a be dc cd 12 3f e0 45 22 3e
       -0.10973619 -0.13554375 0.57345366 0.15846968
000350 97 85 96 bf 7a 2e 6c 3c 2f cd e9 be 98 dc 33 bd
       -1.1759518 0.014415378 -0.45664355 -0.043911546
000360 62 f5 c6 bc 9b 9b bc be 4c b4 31 3f b7 da a2 bf
       -0.02428693 -0.36837468 0.69415736 -1.2722996
000370 fb 94 8c 3e 9e 0d 6a bf 8b 93 af 3e f7 de 60 3e
       0.27457413 -0.9142703 0.34292254 0.21960054
000380 25 8f 05 be 26 f5 4f bf 76 02 92 3e 17 33 15 bf
       -0.13042887 -0.8123344 0.28517503 -0.5828108
000390 bb f4 a5 3e 53 05 75 3f 3a d8 a9 bd 0b 19 6a 3d
       0.32413277 0.9571125 -0.08293195 0.05715279
0003a0 16 21 92 be f2 da 7e 3e 65 f6 32 bf d3 08 09 3f
       -0.28540868 0.24888209 -0.6990722 0.5352909
0003b0 11 3d 40 be e8 db a3 3e 04 9d f6 be fd 62 04 bd
       -0.18773295 0.32003713 -0.48166668 -0.032320965
0003c0 5a a2 d5 be 5c a8 eb 3e ec 1b f9 3d a0 9d e3 3e
       -0.41725427 0.46026886 0.12163529 0.44456196
0003d0 98 e3 14 3e 1f c0 82 be 42 8b d8 3e a4 30 1d 3d
       0.14539945 -0.25537202 0.42293745 0.038376465
0003e0 c8 df d3 3e 43 e2 47 3f 24 93 cb bd 75 d7 8b 3f
       0.4138167 0.78079623 -0.09940174 1.0925127
0003f0 ce 07 4f 3f 74 c1 55 3f 65 d8 0f be 28 6e 61 bb
       0.80871284 0.8349831 -0.14047392 -0.0034397934

fc2.bias f4 [128]
000000 f7 4c 9a be b9 ce a8 3d 26 69 b7 3d 3e 47 d6 be
       -0.30136845 0.08242554 0.08955602 -0.41851228
000010 70 96 98 bd 22 cf 90 be 94 c9 13 3f d3 1b 93 be
       -0.07450569 -0.2828303 0.5772946 -0.28732166
000020 8b 02 8c be 2e 59 bc 3e c2 57 df 3e 62 c3 28 3f
       -0.2734569 0.3678679 0.4362164 0.6592313
000030 e5 71 13 be 91 16 5e 3c 7d be f2 3e af cb 66 3d
       -0.14398916 0.013555185 0.47410956 0.05634659
000040 b0 ee 0a 3e be c5 47 3e 8b cc 3b 3e a2 b3 82 3e
       0.13567615 0.19509026 0.18339746 0.25527674
000050 cb 3c 79 3d f9 30 03 be f7 8d 7c 3e d1 4e f5 be
       0.060848992 -0.1281165 0.2466353 -0.47911695
000060 bf e7 98 be 5e c3 2c 3d 15 21 b7 3d f8 ec 91 bd
       -0.29864308 0.042178504 0.08941857 -0.07125276
000070 79 ba 11 3f a3 49 a4 3d c0 88 18 be e9 d2 dd be
       0.5692516 0.080218576 -0.14895916 -0.43324974
000080 aa 90 c3 3e 44 40 4a 3f ae a3 d6 3e 9f 84 9c 3e
       0.38196307 0.7900431 0.41921753 0.30569932
000090 3d 2d e5 be 15 46 b1 be 54 85 bd be f9 4f 18 3f
       -0.44761077 -0.3462378 -0.37015784 0.5949703
0000a0 12 06 1b 3e 64 19 06 bf c4 04 f8 be 53 6d 8c bd
       0.15139034 -0.52382493 -0.48441136 -0.068567894
0000b0 90 ef e1 bd 7c 15 10 3e 1c e2 82 3e cc 35 24 be
       -0.11032021 0.14070696 0.25563133 -0.16036147
0000c0 51 7e 01 be 3f 6d b0 3e 4b 06 79 be d6 d6 77 3e
       -0.12645842 0.34458348 -0.24318807 0.24203047
0000d0 a8 97 34 be 9e 84 18 bf 10 e4 06 3e a7 63 3d be
       -0.17635977 -0.5957736 0.13172936 -0.18495046
0000e0 84 f1 44 be 9f c8 b6 be df f7 ef bd 28 08 8c be
       -0.19232756 -0.35699937 -0.117171995 -0.27349973
0000f0 02 92 30 3d 88 9f b6 3e 6b 93 b4 be 96 bb e9 bc
       0.043107994 0.35668588 -0.3526872 -0.02853183
000100 98 6d 0d 3f 52 53 cb be 88 95 bd 3e 0c 7f 98 3d
       0.5524535 -0.39712006 0.37028146 0.07446107
000110 41 ce 8e 3d 4e 90 9a 3e 61 0a 8b 3e 7e 0e 16 3e
       0.069729336 0.3018822 0.27156356 0.14653966
000120 f3 79 99 3e ec 9b c9 bd a9 c5 d2 3d 79 5e bb bd
       0.29975852 -0.09844193 0.10291607 -0.091488786
000130 85 7f 62 be d0 41 dd bd 8f 5a a6 3d b1 3a 66 bd
       -0.22118957 -0.10803568 0.081227414 -0.056208316
000140 8c bc 2f be 7c 75 d9 3e 75 ce 05 bd 95 d7 c9 be
       -0.17161769 0.42472446 -0.032667596 -0.3942229
000150 c3 93 eb bd 0e 39 d0 3d e3 ab 8b 3c 6c 3f 32 bd
       -0.11502793 0.10167132 0.017049735 -0.043517515
000160 81 c4 40 be a4 44 66 bd 01 13 87 3c 9c 6f 41 3e
       -0.1882496 -0.056217805 0.016488554 0.18890232
000170 88 a5 cd bd 7e c6 10 3e fb a9 61 3e 0f ab 7b 3e
       -0.10041338 0.14138219 0.22037499 0.24576972
000180 3a 4c 50 bd e2 35 1b bf cd b6 ad 3c 3f 28 3d be
       -0.050853945 -0.60629094 0.02120533 -0.18472384
000190 11 a7 fc 3d a7 91 fb bc 40 51 3d 3e d5 72 27 bc
       0.12336553 -0.0307091 0.18488026 -0.010220249
0001a0 4d 4d e0 be d1 75 8b bd c1 e4 3f bd 47 9a d2 3e
       -0.43808976 -0.06809581 -0.046849016 0.4113333
0001b0 2a 6d 8e 3e cc c6 8d 3e 1f 4c 8b be 9f e9 a2 3e
       0.2781766 0.27690732 -0.27206513 0.31818864
0001c0 3b 8b 18 bd 20 0c 8b 3d a2 1c d4 be 43 82 8c bb
       -0.037242156 0.06789422 -0.41428095 -0.0042879893
0001d0 67 87 16 be dd 4d 20 3e 1e 48 88 be 9f 8b b5 3e
       -0.1470009 0.15654702 -0.2661752 0.35458085
0001e0 ca 37 b6 bd c9 ef 81 be 9e 7f ed be f9 79 9c 3d
       -0.0889736 -0.25378254 -0.46386427 0.07640452
0001f0 65 70 a8 be 4a 37 85 be 7a 22 d6 be a4 a0 6d 3e
       -0.3289825 -0.26018745 -0.4182318 0.23205811

policy_mean.weight f4 [7, 128]
000000 58 fb 0d 3e 41 5a 15 bc be 05 c4 3d 46 49 49 3c
       0.13865411 -0.0091157565 0.09571408 0.012285536
000010 84 26 00 bc 67 24 2d bd 2c 60 30 be ba 53 d6 bd
       -0.007821683 -0.042271044 -0.17224187 -0.10465188
000020 5c bd 60 bd ab 9c ae 3d ea 11 95 bd 92 ec 14 bd
       -0.054868087 0.08525976 -0.072788075 -0.036358424
000030 1b 57 b6 3d 78 9d 6b bd 57 07 9d bd 0b 44 fc bd
       0.08903333 -0.05752322 -0.076674156 -0.12317666
000040 85 b5 a9 3c 72 c8 45 bd a4 99 56 3c c2 00 a3 bd
       0.020716438 -0.048286863 0.013098154 -0.07959129
000050 f4 38 8b bc 56 d3 8f ba f4 6e 33 bd 5e 5b 7d bc
       -0.01699493 -0.0010973017 -0.043806985 -0.015463678
000060 e6 87 82 bc 01 95 b9 3d af 4b 7d bd 5e 4e f2 bd
       -0.015933942 0.09061623 -0.061839756 -0.118313536
000070 26 5a 98 bd c7 95 e9 bb c2 8d 8a bd d0 f5 00 3d
       -0.074390694 -0.0071284506 -0.067653194 0.031484425
000080 a2 f7 41 bd c7 2e e5 3c 11 75 05 bd 62 2d 86 3d
       -0.0473553 0.027976407 -0.032582346 0.06551625
000090 a0 fc 3a bd fc 28 ec 3d 63 5b d7 bc 79 af e7 3c
       -0.04565108 0.11531255 -0.026288694 0.028281914
0000a0 df bb fb 3c cc bc a0 3d 53 f4 aa bc c8 de 8e 3d
       0.030729232 0.0784851 -0.020868456 0.06976086
0000b0 45 f6 81 3c 32 26 c7 bd 46 f2 89 bc f4 3e 5a ba
       0.0158645 -0.09724082 -0.016839158 -0.0008325421
0000c0 7f 75 e8 bc 1c b1 b7 3d 5d 15 0e 3d c6 03 3b bd
       -0.028376339 0.08969328 0.034688342 -0.045657896
0000d0 81 2d ce bd b7 28 2e 3e 53 3a 0c bd a0 66 44 3c
       -0.10067273 0.17007719 -0.03423531 0.011987358
0000e0 24 fa e8 bd 0b 5e 4d 3d 17 2d 11 bd 22 d1 a3 3d
       -0.113758355 0.050138514 -0.03544339 0.07998873
0000f0 c7 67 90 3d 4e 3e 51 bc c3 89 f2 3d 48 7a 0e bb
       0.07051044 -0.012771202 0.11842682 -0.0021740366
000100 c5 c2 45 bb 0a 55 0c 3e f3 bd 03 be 9e 0d 28 3d
       -0.0030175906 0.13704315 -0.12865429 0.04102861
000110 d6 fb 0c 3e a2 be e6 bd 2b 4c 14 bc 68 ea db bd
       0.13767943 -0.11266829 -0.009051363 -0.10738069
000120 88 e6 40 bd 8d 41 82 3d 22 ee 8a bd 54 96 5d 3d
       -0.04709485 0.06360159 -0.067837015 0.054098442
000130 49 36 d4 bc f8 a8 90 3c 1c de c8 bd 3d e2 ba 3d
       -0.025904791 0.017658696 -0.09807989 0.09125183
000140 fb e3 ad bd e2 f5 e2 bd 4e 15 a8 bb e6 68 cd 3d
       -0.084907494 -0.11082055 -0.005129493 0.100297734
000150 d6 a9 93 3d 04 e5 c4 bc c0 30 53 3e d0 48 fc bc
       0.07210128 -0.024034984 0.20624065 -0.030796438
000160 2f 66 c0 3c 7a 61 e8 bc 38 71 c6 bc c0 f4 c9 3d
       0.023486225 -0.028366793 -0.024223909 0.098611355
000170 18 77 9a 3d 06 08 ba 3b 91 d8 0c 3e 34 18 88 3d
       0.075422466 0.005677226 0.13754489 0.066452414
000180 1e b8 02 bd 57 86 04 3e 16 84 8e 3c af ac 00 3e
       -0.03191387 0.12941872 0.017396968 0.12565874
000190 b4 90 77 3d f4 45 8c bd 6a df e8 3d 7c 81 4a 3d
       0.060440734 -0.0684928 0.11370738 0.049439892
0001a0 f5 2e 9d 3d 96 72 15 be d1 37 f5 3d ec 51 c2 bd
       0.07674972 -0.14594492 0.11973537 -0.094882816
0001b0 e0 c7 2b bc d6 6a 16 bd 98 dd a9 bd 8c f1 41 3c
       -0.010484666 -0.03672298 -0.08294219 0.011837374
0001c0 57 81 87 bd 42 1c 36 3d c8 bc 96 bd 56 3f e8 bd
       -0.066164665 0.044460543 -0.07360226 -0.11340205
0001d0 5c c7 db 3d 2f e2 a8 3d 86 59 1f 3d 8c e0 80 3d
       0.10731384 0.08246266 0.038903736 0.06292829
0001e0 b6 65 f6 bc 58 d6 8d 3c f7 09 e1 3c c6 f0 74 3d
       -0.030077796 0.017314121 0.027470572 0.059799932
0001f0 38 ab 27 3c f2 eb fc 3c 38 86 48 3d ae fd 96 3d
       0.010233693 0.030874226 0.048956126 0.07372604
000200 11 f8 ff 3c 84 55 98 bd da 87 5e 3e e6 68 0c 3e
       0.031246217 -0.07438186 0.21731511 0.1371189
000210 de e1 22 3d 20 d0 b4 3d be 90 b2 bc 34 74 f8 bd
       0.039766185 0.08828759 -0.021797534 -0.12131539
000220 64 11 08 3e a3 62 d3 bd b1 42 b9 bd 6c 15 21 3d
       0.13287884 -0.10321548 -0.090459235 0.03932707
000230 1f 40 b2 3e 77 83 9a 3d 64 88 58 bd ed 74 bb bc
       0.34814546 0.07544606 -0.052864447 -0.022882903
000240 5c eb 18 be c7 39 c0 bc 66 bb 70 3b f7 5a 29 3d
       -0.14933532 -0.02346505 0.0036732792 0.041346516
000250 3d c6 85 3d 6d a4 19 be 75 8d 97 3d 2c c1 22 3e
       0.065319516 -0.1500413 0.07400028 0.15894002
000260 9a 7a 15 bd bc 54 43 3e 5b 37 d4 3c b5 6c 05 3e
       -0.036493875 0.19075292 0.025905302 0.1302975
000270 23 e3 05 3d f5 89 01 bd 2b 83 da 3d aa ea 61 3d
       0.032687318 -0.031625707 0.106695496 0.055155434
000280 4f 84 8d bd 8c a5 37 3c bf eb 8b 3d 4a 39 8f 3c
       -0.069100015 0.011208903 0.068320744 0.017483372
000290 ae b7 67 bb 96 e9 f5 bc 68 1d 65 3c 54 17 79 3c
       -0.0035357284 -0.030018609 0.013984062 0.015203316
0002a0 f9 95 1c 3e ae 48 67 bb e9 8d ab 3d c3 2a a2 bd
       0.15291585 -0.0035291123 0.083766766 -0.079183124
0002b0 22 aa ed 3c b3 5b 9f 3d d1 dc bd bd 2b 6c 5a 3e
       0.02901179 0.07781162 -0.09270633 0.21330325
0002c0 b7 8f 81 3c 87 37 10 3d ae 7b 81 bc d0 22 35 bb
       0.015815599 0.035209205 -0.015806045 -0.0027639158
0002d0 69 e8 e6 3d 0f 57 80 3d 15 5b cc 3d d8 fd 8a bc
       0.112747975 0.06266605 0.0997831 -0.016966745
0002e0 0c 8b 8f 3c 7e e2 67 3d 32 e0 0d 3e 41 99 41 3d
       0.017522357 0.056612484 0.13855055 0.047265295
0002f0 a4 56 90 bd 32 29 44 bd 13 71 ba 3d 05 ca 93 3d
       -0.070477754 -0.04789085 0.091035984 0.072162665
000300 e1 58 fe bc 50 b5 68 3e 64 c0 65 3c 6e 03 a0 3d
       -0.03104824 0.22725415 0.01402292 0.07813154
000310 38 2f c6 3d a0 78 0c 3d 26 ae 2c bc cd ec 89 3d
       0.09676975 0.034294724 -0.010539567 0.06734619
000320 2a ae 05 bb f3 75 9e 3c 78 91 27 bd b6 b9 4c bd
       -0.0020398 0.019343352 -0.040910214 -0.049981795
000330 66 67 83 bc d5 c1 ba 3b 7e 8e 20 3d bd 51 89 3b
       -0.016040515 0.005699376 0.03919839 0.004190652
000340 ad c7 ac bb db 91 98 3d f6 4f f1 3c 22 de 04 bc
       -0.0052728266 0.07449695 0.029457074 -0.008109601
000350 59 26 9d 3d eb 68 58 bd bc 2e 94 bd 94 73 b9 bb
       0.0767333 -0.052834433 -0.072354764 -0.00565953
000360 31 cd 91 3d c8 e8 98 3c 82 26 3f bd 8e df e2 bd
       0.07119215 0.018665686 -0.046667583 -0.11077796
000370 e7 be 8f 3d 12 e6 ae 3c 2a 83 b4 bc 3e ce 94 3c
       0.070188336 0.02134994 -0.0220352 0.01816475
000380 e9 0b e2 3d cc 54 6b bd 7d bd 8b 3b c5 60 b5 bc
       0.11037428 -0.057453915 0.004264532 -0.02214087
000390 43 3d d3 3d 84 1b 3f 3d f2 30 83 3d 06 06 eb 3a
       0.10314419 0.0466571 0.0640582 0.0017930872
0003a0 b8 96 4d 3d 27 d9 3f be aa 1b 50 bd a9 c8 ec 3b
       0.050192565 -0.18735181 -0.050807633 0.007226069
0003b0 d7 e3 82 bc 23 53 94 bd 76 82 26 3d 4d b3 bc 3d
       -0.015977783 -0.072424196 0.04065176 0.092138864
0003c0 14 c0 c0 bb 47 5b 8a 3c 53 ce fd bc c3 e8 01 3e
       -0.0058822725 0.016889228 -0.030982172 0.12686448
0003d0 ed 20 ec bd 2f 78 da bd 2d 8a 92 3c 90 e5 7a 3e
       -0.115297176 -0.106674545 0.017888153 0.24501634
0003e0 74 36 d6 3c 7a 78 c1 3d 1b 77 7a bc e5 92 0d 3c
       0.026149012 0.09446807 -0.015287186 0.008640979
0003f0 47 de d0 ba f2 cb 3a 3d c9 91 ae 3d e3 7f b2 bd
       -0.0015935384 0.045604654 0.085239 -0.08715799

policy_mean.bias f4 [7]
000000 fc ec ab bd cb 6d ac bd 2c 2d b6 3d 35 8e 69 3d
       -0.083948106 -0.08419379 0.088953346 0.057020385
000010 54 50 ec bd 6c c6 45 bd bb 40 d6 bc
       -0.11538759 -0.048284933 -0.026153913

value_head.weight f4 [1, 128]
000000 fe ff 10 c1 bc 91 16 41 d6 8e 22 c1 5f fe 0f 41
       -9.062498 9.41058 -10.159872 8.999602
000010 2b 6e 12 41 f9 fa 15 41 68 5f 18 41 6a fe 32 41
       9.151896 9.373773 9.523293 11.187113
000020 27 43 09 41 c9 69 0c c1 6f 78 0f c1 df 09 17 c1
       8.578895 -8.775826 -8.966903 -9.43991
000030 82 99 00 41 32 5c 07 c1 82 53 f7 40 55 19 0e 41
       8.0374775 -8.460009 7.728944 8.881185
000040 2b fb ee 40 07 d9 02 c1 95 a7 cf c0 3b ce 1c c1
       7.46816 -8.177985 -6.489207 -9.800349
000050 f3 74 19 41 79 2f 05 c1 9d 85 0e c1 44 14 06 41
       9.591052 -8.32409 -8.90762 8.379948
000060 29 d2 1a 41 b6 2a 08 41 84 61 02 c1 bb 1d 09 41
       9.676309 8.510427 -8.148808 8.569758
000070 24 89 2a c1 ba 5f 09 c1 88 2c 0d 41 1e 23 0d 41
       -10.658482 -8.585871 8.823372 8.821074
000080 9a 64 0a 41 73 40 17 c1 f5 27 1a c1 a5 1b 09 41
       8.649561 -9.453235 -9.634755 8.569249
000090 02 ca 17 41 a5 52 19 41 1a 93 07 c1 94 c9 0f c1
       9.486818 9.582677 -8.473413 -8.986713
0000a0 55 1e 0d 41 58 da 1d 41 d1 08 0f 41 b9 f0 01 c1
       8.819905 9.865807 8.939652 -8.12127
0000b0 d9 5b f4 40 18 3e 3b c1 08 8b 1b c1 33 a8 01 c1
       7.636212 -11.70266 -9.721443 -8.103564
0000c0 e3 84 0b 41 c5 21 05 41 4e 34 03 41 86 e0 11 c1
       8.719943 8.3207445 8.20027 -9.117315
0000d0 c3 cf 0a 41 5d 33 0b 41 b5 d7 0a 41 0d a4 1a 41
       8.675723 8.70004 8.677663 9.665051
0000e0 b9 49 0c 41 e3 11 19 41 c4 d8 04 41 51 1b 11 41
       8.767999 9.566867 8.302921 9.069169
0000f0 e5 05 0d c1 61 0e 13 c1 06 05 11 41 80 d0 0b c1
       -8.813939 -9.19101 9.063726 -8.738403
000100 6f d8 0a 41 78 76 08 41 03 53 17 c1 e5 c2 0e c1
       8.67784 8.528923 -9.457767 -8.922582
000110 a5 dd ca c0 a2 a7 12 c1 d8 3e 14 c1 e0 45 23 c1
       -6.339556 -9.165926 -9.265343 -10.204559
000120 c4 07 1e 41 de fb 07 c1 98 62 15 c1 cc 0d 0c 41
       9.876896 -8.498991 -9.336571 8.753368
000130 f2 6a 26 41 9b 05 f6 40 d7 65 08 c1 03 aa 10 41
       10.40111 7.6881843 -8.524863 9.041507
000140 bc 52 02 c1 9d 51 0c c1 88 ed 0a c1 23 96 00 41
       -8.145199 -8.769925 -8.682991 8.036654
000150 48 37 08 c1 e7 75 14 41 8e d6 1d c1 ad 80 f2 40
       -8.513496 9.278785 -9.8648815 7.5782075
000160 c6 a3 ff c0 57 dd 05 41 85 54 15 41 7d fc 0c c1
       -7.988742 8.366538 9.333135 -8.811643
000170 95 5f dd c0 e2 46 1a 41 c5 eb ea c0 f7 48 0e 41
       -6.9179177 9.642305 -7.3412805 8.892814
000180 fa 40 1e 41 76 99 eb 40 1b 4f e5 40 ba b6 19 c1
       9.890863 7.362483 7.1659064 -9.607111
000190 aa 1e 1d 41 78 df 14 c1 d4 a3 22 c1 04 a6 de 40
       9.819986 -9.304558 -10.164997 6.9577656
0001a0 82 82 1c 41 94 63 0f 41 69 93 1c 41 9c 3d 18 c1
       9.781862 8.961811 9.785989 -9.515041
0001b0 7a a6 0f c1 9c e2 22 c1 85 d6 ff 40 1c 50 0a 41
       -8.978144 -10.180325 7.9949365 8.644558
0001c0 17 c6 13 c1 68 75 14 41 6b 76 07 41 95 6a 08 c1
       -9.235862 9.278664 8.466411 -8.526021
0001d0 7e eb 0b 41 ce 9f 1d 41 05 ba 10 c1 b6 db 10 c1
       8.744993 9.851515 -9.045415 -9.05364
0001e0 9b e4 15 c1 e4 1e 0e 41 0b bf fe 40 7d 80 0d c1
       -9.368312 8.882542 7.9608207 -8.843869
0001f0 f5 f0 0c 41 5d 5e 13 41 b3 61 fa 40 c4 8f 0d c1
       8.808827 9.210538 7.824426 -8.847599

exp_avg f4 [7]
000000 8a ee 69 ba 6c 89 54 39 00 9e 28 b5 98 b3 09 ba
       -0.000892379 0.00020269089 -6.28148e-07 -0.0005252897
000010 ec 79 5f b9 88 f1 38 b8 ae fd 27 b9
       -0.00021312357 -4.4093962e-05 -0.00016020864

exp_avg_sq f4 [7]
000000 f6 6f 2b 37 29 f5 38 37 b4 52 5c 37 ae ef 24 37
       1.0218462e-05 1.1024335e-05 1.3132278e-05 9.8309665e-06
000010 5f f9 2f 37 83 5f 48 37 30 10 2e 37
       1.0488874e-05 1.1943167e-05 1.0374977e-05

exp_avg f4 [128, 21]
000000 dc 3b c4 b7 71 68 a1 38 ed 86 5b 3a 9c 97 4e 3a
       -2.3392895e-05 7.696532e-05 0.00083742925 0.0007880868
000010 a9 1f d2 b9 2f 39 83 37 ca dc 42 38 6a d1 d8 37
       -0.0004007791 1.5643045e-05 4.645883e-05 2.5846723e-05
000020 85 a0 c0 b7 c2 54 6c 37 03 7f 71 b6 1d 81 76 37
       -2.2962931e-05 1.408643e-05 -3.598573e-06 1.4692804e-05
000030 cf fb 04 39 e6 4e 57 3a 7e e9 22 39 43 03 bf 38
       0.00012682307 0.0008213356 0.00015536507 9.108197e-05
000040 52 c3 35 b9 08 82 43 3a 3c be 1f 38 5f 1e 51 38
       -0.00017334268 0.0007458036 3.8085724e-05 4.985777e-05
000050 6d 00 87 b7 68 34 3f 38 9d 6a f6 b8 f2 2a ac ba
       -1.6093452e-05 4.5586756e-05 -0.00011750052 -0.0013135357
000060 6c 55 a0 ba 8d 97 28 3a 77 aa 32 b8 29 11 2e b8
       -0.0012232489 0.0006431274 -4.2597265e-05 -4.1500814e-05
000070 c7 d8 41 b8 b1 4d 3b 38 27 ec 07 b7 45 f1 3f b6
       -4.6216675e-05 4.465663e-05 -8.101611e-06 -2.8601655e-06
000080 92 86 5c b7 ad aa 5c b9 4f 76 a9 ba e0 ea 6a b7
       -1.3144354e-05 -0.00021044417 -0.0012928935 -1.4002173e-05
000090 33 ae c1 38 da ee ef 38 19 32 a7 ba 0c 56 76 b8
       9.235404e-05 0.00011440898 -0.0012756019 -5.8731108e-05
0000a0 b9 ea c2 b8 0f 29 ad 37 07 7c 24 b7 ac df d7 37
       -9.2943614e-05 2.0642326e-05 -9.804039e-06 2.5734153e-05
0000b0 86 7b 9d 39 ad 6d 92 39 2e 1e 17 b9 fe fb 2d 37
       0.00030037406 0.00027929005 -0.00014411725 1.0370275e-05
0000c0 08 b8 65 37 6b 89 35 37 61 db 2f b7 fb bd 22 36
       1.3692312e-05 1.0820436e-05 -1.0481891e-05 2.4250464e-06
0000d0 6a b5 35 35 75 f8 99 36 30 27 46 38 15 2e 9a 39
       6.7691747e-07 4.5886795e-06 4.7243375e-05 0.00029407503
0000e0 21 84 41 37 0f 7c 3e 36 98 2f 32 b8 f1 5d 91 39
       1.153446e-05 2.8384418e-06 -4.2482832e-05 0.00027726547
0000f0 3f 78 71 37 ac 6e b4 37 6b 5c d3 b6 54 4e d0 37
       1.4392716e-05 2.1509208e-05 -6.299049e-06 2.4832007e-05
000100 61 18 16 b8 41 49 15 ba 8f 1e 07 ba 24 6e a0 39
       -3.578549e-05 -0.00056948146 -0.0005154395 0.0003059964
000110 71 ea 05 b8 6b 18 64 b7 33 ac cd b7 1b 9b d1 37
       -3.192801e-05 -1.3595544e-05 -2.451809e-05 2.4986968e-05
000120 d9 cd 3d 36 d0 34 85 35 1b 2f 7b b7 db e4 b6 b8
       2.8283014e-06 9.924643e-07 -1.4971733e-05 -8.721064e-05
000130 e7 82 13 ba 82 8f 7a 38 48 0b 21 38 0f bb 77 38
       -0.0005627111 5.9738297e-05 3.8395898e-05 5.90636e-05
000140 42 ae 01 ba f0 f2 26 b8 58 b1 57 b8 44 2f e3 36
       -0.0004946926 -3.9803737e-05 -5.142516e-05 6.7706296e-06
000150 39 f0 b3 36 cf b0 04 b7 e7 99 ae b8 49 fe a2 b8
       5.3625813e-06 -7.90898e-06 -8.325633e-05 -7.772126e-05
000160 91 b9 2f 38 ea d5 f1 b6 1c c2 40 b6 25 1e 54 b6
       4.1896074e-05 -7.2072626e-06 -2.8723216e-06 -3.1608008e-06
000170 81 b7 5c 36 a3 3b 0a b4 8a c3 63 b4 2e f8 6f b4
       3.2889368e-06 -1.2873947e-07 -2.1212159e-07 -2.2348897e-07
000180 8d 6d 6c b7 a7 d1 ad b8 90 d1 b1 37 b0 b1 91 37
       -1.4092203e-05 -8.2883336e-05 2.119763e-05 1.736809e-05
000190 dc 4b ad b6 0c c6 8c b8 f8 6f bb b6 82 79 cf b6
       -5.164633e-06 -6.712609e-05 -5.586069e-06 -6.183226e-06
0001a0 05 3e c8 34 a8 86 cd 35 6c 74 fd b5 a0 c7 f3 b7
       3.7298028e-07 1.531288e-06 -1.8883852e-06 -2.9060815e-05
0001b0 00 e6 ef b7 c9 e7 4f 37 39 07 e3 b6 4a 41 eb b6
       -2.8598122e-05 1.2392128e-05 -6.765968e-06 -7.0111464e-06
0001c0 b6 26 48 b4 96 38 b9 34 10 1a 1c b5 7a 08 34 33
       -1.8640534e-07 3.4500107e-07 -5.8152455e-07 4.1917225e-08
0001d0 76 e6 9c b5 e7 e8 aa b6 64 ef ec b7 44 cc 54 37
       -1.1689979e-06 -5.093508e-06 -2.8244867e-05 1.2683744e-05
0001e0 45 db e6 b5 a3 7a 86 37 11 ad 4d b6 94 36 35 b6
       -1.7200151e-06 1.6031152e-05 -3.0648118e-06 -2.700287e-06
0001f0 a9 17 57 b6 87 07 5b 35 94 fa 21 39 b7 4b 9b b9
       -3.2051269e-06 8.159481e-07 0.00015447504 -0.00029620316
000200 67 9f 84 bb 39 d5 78 bb 83 77 fc 3a 2f 90 02 b9
       -0.0040473226 -0.0037968887 0.0019261691 -0.00012451479
000210 83 ab 37 b9 6d 13 0d b9 6d e2 09 39 b2 90 25 b8
       -0.00017516133 -0.00013454045 0.00013149688 -3.9473824e-05
000220 f0 1b a0 b7 61 dc 86 b8 28 0d 24 ba 6f 8d 82 bb
       -1.9086496e-05 -6.430667e-05 -0.0006258064 -0.0039841454
000230 77 b1 df b9 d0 56 5e 39 e2 55 0b 3a ce d5 81 bb
       -0.00042666096 0.0002120391 0.0005315227 -0.003962255
000240 c7 68 65 b9 92 ce ac b9 82 7e 84 38 c3 dc 37 b6
       -0.00021878174 -0.00032960303 6.3178144e-05 -2.7397625e-06
000250 06 04 2a 36 1b 07 04 38 39 ea f3 37 87 cc 95 b7
       2.5334316e-06 3.147787e-05 2.9076926e-05 -1.7857425e-05
000260 1f 22 5a 36 df 76 6c 36 ed 9a 80 35 19 91 60 b5
       3.2504392e-06 3.5235933e-06 9.581833e-07 -8.365765e-07
000270 72 89 12 35 71 e0 eb b4 8d fa b5 35 75 3a b3 36
       5.458925e-07 -4.3935464e-07 1.3558471e-06 5.341421e-06
000280 ae 4b 03 38 48 83 5a b6 b0 2a 34 37 0e a7 67 b7
       3.1303316e-05 -3.2560947e-06 1.0738775e-05 -1.3807568e-05
000290 d0 97 80 37 06 6d 89 36 e8 70 3c 36 30 6c 3b b4
       1.5329482e-05 4.09561e-06 2.8079903e-06 -1.745509e-07
0002a0 61 c6 8f 38 95 62 1b b9 cf ef e7 ba fe b0 da ba
       6.855722e-05 -0.00014818677 -0.001769537 -0.0016684828
0002b0 64 18 5d 3a 47 32 78 b8 c0 91 c3 b8 40 84 7b b8
       0.00084341154 -5.9174632e-05 -9.325473e-05 -5.996623e-05
0002c0 a5 51 78 38 c6 e5 83 b7 30 39 f0 35 d7 65 c1 b7
       5.9203845e-05 -1.5723414e-05 1.7898037e-06 -2.3054816e-05
0002d0 31 9d 92 b9 0b 7c e4 ba a3 dd 0b b9 ee 80 77 b7
       -0.00027964407 -0.0017431987 -0.00013338639 -1.4752366e-05
0002e0 4c f5 77 39 ee cf d0 ba d7 1f c0 b8 cc d7 09 b9
       0.00023647136 -0.0015931109 -9.161204e-05 -0.00013145729
0002f0 ae f1 dc 37 33 44 c2 36 3f 40 ff b6 97 7d 07 b9
       2.6338585e-05 5.78959e-06 -7.6070714e-06 -0.00012921389
000300 fe fd f8 b8 20 65 93 38 a6 33 05 b6 bd 82 f9 b3
       -0.00011872871 7.028342e-05 -1.9848608e-06 -1.1618747e-07
000310 7d 79 a8 b6 f3 e8 a2 36 91 0e 00 b3 82 aa 24 b5
       -5.0209333e-06 4.855095e-06 -2.981557e-08 -6.134288e-07
000320 90 3f 27 b6 74 ad b3 b7 33 f3 06 b9 32 23 e0 b7
       -2.4921937e-06 -2.1419233e-05 -0.00012869835 -2.671927e-05
000330 c8 e6 a0 37 e7 50 8c 37 d2 c0 06 b9 00 f2 0a b7
       1.9180952e-05 1.6726974e-05 -0.00012851067 -8.281786e-06
000340 c6 ba 67 b7 9a 60 0a 35 6e 99 ff b8 55 d4 1e 39
       -1.38121595e-05 5.154958e-07 -0.00012187926 0.00015147154
000350 cd fb 40 3b c9 8a 32 3b 12 da bb ba a1 64 0c 39
       0.002944696 0.0027243367 -0.0014331958 0.00013388928
000360 4b 69 c6 38 81 ae cf 38 ad 05 d1 b8 9c 07 6f 36
       9.460988e-05 9.903033e-05 -9.966954e-05 3.5618204e-06
000370 6b d5 06 38 50 f1 9e 38 b1 a1 e2 39 45 b8 3d 3b
       3.214685e-05 7.578975e-05 0.0004322655 0.0028948945
000380 14 3d 19 39 24 45 8a b9 f7 83 18 ba 4f 97 3c 3b
       0.0001461397 -0.00026372925 -0.0005818004 0.002877671
000390 61 45 4f 39 8a 37 93 39 5e e0 50 b8 c8 30 04 38
       0.00019766904 0.00028079405 -4.9800023e-05 3.1516684e-05
0003a0 e2 58 34 37 ce 02 a9 b9 71 78 84 b9 b0 df 84 39
       1.0749531e-05 -0.00032236282 -0.00025266738 0.00025343662
0003b0 85 87 01 b8 55 4c 7e b7 fe af 9d b7 7a 4c a8 37
       -3.088221e-05 -1.5157352e-05 -1.8797811e-05 2.0062773e-05
0003c0 7f a6 12 37 9d a1 87 36 f6 77 45 b7 fb 11 05 b8
       8.7410435e-06 4.042128e-06 -1.1770046e-05 -3.1726417e-05
0003d0 03 cb aa b9 9f 4b f1 b7 79 6e 14 38 e5 7d 48 37
       -0.00032576182 -2.8764653e-05 3.5388835e-05 1.1950241e-05
0003e0 56 f8 b2 b9 c6 8e 35 b8 3a 28 32 b8 b8 18 64 b6
       -0.0003413583 -4.328673e-05 -4.247597e-05 -3.3989036e-06
0003f0 3c 88 cf 38 ee 20 53 b9 47 ea ee ba b7 2e df ba
       9.895905e-05 -0.00020134795 -0.0018227779 -0.0017027472

exp_avg_sq f4 [128, 21]
000000 b3 f0 50 34 4c 37 85 35 ea 35 76 38 1f 9b 61 38
       1.9459075e-07 9.925366e-07 5.8701182e-05 5.3788648e-05
000010 1e 51 67 37 29 13 aa 34 0e 2d 35 35 dc df b5 33
       1.37875595e-05 3.1678908e-07 6.749332e-07 8.469189e-08
000020 3b 6e bb 33 ad 92 f6 33 f6 d6 59 33 3c cb 4d 33
       8.727917e-08 1.1481948e-07 5.0719756e-08 4.7915123e-08
000030 84 dd a2 35 35 8c 73 38 7a ec be 36 bb 0e 8f 36
       1.213441e-06 5.8066293e-05 5.6899707e-06 4.263447e-06
000040 c1 da 4d 37 4b aa 49 38 47 33 8a 34 ea 06 48 34
       1.2269885e-05 4.8080732e-05 2.5741812e-07 1.8628967e-07
000050 f7 fb 6f 32 12 79 7e 34 15 70 fc 34 66 f0 20 38
       1.3968921e-08 2.3699639e-07 4.7020208e-07 3.837086e-05
000060 e9 32 1c 38 39 95 fe 36 6d 29 6b 34 82 93 67 34
       3.7240712e-05 7.5871617e-06 2.1901151e-07 2.1567215e-07
000070 b0 b9 6a 33 c3 bb 62 33 0d d3 a6 33 c8 c8 24 33
       5.4651252e-08 5.2790494e-08 7.768367e-08 3.8366835e-08
000080 ab 1a 3e 33 86 06 82 35 79 55 20 38 b9 c7 dc 36
       4.4262077e-08 9.687653e-07 3.8226575e-05 6.5797617e-06
000090 9f 4d c7 36 cb 8f 9f 36 c0 d1 04 38 27 1f b8 34
       5.9396984e-06 4.755309e-06 3.1666597e-05 3.4295337e-07
0000a0 f6 f9 53 34 ed e9 36 32 3a d5 39 32 0a eb 18 33
       1.9741842e-07 1.0646983e-08 1.0816899e-08 3.5604025e-08
0000b0 69 81 0f 36 72 f6 04 36 8d a2 07 35 dc f9 74 32
       2.1383987e-06 1.9812983e-06 5.052796e-07 1.4259481e-08
0000c0 04 01 7e 32 33 d7 59 31 32 e3 55 31 fb 99 7d 31
       1.4784977e-08 3.1699983e-09 3.1124725e-09 3.6903873e-09
0000d0 bd 60 01 31 e1 0c 18 31 1b 5a 6f 33 f3 67 0e 36
       1.882696e-09 2.2126232e-09 5.5728474e-08 2.1220155e-06
0000e0 1b f4 d2 34 99 25 61 34 a6 d1 b5 34 73 50 f0 35
       3.9293158e-07 2.0968436e-07 3.3866417e-07 1.7904807e-06
0000f0 60 4a 68 32 28 78 24 32 97 c3 2b 30 99 65 5a 33
       1.3521088e-08 9.573377e-09 6.248739e-10 5.0849483e-08
000100 aa a7 1a 34 df 40 0f 37 b2 06 06 37 f0 c4 f4 35
       1.4403363e-07 8.538568e-06 7.988581e-06 1.8236733e-06
000110 64 fb 60 33 7d 5d 42 33 77 55 56 32 91 67 4d 32
       5.2382703e-08 4.5254172e-08 1.2475872e-08 1.1956119e-08
000120 8c 38 fa 31 77 74 d5 31 97 46 0e 32 c0 20 91 34
       7.2823862e-09 6.2123564e-09 8.281538e-09 2.7032183e-07
000130 4a 58 0c 37 46 72 0b 36 4f 29 20 35 4c aa 83 35
       8.365207e-06 2.077913e-06 5.9664757e-07 9.809823e-07
000140 37 f3 e5 36 2e 31 5c 33 e7 f2 36 33 aa 07 c5 31
       6.8530458e-06 5.126747e-08 4.2596096e-08 5.734326e-09
000150 d8 b1 06 31 b5 28 c2 31 cb 09 74 34 36 ce 64 34
       1.9600659e-09 5.650771e-09 2.2727833e-07 2.1309174e-07
000160 eb 97 6d 33 ef 68 0a 31 eb 10 81 30 27 8a d0 2f
       5.531903e-08 2.014129e-09 9.390794e-10 3.7933143e-10
000170 af 71 c1 2f 98 da 70 2f af 7f 8b 2f 5d 08 81 2f
       3.5187273e-10 2.1905533e-10 2.5374677e-10 2.3470906e-10
000180 d5 b7 37 32 c4 88 75 34 6d 9a f6 33 ba 57 87 32
       1.06938005e-08 2.2867158e-07 1.14833576e-07 1.5755962e-08
000190 51 e5 12 33 fd d4 08 34 85 67 b7 30 46 6d 93 30
       3.4201836e-08 1.2743472e-07 1.3344424e-09 1.0726715e-09
0001a0 46 56 01 2e f8 f1 97 31 60 42 78 32 95 83 42 35
       2.940783e-11 4.422187e-09 1.4450592e-08 7.246211e-07
0001b0 fc 4b 2d 35 67 58 52 34 c9 5b 92 31 aa 44 8e 31
       6.4558094e-07 1.9589935e-07 4.259594e-09 4.14055e-09
0001c0 50 36 9c 30 82 45 9a 30 cc 25 37 30 29 0f f1 2f
       1.136593e-09 1.122473e-09 6.6628725e-10 4.3848417e-10
0001d0 03 0f 47 30 fd 3d b6 32 4b 3c 41 35 c5 22 0a 34
       7.241711e-10 2.1215778e-08 7.198584e-07 1.28649e-07
0001e0 b2 75 92 33 ec 9c bf 33 14 16 23 35 6f 74 da 31
       6.8200634e-08 8.9226745e-08 6.075436e-07 6.357872e-09
0001f0 f8 c3 32 31 58 18 5c 2f f6 bd dd 35 e8 80 a4 36
       2.6013804e-09 2.0017532e-10 1.6521069e-06 4.9025875e-06
000200 e6 23 bc 39 88 5b b2 39 c8 fa a2 38 e0 92 0b 36
       0.000358849 0.00034019002 7.7714736e-05 2.0798107e-06
000210 52 e3 1b 36 ba cb 0a 35 f5 69 06 35 36 00 23 35
       2.3229118e-06 5.170547e-07 5.007308e-07 6.072254e-07
000220 6a e4 a6 34 84 d0 cb 34 a1 f1 22 37 1e e4 ba 39
       3.1086103e-07 3.7963412e-07 9.712211e-06 0.00035646645
000230 f5 bb 56 38 d1 4f 03 38 4e 8d 41 38 68 6b ac 39
       5.1196625e-05 3.130717e-05 4.6146386e-05 0.0003288642
000240 5e 26 19 36 d2 f8 04 36 be 43 e6 33 eb 9a 79 30
       2.282111e-06 1.9814365e-06 1.0722532e-07 9.0805824e-10
000250 cf c5 55 31 82 f2 2d 34 a1 87 22 34 87 f7 17 33
       3.110802e-09 1.6200104e-07 1.5136767e-07 3.5382552e-08
000260 c3 26 95 30 94 70 8c 30 5b 72 80 2f c6 7a 7b 2f
       1.0852194e-09 1.0218337e-09 2.336432e-10 2.2871935e-10
000270 26 59 4e 2f f4 05 e9 2e b8 fe 21 2f 0e 23 8d 31
       1.8767263e-10 1.0596671e-10 1.4733359e-10 4.1076254e-09
000280 9c 47 2c 34 d2 47 fc 32 29 8a 98 32 4a a9 8b 32
       1.60448e-07 2.9369321e-08 1.7757957e-08 1.6258713e-08
000290 98 ab 0b 34 4a a5 9a 30 41 89 17 30 1a f2 59 2e
       1.3007809e-07 1.1251953e-09 5.512853e-10 4.9555117e-11
0002a0 fd ab 30 35 c8 6b 44 36 5b 55 18 39 1e 46 0c 39
       6.5815385e-07 2.9269013e-06 0.00014527647 0.00013377561
0002b0 c0 41 0f 38 fe ca 72 35 bc 91 a1 35 0a 7e 67 34
       3.415509e-05 9.044742e-07 1.2037849e-06 2.1559404e-07
0002c0 08 c8 65 34 b2 c6 69 34 b4 5e f3 33 9b 10 0a 34
       2.1400058e-07 2.1772101e-07 1.1332796e-07 1.2858293e-07
0002d0 3c ec 6a 36 2e 8b 16 39 20 c9 c7 37 03 c6 49 37
       3.5006224e-06 0.00014356963 2.3816305e-05 1.2026637e-05
0002e0 65 17 c6 37 dc 3a ff 38 7d 20 65 35 0e 35 0f 35
       2.3614333e-05 0.00012170311 8.5356425e-07 5.3348856e-07
0002f0 61 bf 4b 33 4b d3 e8 30 6e 29 81 31 cd 5a 95 34
       4.743868e-08 1.6940275e-09 3.759104e-09 2.781948e-07
000300 53 b0 86 34 3f 4a 9f 33 da eb a7 30 7e 00 c5 30
       2.5087738e-07 7.41752e-08 1.2217882e-09 1.4333776e-09
000310 7f 58 e9 2f 83 d0 e1 2f a7 ab ac 2f fd a1 36 2f
       4.2445333e-10 4.1075418e-10 3.1408584e-10 1.6610353e-10
000320 9f 6c 98 2f 6c ee 07 32 27 5b 95 34 00 0a 9a 32
       2.772582e-10 7.912245e-09 2.7819735e-07 1.7932507e-08
000330 9e ff de 32 08 21 f4 32 24 28 8b 34 68 1f 1a 31
       2.5960443e-08 2.842036e-08 2.5919974e-07 2.2427802e-09
000340 a9 8d 9d 30 94 a8 48 2e 17 4c 9d 35 e4 11 4a 36
       1.1463516e-09 4.5624463e-11 1.1719557e-06 3.011076e-06
000350 c0 37 60 39 ab 76 53 39 47 bd 3d 38 11 62 66 35
       0.00021383073 0.00020166735 4.523739e-05 8.582438e-07
000360 bc 5a 69 35 99 6c a3 34 ff 76 9d 34 d8 5a 6c 34
       8.69313e-07 3.044013e-07 2.933011e-07 2.2012262e-07
000370 1e 3b 2b 34 00 38 5b 34 20 75 c7 36 49 be 5b 39
       1.5947123e-07 2.0416337e-07 5.9442973e-06 0.00020956354
000380 7e 04 e1 37 a3 b5 96 37 38 1a b7 37 85 48 50 39
       2.6824182e-05 1.7965975e-05 2.1827509e-05 0.00019863441
000390 09 cc ce 35 96 9f 96 35 35 53 2f 34 e1 e7 4d 34
       1.5407578e-06 1.1222317e-06 1.6328416e-07 1.917647e-07
0003a0 39 7c 24 35 9d f0 20 38 c9 53 1a 38 4a 73 f9 36
       6.127553e-07 3.837106e-05 3.6794492e-05 7.4341997e-06
0003b0 a0 c1 79 34 7b 42 80 34 25 c1 73 33 1b 87 6a 33
       2.3260372e-07 2.389023e-07 5.675351e-08 5.460525e-08
0003c0 9b 28 31 33 36 21 08 33 5c 7f 57 33 29 26 a0 35
       4.1247954e-08 3.1695173e-08 5.017442e-08 1.1932035e-06
0003d0 fc 1b 1e 38 32 42 c7 36 37 7b 03 36 44 6c a8 36
       3.7696198e-05 5.9383683e-06 1.9592242e-06 5.019394e-06
0003e0 ed 26 0d 38 d6 93 3c 34 c2 8d 48 34 4e d8 a9 32
       3.3653272e-05 1.7562647e-07 1.8678023e-07 1.9772553e-08
0003f0 cb d4 f1 34 ca 09 f9 35 20 72 cb 38 99 3f bc 38
       4.5044575e-07 1.8554795e-06 9.701052e-05 8.9763846e-05
