models/checkpoint_3300.pth (torch, 255274 bytes, 24 tensors)

policy_log_std f4 [7]
000000 a6 26 23 3f 82 14 69 3f f3 f6 89 3f 57 f2 12 3f
       0.6373085 0.9104692 1.0778488 0.5740103
000010 c9 38 44 3f ae 83 a2 3f 28 c4 17 c0
       0.7664915 1.2696435 -2.3713474

fc1.weight f4 [128, 21]
000000 2f ef 42 3f ee 90 39 3f dd e5 83 be 02 fc d4 be
       0.76146215 0.7248677 -0.2576131 -0.41598517
000010 9d 8c 19 bf 95 7a e2 bd e5 10 67 bf 7d e2 05 bf
       -0.59980184 -0.11058537 -0.90260154 -0.5229872
000020 8a 9f e2 3e f2 1b fd 3c 85 b2 9e 3c ac 66 bb 3f
       0.44262344 0.030897114 0.019372234 1.4640708
000030 0d 7a 83 be 00 a3 ed be d9 79 0f be 6b 01 6d bc
       -0.25679055 -0.46413422 -0.14011325 -0.01446567
000040 05 8a 42 bf 17 60 25 be 35 4b c4 3d b1 51 a6 bf
       -0.7599185 -0.16149937 0.09584657 -1.299368
000050 bf 5a 27 3f 2d 6f 2d 3f 02 15 9a be c0 93 01 3f
       0.6537284 0.67747766 -0.30094153 0.50616074
000060 24 04 4d 3e 6d 03 da 3c a4 26 db bf 9e bf e0 be
       0.20021111 0.026612962 -1.7121167 -0.43896192
000070 e1 fc 31 bf 60 4b 3e 3f ee 87 0b bd ab 8a 36 3d
       -0.6952649 0.74333763 -0.03406518 0.044565838
000080 eb ab 2f 3f ed a9 30 3e 1c a9 1e 3f 38 b8 2c 3e
       0.686217 0.17252322 0.6197679 0.16867149
000090 59 15 8c bd e8 f4 de 3e 90 dc d2 3e 83 f2 59 be
       -0.06840009 0.43546224 0.411839 -0.21283917
0000a0 ee b2 2f 3f 10 1e ee bf 48 1a 4e 3f 68 20 d2 be
       0.686324 -1.8602924 0.8050885 -0.4104035
0000b0 1b 66 38 3f 33 4a b4 3e ed 4d f7 3e c0 7e 35 bf
       0.720308 0.3521286 0.4830164 -0.7089653
0000c0 08 09 92 3e 96 68 0d 3f 7c 40 13 bf f6 f0 eb bd
       0.28522515 0.5523771 -0.5752027 -0.11520569
0000d0 05 40 90 3e 2c 16 26 3f d6 fb 28 3f d4 66 53 3f
       0.28173843 0.6487758 0.6600927 0.8257878
0000e0 58 82 67 be 63 2f 89 3d 77 91 ad 3e bf 6c 4c 3f
       -0.22608316 0.066984914 0.33900043 0.79853433
0000f0 9a 0d 58 bf fd 82 c9 3e 22 11 81 be e8 0e 94 3d
       -0.84395754 0.3935775 -0.25208384 0.07229406
000100 bd 01 71 be 57 b7 6a bd 20 72 01 bf 0a 58 1a bf
       -0.2353582 -0.057303753 -0.50564766 -0.60290587
000110 95 37 da 3b 32 9c a9 be c0 e0 86 bf bd c3 80 3f
       0.006659458 -0.3312698 -1.0537338 1.0059735
000120 c3 06 9a 3d 13 c4 60 be 39 c0 42 3f 29 a1 1d bf
       0.07520821 -0.21949796 0.7607456 -0.61574036
000130 48 4c 07 bf 1c bd 69 be 9f 81 07 3e e9 2f ab 3d
       -0.5285077 -0.22826046 0.1323304 0.083587475
000140 4d e0 1c be ea b8 29 3f fb e8 ee be 1c 83 aa bf
       -0.15319939 0.6629778 -0.46662125 -1.3321261
000150 68 90 0a 3f 72 11 52 bf 2e 8e 2f 3f 91 dd 11 3f
       0.54126596 -0.8205787 0.68576324 0.5697871
000160 20 7b 2e 3f d5 8c 4f bf f1 de 03 be 5f 61 1a 3e
       0.68156624 -0.8107427 -0.12878014 0.15076207
000170 99 69 8c be 09 49 00 3f c4 fc 18 bf 37 6b 3b 40
       -0.27424315 0.5011144 -0.5976069 2.9284189
000180 65 e3 14 3f 13 4b f3 3e 27 fd 1b 3e 9c e6 8e 3e
       0.58159477 0.47518215 0.15233289 0.27910316
000190 53 f5 d2 be 3b 90 03 3f a5 7f e3 3e b9 cd 72 3f
       -0.41202793 0.51391953 0.44433323 0.9484516
0001a0 e2 e7 f5 bf 0e 12 85 39 65 fc d4 be ea 5c 16 3e
       -1.921139 0.0002538119 -0.41598812 0.14683881
0001b0 bc a5 b1 3e 33 ff b2 3d 36 89 59 bf 03 49 da be
       0.34696758 0.08740082 -0.8497499 -0.4263383
0001c0 2b 92 64 3f 4f 44 86 bc f0 78 b1 bb 03 29 34 3d
       0.89285535 -0.016389994 -0.005416028 0.043984424
0001d0 33 7f c7 bf 89 e7 c2 3b ee 45 02 3d 09 49 5f bf
       -1.5585693 0.0059480113 0.03180497 -0.8722082
0001e0 dc cc 21 bf 2c 60 5d bf c5 2f 3c 3e 14 7e 04 bf
       -0.63203216 -0.8647487 0.18377598 -0.5175488
0001f0 c6 19 f6 3e f7 c7 a6 bf 89 83 85 bd d5 56 93 3e
       0.4806654 -1.3029774 -0.06519229 0.28777185
000200 00 69 30 bf c5 fb ad 3e 82 4c c8 bd 51 b7 3e 3f
       -0.6891022 0.33981147 -0.09780218 0.7449847
000210 eb 9b d7 3d 07 35 db 3e 0e 67 54 be fc e4 05 be
       0.10527786 0.42813894 -0.20742437 -0.13075632
000220 e2 db 96 bd c9 e3 05 bf 87 7f 11 bf f6 0a d8 bd
       -0.07366158 -0.523007 -0.56835216 -0.10548966
000230 38 5d 1e be fa 45 c6 bc 7d ab c7 bc 3d 39 d5 be
       -0.15465248 -0.02420329 -0.024373764 -0.41645232
000240 f4 6d 0b bc f8 8b c7 be 3d 21 d7 3f ed 21 09 be
       -0.008510102 -0.38973975 1.6807019 -0.13391848
000250 7e 0c ff be d3 95 07 3f d9 57 67 3e aa cb 0a bd
       -0.49814218 0.5296299 0.22592105 -0.033885635
000260 b0 87 6d bd 00 94 02 3f ee e6 c3 be bc 17 2f 3e
       -0.05799073 0.5100708 -0.38262123 0.17098898
000270 48 7c a2 3d 1d 31 94 bd 46 e0 c9 3f 53 44 83 3f
       0.07933861 -0.0723593 1.5771568 1.0255226
000280 40 d8 14 3f 0d 0b 20 3e 19 28 c6 3b c9 4a b1 3e
       0.5814247 0.15629216 0.0060472605 0.3462737
000290 98 fd db 3e 52 22 2d 3e 4a 5b 09 3f 51 45 99 bf
       0.42966914 0.16907623 0.5365492 -1.1974279
0002a0 c4 fd 3c be ec c4 b2 bf 71 20 85 3e 16 f3 0a 3f
       -0.18456179 -1.3966346 0.26001313 0.5427717
0002b0 41 1c 64 3e 3d d4 11 3e 92 7c a0 3e 60 3e 41 3f
       0.22276403 0.14241119 0.3134504 0.754858
0002c0 f5 27 a5 be 52 eb 2f be 50 33 af 3e a3 d3 76 bf
       -0.32257047 -0.17179611 0.34218836 -0.9641668
0002d0 cb 7d 64 3e 22 9e 08 3d f3 db ab 3d f9 a2 4f bd
       0.22313611 0.033353932 0.08391561 -0.050692532
0002e0 f7 2a 13 3e 8f d0 8b 3e 70 2d ac 3e 68 cf dc 3f
       0.14371859 0.27307555 0.33628416 1.7250795
0002f0 25 95 8e bf b1 c7 7f bf 87 37 33 3e 6f 44 e9 be
       -1.1139265 -0.9991408 0.17501651 -0.45560023
000300 0d 7a 4b bf 71 bd 76 bf 0b 1e 89 3d 3d 1f f0 be
       -0.7948311 -0.96382815 0.06695183 -0.46898833
000310 89 a9 c1 bd da 78 6d bd e5 f9 cf 3d 7f 66 d8 bc
       -0.094561644 -0.05797658 0.101550855 -0.026416061
000320 53 e6 15 40 db 46 79 be cd 74 03 bf 38 0c 91 3e
       2.3421829 -0.24343435 -0.513501 0.28329635
000330 51 06 aa 3e ad 30 20 3d 3c b2 e0 be 86 d5 f7 3f
       0.33207944 0.03910892 -0.43885982 1.9362037
000340 96 6f ab bd 28 39 46 3f af 1d 93 bf 92 40 77 3f
       -0.08370893 0.77430964 -1.1493434 0.965829
000350 1e ac 10 bd 40 36 40 be 36 42 26 3e c4 bf 38 3f
       -0.035320394 -0.18770695 0.16236195 0.7216761
000360 d3 5d 6e bf 4a 07 a2 bd de 4e cf be 3b 78 9d bd
       -0.93111914 -0.079115465 -0.40489858 -0.07688948
000370 a8 00 86 bd c2 20 03 3e 35 b5 bb 3e 2a c7 da 39
       -0.06543094 0.12805465 0.36661687 0.0004172859
000380 4c 94 24 bd b9 87 1d be 1e f3 39 bf 16 b3 1d be
       -0.04018049 -0.15383805 -0.7263659 -0.15400347
000390 0b da 8e 3f a3 86 da be 63 0f 1c bf a8 19 0b 3f
       1.1160291 -0.42680845 -0.6096098 0.54336023
0003a0 b1 e2 91 3f 0f 3a 59 3e 4d 25 1c bf 24 ab bc bf
       1.1397306 0.21213554 -0.60994416 -1.4739728
0003b0 09 30 94 3f 90 36 0e 3f 91 35 d5 3e af 34 59 be
       1.1577159 0.55552006 0.4164243 -0.21211503
0003c0 48 f1 bf 3d 97 43 c6 3d 65 a4 4d 40 b5 8c 89 bc
       0.093721926 0.096808605 3.2131588 -0.016790727
0003d0 e0 69 d1 bd 54 06 e9 3d be e1 e3 3e 60 ba 37 3e
       -0.10225272 0.1137816 0.44508165 0.1794219
0003e0 00 30 87 bd dc 36 c4 3e d3 cb 4a bf 5e 52 b4 3f
       -0.06600952 0.38323104 -0.7921726 1.4087636
0003f0 29 9a e9 be 66 73 e7 bd f7 28 23 be a2 48 87 3e
       -0.45625427 -0.113013074 -0.15933596 0.26422602

fc1.bias f4 [128]
000000 51 27 f9 be b4 1d f2 3e 22 27 24 3f 2f fa 15 be
       -0.4866281 0.47288287 0.6412221 -0.14646219
000010 5f d6 01 3f 9b 6b 50 3e a5 16 e7 bd 02 b7 e2 3e
       0.5071773 0.20353548 -0.11283616 0.4428025
000020 3d b0 ac 3e b5 67 9d be 12 4d 2c be 2c c4 22 3e
       0.3372821 -0.30743185 -0.16826275 0.15895146
000030 55 b2 21 3e ba 0b 24 3e a8 c9 22 bf 2f c5 86 bd
       0.15790685 0.16020098 -0.63588953 -0.065805785
000040 e1 05 af 3c 31 11 6a 3e 45 c6 86 be c9 b6 4d 3e
       0.021365108 0.2285812 -0.26323143 0.20089258
000050 a8 77 36 bf 3e e2 5f bd 57 74 db be c8 99 24 bb
       -0.7127633 -0.05465912 -0.42862198 -0.0025116075
000060 0a 2a d8 bd 34 36 c9 3e 71 97 06 3d 9e 53 b5 3e
       -0.10554893 0.39299166 0.03285927 0.35415357
000070 d0 2a 45 3e 62 c7 5e be 56 9f 09 3f 5a a6 d2 bd
       0.19254613 -0.21755746 0.5375875 -0.10285635
000080 32 83 8e bd f1 8a 63 3e 21 67 1e 3f 3c 4c d0 3e
       -0.06958617 0.2222097 0.6187611 0.40683162
000090 fc 4e 07 3f 7d 86 a1 3d 7a 68 50 3e 98 3b c9 3b
       0.52854896 0.0788698 0.20352355 0.0061411373
0000a0 46 95 82 be da e8 d2 bd 04 90 83 bb 92 5a d8 3d
       -0.25504512 -0.10298319 -0.0040149707 0.1056415
0000b0 20 12 1b 3e 81 a1 83 3d 3d ce 0d be fc 8f 21 3f
       0.15143633 0.06427289 -0.13848205 0.6311033
0000c0 b7 39 ee 3e 4f f1 37 bd a4 7f 53 3e 02 10 ca 3e
       0.46528408 -0.044907864 0.2065416 0.39465338
0000d0 b3 3e 57 bd e2 1d 1b bf b4 24 83 3d 0e 55 92 3e
       -0.05255003 -0.6059247 0.06403485 0.28580517
0000e0 da fe d8 be c5 fe 0c be 91 95 e8 bd fa cc 1b bf
       -0.42381936 -0.13769062 -0.113566525 -0.60859644
0000f0 25 49 1c bb 93 8d 93 be 44 11 49 bb 92 9e d5 be
       -0.0023847308 -0.2881895 -0.0030680457 -0.41722542
000100 0f 7f 40 3e da 64 e7 be 15 2e 6e be 25 20 10 bf
       0.18798469 -0.4519413 -0.23259766 -0.5629905
000110 7a 39 21 3e e5 2f 03 3e 07 a8 92 be a2 30 29 3e
       0.15744582 0.12811239 -0.2864382 0.16522458
000120 a3 13 b7 3e 25 d9 ac 3e 5a 1a ff be 79 92 78 bd
       0.3575717 0.33759418 -0.49824792 -0.060686562
000130 cc 7f bf 3e 65 27 2b bf 39 5d a4 3e 82 d2 a9 be
       0.3740219 -0.66856986 0.32102373 -0.33168417
000140 39 b6 43 3e 99 52 ab 3d 6a 6c 20 3e 25 ac 5d be
       0.19112481 0.08365364 0.15666357 -0.21647699
000150 8e 6e 3a 3f 7c 03 0c bf 20 e5 06 be 64 59 97 be
       0.72824943 -0.54692817 -0.13173342 -0.29560387
000160 9e 84 d5 be bc 75 8c bd dc e7 4d bf b6 93 ff 3e
       -0.4170274 -0.068583935 -0.80431914 0.49917382
000170 6d a9 35 3d 83 5f 3e 3f fe a7 96 bd 33 90 16 3f
       0.04435103 0.7436449 -0.07356261 0.5881378
000180 24 f2 bd be 7b 9e 02 3e 06 f3 82 3e 8f a1 49 be
       -0.370988 0.12755768 0.25576037 -0.19690536
000190 b5 2b ac be 1b 39 3a bf 78 74 86 be 2e 13 18 bd
       -0.33627096 -0.72743386 -0.26260734 -0.037127666
0001a0 60 ee 2a 3d 21 4f 58 bd a8 cc a6 3e ef d0 92 bd
       0.04173124 -0.05280984 0.32578015 -0.07168757
0001b0 31 f5 10 3f 4e 12 e8 bd ad f8 46 be 42 31 2e be
       0.5662413 -0.11331616 -0.194308 -0.17010978
0001c0 a0 4d 20 3f d8 53 a1 bd 89 18 89 3e 80 55 27 bf
       0.62618446 -0.0787732 0.2677653 -0.6536484
0001d0 be 2f 13 3f 01 7d a3 be 1f 83 de 3e c3 79 35 3e
       0.57494724 -0.31931308 0.43459412 0.1772223
0001e0 d7 2d 23 bf 95 8c 30 3e 83 80 cc 3e 09 e7 bf 3e
       -0.6374182 0.17241128 0.39941797 0.37480953
0001f0 df e4 90 be 33 bb e6 3c a7 43 a3 3e 86 e1 89 3e
       -0.28299615 0.028165435 0.31887552 0.26929873

fc2.weight f4 [128, 128]
000000 c7 d3 bb 3e f9 42 61 be b3 a6 ef be ef 85 8f 3e
       0.3668501 -0.21998204 -0.4680687 0.2803187
000010 14 f2 b1 3d 67 30 f3 be ac 39 69 be b6 a9 3f 3f
       0.08688751 -0.47497866 -0.22775906 0.74868333
000020 4f f5 9c be 6c a8 90 3f 8a 17 58 3f 0f ff 46 3d
       -0.30655906 1.1301398 0.8441092 0.048583087
000030 ff 2c 6f be 24 45 13 3f d4 ad 32 3f bf d7 2b be
       -0.23357008 0.57527375 0.6979649 -0.1678152
000040 4b b9 84 bc 88 c5 1f be 94 42 4c 3e 8a 4a b5 3e
       -0.016201636 -0.15602696 0.19947273 0.3540843
000050 8e 89 bb 3d c7 e3 35 3f 4b f0 8a be 39 cd d9 bf
       0.09157096 0.71050686 -0.27136454 -1.7015754
000060 1c ae fa bd 97 23 a7 3a fd 9f 26 bf 33 67 7c bf
       -0.1224024 0.0012751695 -0.6508787 -0.9859497
000070 b9 51 68 be 39 a3 ac 3e 86 ff ef 3f db 4d 41 3f
       -0.22687425 0.3371828 1.8749855 0.75509423
000080 ff c4 57 3e 49 73 24 3e 98 0c 34 bf e4 89 e6 bd
       0.21071242 0.16059603 -0.70331717 -0.11256769
000090 11 ee 05 bd 5b e5 4f 3e c1 17 4f bf d8 c5 19 be
       -0.03269774 0.20302336 -0.8089562 -0.15016878
0000a0 1c 92 5f bf 18 74 c8 bd 30 e1 21 3f f1 ef d2 ba
       -0.8733232 -0.09787768 0.63234234 -0.0016093237
0000b0 aa f4 7c 3e 31 eb 6c be 5f 25 4d 3f 78 6c 34 bf
       0.24702707 -0.23136593 0.8013515 -0.7047801
0000c0 c5 1e 04 bf 40 9a 0c 3f 20 5a 91 bd 99 46 1c bf
       -0.5160945 0.54922867 -0.07097268 -0.61045223
0000d0 40 61 05 bf 3f 77 9f bf b6 65 e7 bd 0f 5c 8a be
       -0.52101517 -1.2458266 -0.11298697 -0.2702336
0000e0 52 19 15 3d 81 71 a7 bd 07 e4 96 3e 89 a1 80 be
       0.0364011 -0.08175946 0.29470846 -0.25123242
0000f0 06 b2 3d bf 5b 9f 29 3e 77 96 09 3e 60 d6 3a bc
       -0.7409977 0.16564696 0.13436304 -0.01140365
000100 00 04 0c 3f 62 ca 64 bf 8a 76 06 3f 69 3b b5 bf
       0.54693604 -0.8937131 0.52524626 -1.4158756
000110 e2 7e 03 3e e1 64 82 be 48 3b 4f 3c 8d 6c 2f 3d
       0.1284137 -0.2546759 0.012648411 0.04282813
000120 d4 fa d8 be de 08 21 bf d6 b9 f3 3f 27 ed b7 3b
       -0.42378867 -0.62904155 1.9041088 0.0056129876
000130 4c 7f 77 bd 02 c9 c7 3e 36 46 18 bf f7 df 73 3d
       -0.060424134 0.39020544 -0.59482133 0.05953976
000140 01 71 86 bd b1 44 cc bd 57 f5 30 3f 78 49 64 3f
       -0.065645225 -0.09974039 0.6912436 0.89174604
000150 26 1c 3f bf b8 d7 32 3f 2f d7 a5 be 01 d5 20 bf
       -0.74652326 0.6986041 -0.32390735 -0.6282502
000160 11 2b 08 3e 1f ea 10 3e 9a 79 3d 3f 07 3f 73 bf
       0.13297679 0.1415181 0.74013674 -0.9501805
000170 79 0d f1 bd 83 3a cf bd b8 3c 6c 3e 31 7d 7d be
       -0.11770148 -0.10118582 0.23070037 -0.24754788
000180 f6 d7 76 be e1 7d 89 be 96 89 a9 be 42 8a 97 3c
       -0.2410582 -0.2685385 -0.33112782 0.018498544
000190 2d 9e 02 3f e4 88 82 3e 12 4a 6e be b0 32 3a 3e
       0.5102261 0.25495064 -0.23270443 0.18183398
0001a0 72 ee de bd 95 ce 08 3f 59 c8 fe be eb b6 b4 3e
       -0.108853236 0.5344022 -0.49762228 0.35295805
0001b0 37 e2 df 3d 46 74 9c be 84 7b 58 3e cc 66 9e 3e
       0.10931819 -0.3055746 0.21140867 0.30937803
0001c0 2a b1 22 3d 0d 5b 02 3f ac 37 95 bf c1 08 56 be
       0.039719738 0.5092018 -1.1657615 -0.20901777
0001d0 79 a2 9b bd b2 24 a5 bd 45 7f e0 3f f8 50 7b 3d
       -0.075993486 -0.0806364 1.753884 0.061356515
0001e0 44 03 03 3f 51 45 3b 3f 99 20 c4 be 4e c2 36 bf
       0.5117686 0.73152643 -0.3830612 -0.71390235
0001f0 c4 e8 13 3f 73 2f 8e 3e d5 95 29 bf f4 fb 3e bd
       0.5777705 0.27770576 -0.6624425 -0.046627
000200 bf 94 b8 be bb 67 a0 3f 62 3b 45 bf ac 5d 17 be
       -0.36050984 1.2531656 -0.77043736 -0.14781827
000210 f9 cd 0f 3f 7d 69 cf be b4 ac 04 3d f5 e0 5c bd
       0.56173664 -0.4051017 0.032391265 -0.053925473
000220 7f 24 58 3e c1 64 8b be c2 8b 8c 3e 35 e6 a7 3e
       0.21107672 -0.27225307 0.27450377 0.32792822
000230 a0 38 18 3f c0 10 8f bd ca 2e b9 3f 3d 59 77 bf
       0.594614 -0.06985617 1.4467404 -0.9662054
000240 ec ff 0e 3f 90 2c ab be b3 24 ac be 52 00 a9 3f
       0.55859256 -0.33432436 -0.3362175 1.3203223
000250 81 4e 01 be 1a 74 96 be ea 6c 06 bf 4d 88 61 be
       -0.12627603 -0.29385453 -0.5250994 -0.22024651
000260 0f 13 08 bf 2c 71 2f be 96 f9 ce be 13 42 70 be
       -0.5315408 -0.17133015 -0.40424794 -0.23462705
000270 aa 9e bf be 42 af 3e be 63 df ca bd 4c 48 05 bd
       -0.3742574 -0.18621543 -0.09905889 -0.03253965
000280 aa 3e 84 3f d4 19 29 bd 7e 3b 2d bf 0a 25 69 3e
       1.0331624 -0.041284397 -0.676689 0.22768036
000290 bc 5c 37 bf 57 d5 78 be 33 ac 0e 3d 0b a2 d0 3e
       -0.71625876 -0.24300133 0.03483219 0.4074863
0002a0 c8 b5 ae be 6d 50 2d 3f 73 5e dc 3e af ad cf 3e
       -0.34123063 0.67700845 0.4304081 0.40562198
0002b0 00 0a 13 3f aa 39 c0 be 94 e1 e1 3e fa 00 9d bf
       0.57437134 -0.37543994 0.44117415 -1.2265923
0002c0 c2 d2 b9 be bd 67 eb be 95 29 b3 3f 13 be da be
       -0.36293608 -0.45977584 1.3997065 -0.4272314
0002d0 4d 3d 2d bf 99 c1 dc 3e d9 66 bf 3e 18 72 a8 bf
       -0.6767166 0.43116453 0.37383154 -1.3159819
0002e0 e6 73 96 3e f4 19 90 bd 43 7a 85 be c4 3d b5 3e
       0.29385298 -0.070362 -0.2606984 0.35398686
0002f0 22 03 6c bf c6 6e 75 bd 99 dc 17 be 5f 9c 03 bf
       -0.9219228 -0.059920095 -0.14830245 -0.5141048
000300 ac c8 b0 3d 62 ca 7d be cc 2e 98 bd b0 ee 87 be
       0.08632025 -0.24784234 -0.07430801 -0.26549292
000310 9e 80 34 3e 8c a1 db bd b6 3d f5 be 98 8e 93 3d
       0.17627189 -0.10724172 -0.47898644 0.07204932
000320 9f 84 f3 be 36 08 a0 bf 21 f1 c6 bd 98 ce 3d be
       -0.4756212 -1.2502506 -0.097139604 -0.1853584
000330 60 ee ad 3d 15 eb 72 3f 61 d4 fb 3d 43 44 c3 bf
       0.08492732 0.94889957 0.122963674 -1.5255207
000340 c1 1f 88 bd de ff 9a bc 7d 63 02 3f 8c 07 9b 3d
       -0.066466816 -0.018920835 0.5093306 0.07569799
000350 c5 5d 91 bf 61 c0 10 bd 98 40 f7 be 5f 78 a8 bd
       -1.1356741 -0.035339717 -0.4829147 -0.08226084
000360 ee d5 a8 bd 41 ed be be 58 13 29 3f 0b c3 9a bf
       -0.08243929 -0.37290385 0.6604514 -1.2090772
000370 5d e5 8c 3e d7 cf 5a bf 53 a8 d1 3e 7a 35 87 3e
       0.2751874 -0.8547339 0.40948734 0.26407987
000380 6a e3 1d be 9b 61 62 bf 18 03 90 3e 62 e1 22 bf
       -0.15418783 -0.88430184 0.2812736 -0.63625157
000390 75 62 43 3e 0d 28 6a 3f 7a 33 0e be 05 79 f4 bc
       0.19080527 0.9146736 -0.13886824 -0.029842863
0003a0 21 c9 10 bc af c3 ac 3e df d9 2b bf 8f 9a 33 3f
       -0.008837015 0.33743045 -0.6712932 0.7015771
0003b0 fe 0d 1c be a0 7c db 3e 32 a8 e8 be fc 4f d0 3b
       -0.15239713 0.4286852 -0.45440823 0.006357191
0003c0 b8 53 c2 be 6b e6 25 3f a3 a6 5b 3e ec 55 d0 3e
       -0.37954497 0.64804715 0.21450286 0.40690553
0003d0 fb b9 37 3e 81 36 93 be fe 8e fa 3e 29 48 ec 3d
       0.1794204 -0.2875252 0.4893722 0.11537201
0003e0 36 3d c1 3e 00 c1 5d 3f 66 3c 7d bd 11 e7 92 3f
       0.37742013 0.8662262 -0.06182518 1.1476766
0003f0 0f cc 39 3f d5 fe 83 3f f7 c6 a5 bd 05 91 22 bd
       0.72576994 1.0312144 -0.0809459 -0.039689083

fc2.bias f4 [128]
000000 46 a9 f1 be ed 20 f6 3d 47 18 dc 3d 16 19 d3 be
       -0.47199458 0.12017999 0.10746818 -0.41230077
000010 70 96 98 bd af ec a0 be d2 4e 0a 3f 86 87 b6 be
       -0.07450569 -0.31430575 0.5402652 -0.3565027
000020 e7 e2 ac be bc f5 cb 3e 42 45 cf 3e 62 c3 28 3f
       -0.33766863 0.39835918 0.40482527 0.6592313
000030 c6 e3 18 be 91 16 5e 3c fe 42 0c 3f 7b cd 51 bd
       -0.14930639 0.013555185 0.5478972 -0.051221352
000040 53 27 33 bb 2a 81 91 3e 8b cc 3b 3e 7b 41 11 3e
       -0.0027336671 0.28418857 0.18339746 0.14185135
000050 99 35 c6 3d ec 57 39 be 71 39 7c 3e 81 9f 02 bf
       0.09678192 -0.18099946 0.24631287 -0.51024634
000060 67 85 9b be ce 38 06 3d 44 6e ec 3d 02 51 48 bd
       -0.30375215 0.032769017 0.11544469 -0.04890538
000070 79 ba 11 3f 70 00 9b 3d 65 a9 23 be 9c 6f d5 be
       0.5692516 0.07568443 -0.15982588 -0.41686714
000080 aa 90 c3 3e 44 40 4a 3f ae a3 d6 3e 66 f6 be 3e
       0.38196307 0.7900431 0.41921753 0.37297362
000090 4a 63 ca be 74 33 b2 be e0 93 c4 be 6c 54 18 3f
       -0.39528877 -0.3480488 -0.3839407 0.5950382
0000a0 fe b0 2f 3e 64 19 06 bf e0 3e f8 be f1 f5 01 be
       0.17157361 -0.52382493 -0.4848547 -0.12691475
0000b0 90 ef e1 bd 74 e3 ec 3d 71 70 ad 3e 2b be 46 be
       -0.11032021 0.11566821 0.33874848 -0.19408481
0000c0 51 7e 01 be 3d e7 85 3e 8a 54 1f be 70 23 21 3e
       -0.12645842 0.26152983 -0.15559593 0.15736175
0000d0 ea f5 46 be 7c ff 08 bf a2 42 f1 3d 35 b3 50 be
       -0.19429746 -0.5351484 0.11780287 -0.20380862
0000e0 5c 45 34 be 83 4b b7 be 0e 06 28 be 78 9f 7b be
       -0.17604584 -0.35799798 -0.1640856 -0.24572551
0000f0 0e 83 52 3d 18 0f b8 3e b4 b5 9d be e9 ef 4f bc
       0.051394515 0.35949016 -0.3080269 -0.012691476
000100 75 37 18 3f b8 60 d1 be a5 8a bd 3e e3 f9 cf 3d
       0.5945962 -0.40894103 0.3701984 0.10155084
000110 74 ea 88 3c 58 5c 79 3e 61 0a 8b 3e 1a a5 05 3e
       0.016713358 0.24351633 0.27156356 0.13051262
000120 79 60 bf 3e 64 3f d0 bd b5 ac d2 3d 79 5e bb bd
       0.3737829 -0.10168341 0.102868475 -0.091488786
000130 85 7f 62 be ce 1b 2d be 02 bc 48 3e 24 c6 f7 bb
       -0.22118957 -0.16905138 0.1960297 -0.007561462
000140 e7 ba 5c be 19 d1 c2 3e 9d 4e 18 bd 95 d7 c9 be
       -0.21555673 0.38050154 -0.037184346 -0.3942229
000150 61 fe b0 bd da 62 25 3e 12 96 48 bd 76 e2 33 bd
       -0.08642269 0.1615099 -0.048971243 -0.04391714
000160 22 90 18 be 3c e6 70 bd d3 cf f1 bb 2b 16 6d 3e
       -0.14898732 -0.05881332 -0.007379511 0.23152988
000170 21 a4 70 be 8d ef 15 3e ff 51 5f 3e 32 cc 7c 3e
       -0.2350011 0.14642163 0.21808623 0.2468727
000180 58 46 f9 bd 18 55 14 bf fd 32 f3 3c 7f 65 00 be
       -0.1217162 -0.5794234 0.029687399 -0.12538718
000190 e5 59 38 3e bd 41 6b bb e7 8d 93 3d 64 ea 09 bd
       0.18003042 -0.0035897337 0.072048 -0.033670798
0001a0 e4 58 0c bf 8c b4 fb bd 7c a9 7d 3c 47 9a d2 3e
       -0.54823136 -0.12290296 0.015482303 0.4113333
0001b0 2a 6d 8e 3e cc c6 8d 3e 09 ca 7a be 9f e9 a2 3e
       0.2781766 0.27690732 -0.24491133 0.31818864
0001c0 f3 8f 4e be fc 2f 6d 3d ff 91 c2 be 43 82 8c bb
       -0.201721 0.05790709 -0.3800201 -0.0042879893
0001d0 4a a6 10 be ef 24 1c 3e 69 60 48 be e6 fc ca 3e
       -0.14125934 0.15248464 -0.19568028 0.3964607
0001e0 3e bc e5 bd 4b 6b 47 be dd fd 17 bf f9 79 9c 3d
       -0.11217545 -0.19474523 -0.5937174 0.07640452
0001f0 5c 82 99 be 1b db 13 be 43 be bf be bd f4 ab 3d
       -0.2998227 -0.14439051 -0.37449846 0.083962895

policy_mean.weight f4 [7, 128]
000000 25 fe 5f 3e af 98 27 3e bd 97 38 bc ae 77 30 3c
       0.21874292 0.16366838 -0.011266646 0.010770721
000010 41 a8 ce bb 8e c5 04 bb f0 34 47 be 00 4d a3 3b
       -0.0063066785 -0.0020259353 -0.19453788 0.0049835443
000020 c9 be 64 bd f3 73 ce 3d 9d fc f8 ba 49 21 1b bd
       -0.05584601 0.10080709 -0.0018996183 -0.03787354
000030 e8 03 23 3b b3 68 65 bd d4 16 65 3c f1 15 0f be
       0.0024874154 -0.056008052 0.013982493 -0.13973214
000040 20 ad 3f bb 3d cf ee 3c da c7 3d 3c 46 91 99 bd
       -0.0029247478 0.029151553 0.011583293 -0.07498412
000050 10 bb da bc d2 d2 26 3d c9 a3 39 bd de 23 8b bc
       -0.026700526 0.040728398 -0.045322213 -0.016984876
000060 d6 3d 6c bc 53 74 08 3d d6 b8 05 be 94 68 f5 bd
       -0.01441904 0.03331406 -0.1305879 -0.11982837
000070 56 74 9b bd 2b f1 b7 bb 5e f7 8d bd 24 81 f5 3c
       -0.07590549 -0.0056134663 -0.06931947 0.029968806
000080 77 2c 48 bd 4a c5 d8 3c a5 a9 0b bd 4e 12 83 3d
       -0.04887053 0.026461262 -0.034097333 0.06399976
000090 1f d1 32 bd 2c 43 ef 3d a0 59 ce bc 02 46 db 3c
       -0.043656465 0.11682734 -0.02518922 0.02676678
0000a0 88 30 e2 bc fc d6 a3 3d c2 5d b7 bc 43 e2 44 3d
       -0.027611032 0.079999894 -0.022383574 0.048067342
0000b0 ba 5f 8e 3c 1e 84 ce bd 6c 71 5d 3d 78 6a b4 3d
       0.01737963 -0.10083793 0.054063246 0.0880937
0000c0 ee 0b dc bc d2 a8 9c 3d b5 7f 91 3d 87 84 97 bc
       -0.026861157 0.076493874 0.07104436 -0.018495811
0000d0 cb d6 30 bd cb 2c 62 3d 97 0b c6 bd ee 38 5d 3c
       -0.043173593 0.0552185 -0.09670179 0.013502343
0000e0 5c 14 ec bd 98 91 ad 3c d2 27 85 bd c4 45 a6 3d
       -0.11527321 0.021187589 -0.06501736 0.081187755
0000f0 fc 8a 9e bd 8e 10 6a bc 17 0f 9c 3d b4 6f 2c ba
       -0.07741353 -0.0142861735 0.07620066 -0.00065779244
000100 cf 85 94 bb bf f9 bb 3c fc 4a 05 be 29 b8 a6 3b
       -0.004532553 0.022946237 -0.13016886 0.0050878716
000110 74 64 34 3e 50 a4 e3 bd 32 1e 2d bc c6 20 c4 bd
       0.17616445 -0.111153245 -0.010566281 -0.095765635
000120 e1 08 76 bc 66 a0 f7 bc 60 08 8e bd 83 61 57 3d
       -0.015016765 -0.030227851 -0.06935191 0.05258323
000130 fe cc c7 bc 55 59 1a 3d 3a 74 fc bd 7d 10 99 3d
       -0.02438974 0.03768285 -0.12326856 0.07473848
000140 13 6a 42 bd e5 1d 95 3c 4b e1 6c bb 16 83 d0 3d
       -0.04746444 0.018202731 -0.0036145027 0.10181253
000150 50 32 b2 3d e6 db 3e bc 0a 9a cf 3d d2 de ef bc
       0.087010026 -0.011649108 0.101368025 -0.029281054
000160 89 9a b9 3d 02 c9 96 3b 02 97 c8 3d 92 da c6 3d
       0.09062678 0.0046015987 0.097944275 0.09709658
000170 81 ca 7e 3d 64 63 88 3b 52 4b 0b 3e ec fd 84 3d
       0.06220484 0.004162239 0.13602951 0.06493744
000180 5a fb 9e bc e1 cf cf 3d 43 5e 90 bd 53 3c 22 3e
       -0.019406963 0.10147072 -0.07049229 0.15843324
000190 71 bb 1a 3d d1 4e 1d be c8 72 b6 3d 9c 45 c7 3c
       0.037776414 -0.15362097 0.089086115 0.024325185
0001a0 c7 5a 2c bd 81 e4 27 3d 4b aa 35 3e 1c 6c c5 bd
       -0.04207876 0.040989403 0.17740743 -0.09639761
0001b0 0c 9a 44 bc 99 9f 1c bd d2 f7 ac bd 02 20 29 3c
       -0.011999618 -0.03823814 -0.084457055 0.010322573
0001c0 36 33 8d bd 45 91 b2 3d fc d6 99 bd 26 25 e5 bd
       -0.06894533 0.08719114 -0.07511708 -0.11188726
0001d0 2a ad d8 3d cd 85 ed 3d 18 b9 0a 3e f9 1b ff 3c
       0.105799034 0.11597786 0.1354717 0.031141268
0001e0 fd 74 80 bc c0 da 4b bd 90 8c b9 bc 93 25 7b 3d
       -0.015680784 -0.049769163 -0.022650033 0.06131513
0001f0 63 2b d5 3d c8 0e 64 3c b3 ee 41 3d ba 19 b3 bd
       0.10408666 0.01391954 0.047346782 -0.08745141
000200 ed 37 86 3d 32 c2 ee bd 55 c5 56 3e 52 aa 16 3e
       0.06553636 -0.116581336 0.20973714 0.1471341
000210 aa bb f3 3c 2e 19 0b 3e a2 24 31 be f9 47 8b bd
       0.029752571 0.13583824 -0.1729913 -0.06800837
000220 44 9b 06 3e 3d c7 b8 bd b3 98 17 be 3a 19 4a 3d
       0.13145167 -0.09022377 -0.14804344 0.049340464
000230 8e f2 bd 3e ef 00 86 3d e4 81 99 be 3b 75 88 bd
       0.37099117 0.06543147 -0.2998191 -0.06662985
000240 2d 57 04 be 5c b3 d4 bd b2 40 60 3c 3f ef c1 3d
       -0.1292388 -0.103857726 0.0136873 0.09469461
000250 e8 f1 1a 3e 36 16 bd bd e5 0f ac 3d e8 01 2d 3e
       0.15131342 -0.09232752 0.08401469 0.16895258
000260 7a 7e 3e bd 41 d9 64 3e ed 96 9b bd 16 ae 0f 3e
       -0.046507336 0.22348501 -0.07597146 0.14031252
000270 06 e7 2e 3d ce 8d 2a bd 77 13 ef 3d 1f 77 85 3d
       0.04270079 -0.04163914 0.116736345 0.06516861
000280 ba 03 72 bd d2 db ad 3c 31 6e a0 3d 0a 42 e1 3c
       -0.059085585 0.021222983 0.07833517 0.02749731
000290 44 09 a8 bc 90 f8 23 bd d6 85 95 3b 8e 94 ce 3c
       -0.02051223 -0.04003197 0.0045630736 0.02521732
0002a0 e9 3c 34 3e fa e3 5d bc 59 10 c0 3d b9 cd 90 bd
       0.1760136 -0.013543123 0.09378118 -0.070704885
0002b0 98 a1 9b 3c f0 3e 06 3e fe e0 d5 3c 0b 38 6e 3e
       0.018997952 0.13109946 0.026108261 0.23263566
0002c0 dc 1b be 3b fb 9d 3a 3d 45 54 05 3e 5e 6a e7 bc
       0.005801661 0.04556082 0.13020428 -0.028248962
0002d0 8e b1 a4 3d 0a 75 25 3e 15 33 4a 3d d0 06 dd bc
       0.08041678 0.16157928 0.049365122 -0.026980788
0002e0 ca 93 e1 3c c5 6c a0 3d 2f 9e 39 3e 2c f8 86 3d
       0.027536292 0.07833246 0.18126749 0.06590304
0002f0 57 37 84 bd 68 25 1b bd ea ec 33 3e 9b 8d 7e 3d
       -0.06455868 -0.03787747 0.17570844 0.062146764
000300 12 50 ac bc e5 bf 38 3e ee e8 c4 3c 69 14 26 bd
       -0.021034274 0.18041952 0.02403685 -0.04054681
000310 39 39 5a 3e f4 e8 c6 3c 66 cb 09 ba 89 c7 93 3d
       0.21310891 0.024281003 -0.0005256444 0.07215793
000320 89 63 9f 3b 24 81 27 be da 1a fd bc f2 b5 23 bd
       0.0048641604 -0.16357857 -0.030896593 -0.03996844
000330 42 70 d5 bc f5 e8 3f bd 46 63 02 3d a8 c4 f7 3c
       -0.026054505 -0.046853025 0.031832956 0.03024514
000340 52 92 9f be df 1f 1f 3d 02 47 9f 3c 34 78 94 bc
       -0.3116632 0.038848754 0.019443039 -0.018123724
000350 94 4d 3f 3d 94 ab 22 be f1 ef 0c 3e ca 65 80 bc
       0.046704844 -0.15885764 0.13763405 -0.015673537
000360 16 8f 5d 3e f0 16 5b ba 44 7a 03 be 18 5d ce bd
       0.21636614 -0.0008357605 -0.1283961 -0.1007635
000370 5d 3c a6 3d 25 77 00 3d 82 f5 44 bc 98 d6 e6 3c
       0.08116982 0.031363625 -0.012021424 0.028178498
000380 9d 64 38 bd 18 7b 0c be 0a 15 9f 3d 7e 64 fa bc
       -0.045017827 -0.13718832 0.07767685 -0.030565497
000390 93 f2 09 be df 7e 0d 3d 09 7c f3 3d 8a b7 d7 3c
       -0.13471441 0.03454482 0.11888892 0.026332635
0003a0 ba 1a 98 3d 25 55 6d be 3c ea 0f be 44 3b 8d 3c
       0.07426973 -0.23177011 -0.14054197 0.017240174
0003b0 70 6c c3 bb 88 a1 7f bd 44 86 4f 3d bd 35 d1 3d
       -0.0059638545 -0.062409908 0.050665155 0.10215328
0003c0 2c 33 99 bc 23 c3 79 bd 90 c5 ab bc 0f 4f ef 3d
       -0.018701158 -0.060977113 -0.020968229 0.11685001
0003d0 81 9e d7 bd f6 d8 29 be 3d 28 32 bc 79 0e 75 3e
       -0.10528279 -0.1658667 -0.010873851 0.23931302
0003e0 27 dd bd 3d 9a eb 44 3d 98 1b 5c 3d f5 f3 b3 ba
       0.09270697 0.04807625 0.053737253 -0.0013729321
0003f0 2d 7b 5b 3e 7f b4 dd 3d 3b cc c2 3d 70 a4 ca bd
       0.21433707 0.108254425 0.0951161 -0.09894645

policy_mean.bias f4 [7]
000000 31 07 af bd 48 eb 97 bd ea 60 a5 3d f5 1d 14 3d
       -0.085462935 -0.07417923 0.080751255 0.03616138
000010 53 80 e4 bd 0d b0 12 bd af 91 9f bc
       -0.111572884 -0.035812426 -0.019478647

value_head.weight f4 [1, 128]
000000 39 59 11 c1 11 64 13 41 27 0e 20 c1 2e ba 11 41
       -9.084283 9.21193 -10.003455 9.107954
000010 5c b2 10 41 a5 f5 13 41 4d 60 18 41 a4 8d 2f 41
       9.043545 9.247472 9.523511 10.97208
000020 d1 01 0b 41 b9 af 0a c1 65 96 0b c1 10 4e 15 c1
       8.687943 -8.667901 -8.724217 -9.331558
000030 3f 43 fc 40 00 18 09 c1 0f 00 f5 40 07 63 0f 41
       7.8832088 -8.568359 7.656257 8.961677
000040 36 7e ed 40 12 87 00 c1 bb 30 cc c0 52 ad 1a c1
       7.4216566 -8.032976 -6.3809485 -9.667315
000050 30 7f 14 41 82 d0 03 c1 ce c9 0c c1 12 d0 07 41
       9.281052 -8.238405 -8.799269 8.488298
000060 5a 16 19 41 f2 94 03 41 01 36 04 c1 8a d9 0a 41
       9.567957 8.223864 -8.263185 8.67811
000070 56 cd 28 c1 88 1b 0b c1 da e7 0e 41 ec de 0e 41
       -10.550131 -8.6942215 8.931604 8.929424
000080 68 20 0c 41 a4 84 15 c1 26 6c 18 c1 74 d7 0a 41
       8.757912 -9.344883 -9.526403 8.677601
000090 17 17 16 41 d6 96 17 41 6a 4c 09 c1 c6 0d 0e c1
       9.380637 9.474325 -8.581156 -8.878363
0000a0 d4 cc 0c 41 8a 1e 1c 41 a0 c4 10 41 9d 7a fd c0
       8.800007 9.757456 9.048004 -7.9212174
0000b0 ff e4 f0 40 fd b1 37 c1 4f 34 13 c1 d1 76 02 c1
       7.5279536 -11.480954 -9.200271 -8.154008
0000c0 14 c9 09 41 ad d0 06 41 3e 67 05 41 45 fd 12 c1
       8.611591 8.425946 8.337706 -9.186833
0000d0 bd e9 09 41 2d 86 05 41 39 2c 0b 41 3e e8 18 41
       8.619565 8.345258 8.698297 9.5567
0000e0 88 05 0e 41 86 22 1a 41 70 37 00 41 2c d0 12 41
       8.87635 9.633429 8.013535 9.175823
0000f0 6d 12 10 c1 92 52 11 c1 2a ec 13 41 53 8c 0d c1
       -9.0044985 -9.082659 9.245157 -8.846759
000100 3e 94 0c 41 13 4b 0a 41 34 97 15 c1 d3 0b 0e c1
       8.786192 8.643329 -9.349415 -8.877887
000110 55 9b ca c0 70 63 14 c1 0a 83 12 c1 35 eb 20 c1
       -6.3314614 -9.274277 -9.156992 -10.057424
000120 e7 22 1c 41 1d 51 09 c1 ca a6 13 c1 9a c9 0d 41
       9.758521 -8.582303 -9.22822 8.861719
000130 24 af 24 41 12 d9 f0 40 c1 33 0a c1 e0 ad 0c 41
       10.292759 7.526498 -8.637635 8.79245
000140 3f 25 fb c0 2d 18 0e c1 56 a9 0c c1 be b4 fd 40
       -7.8482966 -8.880902 -8.791342 7.9283133
000150 b6 ff 08 c1 a7 cb 14 41 ad ea 1c c1 d3 09 ef 40
       -8.562429 9.29972 -9.807294 7.4699492
000160 8f 6a fb c0 a1 a3 07 41 26 ae 10 41 ae 40 0b c1
       -7.8567576 8.477448 9.042517 -8.703291
000170 2d e2 d9 c0 b0 02 1c 41 eb 74 e7 c0 c6 04 10 41
       -6.8088593 9.750656 -7.233022 9.001165
000180 23 df 19 41 6f a0 e6 40 cb 81 df 40 5f 9c 14 c1
       9.616977 7.207084 6.984594 -9.288177
000190 12 ff 1b 41 af 56 16 c1 dc 50 24 c1 b6 14 e5 40
       9.749773 -9.396163 -10.269741 7.158778
0001a0 17 da 13 41 b7 cd 09 41 44 84 1a 41 ce 81 16 c1
       9.240745 8.612723 9.657291 -9.406691
0001b0 ac ea 0d c1 ce 26 21 c1 c2 a6 01 41 ea 0b 0c 41
       -8.869793 -10.071974 8.103212 8.752909
0001c0 d8 7d 15 c1 e8 7b 0e 41 3a 32 09 41 64 26 0a c1
       -9.343224 8.905251 8.574762 -8.634373
0001d0 4c a7 0d 41 71 ae 1c 41 fa 2b 12 c1 60 32 0d c1
       8.853344 9.792588 -9.135736 -8.824799
0001e0 3e a7 15 c1 0e 35 0c 41 98 97 f5 40 4c 3c 0f c1
       -9.353331 8.762953 7.674755 -8.952221
0001f0 cb 3e 09 41 25 38 11 41 21 d8 fd 40 ad 8d 10 c1
       8.57783 9.076207 7.932633 -9.034589

exp_avg f4 [7]
000000 ac c1 ca b9 04 0c ae 3a 80 f9 55 ba 70 f8 3b 3a
       -0.0003867274 0.0013278727 -0.00081624836 0.0007170504
000010 c3 f6 a3 ba 02 cb 54 3a 1c a3 a5 ba
       -0.0012509454 0.0008117409 -0.0012637111

exp_avg_sq f4 [7]
000000 c8 e1 4b 37 20 78 5f 37 d6 f2 31 37 8f 07 39 37
       1.2152312e-05 1.3319805e-05 1.0606562e-05 1.1028619e-05
000010 20 0f 60 37 e7 a6 39 37 8d f6 43 37
       1.3354962e-05 1.1065719e-05 1.168031e-05

exp_avg f4 [128, 21]
000000 eb ec 9f b7 1d 9f 87 39 ee 93 3f 3a 50 3f 4d 3a
       -1.90646e-05 0.00025867755 0.0007308115 0.00078295637
000010 d4 24 b6 38 b8 a3 32 b9 31 ff 82 b8 94 68 e3 37
       8.685296e-05 -0.00017036393 -6.246416e-05 2.7109207e-05
000020 66 06 d8 b7 ba c8 a1 b7 50 e1 91 37 ca 77 f0 36
       -2.5752186e-05 -1.9286166e-05 1.7390266e-05 7.1665027e-06
000030 5a 75 0e 39 13 de 42 3a 88 ee 08 b7 9e 7c f1 b9
       0.00013585892 0.00074336043 -8.161769e-06 -0.0004605995
000040 a2 58 6d ba 3a 00 ae 39 e2 0a dc 37 de c8 00 b9
       -0.000905404 0.00033188035 2.6231111e-05 -0.0001228186
000050 fc 88 52 37 b4 f8 b4 b6 95 f3 af b8 15 8f 4d 37
       1.254887e-05 -5.393371e-06 -8.390021e-05 1.2252266e-05
000060 1a f4 72 37 97 07 49 b7 28 82 ac 38 0a b5 97 36
       1.4481158e-05 -1.1982301e-05 8.2258426e-05 4.5212264e-06
000070 1d 96 21 37 e4 70 2f b7 59 a0 34 38 58 df 3e b8
       9.631299e-06 -1.0457097e-05 4.306468e-05 -4.5507535e-05
000080 43 42 95 b6 9c a5 06 b8 a0 cc d4 36 0b da 90 37
       -4.44826e-06 -3.2102325e-05 6.341914e-06 1.7267672e-05
000090 c2 c4 87 39 12 1e d0 39 99 d4 85 39 b2 b3 7d 35
       0.00025895803 0.00039695256 0.00025526134 9.4511336e-07
0000a0 90 41 59 38 01 54 c6 b6 f0 cc 81 33 2b 11 0d 37
       5.179789e-05 -5.910639e-06 6.0443085e-08 8.408252e-06
0000b0 ee e7 bf 37 bb 00 c7 37 bd f1 b1 36 c5 00 9a b6
       2.2876975e-05 2.3722989e-05 5.303153e-06 -4.5896472e-06
0000c0 ad f7 f3 b5 1b b3 b0 34 25 85 9c b4 a0 91 5a b5
       -1.8176994e-06 3.291287e-07 -2.915414e-07 -8.142324e-07
0000d0 ac 5a 5a 35 34 7c 91 34 28 2f 9d 36 b0 3d c1 37
       8.1343273e-07 2.7098724e-07 4.6844543e-06 2.3036118e-05
0000e0 13 02 38 b5 9c 17 6f b7 d1 62 c3 b7 bd d3 2b 37
       -6.854836e-07 -1.4251007e-05 -2.3291826e-05 1.0241693e-05
0000f0 da 11 62 34 61 e6 79 b6 45 e0 2a 34 eb 12 c4 36
       2.1054385e-07 -3.723799e-06 1.5914073e-07 5.8434575e-06
000100 be a5 a8 37 05 c8 56 39 17 dd 79 39 dc ba 0d 38
       2.010434e-05 0.00020483143 0.00023828853 3.3791046e-05
000110 5e d8 8e 38 37 85 79 b7 a7 bd c2 36 43 24 00 b7
       6.811389e-05 -1.4872573e-05 5.803729e-06 -7.637837e-06
000120 6b d3 59 38 66 9f 43 b8 85 87 af b6 36 55 9e 36
       5.193373e-05 -4.6640074e-05 -5.231183e-06 4.718687e-06
000130 83 71 60 39 ab 7d ae 37 ba d7 4f 39 bb e9 83 38
       0.00021404591 2.0800935e-05 0.00019821423 6.2901025e-05
000140 89 d3 af 39 30 cd 39 b7 65 10 81 b7 4f 97 1a 37
       0.00033536207 -1.1074633e-05 -1.5385633e-05 9.214345e-06
000150 9f cd 30 36 03 06 09 b7 67 c1 54 b7 4d e0 2f b7
       2.634573e-06 -8.167236e-06 -1.2681215e-05 -1.0483037e-05
000160 b7 f2 2a b7 59 49 77 37 c9 73 5b b5 a9 00 94 35
       -1.0189301e-05 1.4739425e-05 -8.1752347e-07 1.1027051e-06
000170 72 0a b5 b5 1e 2c 9a 36 b4 d1 c1 b6 d0 25 ac b5
       -1.3488591e-06 4.5946936e-06 -5.776261e-06 -1.2826004e-06
000180 69 26 08 b7 72 1b 62 b7 7f 70 d7 36 1c 46 8f 38
       -8.115175e-06 -1.347704e-05 6.4205956e-06 6.83183e-05
000190 88 17 0e 38 7a fd d2 37 43 70 83 b6 0c 99 5f 33
       3.3877353e-05 2.5151985e-05 -3.917173e-06 5.206043e-08
0001a0 5d a0 55 b5 56 c1 ca 38 4c 18 05 b8 8e d5 6d 39
       -7.958204e-07 9.668122e-05 -3.17323e-05 0.00022681637
0001b0 89 48 2b 39 86 4a c0 36 ce 00 be 38 96 c2 62 37
       0.00016334852 5.7307216e-06 9.060056e-05 1.3515955e-05
0001c0 d0 94 47 37 76 b7 2b b7 f1 2d a9 36 b6 15 4f b8
       1.1895972e-05 -1.023511e-05 5.0419408e-06 -4.9372866e-05
0001d0 a6 2f 39 b7 aa 69 33 b7 95 81 1c 39 c9 e3 a0 b8
       -1.1037953e-05 -1.0693833e-05 0.00014925592 -7.671823e-05
0001e0 58 a3 e8 39 8b 96 22 3a ec ee 00 3a 4c e7 e1 b8
       0.0004437219 0.0006202242 0.00049184146 -0.000107719185
0001f0 8e 7b b0 37 77 a8 a2 b8 7f 97 fc 38 ab 6d 11 b9
       2.103837e-05 -7.756141e-05 0.00012044515 -0.00013869132
000200 6a 3a b8 39 4d 60 ab 39 c9 29 0f 39 39 b5 ef 39
       0.00035138737 0.0003268741 0.00013653109 0.00045720654
000210 f0 41 37 b9 59 13 b5 37 6e 21 f4 b7 7a 54 07 39
       -0.00017476804 2.158589e-05 -2.9102634e-05 0.00012906073
000220 08 ed 3b b9 a6 e4 a4 b7 ed 59 90 b8 a5 a1 9b 39
       -0.00017922011 -1.9656796e-05 -6.883205e-05 0.00029684338
000230 a5 ab 4f b8 4f 32 d7 3a f2 8a b0 3a a6 47 a9 3a
       -4.9512502e-05 0.0016418191 0.0013469143 0.001291503
000240 55 e8 12 b9 78 81 92 38 72 c5 64 b8 8b 7a e1 b6
       -0.00014010195 6.985938e-05 -5.454332e-05 -6.7197884e-06
000250 13 df ef 36 59 21 5e 37 ca 16 42 37 aa 9a a8 35
       7.1487243e-06 1.32399955e-05 1.1568607e-05 1.2561989e-06
000260 c0 90 df b7 99 8d bd 36 15 f2 e0 34 7f af 86 b4
       -2.6651076e-05 5.649123e-06 4.189939e-07 -2.5087135e-07
000270 4e 90 d1 b6 bc dc 1b 37 23 b2 55 35 64 cc f8 36
       -6.2454847e-06 9.290114e-06 7.9607906e-07 7.41477e-06
000280 37 62 5b 37 24 2d a8 36 3b 66 cf b8 90 49 73 b8
       1.3076285e-05 5.012045e-06 -9.889571e-05 -5.8004225e-05
000290 1d f8 1c b8 d4 30 fc 36 1c d5 8e 34 27 d9 2f b4
       -3.7424372e-05 7.5158696e-06 2.660462e-07 -1.6377145e-07
0002a0 82 1b 9e 38 ac 97 5d b9 08 e8 5c b9 a3 9f 7a b9
       7.539151e-05 -0.00021132705 -0.00021067273 -0.00023901327
0002b0 d1 17 83 38 f1 f2 9e 39 8f 21 1c 38 81 26 8f b7
       6.251003e-05 0.00030317114 3.7224552e-05 -1.7064858e-05
0002c0 b8 f8 5b 37 55 5b 08 38 1e 68 38 b8 9d 0c 6c b7
       1.3111327e-05 3.2509986e-05 -4.3965985e-05 -1.4069633e-05
0002d0 64 1d e1 b8 bf 1d 80 b9 1b e7 8e 38 b1 d4 7e 3a
       -0.000107343105 -0.00024436225 6.8141344e-05 0.00097210245
0002e0 ea 33 bd 3a fc 5c 0d 3a 16 9d bb b8 e8 11 da 38
       0.0014435027 0.0005392579 -8.9461144e-05 0.00010398385
0002f0 4e 4e 0d b8 ac 59 a9 36 f9 d0 d6 35 2d d2 ee b7
       -3.3689947e-05 5.0470317e-06 1.6005062e-06 -2.8469682e-05
000300 86 e8 1b b8 9e 8b d5 36 5e 4a c0 34 cc 48 96 b6
       -3.7171434e-05 6.3641482e-06 3.5816896e-07 -4.478823e-06
000310 3a c5 e6 b5 fe bf e6 35 d6 5e bd b6 c7 2f b7 36
       -1.7193736e-06 1.7192212e-06 -5.6436793e-06 5.459387e-06
000320 c7 20 4c b4 62 c7 26 b6 c7 2a f7 b7 e9 5c b8 b6
       -1.9010905e-07 -2.4851984e-06 -2.9464614e-05 -5.4944435e-06
000330 c4 4b 02 37 ad 4a e1 b7 5d 6e 25 b8 b2 ba af b6
       7.766244e-06 -2.6856864e-05 -3.944185e-05 -5.2371406e-06
000340 e6 17 89 b6 97 88 85 b5 e7 50 05 b9 04 b6 03 b9
       -4.0857003e-06 -9.949025e-07 -0.00012714007 -0.0001256094
000350 c1 75 14 ba 94 8e 2c ba f7 12 19 b8 78 d9 4f b9
       -0.00056632987 -0.0006582525 -3.6495705e-05 -0.00019822072
000360 24 79 71 39 d1 d5 00 b8 4e 6f 25 38 1a 91 31 b9
       0.0002302868 -3.071671e-05 3.9442726e-05 -0.0001693409
000370 7b 91 3a 39 1f fc bd b5 bb 47 0e b8 0c ba 15 ba
       0.00017792538 -1.4154974e-06 -3.3922242e-05 -0.0005711622
000380 89 00 c6 b8 1b 08 53 ba 82 e8 8b 39 31 5b 4c ba
       -9.4414754e-05 -0.0008050219 0.00026685378 -0.0007795571
000390 ee d4 03 39 35 48 c0 38 2d 23 a2 b6 b5 b1 60 b7
       0.00012572456 9.168723e-05 -4.832071e-06 -1.3392816e-05
0003a0 a5 bc cf b5 33 7a ac 38 8c 7e 40 39 de 6b db b8
       -1.5477605e-06 8.2243605e-05 0.00018357689 -0.000104628256
0003b0 d2 96 db b7 29 11 bc 36 b4 e4 84 36 44 05 a3 b6
       -2.6177066e-05 5.6048343e-06 3.960531e-06 -4.8583915e-06
0003c0 50 39 ba 37 99 b7 fd b7 8d ad 4d 37 e3 d4 01 37
       2.2199616e-05 -3.0245445e-05 1.225936e-05 7.738566e-06
0003d0 1e 9d d2 38 f2 6e f2 b8 76 f7 aa 39 4d 10 d9 39
       0.00010042846 -0.000115601244 0.000326093 0.0004140161
0003e0 56 c8 8c 39 9b 2f d7 37 b5 cc 1b 37 e6 8b 98 37
       0.00026852143 2.5652165e-05 9.286382e-06 1.8184957e-05
0003f0 d5 fe 7f 38 42 d3 df b8 12 6d e3 b9 05 b8 c0 b9
       6.103407e-05 -0.000106728185 -0.00043378078 -0.000367582

exp_avg_sq f4 [128, 21]
000000 4b a3 8f 33 ec 5d 61 35 46 b2 ae 37 64 5e bc 37
       6.688659e-08 8.3955706e-07 2.0825431e-05 2.24553e-05
000010 96 8f c1 35 7c f6 9b 34 bc c8 f3 33 ba e2 a4 32
       1.442141e-06 2.905034e-07 1.1352083e-07 1.9195216e-08
000020 07 41 a5 32 b5 d4 b6 32 c2 c9 72 32 77 99 21 32
       1.92381e-08 2.1284317e-08 1.4132128e-08 9.406327e-09
000030 c9 1d e3 34 63 f4 ac 37 67 17 ec 34 2e e9 15 36
       4.2303716e-07 2.06178e-05 4.3975453e-07 2.2338459e-06
000040 68 61 d5 35 09 c5 a3 37 fa 7f ae 33 6d 8f 09 34
       1.5898086e-06 1.9522866e-05 8.125785e-08 1.2811297e-07
000050 00 47 0e 32 45 bc 23 33 b4 2e 98 34 e0 20 27 37
       8.281631e-09 3.8122625e-08 2.8346187e-07 9.96163e-06
000060 be 29 2b 37 5d 48 b0 35 37 2d c5 33 9e 1a 31 33
       1.0202113e-05 1.3134082e-06 9.181752e-08 4.1235232e-08
000070 6a bb 11 32 7e aa 10 32 7a b9 51 32 9f 5c 1a 32
       8.482724e-09 8.420669e-09 1.2207574e-08 8.985039e-09
000080 4f 94 1b 32 97 2f 60 34 5f 3d 25 37 25 e3 9e 34
       9.055909e-09 2.0878939e-07 9.8490555e-06 2.9595063e-07
000090 5c 00 5e 35 4e 08 26 35 37 c0 24 37 42 94 1c 33
       8.270197e-07 6.1851904e-07 9.819915e-06 3.645642e-08
0000a0 7e 48 4a 33 cb cb a2 31 ee 59 39 2e ef ef 0d 30
       4.709772e-08 4.737989e-09 4.2144004e-11 5.163647e-10
0000b0 2b c0 77 32 60 9d 83 32 b2 6a af 30 92 fe 97 2f
       1.4420986e-08 1.5321973e-08 1.276325e-09 2.7647623e-10
0000c0 9e 4f 90 2e fb a3 50 2d 78 b2 4e 2d 6a d1 92 2d
       6.562505e-11 1.1859842e-11 1.1749372e-11 1.6691277e-11
0000d0 15 2e 4c 2d 7f f7 43 2d 2a 65 9f 2f 86 4a 76 32
       1.160629e-11 1.1139422e-11 2.8993813e-10 1.4336029e-08
0000e0 30 75 e6 2f 4b f9 c3 30 50 8f e1 30 36 b9 64 32
       4.1920023e-10 1.4258971e-09 1.6411636e-09 1.3313459e-08
0000f0 51 ae 45 2e 2b 30 c9 2e 7d 9c ab 2c 95 e9 bb 32
       4.4947438e-11 9.148978e-11 4.877486e-12 2.1875886e-08
000100 97 49 3d 34 d4 fa f3 36 bc 01 fa 36 30 7d 52 35
       1.7628768e-07 7.2711646e-06 7.4507825e-06 7.841327e-07
000110 74 76 05 34 22 cb 03 33 2b 14 c3 31 ec cf c0 31
       1.2429683e-07 3.0685563e-08 5.6775398e-09 5.6115734e-09
000120 fa 71 16 32 f1 e2 cc 31 72 5c 0d 32 7e 19 26 34
       8.757064e-09 5.9629817e-09 8.2283e-09 1.5469229e-07
000130 2b c4 ed 36 dd e8 b3 34 0a f9 47 35 0e b7 04 35
       7.0859874e-06 3.3510779e-07 7.4495676e-07 4.944021e-07
000140 15 e6 e7 36 48 cf bb 32 a5 27 d4 32 ea ed c6 31
       6.9111215e-06 2.1863926e-08 2.4698076e-08 5.789606e-09
000150 6d 52 32 30 bc 81 d7 31 4d 58 5e 34 74 6e 65 34
       6.4873157e-10 6.2720726e-09 2.0707485e-07 2.136747e-07
000160 17 96 dc 32 85 bf 28 31 07 94 86 30 3a 12 44 2f
       2.5679624e-08 2.4556084e-09 9.791855e-10 1.7832572e-10
000170 92 1e 42 2f 31 be 8c 2f b9 97 4d 2f b7 83 85 2f
       1.7655058e-10 2.560099e-10 1.8698544e-10 2.4286148e-10
000180 fa 46 a6 31 2c 6a 5c 34 1d 79 06 32 ab a0 f7 32
       4.839305e-09 2.0527722e-07 7.8273645e-09 2.8827648e-08
000190 2b e5 4b 32 e0 f7 50 34 0c 98 37 30 c4 65 58 30
       1.1868262e-08 1.9461686e-07 6.6791084e-10 7.872496e-10
0001a0 f6 c8 9c 2e a6 b3 44 34 0d 6e c3 35 9d 61 84 38
       7.1297565e-11 1.8319278e-07 1.4560661e-06 6.3124324e-05
0001b0 03 77 82 38 1b 1d 35 37 4f 29 f9 34 e1 39 55 34
       6.221051e-05 1.0795217e-05 4.640992e-07 1.9858227e-07
0001c0 17 f6 24 33 8d c9 25 33 3d dc 8a 33 ac 6d 5a 33
       3.8408043e-08 3.8600366e-08 6.466187e-08 5.0856826e-08
0001d0 36 ae b4 33 20 8f d4 35 77 61 82 38 49 3a 7b 35
       8.413592e-08 1.5836886e-06 6.217037e-05 9.35896e-07
0001e0 86 db bd 35 54 53 8f 36 e4 c0 8b 38 d6 04 35 34
       1.4145487e-06 4.2714328e-06 6.663965e-05 1.6858698e-07
0001f0 e4 f9 96 34 fe 3c f4 32 0c 0d f7 34 f6 e7 9c 36
       2.8121497e-07 2.8433075e-08 4.6016828e-07 4.676166e-06
000200 21 df 28 39 51 fe 30 39 b8 e7 85 37 29 e4 d1 35
       0.0001610485 0.00016879408 1.5962738e-05 1.5638117e-06
000210 cb e2 3c 35 7f 9d 1c 34 31 e4 1c 34 69 a4 4d 34
       7.0365485e-07 1.4585929e-07 1.4611648e-07 1.9151925e-07
000220 a6 d9 09 34 62 13 0b 34 66 29 71 36 b7 dc 25 39
       1.28383e-07 1.2952435e-07 3.5935896e-06 0.00015817849
000230 38 93 91 36 07 5f 73 37 55 c5 03 37 ee fa 26 39
       4.3384753e-06 1.4506054e-05 7.854153e-06 0.00015924472
000240 c6 1c 0e 35 9c 90 30 35 8c 31 c5 33 6a 44 85 31
       5.2940993e-07 6.5775544e-07 9.18254e-08 3.8785872e-09
000250 1e 03 2d 33 98 cd 84 35 5a 37 8b 35 7a c3 f2 33
       4.0282536e-08 9.894602e-07 1.0372416e-06 1.130456e-07
000260 ff f2 1a 32 a1 b5 90 31 70 d8 58 30 29 bd 5a 30
       9.019231e-09 4.2116004e-09 7.888792e-10 7.957675e-10
000270 3b 40 9f 30 b8 43 5a 30 f1 9c 02 30 e4 61 b6 32
       1.1587028e-09 7.940417e-10 4.751675e-10 2.1232104e-08
000280 15 45 84 35 4b f3 a2 33 c0 31 1e 34 8b e5 4a 33
       9.854872e-07 7.5879676e-08 1.4732996e-07 4.7240558e-08
000290 a8 96 6d 35 24 e8 a0 31 0b 2c c8 31 92 b1 c9 2f
       8.8508614e-07 4.683004e-09 5.825773e-09 3.6687858e-10
0002a0 90 d1 aa 34 cf e5 6b 36 2b cf c7 38 54 a6 d3 38
       3.1817444e-07 3.5151495e-06 9.5276475e-05 0.00010092245
0002b0 80 9a 18 37 3e 59 96 35 48 8b e7 34 9c 8c b2 33
       9.095878e-06 1.1201844e-06 4.3128443e-07 8.3143476e-08
0002c0 c5 b3 b2 33 02 2e e1 33 f7 14 8f 33 c2 11 8b 33
       8.321471e-08 1.0485748e-07 6.66277e-08 6.475922e-08
0002d0 50 67 06 36 2c 15 c6 38 ce ca 23 36 72 b9 15 37
       2.0027692e-06 9.445319e-05 2.440694e-06 8.924269e-06
0002e0 cb ba b8 36 cc 7f c3 38 e4 f4 c8 34 63 5a 04 35
       5.505373e-06 9.3221286e-05 3.7431084e-07 4.930536e-07
0002f0 f7 42 07 33 be 13 5d 30 f0 5c fe 31 51 7a 90 34
       3.149304e-08 8.0427387e-10 7.4029387e-09 2.6911087e-07
000300 16 d3 98 34 ba 1e ba 32 8c ad 09 32 d4 ed 6e 30
       2.8465792e-07 2.1667223e-08 8.0139095e-09 8.692187e-10
000310 f5 f6 42 2f 1e 0c 43 2f e8 00 ae 2f e6 b0 4e 2f
       1.7731934e-10 1.7739452e-10 3.165106e-10 1.8798438e-10
000320 af 97 2b 30 fb fa dd 31 5d 3e 90 34 b0 40 ab 32
       6.2424993e-10 6.4604797e-09 2.6867465e-07 1.9936437e-08
000330 ae 3b af 32 11 d3 ee 32 9c ea 7b 34 6e 9b a9 30
       2.039982e-08 2.7802828e-08 2.3461547e-07 1.2340544e-09
000340 71 1f 48 30 e2 be 1a 2e 6f 49 05 34 be b2 dc 35
       7.2804257e-10 3.5185084e-11 1.2413305e-07 1.6443298e-06
000350 76 da 80 38 51 b0 82 38 09 a5 0d 37 99 88 94 35
       6.144207e-05 6.2317245e-05 8.44268e-06 1.1066614e-06
000360 77 2a 8f 34 cd 3a 56 33 03 0e 56 33 b5 dc b4 33
       2.6666723e-07 4.9879237e-08 4.98385e-08 8.4220495e-08
000370 94 b1 7c 33 78 8e c7 33 d6 45 d2 35 4c c8 7e 38
       5.883483e-08 9.2925745e-08 1.5666544e-06 6.074486e-05
000380 fe 64 a3 35 99 d8 76 36 72 b2 8f 36 1b 71 86 38
       1.2173839e-06 3.6782933e-06 4.282506e-06 6.4106855e-05
000390 a2 26 23 34 4d 0a 4b 34 84 3f b7 32 dc 3f 86 34
       1.5194613e-07 1.8909596e-07 2.1332887e-08 2.500591e-07
0003a0 75 d8 10 36 31 5e b9 38 46 9f bb 38 dd b5 31 37
       2.1583667e-06 8.839032e-05 8.946522e-05 1.05923655e-05
0003b0 de a0 04 36 b6 bd 97 34 c8 85 73 33 5a 8b 6c 33
       1.976317e-06 2.8263975e-07 5.669952e-08 5.507477e-08
0003c0 f5 d5 d0 33 8a 63 8b 33 c5 45 a6 33 c2 88 e9 35
       9.724673e-08 6.490798e-08 7.7426684e-08 1.7399655e-06
0003d0 4a 11 b6 38 fa 98 06 36 27 a2 a4 36 42 50 d2 36
       8.6816566e-05 2.00566e-06 4.906458e-06 6.267831e-06
0003e0 01 9b b9 38 ee be a2 34 14 ac 89 34 7f 25 63 33
       8.850359e-05 3.031377e-07 2.5643442e-07 5.288666e-08
0003f0 87 d8 1e 35 cd fc ef 36 ce 57 8e 39 b7 9d 97 39
       5.9174675e-07 7.152185e-06 0.0002714977 0.0002891847
