models/checkpoint_1300.pth (torch, 255274 bytes, 24 tensors)

policy_log_std f4 [7]
000000 73 36 1e 3f 67 38 39 3f 83 b9 4f 3e 6a 04 15 3f
       0.6180183 0.7235169 0.20285611 0.5820986
000010 59 c4 5f 3f bf ed 09 3f f4 d4 2b c0
       0.8740898 0.53878397 -2.6848726

fc1.weight f4 [128, 21]
000000 80 5f d0 bf c3 0e 6d 3f 20 5c ae 3c 91 fa c1 3d
       -1.6279144 0.9260065 0.021284163 0.0947162
000010 ab 82 59 bf e6 0c 38 bf b5 bd 19 bf 54 04 88 be
       -0.8496501 -0.7189468 -0.60055095 -0.26565802
000020 3e 6b 92 3f 3a 83 0b be 16 46 76 bd d1 c8 75 3e
       1.1438978 -0.13624278 -0.060125433 0.24002387
000030 d8 dc 1f 3f 8e c7 3e 3d 99 07 22 3f e1 8a 80 3f
       0.62446356 0.04657703 0.63292843 1.0042382
000040 bc a9 df 3e 50 e1 24 3e 74 6b c0 3f 1a 98 3c bf
       0.43684185 0.16101575 1.5032792 -0.7366959
000050 35 cd 73 bd cb 58 6e bf b2 de 2a bf 74 6e 55 bd
       -0.059521873 -0.9310424 -0.66746056 -0.05210729
000060 a6 6a c7 3e 8b 5c 99 3e 2d 8c 89 be a4 ef a0 3e
       0.38948554 0.29953417 -0.26864758 0.3143283
000070 b9 e2 1f 3f f7 e4 f8 bf 97 ba 04 3e e7 7b 5b be
       0.62455326 -1.9444875 0.12961803 -0.21433984
000080 6f 9a b5 3e d0 4b 67 bf a3 03 b6 bd e2 5c d9 be
       0.35469386 -0.90350056 -0.088874124 -0.42453676
000090 e5 35 88 be 9d cc 1a be 06 4f 3c 3b ef 77 a8 3f
       -0.26603618 -0.15117116 0.0028733625 1.3161601
0000a0 ce 65 a1 bd fb 07 be bd 52 90 9e 3f 98 f3 83 bf
       -0.07880746 -0.09278866 1.2387793 -1.0308714
0000b0 31 30 43 be 29 50 2a 3e 98 85 c9 3e 34 39 2f be
       -0.19061352 0.16632141 0.39359736 -0.17111665
0000c0 0b ba 1a 3f f4 a6 cb 3e 3d 03 b3 3f af 40 fe 3d
       0.6044013 0.39775813 1.3985363 0.12414681
0000d0 eb da 9f bd 97 e4 52 bf dc 48 1f 3f ba eb 88 3d
       -0.07805427 -0.8238005 0.6222055 0.06685586
0000e0 b6 1c 53 be db 59 a5 be 13 eb de be d7 f7 68 be
       -0.20616421 -0.32295117 -0.43538722 -0.22750793
0000f0 16 44 09 c0 c1 28 68 40 08 ee 94 be 70 c9 b4 3f
       -2.1447806 3.6274874 -0.29087853 1.4123974
000100 af 96 b5 3f 34 4b 03 be 6d 68 fb 3d c1 f7 76 be
       1.418661 -0.12821656 0.12275777 -0.24117948
000110 e9 99 d0 3d 48 34 f5 bc ff 8e e2 3d a0 c7 64 bf
       0.10185606 -0.029932156 0.110624306 -0.89367104
000120 c1 4b d8 bc fb 1d 6c bd 21 0e 66 3f ed 15 98 3d
       -0.02640331 -0.05764578 0.8986531 0.07426057
000130 eb dc 21 3e 37 1e c7 be e8 7f 18 3f 8a 23 f5 bd
       0.1580693 -0.3889024 0.5957017 -0.11969669
000140 37 54 50 3d 74 2a 70 bf 6f 9e 81 c0 02 5e 8c 3f
       0.050861564 -0.9381478 -4.05059 1.0966189
000150 53 45 ee 3e 7b 46 86 bf 86 a2 c9 3d 09 02 69 3e
       0.46537265 -1.0490259 0.09845452 0.22754683
000160 32 a5 f7 bd c8 0b 24 bf cc 33 58 3f 34 84 b2 3e
       -0.120920554 -0.64080477 0.84454036 0.34866488
000170 e4 e6 88 3f 71 9d 61 3e 35 b9 6d be c7 b5 18 bf
       1.0695462 0.22032715 -0.23215182 -0.5965237
000180 c5 68 0f 3f c7 02 de 3d 02 91 ad be 55 89 74 bf
       0.5601924 0.108403735 -0.33899695 -0.9552205
000190 28 3c 51 3e e6 ac e7 bc bf fc f2 be 8e 51 8c 40
       0.20433104 -0.028280687 -0.47458455 4.3849554
0001a0 d4 74 da 3d 78 b6 09 3d 62 f8 8d 3e c0 8f 27 3e
       0.106668144 0.03362128 0.27728564 0.1636343
0001b0 77 09 a7 3e b0 e6 bf be a8 ad 49 3f 61 30 48 bd
       0.3262441 -0.37480688 0.78780603 -0.048874263
0001c0 22 b0 56 bc fe fd a2 bf fa 67 a4 3d 4e 63 a9 be
       -0.013103517 -1.2733762 0.080276445 -0.33083576
0001d0 e8 15 2a be 32 75 1f bf 59 7d 4b bd 1f 19 a3 be
       -0.16609919 -0.622882 -0.049680088 -0.31855103
0001e0 eb 68 eb 3d bb df f4 bd 38 47 4e be 12 03 83 bd
       0.11494621 -0.11956736 -0.20144355 -0.0639707
0001f0 00 d8 0f c0 fd 78 74 be 9c 4f 72 bf 1c b5 5e bf
       -2.2475586 -0.23874278 -0.94652724 -0.869951
000200 5b f5 e7 bd e9 76 6b 3e f3 29 79 bf 87 b1 24 bf
       -0.11326095 0.2299458 -0.97329634 -0.64333385
000210 d1 9a 16 bf 99 84 24 bf eb ef 28 be 11 fc 78 3e
       -0.5882998 -0.6426483 -0.16497771 0.24314906
000220 60 a1 14 bd 8c fc 81 3e 16 c9 53 bf ec a0 c1 3c
       -0.03628671 0.2538799 -0.8272871 0.023636304
000230 46 b2 0f bd c7 c4 72 be 7a 29 16 3f b1 af 35 be
       -0.035082124 -0.23707877 0.5865704 -0.17742802
000240 15 fb 94 3f 88 15 75 be 22 56 4d bf 41 04 af 3f
       1.1639124 -0.23933995 -0.80209553 1.3673173
000250 e0 89 9c 3f 48 c9 09 3d 02 f0 15 3e ac 45 88 3e
       1.2229576 0.033639222 0.14642337 0.26615655
000260 5a 0f 8a be fa 6a 1a bf 8d 51 4e bf 04 7b a2 be
       -0.26964837 -0.60319483 -0.80593187 -0.31734478
000270 e3 c0 d3 3c 69 4f 69 3e 4f 5a 83 bf 1d 95 9d be
       0.025848811 0.22784199 -1.0261935 -0.30777827
000280 04 78 53 bd 00 0c b7 3f e9 43 cd 3e 26 2b 15 3f
       -0.051628128 1.4300537 0.40090874 0.58268964
000290 0f 80 60 be 0c 65 31 c0 d1 44 79 c0 70 1b 54 3f
       -0.2192385 -2.7717924 -3.8948252 0.82854366
0002a0 7b 0a ca bf 92 1f a5 bf 37 87 e0 bd 67 9e b6 bd
       -1.5784448 -1.290026 -0.1096329 -0.089169316
0002b0 58 62 4a 3e 5a 35 b8 3d 65 34 af 3e 66 ea c2 3e
       0.19764078 0.08994551 0.3421966 0.38069457
0002c0 cb de 11 3f 2c 5b 4c 3d 9b dc 2e 3e 52 ee 2a 3f
       0.5698058 0.049891636 0.17076342 0.667699
0002d0 98 83 1e 3f 78 9a 8b 3d a4 a4 f8 3c fa ac 46 3c
       0.61919546 0.06816572 0.030351944 0.012126202
0002e0 af d3 cd 3d 3b 6e 93 3d 35 ad 11 40 1b ff 8d 40
       0.10050141 0.07198759 2.2761967 4.437391
0002f0 18 52 35 bf 6f ba 43 bf c7 80 9f 3f e5 77 56 3e
       -0.7082839 -0.7645635 1.2461175 0.20944174
000300 db 75 8b be 17 cf 02 be 75 7d 4d 3e fa eb cb 3c
       -0.27238354 -0.12774311 0.2006739 0.024892796
000310 bb 93 3f bc 3f 97 ac 3f 17 78 9a 3d 24 5e 36 3e
       -0.0116929365 1.3483657 0.075424366 0.1780935
000320 1a 10 dd be 5f c5 25 3f 14 29 02 3e 20 08 4b 3e
       -0.43176347 0.6475429 0.12710983 0.19827318
000330 00 12 dd bd 1d 3b d0 3e 5e 1a 29 bd 11 e6 c8 3e
       -0.10794449 0.406701 -0.04128491 0.39238027
000340 df f9 0e bf a9 59 54 bd f6 63 95 bd 9e 87 22 3f
       -0.55850023 -0.05184332 -0.07294457 0.63488185
000350 e9 76 32 3e a5 2d 8f be f7 6d d6 be a9 a1 70 bf
       0.17428173 -0.27964512 -0.41880772 -0.93996674
000360 f9 0f a1 be e5 2a b6 be b9 d6 ae 3f ee d5 ba 3d
       -0.314575 -0.355796 1.3659278 0.09122835
000370 a5 76 b8 3d 29 93 94 3e 34 15 30 3f bd 64 54 3d
       0.09007005 0.29018524 0.68782353 0.051853884
000380 96 e3 61 3e 7d 96 a5 bd f7 0b 15 bf a0 18 30 be
       0.22059473 -0.08085344 -0.5822138 -0.17196894
000390 ac e7 ca 3e 08 cc 37 3f ff 54 91 3d 4b 78 14 bf
       0.39629877 0.717957 0.0709629 -0.5799605
0003a0 18 20 9d 3f 6a 3c 66 be f3 f8 96 be da 6e 1c 3f
       1.2275419 -0.22483984 -0.29486808 0.61106646
0003b0 f7 02 ac be 05 63 75 3d d6 4b 8f 3e 26 65 f5 bd
       -0.33596012 0.059908886 0.27987546 -0.11982183
0003c0 82 0b 38 3d cd 05 b3 3b 5a 0c 19 3e f6 e4 17 3f
       0.04493285 0.005463338 0.14946118 0.5933374
0003d0 f8 3f 8f be b9 f7 28 3e 62 89 1f 3e f7 87 5e bf
       -0.27978492 0.16500749 0.15579751 -0.86926216
0003e0 b2 d4 88 be 46 90 1a 3f cf 86 c9 bf a5 62 6c be
       -0.26724774 0.60376394 -1.5744265 -0.23084505
0003f0 7f ce 31 bf e6 da 3b bf 43 21 8c be c7 53 91 be
       -0.69455713 -0.7338089 -0.27369127 -0.2838423

fc1.bias f4 [128]
000000 8c 3c 45 3e 74 f1 45 bd 67 26 1f 3e ff 4c 25 3e
       0.19261378 -0.04832597 0.15541993 0.16142653
000010 12 ba cc bc 81 57 86 bd 78 27 d0 3d f3 54 8c be
       -0.024991069 -0.06559659 0.10163778 -0.2740856
000020 aa 46 0a bd d3 3e d3 3d b7 5a 38 3e be 23 4d 3d
       -0.033758797 0.10314717 0.18003355 0.050082915
000030 a7 fc ad be d2 4a 5d bd 06 53 32 3e b9 6b b8 3d
       -0.3398182 -0.054026432 0.17414483 0.090049215
000040 ae e6 91 3d 89 ba fa 3d fa 35 99 bd 0f f1 38 bd
       0.07124077 0.1224261 -0.07480998 -0.045151766
000050 ab 4f 0a be eb bf 94 3d bd a7 49 be 3f 1d 4b be
       -0.13506953 0.07263168 -0.19692893 -0.19835375
000060 d8 a2 06 bd 24 ed 4c 3d 0c fe ee bd 90 1c 11 3e
       -0.032870144 0.050030842 -0.11669549 0.14171052
000070 5e 57 14 bd 56 7b 63 be b6 23 76 be 1e 6b 25 be
       -0.036216132 -0.22215018 -0.2403706 -0.16154143
000080 90 28 64 3d 0e 2f 3e 3e 04 61 89 3d 96 29 90 3e
       0.055702746 0.18572637 0.067079574 0.28156728
000090 91 b1 41 be 75 d1 a0 3d a3 91 30 bd 5b 08 47 3d
       -0.18915392 0.07852451 -0.04310764 0.048591953
0000a0 68 93 8e be d1 d6 17 3e 0e 96 85 3d 17 ca b2 bc
       -0.27846837 0.1482804 0.06522761 -0.02182488
0000b0 5d 1e 6d 3e 0f 52 d6 3d bb 2e ca bd b6 18 1a be
       0.23156114 0.1046487 -0.098721944 -0.15048489
0000c0 5a 4e 99 3e b3 2b c5 3d fd b4 95 bd d9 56 32 be
       0.2994259 0.096274756 -0.073099114 -0.17415942
0000d0 e2 d2 d4 bc 7f b3 61 3e 15 90 25 be 34 79 38 3d
       -0.025979463 0.22041129 -0.16168244 0.045037463
0000e0 2c f6 f1 bd c8 83 30 3e 74 e3 86 be 0f cb 84 be
       -0.11814532 0.1723777 -0.26345408 -0.2593617
0000f0 4f 78 03 3e de 3e d8 bd a4 0d 04 3e 95 1f 32 be
       0.12838863 -0.10558866 0.12895828 -0.1739486
000100 e3 77 2f 3e 4e 8b a8 3c a3 d2 19 bd 84 e8 d4 3c
       0.17135577 0.020574238 -0.037554394 0.025989778
000110 c2 55 0b 3e 09 13 92 3d 40 84 90 bc e6 2c 89 3c
       0.13606933 0.07132537 -0.017641187 0.016745042
000120 d3 3a 80 3e 07 b6 0a 3c d2 60 fe 3d a0 9a 25 be
       0.2504488 0.00846625 0.12420811 -0.16172266
000130 5c 7d 3e bd a4 19 c5 bd 07 6b ae bc cb 7b a8 3e
       -0.04650627 -0.09624031 -0.021291269 0.32906947
000140 43 af 20 3d b4 42 46 bd 88 dc 3b be 34 b5 79 3e
       0.039229643 -0.048403457 -0.18345845 0.2438553
000150 7b 60 50 3e f9 b6 d2 3d 14 76 08 bd 60 2c 1c be
       0.20349304 0.102888055 -0.033315733 -0.15251303
000160 59 50 0e 3e 15 24 f2 3d fb f7 4e be f5 a3 45 3e
       0.13897838 0.11823288 -0.20211785 0.19300826
000170 a1 03 b4 3d bb 3b d2 bd df c3 6e bd 75 ae 0c be
       0.08789755 -0.10265299 -0.058292266 -0.13738425
000180 05 ae 54 3c 32 71 da 3d 23 08 3d bd ff 74 1a be
       0.012980943 0.106661215 -0.046150338 -0.15083693
000190 24 ec 0d 3e d1 91 44 3e 28 e5 f3 bd 04 41 37 bc
       0.13859612 0.1919625 -0.119089425 -0.0111849345
0001a0 e2 0f 83 3e f2 75 a8 bd 50 4f 65 3e 95 18 27 be
       0.25598055 -0.08225621 0.22393537 -0.16317971
0001b0 cb d8 0b be 48 49 0b 3d fd 92 42 be fb 8c 96 bd
       -0.13656919 0.034005433 -0.19001384 -0.07351109
0001c0 a9 43 52 3e 32 83 a5 bc 85 3a 06 be 4a d8 3e 3c
       0.20533623 -0.02020416 -0.13108261 0.011648247
0001d0 84 28 e0 3d 73 33 db 3e 51 f9 ac 3d 7b 3c da bd
       0.10945228 0.4281269 0.08445991 -0.10656067
0001e0 49 6b a5 3e cf c7 40 3e 09 fe 03 3d 07 2d 31 be
       0.32308415 0.18826221 0.03222469 -0.17302333
0001f0 b2 83 84 3e e7 51 92 be 0b 19 e0 bd b7 79 eb 3d
       0.25881726 -0.28578112 -0.109422766 0.11497825

fc2.weight f4 [128, 128]
000000 5a b2 ae 3e 85 06 48 3f 2b 36 cc bf 80 13 f8 bc
       0.34120446 0.7813495 -1.5954031 -0.030282736
000010 1f 4b 24 bf 41 73 89 3d a3 bf 13 3f 3a 49 c0 be
       -0.64177126 0.06711436 0.5771429 -0.37555867
000020 c3 04 91 3e f5 e0 13 bd 2e 87 2a 3e a2 28 d5 3d
       0.28323945 -0.036103208 0.1665313 0.10408141
000030 93 08 98 3d 8a d3 04 bf 7f ce 63 be e9 bc df 3e
       0.074235104 -0.51885283 -0.22246741 0.43698815
000040 08 f9 de bf 36 60 45 bf 6a 7e 15 3e 52 4d 15 3f
       -1.7419748 -0.7709993 0.14599004 0.58321106
000050 6a 64 da be 1d 04 a4 bf 8e 77 63 bd 25 2c 32 be
       -0.42654735 -1.2813755 -0.055533938 -0.17399652
000060 42 3d 54 3e ca f4 c5 3e c0 97 fc be 62 7a 42 3f
       0.20726493 0.38663322 -0.49334526 0.7596799
000070 1f 26 03 bf c1 99 32 3f 64 ae 44 bb 4d a8 87 3f
       -0.51230043 0.6976586 -0.0030011171 1.0598236
000080 fd 7a d7 3e a0 1f 38 3f 71 80 11 bf bd c1 2d 3f
       0.4208602 0.71923256 -0.5683661 0.67873746
000090 d1 12 17 3f a6 e5 5e 3e 96 a3 76 bd bc 75 42 bd
       0.59013087 0.21767291 -0.0602146 -0.04747556
0000a0 54 45 03 be d5 73 e4 3e bc 4e 8e be 93 a1 1d bf
       -0.12819415 0.44619623 -0.27794445 -0.6157467
0000b0 a3 1f 86 3e 76 08 d1 be f7 7c a1 3e 73 28 60 be
       0.26196012 -0.40826768 0.31540653 -0.2189043
0000c0 4f d5 5c be 6e 9e 48 3f 86 bf 79 3c d2 52 39 3f
       -0.21565746 0.78366745 0.015243417 0.72392
0000d0 b2 0a c2 3e 99 e4 d9 bd 8e f1 35 be 56 7c 8e 3d
       0.37898785 -0.10639305 -0.17767927 0.06957309
0000e0 d0 35 61 3f 22 37 45 bf 1a 89 c7 3e cf ba d7 bd
       0.87972736 -0.7703725 0.38971788 -0.10533678
0000f0 be 7a 7b 3e 03 58 1f 3e 5b fc 3d 3e 5e 5d 81 3f
       0.24558541 0.15560918 0.18553297 1.0106618
000100 7c 81 8a be 8f af 83 bf 99 e7 cc be 1a d6 3c bf
       -0.27051914 -1.0287951 -0.40020445 -0.73764193
000110 2a 58 3c 3e 6c 28 0e 3e ea a3 33 be 02 46 0e 3f
       0.18393007 0.13882607 -0.17542997 0.55575573
000120 91 f4 69 bf 29 63 0b bf 38 01 e4 be 6e 82 24 bd
       -0.91388804 -0.5444818 -0.4453218 -0.04016345
000130 51 cc 57 3f ad 48 a6 be 8b 39 74 3f 16 5f db 3d
       0.8429614 -0.32477322 0.95400304 0.107114956
000140 ec 58 39 3f 6f da d6 3d 41 d0 d0 3e 41 93 94 3d
       0.7240131 0.10490882 0.40783885 0.07254649
000150 3f 6a 7c 3d 36 4a 84 bf f2 f6 ae bd 0b 2a 0c be
       0.06162476 -1.0335147 -0.08543195 -0.13687913
000160 50 6e 19 3f 39 ba 60 3f b3 90 91 3e 56 5f 42 be
       0.5993395 0.87784153 0.2843071 -0.1898168
000170 8f d2 88 3f 38 86 00 3e 02 de 8c 3f 5d db 97 3f
       1.0689257 0.125512 1.1005251 1.1863819
000180 8e 09 e8 be 41 ad 95 3e 73 91 43 3f 48 4b 18 bf
       -0.4531979 0.29233745 0.7639381 -0.5948987
000190 83 88 d6 be 12 e4 1e bf 9e f6 9e 3d 00 a8 ba be
       -0.41901025 -0.6206676 0.07761882 -0.364563
0001a0 95 f3 0a 3e 9e 39 ba be bf 86 81 3f ef cf 98 be
       0.13569482 -0.36372083 1.0119246 -0.2984614
0001b0 90 c9 60 be 05 e6 3f 3e 70 42 b6 3e 60 dd e4 3e
       -0.2195189 0.18740089 0.35597563 0.44700146
0001c0 c4 9f 4f bd cc 17 2c be 68 30 6c bf 69 df da 3e
       -0.050689474 -0.16805953 -0.9226136 0.42748573
0001d0 cd e0 a2 be dc 83 a9 3e 54 f1 58 be bd 8f 5d be
       -0.31812134 0.33108413 -0.2118581 -0.21636863
0001e0 46 ad 88 3d 3e ef 88 be fa 88 81 3e f4 c6 d1 3f
       0.06673674 -0.26745027 0.25299817 1.6388841
0001f0 67 4b dd bb 8c 89 da bd 2d cd d9 3e a5 19 7e 3f
       -0.0067533734 -0.10670766 0.4253935 0.9925788
000200 40 08 7d 3d 7e b7 97 3f 29 0e 06 3f 5f b5 36 3d
       0.061775446 1.1852872 0.52365357 0.044606563
000210 19 c6 e6 3e ec 4b 9d 3e 7a 16 b3 be 0e 03 94 bf
       0.45073012 0.30721986 -0.34978086 -1.1563432
000220 ce 53 31 3f 89 4a 90 be 42 4c 40 be 58 90 c7 bd
       0.692685 -0.28181866 -0.1877909 -0.09744328
000230 e3 32 9c 3d 23 bc 03 3d ee 8a 93 3d 18 a4 af 3e
       0.07626893 0.032161843 0.07204233 0.3430488
000240 52 3e 1e 3f 11 67 07 3f e9 88 1a 3e ae 61 bc bd
       0.61813843 0.5289164 0.1509129 -0.091983184
000250 9e 5d 91 3e 9f f8 00 3e 92 a0 5e be f6 19 32 bf
       0.28391737 0.12594841 -0.2174094 -0.69570863
000260 f3 eb 6c bf 0a df 97 3e ad d9 87 be bd 11 55 3f
       -0.9254753 0.29662353 -0.2653326 0.8323019
000270 52 8b 89 3e 1a a0 a1 bd fe af a3 bd 5f 19 98 be
       0.26864105 -0.07891865 -0.07992552 -0.29706857
000280 16 df c3 3d 8b 00 c0 be 02 7c 38 bd cc f9 68 3f
       0.09564035 -0.37500414 -0.045040138 0.9100616
000290 8c 47 7f be 9e e6 7b be 88 d8 0c 3e 16 11 9c 3e
       -0.24929637 -0.24599692 0.13754475 0.30481786
0002a0 80 77 0d bd 9d bd 52 be 84 cd 51 be 29 52 90 3e
       -0.034537792 -0.20580144 -0.20488554 0.28187683
0002b0 7f 90 6f 3d 37 14 83 bf e8 a9 3b be f1 1b 84 3d
       0.05848741 -1.0240544 -0.18326533 0.06450642
0002c0 55 d0 15 3e aa 3d 2a be ca 0d 54 3e 4f 3e ca be
       0.14630254 -0.16625085 0.20708385 -0.39500663
0002d0 7d 68 3c 3f 32 0c f5 3b 54 40 2c 3c c7 ad 1f 3d
       0.73596936 0.0074782604 0.010513384 0.038984086
0002e0 a3 8f 1a be 0b 29 9f 3e fe 8b 90 bb ac af e0 be
       -0.15093856 0.31086 -0.0044112196 -0.43884027
0002f0 c9 79 88 3e 76 56 80 bd 0d 83 29 ba 2b ac 67 3f
       0.26655415 -0.06266491 -0.00064663665 0.9049708
000300 86 0f f0 bc 1d 8c 2c bf 09 b5 e7 3d 5c 67 69 be
       -0.029304277 -0.67401296 0.113138266 -0.22793335
000310 1a 89 d3 3e cc aa cc be 76 d9 4c 3f a9 3a 96 3e
       0.41315538 -0.39974058 0.8001932 0.2934163
000320 e1 e8 20 bf 4f e5 b2 bf a9 d2 08 3f 80 13 f6 bd
       -0.62855345 -1.397623 0.5344644 -0.12015438
000330 2c f9 00 3f 25 7e c6 bf ca 79 cc bd e6 08 52 3d
       0.50380206 -1.5507246 -0.09984167 0.051278017
000340 41 82 12 bf 90 a9 36 bf e8 21 ad 3d 30 69 e1 3e
       -0.5723 -0.7135248 0.08453733 0.44025564
000350 d1 8e cf be 90 2e da be 62 44 04 3f f2 f0 cb 3e
       -0.40538648 -0.4261365 0.51666844 0.39832264
000360 a1 bc 20 bf 6b 44 63 3e d4 2d 80 3f 48 4e 57 3f
       -0.62787825 0.22194068 1.0013986 0.8410382
000370 70 4e b3 3e f3 9b a2 ba 6c f5 be be 08 e2 09 3d
       0.3502078 -0.0012406096 -0.37296617 0.033662826
000380 d3 43 0b bf 40 51 0f 3e c0 ad 3b bf 02 8b 97 be
       -0.54400367 0.13995838 -0.73311996 -0.29598242
000390 54 ec 51 bf fc 19 71 3f 01 18 ee 3e ba d7 47 bd
       -0.82001233 0.94180274 0.4650269 -0.048789717
0003a0 95 4b 49 3e b3 31 61 bd 4e 6b 0e 3f 63 01 99 be
       0.19657739 -0.054979037 0.55632484 -0.2988387
0003b0 f0 3d 34 3e db af bb 3e 04 c8 74 be 51 fb 28 be
       0.17601752 0.36657605 -0.23904425 -0.1650212
0003c0 90 10 29 3f 73 9c 8a 3e 95 05 8f bd fc 1c 27 bf
       0.660409 0.27072486 -0.069834866 -0.652786
0003d0 c1 d5 7e 3e 3d d2 07 3f 96 38 1b 3e e1 a2 cd be
       0.24886228 0.53055173 0.15158305 -0.4016333
0003e0 f9 85 88 be 5e ee 61 be cd 08 d0 be 1b c8 1b 3f
       -0.26664713 -0.22063586 -0.40631714 0.6085221
0003f0 08 19 e8 bc 82 85 e1 bc 0d 86 05 3f ab a0 1c 3e
       -0.028332248 -0.027529482 0.5215767 0.15295665

fc2.bias f4 [128]
000000 10 b7 36 be ef f0 31 bd 72 c6 af bc b3 73 1e be
       -0.1784327 -0.043442663 -0.02145693 -0.15473823
000010 7b 89 60 3d 2f e8 db bd 6a 1b 80 be eb 54 8f bb
       0.05481861 -0.10737645 -0.25020915 -0.0043741367
000020 ab 8f ae 3d 63 38 4b 3a 90 e0 19 3e a2 cf a9 3c
       0.08523496 0.0007752238 0.1502707 0.02072889
000030 30 c3 92 3d 55 e7 c4 3c c7 ec cc 3d a3 6a c6 3d
       0.07166135 0.024036089 0.10006099 0.09688308
000040 a9 bf 47 3e cc 68 23 3e df 18 d7 3e f0 c4 ce bd
       0.19506706 0.15957946 0.42011163 -0.100961566
000050 5b 27 3b 3d 39 6f e4 be 86 d6 55 bd 42 1c 74 bb
       0.04569183 -0.44616106 -0.05220654 -0.0037248288
000060 c1 f9 88 be 90 ec 27 be 50 e9 8a bd 17 8a 2d bc
       -0.26753047 -0.16398835 -0.06782782 -0.010592005
000070 f3 b1 11 3d f3 91 33 3e fd cd 00 3e 80 5f e7 3a
       0.035570096 0.17536144 0.12578578 0.0017652363
000080 eb 19 b8 be 12 ef 82 bd e2 7a 00 be 2e ff 43 bd
       -0.35957274 -0.06393255 -0.12546876 -0.04785078
000090 80 8c 64 be 5a be a0 bd 5d da 90 be 2a 79 61 be
       -0.22319221 -0.07848807 -0.28291598 -0.22018877
0000a0 e3 31 66 3e 24 bc 26 3e a3 2f 1a 3c 24 36 54 be
       0.22479968 0.16282707 0.009410772 -0.20723778
0000b0 eb 9a 1c bf 20 7d 38 bd 25 82 76 bd 74 00 cb bd
       -0.61173886 -0.045041203 -0.06018271 -0.09912196
0000c0 7d e0 8e 3c 28 d2 d0 be e9 55 e0 ba 32 3e 8d 3e
       0.017441029 -0.40785336 -0.0017115447 0.27586514
0000d0 bf 87 29 3e fe 94 6e be 13 d6 ab 3e e2 5a 15 be
       0.1655569 -0.23299024 0.33561763 -0.1458545
0000e0 00 6c 71 bc b9 a1 80 3e af 0d 7e be 98 39 5b 3e
       -0.014735222 0.25123385 -0.24809907 0.21408689
0000f0 1c ac 95 bd 52 e7 ab be 5d 7d 9e bd ee 9d d6 be
       -0.07308218 -0.3357492 -0.07738755 -0.41917366
000100 5d 6c 67 bc 3e 70 c5 3d 00 a0 eb bc 43 f0 5c bd
       -0.014124957 0.09640549 -0.028762817 -0.05394007
000110 a6 f5 a3 3c 6d 58 94 be 8e 9c 87 3e ce ea ee 3d
       0.020014595 -0.28973714 0.2648663 0.11665879
000120 13 d5 f0 bd 7a d2 f8 bd 0e 43 4b 3c 4d 6c 51 bd
       -0.11759391 -0.1214952 0.012406124 -0.051128674
000130 82 48 02 3e d4 d4 1b be cf d1 81 be 1d 43 44 3d
       0.12722972 -0.15217906 -0.25355384 0.047915567
000140 e1 74 fb 3c 83 2e 89 3d 73 e3 17 be a5 f2 b3 bd
       0.03069538 0.066983245 -0.14832859 -0.08786515
000150 88 c5 1f 3e b3 d2 19 3e cc fe 47 3d df f4 aa 3e
       0.15602696 0.15021782 0.048826978 0.33389947
000160 15 ea 3b be 41 a9 14 be 11 26 c6 3c 5f 89 07 be
       -0.18351014 -0.1451769 0.024188073 -0.13235997
000170 50 53 fb bc 83 21 88 3e d7 e6 3b be db a9 5b bd
       -0.030679375 0.26588067 -0.18349777 -0.053628784
000180 af 59 97 bd c1 f2 5e 3c 41 ce 75 be 08 41 91 be
       -0.07390153 0.013607682 -0.24004461 -0.28369927
000190 ca 43 1d bd 47 21 1f 3d 15 58 da bd 8f 25 ff bc
       -0.038394727 0.038850095 -0.106613316 -0.031145839
0001a0 67 7d 75 3e 9e 5e 30 be b3 dd eb 3d d3 7d bc bd
       0.23973618 -0.17223594 0.11516895 -0.092036866
0001b0 89 5a 9a 3d b0 86 43 be 09 b1 20 3c 48 f7 98 3d
       0.075367995 -0.19094348 0.0098078335 0.0746904
0001c0 87 cc 0a be db 30 09 be b4 c1 5e bd 32 00 ba 3d
       -0.13554583 -0.13397543 -0.05438395 0.090820685
0001d0 13 c7 17 3d 93 90 e9 bd b5 93 61 be 7b 08 d4 3d
       0.037055086 -0.114045285 -0.22029002 0.1035318
0001e0 3a 76 4c 3e 7d 94 9c bd 4b ad ca bd 48 d4 00 be
       0.19966975 -0.076455094 -0.09896334 -0.12580979
0001f0 a9 83 e9 3d 9e 68 b2 bb 16 48 0d 3c db 9a c0 3d
       0.11402065 -0.0054446002 0.008623144 0.09404536

policy_mean.weight f4 [7, 128]
000000 aa 16 ef 3d 7b 48 02 3e 7f a0 00 bb 4d b4 d1 bc
       0.11674245 0.12722962 -0.0019626913 -0.02559867
000010 0a a8 19 3e 72 b6 56 3d 54 9b 0e bd a8 35 1a bd
       0.15005508 0.052420087 -0.0348161 -0.037648827
000020 ed 76 1d bd 10 23 a6 3c f5 ed c5 bd ef 71 3b bd
       -0.038443495 0.020280391 -0.09664527 -0.045762952
000030 fa b0 6c 3c 07 0f 5c 3c 7c ac ab 3c 02 97 96 bc
       0.014446491 0.013431317 0.02095627 -0.018382553
000040 a3 f6 83 3d 7a 96 ac 3d f6 89 ae 3b f1 ac 4d bd
       0.064435266 0.084271386 0.005326505 -0.050213758
000050 e8 6e 4d bd 4b 91 50 3d 92 52 0b 3d ca 88 d3 3c
       -0.050154597 0.050919812 0.034014292 0.025822062
000060 8f 82 46 3d 93 b6 45 3d 06 5a 1d bc 89 76 ce bc
       0.048464354 0.04826982 -0.009603983 -0.025203006
000070 97 f9 82 3c 25 bb 34 bd ab 1b 8c bb 20 6d 9e bc
       0.015988154 -0.044123787 -0.004275759 -0.019339144
000080 56 5f a8 3d a4 d5 5e bd 27 32 af bb f4 04 79 bd
       0.08221309 -0.054402962 -0.005346555 -0.06079574
000090 eb 6c 01 3e 90 10 03 3e 81 bc aa 3c ef 1a 48 3d
       0.12639205 0.12799287 0.020841839 0.04885381
0000a0 68 1b 13 3d 37 32 b7 3d a2 7b 52 bd 50 44 1e 3b
       0.03591481 0.089451246 -0.051387437 0.0024149604
0000b0 04 3f 83 3c 49 13 bf bc 6e 6e a2 3d 24 ad 8f bd
       0.01602126 -0.023324626 0.07931219 -0.07015446
0000c0 87 b7 e3 bc 87 60 d4 3d 16 2c ba 3d 10 49 f4 3c
       -0.027797474 0.10369974 0.0909044 0.029819995
0000d0 2d ec c1 bb d7 5d 39 3e 49 a2 4f bc 2f f1 06 bd
       -0.005918047 0.18102203 -0.012672969 -0.032944854
0000e0 42 8e 34 3e cd 28 bb bc 57 a1 69 bd 13 85 03 3d
       0.17632392 -0.022846604 -0.05703863 0.03210933
0000f0 4f 65 d3 bc 4a ab 4b bc 69 5b 82 bb 94 88 1c bc
       -0.025805144 -0.012430975 -0.003978182 -0.009554047
000100 9b d6 a1 bb 00 5f cb bd f6 86 d0 3c 3a 6b 85 bd
       -0.004938913 -0.09930229 0.02545498 -0.065145925
000110 06 f7 db 3c 6a 8d 23 bd 11 ea 2d bc 8e a5 b7 bd
       0.026851188 -0.039929785 -0.010614888 -0.08967124
000120 82 fc b9 bd e0 4a d7 bd 6d 4b e7 bd 78 40 20 be
       -0.09081365 -0.10512328 -0.11293683 -0.15649593
000130 cc b9 12 be 2b 68 0a 3e c0 50 24 be cf 0f 76 3c
       -0.14328688 0.135163 -0.16046429 0.0150184175
000140 dc 1d f9 3d 35 d7 da bd b6 9f 3d 3c 9c 7c ad bd
       0.12163898 -0.10685579 0.011573723 -0.08471033
000150 79 24 20 bc 43 36 99 bd 4f d9 e5 bd 12 01 13 bd
       -0.009774321 -0.07481053 -0.11223089 -0.035889693
000160 45 e8 17 3e 64 30 1b bd 40 9f 26 bc 9c 8a 27 3d
       0.14834698 -0.037887946 -0.010169804 0.040903673
000170 d4 fe 58 3d b8 d1 8b 3c 84 7a 9e bd e1 1c 07 be
       0.052977398 0.017067775 -0.07738212 -0.1319461
000180 8a 49 03 be 1c 29 08 3c cb d2 5a 3b 99 65 97 3d
       -0.12821022 0.0083105825 0.0033389803 0.07392425
000190 0e 81 06 3d 09 b7 35 3d 40 8f f2 3b 35 88 82 3b
       0.03283792 0.04436401 0.0074023306 0.0039835223
0001a0 07 05 1a be 0e c9 40 bd a3 77 b0 bd bf 55 ae 3d
       -0.1504098 -0.04706674 -0.08616569 0.085124485
0001b0 68 2c d5 3a de 74 41 bd d9 b4 d0 bc c8 1f 80 bd
       0.0016263844 -0.047230594 -0.02547686 -0.06256062
0001c0 cc 7d 5f 3d d8 ba 87 bd 07 6f 67 3c f9 77 7c bd
       0.05456333 -0.066274345 0.014125592 -0.061637852
0001d0 b9 02 b7 bc 7a ad 80 3c df a4 f1 bd 3a fc 28 3d
       -0.022340165 0.01570772 -0.11799025 0.041256167
0001e0 f0 9e 1f bb d9 f7 8b bd f1 d7 ab 3c 39 dc 9b bd
       -0.0024356209 -0.068343826 0.020976992 -0.076103635
0001f0 8f d4 9d bc 67 56 5c 3e 0c 03 16 3c ee fb c6 3a
       -0.019266395 0.21517335 0.009156 0.0015181282
000200 2b 49 45 bc c9 b7 a4 3d 31 95 5c 3d 2b 0c 69 3d
       -0.01204137 0.08042867 0.053853218 0.05689637
000210 03 60 71 3c e4 69 ae 3c ac 33 12 3d 2a c8 89 3d
       0.014732364 0.021290727 0.03569381 0.067276314
000220 cc e6 df bc f8 dc 15 3d 7c 92 4c 3d f0 64 da bd
       -0.027331732 0.036587685 0.049944386 -0.106637836
000230 b8 77 6e 3d e5 b1 bd bb fa a9 52 3d 81 be 12 3d
       0.05821964 -0.005789029 0.051431634 0.03582621
000240 9a 08 3a bd 6e 88 5f bd 42 00 00 be 0b ff 2c 3d
       -0.04541836 -0.05457347 -0.12500098 0.042235415
000250 bc c8 d2 ba 7a 2d 87 3c 7b 47 c1 bc 09 92 0e bd
       -0.0016081552 0.016501177 -0.023593655 -0.03480724
000260 84 3c 1b 3d da 19 93 bd 30 8b dd bc 36 5a e0 bc
       0.03789951 -0.07182665 -0.027043909 -0.027386766
000270 7f ef c1 bd 44 fc 76 3c 7c 6b 00 3d 98 70 9d 3d
       -0.094695084 0.015074793 0.031352505 0.07687491
000280 6a 7d ab 3d 53 4a 8e 3d fd 8b 10 3d 57 ad ef 3c
       0.0837353 0.0694777 0.035289753 0.02925746
000290 c7 fa a9 bd 73 59 60 3d b1 ec da 3d 38 58 85 3d
       -0.08299785 0.054772805 0.106896766 0.06510967
0002a0 4a df c8 bd 5a 24 a3 bd 55 ba 66 3d a6 48 08 bd
       -0.09808214 -0.07965918 0.056330044 -0.033272408
0002b0 ee 5d 20 bb 2b 6e 86 3c 71 2a 69 be 54 a3 0d 3e
       -0.002447005 0.016409954 -0.22770096 0.13831836
0002c0 9c 0c 98 3d 3a db e1 3d b0 01 a0 bb 25 d7 99 3c
       0.0742428 0.11028142 -0.0048830137 0.018779347
0002d0 3e ed de 3d 08 39 20 3d 90 9f c1 bb d6 85 af bc
       0.10885094 0.03911689 -0.005908914 -0.021426123
0002e0 da 60 de bc ee 8b c7 bd 1f 6d 46 3d 36 25 5a bd
       -0.027145792 -0.09743486 0.04844391 -0.053258143
0002f0 f9 6a de 3d cb f5 a5 bd 3d 38 0a bd c8 b0 dd 3d
       0.10860247 -0.08103522 -0.03374504 0.10824734
000300 d6 2e 55 3d 98 f4 e0 bc 09 71 c9 3d f6 5e e6 3d
       0.05204662 -0.027460381 0.09836013 0.11248581
000310 7f 5b 4d bd e5 ba d9 bd 23 2b 97 bb 93 4d 95 bd
       -0.050136086 -0.106313504 -0.0046132966 -0.07290187
000320 30 79 83 3c 78 db 50 bd c6 ca ba 3d 1e 09 37 3d
       0.016048998 -0.05099055 0.09120707 0.04468643
000330 a3 23 72 bd 54 43 68 3c 97 ab c9 3c ea 90 49 3d
       -0.059116017 0.0141762085 0.024617953 0.049210466
000340 f1 96 2f be ec d3 7b 3d c2 a6 d5 3d ee 59 d2 bd
       -0.17147423 0.0614814 0.10432197 -0.10271059
000350 30 71 6c 3b a0 65 10 3e d7 c5 33 bc 3e 6c ad 3d
       0.0036078207 0.14101267 -0.010972462 0.08467911
000360 83 c7 07 3c db 95 c6 bd 76 3e 3f bd 03 7a 97 bd
       0.008287313 -0.096965514 -0.046690427 -0.07396319
000370 19 3c 2c bd f3 5f 09 bd 0e b9 21 3d 23 e1 8f 3d
       -0.0420495 -0.03353877 0.039483123 0.07025363
000380 49 49 5c bc 00 25 d9 3c 9e 50 03 3e 17 06 af bd
       -0.013445207 0.0265069 0.12823722 -0.085460834
000390 eb 47 10 3b 84 a5 5b bd 87 87 0c bd 91 42 68 3d
       0.0022015523 -0.053624645 -0.034308936 0.056704108
0003a0 49 a7 b6 3c 3f 67 d2 3b ac cf 3d bc bf a7 0b bc
       0.022296565 0.0064209993 -0.011585157 -0.0085238805
0003b0 7e 95 1f bc 50 15 4c 3e da e6 ad 3d ac ce e4 3d
       -0.009740232 0.19930005 0.08491297 0.11172232
0003c0 74 11 0a 3e bf 60 9f 3c 54 4b ad 3d 0b 93 2c 3d
       0.1348322 0.019455312 0.08461633 0.04213242
0003d0 38 1d 96 bc 4c c7 12 bd ed 29 98 3c ee 94 ae 3d
       -0.01832448 -0.035834596 0.01857468 0.085245
0003e0 14 eb 9a bb 85 5a 88 3b 08 9f bb 3d 23 de c5 bc
       -0.0047277305 0.0041611814 0.09161192 -0.024153775
0003f0 25 14 29 3d 7c 61 47 ba bd 23 80 3d 4d 84 77 bd
       0.041278977 -0.0007605774 0.062568165 -0.060428906

policy_mean.bias f4 [7]
000000 c4 5c 72 bd 11 c7 d9 bd 7d e8 3e be b3 81 2e 3e
       -0.0591705 -0.10633672 -0.18643375 0.17041664
000010 7c 6f c1 bc 6c 41 e8 bb 68 66 86 3b
       -0.02361273 -0.007087877 0.0041015632

value_head.weight f4 [1, 128]
000000 48 4f 75 40 63 7e c1 3f 7e f5 0e c0 fb 3e 14 40
       3.832964 1.5116695 -2.2337337 2.316344
000010 14 c4 c9 bf 5b f3 e9 bf 04 87 a4 3f 47 94 11 40
       -1.5762963 -1.8277391 1.2853703 2.2746751
000020 80 76 c2 3f 3f 11 12 c0 10 7a 1d c0 f2 b0 19 40
       1.5192413 -2.2823026 -2.460575 2.401425
000030 18 ab 0d c0 e9 c2 28 40 01 fc 26 c0 e5 e4 03 40
       -2.2135677 2.6368964 -2.609131 2.0608456
000040 28 59 bb bf f3 4e ef 3f b3 db 07 c0 86 64 21 40
       -1.4636583 1.8695968 -2.1227844 2.5217605
000050 51 cf cf bf 39 4b 10 3f 56 99 27 40 6f 87 29 c0
       -1.6235143 0.5636478 2.618734 -2.6488912
000060 ab 42 06 c0 f9 66 d0 3f fc fa cd 3f e6 66 c2 bf
       -2.097819 1.6281425 1.6092219 -1.5187652
000070 bd 7e 01 c0 8a 36 25 c0 1c 05 12 40 d9 21 e8 bf
       -2.0233605 -2.5814538 2.2815619 -1.813533
000080 47 cf 1d 40 c9 3a fc 3f e9 f3 12 40 2c d6 f2 bf
       2.4657762 1.970544 2.296137 -1.897161
000090 93 6f 9e 3f 31 a4 bb 3f ac ad 79 40 4f 78 09 c0
       1.23778 1.4659482 3.901225 -2.147968
0000a0 7a 78 65 c0 d8 5e 56 c0 b7 40 06 c0 26 f2 eb 3f
       -3.5854783 -3.3495388 -2.0976999 1.8433273
0000b0 a9 2c 05 40 7c 00 3b 40 1f dd 7c bf 02 29 05 40
       2.0808508 2.9219046 -0.98774904 2.080628
0000c0 f7 2c 3a 40 d7 c1 0b c0 93 65 08 c0 a6 25 1b c0
       2.9089944 -2.183706 -2.1311996 -2.4241729
0000d0 62 b2 4b c0 f7 2a 0a c0 b4 4b 13 c0 6b 46 ff 3f
       -3.1827626 -2.1588724 -2.3014956 1.9943365
0000e0 ae 9a 03 40 69 0c be bf e0 43 11 40 12 f3 27 40
       2.056316 -1.4847537 2.2697678 2.6242108
0000f0 c9 f4 bc 3f d9 4c f5 3f 42 f9 41 40 75 65 ff 3f
       1.4762203 1.9164077 3.0308385 1.9952837
000100 c5 fe 03 c0 34 58 f1 3f 1b b2 f0 3f 85 8a 20 c0
       -2.062425 1.8855042 1.8804353 -2.5084546
000110 12 4c 22 c0 41 28 cb 3f 69 63 d1 bf e9 9c 28 40
       -2.535893 1.587166 -1.6358463 2.634577
000120 12 9a 8a 3f 0e 43 22 c0 b2 e0 cd bf c0 4c 29 40
       1.0828269 -2.5353427 -1.6084197 2.6453094
000130 c8 ae f1 bf 9d be ea 3f 5f 55 27 40 18 d7 0f c0
       -1.8881464 1.833942 2.6145856 -2.2475033
000140 00 1e 27 40 8e f0 f4 bf 6a e9 f2 bf d7 bd 26 c0
       2.611206 -1.9135911 -1.8977482 -2.605337
000150 a6 c6 0e 40 63 17 d9 bf 64 c5 db 3f df cf 98 bf
       2.2308745 -1.6960262 1.7169614 -1.1938437
000160 bb 07 1d 40 35 bb ab bf f1 52 06 c0 24 0a 6d 40
       2.4535968 -1.3416506 -2.0988123 3.703744
000170 06 9b fe bf 43 1a 18 40 0c c2 35 40 dd 67 00 40
       -1.9891059 2.376603 2.8399687 2.0063393
000180 82 fd da 3f 58 75 06 40 96 49 62 40 6e 3b 1e c0
       1.7108614 2.100912 3.5357413 -2.4723773
000190 78 fe 7e bf ed 7a 07 c0 1d ff 0b 40 38 bc 0e c0
       -0.9960704 -2.1168778 2.1874459 -2.230238
0001a0 55 0e 01 c0 e2 71 b4 3f 94 dd d2 bf 73 01 62 3f
       -2.0164998 1.4097254 -1.647387 0.8828346
0001b0 58 3c 0e 40 a1 3c 74 40 0f 47 09 40 d0 87 13 40
       2.222433 3.8162005 2.144962 2.3051643
0001c0 de 40 3c c0 ff f4 03 40 c5 16 0b 40 a3 7e 1b 40
       -2.9414592 2.0618284 2.1732647 2.4296043
0001d0 f6 97 08 40 61 3f 22 40 ce 21 ce bf 37 70 fa 3f
       2.134275 2.5351183 -1.6104066 1.9565495
0001e0 5f a7 18 c0 43 bc e7 3f 01 30 29 c0 f8 e6 fb 3f
       -2.3852155 1.8104328 -2.643555 1.9679861
0001f0 86 d4 2b c0 ab 7e 12 c0 ef f3 3f c0 69 9a 1c c0
       -2.6848464 -2.2889812 -2.9992635 -2.4469244

exp_avg f4 [7]
000000 b0 4d 13 3a e8 c4 e8 b9 ca 75 56 39 fa 93 97 39
       0.00056191813 -0.00044397195 0.0002045251 0.00028911215
000010 df a9 76 ba 7c aa 98 b8 08 f2 20 ba
       -0.0009409468 -7.27968e-05 -0.0006139581

exp_avg_sq f4 [7]
000000 29 6a af 37 bc 89 a0 37 f7 f4 a4 37 a2 30 a4 37
       2.091106e-05 1.9137624e-05 1.9664394e-05 1.957297e-05
000010 b9 bf b2 37 39 d5 a9 37 36 8f b2 37
       2.1308531e-05 2.024566e-05 2.1285941e-05

exp_avg f4 [128, 21]
000000 93 49 ff b5 10 73 03 ba cb ba 85 bb 13 ed 7b bb
       -1.9020393e-06 -0.0005014399 -0.0040811053 -0.0038440868
000010 89 dc d7 ba 0f cc 87 ba 1d fb 8d 3a 07 19 69 b8
       -0.0016468923 -0.0010360497 0.0010832284 -5.5574837e-05
000020 fc 35 73 38 f0 34 80 b7 06 b7 fe b7 ee d8 fa b8
       5.798599e-05 -1.528344e-05 -3.0364386e-05 -0.00011961335
000030 5d b7 23 ba b3 88 87 bb 54 6b 3c 39 ea 0c 65 b7
       -0.000624528 -0.004136169 0.0001796906 -1.365247e-05
000040 dc 3f 21 ba 0d 3e 8d bb c7 db f6 b8 34 11 01 b9
       -0.00061511784 -0.0043103755 -0.00011771131 -0.00012308807
000050 0d f4 66 b8 48 1c 02 39 6e 71 b4 3a 67 28 14 3c
       -5.5063563e-05 0.00012408302 0.0013766715 0.009042836
000060 cb 87 1c 3c 49 1e 14 3b ff c6 11 3b d7 8e 05 bb
       0.00955386 0.002260106 0.0022243855 -0.0020379329
000070 e6 a0 e8 38 fc 49 de b8 89 82 a3 b7 67 28 30 38
       0.00011092592 -0.000105995656 -1.94919e-05 4.1999298e-05
000080 a0 77 81 39 d8 59 dc 3a 7e 52 14 3c de f9 01 ba
       0.00024693925 0.0016811443 0.009052871 -0.00049581926
000090 99 e9 18 3a a2 8c eb 3a 24 74 19 3c fc d2 00 39
       0.00058331486 0.0017970989 0.009366069 0.00012285629
0000a0 a7 a1 9f 39 54 5f 28 37 60 d8 67 38 67 37 09 b9
       0.00030447284 1.0035776e-05 5.5276207e-05 -0.00013085977
0000b0 fe ad 5b b8 46 96 68 ba 97 62 11 3a b7 07 00 3a
       -5.237571e-05 -0.000887249 0.0005546002 0.0004883962
0000c0 a0 78 ac b9 50 67 bd b7 7d 5d 85 37 b3 9b 7e 38
       -0.0003289627 -2.2578664e-05 1.589837e-05 6.0703325e-05
0000d0 af 5c a0 b7 e1 06 d0 37 32 86 1f b9 c5 dc bd b8
       -1.9116645e-05 2.4798735e-05 -0.00015213413 -9.053344e-05
0000e0 9e 69 29 39 d1 9d a9 b9 b7 43 46 b9 bd 48 51 b8
       0.00016156441 -0.00032351774 -0.00018907977 -4.9897226e-05
0000f0 e8 a9 ff b7 48 76 b2 b7 3a 0b 20 b8 8e 3a b8 b8
       -3.0477488e-05 -2.1274333e-05 -3.815743e-05 -8.7847104e-05
000100 df 1f 0e 37 4b 4d dc 39 4a c6 53 3a 4a 98 e3 37
       8.47128e-06 0.00042019258 0.00080785586 2.7131424e-05
000110 61 98 d6 b9 bf 6f c4 38 18 50 e3 37 a8 6d 9a b7
       -0.00040930792 9.3668226e-05 2.7097805e-05 -1.8409293e-05
000120 ca 67 47 b8 89 dd 6c 38 35 6b 94 b7 ef 26 81 38
       -4.754196e-05 5.6473105e-05 -1.7692897e-05 6.158451e-05
000130 65 8d 02 3a bf d8 40 39 76 10 e2 38 f0 8a fb b9
       0.0004980176 0.00018391291 0.00010779586 -0.00047977967
000140 36 35 2d 3a c1 1f 93 38 f4 c5 5e 38 0e 36 a3 38
       0.00066073553 7.015421e-05 5.3113283e-05 7.782514e-05
000150 4b 34 2c 38 82 e7 e5 b7 5c 97 88 b8 68 d1 e7 b9
       4.1056697e-05 -2.7406732e-05 -6.513178e-05 -0.00044215773
000160 13 c4 66 39 8e 7f 9a 39 34 c0 90 b8 3a ea 15 b7
       0.00022007553 0.00029468205 -6.902256e-05 -8.935627e-06
000170 e3 4a 13 37 72 aa 50 37 58 08 97 b7 45 b3 1b 37
       8.779319e-06 1.2437451e-05 -1.8004488e-05 9.280459e-06
000180 d9 e2 63 b8 cc da d2 b8 3e cf ff b7 d0 19 c4 b8
       -5.4332286e-05 -0.000100543344 -3.0494873e-05 -9.350816e-05
000190 ca bb 19 39 d2 aa da b8 7e 47 05 b8 00 de e1 b7
       0.00014661174 -0.00010426868 -3.1776253e-05 -2.6925467e-05
0001a0 4b 87 14 b8 a8 db dc b8 fe 01 23 3a 39 a3 a8 3b
       -3.541195e-05 -0.00010531332 0.00062182534 0.005146411
0001b0 3a cc c0 3b 65 4e b8 3a 53 8d b9 39 0b 02 49 ba
       0.0058837207 0.0014061449 0.00035391244 -0.0007667846
0001c0 42 5e fc 38 94 9b dc b8 8d 6d 88 b7 4e 80 c2 38
       0.00012033853 -0.00010519396 -1.6263477e-05 9.2745395e-05
0001d0 cb 36 bd 38 e3 c9 5b 3a 04 7c ac 3b 06 af f9 b7
       9.022428e-05 0.00083842705 0.0052638073 -2.9764615e-05
0001e0 54 8c 37 39 76 c6 3a 39 cb e0 b7 3b 38 09 4d 39
       0.00017504516 0.00017812275 0.005611514 0.00019553758
0001f0 a7 1f 63 39 49 32 f6 38 5e f0 5b 38 a9 8d 82 39
       0.00021660198 0.000117395604 5.243753e-05 0.00024901077
000200 38 36 ab 3a 2e 80 d2 3a 4f 6e fe 38 c5 05 45 39
       0.0013062423 0.0016059929 0.000121322104 0.00018789533
000210 0b 7c 4b b9 fb dc 93 37 ca 1b 6e b7 4a 38 6a 38
       -0.00019405798 1.7626668e-05 -1.4192376e-05 5.584237e-05
000220 a1 de 43 b8 38 13 b7 37 41 5c a9 39 0d 3f a5 3a
       -4.6698962e-05 2.182425e-05 0.00032302926 0.0012607292
000230 26 12 22 b9 b8 c5 25 39 d5 fd bd 39 c9 c1 ae 3a
       -0.00015456285 0.00015809282 0.0003623801 0.0013332899
000240 bf 66 00 b8 4e 3a 9b 38 83 e5 3e b8 50 ec 87 b7
       -3.0613268e-05 7.401836e-05 -4.551328e-05 -1.6203296e-05
000250 a7 2f 7e 37 77 e9 fd 39 d5 47 21 3a c7 a0 d7 38
       1.5150675e-05 0.00048429865 0.00061523664 0.00010281946
000260 6c b7 5f b8 6c 51 f6 33 90 a7 d8 37 ef 6a 9e b7
       -5.3338168e-05 1.1470078e-07 2.5827234e-05 -1.8884863e-05
000270 9b b9 0b 36 1f 90 31 b7 fe ea f5 37 0c 64 44 38
       2.082065e-06 -1.0583578e-05 2.9315703e-05 4.6823217e-05
000280 ec 7d 09 3a ec 96 ad b7 21 b2 74 39 1a a4 8f b9
       0.0005244899 -2.0693486e-05 0.00023336012 -0.0002739735
000290 8d 11 36 3a a9 eb 3e 38 28 d8 04 38 69 93 28 38
       0.00069453643 4.5519006e-05 3.1672564e-05 4.0191608e-05
0002a0 eb 72 7c 39 4b 77 2e ba 3c f6 ca bb f9 af ed bb
       0.00024075403 -0.0006655349 -0.006193904 -0.0072536436
0002b0 6f e5 e9 ba 2b 95 ff 38 91 3a 5e 3a cf 6d 47 b9
       -0.0017844866 0.00012187132 0.0008477355 -0.00019019026
0002c0 00 da 21 39 57 73 1f 38 e7 28 c7 b8 26 2b d9 b8
       0.00015435368 3.8015973e-05 -9.496678e-05 -0.00010355403
0002d0 d8 bb 7a ba 87 fe d2 bb b1 36 46 b9 5b 36 ef b9
       -0.0009564734 -0.0064390334 -0.00018903126 -0.0004562613
0002e0 05 14 17 3a c3 d6 ea bb 40 84 b4 b9 17 89 98 b9
       0.0005763176 -0.007166715 -0.0003443081 -0.0002909384
0002f0 0c 85 80 b9 c2 68 be b5 97 50 0d ba f4 3c 77 bb
       -0.0002451319 -1.4186592e-06 -0.0005390732 -0.003772554
000300 17 dc 80 bb 7e 49 8e ba 8f 63 59 ba 70 00 64 3a
       -0.0039324868 -0.0010855643 -0.00082927285 0.0008697575
000310 af 06 6d b8 34 d1 7e 38 77 35 23 b8 ec ff 01 b7
       -5.6511428e-05 6.0753155e-05 -3.891202e-05 -7.748586e-06
000320 f7 05 bf b8 d6 bb 35 ba 77 7c 7a bb 3c 2f 39 39
       -9.108701e-05 -0.0006932592 -0.003822116 0.00017660571
000330 0e 98 5f b9 26 5b e3 b9 b8 d1 84 bb 58 0c bc b8
       -0.00021323582 -0.00043364725 -0.0040533207 -8.966838e-05
000340 fb ac 21 b9 9c e0 4f b8 f8 a7 2a b7 81 2e 68 ba
       -0.00015418597 -4.956183e-05 -1.0171898e-05 -0.0008857027
000350 95 80 ea bb ca ad e9 bb 5d 8b 17 bb 2b 29 d0 ba
       -0.0071564415 -0.007131313 -0.0023123838 -0.001588141
000360 a5 41 cd 3a 72 c1 e3 b8 cc af d1 38 84 6c 0d b8
       0.0015659822 -0.000108602355 9.998641e-05 -3.3718083e-05
000370 1f c0 83 b8 c2 25 51 b9 01 e1 93 ba e5 28 ec bb
       -6.282352e-05 -0.00019945859 -0.0011282266 -0.0072070234
000380 e6 0e a6 39 fb fb c2 b9 9f 35 5f ba 5e 59 fa bb
       0.00031673088 -0.00037190304 -0.0008514765 -0.007640048
000390 46 7b 46 b9 04 4e 7e b9 48 27 54 b8 b6 75 36 37
       -0.00018928674 -0.0002425239 -5.0581322e-05 1.0875452e-05
0003a0 a2 54 b3 b8 fc a1 2c ba fc 70 44 ba ae 53 5a b9
       -8.551149e-05 -0.0006585417 -0.00074936426 -0.00020821273
0003b0 24 af 21 b8 3e db e5 38 f5 48 46 b7 c9 86 06 37
       -3.8548504e-05 0.00010960408 -1.1818706e-05 8.0184045e-06
0003c0 95 bf dd b6 20 e9 c7 b6 55 af 87 b7 85 97 04 b9
       -6.6086163e-06 -5.9578015e-06 -1.61749e-05 -0.00012644946
0003d0 8f b6 31 ba ff 9d 5b b7 b3 8a 89 b8 57 2a 1b 37
       -0.00067792175 -1.30902035e-05 -6.558504e-05 9.248578e-06
0003e0 32 e7 49 ba 34 ea e2 b7 cd b4 2b b8 9e 92 a2 b7
       -0.0007701992 -2.7050359e-05 -4.093796e-05 -1.9380179e-05
0003f0 99 33 31 35 82 ba 84 38 9f f7 cb 39 56 bb ce 39
       6.601272e-07 6.32899e-05 0.0003890367 0.00039430958

exp_avg_sq f4 [128, 21]
000000 2c f6 93 33 36 e5 8c 35 9c 3a 91 38 e4 e5 78 38
       6.889999e-08 1.0497522e-06 6.925056e-05 5.934191e-05
000010 ce 49 1a 37 0a 7b de 36 e2 aa bb 36 9c 11 03 33
       9.196299e-06 6.630439e-06 5.5929277e-06 3.051683e-08
000020 0e b0 1c 33 ce ca b2 33 03 94 a3 33 d1 e6 6a 33
       3.64817e-08 8.325661e-08 7.617202e-08 5.4692297e-08
000030 eb 3d bc 35 86 d6 8c 38 8d 50 dc 34 03 47 05 35
       1.4025112e-06 6.715678e-05 4.1036802e-07 4.9649697e-07
000040 9d 26 71 36 d7 5e 9f 38 84 ab 5a 33 d5 9e 37 33
       3.5934274e-06 7.599376e-05 5.0913073e-08 4.2752465e-08
000050 af fb 44 33 eb bc 1f 37 e5 b9 8c 37 23 f9 87 3a
       4.586371e-08 9.521124e-06 1.6775864e-05 0.0010373931
000060 37 7f 3c 3a 29 11 25 39 1b 7b 61 39 27 b8 d0 38
       0.00071905873 0.00015742019 0.00021503532 9.952514e-05
000070 e0 df 38 34 73 92 68 34 52 7b 39 35 c0 0d 46 35
       1.721778e-07 2.1659962e-07 6.9097325e-07 7.3780757e-07
000080 6b 6e 18 37 ca 5c b8 37 84 a6 81 3a da dd e6 37
       9.085615e-06 2.1977718e-05 0.0009891544 2.7521444e-05
000090 74 e9 20 38 8e 9c 0c 39 ee 03 83 3a 0d 93 19 35
       3.8364393e-05 0.00013409762 0.0009995678 5.721093e-07
0000a0 db a8 1c 35 09 46 81 35 b3 76 26 36 19 2b a0 36
       5.8360246e-07 9.631632e-07 2.480502e-06 4.773389e-06
0000b0 cd 8e af 39 89 93 67 39 d8 30 58 38 a6 7f 9a 38
       0.00033484996 0.00022084838 5.1543902e-05 7.3670686e-05
0000c0 ae 77 0c 38 7f 63 26 33 a7 ea 5f 33 2b 42 35 34
       3.349006e-05 3.8740378e-08 5.213465e-08 1.688101e-07
0000d0 27 77 46 34 a9 61 1b 36 7e e6 d4 36 6e bc a6 39
       1.8483534e-07 2.3153646e-06 6.344925e-06 0.00031802378
0000e0 3a c2 f4 36 a6 aa 39 37 25 e5 4a 38 77 79 a5 39
       7.2943776e-06 1.10665915e-05 4.837396e-05 0.0003156175
0000f0 87 1f ee 33 49 6c 23 34 22 6c 92 34 11 ea 37 33
       1.10884734e-07 1.5219952e-07 2.7273296e-07 4.282089e-08
000100 63 f5 bf 34 1a 46 d0 37 55 04 9f 37 9b 86 7b 36
       3.5755065e-07 2.4828176e-05 1.8956294e-05 3.7480265e-06
000110 b0 43 6a 36 6c 2b 0f 36 df e2 04 32 10 e3 19 32
       3.4908117e-06 2.1333935e-06 7.734996e-09 8.9574e-09
000120 d1 da b9 32 a0 d9 b2 32 26 6c 0c 33 4f f3 ff 34
       2.163634e-08 2.0820892e-08 3.269465e-08 4.7674482e-07
000130 55 76 c7 37 23 da 90 34 fb c8 f2 34 2f 5e 18 36
       2.3777751e-05 2.6980806e-07 4.5222245e-07 2.2704587e-06
000140 3a ee d4 37 59 cc 8f 32 a2 75 7e 32 34 86 bd 32
       2.5383302e-05 1.6740318e-08 1.48114925e-08 2.2063524e-08
000150 4e de 88 34 4b eb 85 35 08 e3 8f 38 ce 57 45 38
       2.5493722e-07 9.977751e-07 6.861059e-05 4.7050235e-05
000160 50 60 20 37 c7 27 77 37 5f cf d2 36 a7 8e 15 32
       9.559168e-06 1.4731609e-05 6.282629e-06 8.705377e-09
000170 9b 3c 2f 32 63 d2 14 33 6c dd 22 33 dd 8e 6f 34
       1.0200121e-08 3.465028e-08 3.7919946e-08 2.2310583e-07
000180 af 0f b1 35 a7 a5 88 38 10 fb 6d 35 ee fa bf 35
       1.3192092e-06 6.5158405e-05 8.8654724e-07 1.4303639e-06
000190 f8 82 1e 37 c7 a7 8a 38 c8 a1 c4 32 c1 df 03 33
       9.448027e-06 6.611604e-05 2.2890973e-08 3.0704317e-08
0001a0 46 3d 75 33 da 10 9a 35 db 2a 79 36 ab 1d 84 39
       5.7099236e-08 1.1478799e-06 3.7128837e-06 0.00025199106
0001b0 a9 ff 31 39 75 9a 61 38 d7 bb 26 38 73 52 e4 37
       0.00016975276 5.378803e-05 3.9752424e-05 2.7218111e-05
0001c0 d1 8c 68 33 ba 5b 87 33 c7 70 63 34 7a 6b 5b 34
       5.414478e-08 6.303112e-08 2.118205e-07 2.0435064e-07
0001d0 2e 14 93 35 bd 24 a2 36 8b c0 7c 39 15 52 54 36
       1.0958227e-06 4.832253e-06 0.0002410432 3.163824e-06
0001e0 46 b1 db 36 90 bc 0b 38 e3 0e 82 39 66 0a 1f 34
       6.547346e-06 3.3315795e-05 0.00024806624 1.4811812e-07
0001f0 48 7d 03 34 4b ac 71 34 0c a8 8c 34 ae 44 00 36
       1.2245903e-07 2.2507554e-07 2.6199302e-07 1.9113463e-06
000200 aa 22 03 39 e1 20 bb 38 08 b8 9c 37 1f 5f be 37
       0.00012506047 8.922979e-05 1.8682345e-05 2.269406e-05
000210 33 2d 40 37 21 ce e5 32 32 38 08 33 4c 54 a0 33
       1.1454616e-05 2.6752845e-08 3.1716077e-08 7.465914e-08
000220 7a 89 a6 33 6c 43 30 34 d6 38 2b 36 81 f4 f7 38
       7.754984e-08 1.6415805e-07 2.5514069e-06 0.0001182342
000230 e3 24 e6 35 fd 22 5e 36 61 dc 7e 37 40 dd fd 38
       1.7147071e-06 3.3100944e-06 1.5190891e-05 0.00012105191
000240 a3 78 b1 33 5a 40 d0 33 94 b5 23 34 ac 29 02 34
       8.2641485e-08 9.69746e-08 1.5246616e-07 1.2122354e-07
000250 a6 13 5c 35 23 2a 6c 38 a0 c7 33 38 91 06 f5 36
       8.198498e-07 5.6306028e-05 4.286284e-05 7.3023334e-06
000260 fc 5d 11 37 b1 46 a8 36 66 2e 93 32 10 9d a6 32
       8.664556e-06 5.0150197e-06 1.7134152e-08 1.9396367e-08
000270 52 1b 4e 33 f3 d5 44 33 6c 0c c9 33 0e 2c 91 35
       4.798796e-08 4.5829392e-08 9.3620514e-08 1.0816163e-06
000280 65 12 61 38 e6 41 fa 34 8b 0b bc 35 6c 79 af 36
       5.366131e-05 4.6614076e-07 1.4010451e-06 5.229542e-06
000290 d0 3e 6e 38 ad e7 12 33 52 0b 06 33 d1 e4 58 33
       5.680212e-05 3.4203982e-08 3.1209602e-08 5.0499526e-08
0002a0 6a 9a 57 35 8c 2f 0b 37 f3 79 10 3a f2 53 de 39
       8.0318443e-07 8.296116e-06 0.0005511336 0.00042405684
0002b0 44 30 b8 38 46 f3 9c 38 eb ed 4f 38 bf 6b 54 34
       8.782794e-05 7.483973e-05 4.9574224e-05 1.9783236e-07
0002c0 eb fa 6c 34 c7 7a 1a 35 02 a4 0f 35 55 e6 28 35
       2.2070496e-07 5.7548135e-07 5.3510314e-07 6.2920054e-07
0002d0 0d 37 38 37 88 fc 0a 3a 40 79 82 36 75 ee 24 37
       1.0980072e-05 0.00053019123 3.8884173e-06 9.830682e-06
0002e0 37 65 57 38 9c b4 15 3a aa af d2 34 3c 67 a1 34
       5.1354258e-05 0.0005710812 3.924336e-07 3.00637e-07
0002f0 0f 98 e4 34 5a 02 77 35 a7 fb 08 36 b7 ff 05 39
       4.2578947e-07 9.201809e-07 2.041206e-06 0.0001277913
000300 80 eb d2 38 13 73 98 37 b8 88 92 37 75 64 3c 37
       0.000100574456 1.8173398e-05 1.746822e-05 1.1229063e-05
000310 93 66 34 33 eb 78 4f 33 b3 86 11 34 9e fb 0a 34
       4.2002807e-08 4.8305917e-08 1.355318e-07 1.294379e-07
000320 ca a8 6f 35 79 d8 32 36 0d 68 00 39 88 29 31 36
       8.928006e-07 2.665007e-06 0.00012245793 2.639923e-06
000330 ac 53 96 36 ed 9f 19 37 56 19 0a 39 b6 dc b2 33
       4.480089e-06 9.156746e-06 0.00013170144 8.328918e-08
000340 21 de a2 33 49 53 00 34 64 2b 51 35 3a ea 99 36
       7.584118e-08 1.1951228e-07 7.792171e-07 4.587023e-06
000350 6c d7 93 39 ad 15 76 39 9a 25 21 38 60 f9 ef 37
       0.00028198527 0.00023468463 3.842041e-05 2.8607144e-05
000360 9c 1b d1 37 ed fe ec 33 ad 2c 06 34 30 1e af 34
       2.4927598e-05 1.1035977e-07 1.2495975e-07 3.2618254e-07
000370 bc de a0 34 67 71 49 35 b8 10 d0 36 e1 a6 8e 39
       2.9964383e-07 7.5043357e-07 6.2008294e-06 0.00027208685
000380 b9 54 59 36 60 5d f9 36 30 60 6a 37 f7 47 9e 39
       3.2384835e-06 7.4316486e-06 1.3969882e-05 0.00030189726
000390 89 b7 6f 34 a1 b5 63 34 12 ff 7a 34 97 27 a2 32
       2.2325379e-07 2.1207099e-07 2.3375858e-07 1.8877286e-08
0003a0 47 9a 92 34 c0 03 67 37 fb f9 1d 37 39 79 5e 36
       2.730687e-07 1.3769546e-05 9.416132e-06 3.3151139e-06
0003b0 bb b9 c1 35 41 61 da 35 ab 64 18 31 85 8e 23 31
       1.4433675e-06 1.627057e-06 2.2176134e-09 2.3800635e-09
0003c0 b6 42 11 32 d9 eb 01 32 21 21 a5 32 93 ce ac 34
       8.455279e-09 7.562414e-09 1.9223593e-08 3.21878e-07
0003d0 e0 b1 5e 37 bf 41 a5 34 0b de 3e 35 a9 70 62 35
       1.3273646e-05 3.0781482e-07 7.110363e-07 8.4355503e-07
0003e0 f5 7d 69 37 76 8f 88 32 21 72 10 32 7d 99 22 32
       1.3917209e-05 1.5897722e-08 8.407853e-09 9.46454e-09
0003f0 4d 7e 77 33 ea 49 2c 33 38 2b 30 36 03 7e f9 35
       5.762404e-08 4.0114095e-08 2.62512e-06 1.858862e-06
