models/checkpoint_3100.pth (torch, 255274 bytes, 24 tensors)

policy_log_std f4 [7]
00000000: b1e7 223f 628d 873f 0200 483f 9e6a e53e
00000010: 695a 823f e94b a43f d1ef 12c0
0.63634783 1.0590022 0.7812501 0.44807905 1.0183841 1.2835666 -2.2958872

fc1.weight f4 [128, 21]
00000000: c159 2e3f 5dec 3e3f 74d6 6abe 84d4 c6be
00000010: 907c 0bbf a1eb 6dbe bd6b 78bf c1b6 39bf
00000020: 2733 233f 6b02 943d 0c9b 01be 86a8 af3f
00000030: c311 5bbe 28a5 ddbe c6b7 90bd ff3f 63bd
00000040: b17e 5abf 5653 cbbd f470 f63d db01 a1bf
00000050: cf33 383f 7e52 533f 6bb8 95be 6a26 063f
00000060: aa87 613e b492 83bc 6c3d cebf 535b 0bbf
00000070: e14f dbbe 29fd 043f e3ce 52bd cd17 c13d
00000080: 06a2 343f 24a2 083e c746 223f 25e3 f73d
00000090: ddd9 8dbc 533e c03e 1824 d83e f17e b7be
000000a0: 3bd2 183f d661 febf 4134 273f eb62 f4be
000000b0: 8d91 283f 5ea4 953e f5a8 e33e d452 3dbf
000000c0: 08b9 b73e acea a83e bfd4 bbbe 6881 c7bd
000000d0: 13cb 653e 54b0 063f f431 223f df8c 443f
000000e0: 452c efbd 1c2b f83c 9736 be3e 9e13 413f
000000f0: f4e1 3bbf 527b eb3e 1f67 f6bd 12c7 5d3d
00000100: 35e9 3ebe 1f9e 1dbd 0d9e f8be 5eb4 1ebf
00000110: c7b1 8fbd 48f1 d1be 2047 78bf 1e0a 6a3f
00000120: aeae b63d e8f1 33be 2445 253f 6c7b 1cbf
00000130: 1d40 02bf c619 a5be 2686 d83d b8eb 103d
00000140: 3479 06be 5f67 223f e030 12bf 17a8 acbf
00000150: f77b 373f 5409 32bf 205b 3f3f f71c 233f
00000160: 3c3b 2b3f 4fa0 73bf 6292 9dbe 7871 853e
00000170: b651 a4be 7ceb 123f 03b8 1fbf c328 2b40
00000180: fa29 123f a3e5 083f be45 0c3e 987f 803e
00000190: 386a edbe e8c6 193f 6ff3 373e 5e05 163f
000001a0: 6729 01c0 82a2 28bd 6138 cdbe 7523 9c3e
000001b0: acc7 f73e 8076 9e3e bcad 49bf 780e 81bd
000001c0: 3f48 5f3f efec 56bd 7d44 cc3d a009 f53b
000001d0: 0f5a a0bf ff63 e43d 125f 403e 2fe7 16bf
000001e0: f88c 02bf ec57 31bf 9ba8 9e3e d371 a7be
000001f0: e9c5 313f a162 babf e622 1cbd fdb3 863e
00000200: 889d 2dbf 8d62 b03e bbb2 99bd 72e0 3e3f
00000210: eaf2 083e 381b f53e da11 78be be45 d0bd
00000220: ecda e3bd 5740 fdbe bdaa 23bf abfc c4bd
00000230: 4fe5 fdbd a757 653c e6fa 22bb 8854 dcbe
00000240: 1820 adbb ea01 ffbe 28c7 d23f 03d0 83be
00000250: 5210 0abf 054d f33e 1bdc 393e 34a0 e2bd
00000260: 6069 7fbd 46d5 983e 0004 10bf 7e89 d33e
00000270: 2abc 003e 5816 b0bd 3ed8 bc3f 2a03 833f
00000280: 8130 083f 67e7 993e 0e7d 6abd cd01 d53e
00000290: 2aea cf3e 5fea 773e 698e 213f 4387 86bf
000002a0: 85e6 11be 3459 b3bf eb83 873e f7f0 0b3f
000002b0: 7812 793e 1fd4 2f3e 1bc8 c53e 35ee 4b3f
000002c0: ea85 b1be d556 10be 8d80 c33e 2095 80bf
000002d0: 686e 313e 0e29 1b3d db56 b13d 289c 24bd
000002e0: ea22 883e 581b 873e d184 983e ee86 cf3f
000002f0: 78da 89bf e9f1 88bf 1815 343e ee1a 01bf
00000300: 9dde 59bf ec59 5dbf aa5b 9fbe 5e12 35bf
00000310: 2140 a4be 1683 bc3e 6a0a 1e3c ee04 1d3d
00000320: 5df8 0640 7682 8cbe bfd6 0dbf 406f 8f3e
00000330: 48d3 7e3e ab24 8fbc 5127 02bf 99c6 ee3f
00000340: ce27 16be e876 923f c1e7 83bf bc72 883f
00000350: fdcd 2dbd 1c23 38be 4f26 613e 9e94 733f
00000360: b40c 89bf ff38 eabd 70f8 75be 37a3 9abd
00000370: 8da2 6dbd 5d2b a53c 8ff7 cd3e 2de3 98ba
00000380: 72ec 85be 7924 1ebe 764a 33bf cf8f 00be
00000390: 4b43 6e3f b17b 1fbf b515 d4be d6ab 1b3f
000003a0: 8182 8c3f edc4 573e fa3b 1cbf cd7c cbbf
000003b0: 8fd3 8c3f d14d dc3e 932b 0a3f 0177 bebe
000003c0: d3ed b43d 212c 003e 8031 4c40 e284 ffbb
000003d0: cc50 ddbd 2e08 063e 0e20 e93e ab7c 533e
000003e0: e860 eabd 3810 9f3e bd29 38bf 6504 9b3f
000003f0: d819 aabe 2424 35be 0340 27be 488d 833e
0.68105704 0.7457941 -0.2293337 -0.38834012 -0.5448694 -0.23234417 -0.97039396 -0.72544485
0.6374993 0.07227024 -0.12656802 1.3723304 -0.21393494 -0.43290067 -0.07066302 -0.055480953
-0.85349566 -0.099280044 0.12033263 -1.2578691 0.71954054 0.8254775 -0.29242262 0.52402365
0.22024408 -0.016061164 -1.6112494 -0.54436225 -0.4283438 0.5194879 -0.051466834 0.09428368
0.7055973 0.13343102 0.6338925 0.12103871 -0.0173158 0.3754755 0.42215037 -0.35839036
0.59695786 -1.9873607 0.6531411 -0.47731718 0.6584709 0.29226965 0.4446484 -0.7395451
0.35883355 0.3299154 -0.3668575 -0.09741479 0.22440748 0.52612805 0.6335747 0.7677745
-0.116783656 0.030293994 0.37151024 0.7542056 -0.7339165 0.45992523 -0.120313875 0.054144926
-0.18643649 -0.038480874 -0.48558083 -0.6199397 -0.0701633 -0.41004395 -0.9698353 0.9142169
0.08920036 -0.17572749 0.64558625 -0.61125827 -0.5087908 -0.32246226 0.10572462 0.03538105
-0.13132173 0.6343898 -0.5710583 -1.3488797 0.7167353 -0.69545484 0.7474842 0.6371607
0.6688726 -0.95166487 -0.30775744 0.26063132 -0.3209359 0.5739057 -0.62390155 2.674363
0.570953 0.534754 0.1369848 0.25097346 -0.463701 0.6006913 0.17963956 0.5860194
-2.018152 -0.041170605 -0.40082076 0.30495802 0.48394525 0.30949783 -0.7878072 -0.06301588
0.87219614 -0.05247205 0.099740006 0.007477954 -1.2527484 0.11151885 0.18786266 -0.5894651
-0.5099635 -0.69274783 0.3098801 -0.32704028 0.6944261 -1.4561349 -0.03811922 0.26309195
-0.678185 0.34450188 -0.07504793 0.74561226 0.13373914 0.4787233 -0.2422556 -0.10169552
-0.111257404 -0.4946315 -0.639324 -0.09618505 -0.12397253 0.013997949 -0.0024868785 -0.43033242
-0.005283367 -0.49806148 1.6467028 -0.25744638 -0.5393115 0.475197 0.1815037 -0.110657126
-0.062356353 0.29850215 -0.56256104 0.41315836 0.12571779 -0.08598012 1.4753492 1.023534
0.5319901 0.30059358 -0.057248168 0.41602936 0.4060834 0.24210499 0.63107926 -1.0510029
-0.14248092 -1.4011598 0.26467833 0.5466456 0.24323452 0.17170762 0.3862923 0.7966035
-0.3467248 -0.14095624 0.38184014 -1.0045509 0.17327273 0.03788095 0.086591445 -0.040187985
0.26589137 0.2638805 0.2978883 1.6213052 -1.0769796 -1.0698825 0.17586172 -0.50431716
-0.85105306 -0.86465335 -0.31124622 -0.7073115 -0.32080176 0.3681876 0.009646038 0.03833478
2.108909 -0.27443284 -0.554058 0.28014565 0.24885285 -0.01747354 -0.5084124 1.8654357
-0.14663622 1.1442537 -1.0305101 1.0660014 -0.042432774 -0.17982143 0.2198727 0.95148647
-1.0707002 -0.114366524 -0.24020553 -0.07550662 -0.05801635 0.020162279 0.40227935 -0.0011664383
-0.26156956 -0.154436 -0.70035493 -0.12554859 0.9307143 -0.62298113 -0.4142281 0.60809076
1.0977327 0.21071215 -0.61029017 -1.5897461 1.1002063 0.4302812 0.5397274 -0.37200168
0.08834424 0.12516834 3.1905212 -0.0077978233 -0.108064264 0.13089058 0.45532268 0.20653026
-0.11444265 0.3106706 -0.7193869 1.2110716 -0.33222842 -0.17689568 -0.16333012 0.25693727

fc1.bias f4 [128]
00000000: 5a12 eabe 388e fa3e a7c6 143f 3f0d 00be
00000010: 838b 113f 2efa b83e 6764 cfbd 677d c83e
00000020: 231f b03e e3c6 b2be 7e92 2ebe a89d 1d3e
00000030: aead 1a3e fffe 173e 00ae 1dbf 2149 02bd
00000040: 9ffd 643d 9739 c13e 7f8b aebe 54ae 473e
00000050: 454d 2ebf e6fc 92bd 9b43 ebbe a4f4 72bc
00000060: c0a1 ecbd c18a e13e 0d38 a43c f661 c23e
00000070: cfe1 383e 5de9 24be 6943 033f 2721 0dbe
00000080: 67ce 9fbd 545f 9e3e b746 123f 337d e23e
00000090: 7518 023f 0f9d a93d 9840 573e 1939 b93c
000000a0: 88ee 7bbe 1ec8 993c 2f9a 6d3c 7a0a 253e
000000b0: 8c47 cb3d f769 443a 3325 7bbd 0875 133f
000000c0: 97b5 ed3e d2f2 14bd b5b4 673e 17c6 d33e
000000d0: 092e 84bd 2659 0dbf 7945 363d 6b13 923e
000000e0: a4fb dfbe 85f4 15be 6cc8 0fbe 40ee 16bf
000000f0: 5717 13bd 3afd 94be 2a6a 17bd 7eab cbbe
00000100: 8be7 333e b90a e6be 1ef7 8cbe 7b68 10bf
00000110: 31ca 3e3e 10d7 d13d beec a7be 4819 483e
00000120: e04d b13e 4354 a63e 0e16 07bf aef7 d1bd
00000130: aa1c b93e efa3 2bbf 0deb af3e f583 aebe
00000140: a78f 6c3e e053 e13d a3a4 073e b4d1 3dbe
00000150: 3db5 333f 652c 0ebf ad10 fabd e3e4 94be
00000160: 86e9 bcbe 7cec a2bd 97e6 4ebf b9ae 053f
00000170: 6447 a23d ca34 2f3f a431 cabc 0b7e 193f
00000180: fb05 c5be e9a6 c43d 5255 873e e226 31be
00000190: a355 a4be 84ac 28bf 708d 4ebe 71a9 6fbd
000001a0: d439 cd3c 1d34 8a3d 15d8 a63e 6874 49bd
000001b0: 5eca 273f 0292 f0bd 162b 28be 4256 40be
000001c0: 0677 253f 2ac6 6bbd 8ed4 863e 0b66 31bf
000001d0: de13 233f 8d06 b5be 1f87 d73e d101 113e
000001e0: 708f 0fbf 9348 e03e 50ef b63e 2dec ae3e
000001f0: 912e 93be 41f9 3c3d 45c9 9e3e 33e0 733e
-0.45717126 0.4893663 0.5811562 -0.12505053 0.56853503 0.36128372 -0.10126572 0.39158174
0.34398755 -0.34917364 -0.1704807 0.15392172 0.15105316 0.14843367 -0.6159363 -0.031808022
0.055905934 0.3773925 -0.34090802 0.19500095 -0.68086654 -0.07177143 -0.45950016 -0.014828835
-0.11554289 0.44051173 0.020046258 0.37965363 0.18054889 -0.16104646 0.51274735 -0.13782178
-0.0780304 0.30932105 0.5713915 0.44236144 0.5081857 0.0828191 0.21020734 0.022610234
-0.24602711 0.018772181 0.014502092 0.16117278 0.09925756 0.00074925966 -0.061314773 0.5760045
0.46427605 -0.036364384 0.22627528 0.41362068 -0.06454093 -0.55214155 0.044499848 0.2853044
-0.43746674 -0.14644058 -0.14041299 -0.5895729 -0.03591093 -0.29099447 -0.03696648 -0.39779276
0.17568795 -0.44930056 -0.27532285 -0.56409425 0.18631817 0.10246098 -0.32797807 0.19540894
0.34629726 0.32486162 -0.5276803 -0.10252319 0.3615468 -0.6704702 0.34359017 -0.3408505
0.23101674 0.11002326 0.13246398 -0.18537027 0.7019842 -0.5553649 -0.12210212 -0.29080877
-0.36896914 -0.07955262 -0.808206 0.5221973 0.07923773 0.68439925 -0.024681874 0.5995795
-0.38481125 0.09602148 0.26432282 -0.17299989 -0.32096586 -0.6588824 -0.20171142 -0.0585112
0.025051989 0.06748221 0.32586733 -0.04918328 0.6554316 -0.11746599 -0.16422686 -0.18782905
0.6463474 -0.05756203 0.2633404 -0.6929633 0.6370219 -0.3535656 0.42095277 0.14160849
-0.56078243 0.4380537 0.35729456 0.34164563 -0.28746465 0.046136145 0.3101293 0.23815994

fc2.weight f4 [128, 128]
00000000: dbcf b13e d389 4ebe afa1 e5be e24b 853e
00000010: 33d7 d93d 92c2 f7be 1edb 77be 808f 443f
00000020: e3bf 93be ee43 8e3f f435 583f 2a60 513d
00000030: d096 60be 24e7 183f 8fa9 2d3f 01de 1fbe
00000040: 8d99 28b8 ad07 0ebe b09f 383e b811 c03e
00000050: cace 943d 980d 323f 707a 95be 72ff dbbf
00000060: b930 11be 6b4f 8e3c 77fb 21bf 1f14 78bf
00000070: e1b3 63be 9893 a73e 1d5d f23f b827 3d3f
00000080: f13d 6d3e 6f5c 383e 0503 2fbf 85b6 bebd
00000090: b9cc 55bc 482c 5c3e fa5e 4ebf 75d0 17be
000000a0: 0ef0 63bf cf5a 87bd 3191 263f 7936 8e3c
000000b0: ca6e 883e 85a2 78be de7a 543f f45b 2fbf
000000c0: 4efa febe 01f6 073f b487 5bbd cb7d 17bf
000000d0: 97cd 09bf c1e9 a1bf 8e79 cfbd 6d3f 78be
000000e0: f5f5 883c 8523 a3bd 0d8b 8e3e 8280 8abe
000000f0: 5f48 42bf 51b3 163e a537 f63d cc63 f7bc
00000100: 1ac0 103f 6189 69bf 49fa 003f 62ce b7bf
00000110: 0c94 173e 3128 76be 7d36 d3bb d3f5 6b3d
00000120: 170b d4be 6fe8 1bbf 0559 f13f e537 5ebc
00000130: 06ed 28bd 34d2 bd3e 4e6a 15bf 057b 343d
00000140: b61f 45bd 57a4 a8bd 1432 343f 0107 693f
00000150: ab19 3abf cde7 2d3f 25a6 afbe d750 25bf
00000160: 4f3f e43d 4089 013e 0b79 383f 9c37 6ebf
00000170: b863 e3bd 34e7 a6bd 7d08 813e 1cce 6bbe
00000180: 40b2 84be a9e0 89be ed58 a2be 066b 893c
00000190: f6ab fe3e 2cea 703e 4ee0 81be bb28 243e
000001a0: b2a4 00be 223d 0c3f 7161 f7be 3ad2 b53e
000001b0: aac4 033e e269 93be ce10 6e3e f35b 9b3e
000001c0: 25af 723d c653 073f 4aa3 93bf e9ee 69be
000001d0: 2668 6abd c139 cebd 20a5 e23f a19d 903d
000001e0: b349 fc3e 918e 403f 429d babe 8e24 32bf
000001f0: 51e6 0e3f 7c66 943e 3b02 25bf 0e44 67bd
00000200: 0047 bcbe 266c a13f f8f6 42bf b358 1cbe
00000210: d50b 123f 3c39 d3be 3873 153d b02f 3ebd
00000220: 66b9 5b3e 63cb 8fbe 2537 5c3e 49e2 c43e
00000230: 4ada 213f 6b75 58bd d81d b83f c9f5 80bf
00000240: 6cc4 0e3f 24f7 aebe 5780 afbe 70d8 963f
00000250: 7341 09be 5b9a 64be 61bc 07bf da81 3cbe
00000260: 87b5 0cbf a7db 31be b685 e2be fafd 6cbe
00000270: b915 c0be c672 44be 1885 cabd 4c61 f0bc
00000280: 341b 823f 35c2 1cbd 72f8 2abf 7ade 713e
00000290: 060f 35bf 7716 85be 95bd 163d 67df bc3e
000002a0: faac aebe f9a4 133f 5182 de3e 9538 d23e
000002b0: 43aa 163f 2f61 c4be b04c b83e 6fe9 9bbf
000002c0: 1d65 b9be cd48 ecbe 037b b33f c25f d7be
000002d0: ac3c 18bf 55ab dc3e 7436 c63e fb6b aebf
000002e0: a521 923e 505f cdbd a8ab 85be c393 b13e
000002f0: da9d 73bf a5d6 88bd 1041 0cbe be98 05bf
00000300: ed7e d33d eeaa 83be 166a 57bd 403d 8abe
00000310: 4c9b 323e b7a0 2ebd a5a4 f9be ab38 a33d
00000320: 4976 e4be e82f a0bf 7d96 d8bd 4a24 27be
00000330: ef4c bc3d a7a0 703f 1228 003e b54f c3bf
00000340: 364b 8bbd c158 e2bc 5118 0b3f 8b26 22bd
00000350: 1640 90bf 2433 2abd e026 fcbe 6642 a3bd
00000360: 637e 9fbd e641 c2be cbc7 263f 96ac 99bf
00000370: 4c4e 8a3e ae95 58bf b84c d03e 795e 8c3e
00000380: 1f3b 2ebe 3c98 6ebf 4512 8e3e 8637 2bbf
00000390: 3876 4a3e 6ae6 673f 0a1c 0ebe 79d0 ccbc
000003a0: 635a 473d 940e a43e b151 2abf 0127 5b3f
000003b0: f46e 15be 5d9b dc3e df24 f6be 3a61 dabc
000003c0: 0a01 bebe aa1d 203f 6e74 6c3e 30fc cb3e
000003d0: 7d13 403e 960c 97be 7483 f43e 417f 253e
000003e0: 707d bd3e 8afc 563f 3c13 4fbd 4971 933f
000003f0: 8c74 3d3f ff7a 6a3f 181b a1bd af73 b73a
0.34728894 -0.20169763 -0.44849917 0.26034456 0.10636749 -0.48390633 -0.2420468 0.76781464
-0.28857335 1.111448 0.84457326 0.0511171 -0.2193253 0.5972769 0.6783685 -0.15612032
-4.0197327e-05 -0.13870116 0.18029666 0.37513518 0.072660044 0.6955199 -0.29194975 -1.7187331
-0.14178742 0.017371854 -0.6327433 -0.969057 -0.22236587 0.32729793 1.8934666 0.7388873
0.2316816 0.1800401 -0.6836398 -0.093121566 -0.013049298 0.21501267 -0.8061367 -0.14825614
-0.8903817 -0.06609117 0.65065295 0.017359959 0.26647025 -0.24280746 0.8299998 -0.68499684
-0.49800342 0.5310975 -0.053596213 -0.5917632 -0.5382933 -1.2649461 -0.101306066 -0.24242945
0.016718844 -0.07965759 0.27840462 -0.2705117 -0.7589168 0.14716841 0.12022332 -0.030198954
0.56543124 -0.9122525 0.50381905 -1.4359858 0.14802569 -0.2403877 -0.0064457045 0.057607483
-0.4141471 -0.6090154 1.8855292 -0.013563131 -0.04124167 0.37074435 -0.58365333 0.044062633
-0.048125945 -0.0823447 0.70388913 0.9102631 -0.72695416 0.67931825 -0.34306446 -0.64576477
0.11144888 0.12650013 0.72059697 -0.93053603 -0.11103004 -0.08149567 0.2520179 -0.23027843
-0.25917244 -0.26929215 -0.3170847 0.016774666 0.4974057 0.2352683 -0.25366443 0.16031162
-0.12562826 0.5478078 -0.4831653 0.35511953 0.1286799 -0.2879172 0.23248598 0.3034359
0.059249062 0.52862203 -1.1534207 -0.22845043 -0.05722823 -0.100696094 1.7706642 0.07061315
0.49274978 0.7521754 -0.36448103 -0.6958703 0.55820185 0.2898444 -0.6445653 -0.056461386
-0.3677292 1.2611129 -0.76158094 -0.15268211 0.57049304 -0.41254604 0.036486834 -0.046432197
0.21457443 -0.2808486 0.21505411 0.38453892 0.6322371 -0.052846354 1.4384108 -1.0075008
0.55768466 -0.34172928 -0.34277603 1.1784801 -0.13403873 -0.22324507 -0.5302182 -0.1840891
-0.5496449 -0.17368947 -0.44242638 -0.2314376 -0.37516573 -0.19184408 -0.09888667 -0.02934327
1.0164552 -0.038271148 -0.6678535 0.23620024 -0.7072605 -0.25993702 0.036801893 0.36889192
-0.34116346 0.57673603 0.434588 0.41058794 0.5885355 -0.38355395 0.35996008 -1.2180613
-0.36209956 -0.46149293 1.4021915 -0.42065245 -0.5946758 0.43099466 0.3871342 -1.3626703
0.28541294 -0.10027945 -0.26107526 0.34683046 -0.9516274 -0.06681565 -0.13696694 -0.5218619
0.103269435 -0.25716347 -0.052591406 -0.26999855 0.17442054 -0.04263374 -0.48758426 0.07969793
-0.44621494 -1.251462 -0.10575578 -0.16322437 0.091943614 0.93995136 0.12515286 -1.52587
-0.06801455 -0.027630212 0.5433398 -0.03958754 -1.1269557 -0.041552678 -0.4924841 -0.07971649
-0.07787778 -0.37940902 0.6514861 -1.2005794 0.2701286 -0.84603393 0.40683532 0.27415827
-0.1701474 -0.9320104 0.27748314 -0.668816 0.1977166 0.9058596 -0.13877884 -0.025001751
0.048670184 0.32042372 -0.665309 0.8560639 -0.14593107 0.43087283 -0.48075005 -0.02665769
-0.37110168 0.62545264 0.2309129 0.3984084 0.18757434 -0.2950179 0.4775654 0.16161825
0.37009764 0.83979094 -0.050555453 1.1518947 0.7400596 0.9159393 -0.07866496 0.0013996268

fc2.bias f4 [128]
00000000: fa90 e7be 1960 043e 2e98 b63d 1619 d3be
00000010: 7096 98bd 4bf9 93be 2f92 0c3f 6dfe c5be
00000020: abe8 92be 167e b63e 9585 d43e 62c3 283f
00000030: de6b 1ebe 9116 5e3c d415 ff3e 7b2d 933c
00000040: 56f1 803c 85fb 933e 8bcc 3b3e 1673 303e
00000050: 09c2 163d 0e45 e5bd 7139 7c3e 44a7 02bf
00000060: 6785 9bbe 8976 0e3d a7ad f63d 0251 48bd
00000070: 79ba 113f 7000 9b3d 3b02 33be 9c6f d5be
00000080: aa90 c33e 4440 4a3f aea3 d63e 68ce bc3e
00000090: f5f9 b5be 7433 b2be 0f8b b6be 6c54 183f
000000a0: 0642 623e 6419 06bf e03e f8be 94d4 b8bd
000000b0: 90ef e1bd 41de 2e3e 53bf 9f3e 1cda 73be
000000c0: 517e 01be d09f 7f3e dc16 00be dc2f 403e
000000d0: 5113 5bbe dba7 0cbf 5aa5 123e 35b3 50be
000000e0: 5c45 34be 7b04 b4be b16f 42be 4d8d 54be
000000f0: f8b8 513d ea7b b43e b2eb 96be d103 aa3c
00000100: 7537 183f ba23 dcbe a58a bd3e 813a e03d
00000110: af70 553d 1c5d 793e 610a 8b3e 4c88 343e
00000120: 8609 be3e 7dee f8bd b5ac d23d 795e bbbd
00000130: 857f 62be c1c7 25be 3999 b83d 0507 13bd
00000140: 2a32 62be f6be ae3e 9d4e 18bd 95d7 c9be
00000150: f88a d0bc 959a 233e cc46 4bbd e3c0 31bd
00000160: c7a2 3ebe ce25 b5bd a060 a43a 315e 6c3e
00000170: 36d6 73be 8def 153e ff51 5f3e 32cc 7c3e
00000180: 8e22 debd 171a 11bf 41b8 0ebc fc42 e7bd
00000190: a903 413e 17f0 efbc f145 b23d 221f 37bc
000001a0: 4040 03bf 09b0 08be 8441 583d 479a d23e
000001b0: 2a6d 8e3e ccc6 8d3e 09ca 7abe 9fe9 a23e
000001c0: f82b 50be 1701 733d ff91 c2be 4382 8cbb
000001d0: 4aa6 10be 0af7 363e 6fc0 41be 926f c23e
000001e0: 7e87 20be a223 82be 948f 17bf f979 9c3d
000001f0: 3262 a7be 7a50 13be 8627 cabe 7aab dd3d
-0.45227796 0.12927283 0.08915745 -0.41230077 -0.07450569 -0.28901133 0.5491056 -0.38670674
-0.28693137 0.3564307 0.41508165 0.6592313 -0.15470836 0.013555185 0.4982134 0.017966023
0.015740078 0.28902832 0.18339746 0.17231402 0.03680614 -0.11194812 0.24631287 -0.5103648
-0.30375215 0.034781013 0.1204484 -0.04890538 0.5692516 0.07568443 -0.1748132 -0.41686714
0.38196307 0.7900431 0.41921753 0.36876225 -0.35542265 -0.3480488 -0.35652968 0.5950382
0.22095498 -0.52382493 -0.4848547 -0.09024921 -0.11032021 0.1707697 0.31200656 -0.23813671
-0.12645842 0.24963307 -0.1250872 0.18768257 -0.21394087 -0.5494363 0.14320889 -0.20380862
-0.17604584 -0.35159668 -0.1898792 -0.20757027 0.05120179 0.3525079 -0.29476696 0.020753773
0.5945962 -0.42996007 0.3701984 0.10948659 0.052109417 0.24351925 0.27156356 0.17630118
0.3711664 -0.12154863 0.102868475 -0.091488786 -0.22118957 -0.16189481 0.090136 -0.035895366
-0.22089449 0.34130067 -0.037184346 -0.3942229 -0.02545689 0.15976937 -0.049628064 -0.04339684
-0.18616782 -0.08845101 0.0012541004 0.23082806 -0.23812184 0.14642163 0.21808623 0.2468727
-0.108464345 -0.56680435 -0.008710922 -0.11292073 0.18849052 -0.029289288 0.087047465 -0.011176856
-0.5126991 -0.13348402 0.052796856 0.4113333 0.2781766 0.27690732 -0.24491133 0.31818864
-0.20329273 0.05932721 -0.3800201 -0.0042879893 -0.14125934 0.17867675 -0.18921064 0.37975746
-0.15676686 -0.2541781 -0.5920346 0.07640452 -0.32692105 -0.14386168 -0.3948328 0.10823722

policy_mean.weight f4 [7, 128]
00000000: b651 643e b62f 2f3d 70f7 90bc 5984 d63b
00000010: 3a7a 08bb e7c7 81bc e49b 30be 78a2 bf3c
00000020: 6685 81bd 3be7 c53d 7b7c 6a3c d66e 2cbd
00000030: 286e cabc 261b 54bd 96e0 ce3d 1d85 cdbd
00000040: 2d51 f6bb 44f8 cc3c a524 f13b 2d30 9dbd
00000050: f5e3 fbbc 3d50 c3bb 56f1 4abd 90be adbc
00000060: fe07 27bc e52e 73bd 470c 9dbd 450f febd
00000070: 161b a4bd d416 b6ba 1e9e 96bd 59e6 d23c
00000080: 047a 59bd 712a b63c 30f7 1cbd 5bd7 743d
00000090: f283 21bd ece9 f73d 07bf abbc 33ab b83c
000000a0: a359 1f3d bc7d ac3d a1f8 d9bc b3ca d93d
000000b0: 85fa b03c 8824 e5bd a225 02bd 2b5f e03d
000000c0: 2f71 b9bc bce5 933d 9370 e5bc 92df 69bc
000000d0: 2950 593d 0012 0438 2b12 2fbd 2d37 913c
000000e0: 1cbb f4bd badd 8a3c a829 8ebd 7cc0 883d
000000f0: 8845 efbc f9a2 97bc dde6 903d 74ba 693b
00000100: 8a78 0fbc c52d febd 8d9e 09be 3c42 493c
00000110: 4572 e43d 91fd dabd cc53 72bc 95c4 bdbd
00000120: 5f87 93bc 0660 d3bd 20af 96bd f613 463d
00000130: 1f32 a5bc 7ed0 d73c 8624 cebd b818 a23d
00000140: 0174 92bc eeb1 ee3c 35d6 1f3a d629 d93d
00000150: ba52 dd3d b55b 71bd 0af2 d83c ef43 cdbc
00000160: 668b c93d 7dd6 c2bb f56d dc3d d433 be3d
00000170: ccb8 8f3d 56ff 81b8 c5f7 063e 90ae 783d
00000180: 5524 9abc 6376 d83d ae65 81bd 4eef 603e
00000190: 0a6b 7e3d 05b5 32be a7f7 b03d ea76 92bc
000001a0: 3c7c b0bc 8d6e 383d b25b 4f3e dc12 cebd
000001b0: c9e7 84bc 26ed 2dbd 929e b5bd 07d5 c73b
000001c0: 788c 84bd 8f19 cc3d bc7d a2bd 667e dcbd
000001d0: 6a06 d03d 84e4 1e3e d101 0b3e bae7 613d
000001e0: 2775 383d d8c7 fd3c b1f1 96bc a439 863d
000001f0: cc59 bdbc e2b4 69bd 29a1 303d 5b73 aabd
00000200: 630c 713d 621e 44be a13b 633e d182 1d3e
00000210: 43f6 bc3c 66f8 d13d 497d 31be 66c7 a2bd
00000220: bcbb 183e c01c abbd bbd5 03be e37b 653d
00000230: 7d8f cb3e 239f 703d 56a8 7ebe af91 8bbd
00000240: 029a 05be 8cc9 c6bd c1e5 a63c ad77 de3d
00000250: deb5 3d3e 4d99 84bb 77c1 b93d 67da 333e
00000260: 23e1 59bd c5d3 873e ad0b a2bc 9586 163e
00000270: af49 4a3d 77f0 45bd fbc4 fc3d b128 933d
00000280: 11a1 56bd 31a1 e43c c31f ae3d dd03 0c3d
00000290: 99cd debc 395b 3fbd 9725 0bbb 09ad 023d
000002a0: cbc4 613e 69b7 a5bc ebc1 cd3d 2a01 9ebc
000002b0: 45b8 493c b687 c33d ecb6 f13c 035f 793e
000002c0: eace 67ba ad0e 503d 0a09 04bd a516 0fbd
000002d0: 8cbc 103e 37b2 713e c930 833d 37e6 09bd
000002e0: bb2c 0c3d 0f2a ae3d 8407 3c3e dc44 823d
000002f0: 8cc5 d2bd 8885 ffbc 3e8b 2f3e ec2a 633d
00000300: 6d15 6bbc f6db 623e 78ae fb3c 99c3 51bd
00000310: aeb3 3c3e a323 903c 68dc c93b 6681 993d
00000320: c999 80ba 80fc 1fbe 6b55 c6bc 4753 08bd
00000330: e11a 06bd 5e56 86bd 8c9e 8d3c 6747 9dba
00000340: 9c47 9fbe 44c9 113d 2b03 513c 973d cbbc
00000350: 5da7 4a3d d5bb 3ebe 03ea 893d 472b b7bc
00000360: 9a56 753e ec03 1a3c 2b00 1abe 87ab c0bd
00000370: d952 b03d d3d9 1b3d e6d4 aebb 19ce 0e3d
00000380: ff80 38bd 7853 13be 6d69 0c3e 54b0 ffbd
00000390: cdb3 dabd e20d 213d 0b5d dc3d 0d54 ff3c
000003a0: 0907 e03d b501 75be 33e1 19be ad00 c43c
000003b0: b049 3d3a b93e 64bd ede8 6a3d 4fe7 de3d
000003c0: 8ff8 cfbc 8669 e3bd 5500 6abc 7d9d e13d
000003d0: efec c9bd 05eb 6fbe c30e 8ebc d499 6a3e
000003e0: b5d0 163e 1712 a83d efb8 403d 6f09 04bc
000003f0: af77 b63d f024 813d cc7d d03d a757 d8bd
0.22296795 0.04277011 -0.017696112 0.006546539 -0.0020824806 -0.015842391 -0.17246968 0.0233929
-0.06324272 0.09663244 0.014311905 -0.04209789 -0.02471073 -0.051783703 0.1010143 -0.10035155
-0.007517001 0.025020726 0.0073591047 -0.076752044 -0.030748347 -0.005960493 -0.049546562 -0.021209031
-0.010194777 -0.059370894 -0.07668357 -0.12405256 -0.08012979 -0.0013892301 -0.07354377 0.025744604
-0.05309488 0.022237035 -0.038321674 0.05977569 -0.039432473 0.12105164 -0.020965112 0.022542572
0.038903844 0.084224194 -0.026607813 0.10634365 0.021603832 -0.111886084 -0.03177417 0.10955652
-0.022636978 0.07221553 -0.028007781 -0.014274495 0.053054962 3.1488016e-05 -0.042741936 0.017726505
-0.11949751 0.01695143 -0.06941539 0.066773385 -0.02920796 -0.018510329 0.07075284 0.0035664113
-0.008756766 -0.124110736 -0.13439389 0.012283858 0.11154608 -0.10692895 -0.014790487 -0.09266011
-0.018008886 -0.103210494 -0.07357621 0.04835888 -0.020165501 0.026344534 -0.1006556 0.07914871
-0.01787758 0.029137578 0.0006097288 0.10603683 0.108067945 -0.05892535 0.0264826 -0.025056807
0.09841041 -0.005945979 0.1076316 0.09287229 0.07017669 -6.1987594e-05 0.13180454 0.06071335
-0.018816153 0.105694555 -0.06318222 0.21966287 0.0621138 -0.17451866 0.08640986 -0.017878968
-0.021543615 0.045027304 0.20249823 -0.10062191 -0.016223805 -0.04246249 -0.088681355 0.006098393
-0.06472105 0.099658124 -0.07934138 -0.10766296 0.101574734 0.1551686 0.13574912 0.055152632
0.0450336 0.030979082 -0.018425794 0.06553963 -0.023114108 -0.05705727 0.043122444 -0.083227836
0.058849704 -0.19152215 0.22190715 0.15381934 0.023066645 0.10252456 -0.17332949 -0.079481885
0.14915365 -0.08355093 -0.128745 0.05602635 0.3975791 0.058745515 -0.24868903 -0.06814896
-0.1304703 -0.09706411 0.020373227 0.1086267 0.18526408 -0.004046595 0.090701036 0.17563783
-0.053193223 0.26528755 -0.019780958 0.14699776 0.049386676 -0.04832503 0.123422585 0.07185496
-0.0523997 0.027908893 0.08502152 0.03418337 -0.027197646 -0.046717856 -0.0021232122 0.0319033
0.22047727 -0.020229058 0.100467525 -0.019287664 0.012312 0.09547369 0.02950617 0.2435265
-0.0008842783 0.050795246 -0.032235183 -0.034933705 0.14134425 0.2360314 0.064057894 -0.033666816
0.034222346 0.08504116 0.18362242 0.0636079 -0.10291585 -0.031191602 0.1714296 0.055460855
-0.01434837 0.22154221 0.030722842 -0.051211927 0.18427917 0.017595118 0.0061603077 0.07495384
-0.0009811457 -0.15623665 -0.024210652 -0.033282544 -0.032740477 -0.06559442 0.017287515 -0.0011999429
-0.3110932 0.035592332 0.012757103 -0.024809642 0.049476016 -0.1862634 0.06734087 -0.022359503
0.23958817 0.009400349 -0.15039127 -0.09407716 0.08609552 0.03804953 -0.005335438 0.03486452
-0.045044895 -0.1438731 0.13712092 -0.12484804 -0.106788255 0.03931988 0.10759934 0.031168008
0.10938842 -0.23926432 -0.15027313 0.023926103 0.0007220758 -0.05572388 0.05735104 0.10883962
-0.025387077 -0.111041114 -0.014282306 0.11016367 -0.098596446 -0.23429497 -0.017341023 0.22910243
0.14728053 0.08206575 0.047051366 -0.00805889 0.089095466 0.063058734 0.10180244 -0.10563593

policy_mean.bias f4 [7]
00000000: eead b7bd bd39 8abd cbee a33d 5850 cd3c
00000010: 0baf e8bd e4b9 06bd dbc3 98bc
-0.08968721 -0.06749294 0.080045305 0.025062725 -0.11361512 -0.032892123 -0.018648079

value_head.weight f4 [1, 128]
00000000: fa4f 10c1 c43e 1441 5fbd 1fc1 eeb0 1041
00000010: 9cbb 1141 72ed 1441 056b 1741 e895 3041
00000020: 6df0 0941 25b9 0bc1 3610 0dc1 5057 16c1
00000030: 4902 fd40 c00e 08c1 7d58 f540 352b 0e41
00000040: 4599 ef40 ff90 01c1 5b43 cec0 9dba 1bc1
00000050: 3a9d 1641 3696 03c1 0ed3 0dc1 d2c6 0641
00000060: 9a1f 1a41 5ad8 0441 3f0e 03c1 4ad0 0941
00000070: 96d6 29c1 4812 0ac1 9ade 0d41 acd5 0d41
00000080: 2817 0b41 e48d 16c1 6675 19c1 34ce 0941
00000090: 5720 1741 16a0 1841 2c43 08c1 0617 0fc1
000000a0: a746 0c41 ca27 1d41 60bb 0f41 f4fc 00c1
000000b0: 9ff7 f240 0120 3ac1 06e3 17c1 0c85 01c1
000000c0: 54d2 0a41 e5c9 0541 3dfc 0341 12f4 11c1
000000d0: d70e 0841 269c 0241 873d 0a41 7ef1 1941
000000e0: 48fc 0c41 4919 1941 e355 0141 b6b9 1141
000000f0: e3fd 0dc1 d25b 12c1 7cea 1241 1383 0cc1
00000100: fe8a 0b41 1969 0741 74a0 16c1 5301 0fc1
00000110: 00a0 ccc0 305a 13c1 4a8c 13c1 7cf8 21c1
00000120: 353b 1d41 4495 07c1 0ab0 14c1 5ac0 0c41
00000130: 64b8 2541 fe29 f340 ad06 09c1 90cc 0d41
00000140: 682d ffc0 27df 0cc1 16a0 0bc1 5ec7 ff40
00000150: 3b12 08c1 c719 1441 31fc 1dc1 731c f140
00000160: e6f5 fcc0 66a1 0641 4508 1241 ee49 0cc1
00000170: 9c1f dcc0 70f9 1a41 8b87 e9c0 86fb 0e41
00000180: a501 1b41 11b3 e840 64ae e140 16be 14c1
00000190: 9eef 1a41 325f 15c1 9d4a 23c1 e239 e240
000001a0: 6af5 1541 dde1 0a41 0f09 1a41 0e8b 17c1
000001b0: ecf3 0ec1 0e30 22c1 829d 0041 aa02 0b41
000001c0: 9874 14c1 f111 1241 fa28 0841 241d 09c1
000001d0: 0c9e 0c41 7394 1b41 5825 11c1 4513 0ec1
000001e0: 644b 14c1 e22c 0d41 38aa f740 0c33 0ec1
000001f0: cb94 0841 155f 1041 81c5 fb40 8384 0fc1
-9.019526 9.265324 -9.983733 9.043196 9.108303 9.30797 9.463628 11.036598
8.621198 -8.732701 -8.816458 -9.396317 7.906529 -8.503601 7.667052 8.885549
7.4874597 -8.097899 -6.445722 -9.73306 9.413385 -8.224173 -8.864027 8.42354
9.632715 8.30282 -8.190978 8.613352 -10.614889 -8.629463 8.866846 8.864666
8.693153 -9.409641 -9.591162 8.612843 9.445395 9.5390835 -8.516399 -8.943121
8.767249 9.822214 8.983246 -8.061756 7.592727 -11.632813 -9.492926 -8.094982
8.67635 8.361791 8.249082 -9.1220875 8.503623 8.163122 8.640021 9.621458
8.811592 9.568673 8.083468 9.10784 -8.874484 -9.147417 9.182247 -8.782001
8.721434 8.463159 -9.414173 -8.937823 -6.3945312 -9.209518 -9.22175 -10.123165
9.826955 -8.473942 -9.292978 8.796961 10.357517 7.598876 -8.56413 8.862442
-7.9742928 -8.804481 -8.7265835 7.993087 -8.504451 9.256293 -9.87407 7.534723
-7.905017 8.414404 9.127019 -8.768049 -6.8788586 9.685898 -7.297796 8.936407
9.6879015 7.2718587 7.052538 -9.296408 9.6835 -9.335741 -10.205716 7.069566
9.372416 8.680142 9.627212 -9.471449 -8.934551 -10.136732 8.038454 8.68815
-9.278465 9.12938 8.510004 -8.569614 8.788586 9.7237425 -9.071617 -8.879704
-9.268406 8.823458 7.7395287 -8.887463 8.536326 9.023213 7.8678594 -8.9698515

exp_avg f4 [7]
00000000: 9e5b 78ba 87e8 ce3a 3a5b 5cba a1ed 8dba
00000010: 6613 d2ba 34b1 ebba 2d37 9cba
-0.0009474101 0.0015785851 -0.0008405928 -0.0010828265 -0.001602751 -0.0017981888 -0.0011918299

exp_avg_sq f4 [7]
00000000: 99ad b837 b754 b037 651f b637 f3d4 b837
00000010: 77cc 9e37 224d b637 79b7 b937
2.2015347e-05 2.1020283e-05 2.171071e-05 2.2033671e-05 1.893028e-05 2.1732008e-05 2.2139155e-05

exp_avg f4 [128, 21]
00000000: 653f 54b9 8ba9 42b9 fb3c 53ba 4af3 43ba
00000010: bdd5 f1b9 0f94 50b7 c893 20b9 4dc3 8eb4
00000020: 81ed 5b33 9d9d 18b7 035b 0537 797b 05b7
00000030: b99b d0b8 486a 51ba 761e ab37 269c ce35
00000040: 8d66 48b9 39b4 5cba b2e7 4b39 5eb7 b438
00000050: 6956 e936 0eed a538 a9e0 1f38 b5ab 9b38
00000060: 07bc 7d38 83eb f638 0aa4 e8b6 de98 b638
00000070: 0b5c 27b6 8e5c 2b36 12a0 acb6 ce39 92b6
00000080: 211f a936 b89b 9b36 2e46 b238 185c 3636
00000090: acdc 84b6 47b9 0338 dac0 f138 1d5b 9bb8
000000a0: 346d 0cb8 fed3 3437 dbce d5b6 9690 9e34
000000b0: cd9d 7437 2f3f 8237 c7e5 79b4 df2d 0a36
000000c0: 75ff e6b6 d16e e133 d42b f9b3 d6aa 4c32
000000d0: 27a1 9734 6a74 4335 5c4c 4d36 88e6 7a37
000000e0: 98c6 ed33 b353 af33 8454 0536 d28b 8137
000000f0: 673d ee36 3a7a 3936 ca17 c934 a816 a637
00000100: 340f 8bb6 edc5 1cba af7a 31ba 6d83 c838
00000110: 69e7 d3b8 b629 ac38 642d 3ab6 8806 2cb2
00000120: 4bb4 b2b7 163a 55b7 8ff7 f6b3 7f2e f4b8
00000130: c702 1aba 9268 6c37 c285 93b7 f1c3 cbb6
00000140: 2fe4 07ba 9e0d a7b7 8a7d ebb8 67c9 3037
00000150: 0e62 bf36 b8a1 4eb5 e723 45b7 bbdd 4fb7
00000160: bd2e a436 be03 acb6 6916 2937 6471 aab4
00000170: a290 fb33 8d4f 94b5 fd44 97b4 ae44 5cb5
00000180: be32 a1b6 06e0 2eb7 6c51 ed35 f0ef d7b4
00000190: 0ef2 b9b7 8aee c636 a4ea dab6 875e 87b6
000001a0: a91e b235 7182 3e39 42b8 c339 d223 cf3a
000001b0: 5924 cf3a 602d 483a 1c55 bdb8 a6c6 bc38
000001c0: c751 c8b6 cfe5 4536 cd16 7c37 6447 2ab7
000001d0: 8ac3 8138 26a1 7039 c8b8 d53a af6d 46b8
000001e0: b78c 08b7 059d cb39 421b da3a 5c41 fbb8
000001f0: 60cf 16b9 ed9e 5238 52eb 023a 289a 193a
00000200: 7245 253b b163 1e3b 44bc c73a 4d1a 89b8
00000210: 971c de39 1015 e5b5 65ce 4d36 22c4 8e37
00000220: f5fb bdb7 0fe2 9c38 8668 b539 87d4 2a3b
00000230: 7e22 6bb8 576a a1b6 7ec1 2b3a a88a 323b
00000240: 1d9e deb9 9497 7bb9 89e2 b138 f3fe 33b8
00000250: f710 47b8 9154 2cb9 93bb 1ab9 66fc 00b9
00000260: 1a3d f136 681c 27b8 7402 40b4 67a3 9533
00000270: 7f83 aab5 ef83 6f36 afab efb6 a3c6 b8b7
00000280: 0e38 2fb9 88d9 3836 234d 4536 8330 9bb8
00000290: 3efe 30b9 7f09 1638 445b d537 75e0 38b6
000002a0: 5f56 f939 55cd 153a 4832 2e3b 3a41 293b
000002b0: cccc b23a 1e1b b2b7 9c1e b039 12b4 d1b6
000002c0: a2b2 7036 0913 3837 dd80 a8b7 d470 5b38
000002d0: ea7a b239 ae99 303b be49 44b8 2a38 72b7
000002e0: ac08 173a bc3a 3c3b 48e8 ddb9 783f 72b9
000002f0: 0bd9 1938 7d80 a3b5 64c5 0cb7 f60c a5b7
00000300: e0be 78b7 e7ba b7b7 5d23 a4b4 2bc7 e7b5
00000310: 5582 862f 875e 8ab3 288b 24b4 bc0a 4135
00000320: ae02 e7b5 26eb 4ab6 1712 adb7 2783 0334
00000330: 3d58 3435 8556 53b7 486d c4b7 6104 07b5
00000340: 3815 b436 2452 80b5 c781 7d38 216b 78b9
00000350: d955 1cba b686 91b9 117e 5cba fcf8 49b8
00000360: 36ee 9fb8 665f 81b7 e070 b437 6fc2 5d37
00000370: efa2 5138 354a 40b8 c671 9c37 bd73 17ba
00000380: 3f0d ccb7 1e63 6a38 520b 11ba 0ba0 41ba
00000390: f8e5 deb8 acfc 8539 ef43 9c37 ead0 76b9
000003a0: 7135 98b9 9dd1 02bb f3ee 05bb 0085 4eba
000003b0: b5cb 17b9 a609 70b9 0cf3 8433 6e23 beb5
000003c0: b9d2 01b8 d5c6 8a36 3ccd ccb7 6f68 8eb9
000003d0: bb9c 06bb 08a1 5938 5da8 f9b6 e540 00ba
000003e0: fd43 fcba 4337 5d39 37d0 9c37 9ac7 72b8
000003f0: 149f 043a da15 533a bdc3 893b 0914 8a3b
-0.00020241512 -0.00018564441 -0.0008058098 -0.00074749126 -0.0004612635 -1.2432239e-05 -0.00015313842 -2.659166e-07
5.120592e-08 -9.096603e-06 7.948608e-06 -7.956166e-06 -9.9472185e-05 -0.00079885544 2.0398973e-05 1.5393641e-06
-0.0001911169 -0.0008419189 0.00019445902 8.617224e-05 6.9540006e-06 7.911968e-05 3.8117785e-05 7.422959e-05
6.0495015e-05 0.000117740616 -6.9332355e-06 8.70691e-05 -2.4938515e-06 2.553486e-06 -5.144634e-06 -4.3578684e-06
5.0402164e-06 4.637488e-06 8.5007734e-05 2.717372e-06 -3.959596e-06 3.1405387e-05 0.00011527697 -7.407947e-05
-3.3480304e-05 1.0778194e-05 -6.371976e-06 2.9534993e-07 1.4580274e-05 1.552663e-05 -2.3273525e-07 2.0590303e-06
-6.8842733e-06 1.0497536e-07 -1.1602938e-07 1.1913206e-08 2.8243196e-07 7.2812566e-07 3.0591827e-06 1.4954836e-05
1.10722965e-07 8.164297e-08 1.986774e-06 1.5443107e-05 7.100101e-06 2.7638293e-06 3.7456476e-07 1.9799292e-05
-4.1442927e-06 -0.0005980421 -0.00067702954 9.561223e-05 -0.000101043675 8.2093684e-05 -2.774258e-06 -1.0013203e-08
-2.1303209e-05 -1.27093135e-05 -1.1500298e-07 -0.00011643487 -0.00058750476 1.4091043e-05 -1.7586051e-05 -6.072682e-06
-0.00051838433 -1.9914292e-05 -0.00011229057 1.053731e-05 5.7036586e-06 -7.697631e-07 -1.1750474e-05 -1.2389787e-05
4.893022e-06 -5.126435e-06 1.0078403e-05 -3.174747e-07 1.1714407e-07 -1.1050012e-06 -2.8176137e-07 -8.205633e-07
-4.804081e-06 -1.0423368e-05 1.7681573e-06 -4.0221448e-07 -2.2166434e-05 5.9286294e-06 -6.524222e-06 -4.034318e-06
1.3270957e-06 0.00018168405 0.0003733058 0.0015803522 0.0015803679 0.0007636156 -9.028075e-05 9.00154e-05
-5.9699846e-06 2.9489054e-06 1.5025679e-05 -1.01494115e-05 6.187621e-05 0.00022948216 0.001630568 -4.730903e-05
-8.138994e-06 0.00038836166 0.0016640204 -0.00011980787 -0.00014382368 5.0215913e-05 0.0004994172 0.0005859458
0.0025218395 0.0024168307 0.0015238603 -6.537568e-05 0.0004236444 -1.706796e-06 3.0667518e-06 1.701905e-05
-2.2647882e-05 7.480766e-05 0.00034600886 0.0026066618 -5.606049e-05 -4.8105535e-06 0.0006551965 0.002724329
-0.00042460943 -0.00023993693 8.482213e-05 -4.2914366e-05 -4.7461097e-05 -0.00016434702 -0.00014756461 -0.00012301057
7.189473e-06 -3.9842358e-05 -1.7882286e-07 6.968076e-08 -1.2704257e-06 3.569057e-06 -7.1427417e-06 -2.2027007e-05
-0.00016710183 2.7544756e-06 2.9400187e-06 -7.400012e-05 -0.0001687938 3.577163e-05 2.5434078e-05 -2.7548788e-06
0.00047557332 0.0005714496 0.0026580263 0.0025826232 0.0013641356 -2.1231881e-05 0.00033592142 -6.2496483e-06
3.5866765e-06 1.0971687e-05 -2.0087167e-05 5.231875e-05 0.00034042384 0.002694707 -4.679872e-05 -1.4437401e-05
0.0005761485 0.0028721532 -0.00042325468 -0.00023102562 3.668018e-05 -1.2181841e-06 -8.390609e-06 -1.9675568e-05
-1.4826393e-05 -2.1902333e-05 -3.057311e-07 -1.7268807e-06 2.4467064e-10 -6.44332e-08 -1.5324315e-07 7.1913723e-07
-1.7211621e-06 -3.023722e-06 -2.063163e-05 1.2248039e-07 6.718363e-07 -1.2596724e-05 -2.3415909e-05 -5.029779e-07
5.366888e-06 -9.560649e-07 6.0440765e-05 -0.00023691032 -0.000596372 -0.00027756923 -0.00084111193 -4.815402e-05
-7.626081e-05 -1.5422422e-05 2.1510234e-05 1.3217897e-05 4.9981227e-05 -4.5845478e-05 1.8649629e-05 -0.0005777439
-2.4324863e-05 5.5882258e-05 -0.0005532998 -0.0007386214 -0.0001062862 0.00025555992 1.8628283e-05 -0.00023538215
-0.00029031516 -0.0019961365 -0.0020436614 -0.0007878095 -0.00014476369 -0.00022891778 6.190939e-08 -1.4166415e-06
-3.0952247e-05 4.1358676e-06 -2.4414265e-05 -0.0002716216 -0.0020540196 5.1886804e-05 -7.4403783e-06 -0.00048924825
-0.0019246336 0.00021096789 1.8693607e-05 -5.788319e-05 0.0005059105 0.00080522674 0.004204242 0.004213814

exp_avg_sq f4 [128, 21]
00000000: cd96 bc34 ace2 4035 c4ba c737 d979 d337
00000010: 45bb 1936 842c 8034 ab98 b434 906e d130
00000020: dbe5 bf30 744f 8932 0b4b 5332 1c46 cb32
00000030: 078e 1e35 8622 c737 1d14 2c35 9f24 f435
00000040: 06b7 1036 1d64 c837 bec6 b134 b517 2134
00000050: 119a 8632 c559 2434 e089 de33 2e63 af36
00000060: 74d0 af36 d07d 3135 3773 ef33 143a e033
00000070: fdf2 4430 5e4d 3d30 24b7 7e31 24f5 6631
00000080: becd 9231 6783 0434 923f ad36 578a 0134
00000090: 5cc0 e234 21c4 2e35 8350 a836 9d5d 1234
000000a0: cd66 3933 f936 8931 8ebf 0e30 f308 ad30
000000b0: 1775 3633 35be 3c33 6cf3 a431 4f86 0f30
000000c0: 4cab 0f30 7da7 012d 822f fa2c 973f 022e
000000d0: 695d e92d f4ae 262e 244d 8b30 ae74 3433
000000e0: 2c95 ca30 ea47 ba31 cd15 ae31 7d1e 2633
000000f0: ebbf f42f 19da cc2f ded1 442e c92f f833
00000100: 5a1d 7c35 f71f d037 da42 d637 999d 4136
00000110: 6c12 0434 c75d 9234 0b4e 8731 0007 8331
00000120: d339 7732 983e 3932 bf96 ec32 e0db 1e35
00000130: a3c6 cc37 0ff8 ee35 6531 3b36 ffc3 9e36
00000140: efa6 a437 702f aa33 de0a 4f34 25ae 0433
00000150: ee88 6630 50ac f631 0b38 0434 d765 0d34
00000160: 844e 7732 5335 c030 c305 a330 f321 4e2d
00000170: 1f26 3f2d be20 942e 2a36 952e 01a2 042f
00000180: dae0 7431 c74d 0734 f705 b132 e9a0 6d32
00000190: c7ff 4e33 246a 8f33 f626 2530 15c7 a830
000001a0: b567 c82e 3481 8334 c47a a535 fa0d d537
000001b0: e406 d437 3914 a236 4934 1f34 24b4 a734
000001c0: c5da e12f 9048 cc2f cf41 4932 bb86 2f32
000001d0: 08ce 8e33 c417 4135 8f5e d937 9300 1a35
000001e0: 74a3 1536 6e9a 1437 c9f0 9e37 8258 4f34
000001f0: 5946 1a34 0690 4432 7752 0736 63ff bc36
00000200: cd91 3439 ee6c 3e39 3dd0 9f37 0812 ad35
00000210: 5f0d 2336 95a3 a032 0b2b 9932 3fbb f833
00000220: 008e e433 313f a534 c35f 8a36 fe27 3539
00000230: 6597 9436 d51f a137 b2e5 9337 70b9 2d39
00000240: ddda 0936 1a64 aa35 3fc1 2234 260d da32
00000250: cb11 da33 9254 3136 b9dc 3836 61fa b434
00000260: 1577 ae32 d21d 0f33 c4da 822f a558 762f
00000270: e52f cf30 dcb5 9d30 aaa4 4d31 7ccf 8533
00000280: 311f 3236 c953 ee33 5612 f634 6989 8034
00000290: c6b5 2236 3cc0 ce32 40d9 c332 701e 2931
000002a0: 1908 9d35 c3c5 9336 5ba0 ca38 d7d7 d138
000002b0: 81c4 6837 c47f 3035 c471 b535 e99a 8131
000002c0: f3ba 6c31 61b9 7333 1c4c 4033 13b4 1434
000002d0: 58df 2136 8bb0 cd38 c97c 6936 3685 6837
000002e0: 3b14 4e37 3168 b938 8b49 9f35 c4c2 5435
000002f0: 6cfa 8533 287f 1f2f 2e34 ac30 0b4a 2533
00000300: 5c36 2d33 158a 8e31 bbee a32f 831b 3c30
00000310: bfba 222c 136a 172c 0149 d32d 7138 882d
00000320: f063 352f f4b2 8b30 9f8a 2533 7424 1931
00000330: c0fe 9931 9984 a431 c564 1133 feff e72e
00000340: a941 492f f363 cb2d 9b38 5135 30aa 9036
00000350: 4246 2139 9ba9 2839 8e9a 8337 cba1 5835
00000360: aab1 c735 8882 ac32 bebf a332 8518 ef33
00000370: b840 8d33 6a15 2d34 f484 6736 2d28 1f39
00000380: 448c 7436 8ae6 2537 254e 6037 ec42 2039
00000390: 6ddf 4035 6b5e 6535 c243 1734 193a 0735
000003a0: 39e2 1536 b9a9 7438 2d72 7d38 ecba f836
000003b0: b4fd 0435 013b 7535 03e6 de31 a366 d631
000003c0: e26e 0d33 2b8f e132 6629 c533 ce7b c535
000003d0: 625a 7638 1079 2c36 128c 0437 f52e 0637
000003e0: e0df 5138 8fb4 e234 738f 0535 9eb6 3333
000003f0: fe82 2136 47f0 0037 682d 8839 d77b 9039
3.512745e-07 7.1855425e-07 2.3809618e-05 2.52099e-05 2.2907782e-06 2.3874247e-07 3.3638693e-07 1.5238175e-09
1.3962408e-09 1.598503e-08 1.2298879e-08 2.3664192e-08 5.9066264e-07 2.3738725e-05 6.410426e-07 1.8190075e-06
2.1564206e-06 2.3888477e-05 3.3113423e-07 1.5002918e-07 1.5669714e-08 1.5306348e-07 1.036276e-07 5.2269525e-06
5.2396736e-06 6.612072e-07 1.1150262e-07 1.0441377e-07 7.164969e-10 6.8867745e-10 3.7065968e-09 3.3608751e-09
4.2725494e-09 1.2341262e-07 5.1632023e-06 1.2064389e-07 4.223574e-07 6.5105456e-07 5.016163e-06 1.3631366e-07
4.3167166e-08 3.9934744e-09 5.1931515e-10 1.258995e-09 4.248167e-08 4.3945153e-08 4.800702e-09 5.221396e-10
5.2266524e-10 7.369991e-12 7.110702e-12 2.9615057e-11 2.6530516e-11 3.789942e-11 1.0135506e-09 4.2015635e-08
1.4739832e-09 5.421488e-09 5.066545e-09 3.8677616e-08 4.4519707e-10 3.7262352e-10 4.475164e-11 1.1557092e-07
9.392003e-07 2.4810417e-05 2.5541918e-05 2.8850975e-06 1.230016e-07 2.726285e-07 3.9378896e-09 3.8133976e-09
1.439044e-08 1.0782649e-08 2.7542567e-08 5.9179547e-07 2.4411192e-05 1.7804576e-06 2.7893923e-06 4.731584e-06
1.9628058e-05 7.924871e-08 1.9282331e-07 3.089203e-08 8.38681e-10 7.179132e-09 1.2313846e-07 1.3168697e-07
1.4395145e-08 1.3984994e-09 1.1861448e-09 1.17172825e-11 1.0865558e-11 6.736077e-11 6.785357e-11 1.2062885e-10
3.5634486e-09 1.260115e-07 2.0608224e-08 1.3831802e-08 4.819574e-08 6.678263e-08 6.0082017e-10 1.2280191e-09
9.113369e-11 2.449466e-07 1.2329187e-06 2.5398087e-05 2.5275578e-05 4.8303305e-06 1.482705e-07 3.1237244e-07
4.1082707e-10 3.7158943e-10 1.1714703e-08 1.0216975e-08 6.649867e-08 7.1932686e-07 2.5912448e-05 5.7370306e-07
2.2297872e-06 8.857443e-06 1.8947192e-05 1.9310576e-07 1.436796e-07 1.1441449e-08 2.0164568e-06 5.6325675e-06
0.00017220453 0.00018160391 1.9051246e-05 1.2894752e-06 2.4296676e-06 1.870084e-08 1.7831118e-08 1.158246e-07
1.0642907e-07 3.0779623e-07 4.1238686e-06 0.00017276403 4.4283684e-06 1.9207519e-05 1.7630726e-05 0.00016567647
2.0541986e-06 1.269512e-06 1.5157728e-07 2.538452e-08 1.01546526e-07 2.6424282e-06 2.7546614e-06 3.3709787e-07
2.0310418e-08 3.3321903e-08 2.3802305e-10 2.2405063e-10 1.5074845e-09 1.1474941e-09 2.9925027e-09 6.231036e-08
2.6542223e-06 1.1097979e-07 4.5834412e-07 2.3941837e-07 2.4245687e-06 2.4068974e-08 2.2799782e-08 2.4610038e-09
1.1699768e-06 4.403964e-06 9.661979e-05 0.000100061 1.387403e-05 6.575103e-07 1.3518661e-06 3.7720054e-09
3.4448788e-09 5.6746448e-08 4.4772705e-08 1.3849085e-07 2.4120873e-06 9.8080454e-05 3.479234e-06 1.3859293e-05
1.2283267e-05 8.8408946e-05 1.1867827e-06 7.9259576e-07 6.2388466e-08 1.4506141e-10 1.2529477e-09 3.8484398e-08
4.032914e-08 4.148442e-09 2.9819155e-10 6.84331e-10 2.312525e-12 2.1517274e-12 2.4020343e-11 1.5486475e-11
1.6497359e-10 1.0164443e-09 3.854313e-08 2.2285152e-09 4.481848e-09 4.788103e-09 3.3852093e-08 1.0550137e-10
1.830417e-10 2.3122814e-11 7.794094e-07 4.311347e-06 0.0001538033 0.00016084911 1.5688387e-05 8.070171e-07
1.4878362e-06 2.0082794e-08 1.9062892e-08 1.1133765e-07 6.5775964e-08 1.6119671e-07 3.4499071e-06 0.00015178388
3.6440479e-06 9.888443e-06 1.3369635e-05 0.0001528372 7.18507e-07 8.5446544e-07 1.4087621e-07 5.037596e-07
2.233441e-06 5.83322e-05 6.0426235e-05 7.4127365e-06 4.954302e-07 9.1355474e-07 6.4871997e-09 6.239888e-09
3.2929968e-08 2.6258553e-08 9.181058e-08 1.4713676e-06 5.8735146e-05 2.5700465e-06 7.900426e-06 7.997955e-06
5.0037983e-05 4.2227154e-07 4.9755107e-07 4.1842775e-08 2.4067117e-06 7.6853385e-06 0.00025973772 0.00027558088

exp_avg f4 [128]
00000000: b245 63ba 3a51 c138 abd4 8837 2be3 27ba
00000010: 5f16 3db7 9d38 e83a 5889 393b d015 3eb9
00000020: e6d7 3f3b 3bc0 bbb7 4045 23ba 875f 12bb
00000030: 79c6 943b bb19 6fbb 240a 4bb8 53cd d53b
00000040: ea85 c63a 9f1b 4338 5f6a a7b9 7998 2b3c
00000050: 76be 3439 3bad ba3b 48ff abb9 af76 00bb
00000060: 5175 3439 0e5a 8aba 7f81 1e3b 0c1b 8eba
00000070: 1884 f9ba 08ed 1a3b 4052 26ba 15f8 8c38
00000080: f96a 913b 2564 deb7 df3c c137 d8f7 dfb7
00000090: 1330 dc35 4f67 d1bb 1bc0 943a 1cba a8ba
000000a0: a04c 443a 4df2 9fba 5662 8a38 51b2 df38
000000b0: 9155 a439 d076 ff37 6635 bd3a dced a638
000000c0: 8e4c beba be65 07bb cb2c 463a 92f6 aab8
000000d0: f687 bcba a452 ca3a 5b66 07bb 1de0 75ba
000000e0: 6838 8fb8 7de8 323b 7b9f 83bb e336 4238
000000f0: 43ce 373a 3731 92b8 5380 41bb 0b74 b038
00000100: 9011 5cbb 6429 a33a 114d b8ba cf8a ac39
00000110: 4deb 783a cce3 aeba 4187 7938 db6e 393b
00000120: 9a3b 4cbb bfca b239 6ee9 8bb9 b82b a1b8
00000130: 8597 1fb8 404d a237 5ed2 c7ba 24d4 1dbb
00000140: 1f24 463b 34c0 ac3b 4eea 11bb c8ae 53ba
00000150: 4883 cf37 7a0f 9139 453c ffb9 806d 23b9
00000160: b00b 8eb9 2142 b8bb b045 3eb4 3b89 8fb5
00000170: 8151 a23a 0fda 14b8 127b 853a 0f51 8cb9
00000180: 5d79 043b 8047 e5ba ceff 063b 8bbd af3a
00000190: bf45 813b 4293 9235 7b78 4db9 7f77 30ba
000001a0: ef1f 0fbb 4198 f4b9 b1bb bbba 3cbd 93bb
000001b0: 6650 3eb8 b419 253c ab6b 0539 a155 6c3b
000001c0: 390b 40b8 5c75 103b ec6a e83a 274a 23b7
000001d0: b0b2 7837 0847 4837 a6a8 4339 6e19 b0bb
000001e0: 7354 5a39 631e 49b9 6836 0e39 68ea b73a
000001f0: 8f5e 64b9 7fd2 aa38 936f 16ba 2d65 2a3a
-0.0008669748 9.218087e-05 1.6311495e-05 -0.0006404395 -1.12704865e-05 0.0017717067 0.0028310623 -0.00018127938
0.0029272973 -2.2381651e-05 -0.00062282756 -0.002233477 0.0045402613 -0.0036483842 -4.8408416e-05 0.0065247207
0.0015146111 4.6517347e-05 -0.00031931975 0.010473364 0.0001723709 0.00569692 -0.0003280586 -0.001960199
0.00017209841 -0.0010555403 0.0024186072 -0.0010841801 -0.0019036559 0.0023639817 -0.00063446537 6.721929e-05
0.004437801 -2.6511096e-05 2.3035738e-05 -2.6699083e-05 1.6405269e-06 -0.006390489 0.0011348756 -0.0012872848
0.00074882247 -0.0012202949 6.598669e-05 0.00010666683 0.0003134427 3.0453695e-05 0.001443547 7.9598016e-05
-0.0014518665 -0.0020660008 0.0007559775 -8.152159e-05 -0.0014383781 0.0015436006 -0.0020660374 -0.0009379404
-6.829278e-05 0.0027299218 -0.0040168143 4.630432e-05 0.00070116314 -6.9709895e-05 -0.002952595 8.413949e-05
-0.0033579804 0.0012448248 -0.0014061054 0.00032909817 0.0009495512 -0.0013343035 5.949219e-05 0.0028294835
-0.0031163455 0.00034101863 -0.00026686065 -7.6852215e-05 -3.8049668e-05 1.9347877e-05 -0.001524519 -0.0024082744
0.0030233932 0.005271936 -0.00222649 -0.00080750557 2.4737456e-05 0.00027668086 -0.00048682294 -0.00015585683
-0.00027093058 -0.0056231176 -1.7720481e-07 -1.069427e-06 0.0012383909 -3.5489033e-05 0.0010183773 -0.00026763274
0.002021394 -0.0017492622 0.0020599249 0.0013407929 0.003945082 1.0920705e-06 -0.00019595206 -0.00067316735
-0.0021839102 -0.00046652745 -0.0014322904 -0.0045086425 -4.5374407e-05 0.010076929 0.00012723978 0.003606178
-4.578682e-05 0.0022042608 0.001773206 -9.732822e-06 1.4823556e-05 1.1937467e-05 0.00018659476 -0.005374125
0.0002082156 -0.00019180174 0.00013562443 0.001403165 -0.00021779 8.14544e-05 -0.0005738672 0.0006500062

exp_avg_sq f4 [128]
00000000: 96ea ea37 df67 cc36 5be7 5433 7b7f f137
00000010: 5176 1f34 5c21 0038 74b1 5539 dc24 5236
00000020: c69a f238 ab42 4333 7fb8 3b39 1c57 9138
00000030: 017b a039 f272 423a 5b5a 7535 d0ce 9039
00000040: 7e53 d339 2eb6 9435 21c4 e335 e2b7 4e3a
00000050: 23fe 0636 42d7 f038 7c3a 2336 7b96 a53a
00000060: 88b6 5037 ce36 d137 852a 8139 be36 a438
00000070: b888 8f39 5b4e 6939 a461 fe37 4a55 2439
00000080: 5abb 253a 8c0c 8034 dcfe 5232 cc47 1334
00000090: 84c0 8731 7e2e 763a 0053 f837 242b c339
000000a0: 0219 7639 ef8d 0238 0f8e 8037 b15c 3436
000000b0: 3fb5 cd38 b69b 9537 15a6 1839 6722 8b34
000000c0: 560d 9b38 1e87 5d39 5b31 bb38 a6c6 4d36
000000d0: 9374 4039 32b8 bd38 e6d7 8838 9594 d539
000000e0: 23fe ad33 0bde 0639 f4ca 8239 ec40 2136
000000f0: fe30 0139 beef 0d37 b04b b739 06ad 2036
00000100: e567 943a ead8 4838 767a 5637 7d3c 8736
00000110: d714 7837 86d7 113a 357b 1235 68fe 313a
00000120: c0cf e138 5740 2939 f729 d135 d16f 6b36
00000130: c16d c835 ed7b 3733 cffe 8f39 26c4 5239
00000140: b692 4539 b9df 1d3a 5c7a 3c38 2b01 6e39
00000150: d94e ea33 4713 b937 dd5d a636 18d8 f936
00000160: 8cfa 8636 04e2 003a 6623 c230 e872 6d33
00000170: a8ee 7839 803a bf32 ffec 2338 890a f836
00000180: 637f 2639 d37d 7e39 c3eb cc38 6328 ed38
00000190: 4cbd 313a cea8 9a33 6f27 c436 4229 b937
000001a0: 8668 db39 d5f1 9937 cac7 3339 d249 5739
000001b0: f02c 8d34 d5c9 c23a ac2c fd38 75f7 cf39
000001c0: c90f a532 615e cc38 7d99 bc38 b597 4d34
000001d0: c994 4134 fe5d c434 1650 8338 6ebe 2339
000001e0: eec5 1c36 588e 6c36 cab6 1337 775d 1538
000001f0: cf77 7a37 0527 c338 3d45 0239 1d36 d938
2.8004211e-05 6.091766e-06 4.9570513e-08 2.8788802e-05 1.4851072e-07 3.0548646e-05 0.0002037937 3.1313893e-06
0.00011568288 4.546261e-08 0.0001790244 6.930364e-05 0.00030609223 0.0007417641 9.1401097e-07 0.00027619908
0.00040307263 1.107988e-06 1.6969899e-06 0.0007885677 2.0115483e-06 0.00011484187 2.4322935e-06 0.0012633348
1.2440265e-05 2.4940262e-05 0.00024636477 7.830326e-05 0.0002737695 0.00022249801 3.0324627e-05 0.00015672031
0.0006322168 2.3850987e-07 1.2281557e-08 1.3716561e-07 3.9509036e-09 0.0009391083 2.9602554e-05 0.0003722544
0.00023469704 3.11266e-05 1.532494e-05 2.6876044e-06 9.8089215e-05 1.7834693e-05 0.0001455772 2.5915799e-07
7.39346e-05 0.00021126537 8.926048e-05 3.066301e-06 0.00018353974 9.046531e-05 6.5251996e-05 0.00040737228
8.1021675e-08 0.00012861953 0.00024946744 2.402866e-06 0.0001232065 8.460074e-06 0.00034960872 2.394257e-06
0.0011322467 4.7885733e-05 1.2783907e-05 4.0303553e-06 1.4786804e-05 0.00055634265 5.456853e-07 0.00067899236
0.000107675325 0.00016141064 1.5583927e-06 3.5082815e-06 1.4933104e-06 4.2720718e-08 0.00027464933 0.00020100232
0.00018842038 0.0006022412 4.493665e-05 0.00022697884 1.09108164e-07 2.2062695e-05 4.9581126e-06 7.445935e-06
4.0226787e-06 0.00049164915 1.4125419e-09 5.528537e-08 0.0002374003 2.226193e-08 3.908295e-05 7.3922024e-06
0.00015878449 0.00024270201 9.771392e-05 0.00011308563 0.00067802216 7.201889e-08 5.845846e-06 2.207293e-05
0.0004184881 1.8351633e-05 0.00017145197 0.00020531498 2.6295993e-07 0.0014861176 0.00012072301 0.00039666487
1.9215706e-08 9.7450575e-05 8.993128e-05 1.9147303e-07 1.8028653e-07 3.6576233e-07 6.261484e-05 0.00015615832
2.3361022e-06 3.5249595e-06 8.804442e-06 3.5611414e-05 1.4929056e-05 9.3055925e-05 0.0001242356 0.00010357446
