models/checkpoint_100.pth (torch, 255234 bytes, 24 tensors)

policy_log_std f4 [7]
0.12518801 -0.067241214 -0.012327792 -0.057394914 0.025472654 0.14265208 -1.2213601
00000000: 4931 003e c3b5 89bd 82fa 49bc ee16 6bbd
00000010: 07ac d03c 6313 123e 8755 9cbf

fc1.weight f4 [128, 21]
-0.44034213 0.49232987 0.023502447 0.04368871 0.018485013 0.0052835 0.123143464 0.3305539
-0.25109383 -0.1653596 -0.08499488 0.01961286 0.18198097 0.04599175 0.22577451 0.26419902
0.2424486 0.12438574 0.4067575 -0.31304786 0.0709215 -0.5004872 0.118399814 -0.012005871
0.28425556 0.20737572 -0.12958966 0.13384555 0.34456593 -0.12847552 0.007888871 -0.18530755
0.020611003 -0.11110385 -0.04614164 -0.1413958 0.007787588 0.056137506 -0.05973254 0.36337072
0.25895044 0.3870571 0.23169166 -0.84630036 -0.22053553 0.08535867 -0.0022060636 -0.0458087
0.051322162 -0.17306048 -0.054935627 -0.02293443 0.005217966 -0.035012025 0.15115286 0.049700715
-0.14252156 -0.06118091 -0.18289591 -0.14488955 -0.39166218 0.4027726 -0.26955715 9.176344e-05
0.6106677 -0.12666579 0.025684742 0.07503049 0.039781872 0.044149 0.28619334 -0.26905593
-0.1664958 0.033268332 0.07778094 0.18964666 0.12050002 -0.017874924 0.08407638 0.05235455
-0.04265785 0.16335784 -0.49336648 0.107179016 0.37859023 -0.74895036 -0.0103819445 -0.02294256
-0.33020502 -0.17168102 0.107783146 -0.21314588 0.15291803 0.015779192 -0.081349924 0.029490959
-0.0022784346 -0.0067309947 -0.07906255 -0.07365754 -0.019075068 -0.01280326 -0.10015868 0.7009527
-0.19476871 -0.35681137 0.49862027 0.18987773 0.2415474 -0.014876875 0.42229792 -0.020566313
0.42575747 -0.11533343 -0.055142753 -0.1904312 -0.18129545 0.06168032 -0.01227855 -0.055524178
0.15682213 0.13981365 -0.19590226 0.2992973 -0.33812517 0.3037713 -0.42288178 -0.23818178
-0.023686947 0.25137585 -0.16948476 -0.23752972 0.0070795603 0.20001847 0.037517253 0.15620813
-0.02716448 0.22580919 -0.13245802 0.12460265 0.116676845 0.08561908 0.33128726 -0.12758948
0.47882318 0.35844132 0.016887909 -0.30042896 0.85026157 0.18443736 0.24553944 0.2629106
0.14253709 0.09766242 -0.039876167 -0.27192238 0.010376666 0.07382851 0.24456692 0.11960565
0.078205355 0.20781828 0.17268787 0.25300738 -0.09710547 0.21223293 -0.41581997 0.3628732
0.19511041 -0.73226196 -0.14510757 -0.07937776 -0.035108224 -0.18983996 0.011818407 -0.22606169
-0.11835948 0.17689142 0.16704148 0.21116863 0.14883074 0.05556206 0.118400194 -0.049356073
-0.13173512 0.05548426 0.0140387835 0.81800365 -0.3467147 -0.33087426 0.5954855 0.18368232
-0.15258987 0.072238974 0.0989219 0.009190327 0.24113832 -0.052427102 0.20989703 0.095716156
-0.22540557 -0.013677821 0.1135094 -0.043079954 -0.32334453 0.16476564 0.0013159377 0.14717197
-0.64392596 -0.035240818 0.41344848 -0.037699513 0.09036345 -0.2742486 -0.24999885 -0.3979086
-0.25974563 -0.38882938 0.17774516 0.17058615 0.11125893 0.12409272 -0.10645384 -0.032495476
0.13562651 -0.12956564 -0.3451842 -0.20394228 -0.2698825 0.09400302 -0.14574447 0.058877755
0.5930733 -0.13764107 -0.14102331 0.18399014 -0.013723612 -0.3063918 -0.22751649 0.1442506
-0.04534015 0.038699564 -0.096268564 0.15053076 -0.17439663 0.012021119 -0.013780454 -0.26186225
-0.217337 0.078412704 -0.9174067 0.030387003 0.31477603 -0.14865391 -0.1951301 -0.14911266
00000000: 8674 e1be a912 fc3e 3488 c03c eff2 323d
00000010: e26d 973c 3621 ad3b a432 fc3d 5c3e a93e
00000020: 5f8f 80be 0754 29be cc11 aebd 26ab a03c
00000030: 3859 3a3e d861 3c3d 6f31 673e 1845 873e
00000040: 7244 783e f3bd fe3d 8542 d03e cf47 a0be
00000050: 4b3f 913d ee1f 00bf 9a7b f23d 46b4 44bc
00000060: f289 913e 4d5a 543e 27b3 04be cf0e 093e
00000070: f26a b03e 168f 03be 5340 013c 43c1 3dbe
00000080: 68d8 a83c 6a8a e3bd 04ff 3cbd 10ca 10be
00000090: 062f ff3b 71f0 653d 1caa 74bd ba0b ba3e
000000a0: 2795 843e 592c c63e 9440 6d3e 24a7 58bf
000000b0: 11d4 61be 87d0 ae3d 9b93 10bb e7a1 3bbd
000000c0: 3037 523d c436 31be 2e04 61bd fce0 bbbc
000000d0: 79fb aa3b c568 0fbd d1c7 1a3e fa92 4b3d
000000e0: 2cf1 11be d598 7abd 1149 3bbe ed5d 14be
000000f0: f287 c8be 3638 ce3e 6503 8abe 1f71 c038
00000100: b854 1c3f adb4 01be cf68 d23c 96a9 993d
00000110: 51f2 223d 95d5 343d ef87 923e b3c1 89be
00000120: e07d 2abe 6044 083d 9d4b 9f3d bc32 423e
00000130: b7c8 f63d 6f6e 92bc 3d30 ac3d ba71 563d
00000140: ffb9 2ebd 4747 273e 889a fcbe ac80 db3d
00000150: 94d6 c13e 36bb 3fbf 0819 2abc 09f2 bbbc
00000160: a210 a9be 26cd 2fbe 69bd dc3d ea42 5abe
00000170: 8b96 1c3e 5d43 813c ca9a a6bd 0697 f13c
00000180: ca51 15bb ad8f dcbb 8ceb a1bd c4d9 96bd
00000190: 5143 9cbc c4c4 51bc fe1f cdbd a371 333f
000001a0: 7371 47be fbaf b6be 284b ff3e 4f6f 423e
000001b0: 3458 773e 23be 73bc 6f37 d83e af7a a8bc
000001c0: e2fc d93e ef33 ecbd 5edd 61bd 6600 43be
000001d0: 84a5 39be 81a4 7c3d f92b 49bc 526d 63bd
000001e0: fb95 203e 4f2b 0f3e 9a9a 48be 7f3d 993e
000001f0: be1e adbe e987 9b3e f683 d8be ede5 73be
00000200: 210b c2bc 56b4 803e 6a8d 2dbe fe3a 73be
00000210: a8fb e73b a4d1 4c3e b1ab 193d 06f5 1f3e
00000220: 0b88 debc 863a 673e 13a3 07be ad2f ff3d
00000230: 45f4 ee3d 0e59 af3d 7c9e a93e d1a6 02be
00000240: 5028 f53e 9f85 b73e 8358 8a3c d3d1 99be
00000250: beaa 593f 26dd 3c3e b16e 7b3e 389c 863e
00000260: 3ef5 113e 3c03 c83d 3155 23bd 6939 8bbe
00000270: e402 2a3c 6733 973d c06f 7a3e cff3 f43d
00000280: 212a a03d 51ce 543e 17d5 303e 2f8a 813e
00000290: 3cdf c6bd 9753 593e 5be6 d4be 84ca b93e
000002a0: 06cb 473e 8575 3bbf 1497 14be cf90 a2bd
000002b0: a4cd 0fbd 6865 42be fea1 413c b77c 67be
000002c0: 7466 f2bd 0623 353e ec0c 2b3e 973c 583e
000002d0: 1667 183e 0b95 633d cd7b f23d 9829 4abd
000002e0: 92e5 06be 7743 633d ed02 663c b068 513f
000002f0: 9784 b1be 5a68 a9be bd71 183f 3817 3c3e
00000300: 8540 1cbe 07f2 933d 9197 ca3d 0693 163c
00000310: f7ec 763e cdbd 56bd 3fef 563e d506 c43d
00000320: b8d0 66be f018 60bc 9e77 e83d 9b74 30bd
00000330: 6a8d a5be 53b8 283e 8b7b ac3a 40b4 163e
00000340: 55d8 24bf ad58 10bd 85af d33e ce6a 1abd
00000350: 7910 b93d 506a 8cbe b3ff 7fbe adba cbbe
00000360: 61fd 84be a514 c7be d402 363e 23ae 2e3e
00000370: b9db e33d 5324 fe3d 7904 dabd fa19 05bd
00000380: ade1 0a3e dbac 04be fcbb b0be 3fd6 50be
00000390: 0a2e 8abe a884 c03d 0a3e 15be cd29 713d
000003a0: a7d3 173f c8f1 0cbe 6a68 10be e967 3c3e
000003b0: 00d9 60bc 63df 9cbe 15fa 68be 6eb6 133e
000003c0: 98b6 39bd 6f83 1e3d 7428 c5bd bc24 1a3e
000003d0: 0895 32be 3af4 443c 6ac7 61bc cf12 86be
000003e0: 978d 5ebe d796 a03d 2adb 6abf 2aee f83c
000003f0: 532a a13e bb38 18be 2fd0 47be fdb0 18be

fc1.bias f4 [128]
0.17220879 0.02618314 0.12008129 0.1315747 -0.15255463 -0.0012529594 0.21940967 -0.13654959
-0.06448372 0.06512563 0.06437736 0.13785107 -0.22691987 -0.08686422 0.14379673 -0.0066032372
-0.09726915 0.041806187 -0.20846072 0.059862312 -0.0417196 -0.047548622 -0.21631555 -0.18131644
0.13612716 0.0852266 -0.17385368 -0.20445213 -0.00047635983 -0.17828408 -0.13982086 -0.12243643
-0.06977962 0.092655055 -0.0029135502 0.21500717 -0.1760038 0.06352331 -0.08324275 0.0046577747
-0.14152215 0.2125997 0.039453328 -0.18752035 0.2163405 -0.038606945 -0.13460954 -0.056100547
0.18076305 0.13433385 -0.07997048 0.14938141 -0.04129348 0.11447386 -0.17935392 0.08410251
0.08827199 0.07932676 -0.18940507 -0.15713735 -0.0036358421 -0.21908651 0.106377035 -0.14327383
0.19323307 0.032742236 -0.042592756 0.06357136 0.22939101 0.045124482 -0.017587498 0.085066706
0.10403488 -0.07739339 0.123728484 -0.17885643 0.114492446 -0.1467065 0.032253135 0.21496886
0.14414957 -0.052218802 -0.22380827 -0.09517261 0.21514112 0.11780226 -0.027909981 -0.12710017
0.14526793 0.058125995 -0.007003142 0.05849308 0.1379573 0.04591371 0.0558981 -0.11218026
0.00769657 0.12963349 0.024648646 -0.17853303 0.17758587 0.09993772 -0.08469682 -0.09836658
0.050955743 -0.082919344 0.16092944 -0.14483267 -0.22912861 -0.04056943 -0.16135065 0.026066603
0.15431254 -0.19189157 -0.043741845 0.13961148 0.13291806 0.049148113 0.20529477 -0.029024618
0.10522671 0.1518466 0.075595155 -0.11818277 0.087566406 -0.14529818 -0.10374216 0.18167153
00000000: 8057 303e 067e d63c 2eed f53d 85bb 063e
00000010: 4837 1cbe 573a a4ba eeac 603e a8d3 0bbe
00000020: 0a10 84bd 9660 853d 47d8 833d d528 0d3e
00000030: af5d 68be dee5 b1bd 733f 133e f85f d8bb
00000040: 0c35 c7bd f73c 2b3d ba76 55be 2f32 753d
00000050: 2ce2 2abd 58c2 42bd d381 5dbe 04ab 39be
00000060: eb64 0b3e 498b ae3d b306 32be e65b 51be
00000070: efbf f9b9 1a90 36be 332d 0fbe f3bf fabd
00000080: 9ee8 8ebd efc1 bd3d 43f1 3ebb d72a 5c3e
00000090: 573a 34be 8218 823d 2d7b aabd 3fa0 983b
000000a0: 2feb 10be bcb3 593e d099 213d 5605 40be
000000b0: 5d88 5d3e 5122 1ebd 15d7 09be b0c9 65bd
000000c0: f319 393e d08e 093e 90c7 a3bd 71f7 183e
000000d0: 5a23 29bd 4571 ea3d 8ea8 37be f03d ac3d
000000e0: f2c7 b43d 1176 a23d 67f3 41be 9de8 20be
000000f0: 4f47 6ebb 3758 60be 34dc d93d 60b6 12be
00000100: e4de 453e b91c 063d be75 2ebd b431 823d
00000110: 7ae5 6a3e 73d4 383d a813 90bc 7437 ae3d
00000120: 3d10 d53d 6d80 9ebd 5c65 fd3d 2426 37be
00000130: 047b ea3d 3b3a 16be dd1b 043d cc20 5c3e
00000140: f29b 133e 62e3 55bd ff2d 65be dbe9 c2bd
00000150: f44d 5c3e 5042 f13d 79a3 e4bc 8c26 02be
00000160: 1ec1 143e 8615 6e3d 9d7a e5bb 7196 6f3d
00000170: ae44 0d3e 0410 3c3d 68f5 643d c4be e5bd
00000180: 8233 fc3b a4be 043e f5eb c93c 5dd1 36be
00000190: 12d9 353e 26ac cc3d 8775 adbd 6b74 c9bd
000001a0: f8b6 503d 9ed1 a9bd b0ca 243e 044f 14be
000001b0: b1a0 6abe 212c 26bd 1b39 25be a189 d53c
000001c0: 1b04 1e3e 397f 44be a62a 33bd 50f6 0e3e
000001d0: ac1b 083e 884f 493d cb38 523e 09c5 edbc
000001e0: 1a81 d73d ad7d 1b3e a2d1 9a3d cf09 f2bd
000001f0: 0456 b33d 0cc9 14be c576 d4bd 1a08 3a3e

fc2.weight f4 [128, 128]
0.021790892 0.14962384 -0.1289473 0.15651257 -0.21738712 0.20747958 -0.024104202 0.14947313
-0.1397347 0.10170775 -0.1316929 0.034904137 -0.0055309543 0.07603776 -0.037979838 -0.09987511
-0.1250507 -0.13983399 -0.023346884 0.14889035 -0.026211496 0.0112384865 -0.040737823 0.20813602
0.08053864 0.23265642 -0.13300876 -0.048492227 -0.047981005 0.08001612 0.21061242 0.23183462
-0.073227614 0.23239735 -0.118466295 -0.25170282 0.10684097 -0.022834104 0.0031231928 0.11285488
0.08147872 0.1947651 -0.18959936 0.018144278 0.056437697 -0.101379104 0.04136801 -0.1460126
-0.23004633 0.24955018 -0.061782453 -0.011014203 0.0032700757 -0.050141297 -0.0077766418 -0.13950613
0.07476693 -0.0050312206 0.060233034 0.29935572 -0.12552738 -0.057745762 0.07548381 -0.04432282
-0.25287062 0.16244663 0.009977962 -0.08719696 0.060148496 -0.12421616 -0.19701391 -0.017190542
-0.025524447 -0.11453315 -0.13344166 -0.10810925 0.01282909 -0.053280186 0.2667307 -0.2573585
0.07479049 0.12364402 0.12163375 -0.061833948 0.07191044 -0.19290963 -0.10613258 -0.077499725
0.0675645 0.14968978 0.057778865 -0.15440431 0.05000293 -0.13605797 0.20050797 0.1297479
0.06575959 0.06487938 0.1391954 -0.028360855 0.14330463 -0.34306931 0.09098949 -0.11678501
0.03167608 0.21243498 0.0149145145 0.08910021 0.072271705 -0.109664656 0.16231476 0.27425703
-0.19254088 -0.1254623 0.091876306 0.29230696 -0.2033855 0.01383239 -0.04416294 0.13879582
-0.046427887 -0.009467219 -0.008178837 0.12629105 0.081134304 -0.108668394 -0.09032909 0.28454134
0.111104146 0.05446588 -0.0728719 0.048979323 -0.06581463 0.0644296 0.13265853 0.04631705
-0.045748167 -0.0024445618 -0.17220607 -0.030465737 0.04168118 0.11797675 0.0811813 -0.11817807
0.041451618 0.018027917 0.0012746352 0.06758127 0.14090513 -0.14369959 -0.139523 0.0914539
0.16968781 0.011879465 -0.08423945 -0.08739991 0.06834076 -0.056565415 0.07423032 0.106900044
-0.07248983 0.038020853 -0.07267305 0.01890452 0.08813295 -0.15461776 -0.09590881 -0.019457152
-0.017169885 0.0027697582 -0.12658411 -0.11653288 0.011312234 -0.18758267 -0.023747128 -0.03486273
-0.06352879 -0.062261973 0.116740204 0.1452956 -0.08991065 -0.032955986 -0.028383 -0.035926346
0.016761549 0.014965046 -0.0052615562 0.18657432 -0.10945108 -0.067432605 0.09384156 0.0066519068
-0.06501093 0.13861603 0.119262524 0.046600476 0.085318364 -0.17029917 -0.007488069 0.13736312
-0.09992792 -0.057077784 -0.09235138 -0.07954907 0.02796204 -0.2286977 0.07794221 -0.13618684
0.11335834 -0.027968895 0.08116106 -0.02623335 0.090676956 -0.05862813 -0.13891207 0.013980078
-0.008048557 0.101699695 0.15078679 -0.082815625 0.09449767 -0.100641556 0.06100306 0.075642355
-0.014237592 0.08823203 -0.02957674 -0.16297343 0.023494614 -0.16322754 0.1477328 -0.062234912
-0.06451488 0.14598647 0.020779323 0.06735686 0.015132545 -0.014620618 0.04198704 0.24027148
-0.028251458 -0.17295323 0.0015156135 0.10219743 -0.033743054 -0.03199286 0.017577194 0.067826904
-0.1594511 -0.09417765 -0.020294672 0.11308601 0.004817219 -0.09884485 -0.14693843 0.062647484
00000000: d082 b23c fe36 193e c30a 04be d544 203e
00000010: bb9a 5ebe 8775 543e 2d76 c5bc 7c0f 193e
00000020: 9d16 0fbe 274c d03d 81da 06be a4f7 0e3d
00000030: 023d b5bb afb9 9b3d bf90 1bbd 528b ccbd
00000040: 4a0d 00be a430 0fbe f741 bfbc b676 183e
00000050: 7eb9 d6bc a121 383c b4dc 26bd 9c21 553e
00000060: 71f1 a43d 7c3d 6e3e 7333 08be c99f 46bd
00000070: bb87 44bd 7edf a33d c8aa 573e 0e66 6d3e
00000080: 5cf8 95bd 92f9 6d3e 759e f2bd 31df 80be
00000090: 70cf da3d 960e bbbc 7bae 4c3b 7620 e73d
000000a0: 51de a63d 8170 473e 5626 42be 4fa3 943c
000000b0: 372b 673d d99f cfbd 8171 293d 5484 15be
000000c0: 4491 6bbe 158a 7f3e 990f 7dbd ea74 34bc
000000d0: c44e 563b f660 4dbd 33d3 febb b2da 0ebe
000000e0: 671f 993d f0dc a4bb eab6 763d 2745 993e
000000f0: 408a 00be d286 6cbd 4197 9a3d d88b 35bd
00000100: 4278 81be 6958 263e 9b7a 233c 5294 b2bd
00000110: 455e 763d 0b65 febd 04be 49be 2ed3 8cbc
00000120: a518 d1bc 5b90 eabd eea4 08be 6268 ddbd
00000130: 1a31 523c 533c 5abd ed90 883e 7ec4 83be
00000140: c22b 993d 1339 fd3d 1e1b f93d 9845 7dbd
00000150: c845 933d 1a8a 45be 0a5c d9bd 2db8 9ebd
00000160: 425f 8a3d 4748 193e 88a9 6c3d 2a1c 1ebe
00000170: dfcf 4c3d c852 0bbe f651 4d3e a2dc 043e
00000180: f7ac 863d 7bdf 843d 3d89 0e3e 0655 e8bc
00000190: 73be 123e c8a6 afbe b358 ba3d fb2c efbd
000001a0: c7be 013d 8e88 593e 025c 743c 2c7a b63d
000001b0: 3003 943d dd97 e0bd d735 263e 6b6b 8c3e
000001c0: 7029 45be 3079 00be a529 bc3d 42a9 953e
000001d0: 4a44 50be 40a1 623c 33e4 34bd 7e20 0e3e
000001e0: 2b2b 3ebd 651c 1bbc 8700 06bc 7152 013e
000001f0: be29 a63d 898d debd 75fe b8bd 67af 913e
00000200: 928a e33d 9d17 5f3d dd3d 95bd 8b9e 483d
00000210: d2c9 86bd abf3 833d a3d7 073e f2b6 3d3d
00000220: 6e62 3bbd f134 20bb ca56 30be 4893 f9bc
00000230: e3b9 2a3d cb9d f13d 6242 a63d 5807 f2bd
00000240: 2cc9 293d 48af 933c a911 a73a 0d68 8a3d
00000250: 6f49 103e fc25 13be 1edf 0ebe 2f4c bb3d
00000260: a4c2 2d3e 16a2 423c bc85 acbd b9fe b2bd
00000270: 3ef6 8b3d 23b1 67bd 1106 983d 69ee da3d
00000280: 8c75 94bd c1bb 1b3d 9cd5 94bd a7dd 9a3c
00000290: 0c7f b43d 1e54 1ebe d76b c4bd 9b64 9fbc
000002a0: dca7 8cbc d584 353b 449f 01be caa8 eebd
000002b0: f356 393c ac15 40be 5689 c2bc 39cc 0ebd
000002c0: 621b 82bd 6906 7fbd 7d15 ef3d 5fc8 143e
000002d0: 1323 b8bd dbfc 06bd 7783 e8bc 8127 13bd
000002e0: 844f 893c f42f 753c 2269 acbb 570d 3f3e
000002f0: e327 e0bd 1b1a 8abd 0130 c03d 3df8 d93b
00000300: 7324 85bd 5cf1 0d3e e93f f43d 24e0 3e3d
00000310: 65bb ae3d e862 2ebe 7a5e f5bb eba8 0c3e
00000320: 02a7 ccbd 65ca 69bd b822 bdbd 9fea a2bd
00000330: a610 e53c bb2f 6abe 2aa0 9f3d 9074 0bbe
00000340: 6b28 e83d 061f e5bc c537 a63d 53e7 d6bc
00000350: d7b4 b93d 0d24 70bd f73e 0ebe b20c 653c
00000360: 18de 03bc ee47 d03d da67 1a3e 3d9b a9bd
00000370: ff87 c13d 291d cebd 58de 793d 61ea 9a3d
00000380: ca44 69bc ffb2 b43d eb4a f2bc 82e2 26be
00000390: c777 c03c 1f25 27be 4447 173e 09ea 7ebd
000003a0: 6120 84bd 7a7d 153e 6639 aa3c 65f2 893d
000003b0: 7eee 773c 518b 6fbc 9afa 2b3d ba09 763e
000003c0: 9a6f e7bc a71a 31be 8da7 c63a e34c d13d
000003d0: 2836 0abd f20a 03bd 0cfe 8f3c d5e8 8a3d
000003e0: 2647 23be 36e0 c0bd 0341 a6bc a399 e73d
000003f0: c3d9 9d3b 2b6f cabd 0777 16be 534d 803d

fc2.bias f4 [128]
0.04600661 0.0016688915 0.0029679006 -0.036923338 -0.057475526 0.0074458094 -0.057767566 0.05105025
0.054490983 -0.05716856 0.020570155 0.046868864 -0.044973843 0.020407137 -0.0853811 0.07450485
0.045524683 0.084244795 0.011235427 0.014597795 -0.06269851 -0.011003938 0.09620893 -0.018734096
-0.016392654 0.06738776 -0.0007277321 -0.06812652 0.03498901 0.001702731 0.071954556 -0.10655272
-0.033700254 -0.062230825 -0.05693506 0.020164574 0.03079453 0.05192477 -0.09199831 -0.03790224
0.050067667 0.020924073 -0.05726409 0.014039759 -0.09675957 0.059199795 -0.11044594 0.057372797
0.067033 -0.06932182 -0.06039773 0.062102564 0.030720267 -0.07483967 0.077690475 -0.026386615
-0.043352507 0.04844023 -0.00891095 0.030619105 -0.038882814 -0.01512795 0.077153176 -0.0405994
-0.09158409 0.056216415 0.09301218 0.01975187 -0.033485055 0.0063673304 -0.11625786 0.021880845
-0.10643338 -0.08973719 -0.10010182 -0.03492284 0.014186106 -0.035034437 -0.016993731 -0.08992961
0.057498064 0.055498865 -0.0646905 -0.025153236 0.0580979 0.015150481 0.027988087 -0.09780914
0.048506375 -0.061660558 -0.02543101 -0.056658585 0.05893016 0.023448221 -0.091425456 -0.041060977
-0.04211818 0.083049476 0.026694877 -0.11548049 -0.09392748 -0.084986456 -0.04940093 0.014695823
0.004514395 -0.025802206 -0.0024611957 0.017814841 -0.010305319 -0.0035140424 0.057637956 0.12314782
-0.07377938 0.028535657 0.012903651 0.041037872 0.0312936 0.07647311 0.0017765093 -0.022581631
0.004988735 0.0070597483 -0.06751155 0.052403726 -0.017351342 -0.07784146 -0.013212996 0.06459448
00000000: 6d71 3c3d b5be da3a 1c81 423b ed3c 17bd
00000010: 756b 6bbd fafb f33b af9d 6cbd 111a 513d
00000020: f031 5f3d 9429 6abd be82 a83c 91f9 3f3d
00000030: 7e36 38bd de2c a73c 49dc aebd 0096 983d
00000040: 1778 3a3d 8988 ac3d cc14 383c 972b 6f3c
00000050: 1468 80bd dc49 34bc 3009 c53d 3f78 99bc
00000060: e349 86bc 9802 8a3d 46c5 3eba eb85 8bbd
00000070: a350 0f3d 2c2e df3a e95c 933d 5038 dabd
00000080: 4709 0abd c0e5 7ebd bd34 69bd 2d30 a53c
00000090: cf44 fc3c 11af 543d 9c69 bcbd 613f 1bbd
000000a0: c113 4d3d f668 ab3c c08d 6abd 0407 663c
000000b0: e229 c6bd 7c7b 723d 7b31 e2bd bdff 6a3d
000000c0: 9948 893d 99f8 8dbd 9c63 77bd 425f 7e3d
000000d0: 12a9 fb3c 8a45 99bd 2f1c 9f3d be28 d8bc
000000e0: 6692 31bd 4369 463d 3cff 11bc ebd4 fa3c
000000f0: 9643 1fbd 39db 77bc 7c02 9e3d 8e4b 26bd
00000100: 7090 bbbd 2f43 663d 2b7d be3d acce a13c
00000110: a027 09bd 0aa5 d03b 9a18 eebd 753f b33c
00000120: bef9 d9bd 22c8 b7bd 2f02 cdbd 400b 0fbd
00000130: d76c 683c 4580 0fbd 7036 8bbc 042d b8bd
00000140: 1783 6b3d c752 633d 747c 84bd 290e cebc
00000150: 10f8 6d3d b939 783c 4647 e53c 2950 c8bd
00000160: 9fae 463d c88f 7cbd b254 d0bc d512 68bd
00000170: c060 713d 7c16 c03c 453d bbbd 8e2f 28bd
00000180: 1d84 2cbd d815 aa3d 37af da3c 0981 ecbd
00000190: 0d5d c0bd 610d aebd a158 4abd c0c6 703c
000001a0: 7ded 933b 265f d3bc 034c 21bb 6ef0 913c
000001b0: a4d7 28bc d94b 66bb c715 6c3d ed34 fc3d
000001c0: a519 97bd 9cc3 e93c d669 533c 5417 283d
000001d0: b82d 003d ef9d 9c3d c3d9 e83a 1dfd b8bc
000001e0: 8b78 a33b 7655 e73b 7f43 8abd 4aa5 563d
000001f0: 6724 8ebc 586b 9fbd 527b 58bc 1c4a 843d

policy_mean.weight f4 [7, 128]
0.004316659 0.052689943 0.0013819729 0.038689625 0.05139536 -0.0030554035 -0.071743846 0.0053756917
-0.019599725 0.03981294 -0.050259 -0.03863823 0.028658384 0.0701344 -0.00029954087 -0.016772876
-0.0035491597 0.059598155 0.010974838 -0.044025503 -0.08894604 -0.011324855 0.027367305 0.0031494764
-0.006139401 0.05616388 -0.022240665 0.05962497 -0.038912836 -0.008063462 0.06851121 0.0762257
-0.07562647 -0.028701184 0.01583508 -0.08181071 0.081091575 0.047318023 -0.03496088 0.060595658
-0.0020499316 0.097544074 0.07019384 -0.020509604 0.030128865 -0.012335706 0.002576441 -0.065231726
0.066977516 0.038985707 0.06682795 0.056701366 0.061217446 0.06605807 0.029056085 -0.05446169
0.07427298 0.06384558 -0.061759233 -0.027202234 0.080118775 -0.012702853 0.0032539817 -0.029313544
0.015660955 -0.02862067 0.03900231 -0.052856117 -0.008405108 0.017169002 0.03140229 -0.031293713
-0.09651175 -0.008157382 -0.03291439 0.024676759 -0.024944121 0.081507266 -0.035335526 -0.036828592
0.020550458 -0.030382456 0.047759484 -0.04624282 0.02818114 -0.08697714 -0.028467339 0.007557116
0.040176082 -0.018016161 -0.07231118 -0.0067353714 0.004721731 0.074734814 -0.0663337 -0.03771608
-0.06945267 -0.049681608 -0.0291583 -0.09200154 0.067753755 0.07251052 -0.038236544 -0.062866926
-0.0023052613 0.0012135007 -0.07112334 0.004653457 0.047749776 -0.0011349743 -0.03275835 0.0938581
0.0059742527 -0.00087153865 -0.016980877 0.06888336 0.023334706 0.04842669 -0.06178611 -0.07206646
0.071549244 -0.07910897 -0.05358186 -0.019558748 0.015210463 0.051555064 -0.04560229 -0.082527675
-0.043350123 0.021912891 -0.014652671 0.08739233 -0.0035873528 0.016846614 0.0014350093 0.012025784
-0.05724106 0.046063643 0.068242 -0.030049307 -0.01261477 -0.04810733 -0.078597285 0.04262298
-0.06990867 -0.084600106 -0.01873866 -0.046571348 -0.024358353 0.0424343 -0.040046033 -0.061044164
0.016913664 -0.029053697 -0.002267578 -0.08036462 -0.040077094 -0.04653019 -0.061352428 0.07292465
0.018569361 -0.024864405 0.010019221 0.051780175 -0.012532278 0.025478957 0.027552877 0.0578126
0.040368807 -0.041552782 0.042720195 -0.0035013754 -0.06197746 -0.019004293 -0.07660128 0.0347412
0.087301224 0.017565455 -0.033752616 0.021601949 0.04044938 0.07739781 0.07281638 0.071936354
0.07332538 -0.053456932 0.069260985 -0.008849653 -0.06959933 -0.0225363 -0.045610536 -0.0037373286
0.09144948 -0.050419286 -0.0048218565 0.06207391 -0.100172326 0.06867358 0.06679466 -0.005133885
0.045735296 -0.04189134 0.047721017 -0.060096487 -0.0066101095 0.018413799 0.00995784 0.058936335
-0.06858247 -0.061688993 -0.04177967 -0.031880885 -0.09326212 -0.069729835 0.06957287 0.02794742
0.052813083 0.035379507 0.022013249 -0.04226046 -0.07277542 0.027595159 0.07835267 0.06423575
0.016651178 0.05279732 -0.0076583545 -0.04080108 0.04665605 -0.07779705 0.032385323 0.034186915
-0.05617065 -0.010729878 -0.04892933 -0.028831264 0.05834189 -0.001500922 -0.00924997 0.018876337
0.081431724 0.05565873 0.08288411 0.06688463 -0.035223622 -0.021346852 0.030158805 0.053989973
0.07294597 0.0143098505 0.041103512 0.005070735 -0.012254057 -0.034368455 -0.01086363 -0.026165389
00000000: c372 8d3b 69d1 573d 5123 b53a 0379 1e3d
00000010: f183 523d 2a3d 48bb 70ee 92bd 9226 b03b
00000020: 9a8f a0bc e512 233d 62dc 4dbd 1f43 1ebd
00000030: fdc4 ea3c a0a2 8f3d b20b 9db9 4567 89bc
00000040: 0599 68bb 321d 743d cfcf 333c 1654 34bd
00000050: 5729 b6bd e28b 39bc 6631 e03c 7267 4e3b
00000060: 072d c9bb 190c 663d 0e32 b6bc 5039 743d
00000070: 1163 1fbd 9c1c 04bc 9b4f 8c3d 381c 9c3d
00000080: 0de2 9abd bf1e ebbc 92b8 813c 608c a7bd
00000090: 5713 a63d 8bd0 413d 2433 0fbd 2733 783d
000000a0: 2558 06bb 30c5 c73d cac1 8f3d c203 a8bc
000000b0: cfd0 f63c b31b 4abc 82d9 283b 3698 85bd
000000c0: 822b 893d 7aaf 1f3d 18dd 883d b13f 683d
000000d0: 25bf 7a3d 7449 873d 0707 ee3c 3913 5fbd
000000e0: 6f1c 983d 79c1 823d 40f7 7cbd 38d7 debc
000000f0: 5015 a43d a11f 50bc c140 553b f522 f0bc
00000100: 674b 803c e575 eabc e3c0 1f3d a87f 58bd
00000110: 94b5 09bc 02a6 8c3c b09f 003d d62d 00bd
00000120: f4a7 c5bd 8aa6 05bc 3dd1 06bd ea26 ca3c
00000130: 9d57 ccbc 48ed a63d fcbb 10bd 94d9 16bd
00000140: 6f59 a83c a1e4 f8bc 739f 433d 1c69 3dbd
00000150: 22dc e63c 1221 b2bd 5634 e9bc afa1 f73b
00000160: ad8f 243d a196 93bc e217 94bd 64b4 dcbb
00000170: c0b8 9a3b 910e 993d f7d9 87bd 2d7c 1abd
00000180: 343d 8ebd f17e 4bbd 63dd eebc 4e6b bcbd
00000190: 7bc2 8a3d 6580 943d ec9d 1cbd 60c0 80bd
000001a0: de13 17bb 540e 9f3a 1da9 91bd 077c 983b
000001b0: 4595 433d 6bc3 94ba 9f2d 06bd ad38 c03d
000001c0: aac3 c33b f877 64ba 7b1b 8bbc b812 8d3d
000001d0: 6d28 bf3c 115b 463d 6f13 7dbd 9597 93bd
000001e0: 6988 923d e203 a2bd a778 5bbd ab39 a0bc
000001f0: 4e35 793c 672b 533d 78c9 3abd 4504 a9bd
00000200: e68f 31bd aa82 b33c c211 70bc c0fa b23d
00000210: cb19 6bbb e901 8a3c ec16 bc3a cb07 453c
00000220: 9a75 6abd 3bad 3c3d 76c2 8b3d f729 f6bc
00000230: 2eae 4ebc 310c 45bd 9df7 a0bd 6f95 2e3d
00000240: 472c 8fbd d242 adbd d181 99bc 99c1 3ebd
00000250: 2b8b c7bc 97cf 2d3d 4f07 24bd 7209 7abd
00000260: 868e 8a3c 0502 eebc a59b 14bb 3596 a4bd
00000270: e127 24bd 7196 3ebd af4c 7bbd 8559 953d
00000280: c61e 983c 70b0 cbbc a927 243c 7317 543d
00000290: 2f54 4dbc 3fb9 d03c 92b6 e13c e8cc 6c3d
000002a0: c359 253d 4033 2abd 5ffb 2e3d 5577 65bb
000002b0: 14dc 7dbd e4ae 9bbc 22e1 9cbd ca4c 0e3d
000002c0: fcca b23d 6ee5 8f3c 2f40 0abd 92f6 b03c
000002d0: 40ae 253d be82 9e3d c120 953d 5e53 933d
000002e0: 9e2b 963d a8f5 5abd b4d8 8d3d 23fe 10bc
000002f0: 188a 8ebd 0c9e b8bc 1dd2 3abd f8ed 74bb
00000300: dd49 bb3d 7484 4ebd aa00 9ebb 3641 7e3d
00000310: 2627 cdbd bca4 8c3d a4cb 883d 263a a8bb
00000320: ef54 3b3d 4196 2bbd 1d77 433d bc27 76bd
00000330: 9e99 d8bb 89d8 963c 3526 233c 3a67 713d
00000340: f774 8cbd 99ad 7cbd 2921 2bbd 8895 02bd
00000350: 3600 bfbd 84ce 8ebd 397c 8e3d fdf1 e43c
00000360: 8852 583d 1aea 103d 2155 b43c 4e19 2dbd
00000370: 480b 95bd 3e0f e23c 5d77 a03d 088e 833d
00000380: 0d68 883c 0142 583d eff2 fabb 091f 27bd
00000390: 6a1a 3f3d 0f54 9fbd 79a6 043d 9407 0c3d
000003a0: 3213 66bd 5fcc 2fbc 1f6a 48bd 8b2f ecbc
000003b0: e8f7 6e3d 96ba c4ba 308d 17bc 8ca2 9a3c
000003c0: adc5 a63d 69fa 633d 25bf a93d cffa 883d
000003d0: a546 10bd 98df aebc 990f f73c 9724 5d3d
000003e0: b264 953d dd73 6a3c 285c 283d 6828 a63b
000003f0: 3ec5 48bc f0c5 0cbd 5efd 31bc cc58 d6bc

policy_mean.bias f4 [7]
0.08091764 -0.057705738 -0.06762696 0.07457821 -0.019854143 0.07420908 -0.029635968
00000000: 26b8 a53d da5c 6cbd 0180 8abd 76bc 983d
00000010: 28a5 a2bc eefa 973d 21c7 f2bc

value_head.weight f4 [1, 128]
0.25942 0.28097004 -0.30778408 0.28213608 -0.28817213 -0.26111466 0.20275597 0.25720736
0.23098677 -0.22227164 -0.3062846 0.21983795 -0.29341793 0.28495407 -0.96234816 0.27678365
-0.26217613 0.24563009 -1.0621922 0.24370012 -0.29876202 0.29149458 0.19277838 -0.26331022
-0.23270974 0.2307057 0.2849143 -0.23059766 -0.23577723 -0.26620784 0.19317146 -0.20751849
0.2136939 0.21552709 0.27570462 -0.25700256 0.23457819 0.2894043 0.3571571 -0.20539775
-0.8926129 -0.99334556 -0.28993943 0.18114996 0.33500504 1.0034585 -0.2580711 0.23683003
0.9492232 -0.3213968 -0.30172673 -0.27120644 -0.32313228 -0.2541066 -0.23861751 0.3072599
0.25551364 -0.27752602 0.3007794 0.32704797 0.2729793 0.2892815 0.27686337 0.2817002
-0.24711232 0.27400884 0.21566217 -0.30893245 -0.88154376 0.23859897 -0.1926582 0.25372744
0.1391272 -1.0055752 -0.23057707 0.28376442 -0.2782485 0.25852174 0.26519132 -0.20728317
0.3217701 -0.2893659 -0.31828645 -0.24007438 0.31753543 -0.25698826 0.2561531 -0.25445828
0.27748105 -0.19888048 -0.2467698 0.3238536 -0.278897 0.27270243 0.25563905 0.2796748
0.24521804 0.1873146 1.1231413 -0.19714288 -0.21367398 -0.25295 0.3199267 -0.2782478
-0.21685344 0.24786405 -0.23270555 0.22681208 0.23849782 0.32807785 0.25531536 0.27359587
-0.28788304 0.22049019 0.30575657 0.20764774 0.25409803 0.26369333 -0.34905246 0.2875163
-0.35407028 0.2830032 -0.8166915 0.2847777 -0.31985742 -0.2533739 -0.9842875 -0.2680388
00000000: b3d2 843e 4edb 8f3e e095 9dbe 2474 903e
00000010: 4c8b 93be d2b0 85be 439f 4f3e afb0 833e
00000020: cc87 6c3e 2d9b 63be 56d1 9cbe 331d 613e
00000030: e03a 96be 80e5 913e 735c 76bf 96b6 8d3e
00000040: f33b 86be 7486 7b3e eaf5 87bf 868c 793e
00000050: 56f7 98be c73e 953e b267 453e 99d0 86be
00000060: 764b 6ebe 1d3e 6c3e 4ae0 913e cb21 6cbe
00000070: 966f 71be 654c 88be bdce 453e ba7f 54be
00000080: 93d2 5a3e 22b3 5c3e 2829 8d3e d795 83be
00000090: 4435 703e cd2c 943e 4cdd b63e ca53 52be
000000a0: 4782 64bf e54b 7ebf f172 94be 607f 393e
000000b0: c885 ab3e 5471 803f e521 84be 9283 723e
000000c0: 4b00 733f 1f8e a4be ed7b 9abe 92db 8abe
000000d0: 9871 a5be 431a 82be 2658 74be 2b51 9d3e
000000e0: afd2 823e e417 8ebe c2ff 993e d572 a73e
000000f0: f1c3 8b3e b41c 943e 09c1 8d3e 023b 903e
00000100: 030b 7dbe e34a 8c3e 8bd6 5c3e 652c 9ebe
00000110: daac 61bf 4a53 743e 3148 45be 90e8 813e
00000120: 5c77 0e3e b0b6 80bf 651c 6cbe 9249 913e
00000130: 9676 8ebe f65c 843e 28c7 873e 0a42 54be
00000140: 0dbf a43e c427 94be 71f6 a2be 0fd6 75be
00000150: 0194 a23e f793 83be 8026 833e 5b48 82be
00000160: ff11 8e3e 53a7 4bbe 39b1 7cbe 24d0 a53e
00000170: 96cb 8ebe a79f 8b3e 1fe3 823e 8931 8f3e
00000180: 701a 7b3e 66cf 3f3e 18c3 8f3f d3df 49be
00000190: 5acd 5abe aa82 81be 6fcd a33e 7f76 8ebe
000001a0: d40e 5ebe 13d0 7d3e 5d4a 6ebe 6d41 683e
000001b0: c638 743e d2f9 a73e b2b8 823e c214 8c3e
000001c0: 6865 93be 2ec8 613e 208c 9c3e 9ca1 543e
000001d0: 2319 823e d002 873e 01b7 b2be 5635 933e
000001e0: b348 b5be cce5 903e b212 51bf 62ce 913e
000001f0: 5ac4 a3be 39ba 81be 44fa 7bbf 623c 89be

exp_avg f4 [7]
-0.00019627006 -0.0006666987 -0.0024786536 -0.0011582477 -0.0005598312 -0.0010081874 0.0040894514
00000000: d8cd 4db9 64c5 2eba e870 22bb 58d0 97ba
00000010: a3c1 12ba 2825 84ba ce00 863b

exp_avg_sq f4 [7]
0.00011224032 0.00014276183 0.00011004191 0.00013570403 0.00012405806 0.00011650004 0.00012354311
00000000: 9062 eb38 56b2 1539 4dc6 e638 c64b 0e39
00000010: 9515 0239 7c51 f438 5a8b 0139

exp_avg f4 [128, 21]
-3.7104444e-05 -4.511661e-06 -3.7272064e-05 -4.7743764e-05 1.0010868e-05 -2.075333e-05 3.5241927e-05 9.596547e-06
-1.0316604e-05 1.8713912e-07 -5.1093105e-07 2.8289585e-07 -5.9328436e-06 -2.333096e-05 1.7457196e-06 -2.0375044e-06
2.455235e-05 -1.305025e-05 3.7387344e-05 -1.4211795e-06 1.3941051e-05 -0.000100315934 -0.00026999018 -0.001263394
-0.0012725614 0.00044975843 0.00045681206 0.00024947088 -2.9480163e-05 2.9436344e-05 9.229628e-08 -3.9811644e-07
-1.8517023e-05 -0.00014454535 -0.0012169703 3.912119e-05 -1.9653107e-05 -0.00018761259 -0.0013058279 8.179892e-05
0.00012544492 4.642431e-05 8.8576846e-05 -6.7608904e-05 -0.0002464743 -0.00014820434 -3.824336e-05 0.00020656985
-0.00010879894 -4.1075757e-05 4.3939075e-05 -2.3021018e-06 1.7404749e-06 -3.4620737e-06 -3.7309048e-05 -0.00027124607
5.1173615e-06 3.0210297e-06 3.4029137e-05 -0.00024941325 -9.2038936e-05 3.0299872e-05 -2.4771698e-05 -4.3443015e-05
1.7462093e-05 -3.0698924e-05 -0.00011695217 1.337567e-05 -9.4016934e-05 7.1787086e-05 1.608197e-05 -1.8153954e-05
4.8640336e-06 -4.632633e-06 3.1992397e-06 -4.211118e-06 -1.2562953e-05 4.898577e-07 -2.7897117e-06 2.6938245e-05
-3.5003264e-05 4.664225e-05 -2.1673193e-05 1.8136085e-05 3.931407e-05 -1.3744237e-05 0.00017969236 0.00022517386
-4.484375e-05 6.901456e-05 -0.00010916183 -8.171286e-06 9.940446e-06 1.6661169e-06 -1.3100524e-06 -1.4204347e-06
1.6713719e-05 0.00014617613 -2.6100565e-06 1.5239875e-06 1.50427595e-05 0.00019437858 -4.0734507e-05 3.0457966e-05
-3.351634e-05 -6.534914e-05 -0.00015779714 -0.0008678098 -0.00086280744 0.00020819019 0.00025963673 0.00021906506
-2.0916505e-05 1.9711928e-05 -3.20258e-07 -2.3221419e-06 -7.792294e-06 -0.00010368516 -0.00081859645 2.1398988e-05
-5.671554e-06 -4.2347347e-05 -0.0008665658 5.7556837e-05 5.4111995e-05 4.921377e-05 -4.8650305e-05 -0.00014677057
-0.0005042734 -0.00037344065 0.00013572206 0.00031211786 0.00011570702 -1.1857253e-05 1.2198044e-05 -4.29767e-06
3.0329254e-06 -9.448673e-06 -6.0070062e-05 -0.00047269947 2.0000867e-05 -3.708882e-06 -5.865253e-05 -0.0004572132
3.920162e-05 8.670052e-05 3.1573694e-05 -5.0218747e-05 -6.909352e-06 -0.00028841346 -0.0003555638 7.6280325e-05
-5.7224715e-05 9.119775e-05 6.486264e-06 -7.932569e-06 -4.2095223e-07 -3.0504873e-07 2.0958796e-08 -3.2309315e-05
-0.00025529464 6.6182474e-06 -4.6455043e-06 9.569724e-06 -0.00029794846 5.0239705e-05 -2.5399957e-05 3.311897e-05
5.0648527e-05 -5.557282e-05 -0.00017161445 -9.927164e-05 -1.6555037e-05 0.0001581158 -6.528298e-05 -2.1905013e-05
2.3618193e-05 5.2026905e-07 -1.618223e-07 -2.6695318e-06 -2.5528381e-05 -0.00018389396 3.5699354e-06 2.0239771e-07
3.0418363e-05 -0.00016435375 -5.3318054e-05 3.0044434e-05 -1.22793645e-05 -1.5667394e-05 7.165535e-05 0.00024149303
0.00016929125 -2.4365143e-05 -0.00016857684 1.8667533e-05 1.802637e-05 -1.9316938e-05 5.086684e-08 6.7735544e-07
4.350502e-06 3.2662967e-05 0.00024408549 -5.930637e-06 1.5615487e-07 -5.034316e-06 0.0002217216 2.0017906e-05
-3.8992388e-05 2.592414e-06 4.035265e-05 0.0001597781 0.00096336054 0.0009869132 -0.00024625863 -0.00025430968
-0.00019540318 2.902023e-05 -2.8712893e-05 -2.4809026e-07 1.6046195e-06 1.0095012e-05 0.0001137349 0.00092123763
-2.692983e-05 1.1444798e-05 2.0991622e-05 0.0009848085 -3.0257652e-05 -4.6043235e-05 -4.2122592e-05 4.718121e-05
0.00026476738 0.0008599053 0.00068768713 -0.00015143365 -0.0005492703 -0.000108818414 3.913101e-05 -4.0701274e-05
-3.2684754e-06 4.769351e-06 1.25758625e-05 0.00012145983 0.0008437776 -2.8240622e-05 6.053753e-06 -5.8116915e-05
0.0007511373 -3.460533e-05 -0.00014330754 -1.6127318e-05 1.28246e-05 1.07586575e-05 6.704129e-05 4.17137e-05
00000000: 98a0 1bb8 df62 97b6 9354 1cb8 7a40 48b8
00000010: 5af4 2737 7017 aeb7 bbd0 1338 db00 2137
00000020: 7a15 2db7 69f0 4834 ea26 09b5 e9e0 9734
00000030: bd12 c7b6 dbb6 c3b7 784e ea35 0fbc 08b6
00000040: c5f5 cd37 66f2 5ab7 5bd0 1c38 5bbf beb5
00000050: 5ce4 6937 b560 d2b8 788d 8db9 7898 a5ba
00000060: 13cc a6ba 8ecd eb39 4780 ef39 6acb 8239
00000070: 2b4c f7b7 11ee f637 6b34 c633 b5bc d5b4
00000080: 0155 9bb7 1991 17b9 bf82 9fba 0f16 2438
00000090: badc a4b7 dfb9 44b9 5028 abba 768b ab38
000000a0: dd89 0339 b9b7 4238 55c2 b938 41c9 8db8
000000b0: 3839 81b9 4d67 1bb9 7f67 20b8 ac9a 5839
000000c0: fc2a e4b8 c248 2cb8 394b 3838 cf7d 1ab6
000000d0: 439a e935 f955 68b6 497c 1cb8 0836 8eb9
000000e0: cdb5 ab36 e5bc 4a36 82ba 0e38 aec3 82b9
000000f0: 0705 c1b8 7b2c fe37 d1cc cfb7 9536 36b8
00000100: 8f7b 9237 b8c2 00b8 3844 f5b8 1168 6037
00000110: f52a c5b8 668c 9638 c5e7 8637 5249 98b7
00000120: bb35 a336 0472 9bb6 85b2 5636 3a4d 8db6
00000130: 79c5 52b7 c47e 0335 e236 3bb6 71f9 e137
00000140: 78d0 12b8 bca1 4338 d4ce b5b7 f222 9837
00000150: 29e5 2438 0c97 66b7 cd6b 3c39 a61c 6c39
00000160: 9c16 3cb8 e9bb 9038 d0ed e4b8 6817 09b7
00000170: e4c5 2637 579f df35 0fd5 afb5 c4a5 beb5
00000180: 7034 8c37 db46 1939 6e28 2fb6 d08b cc35
00000190: 2960 7c37 1ad2 4b39 58da 2ab8 fc7f ff37
000001a0: e593 0cb8 0d0c 89b8 5976 25b9 bb7d 63ba
000001b0: 072e 62ba a14d 5a39 da1f 8839 d4b4 6539
000001c0: da75 afb7 0b5b a537 edef abb4 18d6 1bb6
000001d0: a6bb 02b7 8c71 d9b8 1497 56ba fa81 b337
000001e0: 474e beb6 1e9e 31b8 3f2a 63ba 2f69 7138
000001f0: 50f6 6238 e26a 4e38 de0d 4cb8 6de6 19b9
00000200: 3731 04ba 5bca c3b9 9d50 0e39 c0a3 a339
00000210: bca7 f238 84ee 46b7 33a6 4c37 b434 90b6
00000220: 4389 4b36 be85 1eb7 bdf3 7bb8 a6d4 f7b9
00000230: 89c7 a737 1ce6 78b6 ad01 76b8 1eb6 efb9
00000240: 6b6c 2438 fdd2 b538 ff6d 0438 f8a1 52b8
00000250: e2d6 e7b6 3336 97b9 f76a bab9 b0f8 9f38
00000260: 9204 70b8 6b41 bf38 95a4 d936 2016 05b7
00000270: 3cff e1b4 94c5 a3b4 e108 b432 dd83 07b8
00000280: 11d9 85b9 5012 de36 94e0 9bb6 a78d 2037
00000290: f735 9cb9 79b8 5238 fe11 d5b7 39e9 0a38
000002a0: 716f 5438 dc16 69b8 67f3 33b9 0e30 d0b8
000002b0: acdf 8ab7 e3cb 2539 88e8 88b8 a8c0 b7b7
000002c0: af1f c637 9ea8 0b35 60c1 2db4 3526 33b6
000002d0: c825 d6b7 a9d3 40b9 0693 6f36 a952 5934
000002e0: f02a ff37 6056 2cb9 d3a1 5fb8 ee07 fc37
000002f0: 7803 4eb7 796d 83b7 ac45 9638 4b39 7d39
00000300: c683 3139 bf63 ccb7 00c4 30b9 3998 9c37
00000310: 5637 9737 cf0a a2b7 af78 5a33 83d3 3535
00000320: 87fa 9136 98ff 0838 33f1 7f39 c9ff c6b6
00000330: 86ab 2734 72ec a8b6 f07d 6839 20ec a737
00000340: c28b 23b8 55f9 2d36 5440 2938 1b8a 2739
00000350: 088a 7c3a 505b 813a 461c 81b9 de54 85b9
00000360: 24e5 4cb9 7870 f337 78dc f0b7 4431 85b4
00000370: 4e5e d735 bf5d 2937 f684 ee38 367f 713a
00000380: 5fe7 e1b7 0803 4037 2a17 b037 b114 813a
00000390: d0d1 fdb7 8c1e 41b8 caac 30b8 70e4 4538
000003a0: 7ad0 8a39 456b 613a e745 343a 29ca 1eb9
000003b0: e8fc 0fba 7135 e4b8 9a20 2438 a9b6 2ab8
000003c0: fb57 5bb6 6a08 a036 ebfc 5237 40b8 fe38
000003d0: f530 5d3a 46e6 ecb7 5821 cb36 90c2 73b8
000003e0: f9e7 443a 3125 11b8 d344 16b9 2749 87b7
000003f0: 3d29 5737 1580 3437 8598 8c38 bff5 2e38

exp_avg_sq f4 [128, 21]
1.6964153e-08 2.914674e-08 2.9519156e-06 2.9278417e-06 6.437491e-08 8.29547e-08 9.229269e-08 1.4505942e-09
1.4261712e-09 1.8166306e-09 1.779173e-09 1.4696905e-10 4.729703e-08 2.6733333e-06 1.2642458e-08 1.4248808e-09
2.1710743e-08 3.1143643e-06 1.6714994e-08 2.8612659e-08 8.5191685e-09 3.7519175e-07 2.3760526e-06 5.3313346e-05
4.174371e-05 2.8339052e-06 1.1332763e-05 2.7608446e-06 3.814625e-08 3.7595065e-08 3.4084845e-08 3.3548908e-08
8.185455e-09 9.962326e-07 4.938634e-05 2.3099199e-07 2.9258798e-08 4.260962e-06 5.3854812e-05 3.7774592e-07
6.809472e-07 1.3511028e-07 5.0261555e-08 5.293744e-07 2.1278789e-05 1.9588602e-05 7.4448553e-07 2.454846e-06
4.992718e-07 1.30706095e-08 1.3177673e-08 1.5252317e-08 1.4992258e-08 1.9725175e-09 3.6255997e-07 1.9598338e-05
2.724488e-08 5.2861906e-09 6.4851685e-07 2.2302203e-05 5.3209256e-08 2.607459e-07 5.0845195e-08 2.6280246e-08
3.2719157e-07 1.0453149e-05 9.262591e-06 4.4148217e-07 1.4959918e-06 2.8382578e-07 6.360839e-09 6.435793e-09
7.184935e-09 7.110216e-09 1.2323197e-09 1.8330854e-07 9.709927e-06 1.1518849e-08 2.1331703e-09 3.929263e-07
1.0951876e-05 2.889507e-08 1.3295275e-07 2.2588981e-08 1.9914365e-08 2.134601e-07 7.423319e-06 6.664121e-06
3.0661843e-07 9.792109e-07 1.9953343e-07 4.1713206e-09 4.2112354e-09 5.3595226e-09 5.32668e-09 8.112734e-10
1.2919811e-07 6.8845097e-06 1.42558205e-08 1.9823054e-09 2.4570662e-07 7.8201165e-06 2.1838586e-08 9.4030845e-08
1.6709615e-08 3.2204277e-08 2.3199124e-07 1.1491666e-05 1.04364135e-05 3.7570624e-07 1.1313163e-06 2.8671772e-07
6.764464e-09 6.6418537e-09 7.558071e-09 7.467355e-09 6.4826605e-10 1.9467485e-07 1.0462838e-05 1.7305696e-08
3.0109482e-09 4.676548e-07 1.1827828e-05 3.191265e-08 1.1849214e-07 3.1075977e-08 1.3888484e-07 8.5230937e-07
1.4425841e-05 1.1013415e-05 8.61186e-07 3.626446e-06 8.4137537e-07 1.049728e-08 1.0433095e-08 8.76237e-09
8.689504e-09 2.5747025e-09 2.7886944e-07 1.3753401e-05 5.3094354e-08 6.3071326e-09 9.840059e-07 1.5045164e-05
1.4221446e-07 2.0149864e-07 2.4478782e-08 2.0574706e-08 9.3373146e-08 8.423633e-06 8.224545e-06 2.2028868e-07
3.5435843e-07 1.930368e-07 4.043909e-09 4.019662e-09 5.4983302e-09 5.421422e-09 4.0135303e-10 1.3590451e-07
7.662188e-06 1.7740712e-08 2.5550149e-09 9.002966e-08 8.889576e-06 2.0977033e-08 8.317621e-08 2.2797163e-08
3.1728934e-08 3.8590917e-07 8.7314775e-06 7.21761e-06 4.6025298e-07 1.8237525e-06 3.111591e-07 5.9871392e-09
6.048435e-09 6.5788868e-09 6.4775874e-09 1.2697473e-09 1.584823e-07 8.206333e-06 1.2229804e-08 1.9384272e-09
4.480321e-07 9.161874e-06 3.42945e-08 1.2737841e-07 1.7118909e-08 2.075406e-08 2.7954405e-07 5.327114e-06
4.120247e-06 3.0134876e-07 1.3704298e-06 1.988495e-07 3.868333e-09 3.904102e-09 3.7046561e-09 3.681128e-09
8.561192e-10 9.956061e-08 5.0305503e-06 7.1130377e-09 1.2481394e-09 3.4565423e-07 5.522307e-06 2.21222e-08
8.092425e-08 9.884931e-09 1.0656657e-07 7.813711e-07 1.7691129e-05 1.3263381e-05 9.687453e-07 4.0308673e-06
9.626449e-07 1.2949085e-08 1.27360105e-08 1.2187626e-08 1.2115656e-08 2.8171372e-09 3.344044e-07 1.624969e-05
1.1592208e-07 1.2533249e-08 1.6250979e-06 1.7451119e-05 1.0639757e-07 2.2699837e-07 4.8822287e-08 2.7821113e-07
2.5503068e-06 3.725439e-05 2.6057245e-05 2.670414e-06 1.1565492e-05 2.2772836e-06 2.8629854e-08 2.8707008e-08
2.4902088e-08 2.5111495e-08 8.958086e-09 7.3716024e-07 3.56792e-05 2.1310505e-07 2.338321e-08 3.2691112e-06
3.8303155e-05 2.900337e-07 5.978317e-07 5.8985908e-08 5.4288876e-09 1.3685312e-08 3.585308e-07 3.1225488e-07
00000000: 91b8 9132 5c5e fa32 8619 4636 f07b 4436
00000010: 7b3e 8a33 d424 b233 7132 c633 3f5e c730
00000020: f002 c430 02ad f930 1687 f430 1c98 212f
00000030: a223 4b33 8467 3336 1e32 5932 89d5 c330
00000040: 6e7e ba32 5f00 5136 a994 8f32 e7c7 f532
00000050: b35b 1232 f66d c934 4674 1f36 c59c 5f38
00000060: f815 2f38 1f2e 3e36 d921 3e37 f346 3936
00000070: 3fd6 2333 3678 2133 af64 1233 6a17 1033
00000080: 03a0 0c32 4bb6 8535 2e24 4f38 9806 7834
00000090: c754 fb32 63f9 8e36 2ae2 6138 01cd ca34
000000a0: 56ca 3635 d512 1134 2adf 5733 551a 0e35
000000b0: da7f b237 3452 a437 a8d8 4735 efbd 2436
000000c0: b205 0635 268d 6032 0564 6232 3304 8332
000000d0: 53c8 8032 e58c 0731 dda5 c234 1c67 a437
000000e0: 2008 ea32 d3a1 b531 bd15 2e35 9e15 bb37
000000f0: 3288 6433 a5fc 8b34 e260 5a33 dfbe e132
00000100: dea8 af34 ef5f 2f37 8766 1b37 d904 ed34
00000110: e3c9 c835 b860 9834 888e da31 d521 dd31
00000120: 5bdf f631 1f4e f431 655e a930 78d3 4434
00000130: d2e7 2237 6fe4 4532 2197 1231 61f3 d234
00000140: f3bd 3737 ee34 f832 c6c1 0e34 b209 c232
00000150: 2710 ab32 7733 6534 d315 f936 5d9c df36
00000160: 519d a434 6e6d 8335 553f 5634 5353 8f31
00000170: 6bb2 9031 dc26 b831 f905 b731 4a00 5f30
00000180: b5b9 0a34 7d01 e736 c3e9 7432 1639 0831
00000190: a9e9 8334 2533 0337 8f97 bb32 01ee c933
000001a0: d588 8f32 fa50 0a33 4419 7934 54cc 4037
000001b0: 0e18 2f37 acb4 c934 bbd7 9735 2fee 9934
000001c0: db6c e831 5d36 e431 bfd8 0132 c649 0032
000001d0: ab31 3230 d107 5134 8c89 2f37 a1a7 9432
000001e0: 29e9 4e31 fc11 fb34 2270 4637 5410 0933
000001f0: be75 fe33 6678 0533 6020 1534 41ca 6435
00000200: 8406 7237 42c6 3837 402c 6735 de5d 7336
00000210: e0da 6135 8757 3432 3d3d 3332 5089 1632
00000220: d848 1532 a5ee 3031 86b7 9534 68be 6637
00000230: dc09 6433 20b6 d831 2f12 8435 7d6a 7c37
00000240: 9db3 1834 865b 5834 6945 d232 42bc b032
00000250: 6e84 c833 3a53 0d37 27fc 0937 7e88 6c34
00000260: a73e be34 8d45 4f34 9af2 8a31 521d 8a31
00000270: d3eb bc31 5547 ba31 6ba5 dc2f 26ed 1134
00000280: d98c 0037 3d64 9832 4c94 2f31 5456 c133
00000290: 7024 1537 fc30 b432 9b9e b233 7ed3 c332
000002a0: 5546 0833 f42e cf34 697d 1237 cc2e f236
000002b0: b018 f734 a9c7 f435 620d a734 6fb7 cd31
000002c0: 99d2 cf31 800c e231 7691 de31 4383 ae30
000002d0: 482b 2a34 efad 0937 3f1b 5232 2c35 0531
000002e0: 1089 f034 f3b5 1937 344b 1333 83c5 0834
000002f0: e10c 9332 a946 b232 3e14 9634 90bf b236
00000300: a740 8a36 0fc9 a134 9cef b735 5683 5534
00000310: 38ea 8431 d824 8631 0095 7e31 17f7 7c31
00000320: 0854 6b30 06ce d533 19cc a836 f166 f431
00000330: 008b ab30 5b92 b934 424c b936 3b07 be32
00000340: 94c8 ad33 63d2 2932 97d9 e433 6abf 5135
00000350: 6967 9437 ca85 5e37 d605 8235 e340 8736
00000360: 3a34 8135 ae76 5e32 91cd 5a32 bf61 5132
00000370: 3825 5032 9a97 4131 3188 b334 f24f 8837
00000380: d6f0 f833 d051 5732 f01d da35 fe63 9237
00000390: af7c e433 d6bc 7334 acb0 5133 0c5d 9534
000003a0: f025 2b36 9941 1c38 8295 da37 5d35 3336
000003b0: 6909 4237 6fd3 1836 b7ed f532 6197 f632
000003c0: 45e8 d532 c3b4 d732 14e6 1932 44e1 4535
000003d0: 40a6 1538 dfd1 6434 39dc c832 e762 5b36
000003e0: b3a7 2038 eeb5 9b34 ae7a 2035 b157 7d33
000003f0: 0089 ba31 a41c 6b32 197c c034 fca3 a734

exp_avg f4 [128]
-2.4683633e-05 -0.0013207614 -0.0002958259 -1.3104942e-05 0.00015850412 -0.00088858395 -0.00051245006 -0.00027678124
-0.00020030212 0.00026511832 0.0010004947 0.0009151604 6.242011e-05 0.00014569158 -0.00041798156 0.00015388416
-0.0002912476 -0.00014004372 0.00051183155 0.0013999082 -0.0020154216 0.00049849635 0.00093316025 0.0011129987
-7.505932e-05 -0.00014406347 0.000682695 0.0003140321 -0.0023139059 0.0003012316 -0.0013883555 0.0003860251
0.0011236959 0.0006044059 -0.0002253117 -6.32874e-05 0.00012996825 0.0013561127 0.00066250394 -0.00018412521
-0.000888055 -0.00020636267 0.00023344214 0.00029224186 -0.00036125048 0.0015641194 0.0006491689 -0.00012042685
0.00043380086 0.0013084534 -0.001103824 -0.000113758426 -0.0014045563 0.00059253554 0.0003624256 -0.00019372812
-0.00012359554 0.00015449476 -0.00048018564 -0.00053017295 0.0009636875 0.00041473354 0.00036527272 -0.00014062584
-0.0009035227 0.00033446512 0.00012662807 -0.0018105805 -0.0007378797 0.0014815509 -0.0010640054 -0.0004606763
0.00040215702 0.0006972066 -0.0023630469 0.00058678293 -0.00018236208 0.0026787906 -1.00658735e-05 -0.00010644993
-0.00012258986 0.002385618 0.000117492455 0.00042090612 -0.0012669622 -0.0009594041 8.813857e-07 -0.0028213584
0.0002709802 -0.000114997085 -0.00055588206 -0.00052257517 -0.00046381523 -0.00018959297 0.00050891883 -0.0004389573
0.0018009015 -0.00029931922 2.2422351e-05 0.00092671707 6.2170525e-06 0.00023335118 -0.0020940066 0.0005539783
0.0004479195 0.0009218645 0.0006129743 0.0023293968 0.00016665523 -0.0007869167 0.0005176633 -0.0016348036
-0.00020630003 0.0004186048 0.0003722807 4.762744e-05 -0.0017626235 0.0004607003 -0.0009839701 0.00036197528
0.00091643835 0.0005089553 -0.0007776424 -0.0007524184 -0.00024535472 -4.3806398e-05 -0.00018376141 3.5687215e-05
00000000: b30f cfb7 661d adba 1519 9bb9 4cdd 5bb7
00000010: 2034 2639 dcef 68ba f155 06ba f31c 91b9
00000020: 3108 52b9 94ff 8a39 0823 833a 60e7 6f3a
00000030: 8be7 8238 c9c4 1839 8924 dbb9 f75b 2139
00000040: 97b2 98b9 b3d8 12b9 6f2c 063a 207d b73a
00000050: 2a15 04bb 86ad 023a 539f 743a 0ae2 913a
00000060: 2a69 9db8 be0f 17b9 e3f6 323a ada4 a439
00000070: e6a4 17bb 9fee 9d39 7bf9 b5ba 6963 ca39
00000080: fa48 933a fe70 1e3a a641 6cb9 2ab9 84b8
00000090: 1648 0839 97bf b13a e3ab 2d3a bc11 41b9
000000a0: 5dcc 68ba 0f63 58b9 26c8 7439 0a38 9939
000000b0: 3866 bdb9 2303 cd3a fd2c 2a3a ac8d fcb8
000000c0: c46f e339 6980 ab3a 30ae 90ba 9791 eeb8
000000d0: 1719 b8ba 6354 1b3a f103 be39 7f23 4bb9
000000e0: 6d99 01b9 dfff 2139 6dc1 fbb9 4efb 0aba
000000f0: f99f 7c3a 9870 d939 1382 bf39 f674 13b9
00000100: 62da 6cba 265b af39 77c7 0439 0051 edba
00000110: 456e 41ba 9930 c23a 1976 8bba ed86 f1b9
00000120: 9ad8 d239 bec4 363a 59dd 1abb 56d2 193a
00000130: 7338 3fb9 a68e 2f3b 99e0 28b7 df3d dfb8
00000140: 778b 00b9 0758 1c3b 4866 f638 10ad dc39
00000150: 3210 a6ba 8580 7bba 5d98 6c35 8ae6 38bb
00000160: 5912 8e39 972a f1b8 9db8 11ba 6dfd 08ba
00000170: 3a2c f3b9 7acd 46b9 f768 053a da23 e6b9
00000180: 3a0c ec3a f2ed 9cb9 a217 bc37 eeee 723a
00000190: 139c d036 bbaf 7439 9a3b 09bb db38 113a
000001a0: bdd6 ea39 48a9 713a 02b0 203a cba8 183b
000001b0: 2cc0 2e39 1649 4eba ccb3 073a e846 d6ba
000001c0: 3e52 58b9 2f78 db39 ab2e c339 93c3 4738
000001d0: d507 e7ba 268a f139 8ff8 80ba 80c7 bd39
000001e0: 233d 703a 696b 053a b3da 4bba f23d 45ba
000001f0: f4a2 80b9 c3bc 37b8 14b0 40b9 dbae 1538

exp_avg_sq f4 [128]
3.154716e-06 5.8242087e-05 2.3121798e-05 1.1454807e-05 8.122075e-06 1.2344626e-05 1.6213873e-05 9.042277e-06
9.678657e-06 5.9321264e-06 1.9164752e-05 4.20602e-05 3.938867e-07 3.4670495e-05 5.958522e-06 1.2195008e-05
9.789035e-06 6.339452e-06 4.915472e-06 0.00015723075 0.00013749079 1.10579895e-05 1.5311718e-05 6.710838e-05
1.3576502e-05 2.7103719e-05 1.21863895e-05 8.6777754e-07 0.00022265257 7.733261e-06 3.330993e-05 3.6386813e-05
3.0166739e-05 2.7418566e-05 2.1914651e-05 2.9903538e-05 2.166448e-06 7.309967e-05 1.9330253e-05 7.5431603e-06
1.5718893e-05 1.6371097e-05 7.068169e-06 5.8296037e-06 4.3297605e-06 3.7776215e-05 1.1411377e-05 2.8668787e-06
1.0591311e-05 7.435346e-05 5.568467e-05 2.1528003e-06 6.8952104e-05 7.184751e-06 2.106722e-06 3.4296597e-06
1.271452e-06 4.0155e-06 5.3206504e-06 3.5403587e-05 2.4855695e-05 2.663844e-06 1.4816787e-05 6.9727735e-06
9.582915e-05 3.8423426e-05 4.5404477e-06 0.00016607704 9.645491e-06 4.088765e-05 5.8004505e-05 1.4060705e-05
4.711913e-06 1.42276285e-05 0.0002745094 4.4409107e-06 5.9012295e-06 0.00015396878 4.7776783e-05 5.285592e-05
6.9468565e-06 0.00024224815 7.920308e-06 3.211258e-06 5.2094398e-05 7.5753844e-05 1.2741376e-05 0.0002719262
3.890356e-06 1.0863371e-05 8.381878e-06 2.7841434e-05 1.0035003e-05 1.1583467e-05 3.205812e-05 9.299135e-06
0.00015151965 1.270006e-05 3.6590966e-06 1.5070957e-05 5.3422964e-06 6.764904e-05 0.00011017811 9.327163e-06
1.5250679e-06 0.00015428908 1.04023065e-05 0.00035549264 1.9731326e-06 3.0340545e-05 2.5197134e-05 6.643997e-05
1.11263535e-05 4.7612566e-06 2.3994044e-05 2.4309784e-05 0.00015049151 2.6456487e-06 1.7281325e-05 1.7205568e-05
1.9190136e-05 6.3012662e-06 4.498788e-05 2.1703283e-05 1.245688e-06 3.892683e-07 8.375417e-06 1.8808247e-05
00000000: 9cb5 5336 f748 7438 aff5 c137 052e 4037
00000010: 0c44 0837 c41b 4f37 0703 8837 49b4 1737
00000020: 8461 2237 940c c736 fec3 a037 cc69 3038
00000030: 6077 d334 296b 1138 50ef c736 2999 4c37
00000040: 963b 2437 7ab7 d436 95ef a436 4fde 2439
00000050: 672b 1039 b485 3937 aa71 8037 8abc 8c38
00000060: a2c6 6337 cb5c e337 2574 4c37 38f1 6835
00000070: d877 6939 1abe 0137 44b6 0b38 0b9e 1838
00000080: 940e fd37 ec00 e637 5bd5 b737 5cd9 fa37
00000090: 4b63 1136 164d 9938 6727 a237 411b fd36
000000a0: 11dc 8337 aa54 8937 1c2b ed36 ea9b c336
000000b0: 5c48 9136 e771 1e38 7e73 3f37 9a64 4036
000000c0: 56b1 3137 36ee 9b38 f68e 6938 d478 1036
000000d0: 619a 9038 8b14 f136 3561 0d36 1b29 6636
000000e0: c2a6 aa35 e2bc 8636 0a88 b236 507e 1438
000000f0: 3381 d037 7ec4 3236 9e95 7837 abf7 e936
00000100: e2f7 c838 d728 2138 265a 9836 f724 2e39
00000110: 12d3 2137 c87e 2b38 dd49 7338 45e6 6b37
00000120: 061b 9e36 33b3 6e37 07ec 8f39 2203 9536
00000130: 2d03 c636 ae72 2139 ee63 4838 9db1 5d38
00000140: 0b19 e936 fe03 7e39 77e1 0437 fe80 5736
00000150: ef7f 5a38 09de 9e38 cbc3 5537 5191 8e39
00000160: e789 8236 d341 3637 e49f 0c37 068d e937
00000170: 025c 2837 9d56 4237 2576 0638 7b03 1c37
00000180: 3fe1 1e39 5812 5537 cd8e 7536 44d9 7c37
00000190: fa41 b336 cdde 8d38 6c0f e738 dc7b 1c37
000001a0: efb0 cc35 a9c8 2139 9185 2e37 6a61 ba39
000001b0: 296a 0436 d383 fe37 6f5e d337 b055 8b38
000001c0: 53ab 3a37 e2c2 9f36 d146 c937 ddec cb37
000001d0: 42cd 1d39 e68b 3136 5df7 9037 ad54 9037
000001e0: 81fa a037 776f d336 5eb1 3c38 720f b637
000001f0: 8431 a735 a1fc d034 2484 0c37 67c6 9d37
