models/checkpoint_0.pth (torch, 28349 bytes, 8 tensors)

policy_log_std f4 [7]
0	0x00000000	0.0
1	0x00000000	0.0
2	0x00000000	0.0
3	0x00000000	0.0
4	0x00000000	0.0
5	0x00000000	0.0
6	0x00000000	0.0

fc1.weight f4 [64, 21]
0	0xbd37f064	-0.04490699
1	0x3e562eb5	0.20916255
2	0x3dbd7652	0.092510834
3	0x3d1c624c	0.03817968
4	0xbe30816e	-0.17236874
5	0x3df8410e	0.12121783
6	0x3c96be08	0.01840116
7	0x3e1d4dcf	0.15361713
8	0xbd3ffaec	-0.046870157
9	0x3dcb88a6	0.09938173
10	0x3e54d273	0.20783405
11	0xbd13a0e4	-0.03604211
12	0x3e5f0097	0.21777569
13	0x3d611664	0.054952994
14	0xbd0b9a54	-0.034082726
15	0x3d0c7d94	0.034299448
16	0xbe1e9ab6	-0.15488705
17	0x3dd6e876	0.10493557
18	0x3e179e39	0.14806451
19	0xbcd41a90	-0.025891572
20	0x3e400cb3	0.18754844
21	0xbe392f02	-0.18084338
22	0xbc619920	-0.013769418
23	0xbde6b0bb	-0.112641774
24	0x3d1ec96c	0.03876631
25	0xbdb0e222	-0.086368814
26	0x3e52ad03	0.20573811
27	0x3e5b1051	0.21392943
28	0xbda30500	-0.07959938
29	0x3c9d6cf8	0.019217
30	0x3e1bc16b	0.15210502
31	0xbe18ca08	-0.14920819
32	0xb9ffa400	-0.0004875958
33	0x3e209f81	0.15685846
34	0xbe161676	-0.14657006
35	0x3dd1b9ba	0.10240503
36	0xbd90d73a	-0.07072301
37	0xbde7292d	-0.112871505
38	0xbdc2203f	-0.09478807
39	0x3e051d9f	0.12999581
40	0x3e373a19	0.17893256
41	0x3e4058b3	0.18783836
42	0x3dee8afa	0.116476014
43	0x3df9896a	0.12184413
44	0x3d98e1c6	0.07464938
45	0x3e599b8b	0.21250741
46	0x3d8ac476	0.06775753
47	0xbe0d832a	-0.13819566
48	0x3e468289	0.19385733
49	0xbd8ec10c	-0.069704145
50	0x3e47526d	0.19465037
51	0x3ddc23fe	0.107490525
52	0xbbf479c0	-0.007460803
53	0xbe452b99	-0.19254912
54	0xbdc9f6e9	-0.098615475
55	0x3df0c606	0.1175652
56	0xbe45e8f4	-0.19327146
57	0xbe36b5dc	-0.17842811
58	0xbd50c040	-0.050964594
59	0xbde36430	-0.111030936
60	0xbe30a118	-0.17248952
61	0xbe26df4a	-0.16296116
62	0xbdbfef6a	-0.093718365
63	0xbe490e9e	-0.19634482
64	0x3d9580ae	0.07299934
65	0x39eab200	0.00044764578
66	0x3d452c0c	0.04813771
67	0xbdb8fba4	-0.09032372
68	0x3d0a281c	0.033729658
69	0xbe35c24f	-0.17749904
70	0x3d826692	0.0636722
71	0xbd2c6134	-0.042084888
72	0xbc8f02d8	-0.01745741
73	0xbe51d630	-0.20491862
74	0x3db9c29a	0.090703204
75	0xbde8ee78	-0.11373609
76	0xbd4b2f50	-0.049605668
77	0x3e25940d	0.16169758
78	0x3e1f0fe3	0.15533404
79	0x3db1ed3e	0.086878285
80	0x3e54f675	0.20797141
81	0x3d20bf74	0.039245084
82	0xbe078d9a	-0.1323761
83	0xbe2c0ff7	-0.16802965
84	0xbe2e8c74	-0.17045766
85	0xbe4ecd58	-0.2019552
86	0xbe3f508f	-0.18683074
87	0xbe3b4122	-0.18286565
88	0x3dfb9256	0.12283771
89	0xbc1329e0	-0.008982152
90	0x3d866e16	0.06563966
91	0xbdb6a3f4	-0.0891799
92	0xbe39d5b1	-0.18147923
93	0x3b533900	0.003223002
94	0x3e4cc50f	0.19997047
95	0x3c269df0	0.010169491
96	0x3e5681af	0.20947908
97	0x3c9f6130	0.019455522
98	0xbd7fa054	-0.06240876
99	0xbe349239	-0.17633905
100	0x3d29e744	0.041480318
101	0xbe1a52b2	-0.15070608
102	0x3e3ff68d	0.18746395
103	0xbdace182	-0.0844145
104	0xbbacdec0	-0.0052755773
105	0xbe5e59d5	-0.21713956
106	0xbe2b6b06	-0.16740045
107	0xbe2e5d64	-0.17027813
108	0x3dc105be	0.09424923
109	0xbe4bcc88	-0.19902241
110	0x3e25926d	0.16169138
111	0x3cab0e90	0.020880967
112	0xbe449936	-0.1919907
113	0x3e392679	0.18081082
114	0x3e451975	0.19247992
115	0x3e2f27a7	0.1710497
116	0x3e5abdc9	0.2136146
117	0xbe2d5f27	-0.16930829
118	0xbdf79042	-0.12088062
119	0x3e36848b	0.17823999
120	0x3e3fe4f1	0.18739678
121	0x3c4db860	0.012556165
122	0x3e1ae443	0.15126137
123	0xbe2c7d52	-0.16844681
124	0x3dd513a6	0.10404138
125	0xbd2c5064	-0.042068854
126	0xbc131b80	-0.0089787245
127	0xbd3279b4	-0.043573096
128	0xbe57891c	-0.21048397
129	0xbca6b438	-0.020349607
130	0xbe525d42	-0.20543388
131	0xbe04d4ec	-0.12971848
132	0xbcd16ee0	-0.025565565
133	0xbd522a30	-0.051309764
134	0xbe21703f	-0.15765475
135	0xbddec024	-0.10876492
136	0x3da45fbe	0.08026074
137	0xbd8c137a	-0.06839652
138	0xbe3137de	-0.17306468
139	0x3e40e291	0.18836428
140	0xbd6533d0	-0.055957615
141	0xbcb47b90	-0.022031575
142	0x3df95e46	0.12176184
143	0x3e2e2e1b	0.17009775
144	0x3e00cde5	0.12578543
145	0xbe13480b	-0.14382951
146	0x3e144c8b	0.14482324
147	0xbca234c0	-0.019800544
148	0x3dbe4a92	0.09291567
149	0x3c149310	0.009068266
150	0x3e449fc7	0.19201575
151	0x3e164c71	0.14677598
152	0xbe4316a3	-0.19051604
153	0x3afcdf00	0.0019292533
154	0xbd6f21bc	-0.05838178
155	0x3dd49a62	0.10381009
156	0x3d4a63bc	0.04941152
157	0xbd700660	-0.05859983
158	0xbd2feb58	-0.04294905
159	0xbd844986	-0.06459336
160	0x3e52703f	0.20550631
161	0x3e3d0577	0.18459116
162	0xbdcf0cc9	-0.101098605
163	0xbe0d21e4	-0.1378246
164	0x3d95217a	0.07281776
165	0xbd204040	-0.039123774
166	0x3d92a19e	0.07159732
167	0xbe0cd341	-0.13752462
168	0xbd395178	-0.04524371
169	0xbdf92961	-0.121660955
170	0xbd2e97c4	-0.042625204
171	0x3b03aac0	0.0020090789
172	0x3ca36308	0.019944683
173	0x3d991b16	0.07475869
174	0xbd693454	-0.05693467
175	0xbcca06d8	-0.024661466
176	0xbe1b9062	-0.15191796
177	0xbe23d160	-0.15997839
178	0x3e0bfff1	0.13671853
179	0xbc98c820	-0.018650115
180	0x3dacb5ea	0.08433135
181	0xbc2d9f60	-0.01059708
182	0x3e44f1c1	0.19232847
183	0x3dd1fcd2	0.102533
184	0xbd4d8c5c	-0.050182685
185	0xbe1e36a6	-0.15450534
186	0x3e11a2b3	0.14222221
187	0x3e1c163f	0.15242861
188	0x3e3ea2d9	0.18616809
189	0xbcae8e60	-0.021308124
190	0x3e177af7	0.14793001
191	0xbe47cd44	-0.19511896
192	0x3e429077	0.19000421
193	0xbcb53f08	-0.022124782
194	0x3dac2246	0.08404975
195	0x3e4058cd	0.18783875
196	0x3e10f46f	0.14155744
197	0x3d92a47a	0.07160278
198	0x3c6806f0	0.01416181
199	0x3e173765	0.14767225
200	0xbe1506a0	-0.14553308
201	0xbd62d820	-0.055381894
202	0x3c597a90	0.01327385
203	0x3e225a5b	0.1585478
204	0xbccd6d68	-0.025076583
205	0x3d6e44ac	0.05817096
206	0xbe13ad84	-0.1442166
207	0xbdad1852	-0.08451904
208	0xbe4076da	-0.18795338
209	0xbde70b40	-0.11281443
210	0xbe4d14a4	-0.20027405
211	0x3e4a989b	0.19784777
212	0xbe104676	-0.14089379
213	0x3cf10b20	0.02942425
214	0x3e1120ab	0.14172618
215	0xbd7e1514	-0.06203182
216	0x3e21cf37	0.15801702
217	0x3df311ba	0.118686154
218	0x3e413907	0.1886941
219	0xbe1fd161	-0.15607215
220	0x3d80be6e	0.062863216
221	0xbe46614e	-0.19373056
222	0x3dbb2e8e	0.09139739
223	0xbda6fdb8	-0.08153862
224	0x3e18b4d1	0.14912726
225	0xbe571824	-0.21005303
226	0xbbecd3e0	-0.007227406
227	0xbde03d96	-0.109492466
228	0x3d4d4204	0.050111786
229	0xbcd2f288	-0.025750414
230	0xbe440375	-0.19141944
231	0xbdebbdf6	-0.115108415
232	0x3dce142a	0.1006244
233	0xbe00b6e0	-0.12569761
234	0xbe2f266e	-0.17104504
235	0x3d9b853e	0.07593773
236	0x3e43d9f7	0.19126116
237	0xbd8d2fe8	-0.06893903
238	0x3e534259	0.20630778
239	0x3e1def9b	0.15423433
240	0xbce7a720	-0.028277934
241	0x3d76eb1c	0.06028281
242	0xbe0353e2	-0.12824968
243	0xbe5b9d82	-0.21446803
244	0x3d8cb4a2	0.068703905
245	0x3d691aac	0.056910202
246	0xbe05b160	-0.13055944
247	0x3e1d655d	0.15370698
248	0xbde0eadd	-0.109822966
249	0xbe11ad0b	-0.14226167
250	0x3e32691d	0.1742291
251	0xbe0c7c3c	-0.13719267
252	0x3de943be	0.11389874
253	0xbe5c9f47	-0.21545134
254	0xbe026600	-0.12734222
255	0xbdc42384	-0.095770866

fc1.bias f4 [64]
0	0xbe2e4751	-0.17019393
1	0x3e56909d	0.20953603
2	0xbd6638e4	-0.0562066
3	0x3c9a2780	0.018817663
4	0xbdb816bc	-0.08988711
5	0x3dd2282a	0.10261567
6	0xbe09db30	-0.1346252
7	0x3def4dc6	0.11684756
8	0x3e0bd575	0.13655646
9	0xbd2f0370	-0.042727888
10	0xbe3953a2	-0.1809831
11	0x3c928e68	0.01789017
12	0x3e42017d	0.1894588
13	0x3c54c5d0	0.012986615
14	0xbd05ba14	-0.03264816
15	0x3d913d6a	0.07091792
16	0x3cb14498	0.021639153
17	0xbdcc8e28	-0.09988052
18	0x3dd3c9b2	0.10341205
19	0xbde80650	-0.11329329
20	0xbe58c7f6	-0.21170029
21	0x3dfb53e2	0.12271859
22	0x3e1e7a5b	0.15476362
23	0xbdfb0842	-0.122574344
24	0xbe152e4b	-0.1456844
25	0x3c2e8a30	0.010653064
26	0xbcf5ef18	-0.030021235
27	0x3d967e3e	0.073482975
28	0x3e015617	0.12630497
29	0xbd76b548	-0.060231477
30	0xbe1cec6a	-0.1532456
31	0x3e31e41d	0.17372175
32	0xbe475fbc	-0.19470114
33	0xbe045eb8	-0.12926757
34	0x3e16de23	0.14733176
35	0x3da7648e	0.08173476
36	0xbd665ad4	-0.056238964
37	0x3e348ceb	0.17631881
38	0xbd46b748	-0.048514634
39	0xbda970cc	-0.082734674
40	0xbcbb59c8	-0.02286996
41	0x3d547174	0.05186601
42	0x3e5cf90b	0.21579377
43	0xbe5a398e	-0.21311018
44	0xbdf05781	-0.1173544
45	0xbcc73b68	-0.02432032
46	0xbe3f6e92	-0.18694523
47	0xbe2e09aa	-0.16995874
48	0xbe50ef02	-0.20403674
49	0x3e4b1465	0.19831999
50	0x3e577427	0.21040402
51	0x3e49379f	0.19650124
52	0x3d79165c	0.06081234
53	0xbd92eaac	-0.07173666
54	0x3e50a593	0.20375662
55	0xbe05a4eb	-0.13051192
56	0xbdfdafde	-0.1238706
57	0xbcaee9b8	-0.02135168
58	0xbd92224c	-0.07135448
59	0x3ddf9ee2	0.10918976
60	0xbe400c21	-0.18754627
61	0x3dfbe04a	0.12298639
62	0xbe3e2ca7	-0.18571721
63	0xbe363a31	-0.17795636

fc2.weight f4 [64, 64]
0	0xbda745c0	-0.08167601
1	0x3dd51a18	0.104053676
2	0x3d40c018	0.047058195
3	0xbd7a2020	-0.061065793
4	0xbdaa0fe4	-0.08303812
5	0xbca61408	-0.020273224
6	0x3d802016	0.0625612
7	0xbd511b4c	-0.051051423
8	0x3d962330	0.0733093
9	0xbc86a690	-0.016436845
10	0x3d689df0	0.056791246
11	0x3daa1c10	0.08306134
12	0x3c9ce7c0	0.019153476
13	0xbdabd49a	-0.0839016
14	0x3da22e64	0.079190046
15	0x3d12c1ac	0.03582923
16	0x3d080514	0.033207968
17	0x3dadb59e	0.08481906
18	0xbdb78cdc	-0.08962414
19	0xbdd93352	-0.10605492
20	0x3dc3dca0	0.09563565
21	0xbd9cd052	-0.076569214
22	0xbd6fca44	-0.058542505
23	0xbd9fd934	-0.078051
24	0xbd90204e	-0.07037412
25	0x3dbb8c94	0.091576725
26	0xbd93c8da	-0.07216044
27	0xba93a980	-0.0011265725
28	0x3df8a45c	0.12140724
29	0x3ccd9b68	0.025098518
30	0x3ba61920	0.005068913
31	0xbcddbb60	-0.027066886
32	0x3dcc2672	0.0996827
33	0x3cef1e58	0.029189274
34	0xbcb0b580	-0.021570921
35	0xbd1d9d28	-0.038479954
36	0x3c3ddaa0	0.011587769
37	0x3c7f8910	0.015596643
38	0x3d3766c8	0.044775754
39	0xbdfda7b4	-0.123855025
40	0xbd176040	-0.036957026
41	0x3dfb4c86	0.12270455
42	0x3d036100	0.03207493
43	0xbacef780	-0.0015790313
44	0x3daf2c70	0.08553398
45	0x3ddd4ff0	0.108062625
46	0xbd272298	-0.040804476
47	0x3dd6b75c	0.10484192
48	0x3c8aecc8	0.01695861
49	0x3de793ca	0.113074854
50	0x3c51cb50	0.012804821
51	0x3c76f360	0.015072674
52	0x3c11d900	0.0089018345
53	0x3dfbb162	0.122896925
54	0xbb1c6c40	-0.0023868233
55	0x3b8561a0	0.0040704757
56	0x3d4fcba4	0.050731316
57	0x3dc11e9c	0.094296664
58	0xbda58b72	-0.08083238
59	0x3d9d8656	0.07691638
60	0xbb8820e0	-0.0041543096
61	0xbde9b774	-0.11411944
62	0x3d6b33f8	0.057422608
63	0xbd5ff610	-0.054678023
64	0x3d332ab0	0.04374188
65	0xbdab635c	-0.08368561
66	0x3dee1ac8	0.11626202
67	0xbdc9be40	-0.098507404
68	0x3dd3ffdc	0.10351536
69	0x3ccfb160	0.025353134
70	0xbd0f7828	-0.0350267
71	0xbdc4f7e2	-0.096175924
72	0xbdb2162e	-0.08695637
73	0x3da6ac50	0.08138335
74	0xbdf49b02	-0.11943628
75	0x3d9bda54	0.07610002
76	0xbd9e4c22	-0.07729365
77	0x3d2d5004	0.042312637
78	0x3d780a48	0.06055668
79	0xbbacb4a0	-0.0052705556
80	0x3c705630	0.014668986
81	0xbdc99aca	-0.09843977
82	0xbc008da0	-0.007846266
83	0xbbb41760	-0.0054959506
84	0x3d9a48c0	0.07533407
85	0x3da02636	0.07819788
86	0xbcc0f138	-0.023552522
87	0xbde1d344	-0.11026624
88	0x3dfd7cc4	0.12377313
89	0xbd9491dc	-0.07254383
90	0xbde1ff3a	-0.11035009
91	0xbd282054	-0.041046456
92	0xbdc06c9e	-0.09395717
93	0x3ddafecc	0.1069313
94	0x3d9676f2	0.07346906
95	0x3dd13554	0.1021525
96	0x3c41d900	0.011831522
97	0x3d85ecd0	0.06539309
98	0xbdd5e6ca	-0.1044441
99	0x3d5583b8	0.05212757
100	0x3d69e064	0.05709876
101	0x3df7a0ca	0.12091215
102	0x3dae1808	0.08500677
103	0xbc98a7d0	-0.018634707
104	0xbdb0daee	-0.086355075
105	0xbd2985a4	-0.041387215
106	0x3cae1388	0.021249548
107	0xbd794adc	-0.060862407
108	0x3d82cf02	0.0638714
109	0x3d0a6bf0	0.033794343
110	0x3ce35e60	0.027754962
111	0xbdbdeaa4	-0.0927327
112	0x3de4d474	0.11173335
113	0x3d497a08	0.049188644
114	0xbc8c8768	-0.01715441
115	0x3d988950	0.07448065
116	0x3d1e5160	0.038651824
117	0x3dc79f52	0.09747185
118	0x3cb54e08	0.022131935
119	0xbd9c7348	-0.07639176
120	0xbcb07338	-0.021539316
121	0x3d7c2d38	0.06156656
122	0x3d795ba8	0.060878426
123	0x3de25fd8	0.11053437
124	0xbd1fd374	-0.039020017
125	0xbad22380	-0.0016032308
126	0xbc752e70	-0.014964685
127	0x3df31160	0.118685484
128	0xbc899220	-0.01679331
129	0xbd419a04	-0.04726602
130	0x3da3f47a	0.080056146
131	0xbd890bf4	-0.06691733
132	0xbd467eac	-0.048460647
133	0x3cf57e58	0.029967472
134	0x3d86bc5e	0.06578897
135	0x3d239cf0	0.03994459
136	0x3d822738	0.06355137
137	0x3dd7caa4	0.105366975
138	0xbdc0b416	-0.09409349
139	0xbd673b04	-0.056452766
140	0xbd8de41e	-0.069282755
141	0x3d55e2e4	0.052218333
142	0x3b875200	0.004129648
143	0xbda62c34	-0.081139
144	0x3da67aa0	0.081288576
145	0x3ce23908	0.027615085
146	0xbd03cb7c	-0.03217648
147	0xbcf5b9f8	-0.029995903
148	0xbdd85306	-0.105627105
149	0xbd15cda8	-0.036573082
150	0xbcd77c00	-0.026304245
151	0xbd5dbe7c	-0.05413674
152	0x3d8b706e	0.06808554
153	0xb9b35c00	-0.00034210086
154	0x3d022284	0.031771198
155	0xbdab445a	-0.083626464
156	0x3d897d8c	0.06713399
157	0xbc9973b0	-0.018731922
158	0xbc59dd70	-0.013297424
159	0x3d23c20c	0.03997998
160	0xbd4b47fc	-0.049629197
161	0x3d086e48	0.033308297
162	0xbd657a98	-0.056025118
163	0xbd2fc164	-0.04290904
164	0x3dfe90ae	0.12429939
165	0xbde7fc12	-0.113273755
166	0x3bce5a40	0.0062973797
167	0xba929600	-0.001118362
168	0xbdcd9000	-0.100372314
169	0x3dad0870	0.08448875
170	0x3dc8b870	0.09800804
171	0xbdb08b0e	-0.086202726
172	0x3b008640	0.001961127
173	0x3cf4c0a8	0.029877022
174	0xbd65e6ac	-0.05612819
175	0x3d404ff0	0.046951234
176	0xbd5cee80	-0.05393839
177	0xbd8d0856	-0.068863556
178	0xbce232b8	-0.027612075
179	0xbd6c3520	-0.05766785
180	0x3db26efe	0.08712576
181	0xbde10c20	-0.10988641
182	0xbd64c9b8	-0.055856436
183	0xbdebeffa	-0.11520381
184	0x3c1bc8c0	0.009508312
185	0xbdb7e20c	-0.08978662
186	0x3d56166c	0.052267477
187	0x3d889de4	0.0667074
188	0x3db6687a	0.08906646
189	0x3d9c54a8	0.076333344
190	0x3d92ed96	0.07174222
191	0xbce82a80	-0.028340578
192	0xbdab123a	-0.08353086
193	0xbd98cf20	-0.07461381
194	0x3c815820	0.015789092
195	0x3d1a7cb0	0.037716568
196	0x3dd29588	0.10282427
197	0xbd6e2f68	-0.05815068
198	0xbd19131c	-0.03737174
199	0xbcf19ca8	-0.029493645
200	0xbdf22446	-0.11823325
201	0xbdd70be6	-0.10500316
202	0x3de03bca	0.10948904
203	0x3cbd0bb8	0.023076877
204	0xbdcd676a	-0.1002949
205	0xbda87a5c	-0.08226463
206	0x3dbfae36	0.093594
207	0xbc0a9bf0	-0.00846003
208	0xbc9b18a0	-0.01893264
209	0x3d391988	0.045190364
210	0x3dbce05e	0.09222482
211	0xbd94282e	-0.07234226
212	0x3bf2dd00	0.007411599
213	0x3dbe8e36	0.09304468
214	0x3de442ce	0.111455545
215	0xbdaf054e	-0.08545934
216	0x3de65e3c	0.112484425
217	0xbd855dc0	-0.06512022
218	0xbdda4848	-0.10658318
219	0x3b43e7c0	0.0029892772
220	0x3d978aba	0.07399507
221	0x3dd42f5a	0.10360594
222	0x3ce18468	0.027528957
223	0x3da222ea	0.079168156
224	0x3d3fd1c8	0.046830922
225	0xbd199ddc	-0.037504062
226	0x3dbe5ddc	0.09295246
227	0xbce9e638	-0.02855216
228	0x3de3730a	0.11105926
229	0xbc089220	-0.00833562
230	0x3ddf0d90	0.10891259
231	0x3d507dc8	0.050901204
232	0xbcdc8a80	-0.02692151
233	0x3dee8164	0.11645773
234	0xbcf2ab90	-0.029622823
235	0x3d8fcf6c	0.070219845
236	0xbdb2a3ac	-0.08722624
237	0xbd2e81d0	-0.042604268
238	0x3dab4f06	0.08364682
239	0x3df6c7cc	0.12049827
240	0x3c8f74a8	0.01751168
241	0xbcc550e8	-0.02408643
242	0x3dc2f40a	0.09519203
243	0xbdcd2410	-0.10016644
244	0x3d950eaa	0.072781876
245	0xbdf0b95e	-0.11754106
246	0x3dac1e24	0.08404186
247	0x3d860d72	0.06545533
248	0xbda025dc	-0.07819721
249	0xbd8c6b42	-0.06856395
250	0xbc4d03e0	-0.012513131
251	0x3db1a2ca	0.08673628
252	0xbd9f234c	-0.07770404
253	0xbdb1413a	-0.08655019
254	0x3c5cc4e0	0.013474673
255	0x3dc9a692	0.09846224

fc2.bias f4 [64]
0	0xbdaea2ee	-0.0852717
1	0x3dc8d13c	0.09805533
2	0x3dfcc150	0.12341559
3	0x3de5a754	0.11213556
4	0xbdb2bb9c	-0.0872719
5	0xbd2eaa64	-0.042642966
6	0xbc53b440	-0.012921393
7	0xbcc47de0	-0.023985803
8	0x3ce05958	0.027386352
9	0xbda843ac	-0.082160324
10	0x3d3e1f98	0.04641685
11	0x3da6a42a	0.081367806
12	0xbb7e52c0	-0.0038806647
13	0xbdb3acee	-0.08773218
14	0x3d9a2e22	0.075283304
15	0x3dafb33e	0.085791096
16	0x3d754044	0.05987574
17	0x3c57c2d0	0.0131690055
18	0x3c5cce30	0.013476893
19	0x3db1fe96	0.086911365
20	0x3c5536a0	0.013013512
21	0x3d8fc0aa	0.0701917
22	0xbd9e946e	-0.077431545
23	0x3de4b5c0	0.111674786
24	0x3d384494	0.044987276
25	0xbd270288	-0.0407739
26	0x3c849590	0.016184598
27	0xbdc3e672	-0.09565438
28	0x3dece9c0	0.11568022
29	0xbd70daac	-0.05880229
30	0xbdc0eab6	-0.094197676
31	0x3ba44960	0.00501363
32	0xbdd202f8	-0.102544725
33	0xbc8e26a0	-0.017352402
34	0x3c8b7a68	0.017026141
35	0xbcde75e0	-0.027155817
36	0xbd5719b0	-0.052514732
37	0xbd658fd4	-0.05604537
38	0xbd7bc854	-0.061470345
39	0x3b2af180	0.0026083887
40	0xbcc00b08	-0.02344276
41	0xbdba305a	-0.090912536
42	0x3cee9af0	0.029126614
43	0x3c61a340	0.013771832
44	0xbd170384	-0.036868587
45	0x3de94912	0.1139089
46	0xbd157888	-0.0364919
47	0xbbb3c540	-0.0054861605
48	0xbd677930	-0.056512058
49	0xbbfadc80	-0.00765568
50	0x3d4cab80	0.049968243
51	0xbd1fd79c	-0.03902398
52	0xbdaec986	-0.08534531
53	0xbda18efa	-0.07888599
54	0xbda8d8e6	-0.08244495
55	0xbd8a3600	-0.06748581
56	0xbd4fb93c	-0.050713763
57	0x3cda28f0	0.026630849
58	0xbde62048	-0.11236626
59	0x3cac12b0	0.021005005
60	0x3df1e928	0.11812049
61	0xbdc8f8fc	-0.09813115
62	0xbd752de8	-0.059858233
63	0x3dbd3fc4	0.09240678

policy_mean.weight f4 [7, 64]
0	0xbd28de60	-0.0412277
1	0x3ccb0740	0.02478373
2	0x3d74b95c	0.059747085
3	0x3d976844	0.07392934
4	0xbcb23420	-0.02175337
5	0x3c9d50f0	0.019203633
6	0xbce78410	-0.028261214
7	0x3d01e3d0	0.0317114
8	0xbd0bb728	-0.03411022
9	0xbdc05962	-0.093920484
10	0xbdf0ee1c	-0.11764166
11	0xbcdd45b0	-0.027010769
12	0x3d5ac474	0.05341001
13	0x3da3c9c6	0.079974696
14	0xbd7d8678	-0.061895818
15	0xbdf978b0	-0.121812224
16	0xbdab285c	-0.08357307
17	0xbdf06a2e	-0.11739002
18	0x3d1fdfa4	0.03903164
19	0xbdd851b4	-0.10562459
20	0x3dec2ab4	0.115315825
21	0x3dc934b2	0.09824504
22	0x3c803648	0.015650883
23	0x3d5862b8	0.05282852
24	0xbde208b4	-0.11036816
25	0xbd30b7fc	-0.04314421
26	0xbccb9908	-0.024853244
27	0x3dedca0e	0.116108045
28	0x3dabdbf8	0.08391565
29	0x3d6dfab8	0.058100432
30	0x3baddd60	0.005305931
31	0xbd66676c	-0.056250975
32	0x3b876840	0.0041323006
33	0x3cf38ea8	0.02973111
34	0xbd3deca0	-0.04636824
35	0xbdf3800c	-0.118896574
36	0x3de5f80e	0.11228953
37	0xbc2786c0	-0.010224998
38	0x3a3d1100	0.0007212311
39	0xbd74dc0c	-0.059780166
40	0xbd3de67c	-0.046362385
41	0xbdf52d14	-0.119714886
42	0xbc8a9268	-0.016915515
43	0xbda45e24	-0.080257684
44	0x3d9149f6	0.07094185
45	0xbd890bb4	-0.06691685
46	0x3da5b5fc	0.080913514
47	0x3d0eb0a4	0.034836426
48	0xbdc55c4a	-0.09636743
49	0x3dca94ea	0.09891684
50	0xbddb676c	-0.107130855
51	0xbda3d56e	-0.07999693
52	0xbdb07d2a	-0.08617623
53	0x3dd03b92	0.10167612
54	0x3d01ca94	0.031687334
55	0xbd839672	-0.064251795
56	0x3d0775f8	0.03307149
57	0x3df2ccfe	0.118555054
58	0xbc84f970	-0.016232222
59	0x3d9c561a	0.0763361
60	0x3de0b0b6	0.10971205
61	0x3bfa1540	0.0076319277
62	0xbd729e24	-0.059232846
63	0xbc761670	-0.015019998
64	0x3dbb3ab6	0.091420576
65	0xbd968298	-0.073491275
66	0x3d9421a2	0.072329774
67	0xbdebc276	-0.115117
68	0xbca7da68	-0.020489886
69	0x3db179a0	0.08665776
70	0xbd1190c0	-0.035538435
71	0xbca4d338	-0.020120248
72	0xbd6d45e4	-0.05792798
73	0xbc77b920	-0.015119821
74	0x3c60e480	0.013726354
75	0x3dcd1fd2	0.10015835
76	0x3d70a0ac	0.05874698
77	0x3d3b9fac	0.04580657
78	0x3dde301a	0.108490184
79	0xbdfd665a	-0.12373038
80	0xbd055104	-0.032547966
81	0xbdbcd8e6	-0.092210576
82	0xbd81e3e2	-0.06342293
83	0x3d075168	0.03303662
84	0xbd34e160	-0.044160247
85	0xbce44bb8	-0.027868137
86	0x3de9a42c	0.114082664
87	0x3aaaab00	0.0013020933
88	0x3dcca2a8	0.09991962
89	0x3d0d6c6c	0.034527227
90	0x3d196ae0	0.03745544
91	0xbd92150a	-0.07132919
92	0xbddf8030	-0.10913122
93	0x3dfc639e	0.12323688
94	0x3d2ee448	0.042698175
95	0x3d9a68f8	0.075395525
96	0x3c0eb360	0.0087097585
97	0x3d733c74	0.059383824
98	0x3db1797c	0.086657494
99	0xbdf51bcc	-0.119681925
100	0xbd2c5b70	-0.04207939
101	0xbc7b8d30	-0.015353486
102	0xbd1e3a00	-0.03862953
103	0xbda62ebc	-0.081143826
104	0xbd5cccfc	-0.053906426
105	0xbd47c534	-0.048772052
106	0xbdd32488	-0.10309702
107	0x3d84b496	0.064797565
108	0x3dab45b6	0.08362906
109	0x3d67359c	0.05644761
110	0x3dd04b7c	0.101706475
111	0x3d13c1c8	0.036073476
112	0x3d8371fc	0.06418225
113	0xbdc84dee	-0.09780489
114	0x3d4de12c	0.05026357
115	0xbcbd73d0	-0.023126513
116	0xbd85cdb2	-0.06533374
117	0xbd700ef8	-0.058608025
118	0x3ddc5e5e	0.107601866
119	0xbdc13cfc	-0.0943546
120	0xbdd264f0	-0.102731586
121	0x3c0bbf00	0.008529425
122	0x3d95030c	0.07275972
123	0xbd82c9ca	-0.063861445
124	0xbbe06480	-0.006847918
125	0x3bab1ac0	0.0052216947
126	0xbdde35da	-0.10850115
127	0x3dbf6d48	0.093470156
128	0x3de1f03a	0.11032148
129	0xbde732cc	-0.112889856
130	0xbd3bd5c0	-0.045858145
131	0xbcf6c718	-0.030124232
132	0xbdb367e0	-0.08760047
133	0x3c764310	0.015030637
134	0xbd567354	-0.05235608
135	0xbdb63366	-0.08896522
136	0xbd7e85d4	-0.062139347
137	0x3d8877a4	0.06663445
138	0x3ce2a620	0.027667105
139	0xbd9e4a12	-0.077289715
140	0x3ddf740a	0.109108046
141	0xbd5cbf68	-0.053893477
142	0x3d7ac54c	0.061223313
143	0x3dfa06d4	0.122083336
144	0x3d6246ec	0.055243418
145	0x3d36af0c	0.04460053
146	0xbd3166a4	-0.043310776
147	0xbd064d08	-0.032788306
148	0xbd5caf2c	-0.053877994
149	0x3db65d3c	0.08904502
150	0x3ddcdc78	0.107842386
151	0xbdab38e6	-0.08360462
152	0x3d8be29e	0.06830333
153	0xbdf75570	-0.12076843
154	0xbb506380	-0.0031797588
155	0x3df2de4a	0.118588045
156	0x3c00fa20	0.007872134
157	0xbd79cccc	-0.060986325
158	0xbdc879d4	-0.09788862
159	0xbcf92468	-0.030412868
160	0x3d7cb82c	0.061699077
161	0x3d829cf6	0.06377594
162	0xbda16038	-0.078796804
163	0x3da61ee2	0.08111359
164	0x3df64776	0.12025349
165	0x3cfd3838	0.030910596
166	0xbd577298	-0.05259952
167	0x3c9b01d0	0.018921763
168	0xbd6f6608	-0.058446914
169	0xbdc34644	-0.095348865
170	0xbc1c05e0	-0.009522885
171	0xbdc65562	-0.09684254
172	0xbd322250	-0.043489754
173	0x3dfa2782	0.12214567
174	0xbdddd5d4	-0.108318
175	0x3cee7428	0.029108122
176	0x3dcdeafc	0.10054585
177	0x3d967e32	0.073482886
178	0xbddc1a6e	-0.107472286
179	0x3d96184a	0.073288515
180	0xbdc7fd36	-0.09765093
181	0x3b945100	0.0045262575
182	0x3d83c982	0.06434919
183	0x3cbdc560	0.023165405
184	0xbdb5e502	-0.088815704
185	0xbc9c2270	-0.01905939
186	0x3d73ecac	0.05955188
187	0xbd87fabe	-0.06639622
188	0x3ded1672	0.11576547
189	0x3beb1d00	0.007175088
190	0x3d5f2d08	0.054486305
191	0x3d94c624	0.07264355
192	0xbdb431ac	-0.08798537
193	0xbd41aa70	-0.047281682
194	0xbdf36610	-0.11884701
195	0xbdda4088	-0.106568396
196	0xbd94e9ca	-0.07271154
197	0x3df0f4a0	0.117654085
198	0xbd9eb054	-0.07748476
199	0xbd4d9840	-0.050194025
200	0x3c26f6a0	0.010190636
201	0xbd8a326e	-0.067479
202	0x3d476534	0.0486805
203	0xbdf109d4	-0.11769453
204	0xbd68d5f4	-0.056844667
205	0xbd971a24	-0.07378033
206	0xbde6d0d6	-0.11270301
207	0x3dc7e08e	0.09759627
208	0x3bdace20	0.006677404
209	0x39950400	0.00028422475
210	0xbdc5e4c2	-0.09662773
211	0xbd4cc554	-0.049992874
212	0xbc533cc0	-0.012892902
213	0x3d656464	0.056003943
214	0x3d427b38	0.04748079
215	0x3cdda278	0.02705501
216	0xbd8eb434	-0.06967965
217	0x3d177878	0.036980122
218	0x3b7b9580	0.003838867
219	0x3d9668be	0.07344197
220	0xbd8c97e6	-0.0686491
221	0xbdebc2b8	-0.11511749
222	0x3d02ec48	0.031963617
223	0xbdabf04a	-0.08395441
224	0xbdeb0b52	-0.114767686
225	0xbcf45438	-0.029825315
226	0x3d5673e8	0.05235663
227	0x3d0ef014	0.034896925
228	0xbd37b250	-0.044847786
229	0x3cf82a28	0.03029354
230	0xbda71be0	-0.081596136
231	0x3dbbf006	0.0917664
232	0x3d636658	0.055517524
233	0x3cd7dd40	0.026350617
234	0x3db1dc72	0.08684625
235	0xbc072480	-0.008248448
236	0xbda3b320	-0.0799315
237	0x3d8b2eb8	0.0679602
238	0x3daa7d3a	0.08324666
239	0xbbd328e0	-0.0064440817
240	0x3d41d9e8	0.047326952
241	0xbdbca036	-0.09210245
242	0x3d9a797a	0.07542701
243	0xbd03cd78	-0.032178372
244	0xbd4229d4	-0.04740317
245	0xbd5c2adc	-0.05375181
246	0xbdf4839e	-0.119391665
247	0x3c26c130	0.010177895
248	0xbce773b8	-0.028253421
249	0x3be86580	0.007092178
250	0xbd9bbe2a	-0.0760463
251	0xbd38fa48	-0.04516056
252	0x3dc1da2a	0.094654396
253	0x3d334d38	0.043774813
254	0x3dd68aa2	0.10475661
255	0xbde2f68c	-0.11082181

policy_mean.bias f4 [7]
0	0x3d9bedca	0.07613714
1	0xbd0ffd68	-0.035153776
2	0xbd001fd8	-0.03128037
3	0xbd1e8694	-0.038702562
4	0xbd995c82	-0.074883476
5	0x3d13d0d4	0.036087826
6	0xbdcd1488	-0.10013682

value_head.weight f4 [1, 64]
0	0xbd5cd32c	-0.053912327
1	0x3c3a88d0	0.011385158
2	0xbd66a310	-0.056307852
3	0xbcb4f590	-0.02208975
4	0xbdcc721a	-0.09982701
5	0x3ddeca4a	0.10878427
6	0xbd395ac4	-0.045252576
7	0xbd4c1fac	-0.049834892
8	0xbd870ffa	-0.06594844
9	0xbdbf16c8	-0.09330517
10	0xbdb45fc2	-0.08807327
11	0x3d905358	0.070471466
12	0x3dcd9080	0.10037327
13	0xbde63b46	-0.11241774
14	0xbde22be8	-0.11043531
15	0x3c590350	0.013245419
16	0x3de05866	0.10954361
17	0xbd76064c	-0.0600646
18	0xbca5a9a0	-0.020222485
19	0x3db2d1c2	0.087314144
20	0x3dec7160	0.11545062
21	0xbdc19048	-0.094513476
22	0xbd71c410	-0.05902487
23	0xbd92ea90	-0.071736455
24	0x3cef2868	0.029194072
25	0x3d7184cc	0.058964536
26	0x3b97e740	0.0046357214
27	0xbdc5d89a	-0.09660454
28	0x3dcec6d0	0.10096514
29	0x3dc0866c	0.09400639
30	0x3d8d4170	0.06897247
31	0x3c963c48	0.018339291
32	0x3d36cdac	0.044629738
33	0x3caa6af0	0.020802945
34	0x3d96c66a	0.07362063
35	0x3d176be8	0.03696814
36	0x3d457d14	0.048214987
37	0xbcf884a0	-0.030336678
38	0xbd69def4	-0.05709739
39	0xbda6c540	-0.08143091
40	0x3dc0433c	0.09387824
41	0x3c90ac10	0.01766017
42	0x3cf30338	0.02966462
43	0xbd292c70	-0.041302145
44	0x3c283ca0	0.01026836
45	0x3ce088b0	0.027408928
46	0x3deee554	0.116648346
47	0x3dc425ae	0.09577499
48	0xbd1133b8	-0.035449713
49	0xbde388ec	-0.111101
50	0xbdd4d1aa	-0.10391553
51	0x3dff5a5c	0.124684066
52	0x3daf1c18	0.0855028
53	0x3d87e64c	0.066357225
54	0x3cead550	0.028666168
55	0xbd91a60e	-0.071117505
56	0x3d8d54fc	0.06900975
57	0xbd234094	-0.03985651
58	0xbcf17c70	-0.029478282
59	0x3de3e82e	0.11128269
60	0x3c587200	0.0132107735
61	0xbdf962e8	-0.12177068
62	0x3b5d4b00	0.0033766627
63	0x3d9979c8	0.07493931
