models/checkpoint_4600.pth (torch, 255274 bytes, 24 tensors)

policy_log_std f4 [7]
0.8247967 0.59903455 1.0484657 0.37475473 0.4613897 0.96107364 -2.6300745
00000000: e025 533f 545a 193f 2034 863f dadf bf3e
00000010: 453b ec3e ec08 763f 2453 28c0

fc1.weight f4 [128, 21]
0.548448 0.681815 -0.24998513 -0.41677767 -0.5106225 -0.19376023 -1.1135579 -0.7757095
0.4085796 0.050161272 -0.004101087 1.6752768 -0.1938659 -0.45312747 -0.39312354 -0.18667407
-0.74886507 -0.13161317 0.43480796 -1.19194 0.70803076 1.1419817 -0.39769948 0.45500475
0.16043535 -0.026724616 -1.8052408 -0.45806068 -0.5497413 0.9122152 0.01801307 0.038949665
1.1773763 0.1361426 0.56609184 0.19231884 -0.01233708 0.563683 0.3557263 -0.38826817
0.7856563 -1.9444247 0.30573288 -0.42388895 0.798943 0.39635336 0.7563047 -0.58006096
0.22158135 0.59945464 -0.6555314 -0.29575318 0.4056034 0.22497691 0.7655892 0.9056044
-0.3607128 -0.22332263 0.019733379 0.81933707 -0.54422325 0.5492764 -0.2785054 0.13924253
-0.22121401 -0.08787613 -0.5345407 -0.63495916 0.05752731 -0.68189794 -0.8782516 0.95573944
0.046616826 -0.19184533 0.72202796 -0.6968781 -0.55121106 0.05251663 0.2652095 -0.09592738
-0.172627 0.6286773 -0.6359296 -1.0009978 0.8413726 -0.9761689 0.597228 0.49204358
0.5598333 -0.8534773 -0.56474227 0.18806034 -0.07768854 0.42941916 -0.5422101 3.8056853
0.52529365 0.39168525 0.023459362 0.15541922 -0.4670856 0.45557633 0.6158263 1.0572795
-1.7325429 0.12951195 -0.38078246 0.1582939 0.36949074 0.054819673 -1.0996835 -0.17176624
0.9862885 -0.031299282 0.059487056 0.11708835 -1.5349092 -0.13537736 0.044390984 -0.34867007
-0.30096588 -1.1549423 0.22732283 -0.5958953 0.18791671 -1.2923038 -0.15216649 0.19979039
-0.6889993 0.34915712 -0.2848575 0.925857 0.12564856 0.1459159 0.23236945 -0.094776876
-0.082799315 -0.51214874 -0.63346314 -0.113681674 -0.07413516 0.077950045 -0.032441873 -0.43452144
0.07038291 -0.3255735 1.4766982 0.010761137 -0.6739894 0.36307985 0.070932195 -0.07421812
0.1817543 0.5041866 -0.6450138 0.22841825 -0.071339205 0.107563965 2.5174892 0.85490364
0.42743522 0.008413419 -0.0016104326 0.8921704 0.31536314 0.4225905 0.347767 -0.89150345
-0.011215286 -1.3969316 0.28369424 0.5861447 0.14852948 -0.03833587 0.5166893 0.9701758
-0.25330326 -0.07481998 0.24784537 -0.89452916 0.19070062 0.06118415 0.27451867 0.12824063
0.10199223 0.28915742 0.23139872 1.6962465 -0.904749 -1.1634048 0.19982582 -0.32837632
-0.6597949 -0.65373397 0.024645638 -0.26933655 -0.57331073 0.47599918 0.032678314 0.08418227
2.835096 0.010925454 -0.37564647 0.13704376 0.20220284 0.15575527 -0.29690298 2.3880267
0.24353126 1.2232686 -0.48161787 1.0996461 -0.04248008 -0.20355256 -0.09592202 0.77631044
-0.846596 -0.3632199 -0.48320973 0.06297357 -0.25960147 0.38575733 0.36000648 -0.02278387
0.03260296 -0.056429256 -0.63137347 -0.16732179 0.5979292 -0.52355343 -1.2770132 0.6990603
0.78427696 0.1221127 -0.7333495 -1.2697895 1.0943222 0.5187725 0.2224161 -0.11250237
-0.033392757 0.35619095 3.0000846 -0.17242882 -0.18936102 0.32445 0.10586057 -0.3174707
-0.11278458 0.18132572 -0.7005362 1.3269999 -0.4274799 -0.14086516 -0.16739409 0.24066652
00000000: 1767 0c3f 6e8b 2e3f 1afc 7fbe e263 d5be
00000010: 28b8 02bf 1569 46be 1189 8ebf e694 46bf
00000020: 5831 d13e e875 4d3d 6962 86bb 786f d63f
00000030: c884 46be 5300 e8be 7d47 c9be 7d27 3fbe
00000040: 9fb5 3fbf 9ac5 06be 269f de3e 7d91 98bf
00000050: 8141 353f 752c 923f 449f cbbe 62f6 e83e
00000060: 2a49 243e 95ed dabc 2112 e7bf ee86 eabe
00000070: d9bb 0cbf ef86 693f 2590 933c af89 1f3d
00000080: 44b4 963f f768 0b3e 65eb 103f 3bef 443e
00000090: 7721 4abc 874d 103f c221 b63e 16cb c6be
000000a0: c520 493f e9e2 f8bf 0589 9c3e f907 d9be
000000b0: 8787 4c3f d4ee ca3e 2f9d 413f e07e 14bf
000000c0: 39e6 623e dc75 193f e8d0 27bf f66c 97be
000000d0: 40ab cf3e 5960 663e a7fd 433f b1d5 673f
000000e0: 59af b8be b0ae 64be e5a7 a13c 13c0 513f
000000f0: 3752 0bbf 619d 0c3f 4398 8ebe 9895 0e3e
00000100: ed85 62be 67f8 b3bd a9d7 08bf af8c 22bf
00000110: c2a1 6b3d dd90 2ebf 19d5 60bf 57ab 743f
00000120: 49f1 3e3d 1a73 44be d3d6 383f 9a66 32bf
00000130: 2b1c 0dbf ae1b 573d 8ac9 873e 9375 c4bd
00000140: 22c5 30be fff0 203f 48cc 22bf b220 80bf
00000150: 3264 573f 34e6 79bf efe3 183f 23ed fb3e
00000160: 3c51 0f3f 7d7d 5abf f392 10bf e492 403e
00000170: 2b1b 9fbd d4dc db3e 48ce 0abf 5990 7340
00000180: a579 063f f88a c83e d92d c03c 3726 1f3e
00000190: d825 efbe 4d41 e93e cba6 1d3f ef54 873f
000001a0: f7c3 ddbf c89e 043e ebf5 c2be cc17 223e
000001b0: e42d bd3e 988a 603d 6ec2 8cbf 7de3 2fbe
000001c0: 677d 7c3f ad33 00bd b3a8 733d 04cc ef3d
000001d0: e877 c4bf 5da0 0abe 52d3 353d e284 b2be
000001e0: 3318 9abe 26d5 93bf 51c7 683e 988c 18bf
000001f0: 3d6d 403e 366a a5bf 88d1 1bbe da95 4c3e
00000200: 4262 30bf b9c4 b23e d8d8 91be f704 6d3f
00000210: 04aa 003e fa6a 153e 42f2 6d3e 611a c2bd
00000220: b092 a9bd 2e1c 03bf a42a 22bf f0d1 e8bd
00000230: 2dd4 97bd 46a4 9f3d c5e1 04bd 9879 debe
00000240: ea24 903d 92b1 a6be 7204 bd3f 7b4f 303c
00000250: 928a 2cbf 9ae5 b93e e644 913d abff 97bd
00000260: cd1d 3a3e 5f12 013f a01f 25bf 79e6 693e
00000270: 4a1a 92bd 7f4a dc3d 8b1e 2140 f7da 5a3f
00000280: cad8 da3e 70d8 093c 2715 d3ba 4865 643f
00000290: 4777 a13e c85d d83e 840e b23e 9239 64bf
000002a0: 52c0 37bc a8ce b2bf 5f40 913e 940d 163f
000002b0: 1d18 183e 1306 1dbd c045 043f 715d 783f
000002c0: f7b0 81be 383b 99bd 2dcb 7d3e ddff 64bf
000002d0: 0647 433e 3b9c 7a3d b68d 8c3e 8351 033e
000002e0: 4de1 d03d 710c 943e c9f3 6c3e 9b1e d93f
000002f0: a19d 67bf 73ea 94bf 249f 4c3e f120 a8be
00000300: 52e8 28bf 1c5b 27bf a6e5 c93c 7be6 89be
00000310: 7ec4 12bf 2ab6 f33e b2d9 053d c167 ac3d
00000320: 3672 3540 ad00 333c bc54 c0be 3355 0c3e
00000330: 430e 4f3e 4f7e 1f3e ab03 98be 6ed5 1840
00000340: 4260 793e 1194 9c3f 9e96 f6be 34c1 8c3f
00000350: 98ff 2dbd 1570 50be c472 c4bd 48bc 463f
00000360: 84ba 58bf f5f7 b9be 4467 f7be 49f8 803d
00000370: 7cea 84be fc81 c53e c552 b83e 3da5 babc
00000380: ae8a 053d 5d22 67bd b1a1 21bf 6756 2bbe
00000390: e311 193f 9907 06bf 2b75 a3bf 9ef5 323f
000003a0: 60c6 483f 3916 fa3d cbbc 3bbf 7688 a2bf
000003b0: c012 8c3f 46ce 043f 0cc1 633e a467 e6bd
000003c0: d8c6 08bd a95e b63e 6301 4040 2e91 30be
000003d0: dbe7 41be 4f1e a63e 6dcd d83d 858b a2be
000003e0: 9afb e6bd 73ad 393e 5756 33bf 22db a93f
000003f0: a5de dabe f53e 10be 5b69 2bbe 4971 763e

fc1.bias f4 [128]
-0.4747553 0.41883147 0.72022265 -0.16980265 0.42171383 0.2143098 -0.12042246 0.29127997
0.3642691 -0.1676226 -0.19243065 0.07398242 0.12187146 0.15860206 -0.6592949 0.04945765
0.033192854 0.2871322 -0.22003199 0.17190237 -0.58756834 -0.09439669 -0.44446495 0.03518772
-0.25487334 0.36414483 -0.017239891 0.4154734 0.21991344 -0.122027576 0.51121515 -0.12191037
-0.042711247 0.237095 0.7427459 0.43320552 0.5468346 0.09440573 0.09014501 -0.08471385
-0.27404982 -0.12940697 0.0026536463 0.11391146 0.2759848 0.14409626 0.04738854 0.7259756
0.506848 0.02350526 0.17063908 0.4385863 -0.22645108 -0.64991874 0.008385542 0.31958503
-0.41964588 -0.036369894 -0.17048356 -0.58196646 0.05996233 -0.30232272 0.025971243 -0.24027914
0.18610811 -0.5221842 -0.13065459 -0.5731032 0.24869502 0.15105645 -0.2544517 0.21252698
0.32100314 0.33932462 -0.37084943 -0.05923746 0.41650996 -0.7926057 0.3194746 -0.32924014
0.21364239 0.09865784 0.18741557 -0.17284368 0.78536767 -0.58655804 -0.08055462 -0.33361667
-0.42309293 -0.05085637 -0.68456155 0.60420156 0.020557813 0.7246497 0.08946727 0.50444615
-0.44117114 0.11560557 0.33424217 -0.18422203 -0.2968067 -0.665398 -0.36208236 -0.06729737
-0.04519052 -0.14499128 0.32449755 0.11306531 0.4671205 -0.12997769 -0.12214461 -0.15053852
0.457568 -0.0014418302 0.2741334 -0.6453686 0.3834212 -0.14409244 0.4556627 0.08411144
-0.41051236 0.16194682 0.44852677 0.2815541 -0.5230752 -0.021587696 0.35206187 0.23271345
00000000: 2013 f3be 1471 d63e 8360 383f bfe0 2dbe
00000010: e0ea d73e 0774 5b3e 0da0 f6bd a622 953e
00000020: 7b81 ba3e 42a5 2bbe 8a0c 45be 1884 973d
00000030: be97 f93d 9468 223e 8dc7 28bf 1b94 4a3d
00000040: 3bf5 073d fe02 933e 1150 61be 2d07 303e
00000050: e16a 16bf 0d53 c1bd e990 e3be 0021 103d
00000060: c27e 82be 3171 ba3e ac3a 8dbc eeb8 d43e
00000070: fd30 613e 98e9 f9bd ffde 023f 25ac f9bd
00000080: fdf1 2ebd 08c9 723e 9824 3e3f 1dcd dd3e
00000090: 5afd 0b3f cb57 c13d f29d b83d 747e adbd
000000a0: 4250 8cbe 4383 04be cce8 2d3b 694a e93d
000000b0: e14d 8d3e f88d 133e 7c1a 423d 89d9 393f
000000c0: cac0 013f 1a8e c03c 03bc 2e3e 628e e03e
000000d0: cbe2 67be 1361 26bf 8363 093c a6a0 a33e
000000e0: d3db d6be 99f8 14bd 3e93 2ebe c1fb 14bf
000000f0: 0f9b 753d 0bca 9abe a5c1 d43c bc0b 76be
00000100: 2093 3e3e ddad 05bf 51ca 05be e4b6 12bf
00000110: e8a9 7e3e 8bae 1a3e 7e47 82be aca0 593e
00000120: 865a a43e f5bb ad3e fadf bdbe fba2 72bd
00000130: cb40 d53e 35e8 4abf 2d92 a33e 2a92 a8be
00000140: 12c5 5a3e 1f0d ca3d dee9 3f3e effd 30be
00000150: db0d 493f ab28 16bf d2f9 a4bd cecf aabe
00000160: a39f d8be c54e 50bd 6d3f 2fbf f4ac 1a3f
00000170: dc68 a83c a582 393f 9e3a b73d 6223 013f
00000180: 2fe1 e1be 9dc2 ec3d ca21 ab3e b3a4 3cbe
00000190: 0cf7 97be 8657 2abf dc62 b9be 34d3 89bd
000001a0: b219 39bd 9878 14be 8b24 a63e c98e e73d
000001b0: 6b2a ef3e df18 05be f426 fabd c526 1abe
000001c0: 5a46 ea3e cbfb bcba 375b 8c3e e036 25bf
000001d0: c94f c43e f88c 13be 9f4c e93e 9e42 ac3d
000001e0: ad2e d2be 63d5 253e 4da5 e53e dc27 903e
000001f0: 42e8 05bf aed8 b0bc 7441 b43e 6f4c 6e3e

fc2.weight f4 [128, 128]
0.31732678 -0.17343068 -0.42021137 0.23523042 0.13193057 -0.6665855 -0.26255295 0.79807055
-0.2798592 1.0805607 0.8004982 0.1039014 -0.27696204 0.6180669 0.6535988 -0.04955638
0.023453323 -0.09093659 0.1464422 0.5001966 0.043931715 0.6565725 -0.32269484 -1.5827045
-0.18109684 0.06909029 -0.5662239 -0.93656296 0.118763395 0.2978924 1.9144474 0.74477863
0.36023605 0.20172398 -0.6553614 -0.06422681 0.015130906 0.21837471 -0.9158426 -0.25066224
-0.9321177 -0.09054681 0.68411523 0.048006028 0.30815703 -0.24931255 0.87788355 -0.6567114
-0.46178222 0.49026445 -0.021650711 -0.56390315 -0.6177694 -1.3004886 -0.07714613 -0.27388638
-0.012525846 -0.06499194 0.24759685 -0.2971882 -0.8696042 0.11997365 0.05267495 -0.012163098
0.6252953 -0.94352645 0.81233096 -1.463276 0.17551625 -0.29700488 -0.033441924 0.005432087
-0.33587724 -0.6106002 1.8613898 -0.04992237 -0.015097073 0.34228086 -0.5562017 -0.0013088286
-0.054767396 -0.079076275 0.76988953 1.0250988 -0.69867194 0.6522803 -0.37710357 -0.66228235
0.08218339 0.08159091 0.6923251 -0.9028485 -0.10158492 -0.053698078 0.2814738 -0.21724229
-0.26605752 -0.34032577 -0.2944065 -0.28130063 0.6560073 0.20767549 -0.2828883 0.12358583
-0.14953806 0.56386286 -0.4699115 0.45779744 0.14959612 -0.19053456 0.218237 0.34232438
0.08821303 0.588879 -1.1077175 -0.25539124 -0.070182145 -0.13624302 1.8102405 -0.09943868
0.48031503 0.67548615 -0.34042904 -0.6227965 0.523691 0.3409302 -0.6159499 0.2990238
-0.3376463 1.2429332 -0.7791671 -0.13406236 0.5533783 -0.37409267 0.049359348 -0.06569427
0.17679802 -0.26823688 0.25993714 0.9646881 0.81559515 -0.06785103 1.4536204 -1.2162646
0.47582322 -0.38424322 -0.32752833 1.3049421 -0.11522035 -0.38564134 -0.51421195 -0.15102842
-0.5403156 -0.16743113 -0.58307004 -0.24330573 -0.30476907 -0.1659558 -0.14923608 -0.013129005
1.1791179 -0.06413277 -0.68500173 0.2171388 -0.7250381 -0.3250063 -0.11560862 0.34967712
-0.33848667 0.2712636 0.4147893 0.37589344 0.59315753 -0.26452526 0.5696589 -1.2353497
-0.37119898 -0.3944361 1.389168 -0.45165297 -0.8143206 0.44064787 0.3245094 -1.3322333
0.30143827 0.22445846 -0.23968558 0.36618936 -1.0904279 -0.04753374 0.017477823 -0.51738626
0.1886323 -0.24380475 -0.0562906 -0.2540882 0.15220353 0.09829549 -0.4691372 -0.042749193
-0.6441654 -1.2627463 -0.099125236 -0.07554556 0.075847685 0.9577196 0.10070519 -1.5208572
-0.12213071 -0.11265015 0.619982 0.048885364 -1.1442584 -0.023475196 -0.47892046 -0.044588115
-0.06446516 -0.34839642 0.6703646 -1.2179594 0.24446474 -0.86367565 0.37335208 0.2552752
-0.16395065 -0.79209816 0.25886166 -0.76765025 0.25148293 0.9240287 -0.1287641 -0.00038603583
0.01350674 -0.11256067 -0.7012135 1.0099727 -0.17281832 0.44087544 -0.6045646 0.039113022
-0.38943836 0.66823864 0.24803688 0.4171955 0.16338906 -0.275465 0.4865675 0.1278693
0.3835165 0.76585 -0.078235224 1.1527959 0.7258812 1.2173368 -0.08980701 0.02892172
00000000: a878 a23e d097 31be f225 d7be 3ee0 703e
00000010: cf18 073e 59a5 2abf 576d 86be 5a4e 4c3f
00000020: b449 8fbe d04f 8a3f 73ed 4c3f 42ca d43d
00000030: f8cd 8dbe a239 1e3f 4052 273f a1fb 4abd
00000040: 2f21 c03c f73c babd f2f4 153e e20c 003f
00000050: bef1 333d 2315 283f 4238 a5be 1096 cabf
00000060: 7371 39be 367f 8d3d 0df4 10bf 97c2 6fbf
00000070: 393a f33d 5a85 983e 9d0c f53f d0a9 3e3f
00000080: dc70 b83e bb90 4e3e c4c5 27bf 5989 83bd
00000090: 9fe7 773c 9f9d 5f3e a974 6abf cd56 80be
000000a0: 449f 6ebf 9b70 b9bd 2d22 2f3f f8a1 443d
000000b0: c2c6 9d3e ca4b 7fbe fabc 603f 3d1e 28bf
000000c0: b86e ecbe f103 fb3e d55c b1bc f55b 10bf
000000d0: 2326 1ebf 6976 a6bf cafe 9dbd d63a 8cbe
000000e0: 3539 4dbc 7f1a 85bd 078a 7d3e 0d29 98be
000000f0: 619e 5ebf bfb4 f53d b0c1 573d bb47 47bc
00000100: 5a13 203f f38a 71bf ecf4 4f3f a14c bbbf
00000110: 88ba 333e 0611 98be 66fa 08bd a6ff b13b
00000120: 1af8 abbe 4b50 1cbf 0542 ee3f 667b 4cbd
00000130: b759 77bc 703f af3e 3c63 0ebf 008d abba
00000140: c753 60bd bef2 a1bd 7b17 453f 7036 833f
00000150: 2adc 32bf d7fb 263f b813 c1be 568b 29bf
00000160: c44f a83d 2319 a73d 383c 313f 1421 67bf
00000170: c10b d0bd 84f2 5bbd 551d 903e c374 5ebe
00000180: b138 88be 2e3f aebe 73bc 96be a306 90be
00000190: 18f0 273f e2a8 543e bcd6 90be 911a fd3d
000001a0: 8120 19be 5159 103f 3d98 f0be 6d64 ea3e
000001b0: ba2f 193e 7e1b 43be 8579 5f3e 2445 af3e
000001c0: 08a9 b43d c6c0 163f b0c9 8dbf a4c2 82be
000001d0: a8bb 8fbd 4a83 0bbe f6b5 e73f 82a6 cbbd
000001e0: daeb f53e a9ec 2c3f b74c aebe 976f 1fbf
000001f0: 9d10 063f 678e ae3e e5ae 1dbf a619 993e
00000200: fadf acbe 6f18 9f3f 7f77 47bf a547 09be
00000210: 33aa 0d3f 1389 bfbe 072d 4a3d b88a 86bd
00000220: 8a0a 353e 5856 89be 7b16 853e cdf5 763f
00000230: d8ca 503f 7bf5 8abd 3c10 ba3f 8fae 9bbf
00000240: 1a9f f33e 87bb c4be cbb1 a7be 5808 a73f
00000250: a6f8 ebbd c872 c5be 65a3 03bf 32a7 1abe
00000260: 2052 0abf 1173 2bbe 1444 15bf 2325 79be
00000270: b10a 9cbe 51f0 29be 58d1 18be 0a1b 57bc
00000280: 56ed 963f 0b58 83bd 465c 2fbf a259 5e3e
00000290: 199c 39bf 3a67 a6be 36c4 ecbd e108 b33e
000002a0: 204e adbe 10e3 8a3e 435f d43e 1b75 c03e
000002b0: 2cd9 173f db6f 87be 2ad5 113f f01f 9ebf
000002c0: cb0d bebe 87f3 c9be 42d0 b13f 0f3f e7be
000002d0: 5177 50bf 999c e13e 1926 a63e 9f86 aabf
000002e0: 1e56 9a3e 70d8 653e 2370 75be 2c7d bb3e
000002f0: 2493 8bbf bdb2 42bd a72d 8f3c 6d73 04bf
00000300: d328 413e f4a7 79be f990 66bd d917 82be
00000310: 3edb 1b3e 254f c93d c032 f0be c719 2fbd
00000320: 06e8 24bf aca1 a1bf 2c02 cbbd a1b7 9abd
00000330: 0856 9b3d 1d2d 753f 863e ce3d 73ab c2bf
00000340: aa1f fabd 1fb5 e6bd 24b7 1e3f 053c 483d
00000350: 0f77 92bf 0e4f c0bc 1035 f5be 07a2 36bd
00000360: 4f06 84bd 0461 b2be 049d 2b3f 18e6 9bbf
00000370: f754 7a3e d919 5dbf 0128 bf3e 6eb3 823e
00000380: aee2 27be f2c6 4abf 8489 843e ba84 44bf
00000390: 5fc2 803e 258d 6c3f bcda 03be da64 cab9
000003a0: 604b 5d3c 3586 e6bd ba82 33bf c946 813f
000003b0: 49f7 30be 6dba e13e bfc4 1abf fa34 203d
000003c0: 7764 c7be b011 2b3f 61fd 7d3e a69a d53e
000003d0: 764f 273e c009 8dbe 601f f93e 2bf0 023e
000003e0: 465c c43e bf0e 443f ca39 a0bd d18e 933f
000003f0: 5ad3 393f b1d1 9b3f bdec b7bd 3eed ec3c

fc2.bias f4 [128]
-0.4239581 0.1114385 0.0669508 -0.40289077 -0.07450569 -0.27162713 0.49765435 -0.3593938
-0.34401494 0.32187986 0.40849152 0.6592313 -0.12926997 0.013555185 0.5751732 -0.10250802
-0.010518546 0.16358368 0.18339746 0.100029424 0.06615458 -0.107611746 0.24332964 -0.47684023
-0.3033414 -0.036200944 0.10904433 -0.049043853 0.5692516 0.07568443 -0.10017836 -0.41629982
0.38196307 0.8040355 0.41921753 0.39816195 -0.33612758 -0.20626149 -0.43894318 0.58961916
0.11091114 -0.54047084 -0.4848069 -0.14866574 -0.11032021 0.051446628 0.32364455 -0.19635783
-0.12648125 0.18997632 -0.07831559 0.06679759 -0.21190229 -0.44585922 0.1515468 -0.20428266
-0.16072586 -0.45460674 -0.107931785 -0.31551707 0.04630119 0.26558816 -0.3400452 0.1112679
0.5945962 -0.48849964 0.3701984 0.047914248 0.00076166063 0.24307977 0.27156356 0.054591764
0.48424712 -0.0234545 0.102868475 -0.091488786 -0.22118957 -0.18115447 0.12786053 0.008114535
-0.27953908 0.50116473 -0.037184346 -0.3942229 -0.02667245 0.06334912 -0.0733311 -0.04391714
-0.20054053 -0.16627806 -0.053950656 0.23929434 -0.288948 0.15465675 0.2181878 0.2468727
-0.10849779 -0.47827566 0.13020869 -0.17025648 0.1948207 0.042763285 0.19048849 -0.12673403
-0.5005832 -0.07537501 0.020731965 0.4113333 0.2781766 0.27690732 -0.24491133 0.26836666
-0.21904625 0.039079014 -0.3795914 -0.0042879893 -0.1411124 0.10314728 -0.10730273 0.40672675
-0.13471508 -0.09464087 -0.5409561 0.07640452 -0.32505536 -0.0669796 -0.36923486 0.11737511
00000000: 0911 d9be de39 e43d 801d 893d b347 cebe
00000010: 7096 98bd b612 8bbe 8dcc fe3e 7702 b8be
00000020: ba22 b0be 70cd a43e cd25 d13e 62c3 283f
00000030: 595f 04be 9116 5e3c 8d3e 133f baef d1bd
00000040: fb55 2cbc 7b82 273e 8bcc 3b3e 3adc cc3d
00000050: 0d7c 873d 8c63 dcbd 682b 793e 6724 f4be
00000060: 904f 9bbe 7147 14bd a252 df3d 35e2 48bd
00000070: 79ba 113f 7000 9b3d 502a cdbd 4025 d5be
00000080: aa90 c33e 45d5 4d3f aea3 d63e e2db cb3e
00000090: ea18 acbe 3636 53be 29bd e0be 48f1 163f
000000a0: 6125 e33d 4c5c 0abf 9c38 f8be d53b 18be
000000b0: 90ef e1bd b3b9 523d bdb4 a53e 0712 49be
000000c0: 4d84 01be 2789 423e ed63 a0bd 2dcd 883d
000000d0: eafc 58be a947 e4be 162f 1b3e 792f 51be
000000e0: 5295 24be 37c2 e8be 570b ddbd 748b a1be
000000f0: 51a6 3d3d 2cfb 873e 681a aebe 6de0 e33d
00000100: 7537 183f a01c fabe a58a bd3e bb41 443d
00000110: 2eaa 473a e7e9 783e 610a 8b3e 9d9b 5f3d
00000120: 3def f73e a723 c0bc b5ac d23d 795e bbbd
00000130: 857f 62be 8f80 39be dfed 023e d4f2 043c
00000140: bf1f 8fbe 554c 003f 9d4e 18bd 95d7 c9be
00000150: 2f80 dabc 2fbd 813d 9e2e 96bd 76e2 33bd
00000160: 7f5a 4dbe cc44 2abe 5dfb 5cbd 9309 753e
00000170: fef0 93be 575e 1e3e 9f6c 5f3e 32cc 7c3e
00000180: 1734 debd 8ce0 f4be 6d55 053e b757 2ebe
00000190: 147f 473e 8e28 2f3d 6a0f 433e 91c6 01be
000001a0: 3826 00bf 375e 9abd 15d6 a93c 479a d23e
000001b0: 2a6d 8e3e ccc6 8d3e 09ca 7abe 5b67 893e
000001c0: a94d 60be 5111 203d ce59 c2be 4382 8cbb
000001d0: c57f 10be e23e d33d 89c1 dbbd 7d3e d03e
000001e0: c0f2 09be 13d3 c1bd 197c 0abf f979 9c3d
000001f0: a86d a6be 9a2c 89bd 5a0c bdbe 5d62 f03d

policy_mean.weight f4 [7, 128]
0.22380416 0.14954412 -0.041892454 0.011797527 -0.0073335306 0.05902579 -0.16996624 -0.050281983
-0.008993867 -0.055845354 -0.16883639 -0.036846247 0.13110574 -0.057035383 -0.09215403 -0.131984
0.0253203 0.13395908 0.012610134 0.08722776 -0.13261987 0.004951017 -0.044294905 -0.015958292
-0.015445871 0.043026544 -0.15419433 -0.11880256 -0.07487935 -0.0066402876 -0.06829338 0.030995524
-0.04784322 0.027491102 -0.03307018 0.065025985 -0.053837653 0.008557726 -0.026215682 0.027793342
0.10111034 0.078973755 -0.021357255 -0.114816286 0.016353065 0.07407535 0.17789109 -0.06300129
-0.027887693 0.036760364 0.1634357 -0.020255843 -0.13477781 -0.004809366 0.024365893 0.012475591
-0.11424717 0.008691602 -0.029257506 0.097224385 0.00097380177 -0.03932313 0.05084917 -0.059184786
-0.0035056975 -0.013845727 -0.12914126 0.0743405 0.16413994 -0.11217938 -0.009539416 -0.08626555
-0.043711837 -0.13874675 -0.06832579 0.053610537 -0.025416212 0.055554036 -0.31513754 0.038840216
0.101107545 0.032250483 -0.004641358 0.10078639 0.1046984 -0.06270522 -0.0037475028 -0.030307852
-0.03174917 0.10084668 0.045424625 0.098122716 -0.060245268 0.005189085 0.1370572 0.06596361
-0.11140855 0.16056138 0.014194031 0.015892023 0.0784127 -0.06945474 0.0948616 0.021517335
-0.12710795 0.0038957591 0.105339445 -0.09537147 -0.010972917 -0.037210856 -0.083430916 0.011715116
-0.06997153 -0.02320676 -0.07409094 -0.1129134 0.10682517 0.059610665 0.04879677 0.009197096
-0.036615796 0.064001694 -0.07564485 0.06028798 0.14036714 -0.022520127 0.04837409 -0.083272226
0.07850038 -0.035710488 0.22774397 0.12493089 0.051952686 0.15759833 -0.12280551 0.056648854
-0.0147461705 -0.15185928 -0.11077771 0.027140344 0.30366 0.08763262 -0.23115331 -0.048724663
-0.10933919 0.018492267 -0.00851334 0.19958642 0.0063987123 -0.04981536 0.06181408 0.14675015
-0.024307078 0.17349191 -0.06843132 0.11810861 0.020500524 -0.019438783 0.094534986 0.042968
-0.081286274 -0.0009846777 0.056134816 0.005296447 0.0053823134 -0.02117055 0.026763815 0.003016488
0.12981954 0.0086575495 0.07157994 -0.26461056 0.041198555 0.07640965 -0.04311783 0.12882657
0.028002404 0.15571134 0.16597974 -0.0057846005 0.03703886 0.048725296 0.046593636 -0.0047798846
0.0053354236 0.034615677 0.0942479 0.0057571935 -0.08298506 -0.044919744 0.10115926 0.10749366
-0.04323488 0.14773335 0.0018359113 -0.018721966 0.2861946 0.04648142 -0.022726325 -0.0074326103
0.13010618 -0.26665315 -0.053096663 -0.06216903 -0.0038536887 -0.14810741 0.081192784 0.03720256
-0.27958795 0.104777634 0.041643728 0.00407703 0.001832696 -0.14433639 0.058730405 0.0065271263
0.17876494 -0.03531267 -0.04953786 -0.12296458 -0.035743527 0.009162702 -0.034222197 0.0059775184
0.094089985 -0.0425013 0.054227646 -0.12088476 -0.23540471 0.030841086 0.281973 0.05468672
0.062454216 -0.1471371 0.04228231 -0.004960596 -0.02816461 -0.08461077 0.028465038 0.07933212
0.0034996273 -0.11569143 -0.043168847 0.13905185 -0.12748319 0.16328081 -0.09827445 0.2767486
-0.0939675 -0.021981841 0.054340553 0.020827664 0.14908029 0.095341824 0.072914846 0.0004770424
00000000: eb2c 653e 1822 193e 6c97 2bbd 6a4a 413c
00000010: 1d4e f0bb 07c5 713d a10b 2ebe 7bf4 4dbd
00000020: 035b 13bc 19be 64bd 72e3 2cbe 17ec 16bd
00000030: 9540 063e ef9d 69bd 41bb bcbd d026 07be
00000040: 856c cf3c 922c 093e bc9a 4e3c 78a4 b23d
00000050: 81cd 07be 243c a23b 936e 35bd f7ba 82bc
00000060: ae10 7dbc 9a3c 303d 1ee5 1dbe c24e f3bd
00000070: 585a 99bd c596 d9bb 66dd 8bbd 53ea fd3c
00000080: 41f7 43bd 0535 e13c 9974 07bd 582c 853d
00000090: df84 5cbd b435 0c3c 45c2 d6bc ddae e33c
000000a0: f012 cf3d febc a13d 69f5 aebc cd24 ebbd
000000b0: ddf6 853c d1b4 973d 1529 363e d206 81bd
000000c0: bb74 e4bc 0992 163d b05b 273e 95ef a5bc
000000d0: 3203 0abe e397 9dbb fb9a c73c 6c66 4c3c
000000e0: 6cfa e9bd 3967 0e3c 70ad efbc 941d c73d
000000f0: bb46 7f3a 4a11 21bd 3847 503d bf6b 72bd
00000100: d8bf 65bb 30d9 62bc 9b3d 04be d53f 983d
00000110: 4d14 283e 4ebe e5bd 364b 1cbc feab b0bd
00000120: 2f0b 33bd a113 0ebe 64ee 8bbd b996 5b3d
00000130: a935 d0bc a18c 633d b559 a1be eb16 1f3d
00000140: 7911 cf3d 1519 043d 8816 98bb 1869 ce3d
00000150: 1d6c d63d 986b 80bd aa98 75bb 2c48 f8bc
00000160: 6b0b 02bd b488 ce3d 2c0f 3a3d 90f4 c83d
00000170: bec3 76bd 3309 aa3b b958 0c3e ee17 873d
00000180: 2a2a e4bd 346a 243e 158e 683c fd2f 823c
00000190: d696 a03d 493e 8ebd cc46 c23d 1f45 b03c
000001a0: 9628 02be fe4f 7f3b 35bc d73d 1e52 c3bd
000001b0: c0c7 33bc 696a 18bd d4dd aabd c2f0 3f3c
000001c0: 3c4d 8fbd 1a1c bebc febc 97bd 243f e7bd
000001d0: 28c7 da3d 502a 743d 1fdf 473d 6baf 163c
000001e0: 72fa 15bd 5213 833d b0eb 9abd 87f0 763d
000001f0: 67bc 0f3e 217c b8bc e923 463d a18a aabd
00000200: cfc4 a03d 2945 12bd b735 693e c4db ff3d
00000210: 57cc 543d 7561 213e 7581 fbbd a108 683d
00000220: ec99 71bc 0081 1bbe 6ddf e2bd 6d55 de3c
00000230: 5379 9b3e bb78 b33d 74b3 6cbe 8393 47bd
00000240: 3aed dfbd 187d 973c 897b 0bbc 6260 4c3e
00000250: 4aac d13b 310b 4cbd c330 7d3d ac45 163e
00000260: a31f c7bc dda7 313e b825 8cbd ede2 f13d
00000270: b7f0 a73c 153e 9fbc 8f9b c13d 37ff 2f3d
00000280: 6b79 a6bd 4d10 81ba 9fed 653d d18d ad3b
00000290: 1e5e b03b dc6d adbc ca3f db3c 45b0 453b
000002a0: 6aef 043e 65d8 0d3c 8198 923d 097b 87be
000002b0: d1bf 283d aa7c 9c3d 529c 30bd 1deb 033e
000002c0: 4c65 e53c cb72 1f3e 98f6 293e bf8c bdbb
000002d0: 0fb6 173d 2d94 473d f8d8 3e3d 94a0 9cbb
000002e0: c7d4 ae3b 2bc9 0d3d 0b05 c13d d7a6 bc3b
000002f0: 12f4 a9bd c4fd 37bd 962c cf3d a325 dc3d
00000300: 0f17 31bd 6947 173e f6a2 f03a cf5e 99bc
00000310: 1988 923e 4d63 3e3d 8f2c babc 418d f3bb
00000320: 8e3a 053e c386 88be e37b 59bd f4a4 7ebd
00000330: 2b8e 7cbb 78a9 17be 6748 a63d b661 183d
00000340: 2726 8fbe a895 d63d 9d92 2a3d 9b98 853b
00000350: 1337 f03a ebcc 13be 4b8f 703d 81e1 d53b
00000360: 280e 373e 05a4 10bd 36e8 4abd dbd4 fbbd
00000370: ce67 12bd 281f 163c 932c 0cbd 0fdf c33b
00000380: 40b2 c03d d815 2ebd cf1d 5e3d 6e92 f7bd
00000390: ef0d 71be 72a6 fc3c c45e 903e 2fff 5f3d
000003a0: fecf 7f3d 1cab 16be 3730 2d3d 7f8c a2bb
000003b0: 78b9 e6bc 6948 adbd 832f e93c e178 a23d
000003c0: 015a 653b a1ef ecbd d1d1 30bd 9c63 0e3e
000003d0: f48a 02be 1633 273e 1d44 c9bd feb1 8d3e
000003e0: 0872 c0bd 4313 b4bc 3394 5e3d c79e aa3c
000003f0: 81a8 183e 9342 c33d 6154 953d 8c1b fa39

policy_mean.bias f4 [7]
-0.08443674 -0.09638055 0.105063215 0.02769689 -0.113472484 -0.04564428 -0.016483288
00000000: 2bed acbd 2a63 c5bd 622b d73d 97e4 e23c
00000010: 4364 e8bd 7ff5 3abd f607 87bc

value_head.weight f4 [1, 128]
-9.171739 9.168842 -9.899076 9.188141 8.963358 9.124057 9.386887 10.898988
8.698504 -8.485877 -8.47231 -9.251371 7.7522674 -8.648546 7.538807 8.879778
7.260545 -7.7990155 -6.3010483 -9.588593 8.90631 -8.035041 -8.719082 8.568485
9.48777 8.140318 -8.345279 8.758297 -10.469944 -8.774408 9.011791 9.009611
8.838099 -9.2646885 -9.446217 8.757788 9.300729 9.419598 -8.661343 -8.798176
8.661889 9.677269 9.128191 -7.4243693 7.4480534 -10.989896 -9.022431 -8.070471
8.5314045 8.150586 8.22042 -9.266415 8.615396 8.346136 8.657821 9.476513
8.956537 9.562692 8.001936 9.232141 -8.839878 -9.0030775 9.117438 -8.93735
8.866379 8.482326 -9.269228 -8.870113 -6.282831 -9.354464 -9.076805 -9.856014
9.177851 -8.583785 -9.148033 8.941906 10.212572 7.3775434 -8.729548 8.533395
-7.8072515 -8.855592 -8.871529 7.8484125 -8.583242 9.371636 -9.852692 7.390049
-7.7338367 8.372843 8.788123 -8.623104 -6.861364 9.830843 -7.153122 9.081352
9.349251 7.161808 6.706984 -9.128267 9.490372 -9.315466 -10.106089 7.2253146
9.098992 8.509023 9.4621525 -9.326504 -8.789606 -9.991787 8.183399 8.833212
-9.42341 8.819492 8.654949 -8.71456 8.933531 9.850653 -9.025295 -8.565802
-9.418909 8.533816 7.6587257 -9.032408 8.6703415 9.175793 8.012503 -9.143093
00000000: 71bf 12c1 94b3 1241 9e62 1ec1 a002 1341
00000010: ea69 0f41 23fc 1141 b030 1641 4162 2e41
00000020: 132d 0b41 27c6 07c1 958e 07c1 9e05 14c1
00000030: 9312 f840 7260 0ac1 e83d f140 9213 0e41
00000040: 6256 e840 8991 f9c0 30a2 c9c0 e06a 19c1
00000050: 3f80 0e41 878f 00c1 5c81 0bc1 8418 0941
00000060: e8cd 1741 be3e 0241 4386 05c1 fc21 0c41
00000070: e484 27c1 fa63 0cc1 4c30 1041 5e27 1041
00000080: da68 0d41 2a3c 14c1 b423 17c1 e61f 0c41
00000090: c9cf 1441 acb6 1641 dc94 0ac1 54c5 0cc1
000000a0: 1997 0a41 18d6 1a41 120d 1241 6f94 edc0
000000b0: 7456 ee40 9dd6 2fc1 e15b 10c1 a620 01c1
000000c0: a280 0841 cd68 0241 d786 0341 3c43 14c1
000000d0: a9d8 0941 c689 0541 6f86 0a41 cc9f 1741
000000e0: fa4d 0f41 c900 1941 ee07 0041 d9b6 1341
000000f0: 2470 0dc1 9b0c 10c1 07e1 1141 63ff 0ec1
00000100: b0dc 0d41 9bb7 0741 c24e 14c1 fceb 0dc1
00000110: f40c c9c0 e2ab 15c1 983a 11c1 3cb2 1dc1
00000120: 7ad8 1241 2f57 09c1 585e 12c1 0c12 0f41
00000130: b266 2341 d614 ec40 3bac 0bc1 c988 0841
00000140: 01d5 f9c0 81b0 0dc1 c8f1 0dc1 3226 fb40
00000150: f654 09c1 39f2 1541 a0a4 1dc1 487b ec40
00000160: 977b f7c0 2af7 0541 279c 0c41 3cf8 09c1
00000170: 4b90 dbc0 224b 1d41 60e6 e4c0 384d 1141
00000180: 8896 1541 882d e540 9d9f d640 620d 12c1
00000190: 90d8 1741 260c 15c1 8ab2 21c1 c735 e740
000001a0: 7995 1141 f524 0841 fa64 1741 5c39 15c1
000001b0: 3aa2 0cc1 5cde 1fc1 34ef 0241 d654 0d41
000001c0: 4ac6 16c1 a41c 0d41 ac7a 0a41 d66e 0bc1
000001d0: beef 0e41 469c 1d41 9c67 10c1 860d 09c1
000001e0: dab3 16c1 838a 0841 4814 f540 be84 10c1
000001f0: b8b9 0a41 0cd0 1241 3633 0041 1c4a 12c1

exp_avg f4 [7]
0.00022474815 0.00060817786 0.00043115273 0.00021664903 -0.00071380497 0.000144054 0.00044542926
00000000: 5faa 6b39 206e 1f3a 570c e239 482c 6339
00000010: a41e 3bba 340d 1739 8188 e939

exp_avg_sq f4 [7]
1.0963015e-05 1.0638284e-05 9.424478e-06 9.23258e-06 1.080102e-05 1.0967241e-05 1.0194344e-05
00000000: caed 3737 157b 3237 d31d 1e37 a1e5 1a37
00000010: 0736 3537 f1ff 3737 6008 2b37

exp_avg f4 [128, 21]
2.3569878e-07 4.7994647e-05 0.00043812787 0.00046401596 0.0001097409 -4.0065876e-05 -3.4280663e-05 7.8577466e-07
3.1810316e-07 -1.4096998e-06 2.2270142e-06 5.5300056e-08 5.039422e-05 0.0004383306 -1.1777678e-05 -4.974107e-06
8.693591e-05 0.0004744755 -1.8039397e-07 2.3995726e-06 2.028511e-07 -5.760337e-06 -7.4918855e-05 -0.00046596528
-0.00053103856 -2.715612e-05 4.745712e-05 7.955662e-05 -1.1768241e-06 -9.1340735e-07 1.0796662e-05 -5.554669e-06
-1.6025824e-07 -4.1515017e-05 -0.00046533754 1.1761468e-05 9.085201e-06 -0.00017965268 -0.00051658624 5.6000845e-06
3.340381e-05 6.2777406e-07 -3.2298516e-08 1.4651888e-06 1.1552393e-05 1.2135087e-05 3.3306674e-06 -6.623672e-07
-1.3729365e-06 1.3860338e-08 9.624436e-09 -1.2101724e-07 1.1401006e-07 -3.5968597e-08 1.3094876e-06 1.155349e-05
-2.6974104e-07 -9.018979e-08 1.6788294e-06 1.26055365e-05 -3.6700876e-09 -1.5570156e-07 1.0949496e-09 -2.7237065e-05
-6.502533e-05 -0.00059715996 -0.00064723793 -0.00011715942 2.860249e-05 6.890559e-05 -1.2547482e-06 7.6006096e-08
-9.121661e-09 -2.338304e-07 7.8823047e-07 -6.882244e-05 -0.00059743546 4.983437e-06 6.1231453e-06 -0.00014951489
-0.00064915436 2.80253e-05 -3.7971126e-06 -2.755872e-07 -2.9876153e-06 -2.5252531e-05 -0.00016828027 -0.00018485953
-3.140404e-05 1.4694349e-05 2.7725706e-05 -3.6993197e-07 -6.3537136e-08 2.1249066e-06 -1.8145902e-06 7.5171386e-07
-1.749594e-05 -0.00016953613 2.3114403e-06 1.6748772e-06 -2.4890142e-05 -0.00018948184 3.7393297e-06 7.756589e-06
-1.2558966e-06 0.00014864803 -0.00021045929 -0.0005898491 -0.00087365665 6.2088475e-05 0.00036501334 0.00029576418
-4.106662e-06 -1.9358406e-06 8.81842e-06 -1.3302209e-05 -3.539746e-06 3.9537967e-06 -0.00072177494 5.2457453e-05
2.2103022e-05 0.000289171 -0.00095999707 -0.00015218779 0.00021441316 -0.00013192659 6.684301e-05 -9.4955656e-05
-0.0007321877 -0.0008304428 -2.1850445e-05 0.00017828336 0.00015069549 -1.3362277e-06 -1.7246134e-06 2.3175277e-05
-1.8883378e-05 -5.153405e-06 -5.39275e-05 -0.0007356888 3.3101594e-05 1.016932e-05 -0.000106015264 -0.0008428083
-7.1996415e-05 4.1028154e-05 -3.5006094e-06 1.9163606e-06 5.0713694e-05 0.00041374468 0.00044844506 7.9883204e-05
4.9872588e-06 -5.3608994e-05 7.620348e-07 3.2189354e-07 -4.337405e-06 2.3778382e-06 1.1284612e-06 4.4426033e-05
0.00040852392 -1.3426234e-05 -6.2594004e-06 0.00018899985 0.00043517016 -7.878989e-07 -6.2876475e-06 -5.2209252e-06
1.0510777e-05 -0.00011823281 -0.0008751324 -0.0009458008 -0.00022776301 0.00010448285 0.000102356375 -2.2741976e-06
-2.420073e-07 1.9656156e-06 -4.260689e-06 1.0912929e-06 -9.3116534e-05 -0.0008887723 2.2660244e-05 1.0569184e-05
-0.00015321803 -0.0009790898 -9.4194675e-06 2.5116322e-05 -1.3639931e-05 -4.4430935e-06 2.8545755e-05 0.0002802742
0.0002842111 0.00010940176 -6.0646144e-06 -2.7923497e-05 4.846884e-07 -1.4536433e-07 -2.250327e-06 9.0244674e-07
5.145808e-08 3.3225973e-05 0.00027811778 -8.5652e-06 -2.3972214e-06 0.000100142104 0.0002931692 4.4945505e-06
4.6802215e-06 -2.1564103e-06 0.0001024863 0.00023808757 0.0012369241 0.0014502502 0.00010482189 -0.00016132688
-0.00012410035 6.760573e-06 1.1093357e-06 7.681258e-06 -1.5870946e-05 3.142288e-06 0.0001241083 0.0012650966
-1.9111973e-05 -3.8503647e-05 0.0003702901 0.0014047843 -9.934401e-05 -0.0001139794 2.8172075e-05 -5.8020396e-05
-5.6115892e-05 -0.0006430325 -0.0007513194 2.1648131e-05 0.00016063756 1.5578997e-05 -5.9078144e-07 -1.3181027e-06
-8.411026e-06 5.0083304e-06 1.4200083e-06 -7.222852e-05 -0.0006647105 -1.2891971e-05 8.639834e-06 -5.278906e-06
-0.000751816 5.9440415e-05 -1.6112583e-05 -2.1677897e-05 0.0003092371 0.00035730595 0.0027808188 0.0028015014
00000000: 6314 7d34 dc4d 4938 87b4 e539 2b47 f339
00000010: b224 e638 680c 28b8 95c8 0fb8 06ee 5235
00000020: c4c7 aa34 eb34 bdb5 d073 1536 0e83 6d33
00000030: 625e 5338 bdcf e539 be98 45b7 41e7 a6b6
00000040: 5c51 b638 06c3 f839 51b2 41b4 5808 2136
00000050: 49cf 5934 eb48 c1b6 c11d 9db8 cd4c f4b9
00000060: 6535 0bba 53cd e3b7 b20c 4738 a3d7 a638
00000070: 5ef3 9db5 e030 75b5 4f23 3537 3e62 bab6
00000080: 7313 2cb4 6920 2eb8 8cf8 f3b9 1f53 4537
00000090: a46c 1837 2661 3cb9 846b 07ba 5ce8 bb36
000000a0: 111b 0c38 4e84 2835 98b8 0ab3 81a7 c435
000000b0: 26d1 4137 cd97 4b37 6e84 5f36 87cd 31b5
000000c0: bd45 b8b5 691e 6e32 b858 2532 f7f0 01b4
000000d0: b1d5 f433 e47b 1ab3 a7c1 af35 ddd5 4137
000000e0: edd0 90b4 5dae c1b3 2454 e135 5e7c 5337
000000f0: dd34 7cb1 eb2e 27b4 1d7d 9630 277b e4b7
00000100: 355e 88b8 ba8a 1cba 67ab 29ba 7cb3 f5b8
00000110: 61ef ef37 6881 9038 d268 a8b5 cb38 a333
00000120: 7db5 1cb2 d012 7bb4 c996 5335 c454 90b8
00000130: 379d 1cba 6637 a736 6b75 cd36 19c7 1cb9
00000140: 032c 2aba e017 eb37 e6d1 7eb6 6bf4 93b4
00000150: d77e 48b6 66d5 d3b7 6474 30b9 dad6 41b9
00000160: d5b7 03b8 c087 7637 8094 e837 109b c6b4
00000170: e971 88b3 9e99 0e36 d88c f3b5 62c9 4935
00000180: 3fc4 92b7 82c5 31b9 3e1e 1b36 58cc e035
00000190: 2ccb d0b7 a5af 46b9 32f1 7a36 4c22 0237
000001a0: 4790 a8b5 67de 1b39 bcae 5cb9 1aa0 1aba
000001b0: 1b06 65ba 7f35 8238 435f bf39 cc10 9b39
000001c0: f5cb 89b6 7de9 01b6 d3f2 1337 8d2c 5fb7
000001d0: 608c 6db6 dbaa 8436 7f35 3dba c305 5c38
000001e0: e169 b937 e09b 9739 50a8 7bba 9994 1fb9
000001f0: 18d4 6039 c655 0ab9 112e 8c38 ee22 c7b8
00000200: 49f0 3fba 13b2 59ba 794b b7b7 93f1 3a39
00000210: 0304 1e39 6f58 b3b5 4479 e7b5 8768 c237
00000220: bf67 9eb7 69eb acb6 3630 62b8 3ddb 40ba
00000230: 91d6 0a38 e69c 2a37 8354 deb8 e8ef 5cba
00000240: c8fc 96b8 a515 2c38 03ec 6ab6 d39a 0036
00000250: 6ab5 5438 dfeb d839 471d eb39 f886 a738
00000260: 3a58 a736 38da 60b8 a28e 4c35 b6d0 ac34
00000270: 068a 91b6 f392 1f36 a275 9735 1756 3a38
00000280: 272f d639 3c41 61b7 d707 d2b6 432e 4639
00000290: 8d27 e439 0080 53b5 7bfa d2b6 682f afb6
000002a0: 7257 3037 c2f3 f7b8 2469 65ba 9eef 77ba
000002b0: abd3 6eb9 ce1d db38 29a8 d638 6b9e 18b6
000002c0: 3bed 81b4 05e9 0336 0af7 8eb6 8a78 9235
000002d0: 8f47 c3b8 80fc 68ba 8116 be37 4d52 3137
000002e0: 27a9 20b9 cd54 80ba 4e08 1eb7 e4b0 d237
000002f0: 0fd7 64b7 e215 95b6 8b75 ef37 c4f1 9239
00000300: 2b02 9539 9f6e e538 a47e cbb6 413d eab7
00000310: 891b 0235 7115 1cb4 5304 17b6 ab3f 7235
00000320: c202 5d33 1e5c 0b38 56d0 9139 41b3 0fb7
00000330: f3df 20b6 6203 d238 81b4 9939 e5cf 9636
00000340: cc0a 9d36 d9b6 10b6 eaed d638 25a7 7939
00000350: 4920 a23a 5216 be3a d3d3 db38 db29 29b9
00000360: ef20 02b9 e1d8 e236 7ce4 9435 c0de 0037
00000370: 9922 85b7 19e0 5236 1123 0239 99d1 a53a
00000380: a652 a0b7 fa7e 21b8 7f23 c239 bd20 b83a
00000390: e956 d0b8 3908 efb8 1253 ec37 ed5a 73b8
000003a0: fb5d 6bb8 2e91 28ba 31f4 44ba 0299 b537
000003b0: d170 2839 a4af 8237 3196 1eb5 aae9 b0b5
000003c0: 151d 0db7 3b0d a836 1d97 be35 6479 97b8
000003d0: f73f 2eba 984a 58b7 cef3 1037 7521 b1b6
000003e0: 8515 45ba a94f 7938 8229 87b7 eed8 b5b7
000003f0: 1a21 a239 cb54 bb39 663e 363b 6599 373b

exp_avg_sq f4 [128, 21]
1.3301352e-08 8.861702e-08 4.284704e-06 4.3607774e-06 4.3723398e-07 1.998008e-08 1.774048e-07 2.0858437e-11
1.5170474e-11 7.2981676e-10 3.536901e-10 2.5673558e-08 1.0786647e-07 4.238856e-06 4.206016e-09 1.9931845e-09
2.2781973e-07 4.768299e-06 8.015929e-09 1.0287316e-08 1.4083503e-09 3.7809702e-08 3.049526e-07 2.2759106e-05
2.3363145e-05 2.7857143e-06 1.16154375e-07 4.778202e-07 8.956119e-11 7.391879e-11 5.977171e-09 2.4084164e-09
3.4362024e-08 4.8174786e-07 2.2665554e-05 1.0367934e-08 1.7430121e-08 7.8669746e-07 2.5965246e-05 4.3969322e-08
6.486327e-08 7.736285e-09 5.401719e-12 3.109291e-11 2.2043203e-09 2.2824007e-09 1.9991027e-10 1.1251026e-11
5.746552e-11 1.34402995e-14 1.1272737e-14 5.0996886e-13 2.4004816e-13 7.305586e-12 4.827106e-11 2.158794e-09
1.3136749e-12 2.4041843e-12 9.723777e-11 2.4523084e-09 4.1903013e-12 7.9241015e-12 1.4257926e-12 1.7392827e-08
1.6253034e-07 1.148345e-05 1.2199335e-05 9.910249e-07 6.834638e-08 2.1758308e-07 5.2551588e-11 4.5102973e-11
3.323354e-09 1.7485488e-09 9.821714e-09 2.2778246e-07 1.1419639e-05 6.5332943e-09 1.2180014e-08 2.7334235e-07
1.32046425e-05 2.693789e-08 3.0177237e-08 5.048865e-09 2.5669047e-09 2.5667585e-08 1.6267135e-06 1.7256647e-06
1.4181715e-07 9.948892e-09 3.6329556e-08 5.6942498e-12 4.6169167e-12 4.5100088e-10 2.5512417e-10 2.536781e-09
3.3853645e-08 1.620243e-06 4.368009e-10 5.471251e-10 6.108423e-08 1.8553817e-06 3.7860546e-09 4.0213637e-09
5.5111654e-10 1.3353322e-07 5.7250594e-07 6.262239e-05 6.0802147e-05 8.948214e-06 3.9638672e-07 7.025533e-07
2.3925606e-10 2.1598405e-10 1.2805924e-08 7.815731e-09 3.7069384e-08 1.3582645e-06 6.0134204e-05 2.3788445e-08
2.4858146e-08 6.1397045e-06 6.478239e-05 1.580599e-07 3.359284e-07 7.594007e-08 6.4275284e-08 3.3906824e-07
3.917573e-05 4.0099454e-05 3.9050815e-06 2.4734052e-07 4.815615e-07 3.3079056e-10 2.9249567e-10 1.1466295e-08
5.9381757e-09 2.4829008e-08 7.78138e-07 3.7922127e-05 1.4918951e-08 2.4731273e-08 2.194188e-06 4.2636275e-05
7.3198265e-08 1.9440473e-07 3.860588e-08 7.3808475e-09 5.9237962e-08 5.092003e-06 5.2175315e-06 5.986604e-07
3.8171375e-08 9.54671e-08 2.137682e-11 1.521486e-11 1.1695681e-09 5.477054e-10 8.382429e-09 1.0787194e-07
5.0533026e-06 1.692466e-09 1.6008819e-09 1.5210524e-07 5.7995735e-06 7.8452755e-09 1.7568212e-08 1.6343523e-09
4.0666517e-08 3.2044468e-07 1.8032628e-05 1.8533436e-05 1.903178e-06 9.985662e-08 5.106563e-07 6.856307e-11
5.062591e-11 3.9470924e-09 1.6868167e-09 5.7234363e-08 4.1299037e-07 1.7844786e-05 9.784146e-09 5.544702e-09
9.1910925e-07 2.0152831e-05 3.722509e-08 4.7901576e-08 7.087897e-09 1.1326307e-09 6.701132e-09 8.71198e-07
9.0832555e-07 9.780877e-08 6.3211214e-09 1.1042351e-08 5.0364045e-12 1.9873634e-12 5.629877e-10 1.8749911e-10
7.0062195e-10 1.7736824e-08 8.6540865e-07 3.5322256e-10 1.0994018e-09 5.4770354e-08 9.656926e-07 1.0888906e-09
5.134803e-09 3.0827543e-10 1.9461933e-07 1.847801e-06 0.0001312238 0.00013691472 1.453606e-05 6.491978e-07
2.1510616e-06 4.346731e-10 3.297327e-10 3.686868e-08 1.2404155e-08 8.016373e-08 2.6323864e-06 0.00013072378
4.6872835e-08 8.7346876e-08 2.0514788e-06 0.00015203553 2.6869824e-07 2.9551632e-07 5.1298418e-08 5.672061e-08
5.230196e-07 3.5121684e-05 3.7298632e-05 2.7889976e-06 1.9351636e-07 8.0148686e-07 1.99569e-10 1.8418353e-10
1.0555181e-08 6.554709e-09 3.8676276e-08 7.0702436e-07 3.4812732e-05 1.27996636e-08 3.2622005e-08 8.156599e-07
4.0288534e-05 8.696718e-08 1.08556065e-07 1.8235884e-08 5.0226265e-07 3.1766435e-06 0.00026188037 0.00027897026
00000000: f783 6432 b94d be33 54c5 8f36 cb52 9236
00000010: fbbc ea34 a9a0 ab32 a97c 3e34 0679 b72d
00000020: df70 852d 4a9c 4830 7571 c22f c088 dc32
00000030: 38a4 e733 7f3b 8e36 8284 9031 79f8 0831
00000040: 9c9e 7434 60ff 9f36 6eb6 0932 18bc 3032
00000050: ec8f c130 3564 2233 5eb8 a334 cfea be37
00000060: f9fb c337 35f2 3a36 8b70 f933 8e43 0035
00000070: 78f2 c42e 948c a22e c15f cd31 4f81 2531
00000080: 7295 1333 7651 0135 e821 be37 a81e 3232
00000090: 3eb9 9532 702d 5335 f1cf d937 c8d8 3c33
000000a0: f64a 8b33 8be8 0432 5c0e be2c 81bf 082e
000000b0: d07a 1731 6bd8 1c31 bdcd 5b2f 1eee 452d
000000c0: 6cbc 7c2e 711e 7228 5312 4b28 218b 0f2b
000000d0: 9622 872a 6f85 002d 624c 542e e859 1431
000000e0: 20e2 b82b ef2d 292c 00d4 d52e 7785 2831
000000f0: e16e 932c fb66 0b2d 98a9 c82b 3b67 9532
00000100: 0084 2e34 0ba9 4037 bfab 4c37 5b03 8535
00000110: d2c5 9233 c8a0 6934 d41f 672e 6f5d 462e
00000120: 1061 6431 9751 f030 5bbc 2832 5e94 7434
00000130: fa96 3f37 777b e031 4540 5132 e3bf 9234
00000140: 8289 5d37 0c65 e732 399c 0133 497a ad31
00000150: 7765 3031 9e7b dc32 7355 da35 639d e735
00000160: 6746 1834 b1eb 2a32 c508 1c33 3e59 c82c
00000170: 7d71 a22c bbf0 f72f 8941 8c2f 8653 2e31
00000180: 7a66 1133 2077 d935 4322 f02f 8264 1630
00000190: 692d 8333 6e06 f935 7d16 8231 4a2c 8a31
000001a0: 617d 1730 5561 0f34 4fae 1935 2454 8338
000001b0: cf05 7f38 4920 1637 face d434 1897 3c35
000001c0: 4c88 832f 1b7a 6d2f 0d01 5c32 f345 0632
000001d0: 3836 1f33 9d4d b635 9c38 7c38 5857 cc32
000001e0: a487 d532 a903 ce36 c8db 8738 2db7 2934
000001f0: a659 b434 7f14 a333 b607 8a33 2f09 b634
00000200: 9f50 2438 7630 2838 6508 8336 39ca 8434
00000210: a744 0135 a2da b52f 1bcd a02f 4cfd 4432
00000220: bf08 cc31 9147 d532 3ce1 5035 930e 1f38
00000230: 1f27 8032 a570 d432 dd3f 1336 5ad4 3238
00000240: 2c31 9d33 91bd 5034 9dcf 2533 9f9a fd31
00000250: d46c 7e33 f9db aa36 4112 af36 a1b3 2035
00000260: dff1 2333 9803 cd33 5208 bc2d d2d4 852d
00000270: 85be a030 578d 1630 5002 1032 3aa7 e733
00000280: 8a8f a936 5a9c e830 0606 dc30 5f52 2334
00000290: f599 c236 e3c7 0632 e8e8 9632 a99f e030
000002a0: 4fa9 2e33 9509 ac34 c644 9737 4078 9b37
000002b0: b370 ff35 c270 d633 0914 0935 94c5 962e
000002c0: b5a7 5e2e fe9e 8731 96d5 e730 d9d1 7533
000002d0: f7b8 dd34 63b1 9537 2117 2832 b783 be31
000002e0: b5b8 7635 e00d a937 6be1 1f33 57bc 4d33
000002f0: cd89 f331 e6aa 9b30 c83f e631 45dc 6935
00000300: a8d3 7335 f10a d233 2c31 d931 c6b4 3d32
00000310: e633 b12c 28d9 0b2c bdc0 1a30 4f28 4e2f
00000320: e395 4030 b05b 9832 6e4e 6835 a82f c22f
00000330: c319 9730 a43c 6b33 f29c 8135 efa7 9530
00000340: 346e b031 e979 a92f 8ef8 5034 f501 f835
00000350: 1f99 0939 c490 0f39 e7df 7337 8844 2e35
00000360: f55a 1036 cdf6 ee2f c145 b52f 8b59 1e33
00000370: 0d1a 5532 7a26 ac33 0ea8 3036 e612 0939
00000380: 3a51 4933 7493 bb33 23ac 0936 ba6b 1f39
00000390: 9b41 9034 74a7 9e34 3553 5c33 f89c 7333
000003a0: a265 0c35 9f4f 1338 1a71 1c38 9d2a 3b36
000003b0: 5fc9 4f34 c225 5735 ae6d 5b2f 0e83 4a2f
000003c0: 2d56 3532 d537 e131 041d 2633 58ca 3d35
000003d0: e303 1238 84e5 5b32 461c 0c33 b9f3 5a35
000003e0: 7cfb 2838 b6c2 ba33 541f e933 22a5 9c32
000003f0: 3ad3 0635 522e 5536 fd4c 8939 c142 9239

exp_avg f4 [128]
0.00047593794 -0.0005053784 1.2542908e-05 -0.00064907497 -0.00018413717 -0.0007834649 -0.00079759 0.00044350885
-0.00096538843 0.00030209674 0.0013761929 -0.0007218357 0.0029539187 0.006262347 -0.00019436133 0.001575468
-0.003113097 -4.472564e-06 -0.0001348955 -0.0008957261 -0.0002463309 -0.0002657657 -0.00024842587 -0.00611019
0.0004587486 -0.00078472536 -0.0014912101 0.00090400944 0.0025551182 -0.0010725153 0.0007005173 -0.0020857793
-0.0021107309 -0.000106572414 3.1087927e-06 -5.133212e-05 3.6438594e-06 0.0013150809 -0.00092032005 -0.003428232
0.0028519535 -0.0022051684 -0.0003477047 -1.4467228e-05 -0.0002425496 0.004593524 0.00039603203 3.195727e-05
0.00073592114 0.0013390313 -0.00049122697 -0.00027865666 -0.0008617074 -0.0004424052 -0.0011317282 0.0072344188
-4.461923e-05 -0.002730982 0.0013026866 -0.0004531706 0.0011783539 0.00061549817 0.0026760292 0.00011954788
0.0065809707 -0.000495555 -7.146525e-05 -0.00021365308 0.00018595511 -0.0007481359 0.00023459065 -0.002868388
0.0015582377 0.0031536508 0.0008076063 -2.8880906e-05 -0.00021999786 1.464833e-06 0.0019249619 0.0018078596
-0.001758442 -0.0017229456 -0.004758095 0.0011707628 4.4280096e-05 -0.0006343766 0.0005480466 -8.548886e-05
-4.6542973e-05 0.001713579 6.882034e-06 6.188487e-06 -0.0042416356 -1.0717102e-06 -5.2415e-06 -0.0008435192
-0.00047541782 -0.0019843837 0.0014966356 -0.0003600647 -0.0027645489 -7.9002704e-05 -4.7792364e-05 0.0018295051
0.00631151 0.0038320636 0.00089277583 -0.0038707887 -0.00033852138 -0.0050003487 0.0012478891 0.00062875956
-4.372025e-05 -0.00261158 -0.0012294186 0.00015909203 -4.1026036e-05 5.0277933e-05 0.0003873729 0.0014129827
7.521308e-05 0.00063844 -0.0004079469 -0.00026186852 2.4843425e-06 0.002109541 0.0014295952 0.0016149274
00000000: 4f87 f939 5f7b 04ba 616f 5237 af26 2aba
00000010: f214 41b9 7061 4dba 5c15 51ba c086 e839
00000020: 1f12 7dba bd62 9e39 5f61 b43a 9339 3dba
00000030: 8896 413b 6034 cd3b 79cd 4bb9 ef7f ce3a
00000040: 1a05 4cbb 0813 96b6 bc72 0db9 29cf 6aba
00000050: f925 81b9 7856 8bb9 283f 82b9 fd37 c8bb
00000060: 3284 f039 07b6 4dba b574 c3ba 0cfb 6c3a
00000070: c573 273b a493 8cba eca2 373a 92b1 08bb
00000080: 3054 0abb a17f dfb8 a7a0 5036 724d 57b8
00000090: 0789 7436 cb5e ac3a a241 71ba 30ac 60bb
000000a0: d7e7 3a3b 9684 10bb 234c b6b9 45b8 72b7
000000b0: ea54 7eb9 4685 963b 85a2 cf39 db09 0638
000000c0: d5ea 403a 6f82 af3a afc5 00ba aa18 92b9
000000d0: 34e4 61ba 9ff2 e7b9 7f56 94ba b40e ed3b
000000e0: 8925 3bb8 46fa 32bb e9be aa3a 8797 edb9
000000f0: ff72 9a3a 6259 213a 5260 2f3b c8b5 fa38
00000100: 2fa5 d73b 22e8 01ba 9ddf 95b8 1008 60b9
00000110: f2fc 4239 8d1e 44ba 73fc 7539 91fb 3bbb
00000120: c83d cc3a 7bad 4e3b 8bb5 533a 4645 f2b7
00000130: 3aaf 66b9 479b c435 014f fc3a b4f5 ec3a
00000140: 867b e6ba 76d4 e1ba cbe9 9bbb 4874 993a
00000150: 64b9 3938 4b4c 26ba c9aa 0f3a 7b48 b3b8
00000160: 2337 43b8 2c9a e03a 39ec e636 b3a6 cf36
00000170: 6bfd 8abb afd7 8fb5 24e0 afb6 9e1f 5dba
00000180: 8041 f9b9 6f0c 02bb c22a c43a 11c7 bcb9
00000190: 6f2d 35bb 41ae a5b8 a974 48b8 01cc ef3a
000001a0: c9d0 ce3b 5c23 7b3b 2c09 6a3a 0fad 7dbb
000001b0: 927b b1b9 f7d9 a3bb 3690 a33a 57d3 243a
000001c0: 4360 37b8 0b27 2bbb 7124 a1ba f1d1 2639
000001d0: 5f13 2cb8 85e1 5238 4f18 cb39 d533 b93a
000001e0: b7bb 9d38 fc5c 273a b5e1 d5b9 664b 89b9
000001f0: aeb8 2636 3a40 0a3b 4161 bb3a f9ab d33a

exp_avg_sq f4 [128]
5.003869e-06 2.675423e-05 2.5483677e-09 1.3479842e-05 1.9126662e-06 7.0981885e-05 4.4765722e-05 5.9654135e-06
2.1064541e-05 1.0211711e-06 0.00015424809 4.1099247e-05 0.00030736736 0.002055753 6.124417e-07 7.2764386e-05
0.0005237299 1.5424963e-06 6.2964896e-06 0.00077173 2.5520735e-06 0.00015162682 4.7764297e-06 0.0010926481
4.2266274e-06 5.7796624e-05 0.0005861226 1.8638419e-05 9.7485885e-05 0.00013938727 2.819208e-05 0.00015623582
0.00041234127 3.7114592e-07 1.2284176e-09 7.300318e-08 4.9078974e-10 0.0003446076 6.529223e-05 0.00016290395
0.00016646873 9.448509e-05 1.0713027e-05 7.1439837e-07 2.076834e-06 0.00031267494 4.6701432e-05 3.0589337e-08
2.7566004e-05 0.000120857876 0.00013556385 2.27597e-06 3.0558393e-05 7.963639e-06 0.00023676224 0.0015948877
2.2413753e-08 0.00017946276 5.046421e-05 4.3609843e-06 0.0006790462 1.1537796e-05 0.00042649006 1.2388225e-05
0.0021866686 7.3236956e-06 3.194477e-05 1.2499133e-06 4.064883e-06 0.00042632088 5.0863346e-06 0.00047446197
0.00016375836 0.00015325393 1.1090006e-05 6.95924e-06 6.564808e-07 6.047868e-09 6.384104e-05 0.00031873674
0.000232267 0.0005600471 0.00070698693 0.00037273797 2.0781377e-08 1.26796795e-05 3.0759868e-05 7.5479506e-06
3.5259175e-06 0.00032785893 9.3041145e-08 3.6222378e-09 0.00033021433 4.3097095e-09 1.4385095e-06 4.422126e-05
5.893815e-05 0.00010137516 0.000109330416 6.029954e-05 0.0006415392 9.607431e-08 8.337139e-07 8.1721286e-05
0.0012539267 0.00022183916 0.00012348268 0.00023331367 1.1986039e-06 0.0014255814 8.0117024e-05 0.00020869203
3.805973e-07 4.8088754e-05 0.00010414839 4.9796625e-07 1.08221075e-05 6.0839025e-06 2.3276625e-05 0.00014418477
3.171623e-05 0.00011527548 5.8634237e-06 0.00015888459 4.4278218e-07 0.00013599405 6.42623e-05 0.00023398272
00000000: e8e6 a736 456e e037 5c1f 2f31 7b27 6237
00000010: 5b5b 0036 1cdc 9438 d4c2 3b38 832a c836
00000020: c2b3 b037 2c0f 8935 a8bd 2139 fb61 2c38
00000030: 2626 a139 d0b9 063b ac66 2435 1599 9838
00000040: eb4a 093a c507 cf35 6f46 d336 ec4d 4a3a
00000050: 4a44 2b36 04fe 1e39 3845 a036 3037 8f3a
00000060: 74d2 8d36 a76a 7238 06a6 193a b359 9c37
00000070: 5671 cc38 7c28 1239 087e ec37 3cd3 2339
00000080: 822f d839 e841 c734 1ad5 a830 ecc5 9c33
00000090: 42e8 0630 73ac b439 80ed 8838 32d1 2a39
000000a0: 1c8e 2e39 4c26 c638 1abc 3337 15c5 3f35
000000b0: bd5f 0b36 85ee a339 48e1 4338 5561 0333
000000c0: 8b3d e737 1475 fd38 2526 0e39 debc 1836
000000d0: d32b 0038 929b 0537 6143 7839 8d0b d13a
000000e0: 5d88 c032 2b2e 3c39 88a9 5338 9254 9236
000000f0: 0502 323a 7592 4137 879a df39 05d7 4f37
00000100: 364e 0f3b 11be f536 70fc 0538 b2c2 a735
00000110: 1465 8836 d283 df39 48ab aa36 35c1 f839
00000120: 8db6 2b39 cab2 2039 370f 3a37 6b83 e936
00000130: 0439 3035 9ccd cf31 66e2 8538 1f1c a739
00000140: b38c 7339 20d0 123a 1755 393a 0b6c c339
00000150: bb82 b232 cfba 5437 2804 0138 6744 fd36
00000160: cd9e 6c36 7be4 ab39 e9cd c733 15eb 7831
00000170: 9e20 ad39 9b14 9431 cf12 c135 377a 3938
00000180: 5b34 7738 6099 d438 5248 e538 23ea 7c38
00000190: f82c 283a 6951 ce33 62cc 5f35 c861 ab38
000001a0: cc5a a43a 7f9d 6839 217b 0139 a9a5 7439
000001b0: b7df a035 93da ba3a 8004 a838 57d4 5a39
000001c0: e554 cc34 e8b2 4938 3e6a da38 fbab 0535
000001d0: 9990 3537 5324 cc36 2c42 c337 4e30 1739
000001e0: 0b07 0538 0dc0 f138 6dbe c436 429a 2639
000001f0: 85b7 ed34 a099 0e39 8fc4 8638 4259 7539
