models/checkpoint_3200.pth (torch, 255274 bytes, 24 tensors)

policy_log_std f4 [7]
0.40070257 1.0023888 0.31072906 0.25857025 0.5510047 0.98350203 -2.962278
00000000: e328 cd3e 474e 803f e117 9f3e 5263 843e
00000010: a50e 0d3f cac6 7b3f f695 3dc0

fc1.weight f4 [128, 21]
-1.4828135 0.7464878 -0.26146936 -0.86133295 0.030502958 0.37461028 -1.3295555 -1.5515393
1.5909886 -0.34296212 0.65136373 1.1134082 -0.24962103 -0.53134733 0.1192775 0.4363985
-1.0139242 -0.535576 2.5842361 -1.8074493 -2.322355 2.6667905 0.3660711 1.1941843
0.90228283 -0.5581146 -1.5661597 -0.086825445 -0.36008874 -0.55348456 -0.7486313 0.5696012
2.1340108 1.0094006 1.2995961 -0.35643196 -0.20389906 -0.113999344 0.92865795 -0.6762506
1.8332486 -2.2040317 -0.35677978 -1.0465809 0.5119748 -0.14778377 0.88738674 -1.1618459
-1.0291787 0.83613074 -0.20365395 -0.0628932 -0.07253428 -0.6340363 -0.119111 0.6313456
0.70689046 0.4605913 0.55341667 0.24413064 -0.38177 -0.63781625 0.31748915 -1.5030034
0.36189073 0.26582694 -0.35590577 -0.33036897 -0.44794908 -0.10882197 -0.8267669 0.063143685
-0.315829 0.55970275 2.0990427 -0.26343527 -0.18369964 -1.5017121 1.819319 -0.3030466
-0.008073977 5.1646123 -2.1560962 -0.22528942 1.4173462 -0.89390373 -0.091607586 0.20007336
0.5064121 0.11368278 -1.3996091 -0.8582183 -0.42034513 0.9845598 -1.2907715 5.6694427
0.93288344 -0.31190062 0.2924641 0.67358303 -1.2878488 0.14912678 2.2378776 3.7590911
-1.6522673 2.5124784 -1.3008254 -0.18473312 0.18946835 -0.54981714 -2.5476305 0.66581637
1.712846 -0.04879037 -0.12397935 0.49919444 -0.64527607 -0.87863797 -0.28619328 0.008144119
-2.2297318 -0.53247404 0.13811806 -3.6967487 1.7148495 0.29455936 -0.052342784 0.3004865
-0.64722186 0.67908674 0.12254956 0.97844654 0.017309796 0.34893873 -0.58927935 0.12612194
-0.17989784 -1.0746989 -0.8583227 0.05450292 -0.48454884 0.019279994 0.22589883 -0.052478284
-0.3218893 -2.2624211 6.8489714 0.12501095 -0.810872 0.3716948 0.2557836 -1.6609625
-1.7625341 -0.12158856 -1.3221548 1.4457335 0.16789664 -0.11759697 3.4364753 1.2988553
0.4282446 0.90461254 1.9664859 0.92389196 0.58523977 0.5446276 2.69408 -0.32317057
1.5088141 -2.4532979 -0.17841564 0.5247639 -0.21910435 -0.0811203 0.50892305 1.1743084
-0.53356093 -0.3193095 0.45303115 -0.62984395 -0.6505837 -0.35589644 0.36963096 -0.32167292
0.5164722 0.2791455 -1.4103484 2.8780098 1.2779183 -3.3249428 0.5726765 -0.08571652
-0.21556528 -1.4289382 0.006993875 -1.078798 -1.0431824 1.1300756 0.014106619 0.32379434
3.6981187 0.74575526 -0.042961728 0.06943124 0.7824254 0.17823155 0.08561163 7.1399155
2.6086562 5.253464 -0.46477515 1.7425327 0.012703364 -0.30669242 -0.3859303 0.7439982
-1.1956103 -0.017838592 -0.89044905 -0.027334046 -0.33738726 1.3074703 0.9101865 -0.08171698
-0.6307495 -1.2177335 -1.4717872 -0.29039013 2.0470102 -0.8426887 -5.5545125 -1.1728122
1.4580669 0.09950739 -0.46274313 -0.45924816 1.2921588 0.43479818 -0.5290798 -0.501133
-0.44115263 0.21972449 5.46446 0.6644417 -0.086550996 -0.4185474 1.2374542 0.6231578
-0.013725749 6.1606784 -0.13504834 8.668743 -0.33751896 -0.5186445 -0.5357782 0.3650716
00000000: d5cc bdbf d319 3f3f 50df 85be 5180 5cbf
00000010: 57e1 f93c ebcc bf3e e02e aabf d798 c6bf
00000020: 84a5 cb3f bb98 afbe c6bf 263f 2984 8e3f
00000030: a89c 7fbe 6106 08bf c347 f43d a06f df3e
00000040: 45c8 81bf 821b 09bf 2064 2540 805a e7bf
00000050: 77a1 14c0 b2ac 2a40 ac6d bb3e 08db 983f
00000060: 02fc 663f 99e0 0ebf ec77 c8bf 8ad1 b1bd
00000070: 8d5d b8be 2ab1 0dbf 4da6 3fbf 62d1 113f
00000080: a293 0840 0a34 813f 2a59 a63f 407e b6be
00000090: eaca 50be 7d78 e9bd 87bc 6d3f c21e 2dbf
000000a0: e4a7 ea3f db0e 0dc0 d7ab b6be 5df6 85bf
000000b0: c810 033f a154 17be c72b 633f 5eb7 94bf
000000c0: 21bc 83bf aa0c 563f a98a 50be 26ce 80bd
000000d0: da8c 94bd 3450 22bf 78f0 f3bd de9f 213f
000000e0: c6f6 343f 9fd2 eb3e b7ac 0d3f 62fd 793e
000000f0: 5c77 c3be ed47 23bf f08d a23e 6a62 c0bf
00000100: be49 b93e 781a 883e 4839 b6be 1f26 a9be
00000110: 9559 e5be 0ede debd ffa6 53bf 7a51 813d
00000120: 57b4 a1be ae48 0f3f b756 0640 fde0 86be
00000130: c21b 3cbe 1a38 c0bf 72df e83f ed28 9bbe
00000140: b748 04bc 8144 a540 7bfd 09c0 45b2 66be
00000150: 9a6b b53f e0d6 64bf c29c bbbd 08e0 4c3e
00000160: 39a4 013f 84d2 e83d 6426 b3bf 32b4 5bbf
00000170: 7a37 d7be 1c0c 7c3f 0038 a5bf 136c b540
00000180: 73d1 6e3f 70b1 9fbe dbbd 953e f06f 2c3f
00000190: 3bd8 a4bf b1b4 183e 6339 0f40 f394 7040
000001a0: 7f7d d3bf 72cc 2040 7281 a6bf ae2a 3dbe
000001b0: fe03 423e d1c0 0cbf 610c 23c0 f172 2a3f
000001c0: 8a3e db3f 69d8 47bd e3e8 fdbd 6a96 ff3e
000001d0: d030 25bf 6bee 60bf ed87 92be e96e 053c
000001e0: edb3 0ec0 3850 08bf d26e 0d3e 8897 6cc0
000001f0: 3080 db3f 7cd0 963e 6365 56bd 5ed9 993e
00000200: 55b0 25bf a1d8 2d3f 44fb fa3d 797b 7a3f
00000210: 46cd 8d3c 19a8 b23e 03db 16bf 1c26 013e
00000220: 2437 38be bc8f 89bf 09bb 5bbf 743e 5f3d
00000230: c916 f8be 14f1 9d3c 0652 673e 78f3 56bd
00000240: adce a4be 82cb 10c0 c62a db40 df02 003e
00000250: 4f95 4fbf c84e be3e 11f6 823e 6b9a d4bf
00000260: b89a e1bf 6c03 f9bd 5e3c a9bf cc0d b93f
00000270: 19ed 2b3e aed6 f0bd 36ef 5b40 e440 a63f
00000280: e042 db3e b094 673f cfb5 fb3f 2f84 6c3f
00000290: 46d2 153f b76c 0b3f cf6b 2c40 9d76 a5be
000002a0: d220 c13f d502 1dc0 97b2 36be ed56 063f
000002b0: e45c 60be 6622 a6bd c848 023f bd4f 963f
000002c0: 7397 08bf 897c a3be b3f3 e73e 743d 21bf
000002d0: a78c 26bf 0f38 b6be 4540 bd3e 50b2 a4be
000002e0: 8637 043f 29ec 8e3e 4c86 b4bf 5031 3840
000002f0: d492 a33f ddcb 54c0 ed9a 123f 258c afbd
00000300: 25bd 5cbe 72e7 b6bf e02c e53b 0e16 8abf
00000310: 0087 85bf 51a6 903f 731f 673c 5fc8 a53e
00000320: faad 6c40 d1e9 3e3f a3f8 2fbd f731 8e3d
00000330: 084d 483f 5582 363e 2655 af3d 307a e440
00000340: 39f4 2640 611c a840 02f7 edbe 500b df3f
00000350: c521 503c ca06 9dbe a898 c5be ab76 3e3f
00000360: c209 99bf 3d22 92bc 78f4 63bf a6eb dfbc
00000370: 06be acbe 305b a73f fc01 693f 3b5b a7bd
00000380: cd78 21bf b1de 9bbf 8663 bcbf 04ae 94be
00000390: 3702 0340 72ba 57bf 91be b1c0 b61e 96bf
000003a0: f0a1 ba3f 88ca cb3d abec ecbe 9322 ebbe
000003b0: 7665 a53f de9d de3e c671 07bf 414a 00bf
000003c0: c2de e1be 75ff 603e dbdc ae40 da18 2a3f
000003d0: a641 b1bd d84b d6be e664 9e3f 4587 1f3f
000003e0: f7e1 60bc 4724 c540 1d4a 0abe 2cb3 0a41
000003f0: 49cf acbe e3c5 04bf c328 09bf aaea ba3e

fc1.bias f4 [128]
-0.84374624 1.2446761 0.24310201 -0.010646212 -0.00039737852 0.014799945 0.23618752 0.3417843
0.241889 0.17952983 -0.24431486 0.19422422 0.13992833 -0.023015685 -0.23378545 -0.0036140394
-0.0010051128 0.0111081805 -0.027579237 0.3146727 -0.42898634 0.5484167 -0.4299453 0.1405968
-0.44342288 0.29818827 -0.14425793 0.09263663 0.27068293 0.062224638 0.16337329 0.05363193
-0.0018714532 0.10472753 0.17836557 0.16144882 -0.40138632 -0.16215445 0.2205982 0.13512854
-0.110487185 -0.24166404 -0.050869416 -0.16808566 -0.22619283 0.04188687 -0.08995843 0.26290914
0.18133458 0.01666281 0.3007268 0.3923682 -0.010872096 -0.3067552 -0.10570459 0.25601014
-0.03154061 -0.11897636 0.007954819 -0.49482933 0.13890715 -0.3696254 -0.10007056 -0.016613137
0.06254198 -0.40171587 0.21974419 -0.07388675 -0.1447119 -0.105161294 0.017841581 0.1455512
0.19828206 0.19373766 -0.09031667 0.49530667 0.05403042 -0.16351646 0.055096865 -0.4051789
0.19224419 0.081766024 0.066296525 -0.07109442 0.21111125 -0.4732956 -0.68590266 -0.15792282
-0.50340575 -0.14958622 -0.3473271 0.2531159 0.082345635 -0.02976598 -0.3554167 0.24784951
-0.26300246 0.09816552 0.2658414 -0.051757585 -0.07319503 -0.20260939 0.17782639 0.10386305
-0.09096979 -0.034500603 0.12599543 -0.034127735 0.049609344 0.12397353 -0.33238128 0.11961851
-0.066696785 -0.1602948 0.069937736 -0.29433703 0.24662463 -0.21552852 0.13938208 -0.102614045
-0.18285696 -0.07349769 0.26306435 0.20124385 0.17600694 0.09293032 0.26918876 0.2697524
00000000: c1ff 57bf 8c51 9f3f bcef 783e 736d 2ebc
00000010: 3e57 d0b9 787b 723c 24db 713e 5afe ae3e
00000020: c0b1 773e abd6 373e ad2d 7abe b7e2 463e
00000030: 5f49 0f3e 648b bcbc 7465 6fbe 85d9 6cbb
00000040: fdbd 83ba 16ff 353c daed e1bc c81c a13e
00000050: 19a4 dbbe 0965 0c3f ca21 dcbe 9cf8 0f3e
00000060: 5308 e3be 22ac 983e 5ab8 13be 46b8 bd3d
00000070: f496 8a3e 43df 7e3d 544b 273e 28ad 5b3d
00000080: 8d4b f5ba 637b d63d 77a5 363e d752 253e
00000090: 8282 cdbe d10b 26be 7fe4 613e 235f 0a3e
000000a0: 1b47 e2bd c776 77be 735c 50bd a61e 2cbe
000000b0: 189f 67be 9191 2b3d 203c b8bd 079c 863e
000000c0: c6af 393e 7280 883c ddf8 993e 7ce4 c83e
000000d0: e020 32bc 040f 9dbe a67b d8bd c313 833e
000000e0: ba30 01bd e1a9 f3bd ee54 023c 455a fdbe
000000f0: ad3d 0e3e 8a3f bdbe cbf1 ccbd 4618 88bc
00000100: 0216 803d b4ad cdbe 9f04 613e f051 97bd
00000110: 5b2f 14be ce5e d7bd 8228 923c 600b 153e
00000120: 740a 4b3e 2a63 463e f2f7 b8bd d698 fd3e
00000130: 004f 5d3d dc70 27be 40ad 613d 9c73 cfbe
00000140: a9db 443e f274 a73d 79c6 873d f499 91bd
00000150: 8c2d 583e cd53 f2be 5197 2fbf 85b6 21be
00000160: 33df 00bf 212d 19be dcd4 b1be 6898 813e
00000170: d4a4 a83d c9d7 f3bc 2df9 b5be 43cc 7d3e
00000180: 42a8 86be 010b c93d 5d1c 883e c3ff 53bd
00000190: 47e7 95bd d678 4fbe 1f18 363e 27b6 d43d
000001a0: 5f4e babd 8150 0dbd f204 013e 86c9 0bbd
000001b0: 2b33 4b3d d6e5 fd3d e12d aabe 8dfa f43d
000001c0: 5398 88bd 5224 24be 843b 8f3d 58b3 96be
000001d0: 2b8b 7c3e 82b3 5cbe 2dba 0e3e 5027 d2bd
000001e0: db3e 3bbe f585 96bd 5fb0 863e de12 4e3e
000001f0: 2a3b 343e 4052 be3d 1cd3 893e fd1c 8a3e

fc2.weight f4 [128, 128]
0.2290457 0.0033842016 -0.2554447 0.523786 -0.002309146 -0.27234632 -0.88658285 1.3181523
-0.3621263 1.567262 1.8846904 -0.07313835 -0.3948065 0.8031444 0.60604125 -0.1976063
0.19433373 -0.30167696 -0.042535745 1.1776704 -0.16528307 0.9529089 -0.6228691 -2.7606955
-0.9666518 0.098422125 -0.32089508 -0.059382793 -0.38045454 0.2611632 1.9557753 0.69683015
0.10576157 0.24015734 -0.5011132 0.11984166 0.1603825 -0.21840882 -1.4821393 -1.6800212
-0.5454974 -0.5208113 0.7308425 -0.32946682 0.7411787 0.3042924 1.7092713 -0.53081024
-0.119235165 0.3689972 0.42546067 -0.45707396 -2.377737 -1.4617661 -0.45922476 -0.53172445
-0.27244526 0.8434985 0.12213073 -0.4774131 -0.71015656 -0.0099758785 -0.37109324 0.044837624
0.555534 -1.1372408 1.7698398 -1.0308231 0.14533967 0.10554574 -0.09890552 0.20713949
0.23311155 -0.53506577 2.4781697 0.009249124 0.0015124095 0.6130456 -0.18774511 -0.30686677
-0.31317005 -0.5818961 0.30793673 1.1927899 -0.60265326 0.49337065 -0.5305289 -0.68582743
-0.20549911 -0.53796476 1.2947203 -1.6575657 -0.17387757 -0.59186006 0.27612185 -1.0616913
-0.6277129 -1.7908021 -0.15553798 -0.2648979 1.0698274 0.20808451 -0.3284354 0.9929654
0.051577747 0.9914596 -0.89808106 -0.020173596 -1.0290673 0.1154748 -0.75274837 0.72887003
0.022848051 0.632149 -1.8613492 -0.23559704 -0.5790524 -0.23397876 2.0931706 -0.40791258
1.2164649 0.09882574 -1.7440072 -0.26173326 0.6395459 1.367616 -0.46302652 1.0926847
-1.0183133 2.0614603 0.02282557 -0.32595363 1.1035687 -1.2128278 -0.2775569 0.4480474
0.703576 -0.50765556 -0.045386974 0.3716428 0.837312 0.5234953 1.096724 -0.20026158
1.0393827 -0.24050504 -0.9313222 2.802994 -0.47146118 0.35247344 -0.90760535 -0.070023805
-1.3126379 0.15992734 -0.7874214 -0.80509186 -0.8873423 -0.61001986 -0.9056741 0.8482733
1.4504161 -0.121087395 -0.0005911325 1.1457702 -0.9556657 0.39275092 -0.11305789 0.5866606
-0.84659964 0.0917502 0.75153995 0.5739615 0.8849277 -0.7523004 1.2985663 -0.97582465
-0.430365 -1.2557439 3.230173 0.42375436 -1.4051483 -0.3488488 0.54617876 -2.1919904
0.27149916 0.22493762 -0.75877976 -0.4232975 -0.48637313 -0.8431477 -0.69975483 -0.39453772
-0.2948083 -1.0141774 0.80590826 -0.21510425 -0.76926446 0.31495097 -1.123858 0.42258966
-0.20430104 -0.63948953 -0.15863192 0.050074562 0.46914345 0.6997645 -1.160735 -2.2376091
-0.27647611 -0.8790268 -0.18685319 0.4038776 -0.59942144 -0.29376242 -1.2692556 0.035736542
-1.0758207 -1.5192442 -0.011918352 -1.3034436 1.098108 -1.3314724 0.60697013 0.33787993
-0.19162737 -1.114641 1.4348319 -0.97669315 -0.0860521 0.66715306 -0.34769323 0.23205027
-1.4862262 0.42358708 -1.0666722 1.2619292 -0.3446612 0.9054121 -0.81125295 0.508309
-0.32138634 1.3646193 0.23693658 -0.27975073 -0.058921512 -0.5925094 0.017733414 -1.1401062
-0.6840584 0.42403007 -0.44215202 2.1818488 0.8130574 1.2649721 0.30268982 0.37019268
00000000: f58a 6a3e 7bc9 5d3b a6c9 82be d716 063f
00000010: 0b55 17bb fa70 8bbe 18f7 62bf 37b9 a83f
00000020: 9e68 b9be 0b9c c83f 893d f13f 8fc9 95bd
00000030: 1424 cabe df9a 4d3f 8525 1b3f 4e59 4abe
00000040: 6cff 463e 6775 9abe f639 2ebd e7bd 963f
00000050: f73f 29be d6f1 733f 5974 1fbf 3caf 30c0
00000060: 7e76 77bf 8a91 c93d 5c4c a4be 5f3b 73bd
00000070: f0ca c2be 2fb7 853e d856 fa3f 7663 323f
00000080: 8699 d83d ceeb 753e f448 00bf 8b6f f53d
00000090: 4f3b 243e 90a6 5fbe beb6 bdbf ef0a d7bf
000000a0: b8a5 0bbf e453 05bf 7e18 3b3f e0af a8be
000000b0: e3bd 3d3f 37cc 9b3e 67c9 da3f 2ee3 07bf
000000c0: 9131 f4bd 33ed bc3e fbd5 d93e 9905 eabe
000000d0: d82c 18c0 271b bbbf 821f ebbe 181f 08bf
000000e0: f27d 8bbe 85ef 573f ad1f fa3d 7d6f f4be
000000f0: d2cc 35bf de71 23bc efff bdbe a8a7 373d
00000100: 7a37 0e3f 1b91 91bf 1c8a e23f 03f2 83bf
00000110: ecd3 143e 5d28 d83d fa8e cabd 601c 543e
00000120: cbb4 6e3e 12fa 08bf 559a 1e40 a389 173c
00000130: 0b3c c63a 8ef0 1c3f 4140 40be a41d 9dbe
00000140: d357 a0be 25f7 14bf e2a9 9d3e 57ad 983f
00000150: 7c47 1abf 149b fc3e bed0 07bf 6392 2fbf
00000160: 5c6e 52be 0fb8 09bf 65b9 a53f 1d2b d4bf
00000170: f60c 32be 2484 17bf d85f 8d3e 80e5 87bf
00000180: cbb1 20bf 0139 e5bf 5945 1fbe b3a0 87be
00000190: 1bf0 883f 1b14 553e af28 a8be fb32 7e3f
000001a0: 3043 533d 4cd0 7d3f a4e8 65bf 1943 a5bc
000001b0: 7ab8 83bf 0d7e ec3d 1eb4 40bf 3a97 3a3f
000001c0: d62b bb3c 84d4 213f b140 eebf 5a40 71be
000001d0: c73c 14bf 2198 6fbe 82f6 0540 ebd9 d0be
000001e0: 1fb5 9b3f 2665 ca3d a13b dfbf e701 86be
000001f0: 48b9 233f 0b0e af3f d011 edbe 18dd 8b3f
00000200: 1758 82bf f7ee 0340 b1fc ba3c 65e3 a6be
00000210: bd41 8d3f f13d 9bbf f01b 8ebe 7866 e53e
00000220: 8f1d 343f b7f5 01bf b1e7 39bd f747 be3e
00000230: 145a 563f ca03 063f 7461 8c3f 5f11 4dbe
00000240: 7e0a 853f f446 76be 226b 6ebf 4164 3340
00000250: 5c63 f1be 6677 b43e d358 68bf a468 8fbd
00000260: 8504 a8bf fec3 233e 7394 49bf 801a 4ebf
00000270: dd28 63bf 432a 1cbf 42da 67bf 7028 593f
00000280: 3ca7 b93f abfc f7bd 3bf6 1aba 99a8 923f
00000290: 82a6 74bf a616 c93e e58a e7bd 642f 163f
000002a0: c1ba 58bf 87e7 bb3d ec64 403f 24ef 123f
000002b0: 9f8a 623f c296 40bf 6c37 a63f a5cf 79bf
000002c0: cd58 dcbe 37bc a0bf 28bb 4e40 55f6 d83e
000002d0: e6db b3bf 4f9c b2be 5fd2 0b3f 9249 0cc0
000002e0: f001 8b3e 0c56 663e 643f 42bf 73ba d8be
000002f0: e605 f9be 87d8 57bf 2223 33bf d900 cabe
00000300: 1df1 96be 91d0 81bf 0150 4e3f 4a44 5cbe
00000310: 84ee 44bf 4141 a13e 94da 8fbf ac5d d83e
00000320: 4b34 51be 96b5 23bf 6870 22be fc1a 4d3d
00000330: 9233 f03e c423 333f f792 94bf fd34 0fc0
00000340: 478e 8dbe e607 61bf 7156 3fbe 0bc9 ce3e
00000350: af73 19bf 0768 96be f876 a2bf 7b60 123d
00000360: 7eb4 89bf 9876 c2bf 3145 43bc 3dd7 a6bf
00000370: ce8e 8c3f b06d aabf 6562 1b3f 99fe ac3e
00000380: f739 44be 8eac 8ebf 92a8 b73f 9008 7abf
00000390: 153c b0bd 8bca 2a3f d904 b2be 969e 6d3e
000003a0: a93c bebf 68e0 d83e b788 88bf e586 a13f
000003b0: 6f77 b0be 16c9 673f 46ae 4fbf 8a20 023f
000003c0: c08c a4be d8ab ae3f 819f 723e 7d3b 8fbe
000003d0: af57 71bd b2ae 17bf aa45 913c 00ef 91bf
000003e0: 741e 2fbf 781a d93e c061 e2be 69a3 0b40
000003f0: 8824 503f 9bea a13f 29fa 9a3e e589 bd3e

fc2.bias f4 [128]
-0.25353324 0.94088465 -0.23254442 -0.51113355 0.084516 -0.0610951 0.7289409 -0.5494791
-0.55419487 0.45094067 0.33993 0.7313424 -0.24832286 -0.110191934 0.061016846 -0.19116011
0.18319003 0.36990777 0.22396167 0.040144816 0.17183864 0.15089303 0.3009757 -0.8722408
0.12836789 -0.04480334 0.09946368 -0.17320411 -0.04923237 0.595971 -0.054084446 0.06327143
0.32964337 0.86864287 0.54066265 0.15889749 -0.31922367 0.007920102 -0.54850864 0.12262679
-0.33773994 -0.21352784 -1.1229137 0.017664084 -0.08259314 -0.03825284 -0.05686696 0.25011358
-0.5198013 0.70504 0.13549767 0.62267613 -0.55668813 -0.85691893 0.12976311 -0.7136779
-0.24606773 -0.5201605 -0.5013897 -0.21044663 0.39106616 0.30444145 -0.51420724 0.42836833
-0.04714121 -0.24233595 0.39283112 -0.123983845 -0.08528727 0.42465132 0.19012675 0.054943923
0.26580805 0.119345196 0.044288635 -0.3024482 -0.07125958 -0.20417103 0.11770684 -0.17686884
-0.26923475 0.2971445 0.18150988 -0.5436126 0.22260064 -0.06867254 -0.026158849 0.18418857
-0.08584958 -0.13044012 0.16507503 0.48202285 -0.24567232 -0.16871138 -0.246419 -0.22111994
0.112843744 -0.38539279 0.21607593 0.058485344 0.13685843 -0.06146339 0.110234834 -0.16338827
-0.6328611 -0.3262374 0.6666699 0.97909564 0.26294124 -0.13149403 -0.52473164 -0.1837177
0.32322285 0.09254687 -0.6366249 0.18884033 -0.4391215 -0.21893872 -0.24537143 0.28223974
-0.21320379 -0.64547265 -0.68367183 0.39467752 -0.56563425 -0.18504804 -0.41283238 0.029953483
00000000: 1ccf 81be d1dd 703f 2020 6ebe a6d9 02bf
00000010: b916 ad3d db3e 7abd df9b 3a3f aaaa 0cbf
00000020: b7df 0dbf b2e1 e63e 4e0b ae3e 4139 3b3f
00000030: 5948 7ebe 4fac e1bd cdec 793d 7abf 43be
00000040: 2b96 3b3e 8d64 bd3e 3556 653e e46e 243d
00000050: 78f6 2f3e b483 1a3e 7d19 9a3e 2c4b 5fbf
00000060: df72 033e b583 37bd 9db3 cb3d 6b5c 31be
00000070: e2a7 49bd 8e91 183f a787 5dbd 7494 813d
00000080: 04c7 a83e 615f 5e3f de68 0a3f 06b6 223e
00000090: 4971 a3be 51c3 013c 106b 0cbf c123 fb3d
000000a0: 40ec acbe 0ba7 5abe a3bb 8fbf 45b4 903c
000000b0: 9826 a9bd 03af 1cbd 54ed 68bd e30e 803e
000000c0: b311 05bf 807d 343f e7bf 0a3e b467 1f3f
000000d0: 1d83 0ebf 0a5f 5bbf 9fe0 043e 98b3 36bf
000000e0: 2ef9 7bbe 3d29 05bf 135b 00bf 527f 57be
000000f0: d339 c83e c0df 9b3e 16a3 03bf 1853 db3e
00000100: 2417 41bd ea26 78be 2921 c93e 3eeb fdbd
00000110: 18ab aebd e66b d93e 96b0 423e e10c 613d
00000120: fe17 883e 416b f43d 0068 353d 7eda 9abe
00000130: 8bf0 91bd 3612 51be 4910 f13d 1b1d 35be
00000140: 23d9 89be 5323 983e badd 393e 322a 0bbf
00000150: 6cf1 633e 30a4 8cbd 154b d6bc ee9b 3c3e
00000160: e8d1 afbd 1892 05be 6e09 293e b3cb f63e
00000170: 8691 7bbe adc2 2cbe 4355 7cbe 446d 62be
00000180: 9f1a e73d 3452 c5be 0243 5d3e 548e 6f3d
00000190: 9e24 0c3e 09c1 7bbd cdc2 e13d 414f 27be
000001a0: 2f03 22bf 9708 a7be e1aa 2a3f 03a6 7a3f
000001b0: 3ca0 863e 5fa6 06be d054 06bf 7e20 3cbe
000001c0: 777d a53e 3789 bd3d d9f9 22bf 5c5f 413e
000001d0: 89d4 e0be 7931 60be a642 7bbe ba81 903e
000001e0: 1852 5abe b23d 25bf 1e05 2fbf 2c13 ca3e
000001f0: 68cd 10bf 3c7d 3dbe c45e d3be 0261 f53c

policy_mean.weight f4 [7, 128]
-0.06581684 0.021095857 -0.016976025 -0.026909893 0.048009053 0.038112782 0.115958184 -0.08288822
-0.14054962 -0.021263972 0.0017313187 0.042918492 0.008496595 0.035644688 0.07484086 -0.06133549
0.026334435 -0.046887167 0.0324609 0.1017919 -0.022694137 -0.02443398 0.0296306 -0.021582427
0.04700447 -0.040783506 -0.0066049034 0.018456629 0.016179048 0.032726422 0.0027410397 -0.015220807
0.03474055 -0.11237928 -0.0987553 -0.06704563 0.0073749083 -0.10034143 0.060480338 -0.054040607
-0.0283342 -0.06475869 -0.0094355345 0.019619578 -0.060934238 -0.14073633 0.073372066 -0.042425353
-0.112902045 0.15696488 -0.038777053 -0.00847428 -0.078901805 -0.048098106 0.020202875 0.100431
-0.037668027 -0.13799587 0.062257692 0.000166209 -0.06058237 0.04051375 0.043771494 -0.047634944
-0.04410532 0.03116383 0.035052888 -0.030547151 0.047583874 -0.072966486 -0.06012788 0.11034406
0.027375886 -0.012294774 -0.01829231 -0.07178548 -0.06445675 -0.10105323 0.06910581 0.03727529
0.0051461644 0.077533595 -0.056221392 -0.015909463 -0.05479737 -0.011593856 -0.03241906 -0.030710436
0.0134874 -0.020075792 0.042195324 -0.0070318296 -0.04079909 -0.041215945 -0.060437478 -0.04662202
0.10168221 0.003750836 -0.012981454 0.0080213845 0.017442148 -0.100661166 0.07914498 0.018597547
-0.07997232 0.019831533 0.08928434 -0.07169107 0.03032856 -0.062043186 0.0390627 -0.049872916
0.07828978 0.09367409 -0.014353537 0.003158757 -0.030456528 -0.016771423 0.062155537 -0.0446635
-0.025453515 -0.0081387395 0.15746115 -0.03619543 -0.07708504 -0.018146647 -0.05414269 -0.028088056
-0.071287036 0.20668441 0.059599854 -0.01719202 -0.15392007 -0.07473983 0.059209757 -0.0320929
0.073198445 0.06936284 -0.03136893 0.043107796 0.048615277 -0.021219209 -0.080320135 0.10560845
-0.10494675 -0.008821144 0.15343152 -0.15047823 0.028984284 -0.03937456 -0.15739647 0.092471674
-0.027028317 -0.034494154 -0.06571282 -0.039664317 0.08447176 0.014518677 0.22764234 -0.028688619
0.091892906 0.04473678 0.139079 0.01178011 -0.07578318 -0.05271332 -0.104988426 0.10517244
-0.14385964 0.052146044 -0.019343406 -0.008221367 -0.101105876 -0.0059535303 -0.027517883 0.0596917
0.10745245 0.051438715 0.16912821 -0.098049775 0.047837656 -0.081038736 -0.0724514 -0.17506385
0.10990038 0.23111482 -0.007666644 -0.011887361 0.025815247 -2.1125692e-05 0.12737954 -0.006325417
-0.0050406563 0.06867189 -0.14150481 0.06776043 -0.07943601 -0.032878485 0.027161485 0.044623744
0.11931832 -0.17117445 -0.22101812 0.02489558 -0.09821878 -0.036449507 -0.042948715 -0.076384515
-0.15557103 0.079953864 0.097385876 -0.010952731 0.19394365 -0.08652257 -0.010232608 -0.03768303
-0.109352045 -0.07142034 0.0019262099 0.012748671 0.04924864 -0.023211675 0.033227053 -0.018782027
-0.07294594 -0.12792054 0.048598267 -0.12356756 -0.02203876 -0.071888044 0.12061826 0.04549319
0.12382762 -0.045405444 0.12346803 0.17054208 0.028118923 0.07065698 -0.0007181218 -0.09156816
-0.08941145 0.010429411 0.1646856 0.055454616 0.11169147 -0.015428363 -0.062179126 0.123600364
0.069422625 -0.0450853 -0.031477135 0.019396447 -0.10504118 -0.1780078 0.037153777 0.03444882
00000000: fbca 86bd 38d1 ac3c 4e11 8bbc 2372 dcbc
00000010: 24a5 443d 261c 1c3d 7c7b ed3d 4dc1 a9bd
00000020: 3dec 0fbe c831 aebc 6aed e23a 4dcb 2f3d
00000030: 4d35 0b3c 2a00 123d 2a46 993d ec3a 7bbd
00000040: 50bb d73c c20c 40bd b8f5 043d 4678 d03d
00000050: 0ee9 b9bc c529 c8bc dfbb f23c a1cd b0bc
00000060: c287 403d 9b0c 27bd f26d d8bb 5b32 973c
00000070: ec89 843c 240c 063d 04a3 333b b160 79bc
00000080: 1b4c 0e3d 1c27 e6bd 3840 cabd 384f 89bd
00000090: 37a9 f13b cf7f cdbd 3bba 773d af59 5dbd
000000a0: 201d e8bc 34a0 84bd 8097 1abc 3db9 a03c
000000b0: 2e96 79bd 2f1d 10be 1844 963d 35c6 2dbd
000000c0: 3039 e7bd 67bb 203e b0d4 1ebd b5d7 0abc
000000d0: 4597 a1bd 8502 45bd 8080 a53c c5ae cd3d
000000e0: ca49 1abd ca4e 0dbe ec01 7f3d 6448 2e39
000000f0: 3825 78bd bff1 253d bd49 333d dc1c 43bd
00000100: c8a7 34bd 4a4b ff3c 9e93 0f3d 053e fabc
00000110: 4fe7 423d 746f 95bd a748 76bd 11fc e13d
00000120: 6543 e03c 0570 49bc c1d9 95bc 4404 93bd
00000130: e701 84bd fff4 cebd 5987 8d3d f9ad 183d
00000140: 28a1 a83b efc9 9e3d 6748 66bd 9054 82bc
00000150: 3573 60bd 28f4 3dbc d9c9 04bd 7494 fbbc
00000160: 41fa 5c3c fd75 a4bc 01d5 2c3d 436b e6bb
00000170: f21c 27bd 0dd2 28bd 4a8d 77bd bbf6 3ebd
00000180: c33e d03d 96d0 753b 2ab0 54bc 206c 033c
00000190: d6e2 8e3c 7127 cebd c316 a23d e259 983c
000001a0: 87c8 a3bd bd75 a23c b5da b63d c5d2 92bd
000001b0: 9a73 f83c ff20 7ebd 3600 203d 8b47 4cbd
000001c0: 6456 a03d 34d8 bf3d 192b 6bbc 2603 4f3b
000001d0: f87f f9bc 3964 89bc ce96 7e3d 13f1 36bd
000001e0: e483 d0bc 5958 05bc 7f3d 213e a941 14bd
000001f0: c3de 9dbd 47a8 94bc bac4 5dbd ec18 e6bc
00000200: f0fe 91bd 14a5 533e fa1e 743d 47d6 8cbc
00000210: 399d 1dbe 3211 99bd ee85 723d d873 03bd
00000220: 11e9 953d 1b0e 8e3d b57c 00bd cd91 303d
00000230: d020 473d e8d3 adbc e27e a4bd 3e49 d83d
00000240: 52ee d6bd 8f86 10bc 271d 1d3e f716 1abe
00000250: 7370 ed3c 3847 21bd 8a2c 21be ca61 bd3d
00000260: 7d6a ddbc be49 0dbd 7194 86bd 0d77 22bd
00000270: 88ff ac3d bfdf 6d3c 131b 693e 6504 ebbc
00000280: 5932 bc3d ea3d 373d ba6a 0e3e 5d01 413c
00000290: 3634 9bbd ece9 57bd 2c04 d7bd a664 d73d
000002a0: f14f 13be 1797 553d 1076 9ebc eab2 06bc
000002b0: 9910 cfbd d515 c3bb 2f6d e1bc 497f 743d
000002c0: 0810 dc3d 67b1 523d f22f 2d3e 52ce c8bd
000002d0: 6bf1 433d a3f7 a5bd 6661 94bd f043 33be
000002e0: 7313 e13d 5da9 6c3e 7938 fbbb 35c3 42bc
000002f0: 7f7a d33c 1437 b1b7 c86f 023e 7245 cfbb
00000300: 172c a5bb d9a3 8c3d a3e6 10be fbc5 8a3d
00000310: 59af a2bd 97ab 06bd c381 de3c 63c7 363d
00000320: 2a5d f43d 5b48 2fbe 9352 62be d1f1 cb3c
00000330: ed26 c9bd 144c 15bd feea 2fbd 7c6f 9cbd
00000340: 034e 1fbe dabe a33d 3f72 c73d 1573 33bc
00000350: 2a99 463e bf32 b1bd aba6 27bc 8559 1abd
00000360: f7f3 dfbd d444 92bd e178 fc3a cddf 503c
00000370: f1b8 493d 6926 bebc 1719 083d c4dc 99bc
00000380: ae64 95bd 9afd 02be fa0e 473d fd10 fdbd
00000390: a18a b4bc 0a3a 93bd b506 f73d 1157 3a3d
000003a0: 5699 fd3d 0ffb 39bd cedc fc3d 95a2 2e3e
000003b0: a859 e63c 9bb4 903d 5740 3cba 1688 bbbd
000003c0: 5a1d b7bd 1fe0 2a3c 58a3 283e 6124 633d
000003d0: 7fbe e43d 3fc7 7cbc 8aaf 7ebd 3022 fd3d
000003e0: 732d 8e3d 5dab 38bd 2bee 00bd 4ce5 9e3c
000003f0: d51f d7bd ad47 36be 8f2e 183d 351a 0d3d

policy_mean.bias f4 [7]
-0.14683789 0.053291958 -0.0625626 -0.044268634 -0.07598817 -0.026634574 -8.389805e-05
00000000: ac5c 16be ab48 5a3d d220 80bd 0753 35bd
00000010: b09f 9bbd c030 dabc 6cf2 afb8

value_head.weight f4 [1, 128]
-14.439727 13.884964 -13.362642 10.586855 11.898966 13.77725 14.966161 11.189245
9.900833 -9.846842 -14.389568 -9.112836 13.012256 -11.648757 12.613734 10.740025
16.166462 -16.655115 -9.435916 -12.364513 14.485878 -16.251347 -11.625578 11.50211
19.840054 14.870569 -15.241271 13.447844 -10.986095 -12.37144 11.081824 10.920137
11.438676 -10.074438 -8.651789 11.914926 10.98906 12.060616 -10.295935 -10.202679
13.39961 10.724222 12.118059 -11.12373 14.005749 -14.392696 -12.296039 -17.156456
10.685375 11.64929 11.270465 -9.868221 11.456003 9.356451 16.116072 8.853201
13.2147045 10.143395 12.649997 13.021423 -12.015228 -20.759089 15.083195 -14.743652
12.040496 14.864205 -14.4455595 -14.325721 -10.114762 -14.254585 -9.4004 -18.754274
13.171527 -14.444902 -12.473203 12.643501 10.540477 13.415304 -10.566377 10.731549
-13.144446 -12.116223 -12.585218 7.798156 -13.902972 15.168911 -17.927835 8.523196
-16.393238 10.3169 18.370178 -8.941627 -7.7615256 12.4947 -16.429632 11.062582
15.281314 13.462195 11.136965 -15.237104 17.161661 -16.212538 -15.061546 9.046992
11.51484 14.169758 10.690506 -8.8339815 -18.389692 -13.802366 11.744741 15.18613
-12.654846 18.512932 11.995471 -13.008211 11.920011 13.741613 -14.95005 -13.804613
-11.521886 11.001454 13.52408 -12.683712 10.195336 8.72864 12.271131 -17.17605
00000000: 1f09 67c1 d028 5e41 62cd 55c1 c263 2941
00000010: 2a62 3e41 9e6f 5c41 6575 6f41 2607 3341
00000020: d069 1e41 aa8c 1dc1 ac3b 66c1 2dce 11c1
00000030: 3332 5041 4f61 3ac1 dbd1 4941 24d7 2b41
00000040: ea54 8141 ad3d 85c1 83f9 16c1 0cd5 45c1
00000050: 28c6 6741 c202 82c1 5e02 3ac1 a408 3841
00000060: 6eb8 9e41 daed 6d41 3fdc 73c1 5e2a 5741
00000070: 0cc7 2fc1 6bf1 45c1 274f 3141 e2b8 2e41
00000080: d104 3741 e630 21c1 ba6d 0ac1 89a3 3e41
00000090: 31d3 2f41 48f8 4041 26bc 24c1 2c3e 23c1
000000a0: cd64 5641 6a96 2b41 92e3 4141 ccfa 31c1
000000b0: 8c17 6041 7c48 66c1 93bc 44c1 6c40 89c1
000000c0: 4cf7 2a41 7e63 3a41 d353 3441 3ce4 1dc1
000000d0: ca4b 3741 06b4 1541 b7ed 8041 b6a6 0d41
000000e0: 6e6f 5341 594b 2241 6366 4a41 c057 5041
000000f0: 603e 40c1 9d12 a6c1 c454 7141 00e6 6bc1
00000100: dfa5 4041 c9d3 6d41 0321 67c1 2736 65c1
00000110: 11d6 21c1 c812 64c1 0a68 16c1 c108 96c1
00000120: 93be 5241 521e 67c1 3d92 47c1 c84b 4a41
00000130: cba5 2841 16a5 5641 e10f 29c1 6db4 2b41
00000140: a74f 52c1 0ddc 41c1 0e5d 49c1 7e8a f940
00000150: 9372 5ec1 dcb3 7241 356c 8fc1 035f 0841
00000160: 5a25 83c1 0612 2541 20f6 9241 e710 0fc1
00000170: 6b5e f8c0 4bea 4741 e36f 83c1 5600 3141
00000180: 4380 7441 2765 5741 0231 3241 2ecb 73c1
00000190: 154b 8941 47b3 81c1 18fc 70c1 7bc0 1041
000001a0: c93c 3841 54b7 6241 500c 2b41 fd57 0dc1
000001b0: 171e 93c1 7ed6 5cc1 76ea 3b41 63fa 7241
000001c0: 407a 4ac1 7c1a 9441 73ed 3f41 a221 50c1
000001d0: 5db8 3e41 a6dd 5b41 6833 6fc1 b2df 5cc1
000001e0: a559 38c1 f505 3041 a262 5841 7cf0 4ac1
000001f0: 1920 2341 82a8 0b41 8d56 4441 8d68 89c1

exp_avg f4 [7]
-0.000121046396 0.00028429893 2.7457198e-05 5.67106e-05 -0.00038487036 -0.000136771 -5.024481e-05
00000000: 4ada fdb8 f50d 9539 e253 e637 8bdc 6d38
00000010: 6dc8 c9b9 306a 0fb9 f4bd 52b8

exp_avg_sq f4 [7]
1.0717262e-06 1.2818616e-06 1.0266356e-06 1.0173861e-06 1.1598654e-06 1.0942823e-06 9.0052504e-07
00000000: 3bd8 8f35 6e0c ac35 eeca 8935 1f8d 8835
00000010: acac 9b35 41df 9235 9cbb 7135

exp_avg f4 [128, 21]
7.99954e-07 -2.4392773e-06 -3.6087727e-05 -3.4625456e-05 -7.0857886e-06 1.4512717e-05 -6.2250638e-06 -8.7589075e-07
8.980811e-07 7.154475e-08 -1.3743733e-07 5.433134e-07 -2.2169077e-06 -3.588352e-05 9.123713e-06 -1.7927949e-05
-5.812461e-06 -3.230127e-05 -2.5664042e-07 2.2236824e-07 2.0419624e-07 -1.6229347e-09 -8.6105585e-09 -5.1861136e-08
-6.490155e-08 -9.404015e-09 -4.482044e-08 2.9285513e-08 -2.3611815e-09 2.0487918e-09 -1.8660977e-10 2.902903e-09
-1.813834e-10 -8.968778e-09 -4.8611582e-08 -1.2697992e-08 2.6716448e-08 -5.2184577e-09 -7.464854e-08 1.4415517e-09
-3.582198e-10 3.2495662e-09 -2.2872086e-06 -1.7980517e-05 -0.00018703035 -7.032666e-05 0.00011566914 0.00023810923
-0.00011941125 -6.1706845e-07 3.07581e-06 4.2423707e-07 -6.3736366e-06 -9.606108e-06 -1.5177069e-05 -0.00020126255
0.00011510425 -0.00026722468 5.4158907e-05 -1.6361377e-05 -7.3188885e-06 2.8034506e-06 -1.4232261e-05 -3.6999227e-05
-0.0001287054 -0.0011438534 -0.0011194518 4.5789948e-05 0.00010653356 9.686268e-05 -3.0561532e-05 3.463114e-05
2.353787e-06 4.1271096e-06 -4.177322e-05 -0.00011666794 -0.0011305603 4.6174315e-05 -0.0001774762 6.2676394e-05
-0.0011682991 -4.7739886e-06 1.2037443e-05 1.3293078e-05 2.7218894e-05 8.927379e-05 0.0018368204 0.0013280372
-0.00030031594 -0.001384789 0.00071128906 2.1695918e-05 -3.208739e-05 -1.3273321e-06 2.133772e-05 2.903642e-05
0.00010099469 0.0018835563 -0.000607431 0.0014896321 -0.0003205184 0.0010764904 1.8175081e-06 1.1720873e-05
4.673559e-05 0.00016475785 0.00031183477 0.004133088 0.0036343634 -0.00024598083 -0.0017590395 0.00071103615
8.149735e-05 -9.04176e-05 -7.706194e-07 6.6991915e-06 0.00017038306 0.00031422687 0.004128325 -0.0007374899
0.0021067737 -0.00036225838 0.003480004 5.625124e-06 2.3922562e-06 -4.762002e-06 0.0001716424 0.000417334
0.0049205804 0.0041460274 -0.00064898265 -0.0021236432 0.0006976432 9.6862015e-05 -0.00011027513 -5.5409723e-06
1.2001456e-05 0.0002056108 0.00040399274 0.0049408907 -0.0009412395 0.0026094962 -0.00066952803 0.0037717952
3.3968387e-05 -1.3341238e-05 2.0311087e-05 2.4069757e-07 -7.038279e-06 -4.5674795e-05 -4.5981316e-05 -3.480001e-06
-9.659761e-06 1.1461097e-05 -1.7505967e-06 1.8506553e-06 4.7542164e-07 -2.414048e-07 1.13307e-07 -6.411865e-06
-4.4697874e-05 4.6830773e-06 -4.605538e-07 -1.7015942e-06 -4.7027348e-05 -1.273907e-07 6.264153e-07 9.768827e-07
9.213086e-05 0.00040070564 0.0057193367 0.004631021 -0.00037047712 -0.0030436611 0.0011599694 0.00010647406
-0.00012569278 1.2757624e-06 2.2600554e-05 0.0001231107 0.00039828717 0.005738105 -0.0012008344 0.0034729666
-0.0005082251 0.0042254617 3.097974e-05 -2.4185154e-06 1.8773777e-05 7.175136e-05 1.3413322e-05 0.001035216
0.00049185276 -0.0004007318 -0.0008936695 0.0006354411 1.4224003e-06 -1.1473198e-05 -1.6020733e-06 1.4335639e-06
6.2856736e-05 4.5307865e-05 0.0010799781 -0.00040641488 0.0011634007 -0.000566444 0.00016964994 -8.894592e-06
3.1894524e-05 4.476232e-05 7.845614e-05 0.000117496784 0.00086006493 0.0007824538 -0.00018667657 0.00014222435
-0.0002215905 2.5398636e-05 -3.0848987e-05 4.915231e-06 -1.7681301e-05 7.2102834e-05 0.00012675872 0.0008347051
0.00020468143 6.38067e-05 -0.0002739117 0.0008378891 -6.353336e-06 9.261974e-06 -2.535924e-05 3.715583e-05
3.4156544e-06 0.0013595251 0.0008726658 -0.00030396515 -0.0010839279 0.00043908283 1.2686732e-05 -1.0947626e-05
-3.1356963e-06 -5.258961e-06 5.189314e-05 1.2295743e-05 0.0013844535 -0.0002888538 0.0011639077 -0.000403237
0.0007078161 1.4737264e-05 8.880175e-06 2.4928642e-05 0.00021017641 0.0006672735 0.008717724 0.0074281227
00000000: 6cbc 5635 77b2 23b6 e75c 17b8 cd3a 11b8
00000010: 76c2 edb6 a57b 7337 e4e0 d0b6 c11e 6bb5
00000020: aa13 7135 24a4 9933 7c92 13b4 36d8 1135
00000030: 2fc6 14b6 a381 16b8 0d12 1937 fa63 96b7
00000040: a908 c3b6 397b 07b8 64c8 89b4 1ec4 6e34
00000050: 0941 5b34 f00d dfb0 a3ed 13b2 ecbd 5eb3
00000060: 0160 8bb3 4c8f 21b2 9880 40b3 868f fb32
00000070: 5842 22b1 baca 0c31 fb2d 4daf 697c 4731
00000080: e36e 47af 1a15 1ab2 00c9 50b3 5c26 5ab2
00000090: 177e e532 0a4e b3b1 784e a0b3 1720 c630
000000a0: f4ee c4af f94e 5f31 f27d 19b6 ded4 96b7
000000b0: 941d 44b9 577c 93b8 6693 f238 f6ac 7939
000000c0: 6d6c fab8 9fa4 25b5 036a 4e36 b3c2 e334
000000d0: 1fdd d5b6 eb29 21b7 04a1 7eb7 010a 53b9
000000e0: 2064 f138 4a1a 8cb9 af28 6338 ca3f 89b7
000000f0: c694 f5b6 ea22 3c36 18c7 6eb7 9e2f 1bb8
00000100: 18f5 06b9 5aed 95ba 92ba 92ba 950e 4038
00000110: c56a df38 c122 cb38 322f 00b8 e740 1138
00000120: c1f5 1d36 9a7b 8a36 a735 2fb8 a0ab f4b8
00000130: 4f2f 94ba 4bab 4138 e818 3ab9 2271 8338
00000140: 9d21 99ba 4030 a0b6 6df4 4937 5605 5f37
00000150: 2154 e437 8038 bb38 77c1 f03a 8911 ae3a
00000160: b973 9db9 cf81 b5ba cd75 3a3a a1ff b537
00000170: 9395 06b8 c926 b2b5 68fe b237 3d93 f337
00000180: 1ccd d338 a9e1 f63a 013c 1fba c23f c33a
00000190: 400b a8b9 0619 8d3a 1af1 f335 c4a4 4437
000001a0: f505 4438 d9c2 2c39 c17d a339 db6e 873b
000001b0: 802e 6e3b fdf6 80b9 928f e6ba d464 3a3a
000001c0: 8ee9 aa38 949e bdb8 90dc 4eb5 9ec9 e036
000001d0: dba8 3239 d1be a439 e646 873b 1c54 41ba
000001e0: cc11 0a3b 7fed bdb9 c710 643b 72bf bc36
000001f0: a68a 2036 49c9 9fb6 e8fa 3339 9fcd da39
00000200: d23c a13b 66db 873b 7d20 2aba d22c 0bbb
00000210: 0be2 363a 6622 cb38 8243 e7b8 97ec b9b6
00000220: dc59 4937 3b99 5739 fdce d339 32e7 a13b
00000230: 83bd 76ba 1504 2b3b 4483 2fba 3930 773b
00000240: 4779 0e38 2ed4 5fb7 ba61 aa37 3939 8134
00000250: 5b2a ecb6 f092 3fb8 10dc 40b8 f689 69b6
00000260: 5c10 22b7 0949 4037 0bf6 eab5 0864 f835
00000270: 743d ff34 6c9a 81b4 2f53 f333 8025 d7b6
00000280: fa79 3bb8 5423 9d36 0842 f7b4 5562 e4b5
00000290: 3b3f 45b8 e4c8 08b4 ee26 2835 6f1d 8335
000002a0: 6136 c138 cd15 d239 4669 bb3b d2bf 973b
000002b0: 993c c2b9 2978 47bb 1d0a 983a d34a df38
000002c0: 66cc 03b9 dd3a ab35 5296 bd37 4717 0139
000002d0: 33d1 d039 b706 bc3b 5165 9dba b69a 633b
000002e0: 693a 05ba be75 8a3b 3ef0 0138 c74d 22b6
000002f0: 617c 9d37 3879 9638 c809 6137 16b0 873a
00000300: aeef 003a 5019 d2b9 2545 6aba bb93 263a
00000310: 4de9 be35 037d 40b7 d206 d7b5 e168 c035
00000320: f4d1 8338 f308 3e38 0d8e 8d3a 1514 d5b9
00000330: 407d 983a 6a7d 14ba 0fe4 3139 fb39 15b7
00000340: 7cc6 0538 2dbf 3b38 d288 a438 9b68 f638
00000350: fb75 613a 961d 4d3a 9cbe 43b9 0f22 1539
00000360: bf5a 68b9 280f d537 d963 01b8 83ed a436
00000370: 4e52 94b7 ea35 9738 89ea 0439 1cd0 5a3a
00000380: c19f 5639 f6cf 8538 ce9b 8fb9 c9a5 5b3a
00000390: be2e d5b6 e063 1b37 8eba d4b7 c5d7 1b38
000003a0: 7f38 6536 1832 b23a 9cc3 643a 835d 9fb9
000003b0: 9612 8eba b334 e639 19d9 5437 b2ab 37b7
000003c0: da6e 52b6 2276 b0b6 d6a7 5938 d049 4e37
000003d0: 8d76 b53a 4d71 97b9 438e 983a 8e69 d3b9
000003e0: bc8c 393a 1140 7737 10fc 1437 da1d d137
000003f0: cd62 5c39 f7eb 2e3a c9d4 0e3c 9c67 f33b

exp_avg_sq f4 [128, 21]
1.3141538e-09 1.3137695e-09 1.6170976e-07 1.03202126e-07 1.1514301e-08 5.0079855e-08 4.6785855e-09 5.915557e-11
8.082694e-11 1.1976096e-12 1.235188e-12 1.3592517e-09 1.486553e-09 1.632246e-07 2.199343e-09 7.427764e-08
1.3730482e-08 8.0280465e-08 4.717502e-12 9.471578e-12 1.2826451e-11 1.9842346e-16 4.979318e-15 3.495852e-13
3.5570833e-13 3.7134683e-15 2.1770578e-14 1.6573118e-14 3.7406373e-16 4.2966207e-16 1.1534938e-16 1.0414097e-16
1.5323722e-16 5.622687e-15 3.4092008e-13 7.604689e-15 1.8552071e-14 2.2150037e-15 3.678277e-13 5.63174e-17
7.112224e-17 1.5598202e-16 3.7880014e-08 6.6441e-08 5.901999e-06 4.9986866e-06 7.324831e-07 5.687108e-07
2.4979786e-07 3.519656e-09 4.1896144e-09 6.724846e-10 6.6026656e-10 3.728063e-08 7.711619e-08 5.895043e-06
1.0358051e-06 1.2765393e-06 4.251925e-07 3.779153e-06 9.705807e-10 1.4562984e-09 2.5639915e-09 5.7327753e-08
2.5857148e-07 2.0438138e-05 1.9338766e-05 4.2033003e-07 1.975478e-06 4.890736e-07 1.23294175e-08 1.482267e-08
4.2507597e-09 4.2819637e-09 5.7521632e-08 2.684494e-07 2.0329511e-05 2.073562e-07 2.5300214e-06 4.4881045e-07
1.9066556e-05 3.911634e-09 2.200969e-09 4.1214197e-09 1.8187926e-07 6.1439556e-07 8.1054226e-05 6.2076375e-05
2.1212402e-06 1.4722777e-05 4.091608e-06 3.9890487e-08 4.944863e-08 8.620491e-09 8.402796e-09 1.9802296e-07
6.8072154e-07 8.109518e-05 3.3008796e-06 1.9766387e-05 2.3776875e-06 5.7842153e-05 1.3294355e-08 8.60762e-09
1.6657692e-08 1.6634555e-06 2.3364923e-06 0.00032249468 0.00021734975 1.5011307e-05 8.617277e-05 1.0654294e-05
1.18040745e-07 1.5604545e-07 3.3701941e-09 2.9588558e-09 1.7415448e-06 2.5904365e-06 0.0003250537 7.532762e-06
0.000121313285 1.7615836e-05 0.00018191965 1.7334177e-08 1.8741654e-08 2.965758e-08 2.868685e-06 3.1021937e-06
0.00044261472 0.0003158057 2.324221e-05 0.00010439191 1.3651712e-05 1.7141417e-07 2.2009333e-07 5.7854055e-09
6.143427e-09 2.9565947e-06 3.5297592e-06 0.000445794 9.146295e-06 0.00015459835 2.7491284e-05 0.0002699588
2.2790815e-08 3.5248405e-08 5.108678e-08 9.441772e-11 3.5774557e-09 2.2006053e-07 2.307361e-07 1.2910879e-09
7.4005646e-09 7.452768e-09 2.689207e-10 2.8852282e-10 1.1384828e-10 8.901389e-11 4.3778058e-11 4.1094204e-09
2.1039854e-07 2.1333355e-08 4.1180118e-10 2.708271e-10 2.2263542e-07 5.6270776e-11 7.691071e-11 2.1531928e-10
5.4956427e-06 6.28686e-06 0.0009003285 0.00058749615 4.6924473e-05 0.000263192 2.860585e-05 3.311711e-07
4.3269958e-07 9.964296e-09 9.860479e-09 5.7979587e-06 7.010011e-06 0.00090695365 1.7807704e-05 0.00036496003
5.5812154e-05 0.0004937175 4.2921197e-08 5.368015e-08 8.323318e-08 1.6180022e-06 1.7452052e-06 0.00019040487
0.00014284953 1.2493581e-05 3.7697697e-05 9.004242e-06 8.142586e-08 1.1228401e-07 1.11497815e-08 1.0975297e-08
1.5774066e-06 2.0446196e-06 0.00019238425 4.259088e-06 7.053858e-05 1.6439833e-05 0.00011141433 1.32230245e-08
2.2238863e-08 2.2963079e-08 1.2129095e-06 1.5697376e-06 0.00014071577 0.000115962954 9.583795e-06 2.2494492e-05
5.6289487e-06 7.252971e-08 9.409255e-08 1.5117253e-08 1.8980005e-08 1.1877285e-06 1.7776574e-06 0.00014113745
2.0853925e-06 4.1374074e-05 1.2048792e-05 0.0001000314 1.3803273e-08 2.3821318e-08 3.5203623e-08 5.434641e-07
1.1003989e-06 0.00011620192 8.465842e-05 4.705656e-06 2.6928601e-05 3.159655e-06 5.553426e-08 6.947875e-08
9.869248e-09 1.2004811e-08 5.844668e-07 1.1669675e-06 0.000116270814 1.6710391e-06 3.4679495e-05 5.305883e-06
7.7822086e-05 1.0746955e-08 6.271723e-09 1.2508796e-08 6.7543147e-06 7.3782176e-06 0.0010944264 0.000757765
00000000: ad9d b430 2890 b430 71a2 2d34 f89f dd33
00000010: 6ed0 4532 6217 5733 46c1 a031 a015 822e
00000020: 86bd b12e 6f8c a82b 56d6 ad2b 6bd0 ba30
00000030: 6f4f cc30 d642 2f34 4023 1731 9082 9f33
00000040: 4ce3 6b32 a766 ac33 7bfb a52c 32a0 262d
00000050: 33a5 612d 45c4 6425 1a66 b327 89cc c42a
00000060: f93e c82a b3ca 8527 8917 c428 0247 9528
00000070: 10a2 d725 eeae f725 21fd 0425 fa21 f024
00000080: a5ab 3025 2294 ca27 c3eb bf2a 70fe 0828
00000090: 2a1a a728 9b9b 1f27 8f11 cf2a eddb 8124
000000a0: 29ff a324 c4d5 3325 84b1 2233 53ae 8e33
000000b0: c909 c636 64ba a736 db9f 4435 82a9 1835
000000c0: f51b 8634 71de 7131 3df4 8f31 e6d9 3830
000000d0: 217e 3530 7c1e 2033 139b a533 09ce c536
000000e0: fe05 8b35 8e55 ab35 0346 e434 5b9d 7d36
000000f0: 4665 8530 f226 c830 3732 3031 8838 7633
00000100: cbd1 8a34 9172 ab37 af39 a237 b8a9 e134
00000110: 7492 0436 e248 0335 5ad1 5332 cba6 7e32
00000120: 140e 9231 8d20 9331 b40d 7733 681f 9034
00000130: 4b89 aa37 a3a5 5e34 70c9 2936 0af4 f034
00000140: 1ef1 9f37 1967 8631 db3f 1731 649c 8d31
00000150: 974a 4334 f1ec 2435 a8fb a938 002f 8238
00000160: a15a 0e36 d901 7737 a54a 8936 0e54 2b33
00000170: 5861 5433 5219 1432 e35b 1032 23a0 5434
00000180: d4ba 3635 a511 aa38 ae84 5d36 fecf a537
00000190: 5c90 1f36 8a9b 7238 3165 6432 b7e0 1332
000001a0: a716 8f32 e543 df35 a2cc 1c36 8114 a939
000001b0: 61e8 6339 13d9 7b37 a7b7 b438 d8bf 3237
000001c0: 967d fd33 728d 2734 1599 6731 be54 4b31
000001d0: 06bf e935 5cd7 2d36 f86b aa39 efc1 fc36
000001e0: 9369 fe38 b8c5 9337 afc1 3e39 42e6 9432
000001f0: 55fd a032 b5c1 fe32 a283 4036 482f 5036
00000200: be0e e839 b992 a539 44f8 c237 fbec da38
00000210: a809 6537 f80d 3834 cb52 6c34 f7c8 c631
00000220: 2816 d331 e969 4636 cde0 6c36 75b9 e939
00000230: 0a73 1937 ae1b 2239 159d e637 4289 8d39
00000240: 88c5 c332 0864 1733 826a 5b33 73a0 cf2e
00000250: 44d7 7531 c749 6c34 42c0 7734 1e72 b130
00000260: 0e48 fe31 9f09 0032 39d7 932f fa9d 9e2f
00000270: e25a fa2e 5dbe c32e b689 402e d832 8d31
00000280: e9e9 6134 8b40 b732 dd63 e22f 87e3 942f
00000290: 8f0d 6f34 437b 772e e120 a92e fdbe 6c2f
000002a0: 3667 b836 b7f3 d236 0604 6c3a 3302 1a3a
000002b0: c5d0 4438 08fd 8939 98f6 ef37 cfcb b134
000002c0: c74d e834 702f 2b32 d866 2932 168c c236
000002d0: 8937 eb36 a1c0 6d3a c161 9537 1b58 bf39
000002e0: d817 6a38 d26c 013a 5b58 3833 f38d 6633
000002f0: edbd b233 222a d935 cb3c ea35 6ba7 4739
00000300: e1c9 1539 869b 5137 981d 1e38 ed10 1737
00000310: 57dc ae33 ca20 f133 428d 3f32 de8d 3c32
00000320: 47b7 d335 4c36 0936 c1ba 4939 4ae9 8e36
00000330: 1dee 9338 46e8 8937 1da7 e938 7a2b 6332
00000340: c707 bf32 5840 c532 41cb a235 c6af d235
00000350: 1a8d 1339 2331 f338 16ca 2037 8eb2 bc37
00000360: 4de0 bc36 a1c1 9b33 ed0f ca33 31db 8132
00000370: 7909 a332 0a6a 9f35 d897 ee35 4cfe 1339
00000380: c5f2 0b36 1389 2d38 2b25 4a37 f3c7 d138
00000390: 7023 6d32 a29f cc32 cb32 1733 92e2 1135
000003a0: 6bb1 9335 6eb1 f338 a58a b138 47e5 9d36
000003b0: bbe4 e137 760a 5436 9184 6e33 5934 9533
000003c0: 698d 2932 b83d 4e32 41e4 1c35 b3a0 9c35
000003d0: 6bd6 f338 7748 e035 d374 1138 3009 b236
000003e0: 6a34 a338 9ca1 3832 a97e d731 44e6 5632
000003f0: 1fa3 e236 6892 f736 db72 8f3a c0a4 463a

exp_avg f4 [128]
-3.7140744e-05 -5.777595e-08 -0.00017795588 -0.0011849412 0.0017620452 0.004200033 0.0049569956 -4.847908e-05
0.005666654 0.00094184524 0.0009037813 0.001276968 0.0087122945 -0.00937049 0.0049274163 0.0012804591
0.0011592841 -0.0030874088 -0.00019089681 0.0061076004 0.0017418596 0.00012444807 0.0011941534 0.008602432
-3.3610657e-05 -0.0026453144 0.0016861181 -0.0030222286 0.0025912249 0.0032042062 -0.0044495002 0.0023837558
0.01193795 -0.0012940592 -0.0025536402 0.0020286583 -5.804224e-05 -0.010009774 0.00048907864 0.006039904
-0.0022956254 -0.0016396218 0.0056751403 0.0022408778 0.00064070686 -0.0050692884 0.00045710403 -0.0038960667
0.00078155904 -0.004726607 -2.8842966e-05 -0.0002545614 -0.00025477985 -0.0008553577 -0.0017241972 -0.0066034338
0.00033383188 0.0016084857 -0.0025783405 0.0004215702 0.0038989615 3.3077016e-05 -0.0023633817 -0.001064543
-0.0077061746 -6.380636e-05 -0.008632353 0.0023812898 -0.0016005749 -0.001092446 -0.0020949815 0.003564016
-0.0038989123 -0.006513086 -0.002022373 -0.00024128356 0.0003898821 0.0015635265 0.0013734023 -0.0019410813
0.008227013 0.0042156936 0.006488267 -0.0009227393 -0.0042790105 0.0059287557 -2.4642728e-07 -0.00034398524
-0.001491547 -0.001413354 0.00024191983 -0.0007069013 0.010332653 -0.0008232568 0.0011583562 -6.0184713e-05
-7.730852e-05 0.0050754473 -0.0020038036 -0.0002818789 0.0051071807 0.003680777 0.00017923172 4.653628e-06
-0.010097869 -0.00059428136 -0.004234592 -9.9311845e-05 -0.0016187051 0.004043575 -0.0010042315 0.0052731386
-0.000591973 -0.00022168754 0.002631577 -0.0005755722 0.001852237 -0.00011743332 -0.0015544136 -0.006088866
-0.00025755522 -0.001993941 -0.0002516952 0.006081112 -8.8441075e-06 0.001981656 -0.0060092886 -0.0023920063
00000000: 92c7 1bb8 5425 78b3 ab99 3ab9 0750 9bba
00000010: 6df4 e63a 6ea0 893b 4b6e a23b 0456 4bb8
00000020: 57af b93b 2ae6 763a bdeb 6c3a f05f a73a
00000030: 03be 0e3c af86 19bc 2a76 a13b 14d5 a73a
00000040: 1ff3 973a 2056 4abb 792b 48b9 4422 c83b
00000050: 1c4f e43a 467e 0239 2485 9c3a 37f1 0c3c
00000060: 2bf9 0cb8 035d 2dbb bc00 dd3a 9510 46bb
00000070: 8ad1 293b a9fd 513b 1dcd 91bb c938 1c3b
00000080: 6497 433c 6c9d a9ba f95a 27bb 3df3 043b
00000090: 6172 73b8 0900 24bc 8335 003a 63ea c53b
000000a0: 3472 16bb 94e8 d6ba 87f6 b93b b1db 123b
000000b0: 1cf5 273a 461c a6bb 77a7 ef39 2755 7fbb
000000c0: 8ae1 4c3a a7e1 9abb ccf3 f1b7 a776 85b9
000000d0: f993 85b9 153a 60ba 75fe e1ba 9e61 d8bb
000000e0: 2806 af39 d3d3 d23a 60f9 28bb 3206 dd39
000000f0: b885 7f3b 2dbc 0a38 f7e2 1abb 2388 8bba
00000100: 1484 fcbb c7cf 85b8 b66e 0dbc 6a0f 1c3b
00000110: 62ca d1ba 6830 8fba f54b 09bb 4492 693b
00000120: e584 7fbb ba6b d5bb ca89 04bb 1001 7db9
00000130: 1769 cc39 3eef cc3a bc03 b43a e16b feba
00000140: 98ca 063c cd23 8a3b 879b d43b fce3 71ba
00000150: f136 8cbb 0246 c23b b54c 84b4 eb58 b4b9
00000160: 0380 c3ba 4a40 b9ba dcab 7d39 584f 39ba
00000170: 4a4a 293c d4cf 57ba fcd3 973a d86e 7cb8
00000180: b220 a2b8 f04f a63b 3f52 03bb 25c9 93b9
00000190: 235a a73b 3139 713b 26f0 3b39 5c26 9c36
000001a0: 8871 25bc 8cc9 1bba 55c2 8abb a445 d0b8
000001b0: bb2a d4ba f77f 843b 6ba0 83ba 4bca ac3b
000001c0: a32e 1bba cc74 68b9 8976 2c3b ffe1 16ba
000001d0: c3c6 f23a 8946 f6b8 77bd cbba 1c85 c7bb
000001e0: 7a08 87b9 c7ac 02bb f5f5 83b9 1144 c73b
000001f0: 2761 14b7 acde 013b 91e9 c4bb 35c3 1cbb

exp_avg_sq f4 [128]
1.652752e-07 3.9491912e-13 6.5372783e-06 2.2296974e-05 8.132029e-05 0.0003236447 0.000449146 2.4769346e-07
0.00089967414 0.0002014611 0.00015197498 0.00011965016 0.0011028618 0.0016979192 0.00031458467 4.8652342e-05
0.00034405265 9.089293e-05 4.4423774e-05 0.0014764207 5.7300695e-05 2.0637523e-07 0.00013861997 0.0020324013
1.1417468e-07 0.000111829344 0.0001819293 0.00054087635 0.00015249816 0.00011409814 0.0014941208 0.00047294723
0.0019635467 6.687553e-05 5.612452e-05 0.0003315496 5.7277844e-06 0.0018559063 0.00033614849 0.00060696126
0.00013123952 0.00032937725 0.0005136538 0.00016434072 0.0004951497 0.001041075 3.4650904e-05 0.00018871676
0.0001339624 0.00048379853 4.3556466e-07 4.1060857e-06 0.00018659116 6.003836e-05 2.7608497e-05 0.00066239666
1.6086633e-05 5.9508395e-05 0.0003068925 8.141039e-06 0.00049837696 5.6917866e-08 0.00037104712 2.5381329e-05
0.00076778105 2.3069124e-06 0.0012284839 0.00016842257 0.000100463425 0.000111112786 7.3164076e-05 0.00066209637
0.00037265042 0.0005002043 0.00033539772 5.4002838e-05 1.7908187e-05 0.000102588136 9.548442e-05 6.799408e-05
0.0016744846 0.00088672625 0.00058654475 0.00031310067 0.00019825515 0.0004361553 1.5445764e-11 1.7315198e-05
7.663222e-05 9.7363445e-05 9.127375e-05 4.3202017e-05 0.0022425333 2.6917225e-05 9.954016e-05 0.00015473602
2.8225382e-05 0.0005188958 0.00054261176 1.8311806e-06 0.0005703148 0.00022834781 6.113883e-06 1.839587e-05
0.0018554074 2.7476704e-05 0.00024092573 0.00013293677 0.00023630731 0.0004270543 0.0001270612 0.00074300263
6.7056853e-06 3.1240037e-05 0.00069922674 6.5790686e-05 0.00011484323 2.7330088e-05 0.00048446094 0.0009711536
0.00020532345 0.00023782522 8.841493e-05 0.00070522516 4.696279e-07 0.0002597337 0.0004911281 0.00038555718
00000000: 8076 3134 d851 de2a cb5a db36 630a bb37
00000010: 808a aa38 dbae a939 5b7b eb39 bbfa 8434
00000020: 1cd8 6b3a 4d3f 5339 795b 1f39 b1ec fa38
00000030: e78d 903a b78c de3a d7ee a439 0e10 4c38
00000040: f761 b439 c59d be38 aa53 3a38 7584 c13a
00000050: 2756 7038 fe97 5d34 845a 1139 0932 053b
00000060: 3230 f533 ec85 ea38 46c4 3e39 99c9 0d3a
00000070: eae7 1f39 f947 ef38 60d6 c33a e7f5 f739
00000080: d9ae 003b 873f 8c38 3f67 6b38 d6d3 ad39
00000090: 4b31 c036 e241 f33a 163d b039 7b1c 1f3a
000000a0: 579d 0939 44b0 ac39 b9a6 063a e052 2c39
000000b0: efcc 013a ae74 883a 2056 1138 45e2 4539
000000c0: 4278 0c39 57a6 fd39 8dd7 e934 02c7 8936
000000d0: afa7 4339 b3d1 7b38 cc98 e737 b0a4 2d3a
000000e0: c8f1 8637 a798 7938 6ae6 a039 7f95 0837
000000f0: 83a5 023a db75 7433 1a89 c239 fde9 d437
00000100: ea44 493a 74d0 1a36 1405 a13a 979a 3039
00000110: e4af d238 3905 e938 aa6f 9938 8990 2d3a
00000120: 4b60 c339 2420 033a 52d8 af39 1b81 6238
00000130: 8a39 9637 9624 d738 cf3e c838 0b98 8e38
00000140: 617a db3a 3173 683a 5ac2 193a a927 a439
00000150: b6e2 4f39 c6ab e439 c5dc 872d 1b40 9137
00000160: 9cb5 a038 9a2f cc38 396a bf38 d033 3538
00000170: 77f7 123b 4dcc e137 37c0 d038 a240 2239
00000180: 8cc5 ec37 8206 083a 0f3e 0e3a e3c6 f535
00000190: 2e81 153a a670 6f39 db25 cd36 d450 9a37
000001a0: 2431 f33a c67d e637 02a1 7c39 f164 0b39
000001b0: 43c9 7739 42e6 df39 bb3b 0539 10c6 423a
000001c0: 6601 e136 bc07 0338 504c 373a 1bf9 8938
000001d0: fdd7 f038 eb42 e537 3fff fd39 0495 7e3a
000001e0: 184c 5739 b960 7939 676b b938 dcde 383a
000001f0: 2b21 fc34 de2c 8839 0dbf 003a 9c24 ca39
