models/checkpoint_400.pth (torch, 255234 bytes, 24 tensors)

policy_log_std f4 [7]
0	0x3f3eaf74	0.7448647
1	0x3f93bed4	1.1542611
2	0x3f6eb878	0.93250227
3	0x3f42e8fb	0.7613675
4	0x3f71458d	0.9424675
5	0x3f81f77a	1.0153649
6	0xc01d90da	-2.461966

fc1.weight f4 [128, 21]
0	0xbdd14047	-0.10217338
1	0x3f50c7f6	0.81555116
2	0xbe2e0c2b	-0.16996829
3	0xbec63aa8	-0.38716626
4	0xbeaeaa5d	-0.34114352
5	0x3e086dbc	0.1332311
6	0xbf7190d6	-0.9436163
7	0xbeb09b9c	-0.3449372
8	0x3e03d3a5	0.12873705
9	0x3d80edff	0.06295394
10	0x3d3352bc	0.043780074
11	0x3fc62324	1.5479474
12	0xbdb5be67	-0.08874207
13	0xbed73c04	-0.42037976
14	0xbd31cf0c	-0.043410346
15	0x3eb4622c	0.3523115
16	0xbf94e19d	-1.1631352
17	0xbda5bb9a	-0.08092423
18	0x3facc020	1.3496132
19	0xbf895383	-1.0728611
20	0xbf470077	-0.77735084
21	0x3fdba14e	1.7158601
22	0xbe8b82f2	-0.2724834
23	0x3ef3d27c	0.47621524
24	0x3e4b772e	0.19869682
25	0xbee087cd	-0.43853608
26	0xbfbe4923	-1.486607
27	0xbf005fbe	-0.5014609
28	0xbf290e4a	-0.6603743
29	0x3ea85842	0.32879835
30	0xbeb7507a	-0.35803586
31	0x3ed40fcd	0.41418305
32	0x3f825efa	1.0185235
33	0x3e20914f	0.15680431
34	0x3f1519e0	0.5824261
35	0x3e723c84	0.23655897
36	0xbe34a54b	-0.1764118
37	0x3eb8c8ce	0.36090702
38	0x3ea4e9e9	0.3220971
39	0xbf812a3a	-1.0091012
40	0x3f0029a1	0.5006352
41	0xbff9fdd5	-1.9530588
42	0x3ce6c3ce	0.028169539
43	0xbee9cb65	-0.4566299
44	0x3f48fe8e	0.7851342
45	0x3ed5a77b	0.4172934
46	0x3f41f2bf	0.75761026
47	0xbf05bec2	-0.522442
48	0xbe902e48	-0.2816031
49	0x3f365b3f	0.7123298
50	0xbeef4924	-0.4673549
51	0x3d5db34a	0.05412606
52	0x3d398b47	0.04529884
53	0x3f0c8511	0.54890543
54	0x3f2e87e9	0.6817613
55	0x3f692646	0.91074026
56	0x3de09d54	0.10967508
57	0x3c96851d	0.01837402
58	0x3eae6c81	0.34067157
59	0x3f672272	0.90286934
60	0xbe321dbf	-0.1739416
61	0x3ef7e175	0.48414198
62	0x3eb145c2	0.34623533
63	0xbf2c236f	-0.6724157
64	0x3ca233b2	0.01980004
65	0x3e194dad	0.14971037
66	0xbe9d8d54	-0.30771887
67	0xbeb7aa68	-0.35872197
68	0x3e593b1d	0.21213956
69	0xbef12b58	-0.4710338
70	0xbf5a2b8a	-0.85222685
71	0x3f14791f	0.57997316
72	0x3ba57687	0.00504953
73	0x3d0db916	0.03460034
74	0x3facf211	1.3511373
75	0xbefdaab9	-0.49544314
76	0xbea63bef	-0.324676
77	0xbf2a48a4	-0.6651709
78	0x3f76d185	0.9641345
79	0xbeeb8192	-0.45997292
80	0x3cf23b34	0.029569246
81	0x400ede95	2.2323353
82	0xbf4cc234	-0.7998383
83	0xbfd13d77	-1.6346883
84	0x3f08cf7e	0.5344161
85	0xbf7446d1	-0.9542056
86	0x3eeb6869	0.45978096
87	0x3ea938ce	0.3305115
88	0x3ecbe2dd	0.3982152
89	0xbf498fc5	-0.78735
90	0xbf270972	-0.6524879
91	0x3b166cb5	0.0022952978
92	0xbf18e418	-0.59723043
93	0x3f458554	0.7715657
94	0xbf48192d	-0.78163415
95	0x4080d710	4.0262527
96	0x3ef88bdf	0.48544213
97	0x3e7b6d83	0.24553494
98	0x3e002df7	0.12517534
99	0x3ee88ae9	0.4541848
100	0xbf78cbd8	-0.9718604
101	0x3ea98e98	0.33116603
102	0x3fadcc53	1.357798
103	0x3f96b64b	1.1774381
104	0xbfdd3249	-1.7280971
105	0x3f36e162	0.71437657
106	0xbf52a02b	-0.82275647
107	0x3d72a843	0.059242498
108	0x3e80767e	0.25090402
109	0x3dab847e	0.0837488
110	0xc0012bc8	-2.0182972
111	0x3eb82ae0	0.3597021
112	0x3d8f8e5f	0.07009577
113	0x3f919731	1.1374265
114	0x3e585d89	0.21129431
115	0xbe306de0	-0.17229414
116	0xbfb02fa4	-1.3764539
117	0xbebf11ef	-0.3731837
118	0xbd7992b4	-0.060930923
119	0xbee08743	-0.43853197
120	0xbf20f437	-0.6287264
121	0xbf022ba3	-0.50847834
122	0x3d7418ff	0.05959415
123	0xbfbb5cef	-1.4637736
124	0x3f3bf87e	0.73426044
125	0xbf98598f	-1.1902331
126	0x3cdcb6a6	0.026942562
127	0x3f04cee0	0.51878166
128	0xbf0c0930	-0.5470152
129	0x3f09da82	0.5384904
130	0x3e5b2617	0.21401249
131	0x3f72a595	0.9478391
132	0xbe6395f0	-0.22225165
133	0x3eeef8e8	0.46674275
134	0xbeeb5c1b	-0.45968708
135	0xbd8fcfd3	-0.07022061
136	0xbe1c7098	-0.15277326
137	0xbf6405c0	-0.89071274
138	0xbf0f584d	-0.5599411
139	0x3de046f0	0.1095103
140	0x3e2c7435	0.16841204
141	0xbecaee14	-0.39634764
142	0x3e9032a2	0.2816363
143	0xbe65295c	-0.22379059
144	0xbf0b3dd5	-0.54391223
145	0xbfaf0318	-1.3672819
146	0x407fcf15	3.9970143
147	0x3eb1f58e	0.34757656
148	0xbfadbfb9	-1.3574134
149	0x3e113b18	0.14182699
150	0xbde9abde	-0.11409734
151	0xbf68caaa	-0.9093424
152	0xbf8d2a65	-1.1028563
153	0x3f44e711	0.7691508
154	0xbf95fd51	-1.1717931
155	0x3f879dba	1.0595009
156	0x3df29869	0.11845476
157	0xbd657829	-0.056022797
158	0x403acf83	2.9189155
159	0x3f2a221b	0.6645829
160	0x3e32a31c	0.17445034
161	0x3f6d73cc	0.92754817
162	0x3f2f4147	0.6845898
163	0xbd9ef29a	-0.07761116
164	0x3e04e5a1	0.12978221
165	0x3f1f1348	0.62138796
166	0x402213e4	2.532464
167	0xbfabe887	-1.3430337
168	0x3f1ee58b	0.62069005
169	0xbfccfc97	-1.6014584
170	0x3e5db5b1	0.21651341
171	0x3f08a83b	0.533817
172	0xbcf7dae6	-0.030255746
173	0xbe7a9af0	-0.24473166
174	0x3ef91038	0.48645186
175	0x3d5b494a	0.05353669
176	0x3edfa08e	0.4367718
177	0xbed1d81c	-0.4098519
178	0x3f0f6633	0.5601532
179	0xbf67526a	-0.9036013
180	0x3bf86b9c	0.0075811874
181	0x3c9b9077	0.018989785
182	0x3cdb69bc	0.026783817
183	0x3e171775	0.14755042
184	0x3ef2905f	0.4737577
185	0x3e7da1f7	0.24768816
186	0xbf1c4129	-0.61036927
187	0x3fd27879	1.6443015
188	0x3d0541c9	0.03253344
189	0xbf98dd91	-1.1942617
190	0x3ea7b279	0.3275335
191	0x3c8c7266	0.017144393
192	0xbe8a31e6	-0.26991194
193	0xbf66e742	-0.9019662
194	0xbedd2b74	-0.43197215
195	0xbf7bce51	-0.9836169
196	0x3e58cb4b	0.211713
197	0xbe33ffd2	-0.17578056
198	0x3da56365	0.080755986
199	0x3e59cdcd	0.21269913
200	0x407da76c	3.9633436
201	0x3e95090e	0.2910847
202	0x3a63c809	0.00086891704
203	0x3f223fff	0.633789
204	0x3f1a90ce	0.60377204
205	0x3e502366	0.20326003
206	0xbba0985d	-0.0049009756
207	0x4065cd43	3.5906532
208	0x3fb2e002	1.3974612
209	0x40061233	2.0948608
210	0xbf502c19	-0.8131729
211	0x3fd71c77	1.6805562
212	0xbc84f260	-0.016228855
213	0xbe75301b	-0.23944132
214	0xbdc04dbf	-0.09389829
215	0x3f3f8175	0.7480691
216	0xbf8715a7	-1.0553483
217	0x3df1703c	0.11788985
218	0xbf1dab04	-0.61589074
219	0x3d53cce2	0.051709063
220	0xbe730025	-0.23730524
221	0x3c3287d2	0.01089664
222	0x3f56b096	0.838632
223	0xbd88a964	-0.06672934
224	0xbef35574	-0.47526133
225	0xbf3c0bc1	-0.73455435
226	0xbf0892c0	-0.5334892
227	0xbe4a1ad1	-0.19736792
228	0x3f1eacc6	0.6198238
229	0xbf77a932	-0.96742547
230	0xc044c38d	-3.0744355
231	0xbd4781d2	-0.04870779
232	0x3f81ba86	1.0135047
233	0x3e97534c	0.29555738
234	0xbeef27ef	-0.46710154
235	0xbfa225dc	-1.2667804
236	0x3fcaec15	1.5853297
237	0x3f103415	0.5632947
238	0x3e5cc7a9	0.2156054
239	0xbee171df	-0.4403219
240	0xbde38bde	-0.11110662
241	0x3d84b8b9	0.064805456
242	0x409989a7	4.7980533
243	0x3e28f218	0.16498601
244	0x3d29624a	0.0413535
245	0xbd8bb587	-0.06821733
246	0x3f6c3405	0.92266876
247	0x3df883a3	0.12134483
248	0xbd548e0c	-0.05189328
249	0x40110dce	2.2664676
250	0xbed80725	-0.4219295
251	0x407730ee	3.8623614
252	0xbee99689	-0.45622662
253	0x3c3f27c6	0.011667198
254	0xbe00e820	-0.12588549
255	0x3eb3727e	0.35048288

fc1.bias f4 [128]
0	0xbedb642e	-0.4284987
1	0x3ed30a40	0.41218758
2	0x3f3ef80c	0.7459724
3	0x3d294548	0.041325837
4	0x3e82bf36	0.25536507
5	0x3ddb67d7	0.10713165
6	0x3da8d72a	0.08244164
7	0x3d2c0a36	0.042001925
8	0x3e99f587	0.30070135
9	0x3e535f77	0.20641886
10	0xbe5aff4b	-0.21386449
11	0x3e927906	0.2860796
12	0x3e5bf7bf	0.21481226
13	0x3d9bf8d7	0.07615822
14	0xbf0c7801	-0.5487061
15	0xbe034876	-0.1282061
16	0x3ca69cc7	0.02033843
17	0x3e083a53	0.13303499
18	0xbd994031	-0.07482947
19	0x3e16ea86	0.14737901
20	0xbf52e458	-0.82379675
21	0xbde1d269	-0.11026461
22	0xbe9003fa	-0.28128034
23	0xbcb66356	-0.022264164
24	0x3db7f3fb	0.089820825
25	0x3e6de70a	0.23232666
26	0xbe0647a0	-0.1311326
27	0x3e219fc1	0.15783598
28	0x3e96ec05	0.29476944
29	0xbe923b5e	-0.2856092
30	0x3e96b9fa	0.29438764
31	0x3b971cc2	0.0046115825
32	0xbd86a96f	-0.06575286
33	0x3e6dc63c	0.23220152
34	0x3ed0cce6	0.40781325
35	0x3ea62bf1	0.324554
36	0x3e42cfaa	0.1902453
37	0x3d266486	0.04062321
38	0x3d8f4b49	0.069967814
39	0x3d787f01	0.060667995
40	0xbde6bc19	-0.112663455
41	0xbe3dc31f	-0.18531464
42	0xbcf34143	-0.029694205
43	0xbd073cdd	-0.033017028
44	0xbc36e7eb	-0.011163692
45	0x3e1afec3	0.15136246
46	0xbd9d7133	-0.07687607
47	0x3f039154	0.5139363
48	0x3e78cb39	0.24296273
49	0x3dc3b243	0.09555485
50	0x3d198856	0.037483536
51	0x3ed15040	0.40881538
52	0x3d48709e	0.048935525
53	0xbee0f629	-0.43937805
54	0xbdb502ca	-0.088384226
55	0x3e2750e6	0.16339454
56	0xbe201009	-0.15631117
57	0xbdde50bb	-0.10855242
58	0xbdda61e8	-0.106632054
59	0xbf0faf0e	-0.5612649
60	0x3d60c64a	0.054876603
61	0xbe34b010	-0.17645288
62	0x3d8e427a	0.06946273
63	0xbd93d68d	-0.07218657
64	0x3dee9411	0.11649335
65	0xbec997ee	-0.39373726
66	0xbd58f798	-0.0529705
67	0xbec85b78	-0.39132285
68	0xbda997aa	-0.08280881
69	0x3d980b01	0.07423974
70	0xbe302f49	-0.17205538
71	0x3e06a2d8	0.13148057
72	0x3ebd8d02	0.37021643
73	0x3eb67aaa	0.3564046
74	0xbe2a73b5	-0.16645701
75	0x3e65a458	0.22425973
76	0xbc8e8929	-0.017399387
77	0xbebc2226	-0.36744803
78	0x3e4ca479	0.19984616
79	0xbe94cf39	-0.29064348
80	0x3db2e371	0.08734787
81	0xbbcb0e77	-0.0061967927
82	0x3df59770	0.11991775
83	0xbe3f72e5	-0.18696173
84	0x3f33bea8	0.70212793
85	0xbf07fabd	-0.5311697
86	0xbd5318b8	-0.051537246
87	0xbce03d1d	-0.027372891
88	0xbe75581c	-0.23959392
89	0xbcdef10d	-0.027214551
90	0xbe96d801	-0.29461673
91	0x3da70be2	0.08156563
92	0xbd291242	-0.041277178
93	0x3dc0ac4b	0.09407862
94	0xbe1cb427	-0.15303098
95	0x3ea4bae8	0.32173848
96	0xbe5c2c09	-0.21501173
97	0x3db5b89e	0.088731036
98	0x3e21bf5a	0.15795651
99	0xbe8a82a0	-0.27052784
100	0xbe92aecb	-0.2864898
101	0xbf14f78e	-0.5819024
102	0xbe3a4239	-0.18189324
103	0x3e08e0d8	0.13367021
104	0xba816e4c	-0.000987479
105	0xbd852e5a	-0.065029815
106	0x3e71499e	0.23563239
107	0xbd139be6	-0.03603735
108	0x3e5e39b6	0.21701702
109	0xbdcefa75	-0.10106365
110	0xbe728b32	-0.23685911
111	0xbe26e819	-0.16299476
112	0x3e529cef	0.20567678
113	0xbdc677a8	-0.09690791
114	0x3e0d8f0f	0.13824104
115	0xbebee362	-0.37282854
116	0x3e43ef07	0.1913415
117	0xbeca1162	-0.39466387
118	0x3e481733	0.195401
119	0x3dfbafe5	0.122894086
120	0xbe99f513	-0.3006979
121	0x3de50670	0.111828685
122	0x3e5b1c02	0.21397403
123	0x3dd090a6	0.101838395
124	0xbcd11599	-0.025522994
125	0x3d9f6b95	0.077841915
126	0x3e8f7ac0	0.28023338
127	0x3eb560b9	0.35425356

fc2.weight f4 [128, 128]
0	0x3ec6adda	0.38804513
1	0xbe37c3ce	-0.17945787
2	0xbee0912e	-0.43860763
3	0x3ec39451	0.38199094
4	0x3defeb7d	0.11714838
5	0xbead9392	-0.3390165
6	0xbf4a8dca	-0.791226
7	0x3f881947	1.0632714
8	0xbe92f748	-0.28704286
9	0x3f93e951	1.1555578
10	0x3f3cb527	0.73713917
11	0x3e0deb17	0.13859211
12	0xbf5267f6	-0.8218988
13	0x3f543089	0.8288656
14	0x3f2e9203	0.68191546
15	0x3d48c370	0.04901451
16	0x3c20c613	0.00981285
17	0xbe2bfba3	-0.1679521
18	0x3e3972b8	0.18110168
19	0x3f11b858	0.5692191
20	0x3d72415d	0.059144367
21	0x3f875b20	1.0574684
22	0xbe81d6ed	-0.25359288
23	0xc0016dda	-2.0223298
24	0xbee79f5e	-0.45238775
25	0xbd4a0f61	-0.049331073
26	0xbf2eaf57	-0.682363
27	0xbf722ce0	-0.94599724
28	0xbf165431	-0.58722216
29	0x3e55984d	0.2085888
30	0x3ff83ca3	1.9393505
31	0x3f49854d	0.78719026
32	0x3e1c1f0c	0.15246218
33	0x3e2751e6	0.16339836
34	0xbf2cb4f6	-0.67463624
35	0xbdaeae1d	-0.08529303
36	0xbb7eff62	-0.0038909544
37	0x3eb60281	0.35548785
38	0xbf9a9c4e	-1.207895
39	0xbee8ad48	-0.45444703
40	0xbf59cad6	-0.8507513
41	0xbd7afe22	-0.061277516
42	0x3f25598c	0.6458976
43	0x3a765fcd	0.00093984307
44	0x3efbe9ea	0.492019
45	0xbc9f5cf3	-0.019453501
46	0x3fafbb0d	1.3728958
47	0xbf2e5a2b	-0.68106335
48	0xbead9da7	-0.33909342
49	0x3ea20ec8	0.31651902
50	0x3890a0a0	6.896374e-05
51	0xbf170961	-0.58998686
52	0xbf4058bd	-0.75135404
53	0xbfa1217e	-1.2588346
54	0xbdd367a0	-0.10322499
55	0xbf1abd5c	-0.6044519
56	0x3c7dd94f	0.015493705
57	0xbc4d3862	-0.01252565
58	0x3e811d46	0.25217646
59	0xbe968f96	-0.29406422
60	0xbf7912d9	-0.97294384
61	0x3df21312	0.118200436
62	0x3e052ea8	0.13006079
63	0xbe8de419	-0.27713087
64	0x3f39429a	0.7236725
65	0xbf76e58f	-0.9644403
66	0x3f8168a6	1.0110061
67	0xbfbb6ca9	-1.4642535
68	0x3c4d99d1	0.01254888
69	0x3df6df8b	0.12054356
70	0xbc9df3f4	-0.019281365
71	0x3d8cd817	0.06877153
72	0x3ca3c430	0.01999101
73	0xbf27a34d	-0.6548355
74	0x3ff18a6b	1.8870367
75	0xbe83d797	-0.2575042
76	0xbdc30363	-0.0952213
77	0x3eb970ca	0.36218864
78	0xbf19b7c9	-0.6004606
79	0xbd2c94e7	-0.04213419
80	0xbdf8c1c7	-0.12146335
81	0xbe79a9ab	-0.2438113
82	0x3f498ebe	0.7873343
83	0x3f65b6e2	0.8973218
84	0xbf37cc72	-0.71796334
85	0x3f2cbfdd	0.6748026
86	0xbeb1fba4	-0.347623
87	0xbf6308d7	-0.88685364
88	0x3de572a4	0.112035066
89	0xbe8275ba	-0.25480443
90	0x3f34f9ce	0.7069367
91	0xbf77c8f8	-0.9679103
92	0xbded6ae1	-0.11592651
93	0xbeb1dfa5	-0.3474094
94	0x3e5ab2fc	0.2135734
95	0xbe9acb6d	-0.30233327
96	0xbf1c2b7c	-0.6100385
97	0xbf7da3f8	-0.9907832
98	0xbef4299c	-0.47687995
99	0xbe172911	-0.1476176
100	0x3ef6677d	0.4812583
101	0x3e689037	0.22711264
102	0xbe5edf7b	-0.21764939
103	0x3f1127fb	0.5670163
104	0x3eafe88b	0.34357104
105	0x3f639d9d	0.88912374
106	0xbf09fa08	-0.5389714
107	0x3f2db7c3	0.67858523
108	0x3d9bbbae	0.076041564
109	0xbe58f03c	-0.21185392
110	0xbeb39449	-0.3507407
111	0x3e6b82a3	0.22999053
112	0x3d6628da	0.056191303
113	0x3f2412b3	0.6409103
114	0xbf944fd6	-1.1586864
115	0xbe75c270	-0.23999953
116	0x3d53e93f	0.051736113
117	0xbdceecc8	-0.10103756
118	0x3ffcb5d4	1.974299
119	0xbe5df92a	-0.2167708
120	0x3eef2059	0.46704367
121	0x3f8a2539	1.079261
122	0xbebeb436	-0.37246865
123	0xbf1b7bce	-0.60735786
124	0x3f08db3b	0.5345952
125	0x3f064750	0.52452564
126	0xbf24c969	-0.6436983
127	0x3eff860d	0.4990696
128	0xbef1b3c7	-0.47207472
129	0x3fa8ba81	1.3181916
130	0xbf360455	-0.7110036
131	0xbe01d0aa	-0.12677255
132	0x3f1f5d39	0.6225162
133	0xbeb59dda	-0.35471994
134	0xbe9f3bf7	-0.31100437
135	0x3e8a63ea	0.27029353
136	0x3ea5da5c	0.32393157
137	0xbe95e9ef	-0.2928004
138	0xbe721fe2	-0.23644975
139	0x3f091348	0.53545046
140	0x3f1bd7ed	0.6087635
141	0x3ec2edbb	0.38072
142	0x3fb2c670	1.3966808
143	0xbf003ea9	-0.5009561
144	0x3f29b6e6	0.66294706
145	0xbea9ecf3	-0.3318859
146	0xbec9c7a5	-0.3941013
147	0x3f9f1dac	1.243093
148	0xbe3d4d4d	-0.18486519
149	0x3ee4aab9	0.446615
150	0xbf0de3e7	-0.55425876
151	0xbebc66b8	-0.36797118
152	0xbf838911	-1.0276204
153	0xbe8d5961	-0.27607253
154	0xbef41386	-0.47671145
155	0x3d03975a	0.032126762
156	0xbf410e1c	-0.75412154
157	0xbe96eee1	-0.29479125
158	0xbd884094	-0.06652942
159	0xbe07a22a	-0.13245454
160	0x3f839bc1	1.0281907
161	0x38f9afe9	0.00011906011
162	0xbf241dbe	-0.6410788
163	0x3e928794	0.28619063
164	0xbf2849db	-0.65737695
165	0xbe019f6c	-0.12658471
166	0xbe6058cd	-0.21908875
167	0x3dd6eb5f	0.10494112
168	0xbee78c78	-0.45224357
169	0x3ece8070	0.40332365
170	0x3ef98b9d	0.4873933
171	0x3ede7b07	0.43453237
172	0x3f69ad47	0.91280025
173	0xbeff7b20	-0.49898624
174	0x3f554472	0.83307564
175	0xbf95e9cd	-1.1711975
176	0xbe256397	-0.16151272
177	0xbf370304	-0.71488976
178	0x3fbd05c5	1.4767386
179	0xbec03e87	-0.37547705
180	0xbf440f97	-0.7658629
181	0x3eb28154	0.34864295
182	0x3f030720	0.51182747
183	0xbfcd437f	-1.6036223
184	0x3e6f5ca0	0.23375177
185	0xbeb8373c	-0.3597964
186	0xbeab1ecf	-0.33421943
187	0x3e95fd18	0.29294658
188	0xbf949006	-1.1606452
189	0xbe01ca2e	-0.12674782
190	0xbe8db464	-0.2767669
191	0xbefb7510	-0.4911275
192	0x3eb568f0	0.35431623
193	0xbeae1799	-0.3400238
194	0x3e702c1b	0.23454325
195	0xbea453ec	-0.32095277
196	0x3ceef767	0.029170705
197	0x3f3c8433	0.7363922
198	0xbf09a26b	-0.53763455
199	0x3e738c91	0.2378409
200	0xbf0b02b7	-0.5430102
201	0xbf9cdd5d	-1.2255055
202	0xbe530db4	-0.20610696
203	0xbdaf8663	-0.08570554
204	0x3e6e3a92	0.2326453
205	0x3f63d2f1	0.88993746
206	0x3e79933e	0.24372575
207	0xbfce894a	-1.6135647
208	0xb9057ee3	-0.00012731137
209	0xbd3c7f8e	-0.046020083
210	0x3f07dd5f	0.5307216
211	0x3d16fba2	0.03686107
212	0xbf89fb8d	-1.0779892
213	0xbdada9b6	-0.084796354
214	0xbf0ad170	-0.54225826
215	0xbdcce710	-0.10005009
216	0xbddd367b	-0.10801407
217	0xbf83bf32	-1.0292723
218	0x3f1ae7db	0.60510033
219	0xbf983548	-1.189126
220	0x3eb98242	0.3623219
221	0xbf805492	-1.0025809
222	0x3ed455ca	0.41471702
223	0x3ea1765a	0.31535608
224	0xbefd95e1	-0.4952841
225	0xbf81a75f	-1.0129203
226	0x3f069a60	0.5257931
227	0xbf3ff69e	-0.7498568
228	0x3e0e0f20	0.13872957
229	0x3f5b46b8	0.85654783
230	0xbe35e635	-0.17763598
231	0x3e076144	0.13220698
232	0x3ea2376f	0.31682917
233	0x3f33bb28	0.7020745
234	0xbf2163ee	-0.63043106
235	0x3fd5e162	1.6709406
236	0xbebbb1bb	-0.36659035
237	0x3eeb105d	0.45910922
238	0xbf4dde2b	-0.80417126
239	0xbee8a868	-0.45440984
240	0xbea7b74a	-0.32757026
241	0x3f701321	0.9377919
242	0x3e9281c8	0.2861464
243	0x3eb3349e	0.3500108
244	0x3e60a26c	0.21936959
245	0xbeb029f5	-0.3440701
246	0x3f23dda3	0.64010066
247	0xbebb6c1e	-0.36605924
248	0x3e8dc0b2	0.27686077
249	0x3f5d7189	0.86501366
250	0xbd929144	-0.071566135
251	0x3fa11664	1.2584958
252	0x3f7b52a7	0.9817299
253	0x3fadf2e9	1.3589755
254	0xbd3b0a48	-0.0456641
255	0x3ddf27ef	0.108962886

fc2.bias f4 [128]
0	0xbee25220	-0.4420328
1	0x3e383544	0.17989069
2	0x3d7d97ec	0.061912462
3	0xbeeb7df5	-0.45994535
4	0xbdb399a0	-0.08769536
5	0xbe27f9f8	-0.1640395
6	0x3f03907e	0.5139235
7	0xbedf8de1	-0.43662933
8	0xbee4e899	-0.44708708
9	0x3e8cbada	0.27486306
10	0x3ea68dea	0.32530147
11	0x3f2ce675	0.6753915
12	0xbd7e5690	-0.06209427
13	0x3d22a058	0.039703697
14	0x3ef71099	0.4825485
15	0x3c3e8782	0.011628987
16	0x3e1cbc84	0.15306288
17	0x3e5186a3	0.20461516
18	0x3e364ca7	0.17802678
19	0x3e078d37	0.13237463
20	0x3dfb811b	0.12280484
21	0xbddd7b18	-0.10814494
22	0x3de16979	0.110064454
23	0xbf3efe36	-0.74606645
24	0xbd863671	-0.065533526
25	0x3e924d9d	0.2857484
26	0x3df31fbc	0.11871287
27	0xbe82890a	-0.25495178
28	0x3f02e4eb	0.5113055
29	0x3d1e058b	0.038579505
30	0xbea94549	-0.33060673
31	0xbedec1b3	-0.43507156
32	0x3ed0fb89	0.40816906
33	0x3f42b023	0.76050013
34	0x3eac2289	0.33620098
35	0x3ed9d8d6	0.42548245
36	0xbe96be82	-0.2944222
37	0xbe2bc78b	-0.16775338
38	0xbefceb4b	-0.49398264
39	0x3eec9c9e	0.4621324
40	0x3e003902	0.12521747
41	0xbeec3767	-0.4613602
42	0xbeec223c	-0.4611987
43	0x3db85a6d	0.09001622
44	0x3cc4d676	0.024028044
45	0x3e10bcc1	0.14134504
46	0x3e68d83c	0.22738737
47	0xbdda02da	-0.10645075
48	0xbd7ae524	-0.06125368
49	0x3e7a0e3c	0.24419492
50	0xbe121b3b	-0.142682
51	0x3ec7deee	0.3903727
52	0xbeb40580	-0.35160446
53	0xbf1a8a60	-0.60367393
54	0x3de02f9f	0.10946583
55	0xbe8fbede	-0.28075308
56	0xbe9982ff	-0.29982755
57	0xbefd15aa	-0.4943059
58	0xbdca439a	-0.09876175
59	0xbe394f78	-0.18096721
60	0xbddf247a	-0.10895629
61	0x3e5de1b0	0.21668124
62	0xbea58f30	-0.32335806
63	0x3dd0baff	0.10191917
64	0x3f002baf	0.50066656
65	0xbedbb8bd	-0.42914382
66	0x3e1c5915	0.15268357
67	0x3e03a0ca	0.12854305
68	0x3d6a562a	0.05721108
69	0x3ee3d863	0.44501027
70	0x3e8b0a61	0.27156356
71	0x3d80529d	0.06265757
72	0x3edead2d	0.43491498
73	0xbd603f49	-0.054747853
74	0x3d0ed5a4	0.034871712
75	0xbe5a493e	-0.21317002
76	0xbe33b043	-0.17547707
77	0xbd9b6144	-0.07586911
78	0x3e71a0da	0.23596516
79	0xbd221300	-0.0395689
80	0xbe890f6d	-0.2676958
81	0x3f2f2fc0	0.68432236
82	0xbd91237b	-0.070868455
83	0xbec9d795	-0.3942229
84	0xbdb1bf06	-0.08679013
85	0x3df6b348	0.12045914
86	0xba986954	-0.001162807
87	0xbdf3a6cf	-0.118970506
88	0xbe752a39	-0.23941888
89	0xbe10227b	-0.14075653
90	0x3d881fa6	0.066466615
91	0x3e663f4a	0.2248508
92	0xbe008165	-0.1254936
93	0x3ca255c7	0.019816292
94	0xbcedc797	-0.029025836
95	0x3e8b8fc8	0.27258134
96	0x3c1caf80	0.009563327
97	0xbee66cf7	-0.4500501
98	0x3e1b0ff5	0.15142806
99	0xbe4a6f79	-0.19769086
100	0x3e57c732	0.2107208
101	0xbd9ca43c	-0.07648513
102	0x3e0bcde4	0.1365276
103	0xbe08d481	-0.13362314
104	0xbf07b0de	-0.5300425
105	0xbe21557a	-0.15755263
106	0x3eba53a4	0.36391938
107	0x3ed249f7	0.41072056
108	0x3da870dc	0.08224651
109	0x3e8de287	0.2771189
110	0xbebabde5	-0.36473003
111	0x3db469c1	0.088092335
112	0xbeb97d84	-0.36228573
113	0xbcae6bba	-0.021291602
114	0xbef4d7d6	-0.4782092
115	0xbd9e2ece	-0.07723771
116	0xbdf4f746	-0.11961226
117	0x3e6a4c68	0.22880709
118	0xbe957ab0	-0.29195166
119	0x3ee71733	0.45134887
120	0xbd98896a	-0.07448085
121	0xbe74756c	-0.23872918
122	0xbedf240b	-0.43582186
123	0x3e4f5a06	0.20249185
124	0xbf158c3c	-0.58417106
125	0xbea559f7	-0.322952
126	0xbf1c3687	-0.610207
127	0x3dbc1f9f	0.09185719

policy_mean.weight f4 [7, 128]
0	0x3b9129cf	0.004430033
1	0xbd21e1ff	-0.039522167
2	0xbce688d7	-0.028141422
3	0x3da36c09	0.079795904
4	0xbbc54e0a	-0.006021266
5	0x3d82ea1b	0.06392308
6	0xbd9f7b4f	-0.07787191
7	0xbdc32a73	-0.09529581
8	0xbbf89fe5	-0.0075874203
9	0x3d06ebfd	0.0329399
10	0x3cf8cedf	0.030372081
11	0xbd230328	-0.039797932
12	0xbdfbe4e7	-0.12299519
13	0xbd643c54	-0.055721596
14	0x3cbc8438	0.023012266
15	0xbdfc0c83	-0.12307074
16	0x3c7e6af6	0.015528431
17	0xbcd5c070	-0.026092738
18	0x3c391ad1	0.011297897
19	0xbd5ba8b0	-0.05362767
20	0x3d0a518a	0.033769168
21	0x3c439360	0.011936992
22	0xbd3629f9	-0.044473622
23	0x3da0d2d0	0.07852709
24	0x3cf3389f	0.029690085
25	0xbe023062	-0.12713769
26	0xbc41529c	-0.011799481
27	0xbd2ae5bb	-0.041722994
28	0xbd9e52db	-0.07730647
29	0xbbafe241	-0.0053675477
30	0xbd44088b	-0.04785971
31	0x3ce9201f	0.0284577
32	0xbd495750	-0.049155533
33	0xbd2be01a	-0.041961767
34	0xbd1933a3	-0.03740276
35	0x3d796bda	0.06089387
36	0xbd894572	-0.06702699
37	0x3c68d410	0.014210716
38	0xbcb120c1	-0.021622064
39	0xbc44de7c	-0.012015935
40	0x3d141faa	0.03616301
41	0x3d9e47cc	0.07728538
42	0xbcb9b3c0	-0.02266872
43	0x3ca09748	0.019603387
44	0x3b8263c9	0.0039791805
45	0x3dd70344	0.1049867
46	0x3d3bb1ac	0.045823738
47	0x3ca5731d	0.020196492
48	0xbd3594aa	-0.04433123
49	0xbac9a905	-0.0015385455
50	0xbdb5b21b	-0.088718615
51	0xbd5166b0	-0.05112332
52	0x3d7f5e7a	0.06234596
53	0xbd288d80	-0.04115057
54	0x3c47b4ae	0.0121890735
55	0x3d39bb63	0.04534472
56	0xbd767dba	-0.060178496
57	0xbd609ec1	-0.0548389
58	0xbbec3db6	-0.007209505
59	0x3d918c92	0.0710689
60	0xbd55fbae	-0.052241974
61	0xbe645895	-0.22299416
62	0x3d1fc1a9	0.039003048
63	0x3b161413	0.0022900149
64	0xbcfaff50	-0.03063932
65	0x3dd5487a	0.104142144
66	0xbd0b29c0	-0.033975363
67	0xbd1c6b1a	-0.038188078
68	0xbbcac0ed	-0.0061875493
69	0x3d0d27be	0.03446173
70	0xbc31cb3b	-0.010851677
71	0xbcc79756	-0.024364155
72	0xbda98e9d	-0.082791544
73	0xbd189149	-0.03724793
74	0xbd7b6a7a	-0.06138084
75	0x3d5d304e	0.054001145
76	0x3c24bfc7	0.010055489
77	0xbd600084	-0.05468799
78	0xbe1c4c97	-0.15263592
79	0x3c9dee49	0.019278662
80	0x3d0135ba	0.03154538
81	0xbd78a790	-0.060706675
82	0xbb5a0ddd	-0.0033272423
83	0x3dd11926	0.10209875
84	0x3d9fa535	0.077951826
85	0xbd809e35	-0.062801756
86	0x3b4effe4	0.0031585628
87	0xbcee26d6	-0.029071253
88	0x3d87f5bf	0.06638669
89	0xbd922be7	-0.0713728
90	0xbcb7516b	-0.02237769
91	0x3ca90e60	0.020636737
92	0x3d9fb99a	0.077990726
93	0x3d68f9d0	0.056878865
94	0xbe412480	-0.1886158
95	0x3d84683c	0.06465194
96	0xbd92fd9c	-0.071772784
97	0x3dc0ac9c	0.094079226
98	0xbdd1b6d3	-0.10239949
99	0x3dbdde0b	0.09270867
100	0xbcc065b6	-0.023486
101	0xbd66e2bf	-0.056368586
102	0x3d0372a4	0.03209175
103	0xbd91476f	-0.07093703
104	0x3bff2765	0.0077866786
105	0xbab7c94d	-0.0014021784
106	0x3e21f5cf	0.15816425
107	0xbdc6022c	-0.09668383
108	0x3dae16b1	0.08500422
109	0xbd1dca72	-0.038523145
110	0xbc976678	-0.018481478
111	0x3bbb7cc4	0.0057216603
112	0xbd8ee55e	-0.06977342
113	0xbd8a0532	-0.06739272
114	0xbdaa040d	-0.08301554
115	0xbde49204	-0.11160663
116	0x3dd78fb4	0.10525456
117	0x3db8513b	0.089998685
118	0x3ca950bb	0.020668378
119	0x3cb8040e	0.02246287
120	0xbd26972b	-0.04067151
121	0x3cf9690d	0.0304456
122	0x3daaeb4b	0.0834566
123	0x3d7e14e5	0.062031645
124	0x3c96967c	0.018382303
125	0x3d9d1529	0.076700516
126	0xbcbaf08d	-0.022819782
127	0x3c1c0ff4	0.009525288
128	0xbe1fc3d8	-0.15602052
129	0xbe428bff	-0.18998717
130	0x3e230668	0.15920413
131	0x3e31ba8e	0.17356321
132	0x3d726b6a	0.05918447
133	0xbd8840fb	-0.06653019
134	0xbb030a5f	-0.0019995195
135	0xbe8ec664	-0.27885735
136	0x3e326a61	0.17423393
137	0x3da64072	0.08117761
138	0xbdb99bff	-0.09062957
139	0x3cbae0b2	0.022812221
140	0x3e88d02c	0.26721323
141	0x3dc24b42	0.094870105
142	0x3d62d580	0.05537939
143	0x3dcadd19	0.09905452
144	0xbd07b66e	-0.033132963
145	0xbdd27262	-0.10275723
146	0xbc80fcb1	-0.015745493
147	0xbd54e5b5	-0.05197688
148	0x3deb4a9d	0.11488841
149	0xbd881256	-0.06644122
150	0x3d17db68	0.037074476
151	0x3e3115db	0.17293493
152	0xbd67912d	-0.056534935
153	0x3e695b03	0.22788624
154	0xbd2705d7	-0.040777054
155	0x3d8b9aee	0.0681666
156	0x3c6ff999	0.014646911
157	0xbc4710b7	-0.012149981
158	0x3ddb114b	0.10696658
159	0x3d0d3b04	0.03448011
160	0xbdb5499f	-0.08851933
161	0x3bae0e19	0.005311739
162	0x3d4801ba	0.04882977
163	0x3b06d4b6	0.0020573563
164	0xbd7d25cd	-0.061803628
165	0xbe2a86d7	-0.16653
166	0x3d010812	0.031501837
167	0x3d2347b0	0.03986329
168	0x3b9d2cad	0.0047965855
169	0x3c9656a0	0.018351853
170	0x3d83c8c0	0.064347744
171	0x3c6959b7	0.014242581
172	0xbde89308	-0.11356169
173	0x3d1f098a	0.038827457
174	0xbd4ce9b1	-0.050027553
175	0xbbf7d869	-0.00756364
176	0x3d7ed209	0.062212024
177	0x3df549c8	0.11976963
178	0x3e08c6cb	0.13357083
179	0x3d66191a	0.056176282
180	0x3de4c3e9	0.111701794
181	0x3dae46e9	0.08509619
182	0x3d9642b7	0.073369436
183	0xbd2c01d2	-0.041993923
184	0x3dbdd391	0.09268869
185	0xbd997644	-0.074932605
186	0x3e186865	0.14883573
187	0x3cfeba47	0.031094683
188	0xbdc7b83b	-0.09751936
189	0xbd1c8d24	-0.03822054
190	0xbcfb5bba	-0.030683387
191	0xbe179ffb	-0.14807121
192	0x3ccb54cb	0.024820706
193	0x3df637cb	0.120223604
194	0x3e3380c2	0.17529586
195	0xbdb04a04	-0.08607867
196	0xbde5de79	-0.11224074
197	0x3b6f08ac	0.0036473675
198	0xbcf56b1b	-0.029958298
199	0x3d338d42	0.043835886
200	0x3d75535c	0.05989395
201	0xbdd03197	-0.101657085
202	0xbd829c71	-0.06377495
203	0xbd8ac187	-0.06775194
204	0x3c29fdef	0.010375484
205	0xbd1cded2	-0.038298436
206	0x3e0b1096	0.13580546
207	0xbe07fa95	-0.13279183
208	0xbdf416b9	-0.119183965
209	0x3c9ddfd6	0.019271772
210	0x3d483138	0.048875064
211	0x3c39499b	0.011309053
212	0x3c92c9c9	0.017918484
213	0xbe35e045	-0.17761333
214	0x3e5ac49c	0.21364063
215	0x3c5fcfc2	0.013660373
216	0xbd28527a	-0.04109428
217	0xbda8cc8c	-0.08242139
218	0xbd069c15	-0.032863695
219	0xbdaa5dcb	-0.08318671
220	0x3a64b805	0.0008724931
221	0x3db67544	0.089090854
222	0x3e4d7584	0.2006436
223	0xbaa45e02	-0.0012540224
224	0x3e3672cf	0.17817234
225	0xbe69c801	-0.22830202
226	0x3d9227ae	0.071364745
227	0x3d4d4c49	0.05012158
228	0xbdc9ce50	-0.09853804
229	0x3e0e1483	0.13875012
230	0x3d7caf77	0.061690774
231	0x3dc69a29	0.096973725
232	0xbd9b73f2	-0.07590474
233	0xbdada206	-0.08478169
234	0xbd3d5034	-0.046219066
235	0xbc47c351	-0.012192563
236	0xbce91945	-0.028454432
237	0xbdbc1879	-0.09184355
238	0xbb542308	-0.0032369513
239	0x3e079fde	0.13244578
240	0x3beb5b2c	0.0071824994
241	0xbe0f5ed9	-0.14001025
242	0xbd3cf564	-0.04613246
243	0x3e15db5a	0.14634457
244	0xbe09b4b4	-0.13447839
245	0xbde92269	-0.11383516
246	0xbdbd0240	-0.09228945
247	0x3e4a8026	0.19775447
248	0x3d3f84df	0.046757575
249	0x3de997fa	0.1140594
250	0x3dce76c8	0.100812495
251	0x3d0ddef0	0.034636438
252	0xbdcb2e42	-0.09920932
253	0x3e094e48	0.13408768
254	0x3d75e3b5	0.06003161
255	0xbe0961af	-0.1341617

policy_mean.bias f4 [7]
0	0xbdaf9d33	-0.08574905
1	0xbdd432a5	-0.10361222
2	0x3dcc8515	0.09986321
3	0xbbe2bf37	-0.0069197672
4	0xbdde69f2	-0.10860051
5	0xbd97357f	-0.073832504
6	0xbcc5dc74	-0.024152972

value_head.weight f4 [1, 128]
0	0xc11a7efd	-9.656003
1	0x41278367	10.469581
2	0xc12b9989	-10.724984
3	0x4118ebae	9.557539
4	0x4109155a	8.567713
5	0x412f2055	10.945394
6	0x412726a6	10.446936
7	0x4141fafa	12.123774
8	0x41143a82	9.264284
9	0xc107eb51	-8.49495
10	0xc126b2d2	-10.418657
11	0xc10dafc0	-8.855408
12	0x4113648f	9.21205
13	0xc110b4ff	-9.0441885
14	0x410db235	8.856008
15	0x4115af17	9.355247
16	0x410eebb3	8.932544
17	0xc10dd762	-8.865084
18	0xc0bcf7ae	-5.9052343
19	0xc12b4443	-10.704165
20	0x4122626c	10.149029
21	0xc123de64	-10.241795
22	0xc105f4fd	-8.372312
23	0x410c22ba	8.758478
24	0x412755ae	10.458418
25	0x41114405	9.079106
26	0xc11a44ff	-9.641845
27	0x411818bf	9.506042
28	0xc1213217	-10.074729
29	0xc112b841	-9.169984
30	0x41161350	9.379715
31	0x4116bf45	9.421697
32	0x4113bd6a	9.233744
33	0xc113e447	-9.243232
34	0xc110d3ea	-9.051737
35	0x41126986	9.150763
36	0x410de30c	8.867931
37	0x412b17d0	10.693314
38	0xc110ea07	-9.057136
39	0xc107cfb1	-8.488206
40	0x411b0091	9.687638
41	0x41148bdd	9.284146
42	0x4118619e	9.523832
43	0xc0eeb60d	-7.459723
44	0x40fd7ff3	7.921869
45	0xc13be577	-11.743522
46	0xc1297833	-10.5918455
47	0xc113c10c	-9.234631
48	0x4103fea5	8.249669
49	0x4115bb7f	9.358275
50	0x411299d8	9.1625595
51	0xc119b0c2	-9.605654
52	0x4100989e	8.03726
53	0x41097089	8.589974
54	0x41201390	10.004776
55	0x4113eb6e	9.244978
56	0x4116e4ab	9.430827
57	0x4111cbb5	9.112233
58	0x41104e40	9.019104
59	0x411a7a5a	9.654871
60	0xc1195c3f	-9.585021
61	0xc132b041	-11.168031
62	0x412e52c7	10.895209
63	0xc11af15a	-9.683924
64	0x41154b4a	9.330881
65	0x412643b3	10.391528
66	0xc1329c30	-11.163132
67	0xc110ba54	-9.04549
68	0xc0e4d7ba	-7.151334
69	0xc12cc7bc	-10.798763
70	0xc10ae608	-8.68116
71	0xc130e374	-11.055531
72	0x4129a444	10.602604
73	0xc1175c13	-9.459979
74	0xc10c4b34	-8.76836
75	0x411573dd	9.340787
76	0x411df98f	9.873427
77	0x4117f8e7	9.498267
78	0xc103106e	-8.191511
79	0x410ba05e	8.726652
80	0xc10f0fa3	-8.941318
81	0xc104d432	-8.3018055
82	0xc1144652	-9.267168
83	0x40ee7bfe	7.452636
84	0xc112186a	-9.13096
85	0x411d7331	9.840623
86	0xc13ccddd	-11.80026
87	0x40dfcfee	6.994132
88	0xc1198b81	-9.596559
89	0x4108cc68	8.549904
90	0x41286947	10.525702
91	0xc1073067	-8.449317
92	0xc0cbf34b	-6.373449
93	0x4131f58b	11.122447
94	0xc1185693	-9.521136
95	0x4117a1c8	9.476997
96	0x412e2de1	10.886201
97	0x40e4d26b	7.150686
98	0x40fc7f3e	7.8905325
99	0xc1211628	-10.067909
100	0x41311d0d	11.069592
101	0xc11e68dd	-9.900601
102	0xc1361a5a	-11.3814335
103	0x40dc4182	6.8829966
104	0x41247a12	10.279802
105	0x41273572	10.450548
106	0x41229c58	10.16317
107	0xc10ee4cc	-8.930859
108	0xc1157c64	-9.342869
109	0xc11989cc	-9.596142
110	0x4109d151	8.613603
111	0x4113d0c5	9.238469
112	0xc11d0704	-9.814213
113	0x412ef144	10.933903
114	0x41113221	9.0747385
115	0xc111c33a	-9.110163
116	0x41153edd	9.3278475
117	0x4127a9dc	10.47897
118	0xc11d3c52	-9.827227
119	0xc11ed592	-9.927141
120	0xc1190ad8	-9.565147
121	0x411fd353	9.989093
122	0x4112aa79	9.166619
123	0xc116deab	-9.429362
124	0x40fb765b	7.8581977
125	0x4108687a	8.525507
126	0x41046c1b	8.276393
127	0xc1293a98	-10.576805

exp_avg f4 [7]
0	0x393d70c8	0.00018066459
1	0xb9318b7e	-0.00016932
2	0xb961e13e	-0.00021541581
3	0x388bed18	6.672199e-05
4	0xb915e7ab	-0.0001429605
5	0xb9f451f0	-0.00046600355
6	0x3a4fe70e	0.0007930853

exp_avg_sq f4 [7]
0	0x36b05711	5.2553446e-06
1	0x367f56d4	3.8048502e-06
2	0x368abfc6	4.135046e-06
3	0x3691d5f0	4.3462423e-06
4	0x36a4656c	4.899388e-06
5	0x369a83c4	4.604897e-06
6	0x36a0d9c1	4.7937215e-06

exp_avg f4 [128, 21]
0	0x37e759ca	2.7579157e-05
1	0x39349aee	0.00017223854
2	0x3aaf1688	0.0013358155
3	0x3aafa4e3	0.001340058
4	0xb6c3211a	-5.8153064e-06
5	0xb8cd5277	-9.790522e-05
6	0xb93ca1af	-0.00017989309
7	0x37d98ab0	2.5932997e-05
8	0xb7e3996a	-2.7131948e-05
9	0x3783bb26	1.5703565e-05
10	0xb7a70199	-1.9908695e-05
11	0x382285ba	3.8748352e-05
12	0x39228ec2	0.00015502705
13	0x3aaccf97	0.0013184425
14	0xb82e722d	-4.1591167e-05
15	0xb89e9b56	-7.562961e-05
16	0xb94d0cda	-0.00019555111
17	0x3ab18a7b	0.0013545299
18	0x373b634c	1.1169188e-05
19	0xb7906145	-1.7211432e-05
20	0xb791bc42	-1.7373011e-05
21	0xb7b0190a	-2.0992495e-05
22	0xb903b827	-0.00012561736
23	0xba945333	-0.0011316299
24	0xba92a535	-0.0011188152
25	0xb843afa8	-4.6655216e-05
26	0x386f03c7	5.698556e-05
27	0x38e0c2f3	0.000107174645
28	0xb7a71832	-1.9919218e-05
29	0x37ba6d88	2.2223932e-05
30	0xb78dc9ac	-1.690242e-05
31	0x37331940	1.067511e-05
32	0xb7d4be9d	-2.536113e-05
33	0xb90766bf	-0.00012912879
34	0xba92d1c8	-0.0011201436
35	0x390cea95	0.00013438829
36	0x3794ecef	1.7753306e-05
37	0x383adc61	4.45511e-05
38	0xba9175f4	-0.0011097775
39	0xb6929650	-4.3686377e-06
40	0xb66ba5d3	-3.5114251e-06
41	0x3740b637	1.1486517e-05
42	0x3492df59	2.7357126e-07
43	0x35c8e888	1.4968837e-06
44	0x378293cc	1.5566031e-05
45	0x377eeed4	1.5195186e-05
46	0xb45cd676	-2.0567117e-07
47	0xb50e4b55	-5.3008745e-07
48	0xb580fe25	-9.610709e-07
49	0x34c58be0	3.6795882e-07
50	0xb4d96685	-4.0493993e-07
51	0x34992e35	2.853209e-07
52	0xb458ed4e	-2.0202899e-07
53	0x34a0fa00	2.998422e-07
54	0x35c2d696	1.4516579e-06
55	0x3780e213	1.5364063e-05
56	0xb5db5c2f	-1.63436e-06
57	0xb53d46f9	-7.0511265e-07
58	0xb5c21cfe	-1.4462564e-06
59	0x3782ca48	1.5591402e-05
60	0x32e1aa5f	2.6270923e-08
61	0xb3423ded	-4.5225466e-08
62	0xb458dbcf	-2.0196534e-07
63	0x3717c2a5	9.045621e-06
64	0xb99a7505	-0.00029460355
65	0xbae516e8	-0.001747814
66	0xbaef7e61	-0.0018271917
67	0xb9d80caa	-0.00041208166
68	0x39ac42d5	0.0003285619
69	0x3a51d85f	0.0008004959
70	0xb82b78be	-4.0882027e-05
71	0x3831a1c9	4.2350763e-05
72	0xb87b2914	-5.988132e-05
73	0x36d1f45b	6.257132e-06
74	0x3881f41a	6.196667e-05
75	0xb9bdbed5	-0.0003619107
76	0xbae0c15b	-0.0017147468
77	0xb8ae3a18	-8.307787e-05
78	0xb9e3ebf7	-0.00043472621
79	0xb9baba7a	-0.0003561562
80	0xbaed4f8b	-0.0018105371
81	0x385df778	5.292098e-05
82	0xb88d2738	-6.730709e-05
83	0x380ab123	3.3066735e-05
84	0xb724fc01	-9.833836e-06
85	0xb90a7931	-0.00013205853
86	0xba99fb27	-0.0011747823
87	0xba986dde	-0.0011629423
88	0xb853aa11	-5.0464707e-05
89	0x389b2ee5	7.399711e-05
90	0x3896cc1d	7.1905764e-05
91	0xb7b078a6	-2.1037016e-05
92	0x37c282c4	2.3187495e-05
93	0xb79d3493	-1.874034e-05
94	0x375a064d	1.299528e-05
95	0xb79a34fa	-1.83829e-05
96	0xb911b4a5	-0.00013895573
97	0xba986203	-0.001162589
98	0x395f2857	0.00021281965
99	0x38c153fa	9.218599e-05
100	0xb8044e2d	-3.154406e-05
101	0xba90126c	-0.0010991818
102	0xb70f6df3	-8.549064e-06
103	0xb6e76e8e	-6.8972067e-06
104	0x374c923c	1.2193395e-05
105	0xb88f29f8	-6.826589e-05
106	0x37128875	8.7340495e-06
107	0xbae54fdf	-0.0017495117
108	0xbac5e579	-0.0015098295
109	0x3a34f4dc	0.0006902942
110	0xb878dc4e	-5.9332982e-05
111	0xb9948d22	-0.00028333912
112	0xb883e29d	-6.288777e-05
113	0x386f13c8	5.7000463e-05
114	0xb890e934	-6.9098925e-05
115	0x38674922	5.5142802e-05
116	0xb89e6ef2	-7.554692e-05
117	0x3856a2ee	5.1173316e-05
118	0xbadf257d	-0.0017024722
119	0x39bc2b49	0.00035890404
120	0x399e6184	0.00030208763
121	0x3a235ce7	0.00062318
122	0xbace8c97	-0.0015758452
123	0xb6f44fa2	-7.281037e-06
124	0x383200d3	4.2439275e-05
125	0x38454c91	4.7039768e-05
126	0xb8a3237f	-7.779057e-05
127	0xba600583	-0.0008545743
128	0xbbd4178e	-0.0064725345
129	0xbbd65d80	-0.006541908
130	0xb94bbbc8	-0.00019429543
131	0x39c533bf	0.00037613322
132	0x3a2a1b1f	0.0006489027
133	0xb891f7f3	-6.960323e-05
134	0x38aad8e9	8.146634e-05
135	0xb8475916	-4.7528265e-05
136	0x38c4da9c	9.3867275e-05
137	0xb92f0d93	-0.00016694357
138	0xba554b64	-0.0008136539
139	0xbbd1a8b0	-0.006398283
140	0x3a4762e7	0.0007605985
141	0x3a638a3c	0.00086799613
142	0x3999837a	0.00029280392
143	0xbbd65036	-0.0065403236
144	0xb8baf7ae	-8.915305e-05
145	0x382ba1d7	4.0920302e-05
146	0x389bb6ca	7.425023e-05
147	0xb870d288	-5.741653e-05
148	0x36fb7949	7.4945024e-06
149	0x38f7bdc2	0.00011813223
150	0x3968a434	0.00022186415
151	0x3962b499	0.00021620317
152	0x3726982a	9.9297995e-06
153	0xb9add7a3	-0.00033157793
154	0x37902a05	1.7185705e-05
155	0xb74f9a74	-1.2374123e-05
156	0x382b073b	4.077631e-05
157	0xb81254c1	-3.4888046e-05
158	0xb86f82b9	-5.7103785e-05
159	0x389698ce	7.1810195e-05
160	0x38998e40	7.322105e-05
161	0x38b25584	8.50363e-05
162	0xb8cebe5d	-9.8583034e-05
163	0x38cfaa2c	9.902226e-05
164	0x39a29fb4	0.00031018036
165	0x34a7e887	3.127536e-07
166	0x3886e13d	6.431572e-05
167	0xb83c5efd	-4.4911158e-05
168	0xb829ce73	-4.048501e-05
169	0xb9b29f0b	-0.00034069302
170	0xbb322ff7	-0.0027189234
171	0xbb31cfc5	-0.0027131897
172	0x382bfea2	4.1006722e-05
173	0x3968fd67	0.00022219644
174	0x399c1eaf	0.000297775
175	0xb867f273	-5.530049e-05
176	0x387270fc	5.780252e-05
177	0xb82e3def	-4.1542513e-05
178	0x3812af88	3.497259e-05
179	0xb87b05ac	-5.9848346e-05
180	0xb9a88ca0	-0.0003214823
181	0xbb2f61db	-0.0026761207
182	0x398bce02	0.00026665634
183	0x39289cb9	0.00016080112
184	0x39807c27	0.00024506563
185	0xbb30d045	-0.0026979607
186	0xb7a26e6f	-1.936333e-05
187	0x37a126b6	1.9210722e-05
188	0x38338693	4.2802258e-05
189	0xb886a4ae	-6.420292e-05
190	0x3813895a	3.517545e-05
191	0xb99b7230	-0.0002964898
192	0xb90b3fb1	-0.000132798
193	0x396adee6	0.00022399015
194	0xb8cd3d6e	-9.786604e-05
195	0xba192b29	-0.0005842918
196	0x3733844b	1.0700033e-05
197	0xb77a2c00	-1.4911406e-05
198	0x38311f89	4.2229458e-05
199	0xb7d89586	-2.5818834e-05
200	0xb8c3c612	-9.335218e-05
201	0x38cf2335	9.877087e-05
202	0xb9c415e2	-0.00037400337
203	0x39b9cfea	0.00035440858
204	0xb89f7e9c	-7.605294e-05
205	0xb9afb206	-0.0003351124
206	0x38b8d1ec	8.812905e-05
207	0xb7f4857a	-2.9149222e-05
208	0x38855e90	6.359548e-05
209	0xb8a28e51	-7.7512705e-05
210	0x38de083d	0.000105873194
211	0x3a6048fd	0.0008555798
212	0x3b9f0704	0.0048531312
213	0x3b9fac64	0.0048728455
214	0x3964d6ac	0.00021823746
215	0xba58aff7	-0.0008265967
216	0xba8a400a	-0.001054765
217	0x379feb12	1.906374e-05
218	0xb7d3fe96	-2.5271711e-05
219	0x3854f4d6	5.077276e-05
220	0xb7c51221	-2.3492672e-05
221	0x3908d268	0.00013048353
222	0x3a47c3d8	0.00076204306
223	0x3b9eefc1	0.0048503582
224	0xb99585df	-0.00028519236
225	0x38aa3fec	8.118138e-05
226	0x38aceb9f	8.245487e-05
227	0x3b9af120	0.0047284514
228	0x37ce7250	2.4610345e-05
229	0xb8c42931	-9.353681e-05
230	0xb63a1b3e	-2.7732017e-06
231	0xb7fddcdb	-3.0262794e-05
232	0xba28925c	-0.00064305007
233	0xbb50a205	-0.0031834852
234	0xbb58313c	-0.003298833
235	0xb9671893	-0.00022039031
236	0x3a25f194	0.00063302484
237	0x3a149b3f	0.00056688854
238	0x378e0e96	1.6934511e-05
239	0xb6919bbf	-4.339468e-06
240	0x3898d815	7.288173e-05
241	0xb82a0086	-4.0531646e-05
242	0xb896c67c	-7.189528e-05
243	0xba0f6d5a	-0.0005471312
244	0xbb5568e2	-0.0032563736
245	0x395f9702	0.00021323192
246	0xb8e34fed	-0.00010839091
247	0xb9ec32e3	-0.0004505134
248	0xbb43a03c	-0.0029850146
249	0xb82e9e99	-4.163254e-05
250	0x38c92828	9.5919066e-05
251	0xb898dbd4	-7.288871e-05
252	0x380961b4	3.275434e-05
253	0xb9ec349c	-0.00045052625
254	0xbb205a12	-0.0024467749
255	0xbb2b7ca5	-0.0026166823

exp_avg_sq f4 [128, 21]
0	0x3309f611	3.2121594e-08
1	0x3522e8b4	6.068833e-07
2	0x37f03e7f	2.8639332e-05
3	0x37fdaf5b	3.0241607e-05
4	0x35270c45	6.22302e-07
5	0x349f6353	2.9688326e-07
6	0x359112e1	1.0808836e-06
7	0x3289e3ad	1.6052434e-08
8	0x32980842	1.7698884e-08
9	0x3249d22d	1.1747528e-08
10	0x325a032c	1.2689991e-08
11	0x33291480	3.9367023e-08
12	0x35362495	6.785352e-07
13	0x37ec76b6	2.8188671e-05
14	0x36474f38	2.9699422e-06
15	0x3419e7fa	1.4333628e-07
16	0x35664f78	8.579732e-07
17	0x37eba635	2.809158e-05
18	0x32d4eee5	2.4788685e-08
19	0x3212d60c	8.546987e-09
20	0x31df1b7f	6.49328e-09
21	0x31e429c0	6.6404198e-09
22	0x33c566f7	9.1922566e-08
23	0x36a3d9a5	4.8831157e-06
24	0x36ab4d70	5.105212e-06
25	0x343c7e75	1.7554869e-07
26	0x3323153c	3.7970707e-08
27	0x346a1895	2.1801891e-07
28	0x317beba3	3.6659251e-09
29	0x318a95fc	4.03338e-09
30	0x31369f27	2.6574953e-09
31	0x3118f16a	2.225614e-09
32	0x319b2a68	4.5159148e-09
33	0x33eb730f	1.0963969e-07
34	0x36a16d08	4.810867e-06
35	0x351be8f0	5.808097e-07
36	0x33bb6c3a	8.7275524e-08
37	0x33fd8ea7	1.1807179e-07
38	0x369d9cc3	4.697214e-06
39	0x3180b3a0	3.7457113e-09
40	0x312f7ca9	2.5536713e-09
41	0x308d53de	1.0282937e-09
42	0x2c0630c9	1.9069627e-12
43	0x2e00c24c	2.92764e-11
44	0x30e43222	1.6603432e-09
45	0x30e6a27a	1.6780881e-09
46	0x2e70ab7d	5.4721994e-11
47	0x2d8849e3	1.5494222e-11
48	0x2eb1e454	8.089587e-11
49	0x2b9b019d	1.101386e-12
50	0x2babfb71	1.222007e-12
51	0x2b4bb17b	7.236639e-13
52	0x2b40c669	6.848745e-13
53	0x2bf9ba5b	1.7744238e-12
54	0x2e17597a	3.4412896e-11
55	0x30e0eec8	1.6366011e-09
56	0x2f6f8535	2.1784248e-10
57	0x2d9abf86	1.7592827e-11
58	0x2e3d758f	4.3078038e-11
59	0x30d248a3	1.5300156e-09
60	0x2b9986a7	1.0908677e-12
61	0x2b464c61	7.044973e-13
62	0x2ac6edc6	3.5336854e-13
63	0x340d8e22	1.3183356e-07
64	0x360540bc	1.9856225e-06
65	0x38e6e5bf	0.00011010048
66	0x38eb259b	0.00011212678
67	0x364d14be	3.0559454e-06
68	0x35a61dc1	1.2376623e-06
69	0x3685d726	3.9887555e-06
70	0x33bbb0f7	8.740056e-08
71	0x33c4b7ee	9.160418e-08
72	0x3332c655	4.1624237e-08
73	0x33227f03	3.783408e-08
74	0x34000e1b	1.192606e-07
75	0x36119a70	2.1696578e-06
76	0x38e21571	0.000107805135
77	0x36f103a3	7.182783e-06
78	0x35f40f65	1.8183897e-06
79	0x360411d3	1.9679908e-06
80	0x38e7e0f8	0.00011056842
81	0x3311a306	3.3908712e-08
82	0x332e7ea0	4.0627697e-08
83	0x32df194f	2.5972126e-08
84	0x320a870f	8.063366e-09
85	0x33f8973b	1.15759086e-07
86	0x36b7a981	5.473558e-06
87	0x36bb3e65	5.580298e-06
88	0x34b1e560	3.313571e-07
89	0x33953d30	6.949483e-08
90	0x34603f4a	2.088465e-07
91	0x31871024	3.930852e-09
92	0x31965803	4.3755803e-09
93	0x3129c72b	2.470595e-09
94	0x3114e2ba	2.1665714e-09
95	0x319d684e	4.5811595e-09
96	0x34070289	1.2573777e-07
97	0x36b548a0	5.402675e-06
98	0x352cdac8	6.439336e-07
99	0x33f495ce	1.1389385e-07
100	0x349b418a	2.8918686e-07
101	0x36ac771b	5.139865e-06
102	0x314f0797	3.0126779e-09
103	0x312c0200	2.503043e-09
104	0x30944ad6	1.0789687e-09
105	0x3443071c	1.8163377e-07
106	0x361dce8b	2.3515047e-06
107	0x391dd26f	0.0001505108
108	0x391ac810	0.00014761114
109	0x368e3e45	4.239179e-06
110	0x35bb502b	1.3955918e-06
111	0x36cdf3a2	6.1378387e-06
112	0x33c93a78	9.370427e-08
113	0x33d9b8f3	1.0138492e-07
114	0x333def75	4.4222777e-08
115	0x334d5625	4.780863e-08
116	0x3487d16c	2.5298084e-07
117	0x36317477	2.6442847e-06
118	0x391ab999	0.00014755725
119	0x36d9a654	6.486467e-06
120	0x35855216	9.933162e-07
121	0x368bf7da	4.1713765e-06
122	0x3918b958	0.00014564896
123	0x33708f0a	5.6009448e-08
124	0x3336385d	4.242644e-08
125	0x3335d440	4.2335387e-08
126	0x35a389fa	1.2184603e-06
127	0x37523d65	1.253127e-05
128	0x3a1f992d	0.00060881936
129	0x3a25b9f6	0.0006321961
130	0x3760031b	1.33521635e-05
131	0x3711cd1b	8.690428e-06
132	0x379a408b	1.8388286e-05
133	0x34c8d113	3.7405025e-07
134	0x34d05f22	3.8812237e-07
135	0x34938282	2.747584e-07
136	0x3498c78b	2.8457393e-07
137	0x35902869	1.0740597e-06
138	0x3760392c	1.3364752e-05
139	0x3a1cb09c	0.00059772446
140	0x383b08de	4.4592533e-05
141	0x3723882c	9.747262e-06
142	0x3760683f	1.3375712e-05
143	0x3a20cafd	0.0006133763
144	0x34968a4e	2.8040307e-07
145	0x33c52fbe	9.1822116e-08
146	0x33f6924f	1.1481881e-07
147	0x341cadea	1.4591902e-07
148	0x35ff4f99	1.9022146e-06
149	0x38bc302b	8.9735106e-05
150	0x38c67133	9.462461e-05
151	0x361026b6	2.1480205e-06
152	0x3594a019	1.1073454e-06
153	0x3629a9d7	2.5281822e-06
154	0x338b5040	6.487289e-08
155	0x338fc8f1	6.6955074e-08
156	0x33208988	3.7377987e-08
157	0x331df6c2	3.6778836e-08
158	0x340d0bd2	1.3135949e-07
159	0x36092893	2.0438208e-06
160	0x38b848c2	8.787356e-05
161	0x36be000f	5.662448e-06
162	0x3587ffbf	1.0132716e-06
163	0x36112e55	2.1633653e-06
164	0x38c2207c	9.2566916e-05
165	0x33007ed7	2.9917683e-08
166	0x32ba3f7d	2.1682121e-08
167	0x32b3ffa8	2.0954602e-08
168	0x33ae1660	8.1065764e-08
169	0x35d8768b	1.6127755e-06
170	0x38921c1e	6.96706e-05
171	0x389b62f5	7.409408e-05
172	0x35fa015f	1.862685e-06
173	0x3572cb78	9.044811e-07
174	0x363a843f	2.7793137e-06
175	0x3340ed47	4.4919286e-08
176	0x335787d3	5.018212e-08
177	0x330e0257	3.306408e-08
178	0x331213bc	3.4011222e-08
179	0x338d8a16	6.590942e-08
180	0x35f27db4	1.806699e-06
181	0x388fe129	6.860711e-05
182	0x37297c51	1.010213e-05
183	0x353eb0d5	7.103784e-07
184	0x35dddb73	1.6529651e-06
185	0x388afe15	6.627679e-05
186	0x33670b5c	5.379421e-08
187	0x329e4542	1.8425116e-08
188	0x32802397	1.4917346e-08
189	0x34d87bf7	4.0323332e-07
190	0x36aaa880	5.086011e-06
191	0x39836edb	0.0002506886
192	0x39895a75	0.00026198072
193	0x36d821a2	6.441217e-06
194	0x36562ff0	3.1916388e-06
195	0x36e2dafa	6.760817e-06
196	0x34393d52	1.7251776e-07
197	0x343cb33e	1.7574072e-07
198	0x3398b2ba	7.110562e-08
199	0x3390c8b4	6.74203e-08
200	0x34b78ac1	3.4187363e-07
201	0x36bbd45a	5.5977553e-06
202	0x3980e4da	0.0002458457
203	0x37c8244b	2.3858758e-05
204	0x36297e01	2.5256306e-06
205	0x36c0fa29	5.7511684e-06
206	0x3983590e	0.00025052618
207	0x33eec464	1.1118462e-07
208	0x33e1beb5	1.05120684e-07
209	0x338308e6	6.1017815e-08
210	0x352462f0	6.1238734e-07
211	0x370e2798	8.473078e-06
212	0x39ba8be7	0.0003558092
213	0x39c568e3	0.00037652915
214	0x36b40202	5.3646518e-06
215	0x36cb3d99	6.0570424e-06
216	0x372ba016	1.0229667e-05
217	0x347a1cec	2.3293586e-07
218	0x347b63d6	2.3412517e-07
219	0x3431359e	1.6503915e-07
220	0x342ebc34	1.627348e-07
221	0x34ff455b	4.7547914e-07
222	0x37168d66	8.973619e-06
223	0x39b6de86	0.00034879538
224	0x3822b016	3.8787803e-05
225	0x36b26e29	5.3176377e-06
226	0x36bc8a67	5.6189488e-06
227	0x39ba0c96	0.00035486062
228	0x34604a51	2.0888662e-07
229	0x33961558	6.988802e-08
230	0x33addc52	8.096016e-08
231	0x353953e1	6.903993e-07
232	0x3725083c	9.836684e-06
233	0x3a068b6e	0.0005132471
234	0x3a0804c0	0.0005188696
235	0x36f58bc2	7.317839e-06
236	0x370145e8	7.7052755e-06
237	0x37619f52	1.344814e-05
238	0x349e2e98	2.9463695e-07
239	0x349a663f	2.875913e-07
240	0x33ed53f3	1.1051443e-07
241	0x33f9327c	1.1604149e-07
242	0x35245ef3	6.123293e-07
243	0x372b9720	1.0227581e-05
244	0x3a03be59	0.00050256174
245	0x379adbd8	1.8460603e-05
246	0x36776ba3	3.686852e-06
247	0x36ce010f	6.1394016e-06
248	0x3a08e7bf	0.0005222521
249	0x33d83530	1.00679586e-07
250	0x33a6b37c	7.7626254e-08
251	0x33d8638c	1.0076391e-07
252	0x35b1a340	1.323504e-06
253	0x377f16f5	1.52045295e-05
254	0x3a3f2aaa	0.0007292429
255	0x3a47ce03	0.00076219457

exp_avg f4 [128]
0	0x3ab5c8b1	0.0013869015
1	0xba9935cd	-0.0011689008
2	0x37856771	1.5903004e-05
3	0xbaf69d67	-0.001881522
4	0xba9f62cc	-0.0012160181
5	0xbacec70f	-0.0015775877
6	0xbbddd2c3	-0.0067695095
7	0x3957bbf2	0.00020574013
8	0xbb386fa2	-0.002814271
9	0xb9109b7e	-0.00013790836
10	0x3ba5030b	0.005035763
11	0xbb5ac8ee	-0.0033383924
12	0xbb316822	-0.0027070125
13	0x3cacace8	0.021078542
14	0xba07003d	-0.0005149877
15	0xb9edb5cf	-0.0004533962
16	0xbc12ee69	-0.008967974
17	0x3a931cbd	0.0011223775
18	0x3b7e424b	0.0038796838
19	0xbc15d865	-0.009145831
20	0xb886401f	-6.4015614e-05
21	0x3b27193d	0.002549722
22	0xb98ec861	-0.00027233645
23	0xbc7c05cf	-0.015382244
24	0x3a173550	0.0005768137
25	0x3a870c0f	0.0010303276
26	0xbae34631	-0.0017339644
27	0x3b954644	0.0045554955
28	0xbb869e3e	-0.0041082194
29	0xbaecca08	-0.0018065581
30	0x3c02bcce	0.007979585
31	0xbbc1e26d	-0.0059168846
32	0xbc2000ce	-0.009765817
33	0x384e1153	4.913036e-05
34	0x3a53309d	0.0008056255
35	0xb98d749f	-0.00026980505
36	0xb8d42d8f	-0.00010117434
37	0x3c17066b	0.009217839
38	0xbb797b70	-0.003806796
39	0xbbbe1c60	-0.0058017224
40	0x3b148152	0.0022660089
41	0x3b5be5ff	0.0033553836
42	0xbaa9775a	-0.0012929246
43	0xbaaeda40	-0.001334019
44	0x3b1a49f0	0.0023542605
45	0x3b3f4283	0.0029183931
46	0x3b355803	0.0027670867
47	0x3a9674e0	0.0011478923
48	0xba9c45c5	-0.0011922648
49	0x3a8f33ae	0.0010925436
50	0xbbe5467d	-0.0069969282
51	0xba0c018b	-0.0005340806
52	0x3a18d431	0.0005829959
53	0xbb837a39	-0.004012373
54	0xbc08db60	-0.008353084
55	0x3b994c47	0.0046782824
56	0x39ac5336	0.00032868393
57	0x3b8a6e0a	0.0042245435
58	0x3b5add77	0.0033396163
59	0xba17d235	-0.0005791516
60	0xbb376cb6	-0.002798838
61	0x3ad3318d	0.001611279
62	0x3b42e60d	0.0029739172
63	0xba2b34ff	-0.00065310294
64	0x3ca217d2	0.019786749
65	0xbafe4987	-0.0019400575
66	0x3b975c5d	0.004619165
67	0xbb00b58d	-0.0019639463
68	0xbb0388e8	-0.0020070616
69	0x3c55b0ed	0.013042671
70	0x3aa1d589	0.0012346964
71	0xbc1edd02	-0.009696247
72	0x39d24349	0.00040104453
73	0x3b7c31be	0.0038481797
74	0x3b8993fb	0.004198549
75	0xbb56a9a0	-0.0032754913
76	0xbb102a5f	-0.0021997911
77	0xb915d6ef	-0.00014289816
78	0x3b886081	0.004161895
79	0x3b838081	0.0040131216
80	0xbc1abac8	-0.009443946
81	0xbc711fb1	-0.0147170285
82	0xbb7083f2	-0.003669974
83	0x3bc3a31d	0.0059703724
84	0x3942ad96	0.00018565948
85	0xbb03132f	-0.0020000448
86	0x37b01588	2.0990861e-05
87	0xbaa9de60	-0.001295995
88	0xb9ba8b99	-0.00035580693
89	0x3b9e6fc5	0.0048351013
90	0xba200002	-0.0006103517
91	0x3850eb47	4.9810184e-05
92	0xbb3f5a74	-0.0029198201
93	0xb9e79776	-0.000441726
94	0xbb495d52	-0.003072579
95	0xbc2606b6	-0.010133436
96	0xbc1d9089	-0.009616979
97	0x3be85498	0.0070901625
98	0x3b3242c8	0.002720045
99	0x3ae7c873	0.001768364
100	0xbbb520cd	-0.005527592
101	0xb9afdb83	-0.0003354215
102	0xb9812996	-0.0002463578
103	0x3b96469f	0.0045860554
104	0x3bf6c0fc	0.0075303297
105	0xbb76c879	-0.0037656112
106	0x3c12e386	0.008965379
107	0xba519b0a	-0.000799582
108	0x3b220e4e	0.0024727765
109	0xbbd4b69a	-0.0064914944
110	0xbbf4793b	-0.007460741
111	0xbc325fb3	-0.010887074
112	0xba58303d	-0.0008246934
113	0x3a569777	0.0008186022
114	0xbbd8f855	-0.0066214004
115	0x3a865176	0.0010247666
116	0x398411e5	0.00025190334
117	0x39709b39	0.00022946009
118	0x3ba98a4b	0.0051739565
119	0x38d5427a	0.00010169014
120	0xba94b647	-0.0011345827
121	0x3a886395	0.0010405654
122	0xbb6bf4d5	-0.0036004086
123	0xbbcb2cf0	-0.0062004253
124	0x3ae0440d	0.0017110124
125	0x3b0837cb	0.0020785208
126	0x3b8c90ab	0.0042897067
127	0x3c3436a1	0.010999353
