models/checkpoint_700.pth (torch, 83970 bytes, 24 tensors)

policy_log_std f4 [7]
000000 8f db 00 3f 7a 0b 2e 3f 06 0d 2e 3f 09 5a 36 3f
       0.5033502 0.6798626 0.6798862 0.7123113
000010 ae 89 27 3f c4 e8 02 3f e3 5f 40 3f
       0.6544446 0.5113642 0.7514631

fc1.weight f4 [64, 21]
000000 c7 39 8a 3d dd cd 30 3d d4 dd 21 be 0c 72 49 3d
       0.067493014 0.043165077 -0.15807277 0.04918103
000010 54 a2 96 3e 1e b5 66 be 8d 85 44 3e 20 8f 03 bd
       0.29420722 -0.22530028 0.1919157 -0.032118917
000020 a9 fc 26 be 1e 4a 87 bd 38 9a fd bc 50 16 5c bc
       -0.1630732 -0.066059336 -0.030957326 -0.013433054
000030 2a b2 4f be 77 5f 96 3d 5f 0a 31 be 3c 9a 9e bd
       -0.20282808 0.07342427 -0.17289113 -0.077442616
000040 d3 a5 fb bd e0 a1 89 bc 6f 76 d9 3d 58 ef bd bd
       -0.12287488 -0.01680082 0.106182925 -0.09274167
000050 21 f2 9b 3c 3f dc 5c 3d 91 52 97 3c e0 15 45 be
       0.019036354 0.05392098 0.018471988 -0.19246626
000060 b4 60 66 3e 8e ba 2c 3d 83 a3 9e bc 29 a5 a8 bc
       0.22497827 0.0421701 -0.019365078 -0.020586567
000070 28 89 8b 3b 35 70 8d 3c 6e cd 23 3d 41 ff 26 3e
       0.0042582937 0.017265419 0.039990835 0.16308309
000080 ac e8 1e 3d 7a 0e fb bd 5e 07 0f be 45 e7 42 3e
       0.038796112 -0.122586206 -0.13967654 0.19033535
000090 3a f6 ef 3d 12 aa fd 3d 61 16 2b be f6 20 47 be
       0.11716886 0.12385954 -0.16707756 -0.19446167
0000a0 a3 1d 59 bc cb 57 ad 3d 67 1d 47 3e e4 e9 2d be
       -0.013251695 0.08464011 0.1944481 -0.16983753
0000b0 9a 30 f6 3d 2d b2 72 3e 9f 8b 6a 3e 93 70 05 3d
       0.12020989 0.23700781 0.22904824 0.032578062
0000c0 58 62 a7 bd 8c 56 4d 3e 76 c0 62 bd 87 4d 07 3e
       -0.081730545 0.20052546 -0.055359326 0.13213168
0000d0 0a ca 33 be 0d 9e 12 be 93 21 2a 3b 33 c9 5a 3c
       -0.1755754 -0.14318104 0.0025959953 0.013353634
0000e0 28 3b ea 3c 3e ae 9c 3d 32 1d df 3d 29 35 51 3d
       0.028592661 0.076504216 0.108942404 0.051076088
0000f0 e6 26 c5 bd bf 82 94 bd b8 25 84 3e be 22 ee 3d
       -0.0962656 -0.072515 0.25810027 0.1162772
000100 7d 3c 6a 3c 93 6e 87 3e c2 5c 61 be 43 dd 89 3d
       0.014296648 0.2645155 -0.2200804 0.067316554
000110 ac ab 06 3e e4 80 78 3d 3f a2 92 3a 94 6d ca bc
       0.13151425 0.060669795 0.0011187269 -0.024710454
000120 65 59 01 be 99 ca 5c be ec 1b 6f bd aa 62 34 be
       -0.12631758 -0.2156166 -0.058376238 -0.17615762
000130 96 f9 8b bd f0 5f 28 be 08 c5 8e bc de bd 41 be
       -0.06834714 -0.16442847 -0.017427936 -0.18920085
000140 a8 62 37 3e 1a c5 16 be 74 c0 93 bc c5 0d 2a 3d
       0.17908728 -0.14723626 -0.018036105 0.041517038
000150 f3 c4 62 3c e6 38 2a 3e 61 6e 18 be c2 32 a7 3d
       0.013840902 0.16623268 -0.14885856 0.08163978
000160 c1 cc 39 3e f7 97 1c be 37 34 76 3e c3 b5 24 bd
       0.18144514 -0.15292345 0.24043356 -0.040212404
000170 b0 8a e0 3d 3f 83 15 be e6 57 33 3d 98 fe 2c be
       0.109639525 -0.14600848 0.043785 -0.16893995
000180 d4 8b 96 3d a2 eb 9e 3d 17 1d 2f 3e f4 96 7f 3d
       0.07350889 0.07759787 0.1710094 0.06239982
000190 a2 05 92 3d bb 65 e7 bd 44 83 4c bd 08 30 4d 3d
       0.071299806 -0.112987004 -0.049929872 0.050094634
0001a0 7f 7d ba 3d ad 61 ae 3d 71 44 27 be 58 dd 68 bc
       0.09105968 0.08514724 -0.16334702 -0.014212929
0001b0 a2 49 98 be 10 d6 b3 3d 1f 35 81 3d 6f 1f 01 3e
       -0.29743677 0.087810636 0.0630896 0.12609647
0001c0 34 c6 1e 3d 6d 69 ad 3d e5 8f 87 bd 42 87 48 3e
       0.03876324 0.08467374 -0.066192426 0.19582847
0001d0 4e b4 86 bd f5 ae 33 be 98 fb 6a bd 3c 6f c0 bd
       -0.06577359 -0.1754721 -0.057368845 -0.09396216
0001e0 81 32 2a be d6 90 b3 3d 69 15 b8 bd 64 f6 6c 3c
       -0.16620828 0.0876786 -0.08988459 0.014463041
0001f0 b1 55 b2 3d f8 57 24 be 53 c4 89 be 62 c2 30 be
       0.087077506 -0.16049182 -0.26907596 -0.17261651
000200 2c 2b 9f 3d 5d 17 96 3b 01 3e 95 3d ff d0 4c be
       0.07771906 0.004580422 0.07287217 -0.200016
000210 dd 40 29 3d 13 13 a1 bc 76 81 bd bd 75 0b 45 be
       0.041321624 -0.019662416 -0.09253208 -0.19242652
000220 36 b8 c5 3c ae 41 aa 3d 6f 31 0f bd e7 ea ce 3d
       0.02413569 0.08313309 -0.034959253 0.10103398
000230 28 53 32 bd f8 3f 60 bd f7 8b 44 be 81 98 6b be
       -0.043536335 -0.054748505 -0.19194017 -0.23007394
000240 14 e1 79 3e 5d 80 1a be 42 0c 9a 3d 3f 40 32 be
       0.24402267 -0.15088029 0.07521869 -0.1740732
000250 68 2c f2 bd 01 00 f6 bc 5d f6 4c be fe 46 c7 bd
       -0.11824876 -0.030029299 -0.20015855 -0.097303376
000260 5c ba c7 3c cc a3 84 be 38 39 79 be b7 7b 85 3b
       0.024380855 -0.25906217 -0.24338233 0.004073586
000270 1c 9a 4a be fb 47 3e 3e 56 0b 59 be 6f ac 80 3d
       -0.1978535 0.18582146 -0.2119573 0.06282889
000280 4f 82 96 bd e8 2b 70 bd 9c 34 4c 3d dc 6d d5 bd
       -0.07349073 -0.058635622 0.04985486 -0.10421345
000290 ea 2c c3 3d 71 69 24 be c5 b5 7d 3e ab c5 4f bd
       0.09530051 -0.16055848 0.24776371 -0.05072562
0002a0 c9 cc bc bd cb ff 39 3d 4d 04 a8 bd e7 c2 b0 3d
       -0.09218747 0.04540996 -0.08203945 0.08630925
0002b0 db 63 e8 3b da 0a b6 3d 72 80 b6 3e 8e 8a b2 3d
       0.007091982 0.088887885 0.3564487 0.087178335
0002c0 7e c9 67 bb d7 6d 29 3c a0 8c 26 3e 10 77 0c be
       -0.0035367901 0.010341129 0.16264582 -0.13717294
0002d0 33 73 b4 bd a0 d6 62 be 18 b0 07 bd 49 be 22 3e
       -0.08811035 -0.22152185 -0.03312692 0.158929
0002e0 5e 0a d9 bd 87 09 d4 bc cb 30 50 be 17 55 84 bd
       -0.105976805 -0.02588345 -0.20331113 -0.06461542
0002f0 e9 f0 96 bd d9 1c 2d be 50 fe d5 3d e0 08 14 bd
       -0.07370169 -0.16905536 0.10448897 -0.036141276
000300 47 aa 6b be 96 41 c7 3d e5 61 73 3e 08 2f 00 3e
       -0.23014174 0.097293064 0.23767813 0.12517941
000310 00 20 0c bd b0 ea 41 3e 84 55 4d 3d 6c e1 43 be
       -0.034210205 0.18937182 0.050130382 -0.1912896
000320 f2 8b ac 3d d3 47 75 be 0a a9 96 3d 8c d6 0e 3d
       0.0842513 -0.2395318 0.073564604 0.034872577
000330 7d 37 28 be 28 47 3a be eb c7 fd bd a8 55 08 3e
       -0.16427417 -0.18191206 -0.12391647 0.13313925
000340 ae 62 2b 3e 37 46 07 bd e0 7f 75 3d 38 57 30 be
       0.16736862 -0.033025946 0.059936404 -0.17220771
000350 2f 69 6c be be d1 b3 3d 2d a9 22 3e 81 01 33 3e
       -0.23087 0.087802395 0.15884848 0.17481042
000360 c0 14 8e bb ac 8f 61 3d 8b 1e 30 be 51 6d 49 be
       -0.0043359697 0.055068657 -0.17199151 -0.19670607
000370 83 b5 6d bd 48 f6 91 bd bd 26 cb 3c f5 74 53 be
       -0.05803443 -0.071270525 0.024798745 -0.20650084
000380 d7 a4 d8 bd 81 14 35 be 9a 4e b7 bd 1c c6 2d be
       -0.10578316 -0.17683603 -0.08950539 -0.16970104
000390 4e c6 95 bd 9e df a1 3e b4 82 1f be d0 a3 e9 3d
       -0.07313214 0.3161592 -0.15577203 0.11408198
0003a0 a1 fd ae 3c 2a d7 13 be f6 e6 1c 3e e0 93 7f bd
       0.021361174 -0.14437547 0.1532248 -0.062396884
0003b0 c8 2d ab bd d1 6d 9b 3e f0 90 99 bd 6f 0e 00 be
       -0.083583415 0.3035722 -0.07498348 -0.12505506
0003c0 e8 14 43 be d9 9b 31 be 25 df 27 3e de ba 0b be
       -0.19050944 -0.17344607 0.16393717 -0.13645503
0003d0 79 a6 04 3e 85 2d 31 3e 58 02 0f be 0b 7b 24 3e
       0.1295413 0.1730252 -0.13965738 0.16062562
0003e0 76 4f 6a 3d 2a aa 19 3e de b9 10 be 29 84 23 3d
       0.057204686 0.15006319 -0.14133403 0.03992096
0003f0 55 db 05 3e 7b 1a 38 3d f9 59 80 be 4c 0d df bc
       0.1307195 0.04494713 -0.25068644 -0.02722802

fc1.bias f4 [64]
000000 47 18 3e 3c 0b cf 71 bd ce ed cc bd cd df 10 3e
       0.011602468 -0.059035342 -0.10006295 0.14147873
000010 49 db 1a bc de 4e c1 3d 4e f4 60 be 57 0d bb 3d
       -0.009451696 0.09438871 -0.21968195 0.09133404
000020 7b f8 74 bd e3 e5 72 be 38 e8 d7 bd 5b 41 3d be
       -0.059807282 -0.23720507 -0.10542339 -0.18481962
000030 8d 29 16 3e 5c ad 01 be bf 16 ce bd a4 15 d8 bd
       0.14664288 -0.12663788 -0.10062932 -0.105510026
000040 89 29 8b bd e3 f6 0b 3e b6 0b 2c be 57 79 8a 3d
       -0.067950316 0.13668399 -0.16801342 0.06761425
000050 f8 ac 19 3e 21 9c 18 be e8 03 74 3d 03 17 d6 3d
       0.15007389 -0.14903308 0.059574038 0.10453608
000060 99 a1 ba bd 1c ad 40 3e 65 b9 23 3d 02 ea 10 3e
       -0.091128536 0.18816036 0.039971728 0.14151767
000070 d2 b4 60 be c2 12 60 be 99 d2 7d 3d af 42 fd 3d
       -0.21943977 -0.21882156 0.06196842 0.123662345
000080 19 c5 41 3e dd fd 6b be e4 4a 20 bb 05 ad 2b be
       0.18922843 -0.2304606 -0.00244587 -0.1676522
000090 a8 45 35 be 5f 35 88 bd 8b 11 90 3d e9 d8 0f 3e
       -0.17702353 -0.06650805 0.07034596 0.14047588
0000a0 0a b4 94 bd a6 d5 dc 3d c9 be 20 be 48 40 53 3e
       -0.07260902 0.10782938 -0.15697779 0.2062999
0000b0 2f d2 f4 3d 71 c0 3a bd c6 2a 29 be 66 13 0e 3e
       0.11954152 -0.045593683 -0.16520223 0.13874587
0000c0 81 bc b5 3b 95 1f 87 bc 3d 05 10 be af 89 65 3d
       0.005546153 -0.016494552 -0.14064498 0.05603951
0000d0 4a 9c 3b 3e 8f 50 24 bd c5 52 fb bd 6f 3d 59 3e
       0.18321338 -0.04011589 -0.122716464 0.21214841
0000e0 47 42 a4 3c 61 a4 54 3e 6b 54 78 3d 91 cc c7 3c
       0.020051135 0.2076583 0.060627382 0.024389537
0000f0 82 73 33 3e 62 ed 50 be c6 a2 87 bc 01 3f 3e 3d
       0.17524531 -0.20403054 -0.016557109 0.046446804

fc2.weight f4 [64, 64]
000000 f3 68 48 bc 67 00 9e 3c f6 2e 29 3d 7d fe 69 bc
       -0.012232053 0.019287301 0.04130455 -0.014281866
000010 12 c8 ae bd 71 94 9b 3d d3 24 8d 3b ae bf 83 3e
       -0.08534254 0.07596672 0.0043073683 0.25732177
000020 21 0a 69 bc 6b 3a 73 3d c2 5b 81 bd fc 64 3c be
       -0.014223606 0.059381884 -0.063163295 -0.18397897
000030 3a 4a 1b be 3e 14 0f bd ea 2b 6f bd 40 b7 ba 3d
       -0.15165034 -0.034931414 -0.05839149 0.091169834
000040 ee 5b 83 3c 67 7e 83 3d 2d 3a 1f be 3b 23 92 bd
       0.016035046 0.06420594 -0.15549536 -0.07135626
000050 99 47 6e bd 9b 14 94 bd 94 07 bd bd f8 ed 81 bc
       -0.05817375 -0.07230493 -0.09229961 -0.015860543
000060 63 81 3f 3d 55 da 0d 3e 6a b8 94 3d 32 a5 58 3a
       0.046754252 0.13852818 0.07261737 0.0008264362
000070 be 21 7f 3d 55 05 a4 bc b2 de ab 3d 96 df a8 3d
       0.06228804 -0.020022074 0.08392085 0.08245771
000080 60 4e 05 3e 8f e3 15 be 38 8e 52 bd 24 e8 b0 3d
       0.13018179 -0.14637588 -0.05140516 0.08638027
000090 62 e9 a6 3d 00 5c 06 3e 97 00 1f be 6e 10 15 3d
       0.08149983 0.13121033 -0.15527569 0.03639262
0000a0 4c 25 04 be d6 f9 3b bd 95 2d 0c be c2 dd 77 3d
       -0.12904853 -0.04589256 -0.13689263 0.06051422
0000b0 c7 f2 ac 3b f6 2f af 3c a0 cc 6d bc d0 7a 8a bb
       0.0052779648 0.021385174 -0.014514118 -0.004226066
0000c0 45 6d 93 bd 39 89 15 3e fe 5b b3 3d fe f1 ff bd
       -0.07198576 0.14603128 0.087577805 -0.12497328
0000d0 44 d6 58 bd fc fb 35 3e b1 bc 5f 3d b4 cc f4 3d
       -0.052938715 0.17771906 0.05462331 0.119531065
0000e0 9c c2 31 be cf de 55 bd ab 0b a3 be f5 69 81 3c
       -0.17359394 -0.05221444 -0.3184484 0.015797595
0000f0 44 bf 7a bd ed 75 93 bd 79 d8 d0 bd 95 86 7e 3e
       -0.06121756 -0.07200227 -0.10197539 0.24856026
000100 2d 8e 01 be f5 1d b7 bd 82 ec 04 be 80 80 bd 3d
       -0.12651892 -0.08941261 -0.12980846 0.09253025
000110 8e 9c 25 3d 30 84 f2 bb b5 00 c6 3d 7f af ea 3d
       0.040432505 -0.007401012 0.096681036 0.114592545
000120 16 5e 15 be 4b 68 e2 bc 55 71 b3 3c c6 fa 89 be
       -0.14586672 -0.027637621 0.021904627 -0.26949137
000130 e9 71 15 be df ee 81 be d7 36 9c bd fa 9b 95 bd
       -0.14594235 -0.25377557 -0.07627647 -0.07305141
000140 5e 6b a7 3d e1 d8 bb bd e3 d1 f9 bd f0 d5 03 3d
       0.081747755 -0.09172226 -0.12198236 0.03218645
000150 62 20 b4 3d e5 44 28 be 49 42 9d bd 3b 26 8e bd
       0.08795239 -0.16432531 -0.076786585 -0.06940886
000160 ef d0 69 3a 84 49 24 3d 3c 8e b8 3d e4 93 a3 3d
       0.0008919378 0.040109172 0.09011504 0.07987192
000170 f1 2f 46 3e 81 49 3a 3c d4 89 7c 3c a9 9d 0c 3e
       0.19354226 0.011370064 0.01541372 0.13732018
000180 63 78 0f 3e 31 7f 19 be 2c e6 b5 3d d8 bc 2a be
       0.14010768 -0.14989926 0.088817924 -0.166736
000190 68 16 70 bd 8c 96 71 bd 4e 08 6e bd 08 2f e5 3c
       -0.05861512 -0.058981463 -0.05811339 0.027976528
0001a0 49 ee c0 3c 06 5c 8e bd 7c 50 33 3d cd 92 33 3d
       0.023551123 -0.06951146 0.043777928 0.043841172
0001b0 39 63 f4 3c ef e2 17 3e 76 94 89 3d 4b 95 64 3d
       0.02983247 0.14832662 0.0671777 0.05580644
0001c0 3a 6f 83 be 42 1b 36 3d d7 50 08 3e 84 1e d1 bc
       -0.25670797 0.04445959 0.13312088 -0.025527246
0001d0 2a 8d 7f 3d 70 10 49 bc 1c 47 16 3e ba 46 38 3d
       0.062390484 -0.012271985 0.14675564 0.044989325
0001e0 1f 81 2e bc cb 47 c2 3d 2b 06 38 be eb 0b a7 bd
       -0.010650902 0.0948635 -0.17971103 -0.0815657
0001f0 10 5b 6b 3c 6e 41 0f bd c3 9b 3b bd 57 0d d9 3c
       0.014364973 -0.034974508 -0.045802843 0.026495619
000200 d2 49 da 3d eb db 10 3e e3 65 18 3e 77 15 f6 bc
       0.10658611 0.14146392 0.14882617 -0.030039532
000210 a7 28 35 3d 37 c1 6d bd 11 18 4c 3d 25 42 c7 bd
       0.044228222 -0.058045592 0.04982764 -0.09729413
000220 75 ba 9e 3c 6f 97 16 be f2 ea 64 3d 9e 41 9e 3c
       0.019376019 -0.14706205 0.055888124 0.019318398
000230 21 76 c9 3c 2a 23 4b 3e 1a 8b b2 3d 5b 0f fb 3c
       0.024592461 0.19837633 0.08717938 0.03064697
000240 b8 62 86 be 4c 80 56 bd 0c 66 f7 bc 6a ef 6a bc
       -0.2624719 -0.052368447 -0.030200027 -0.014339307
000250 b3 22 c7 3d 75 3a 20 3e 89 64 b4 3c 1a 9a ef 3d
       0.09723415 0.156473 0.022020595 0.116993144
000260 17 de 33 bd c5 eb 9d 3d be f8 0a 3e 97 f9 90 bd
       -0.043912973 0.07710985 0.1357145 -0.070788555
000270 f3 03 2f be 2e 70 07 be 9d 41 00 be d3 56 9d bc
       -0.1709135 -0.13226387 -0.1252503 -0.01920644
000280 2c 4f 91 3d 21 17 ed bb f4 f4 55 3c d4 20 bc 3c
       0.07095179 -0.007235423 0.01305889 0.022964872
000290 5a c8 c3 bd fc e4 41 3d 87 34 b1 3d 39 a6 82 3c
       -0.095596984 0.047337517 0.08652597 0.015948402
0002a0 3d 4b 2d 3d a0 3c 05 be b0 20 cb 3d f4 62 09 be
       0.04230808 -0.13011408 0.09918344 -0.13416654
0002b0 1c 69 ee bd 02 7d 30 bd 62 b7 58 3d 96 d2 03 be
       -0.11641142 -0.043087967 0.052909262 -0.12873301
0002c0 20 8b 91 3e 19 c5 18 be df f5 82 bd e4 43 6c 3d
       0.28426456 -0.14918937 -0.063945524 0.057681933
0002d0 ae 73 d9 3c f0 68 3c be cc 05 b4 bd a9 ef 65 bd
       0.026544418 -0.18399405 -0.08790168 -0.05613676
0002e0 f4 eb 87 bc ed ba 12 be 4b 0a 1b 3e a8 f5 ae 3c
       -0.016592003 -0.14329119 0.15140645 0.021357372
0002f0 fb eb a7 ba d7 74 51 bd 10 95 84 b9 bc fb 3f be
       -0.0012811417 -0.051136818 -0.00025288062 -0.18748373
000300 3b 03 94 3d 6f e4 04 be 34 6f b0 bd cf 19 4f 3d
       0.07227179 -0.12977766 -0.0861496 0.050561722
000310 b8 12 c9 bd b8 42 0a 3d f9 3e 02 3d ea 1c af 3d
       -0.098180234 0.033755034 0.031798337 0.08550437
000320 ae 6d 22 be 3d 13 37 bd ea 45 05 be e4 be 53 be
       -0.15862152 -0.04469608 -0.13014951 -0.20678288
000330 98 bd 23 be 6f 93 95 bd 56 3b f7 bd f2 3f d0 bd
       -0.15990293 -0.07303511 -0.12071864 -0.101684466
000340 04 a3 b5 3c dc 68 c3 3d 41 e2 25 be 94 75 6d 3d
       0.022172458 0.09541485 -0.1619959 0.05797346
000350 7c 4a 9c bd d6 48 c1 bd b9 b7 70 bd b8 f3 12 bd
       -0.07631394 -0.094377205 -0.05876896 -0.03587696
000360 b0 86 1e bd 5d b1 80 3d e9 e4 cd 3d 94 59 b4 3b
       -0.038702667 0.06283829 0.10053427 0.0055038426
000370 4c 21 f8 3d c2 b6 d2 3d 4f 39 1d bd 73 73 d1 3d
       0.12115726 0.102887645 -0.03838473 0.10227098
000380 f8 c9 03 3e a7 cf 1c bd cc 1e e0 bd 64 10 0d be
       0.12870014 -0.03828397 -0.10943374 -0.13775784
000390 43 ce 69 3d cd c3 35 3d 24 99 5a bc 0a c3 e0 3c
       0.057081472 0.044376183 -0.013342176 0.027436752
0003a0 d6 21 13 3d bc 80 f4 bc b2 36 9d 3c 56 5e 97 bd
       0.03592094 -0.029846542 0.01919112 -0.0739104
0003b0 85 48 1b 3e 14 a5 b5 bc c1 90 04 be 8b 00 52 bd
       0.15164383 -0.022173442 -0.12945844 -0.05127005
0003c0 93 d4 b5 bd 69 c9 01 bd e4 ad 3f 3e bc da 0c bd
       -0.08878436 -0.03168622 0.18718678 -0.03438829
0003d0 d7 b3 72 3d 80 94 38 3e 48 eb 54 3e 6d 7d 2a 3e
       0.05925354 0.18025398 0.20792878 0.16649409
0003e0 22 42 bf bd 39 98 10 3e 44 4b ad be 18 b3 9f 3c
       -0.09338786 0.14120568 -0.33846486 0.019494578
0003f0 ec a3 14 3e ef e9 41 3d 76 d2 b1 bd 0b f8 0a 3e
       0.14515656 0.047342237 -0.0868272 0.13571183

fc2.bias f4 [64]
000000 be bb 1a 3e 4b dd 13 bd a2 c4 3e bd 44 4b d8 3d
       0.1511068 -0.036099713 -0.046574242 0.10561231
000010 b3 01 02 3e 36 1c b8 3d b5 d3 a0 bd 74 65 22 3d
       0.1269596 0.08989756 -0.0785288 0.039647534
000020 80 89 a6 3d 2a 3b 19 be f7 d0 b6 bd d8 ad 0b be
       0.08131695 -0.14963976 -0.08926576 -0.13640535
000030 5d 7a ab bd 2c a3 c8 3b 00 ac 92 3d 2c bf 42 bd
       -0.08372948 0.006122967 0.07161713 -0.047545597
000040 cc bc 87 3d 6b 0d c4 bc a5 f6 84 3d 07 bb 2a bd
       0.06627807 -0.02393218 0.06492356 -0.04168227
000050 00 15 b4 3d a7 3f 76 3d 84 d4 34 3e 62 4f fe bd
       0.08793068 0.060119297 0.17659193 -0.12417485
000060 87 3d 27 be eb 81 24 be 99 d0 d7 3d 9f bb b8 bd
       -0.16332065 -0.16065185 0.10537834 -0.09020161
000070 f7 95 dd 3d d0 52 b3 bd 5c 4b 5f 3c 7d 35 7a bd
       0.10819619 -0.087560296 0.013628807 -0.061086167
000080 e8 97 84 bd 78 ba 17 3d 53 3f e9 3d f7 9c 61 3d
       -0.06474286 0.037043065 0.11389031 0.055081334
000090 2e 79 e7 3d 85 75 2a be b9 af 41 be f2 fe a6 3d
       0.1130241 -0.16646393 -0.18914689 0.08154096
0000a0 99 ae fb 3d 19 5e c7 bd 87 c5 03 be b3 af ff 3d
       0.12289161 -0.097347446 -0.1286832 0.12484684
0000b0 c3 44 fe 3d 75 96 ba bc cc a9 26 3e 6f 42 d1 bd
       0.12415459 -0.022776822 0.1627571 -0.10217749
0000c0 a9 d9 e8 3c 5c 30 97 3d 85 41 91 bd 8c 23 a9 3b
       0.028424101 0.07382271 -0.07092575 0.005161708
0000d0 88 44 a5 3d c0 26 13 3e ae 17 b2 3d 5e 60 e4 bd
       0.08069712 0.1437025 0.08695923 -0.11151193
0000e0 2e 88 fb 3c 63 90 44 3d eb fe a7 3d 75 e1 78 3d
       0.030704584 0.04798926 0.082029186 0.060761888
0000f0 7a b5 aa 3c fe ea 4f 3d aa 16 e6 bc db ac 94 3d
       0.020838488 0.050761215 -0.028086979 0.07259532

policy_mean.weight f4 [7, 64]
000000 de 94 9a 3d d3 a7 2e 3d 80 8e ef bd df 67 de 3d
       0.075479254 0.04264052 -0.116971016 0.108596556
000010 57 fd 3a 3e ca b8 ef 3d 5e a2 43 3e ec 47 ef 3d
       0.18260704 0.117051676 0.19104907 0.1168364
000020 fd a4 5d 3e 5e 1a af bd f8 13 fb bd 90 d8 14 be
       0.2164497 -0.08549951 -0.12259668 -0.14535737
000030 a2 84 c9 bd fe 76 d7 3d 8e 26 22 3e 63 03 8e b9
       -0.09839751 0.10520743 0.1583502 -0.00027086874
000040 d6 4c 20 be d1 84 3d be e7 b3 1c 3e 7a ae 7d 3c
       -0.1565431 -0.18507697 0.15303002 0.015483493
000050 d0 4a aa 3d e5 28 50 be e1 03 a8 3d 70 41 ee bc
       0.083150506 -0.203281 0.08203865 -0.029083937
000060 0e 77 17 be 7e b2 7d bd bf 16 c5 3d 46 c1 2e bb
       -0.1479151 -0.0619378 0.09623479 -0.0026665493
000070 b9 a7 40 3e be c4 c4 3c 0a 79 09 3e 23 85 54 3e
       0.18813981 0.024019595 0.13425079 0.20753913
000080 69 3b 37 bd f5 77 31 be fb ef d4 3d 88 34 4b be
       -0.044734392 -0.17330916 0.10397335 -0.19844258
000090 b4 3f 2f 3e 9c 83 24 be b6 64 dd bd a0 23 07 be
       0.17114145 -0.1606583 -0.10810225 -0.13197184
0000a0 94 03 03 3e d3 4a 62 3d 27 ad 03 bd e4 ab 25 3e
       0.12794334 0.05524714 -0.032147553 0.16178852
0000b0 35 72 0f 3e 96 3c 18 be 8f 0e ec 3d 76 f2 d0 3d
       0.1400841 -0.14866862 0.11526214 0.10202496
0000c0 c0 74 5d bd 4b f1 d5 3d b5 46 94 3d 72 5c 6d 3d
       -0.05406642 0.104464136 0.07240049 0.05794949
0000d0 65 a7 8d bd c7 1c 8c bd b2 9d 96 bd 4c 70 f7 3b
       -0.069166936 -0.06841426 -0.07354297 0.0075512286
0000e0 6e 41 c1 3c 7c 32 e8 3d fa e8 6e bd 08 99 4a 3e
       0.02359077 0.11337754 -0.058327653 0.1978494
0000f0 ca ef 1c 3d 1f 6a 22 be 96 e4 33 3e cf 1f 09 3e
       0.03831462 -0.15860794 0.17567667 0.1339104
000100 e1 e7 49 be a4 9c d0 bc b1 38 23 3e 0a b0 2a be
       -0.19717361 -0.025465317 0.15939595 -0.16668716
000110 50 31 8e bd ec 79 06 3d 18 31 4b be b6 de a7 3d
       -0.06942999 0.032831118 -0.19842947 0.081967756
000120 6a d0 c6 bd 0d a5 02 3e d1 78 26 3d 1d 36 0e 3e
       -0.097077206 0.12758274 0.040642563 0.1388783
000130 1e 29 30 bd 0f e3 97 3d 46 78 8b 3d 11 c6 02 be
       -0.043007962 0.07416355 0.0681005 -0.12770869
000140 10 be 24 3e 6f ee 1b 3e b7 5d fd bd 95 a4 8b 3c
       0.16088128 0.15227674 -0.1237139 0.017046252
000150 6a b1 1e 3c 79 03 96 3d 8e 9f 25 be 6d ee 21 3e
       0.0096858535 0.07324881 -0.16174147 0.15813608
000160 b6 f4 d1 3d 4c 69 1f 3e 9f 20 65 3d 61 12 b1 bc
       0.10251753 0.15567511 0.055939313 -0.021615209
000170 ff 12 a7 bd b9 af ad 3d d5 49 a6 b9 1e 69 42 bd
       -0.0815792 0.08480782 -0.00031716996 -0.04746353
000180 d8 98 9c 3a c1 81 96 3c a0 48 f3 bc e5 58 73 3e
       0.0011947406 0.018372418 -0.029697716 0.2376438
000190 37 ba 18 be 60 48 9b bd b4 8e d7 3d 09 54 6d 3c
       -0.14914785 -0.07582164 0.10525265 0.014485368
0001a0 d1 e7 91 bd ea 22 3a be 56 32 38 3e 2f b2 48 be
       -0.071242936 -0.18177381 0.17987952 -0.19599222
0001b0 b5 b3 05 be 78 25 95 bc f0 9e 15 be ab 5e cb bd
       -0.13056834 -0.018206343 -0.14611411 -0.09930166
0001c0 91 39 fa 3d e9 2c 33 be 52 c7 1b bd 63 f9 a4 3a
       0.12218011 -0.174976 -0.038031884 0.001258653
0001d0 ce f7 19 be f3 e8 ed 3c 1a 44 a2 3d fa 38 22 3d
       -0.15035936 0.029041743 0.079231456 0.03960512
0001e0 37 44 d0 3d c0 b7 0f be 51 14 25 3e a4 4a 15 be
       0.10169261 -0.14034939 0.16121031 -0.14579254
0001f0 aa f5 30 bc 52 7a da bb f9 de bc bd 77 e1 e0 bd
       -0.010800758 -0.0066674137 -0.09222216 -0.10980504
000200 52 03 a2 3d 32 ea 5f 3e 55 90 22 be d9 bf 92 3d
       0.079107895 0.21866682 -0.15875371 0.07165498
000210 3b fa 0f 3e be 1b b2 bd 3a 72 5b 3e e0 99 2a 3e
       0.14060299 -0.08696698 0.21430293 0.16660261
000220 c3 37 5b 3e 94 9c 8a bd 84 3b 42 be 62 30 ed bd
       0.2140799 -0.06768146 -0.18968016 -0.11581494
000230 82 be 24 be 96 0b b9 3c a0 7c 3e 3e 57 3e 95 3d
       -0.16088298 0.022588532 0.18602228 0.07287281
000240 c0 4b 89 bd ba f1 19 be c9 a8 14 3e 7b e9 1b be
       -0.06703901 -0.15033618 0.14517511 -0.15225784
000250 aa 90 ae b8 b2 31 0f 3d 3b 19 96 bc 95 f4 b6 bb
       -8.323912e-05 0.034959503 -0.018322578 -0.0055833557
000260 95 77 ac bd 4a 3b 43 be 99 4a ff bc 33 3d 3b 3e
       -0.08421246 -0.19065586 -0.0311635 0.18285064
000270 19 43 5d 3e fd 48 ce bd f7 ca ef 3c 9d 24 f9 3d
       0.21607627 -0.10072515 0.029271586 0.121651866
000280 29 12 dc bb 18 51 9e 3c 54 70 0e 3d da 2a e1 bd
       -0.006716032 0.019325778 0.034775093 -0.109945014
000290 78 18 4c 3d 85 7c e8 bb a6 3c 1d 3d 05 ca c3 bc
       0.049828023 -0.007094922 0.038387917 -0.023900041
0002a0 d8 fb e4 3c cf 4d 95 3d 4d 36 c7 3c a2 b7 47 3e
       0.02795212 0.072902314 0.024317885 0.19503644
0002b0 21 e3 cc bc 6c 61 b2 bc e5 f4 a1 bc 71 7c 25 3e
       -0.025010647 -0.02177497 -0.019770095 0.16160752
0002c0 97 f2 8f 3d a7 ac b9 3d 7f cc 12 3d 8e 70 17 bd
       0.07028692 0.09066134 0.035839554 -0.036972575
0002d0 3c 90 53 3c f9 74 bf 3d f6 45 03 be 39 b7 02 3d
       0.012912806 0.09348483 -0.12819657 0.031913016
0002e0 d7 13 fe 3d ce 3f 3c 3e a9 2a 0b bd eb 74 2f 3e
       0.12406128 0.18383715 -0.03397623 0.17134444
0002f0 d8 46 3b bd e2 4a 59 be de fd 1d 3e ad 86 27 3e
       -0.04572186 -0.21219972 0.15428874 0.16359968
000300 13 77 7c bd 50 49 86 be c1 8c d9 3d 63 31 21 be
       -0.061636996 -0.26227808 0.1062255 -0.15741496
000310 b9 2c c3 3c 65 cb 83 bd 0a 93 9e bd ce 66 b1 3d
       0.023825036 -0.06435279 -0.07742889 0.086621866
000320 08 a3 66 be d0 b0 51 3d ea 31 14 3d 2e 47 2b bc
       -0.22523129 0.051194012 0.036180414 -0.010453982
000330 11 88 ae 3d 58 f0 d0 bd 6e 32 10 bc 09 72 b8 bc
       0.08522046 -0.10202092 -0.008801086 -0.022515314
000340 f8 8c 48 3e c2 7d 2a 3e 80 9b 37 be f5 d4 15 3e
       0.19585025 0.16649535 -0.17930412 0.14632018
000350 85 39 67 bd 47 63 c0 3d 65 63 e3 bd c0 a1 27 3e
       -0.05645134 0.09393936 -0.111029424 0.16370296
000360 4d 91 3c 3c 99 44 43 3e a8 42 27 3d 9f 0d 0c be
       0.011509252 0.19069137 0.040835053 -0.13677071
000370 25 d9 31 be 63 4b e5 3d ba 48 dc 3d 9e cc 30 be
       -0.1736799 0.111960195 0.10756059 -0.17265555
000380 db 3d 2f 3d f7 da 2c 3e cf 36 00 be 0f cb c5 3d
       0.0427836 0.16880403 -0.12520908 0.09657871
000390 a4 c1 77 bc 04 63 8d 3d cc 8b f9 3d 5c bd 80 bd
       -0.015121851 0.06903651 0.12184867 -0.062861174
0003a0 3d 87 19 be ab d8 8c bd 16 d7 26 3e ae 3e 2f be
       -0.14992996 -0.06877264 0.16292986 -0.17113754
0003b0 3c cf 09 be 51 80 67 3d 69 00 7b bc a1 e5 12 be
       -0.1345796 0.056518856 -0.015319922 -0.14345409
0003c0 12 0e ec b9 82 40 41 3c 47 23 1e 3d 73 09 00 be
       -0.0004502391 0.011795165 0.03860786 -0.12503605
0003d0 b1 99 2d bd 1e fe b6 3d 92 bf 0d 3c 7d f0 eb bd
       -0.0423829 0.08935188 0.008651631 -0.11520479
0003e0 2f f6 d4 3d 62 63 0e be a4 30 6c 3d b8 f4 83 bc
       0.10398518 -0.13905099 0.057663575 -0.016107902
0003f0 1f 87 11 bd b7 77 35 bd 45 19 b9 bd d0 d7 6f 3d
       -0.035529252 -0.044303622 -0.09038023 0.058555424

policy_mean.bias f4 [7]
000000 29 02 10 3e 6c f5 e8 bd 85 30 f1 3d d3 06 02 bd
       0.14063324 -0.113749355 0.117768325 -0.03174479
000010 ac b5 89 bd 0f b6 0a be 90 06 a4 3d
       -0.06724104 -0.13546012 0.08009064

value_head.weight f4 [1, 64]
000000 d5 f6 40 3e 72 83 99 3d 2c d3 c9 bc 12 2f f9 3d
       0.18844159 0.07495774 -0.024636827 0.12167181
000010 0a 93 04 3e 64 11 7c 3e c7 a3 21 be 45 47 be bd
       0.12946716 0.24616009 -0.15785132 -0.09290937
000020 b6 23 39 bd 32 3f 8a be 06 3a 1d 3e 74 ce 23 be
       -0.045200072 -0.2700134 0.15354165 -0.15996724
000030 a9 ee 45 3e fb 5a 6a 3e 7a cd 48 be 0d ac 4e be
       0.19329323 0.22886269 -0.19609633 -0.2018282
000040 ab 04 1d be 13 ae a2 3d 41 fb fe 3d ab 98 7e be
       -0.15333812 0.07943358 0.12450267 -0.24862926
000050 50 74 21 3e 69 cc 80 3e bf 56 53 3e c0 30 50 be
       0.15767026 0.25155953 0.2063856 -0.20331097
000060 b9 2d e9 bd de 69 24 be 64 c5 81 be 9c a2 98 be
       -0.11385674 -0.1605601 -0.2534591 -0.2981156
000070 45 46 2a be cd 67 09 3d 00 16 6b be 4c 02 cf bd
       -0.16628368 0.033546258 -0.22957611 -0.1010786
000080 13 68 35 be f5 5e 24 be 68 f9 83 3e 49 b5 86 bb
       -0.17715482 -0.16051848 0.2577622 -0.0041109663
000090 5c cc 4f be eb 85 5d be f8 72 69 be 15 cb 57 3e
       -0.202928 -0.21633117 -0.22797763 0.21073563
0000a0 04 b9 96 be 63 c2 e2 bd db 8b 90 3e 98 52 59 3d
       -0.2943803 -0.110722326 0.282317 0.053057283
0000b0 82 46 65 bd 6b 6b 56 3e 82 7c 49 3e 18 0b 64 bd
       -0.055975445 0.20939414 0.19676402 -0.055674642
0000c0 b2 1e 93 3d 88 9d 46 be 9a 99 6d be 1b ef 14 3e
       0.07183589 -0.19396031 -0.23203126 0.14544336
0000d0 f7 27 59 3e 3a 39 76 3e dd cc 7d 3d 32 24 b5 bd
       0.21206652 0.24045268 0.06196295 -0.08844794
0000e0 00 61 07 3e 0c 84 20 be 3d d1 2c 3e 93 b4 1d be
       0.13220596 -0.15675372 0.16876693 -0.15400915
0000f0 7b 8d 66 be 91 27 67 3e b1 50 38 be 97 b0 73 3e
       -0.22514908 0.22573687 -0.17999531 0.23797832

exp_avg f4 [7]
000000 9d d3 9b bb 8b 7d 5b bb 4a de 5c bb bc cb 46 bb
       -0.004755451 -0.0033491577 -0.003370183 -0.0030333837
000010 f8 89 66 bb 56 28 a1 bb 14 69 30 bb
       -0.003517745 -0.0049181385 -0.00269181

exp_avg_sq f4 [7]
000000 b0 8e 42 38 0f 93 d7 37 53 95 cb 37 9e e4 cd 37
       4.6386092e-05 2.5698477e-05 2.426902e-05 2.4544363e-05
000010 8d a0 b4 37 89 7a 5e 38 64 bf a5 37
       2.1532434e-05 5.3043044e-05 1.9758656e-05

exp_avg f4 [64, 21]
000000 7b db 02 bb 6e e3 81 3a a0 ff 04 bc 33 ce 14 bc
       -0.0019967246 0.0009909698 -0.008117586 -0.009082365
000010 df 0b 9d 3a 57 80 56 39 49 50 95 ba 8b 29 10 b9
       0.0011981687 0.0002045644 -0.0011391725 -0.00013748386
000020 80 bf 13 39 be a9 00 39 97 c4 c3 b8 98 05 a1 9e
       0.00014090352 0.00012270265 -9.334942e-05 -1.7048852e-20
000030 98 62 87 ba 05 bd 01 bc 94 60 57 a0 33 a8 bd 1e
       -0.0010329066 -0.007918601 -1.8243163e-19 2.0080719e-20
000040 90 df bc 8a b5 06 0d bc 7b db 02 3b 04 a3 04 bb
       -1.8187836e-32 -0.008607556 0.0019967246 -0.0020238766
000050 83 a6 50 39 2b a7 09 ba cd 8e 94 39 47 60 a1 bb
       0.00019898456 -0.0005251045 0.00028335155 -0.004924807
000060 68 84 a9 bb c3 7b cc 39 c2 fd 8c b9 19 e0 ad b9
       -0.0051732548 0.00039002122 -0.00026891945 -0.00033164097
000070 7d af 81 b8 8b e8 84 38 fe f0 6d 38 f4 91 30 b8
       -6.1838866e-05 6.337565e-05 5.6729645e-05 -4.20976e-05
000080 72 27 03 9e 03 85 1d ba e0 0c 97 bb 9e a3 18 a0
       -6.943239e-21 -0.0006008895 -0.004609689 -1.2929037e-19
000090 1b 86 87 1a b4 aa 34 8a 3a 15 a4 bb 2b a7 09 3a
       5.605135e-23 -8.6987904e-33 -0.005007413 0.0005251045
0000a0 6b cc 67 ba 69 36 a5 39 e4 a7 5a ba d1 8f cf 39
       -0.00088424113 0.0003151179 -0.00083410577 0.00039589268
0000b0 63 eb 80 bb 75 b8 8c bb d0 58 0f 3a 31 f0 f0 37
       -0.0039343103 -0.00429445 0.0005468251 2.8722077e-05
0000c0 3c fb f3 b9 b5 fd 7e b8 c5 cc 82 38 d8 30 67 38
       -0.00046535756 -6.0794602e-05 6.237024e-05 5.512018e-05
0000d0 4f 6b 2c b8 24 38 02 9e c3 37 01 ba 93 b7 77 bb
       -4.1107935e-05 -6.893752e-21 -0.00049292686 -0.0037798628
0000e0 11 e4 dc 9f 92 03 ea 1d 34 a0 2c 8a 16 9a 86 bb
       -9.355093e-20 6.1942976e-21 -8.3116296e-33 -0.004107724
0000f0 e5 a7 5a 3a ad ff 68 ba 4a f3 21 39 3c 35 15 39
       0.0008341058 -0.00088881963 0.00015444789 0.00014229579
000100 3f 5d 4d b9 08 f9 82 3b 27 5a 8e 3b 1b 70 9b b8
       -0.0001958506 0.003996972 0.004344243 -7.411857e-05
000110 20 b4 df 39 32 b9 6d 39 54 0a 3a 38 29 3d 3e b8
       0.00042668078 0.00022671072 4.4355475e-05 -4.535649e-05
000120 6b 86 31 b8 4a f9 03 38 9b 4f 11 1e 54 61 00 3a
       -4.2325275e-05 3.1465002e-05 7.692698e-21 0.00048973155
000130 57 4e 76 3b 5a 46 05 20 ca 77 c9 1d c8 ec 18 0a
       0.0037583315 1.1288816e-19 5.3328116e-21 7.3630674e-33
000140 b7 ba 85 3b 3c 35 15 b9 a4 b8 33 3a 87 3b 7a b9
       0.004081096 -0.00014229579 0.00068558217 -0.00023864034
000150 59 1f d5 ba 50 66 64 3a 0b 2d 11 bc 41 ce 20 bc
       -0.0016259953 0.00087127555 -0.008860837 -0.0098148
000160 6a d0 79 3a 6c c4 cf b8 a8 27 81 ba 25 ef 0e b9
       0.00095296523 -9.9071156e-05 -0.0009853737 -0.00013631264
000170 17 61 12 39 1b 66 01 39 db 70 c4 b8 6f eb a8 9e
       0.00013959814 0.00012340436 -9.367029e-05 -1.7885065e-20
000180 8a 24 92 ba e8 14 0c bc bb cb 7a a0 05 6e 7f 1e
       -0.0011149806 -0.008549906 -2.1243232e-19 1.3522339e-20
000190 42 22 c0 8a 66 3b 18 bc 58 1f d5 3a da 2b 02 bb
       -1.8501814e-32 -0.009291505 0.0016259952 -0.0019862563
0001a0 4f 04 a3 39 dd f6 71 39 a9 d9 16 b9 1e c4 d5 3a
       0.00031092993 0.00023075515 -0.000143862 0.0016309058
0001b0 a2 bf f8 3a f6 77 db b8 68 4e 5a 38 88 63 29 39
       0.001897801 -0.00010465078 5.204827e-05 0.00016154174
0001c0 8a 43 cb 37 15 15 d0 b7 84 23 c2 b7 be 82 92 37
       2.4230936e-05 -2.480535e-05 -2.314314e-05 1.7465438e-05
0001d0 83 b3 98 1d 68 ad 59 39 0d b2 d0 3a 93 37 44 1f
       4.0419676e-21 0.00020759332 0.0015922204 4.1550584e-20
0001e0 db dd 86 9c e1 72 95 09 4c bf e2 3a dd f6 71 b9
       -8.924724e-22 3.5978477e-33 0.0017299443 -0.00023075515
0001f0 88 43 b8 39 00 42 22 b8 6a 8f ac 39 a9 f6 ed b8
       0.0003514553 -3.8685277e-05 0.00032913248 -0.00011346985
000200 69 88 70 3a 8c 2d 7f 3a 12 e6 80 b9 9e 31 e2 b8
       0.00091756 0.0009734265 -0.00024585478 -0.00010785762
000210 f8 ae 27 39 34 dc 91 37 98 e3 95 b7 c6 30 80 b7
       0.00015991542 1.7387887e-05 -1.7868166e-05 -1.5281501e-05
000220 e7 56 42 37 94 be 7b 1c f0 25 f1 38 63 f8 66 3a
       1.1583535e-05 8.329525e-22 0.00011498842 0.0008810816
000230 0b f1 ac 1e a4 06 8d 9d 1b 12 23 09 2e 32 7b 3a
       1.8310901e-20 -3.7329255e-21 1.9628924e-33 0.00095823675
000240 69 8f ac b9 4c 8e 6f 39 6a 00 19 b8 b1 e5 e2 3a
       -0.00032913245 0.00022845826 -3.647843e-05 0.0017310885
000250 cb 70 8b ba 68 e1 4e 3c 08 3a 64 3c 8f 43 80 ba
       -0.0010638473 0.012626983 0.013929851 -0.0009785759
000260 0e 23 0e 3a de e3 9e 3a 70 e7 3a 39 f9 41 3f b9
       0.00054220937 0.0012122353 0.0001782456 -0.00018239756
000270 69 bf 2a b9 88 1b 01 39 84 a2 f4 1e 55 bd ce 3a
       -0.00016283769 0.00012312655 2.590172e-20 0.0015772978
000280 4d 36 46 3c e6 b6 bb 20 2e b0 26 9e 74 aa 04 0b
       0.012097907 3.1800064e-19 -8.8244e-21 2.555051e-32
000290 8d 5a 57 3c b1 e5 e2 ba 10 17 2d 3b c0 b1 0a ba
       0.013144148 -0.0017310885 0.0026411451 -0.0005290769
0002a0 ac d0 aa 38 15 3c e7 38 4f 37 63 bb 8e 29 76 bb
       8.1451e-05 0.000110261295 -0.0034670418 -0.003756139
0002b0 ef 03 d3 b8 79 83 f8 b9 d7 43 c1 b8 0b 62 10 b8
       -0.00010061997 -0.000474002 -9.215593e-05 -3.4423585e-05
0002c0 66 b1 13 38 a0 d9 0e 38 13 11 d3 b7 6f 2d 09 9e
       3.5212746e-05 3.4058117e-05 -2.516111e-05 -7.262115e-21
0002d0 78 eb dc b9 0c f9 53 bb fb cf ef 9f a2 43 0d 9e
       -0.00042137108 -0.0032344488 -1.0156451e-19 -7.478464e-21
0002e0 f1 68 fd 89 f3 1f 66 bb ac d0 aa b8 3e 5d 0b ba
       -6.100622e-33 -0.0035114258 -8.1451e-05 -0.00053163234
0002f0 26 e4 73 39 4e a0 8b 39 8a 7d 1c b9 62 84 d7 3a
       0.00023259278 0.00026631582 -0.00014924086 0.0016442651
000300 4f f6 e2 3a 0b f1 34 b9 b0 37 8a 38 ec 91 3b 39
       0.0017315837 -0.00017255933 6.5907254e-05 0.0001788807
000310 99 20 c9 37 a9 f7 cc b7 03 08 ac b7 fc 31 85 37
       2.3976247e-05 -2.443402e-05 -2.0507729e-05 1.5878111e-05
000320 1a c9 5b 1d ac 77 55 39 e9 9d cc 3a 74 6f 38 1f
       2.9088376e-21 0.00020357844 0.0015611026 3.9055707e-20
000330 9d 06 59 9d 73 40 7d 09 a7 5c de 3a 4e a0 8b b9
       -2.872313e-21 3.0484071e-33 0.0016964868 -0.00026631582
000340 9c fa b8 39 b6 67 ae b8 a9 ac 2b 39 80 7b 0c b8
       0.00035281933 -8.316284e-05 0.00016372152 -3.349362e-05
000350 c1 21 c3 ba 92 79 c5 ba b4 c4 a6 b8 a6 fc 8f b9
       -0.0014887379 -0.0015066138 -7.952136e-05 -0.00027463323
000360 a6 93 61 38 fe 4f 0a b7 b6 c2 0f 37 5c 42 20 37
       5.378169e-05 -8.244066e-06 8.568799e-06 9.552194e-06
000370 c6 31 bb b6 10 54 f3 9c f9 a3 36 b9 79 64 af ba
       -5.5788287e-06 -1.6102121e-21 -0.00017417957 -0.0013381384
000380 52 8d 6f 9f 6e ca 0a 9e 43 02 3d 89 23 40 be ba
       -5.0727116e-20 -7.347521e-21 -2.2751111e-33 -0.0014514964
000390 a8 ac 2b b9 1a 85 13 b9 43 ea 1d 39 89 b8 66 ba
       -0.0001637215 -0.00014068597 0.00015059956 -0.00088013016
0003a0 18 1e 48 3a c1 08 4e bc 7e 54 62 bc 56 d8 e7 39
       0.0007633879 -0.012575329 -0.01381409 0.00044220936
0003b0 ce 17 84 ba 1c b3 5b ba bb d0 21 b9 a9 a7 25 39
       -0.0010077895 -0.00083808764 -0.00015431915 0.00015798084
0003c0 68 4e 17 39 5f 5d e1 b8 7a d1 f0 9e 05 90 cb ba
       0.00014429691 -0.00010746228 -2.5497626e-20 -0.0015530592
0003d0 2c 3c 43 bc 95 8b c9 a0 fb d2 11 9e d5 41 fb 8a
       -0.011916202 -3.4143092e-19 -7.719866e-21 -2.4195184e-32
0003e0 5a 0b 54 bc 89 b8 66 3a 89 cf 17 bb 64 c9 2c 3a
       -0.01294216 0.00088013016 -0.0023164472 0.0006591289
0003f0 87 2b f8 ba 42 e3 6e 3a f7 96 0d bc 57 c9 1b bc
       -0.0018933871 0.00091128435 -0.00864195 -0.009508452

exp_avg_sq f4 [64, 21]
000000 b8 82 eb 37 f9 a5 c8 36 48 4d ef 39 46 43 aa 39
       2.8075054e-05 5.9797862e-06 0.0004564321 0.0003247505
000010 38 b4 f1 38 89 20 e9 37 fe 39 91 37 4d 46 02 34
       0.00011525344 2.7790915e-05 1.7312352e-05 1.2132769e-07
000020 95 ba 04 34 48 32 9d 34 0e 31 9f 34 08 11 1f 01
       1.2361336e-07 2.9280113e-07 2.965175e-07 2.9215907e-38
000030 12 06 cc 36 1f 3a bb 39 2e ab 1f 03 1e 25 c3 01
       6.0803804e-06 0.00035710723 4.6922405e-37 7.168495e-38
000040 00 00 00 00 26 61 dd 39 b8 82 eb 37 58 aa 36 37
       0.0 0.00042224786 2.8075054e-05 1.0887707e-05
000050 13 1d f3 36 7c 5c ad 36 57 1f 50 35 a6 22 ef 38
       7.245349e-06 5.1665684e-06 7.7531644e-07 0.00011402862
000060 5f 87 be 38 16 67 8b 37 88 0a 9a 36 a7 bd 01 36
       9.085121e-05 1.6618094e-05 4.5907836e-06 1.933289e-06
000070 8c 0b 13 33 98 6d 16 33 64 1c a9 33 0f d4 ab 33
       3.4236606e-08 3.502427e-08 7.87484e-08 8.001381e-08
000080 bc 26 36 00 d4 4e cf 35 b0 36 be 38 75 f8 16 02
       4.973012e-39 1.5445644e-06 9.070092e-05 1.1091563e-37
000090 a3 f9 ee 00 00 00 00 00 9a f1 e0 38 7e 5c ad 36
       2.1946401e-38 0.0 0.00010726154 5.1665693e-06
0000a0 91 6b 2c 36 ac 4d c4 35 15 c9 da 36 92 72 a2 35
       2.569261e-06 1.4625743e-06 6.5203153e-06 1.2103285e-06
0000b0 b1 7f d5 38 82 f0 92 38 c2 e5 db 37 7f 3b ce 36
       0.00010180416 7.0066206e-05 2.6213824e-05 6.1462047e-06
0000c0 c2 3f 6a 36 5d 35 ed 32 3d a2 f1 32 0b a0 8a 33
       3.490583e-06 2.7614698e-08 2.812987e-08 6.4552374e-08
0000d0 5d 3c 8c 33 21 d2 45 00 d7 df b5 35 31 ef a6 38
       6.530238e-08 6.412029e-39 1.3550697e-06 7.96005e-05
0000e0 0d 76 10 02 73 99 aa 00 00 00 00 00 b6 58 c5 38
       1.0613328e-37 1.5667082e-38 0.0 9.410216e-05
0000f0 15 c9 da 36 c7 cd 1c 36 c9 7b d4 35 af c1 9e 36
       6.5203153e-06 2.336559e-06 1.5831257e-06 4.7313147e-06
000100 70 49 13 35 ba 61 b4 38 a7 f4 89 38 5f db 60 37
       5.4868633e-07 8.601272e-05 6.578239e-05 1.3402517e-05
000110 37 a6 60 36 68 82 93 35 b3 42 ea 32 8e b4 ee 32
       3.347535e-06 1.0990307e-06 2.7271517e-08 2.7788953e-08
000120 18 cb 71 33 74 75 75 33 fb 72 23 00 9b 8d 9b 35
       5.6296898e-08 5.715033e-08 3.25549e-39 1.1589613e-06
000130 08 c2 8e 38 d8 bc e7 01 10 c8 a9 00 00 00 00 00
       6.807229e-05 8.5126976e-38 1.5591968e-38 0.0
000140 26 c9 a8 38 af c1 9e 36 a3 91 fd 35 60 b7 99 35
       8.048331e-05 4.7313147e-06 1.8892355e-06 1.1452757e-06
000150 a7 05 ff 37 82 36 c1 36 ce 17 05 3a 54 85 ba 39
       3.0401001e-05 5.7581938e-06 0.00050770945 0.00035576022
000160 29 43 04 39 50 c3 fa 37 c2 1c 89 37 88 8a 12 34
       0.0001261352 2.9893272e-05 1.6345064e-05 1.3647707e-07
000170 db 4a 15 34 3e 5c ac 34 80 9b ae 34 0a 45 29 01
       1.3903939e-07 3.2104612e-07 3.2523167e-07 3.108993e-38
000180 cd 9e e3 36 86 e5 d0 39 41 a7 32 03 a0 0b db 01
       6.783614e-06 0.0003984386 5.2501497e-37 8.0464576e-38
000190 00 00 00 00 bb fb f6 39 a7 05 ff 37 bd 8f 40 37
       0.0 0.0004710833 3.0401001e-05 1.14775585e-05
0001a0 81 60 00 37 3a f8 95 35 ad 11 7a 34 85 7d 9d 37
       7.651864e-06 1.1173609e-06 2.3289495e-07 1.8774308e-05
0001b0 fb 77 57 37 6c db 9a 36 47 e4 98 35 05 f6 31 35
       1.2842934e-05 4.6151017e-06 1.139132e-06 6.6295644e-07
0001c0 c7 13 b8 31 55 9d bb 31 d8 a2 50 32 af 4a 52 32
       5.3573532e-09 5.460303e-09 1.214422e-08 1.224059e-08
0001d0 10 02 0d 00 da fe 85 34 3e fd 75 37 27 7b d4 00
       1.194601e-39 2.495861e-07 1.46621005e-05 1.9513304e-38
0001e0 9a be 1f 00 00 00 00 00 01 65 91 37 3a f8 95 35
       2.915275e-39 0.0 1.733238e-05 1.1173609e-06
0001f0 bf 02 e3 34 65 e0 9d 34 11 c1 f8 34 2a 2c f3 33
       4.2284043e-07 2.9406797e-07 4.6334074e-07 1.1323603e-07
000200 e7 89 c7 36 97 c4 80 36 65 ee 00 36 e3 76 f8 34
       5.946716e-06 3.8375833e-06 1.921225e-06 4.62801e-07
000210 77 96 a9 34 4f c4 c0 30 32 33 c3 30 50 99 6c 31
       3.158818e-07 1.4025633e-09 1.4202668e-09 3.4429668e-09
000220 83 3d 6f 31 48 be 04 00 86 ef a7 33 4a 1c 9a 36
       3.4814043e-09 4.35602e-40 7.8201126e-08 4.592851e-06
000230 28 22 45 00 f8 68 08 00 00 00 00 00 d1 38 b6 36
       6.348902e-39 7.7234e-40 0.0 5.430637e-06
000240 11 c1 f8 34 18 59 33 34 f1 04 ec 33 c0 5b 64 38
       4.6334074e-07 1.6703086e-07 1.0990505e-07 5.4444885e-05
000250 98 00 16 37 81 53 7b 3a 96 ee 33 3a 9d 31 5f 39
       8.940835e-06 0.0009587333 0.000686386 0.0002128542
000260 98 3f 57 38 e5 ea c9 37 ef 68 90 34 4f 41 93 34
       5.131922e-05 2.4070448e-05 2.689844e-07 2.7428402e-07
000270 c7 85 24 35 4e a5 26 35 4d 42 90 01 51 b1 57 37
       6.128943e-07 6.208037e-07 5.299238e-38 1.2856283e-05
000280 de f4 45 3a ed 12 a7 03 1c f3 58 02 00 00 00 00
       0.00075514417 9.819723e-37 1.5938943e-37 0.0
000290 88 0a 6a 3a c0 5b 64 38 e6 75 b0 37 64 de 65 37
       0.0008927961 5.4444885e-05 2.1035736e-05 1.3701243e-05
0002a0 85 a3 47 36 66 0a 0e 35 5a 2d 8a 38 49 d2 4a 38
       2.9748492e-06 5.2914254e-07 6.5888e-05 4.8356396e-05
0002b0 11 a9 2d 37 2b d6 56 36 97 19 8c 35 09 f3 a1 32
       1.0350967e-05 3.2013147e-06 1.043826e-06 1.8853386e-08
0002c0 47 97 a5 32 ec 4f 33 33 ac 1f 36 33 6f ac 20 00
       1.9277321e-08 4.1749374e-08 4.2403983e-08 3.000593e-39
0002d0 e2 e5 6d 35 10 55 5a 38 af f1 b1 01 c6 5c 7e 00
       8.8623904e-07 5.205447e-05 6.536633e-38 1.1604553e-38
0002e0 00 00 00 00 54 11 81 38 83 a3 47 36 5a 27 c2 35
       0.0 6.154427e-05 2.9748487e-06 1.4465579e-06
0002f0 d7 8d 71 35 7c ff be 35 d3 2f 81 34 7f 0e a1 37
       8.99859e-07 1.4230459e-06 2.406292e-07 1.9199446e-05
000300 f7 b8 43 37 a6 e8 c2 36 e0 6c bb 35 47 5e 38 35
       1.1665971e-05 5.8087344e-06 1.3964273e-06 6.8682533e-07
000310 d1 30 b1 31 7a e4 b3 31 e1 30 3f 32 78 6b 41 32
       5.1569278e-09 5.2355604e-09 1.1128777e-08 1.1258514e-08
000320 80 98 0f 00 68 82 88 34 89 a9 7a 37 1f b4 e4 00
       1.432239e-39 2.5426857e-07 1.4940634e-05 2.1003108e-38
000330 f7 70 1b 00 00 00 00 00 55 1f 94 37 7b ff be 35
       2.520083e-39 0.0 1.7657565e-05 1.4230458e-06
000340 c7 c9 dd 34 f5 39 a2 34 bb e5 25 35 89 6b 07 34
       4.131127e-07 3.021702e-07 6.180159e-07 1.2611976e-07
000350 7a e1 5e 37 dd f7 1f 37 2e e9 0d 36 42 58 3b 35
       1.3284729e-05 9.534849e-06 2.1146366e-06 6.979136e-07
000360 e5 05 5a 34 d4 8a 80 31 2c d1 82 31 ca 28 03 32
       2.0304977e-07 3.7410732e-09 3.807278e-09 7.634478e-09
000370 13 04 05 32 27 fb 05 00 48 54 40 34 0f 7f 30 37
       7.742545e-09 5.49274e-40 1.7912055e-07 1.0520001e-05
000380 e6 62 91 00 64 95 17 00 00 00 00 00 cb b0 50 37
       1.3351625e-38 2.165808e-39 0.0 1.2438929e-05
000390 bb e5 25 35 fb 2e b3 34 d8 3f 41 34 0c 82 46 38
       6.180159e-07 3.337553e-07 1.7997752e-07 4.7327994e-05
0003a0 dc b3 ef 36 5b 02 6b 3a be 0d 2b 3a 4a 89 33 39
       7.1436934e-06 0.00089648896 0.000652518 0.00017121914
0003b0 9b 97 34 38 94 3b 8f 37 9f 7c 8b 34 25 5f 8e 34
       4.3056538e-05 1.7074672e-05 2.598144e-07 2.6518788e-07
0003c0 ec 59 19 35 28 6d 1b 35 68 16 6e 01 8b 1a 4a 37
       5.7127795e-07 5.7900843e-07 4.3729772e-38 1.2046318e-05
0003d0 8f 7c 39 3a d2 c5 99 03 cb 70 52 02 00 00 00 00
       0.00070757506 9.037949e-37 1.5460733e-37 0.0
0003e0 e5 4b 5b 3a 0c 82 46 38 c7 de a1 37 35 fd 4e 37
       0.0008365496 4.7327994e-05 1.9296434e-05 1.2337511e-05
0003f0 c4 12 ff 37 ea 65 cf 36 a0 85 00 3a 73 3f b3 39
       3.0407107e-05 6.180945e-06 0.0004902724 0.00034188814

exp_avg f4 [64]
000000 b4 06 0d bc 39 15 a4 bb 16 9a 86 bb b7 ba 85 3b
       -0.008607555 -0.0050074128 -0.004107724 0.004081096
000010 66 3b 18 bc 4c bf e2 3a 30 32 7b 3a 8d 5a 57 3c
       -0.009291505 0.0017299443 0.00095823687 0.013144148
000020 f2 1f 66 bb a7 5c de 3a 24 40 be ba 5a 0b 54 bc
       -0.0035114256 0.0016964868 -0.0014514965 -0.01294216
000030 11 a9 14 bc f4 09 26 bc 1a 48 31 bc 17 ff 0c bc
       -0.009073512 -0.010134209 -0.010820413 -0.00860574
000040 51 fd 8e 3c f6 82 b0 39 81 ed 11 bb 39 6a e1 b9
       0.017454775 0.0003366691 -0.0022266808 -0.00042994486
000050 3a 23 35 bb 80 24 a5 bb 2a 4b f0 ba 1d 2f 2a bc
       -0.0027639405 -0.0050397515 -0.0018332948 -0.010387209
000060 80 6c 8e bb e9 26 29 3b 97 44 fe bb 2c b2 74 3b
       -0.0043464303 0.0025810546 -0.0077596414 0.0037337644
000070 ab ea e0 3b 52 bd 9e 39 3c 2d c0 3a 7d 7e ae b9
       0.006863912 0.00030277163 0.0014661918 -0.00033282107
000080 10 a0 b3 3a 78 a8 0c bc a9 8c a7 3b b9 55 9b 39
       0.0013704319 -0.008585088 0.0051132035 0.00029627772
000090 9d 59 d0 3b a4 fe 17 bc 34 89 54 3b ec bd 04 bc
       0.006358339 -0.00927702 0.0032430412 -0.0081019215
0000a0 fa 3b 3d ba aa b5 57 39 8e 85 af bb 82 69 6c 3b
       -0.0007218715 0.00020571673 -0.005356497 0.003607363
0000b0 2c f3 80 3b 59 b1 dc 3b 25 1b 94 3a 13 bd 98 3b
       0.0039352383 0.0067350087 0.0011299594 0.0046612113
0000c0 31 4f a1 bc ed 66 21 39 bf 60 07 3c 4d 2a a8 bb
       -0.019691082 0.000153925 0.008262812 -0.005131996
0000d0 0d 72 15 bc d7 fb 2d 3c d2 db 18 3c c5 13 7d 3b
       -0.00912143 0.010619125 0.009329753 0.003861652
0000e0 35 79 28 bc 79 44 67 3b 01 26 74 bc 56 b3 b0 bb
       -0.010282804 0.0035288616 -0.014901639 -0.0053924723
0000f0 a9 fc 8b 3a e2 62 d9 39 a3 74 df ba 65 cf 76 3c
       0.0010680157 0.0004146314 -0.001704831 0.015064095

exp_avg_sq f4 [64]
000000 27 61 dd 39 99 f1 e0 38 b7 58 c5 38 25 c9 a8 38
       0.0004222479 0.000107261534 9.4102164e-05 8.04833e-05
000010 bf fb f6 39 03 65 91 37 d1 38 b6 36 8b 0a 6a 3a
       0.00047108342 1.7332384e-05 5.430637e-06 0.00089279626
000020 56 11 81 38 55 1f 94 37 cd b0 50 37 e5 4b 5b 3a
       6.1544284e-05 1.7657565e-05 1.2438931e-05 0.0008365496
000030 27 fb ed 39 bf 3a f0 39 1f 1b 28 3a 53 35 e7 39
       0.00045391286 0.00045820136 0.0006412733 0.00044099483
000040 8d 26 d3 3a ea fc 73 35 78 96 ce 37 d4 c4 37 36
       0.0016109511 9.089259e-07 2.4627181e-05 2.7383694e-06
000050 83 45 1e 38 7e 0f 18 39 78 76 97 37 69 4c 14 3a
       3.7734873e-05 0.00014501621 1.8055769e-05 0.0005657138
000060 7d 9a c0 38 ae 70 0f 38 b1 5b d4 39 9c 3b 8f 38
       9.184049e-05 3.4198798e-05 0.00040504106 6.8298745e-05
000070 5b ca 84 39 c6 11 78 35 76 01 63 37 64 b8 31 38
       0.00025327769 9.2413063e-07 1.35305945e-05 4.2371816e-05
000080 e0 96 79 37 6b 93 bf 39 e7 9d 3c 39 05 f9 21 37
       1.4876685e-05 0.00036540194 0.000179879 9.654327e-06
000090 a1 18 8d 39 62 4e 18 3a d6 76 05 39 81 1f d4 39
       0.00026911966 0.000581002 0.00012728138 0.00040459263
0000a0 0f c0 6e 36 b5 20 7a 36 8a 04 2c 39 d3 c3 98 38
       3.5576556e-06 3.727194e-06 0.00016404889 7.2844e-05
0000b0 46 98 92 38 41 e7 88 39 d2 55 5f 37 80 00 e8 38
       6.990186e-05 0.0002611224 1.3311817e-05 0.00011062715
0000c0 a7 a6 02 3b 97 cd 1c 37 12 74 b7 39 b2 11 0b 39
       0.0019935758 9.346192e-06 0.0003499096 0.00013262665
0000d0 54 53 0b 3a 00 79 15 3a f3 d3 ec 39 14 b0 9a 38
       0.0005314846 0.00057019293 0.00045171342 7.376089e-05
0000e0 f5 ba 10 3a b5 d2 8a 38 74 c8 98 3a 0a 03 21 39
       0.0005521023 6.6196e-05 0.0011656419 0.00015355289
0000f0 84 a7 00 37 eb 23 ed 35 f9 3d b3 37 c9 32 9d 3a
       7.668397e-06 1.766833e-06 2.1367321e-05 0.0011993285
