models/checkpoint_1400.pth (torch, 84010 bytes, 24 tensors)

policy_log_std f4 [7]
1.0927211 1.5549659 1.5714735 1.6117594 1.5211891 1.0824268 1.6488079
00000000: 49de 8b3f 1f09 c73f 0b26 c93f 224e ce3f
00000010: 53b6 c23f f68c 8a3f 230c d33f

fc1.weight f4 [64, 21]
0.0038744702 0.024783313 -0.16821742 0.02961825 0.2405648 -0.21041614 0.17609428 -0.0118096005
-0.18316495 -0.06958278 -0.024098938 -0.013433054 -0.20852503 0.06710367 -0.17289113 -0.077442616
-0.12287488 -0.022497287 0.16979964 -0.06200165 0.02478641 -0.010831807 -0.02518319 -0.19392022
0.2460759 -0.02266327 -0.02371412 -0.05190995 0.032882698 -0.00849717 0.030915463 0.17572552
0.038796112 -0.11917878 -0.13687022 0.19033535 0.11716886 0.12385954 -0.16367146 -0.12970884
0.04789637 0.08862334 0.14249396 -0.21563634 0.091722265 0.28044537 0.15893489 0.056926332
-0.1306855 0.22417693 -0.06917606 0.12203741 -0.16984092 -0.14318104 0.0069202175 0.01709434
0.028592661 0.076504216 0.108942404 0.055400997 -0.04431493 -0.0026543913 0.37793875 0.12089568
0.037094414 0.25849992 -0.22441377 0.0836879 0.12387557 0.035953876 -0.03427557 0.011725337
-0.11161745 -0.23422548 -0.058376238 -0.17968664 -0.07137886 -0.16442847 -0.017427936 -0.18920085
0.17555769 -0.15185499 -0.05631311 0.080922835 -0.04741794 0.16201569 -0.15238945 0.059930705
0.14070214 -0.13495313 0.23638661 -0.018475907 0.08671622 -0.151209 0.05344791 -0.16893995
0.06910313 0.07261047 0.1710094 0.06239982 0.071299806 -0.11739303 0.011328768 0.0655577
0.064581506 0.14548708 -0.1356254 0.027433177 -0.30902252 0.14968617 0.038230788 0.16790558
0.025981842 0.0912742 -0.060227245 0.18804543 -0.06577359 -0.15871172 -0.040002927 -0.09396216
-0.16620828 0.0876786 -0.07312015 -0.04587763 0.047920976 -0.26878 -0.27220187 -0.19314796
0.1076483 -0.038946077 0.19960645 -0.2271021 0.05223698 -0.024521139 -0.08690324 -0.20180212
0.038202457 0.08313309 -0.036636293 0.1000311 -0.043536335 -0.054748505 -0.19194017 -0.2317517
0.24714832 -0.13963963 -0.033793014 -0.120469384 -0.13720508 -0.037576858 -0.1801759 -0.06808419
0.008764667 -0.26632658 -0.2673052 0.030546948 -0.19383773 0.17644435 -0.2119573 0.06100659
-0.074767135 -0.058635622 0.04985486 -0.10421345 0.09347836 -0.21416269 0.25627854 0.0097389305
-0.09932231 0.06342403 -0.051625475 0.07725315 0.012065828 0.070339404 0.39990306 0.12481217
-0.046900265 -0.0031790712 0.18101518 -0.13717294 -0.076937616 -0.21070415 -0.03312692 0.158929
-0.105976805 -0.014710689 -0.19617593 -0.0716549 -0.17997095 -0.15010975 0.06289092 -0.03423827
-0.17285793 0.12506184 0.2299015 0.066986546 -0.03338146 0.1963157 0.049546544 -0.194205
0.0842513 -0.21523523 0.09834963 0.034872577 -0.16427417 -0.18191206 -0.09962046 0.11419225
0.20955212 0.0950434 0.030836444 -0.28460184 -0.22419135 0.1485243 0.21702762 0.17841378
0.0050350763 0.0861887 -0.20211798 -0.22998655 -0.023560693 -0.071270525 0.02441041 -0.2069386
-0.10578316 -0.17683603 -0.08950539 -0.17008893 -0.044032 0.43170735 -0.18546852 0.07329254
0.024378357 -0.13596487 0.14675094 -0.08353959 -0.07589803 0.31814522 -0.04456329 -0.15717821
-0.19985199 -0.15984897 0.16393717 -0.13119219 0.13430531 0.1730252 -0.13965738 0.16062562
0.06246702 0.19085313 -0.12834954 -0.0057745036 0.07500803 0.04392806 -0.26095498 -0.049705166
00000000: d3ea 7d3b 6006 cb3c 3041 2cbe f9a1 f23c
00000010: 9e56 763e 5477 57be 0f52 343e 0e7d 41bc
00000020: 988f 3bbe 6b81 8ebd 236b c5bc 5016 5cbc
00000030: 9687 55be a66d 893d 5f0a 31be 3c9a 9ebd
00000040: d3a5 fbbd 3b4c b8bc f5df 2d3e 71f5 7dbd
00000050: df0c cb3c e477 31bc fa4c cebc 0693 46be
00000060: 52fb 7b3e 52a8 b9bc 1d44 c2bc 879f 54bd
00000070: 02b0 063d b737 0bbc 6d42 fd3c 64f1 333e
00000080: ace8 1e3d 0114 f4bd b527 0cbe 45e7 423e
00000090: 3af6 ef3d 12aa fd3d 7e99 27be 65d2 04be
000000a0: fc2e 443d 2780 b53d f0e9 113e c6cf 5cbe
000000b0: e2d8 bb3d 8996 8f3e d4bf 223e 962b 693d
000000c0: 6bd2 05be a38e 653e 2eac 8dbd c0ee f93d
000000d0: c7ea 2dbe 0d9e 12be fec2 e23b 6e09 8c3c
000000e0: 283b ea3c 3eae 9c3d 321d df3d 28ec 623d
000000f0: 9283 35bd 4cf5 2dbb 3081 c13e 2798 f73d
00000100: 50f0 173d 1a5a 843e b9cc 65be 9064 ab3d
00000110: 7ab2 fd3d 5f44 133d 8a64 0cbd a11b 403c
00000120: b197 e4bd ced8 6fbe ec1b 6fbd c6ff 37be
00000130: 142f 92bd f05f 28be 08c5 8ebc debd 41be
00000140: 65c5 333e e07f 1bbe 93a8 66bd dfba a53d
00000150: 5039 42bd 71e7 253e fb0b 1cbe e679 753d
00000160: 3914 103e 2731 0abe 550f 723e c95a 97bc
00000170: 4698 b13d 88d6 1abe 32ec 5a3d 98fe 2cbe
00000180: f185 8d3d ccb4 943d 171d 2f3e f496 7f3d
00000190: a205 923d c26b f0bd 4c9c 393c 1e43 863d
000001a0: 4f43 843d 91fa 143e 63e1 0abe 8bbb e03c
000001b0: 3338 9ebe 5547 193e e397 1c3d 71ef 2b3e
000001c0: dfd7 d43c f8ed ba3d d8b0 76bd fb8e 403e
000001d0: 4eb4 86bd 5385 22be 1cda 23bd 3c6f c0bd
000001e0: 8132 2abe d690 b33d 04c0 95bd 2fea 3bbd
000001f0: c948 443d 889d 89be 0b5e 8bbe 94c8 45be
00000200: b676 dc3d ec85 1fbd a265 4c3e 748d 68be
00000210: 72f6 553d 8ee0 c8bc 53fa b1bd 37a5 4ebe
00000220: 2e7a 1c3d ae41 aa3d f00f 16bd 1bdd cc3d
00000230: 2853 32bd f83f 60bd f78b 44be 5150 6dbe
00000240: 7314 7d3e b1fd 0ebe 8b6a 0abd a7b8 f6bd
00000250: 7d7f 0cbe 31ea 19bd 0880 38be b96f 8bbd
00000260: ae99 0f3c f55b 88be 3adc 88be 983d fa3c
00000270: 667d 46be d4ad 343e 560b 59be 0ce2 793d
00000280: 831f 99bd e82b 70bd 9c34 4c3d dc6d d5bd
00000290: 9571 bf3d 774d 5bbe f136 833e 0990 1f3c
000002a0: 7f69 cbbd 75e4 813d 3c75 53bd e636 9e3d
000002b0: c0af 453c 1b0e 903d 18c0 cc3e 869d ff3d
000002c0: 7e1a 40bd f757 50bb 0b5c 393e 1077 0cbe
000002d0: 7891 9dbd d4c2 57be 18b0 07bd 49be 223e
000002e0: 5e0a d9bd 1a05 71bc 58e2 48be cebf 92bd
000002f0: 4e4a 38be 5fb6 19be f4cc 803d 6e3d 0cbd
00000300: ab01 31be 3610 003e 4c6b 6b3e 3e30 893d
00000310: ffba 08bd fc06 493e 51f1 4a3d addd 46be
00000320: f28b ac3d a066 5cbe 886b c93d 8cd6 0e3d
00000330: 7d37 28be 2847 3abe d005 ccbd a0dd e93d
00000340: d594 563e 1da6 c23d b69c fc3c 55b7 91be
00000350: 6b92 65be c116 183e 7d3c 5e3e 1ab2 363e
00000360: 48fd a43b b383 b03d 04f8 4ebe 9881 6bbe
00000370: 5b02 c1bc 48f6 91bd 57f8 c73c b6e7 53be
00000380: d7a4 d8bd 8114 35be 9a4e b7bd cb2b 2ebe
00000390: e65a 34bd bf08 dd3e 76eb 3dbe 661a 963d
000003a0: 1fb5 c73c 603a 0bbe e145 163e ce16 abbd
000003b0: 6d70 9bbd eee3 a23e ff87 36bd 53f3 20be
000003c0: 00a6 4cbe 73af 23be 25df 273e 3f57 06be
000003d0: 5587 093e 852d 313e 5802 0fbe 0b7b 243e
000003e0: 6bdd 7f3d 016f 433e 106e 03be 0c38 bdbb
000003f0: cf9d 993d e9ed 333d e49b 85be a597 4bbd

fc1.bias f4 [64]
0.005906287 -0.05562877 -0.09573812 0.13794914 -0.01385681 0.11115314 -0.22135969 0.08951189
-0.048634388 -0.21290874 -0.105812155 -0.17955686 0.13851996 -0.13216099 -0.1055834 -0.11169871
-0.06348337 0.12165871 -0.19419834 0.044750273 0.14436312 -0.1495837 0.06125864 0.111711144
-0.091790274 0.18382058 0.040137984 0.14041622 -0.22148241 -0.19412974 0.068320595 0.13553624
0.19312273 -0.2357126 -0.011419862 -0.20658883 -0.18351421 -0.06674111 0.0642132 0.1472704
-0.06715578 0.12245894 -0.1515712 0.20155549 0.104233384 -0.046957918 -0.1734556 0.13639389
0.0008015634 0.006722319 -0.13657376 0.054790467 0.18268608 -0.037854996 -0.1282301 0.20462112
0.01747512 0.2087558 0.059807263 0.025548555 0.15260653 -0.19918458 -0.020738812 0.044660803
00000000: 8789 c13b feda 63bd 5912 c4bd 8a42 0d3e
00000010: ac07 63bc 42a4 e33d 1dac 62be 0352 b73d
00000020: da34 47bd c004 5abe 0bb4 d8bd c1dd 37be
00000030: 2dd8 0d3e 3655 07be 1c3c d8bd 4bc2 e4bd
00000040: 9203 82bd 3428 f93d eedb 46be 104c 373d
00000050: edd3 133e 782c 19be 57ea 7a3d d0c8 e43d
00000060: 8afc bbbd 763b 3c3e ba67 243d 45c9 0f3e
00000070: 49cc 62be f2c9 46be abeb 8b3d 03ca 0a3e
00000080: f7c1 453e a55e 71be 5f1a 3bbc 068c 53be
00000090: 26eb 3bbe 90af 88bd 3682 833d 0dce 163e
000000a0: f888 89bd c1cb fa3d 7b35 1bbe 9064 4e3e
000000b0: 5078 d53d f256 40bd 589e 31be d7aa 0b3e
000000c0: 0220 523a e646 dc3b fed9 0bbe f86b 603d
000000d0: 0f12 3b3e d70d 1bbd c04e 03be 3388 513e
000000e0: fc27 8f3c 15c4 553e 76f8 743d 344b d13c
000000f0: e344 1c3e 0bf7 4bbe 71e4 a9bc 3fee 363d

fc2.weight f4 [64, 64]
-0.014439533 0.025010856 0.0725061 -0.03981511 -0.108831316 0.09773747 0.052070588 0.39023286
-0.04147778 0.081990816 -0.049823303 -0.25577122 -0.20406704 -0.049209572 -0.088530526 0.034056634
0.049653526 0.047286157 -0.22749239 -0.104118854 -0.043808967 -0.10698238 -0.07867583 -0.09266418
0.025814097 0.13421567 -0.0024887638 -0.030275848 0.111167915 -0.0042016953 0.08309825 0.10636513
0.09659006 -0.19005777 -0.112055816 0.05582562 0.07873667 0.15846594 -0.17007545 -0.027252693
-0.14153951 -0.043177664 -0.22944227 0.07252482 -0.025457053 -0.0015566731 -0.0410731 -0.028185746
-0.100308016 0.19982329 0.18160914 -0.16951743 -0.022398999 0.18310766 0.028362758 0.12518346
-0.2530898 -0.056110572 -0.34399483 -0.0023356795 -0.07438976 -0.068443365 -0.076702036 0.23920861
-0.16128202 -0.10162338 -0.10998219 0.093038335 -0.009888949 -0.023739878 0.10027748 0.1951117
-0.18110016 -0.02671803 0.021211926 -0.36769024 -0.20675303 -0.2976149 -0.115189224 -0.108919814
0.16637744 -0.09137063 -0.17699175 0.012918462 0.08272594 -0.1820317 -0.08608344 -0.10634451
-0.012741884 0.05325175 0.05240572 0.071876876 0.23266533 0.0131081985 0.036049664 0.14122136
0.1362274 -0.18880227 0.079019174 -0.1666089 -0.07621851 -0.050205056 -0.07451316 0.0018255315
0.008969365 -0.060062755 0.013553893 0.07240717 0.035685237 0.14147879 0.071695864 0.056950446
-0.31925997 0.08163644 0.18153131 -0.05422718 0.07464235 0.015743945 0.14372118 0.0706654
-0.08124419 0.10859784 -0.23550406 -0.10554503 0.018746411 -0.04232812 -0.053228304 0.06723615
0.12434879 0.15405284 0.13657142 -0.040511627 0.067060545 -0.05034493 0.051862337 -0.14322932
0.039714884 -0.15033256 0.054118086 0.104201645 0.052082893 0.2429197 0.11470387 0.044257894
-0.32429016 -0.050089497 0.015675582 -0.01146512 0.11304933 0.16497408 0.023016939 0.124256834
-0.035753 0.06667192 0.1440041 -0.061222326 -0.18791524 -0.14023255 -0.13875741 -0.037424475
0.06903916 0.015068689 0.004207572 0.024819948 -0.07812822 0.002397545 0.13021375 0.014234961
0.043026987 -0.13366164 0.10316666 -0.14878897 -0.1328036 -0.048583448 0.0572876 -0.13150966
0.3178372 -0.17609647 -0.106575094 0.074018724 -0.003028652 -0.19025436 -0.10959093 -0.07356604
0.03376236 -0.15296751 0.20927931 0.0313933 -0.0016197171 -0.053558152 0.008506975 -0.21832772
0.033669148 -0.1438556 -0.09706557 0.04583213 -0.15406199 0.036628112 0.03794617 0.19943748
-0.19776982 -0.03751487 -0.14130469 -0.30689657 -0.21493012 -0.121708795 -0.19322586 -0.15291716
0.11825591 0.0994289 -0.24106747 0.03928424 -0.068976626 -0.14401422 -0.07120999 -0.10570799
-0.07568622 0.08254874 0.05127182 0.014435181 0.20045133 0.10527865 -0.021821165 0.105680734
0.12251859 -0.074832454 -0.12322491 -0.12135575 0.062043242 0.03732254 -0.014078622 -0.02678143
0.022654139 -0.020737313 -0.03963052 -0.04056863 0.16512097 -0.030400788 -0.12479386 -0.048231304
-0.18318221 0.023410315 0.24352731 -0.0944475 0.033393584 0.22855566 0.20376591 0.19381538
-0.18470295 0.1638331 -0.39992538 -0.02227697 0.15227143 0.040623635 -0.09518843 0.19373403
00000000: cb93 6cbc 91e3 cc3c 147e 943d 2b15 23bd
00000010: f4e2 debd 952a c83d f847 553d 9acc c73e
00000020: 9be4 29bd cdea a73d 8513 4cbd 72f4 82be
00000030: f3f6 50be fa8f 49bd 7e4f b5bd f87e 0b3d
00000040: 7f61 4b3d 21af 413d c4f3 68be 443c d5bd
00000050: 0871 33bd 9419 dbbd cb20 a1bd b8c6 bdbd
00000060: 1678 d33c d56f 093e 871a 23bb 0e05 f8bc
00000070: 01ac e33d 60ae 89bb 6a2f aa3d f6d5 d93d
00000080: 02d1 c53d 819e 42be 857d e5bd 68a9 643d
00000090: b140 a13d e544 223e 4228 2ebe 0a41 dfbc
000000a0: bcef 10be 10db 30bd eaf2 6abe e587 943d
000000b0: 4f8b d0bc 4809 ccba 443c 28bd cbe5 e6bc
000000c0: 4a6e cdbd 7a9e 4c3e bff7 393e fa95 2dbe
000000d0: 1b7e b7bc 9380 3b3e 0459 e83c 1830 003e
000000e0: fc94 81be 33d4 65bd 1720 b0be 3312 19bb
000000f0: a959 98bd 092c 8cbd f515 9dbd 1af3 743e
00000100: 1d27 25be eb1f d0bd 583e e1bd e28a be3d
00000110: 4205 22bc 227a c2bc 485e cd3d 5dcb 473e
00000120: 5272 39be c5df dabc a2c4 ad3c e541 bcbe
00000130: 11b7 53be fb60 98be 54e8 ebbd 5a11 dfbd
00000140: d95e 2a3e 8620 bbbd 533d 35be f5a7 533c
00000150: 386c a93d 8566 3abe 844c b0bd 27cb d9bd
00000160: 56c3 50bc 821e 5a3d 61a7 563d 2f34 933d
00000170: d23f 6e3e c5c3 563c d0a8 133d 559c 103e
00000180: 327f 0b3e 6255 41be ced4 a13d 869b 2abe
00000190: 7318 9cbd d1a3 4dbd 5b9a 98bd ac46 ef3a
000001a0: 3ef4 123c 5d04 76bd 2611 5e3c 364a 943d
000001b0: af2a 123d d1df 103e 48d5 923d df44 693d
000001c0: 0b76 a3be 0131 a73d 58e3 393e 521d 5ebd
000001d0: 17de 983d 72f9 803c a52b 133e 05b9 903d
000001e0: 5b63 a6bd 8b68 de3d fa27 71be fe27 d8bd
000001f0: 1392 993c 4060 2dbd ec05 5abd 1bb3 893d
00000200: 94aa fe3d 07c0 1d3e 61d9 0b3e 85ef 25bd
00000210: 0a57 893d 7c36 4ebd 9a6d 543d b5aa 12be
00000220: 13ac 223d c7f0 19be edaa 5d3d ac67 d53d
00000230: df54 553d f1bf 783e dde9 ea3d c447 353d
00000240: 5c09 a6be a52a 4dbd 146a 803c 33d8 3bbc
00000250: 6886 e73d f7ee 283e 058e bc3c 5e7a fe3d
00000260: bd71 12bd 4a8b 883d d075 133e 43c4 7abd
00000270: da6c 40be 1f99 0fbe 6c16 0ebe 684a 19bd
00000280: 6764 8d3d aae2 763c acdf 893b 3453 cb3c
00000290: b001 a0bd 2120 1d3b c156 053e c139 693c
000002a0: 113d 303d 99de 08be 0b49 d33d 235c 18be
000002b0: abfd 07be 70ff 46bd 67a6 6a3d 78aa 06be
000002c0: 8fbb a23e a252 34be 0b44 dabd 2197 973d
000002d0: 597c 46bb 0ad2 42be 3671 e0bd cba9 96bd
000002e0: 674a 0a3d 84a3 1cbe 514d 563e 4396 003d
000002f0: b04c d4ba cb5f 5bbd d760 0b3c 4d91 5fbe
00000300: a9e8 093d e24e 13be 50ca c6bd 79ba 3b3d
00000310: 6dc2 1dbe 5c07 163d 716d 1b3d 5739 4c3e
00000320: 2c84 4abe 31a9 19bd 2db2 10be 8c21 9dbe
00000330: a416 5cbe 7642 f9bd 00dd 45be 5196 1cbe
00000340: 2830 f23d 61a1 cb3d 64da 76be 83e8 203d
00000350: 9e43 8dbd 7778 13be 8bd6 91bd 6e7d d8bd
00000360: 6001 9bbd 500f a93d 6602 523d 8a81 6c3c
00000370: 1d43 4d3e 559c d73d 4dc2 b2bc 246f d83d
00000380: 07eb fa3d c241 99bd 575d fcbd 5d89 f8bd
00000390: 0e21 7e3d 85df 183d 05aa 66bc bb64 dbbc
000003a0: 2c95 b93c 4ce1 a9bc 9d53 22bd 4b2b 26bd
000003b0: 7915 293e 130b f9bc ec93 ffbd 308e 45bd
000003c0: 1e94 3bbe fdc6 bf3c 395f 793e b16d c1bd
000003d0: b6c7 083d 7f0a 6a3e 03a8 503e 8a77 463e
000003e0: c522 3dbe ddc3 273e 05c3 ccbe 317e b6bc
000003f0: 0bed 1b3e f864 263d 27f2 c2bd 3762 463e

fc2.bias f4 [64]
0.14521267 -0.028860498 -0.05184797 0.11068305 0.12652893 0.06244815 -0.06534466 0.009878387
0.08837987 -0.13089311 -0.09703812 -0.14119537 -0.09655504 -0.018095123 0.081459954 -0.027218502
0.06751199 -0.027813515 0.06826431 -0.02736873 0.12616411 0.0448778 0.15738876 -0.11600012
-0.16145657 -0.16698056 0.11570939 -0.080120295 0.1151499 -0.09042002 -0.022434901 -0.051708624
-0.059865892 0.041512847 0.11381567 0.04780028 0.12716223 -0.14449872 -0.17744002 0.0637025
0.14403243 -0.09893425 -0.115179785 0.13015357 0.12712196 -0.031562466 0.15946046 -0.10807139
0.034858767 0.09111025 -0.08295419 0.026769586 0.05212918 0.09932304 0.0899012 -0.09144274
0.004696877 0.057182536 0.05692325 0.07388702 -0.01068495 0.03074661 -0.022194674 0.066947795
00000000: a1b2 143e da6c ecbc 895e 54bd cbad e23d
00000010: cd90 013e a2c9 7f3d 6cd3 85bd f5d8 213c
00000020: 8100 b53d d808 06be ecbb c6bd 8595 10be
00000030: a6be c5bd 393c 94bc 7ad4 a63d 56f9 debc
00000040: ba43 8a3d 2bd9 e3bc 29ce 8b3d 6334 e0bc
00000050: 2a31 013e c9d1 373d 852a 213e 7991 edbd
00000060: df54 25be f4fc 2abe 0bf9 ec3d 1c16 a4bd
00000070: b6d3 eb3d 222e b9bd 66c9 b7bc 6ccc 53bd
00000080: f035 75bd 6009 2a3d 3118 e93d 3aca 433d
00000090: d136 023e 79f7 13be d6b2 35be 7576 823d
000000a0: 3d7d 133e 0a9e cabd 61e3 ebbd fa46 053e
000000b0: 422c 023e a547 01bd 9a49 233e 8854 ddbd
000000c0: 11c8 0e3d 0398 ba3d e3e3 a9bd e44b db3c
000000d0: 6885 553d e169 cb3d 1f1e b83d 5546 bbbd
000000e0: 43e8 993b 3c38 6a3d 5b28 693d 1452 973d
000000f0: ee0f 2fbc 51e0 fb3c 9bd1 b5bc ed1b 893d

policy_mean.weight f4 [7, 64]
0.11646762 0.096769206 -0.16467977 0.14433813 0.20090668 0.11673445 0.19725893 0.14482898
0.2684387 -0.10174984 -0.12637584 -0.18609957 -0.11375902 0.1154504 0.14831474 -0.0057315696
-0.20725939 -0.2175115 0.18012272 0.010809101 0.08972546 -0.20632355 0.10180628 -0.044488896
-0.17128666 -0.09614954 0.08976701 -0.004255006 0.21737476 -0.017688865 0.14969042 0.21443236
-0.06776772 -0.20296076 0.1123761 -0.241546 0.1896242 -0.18134302 -0.12003422 -0.12466061
0.13465443 0.0562268 -0.026340412 0.21971065 0.17942321 -0.1511998 0.14459942 0.11769566
-0.0798659 0.09525925 0.07849418 0.10875008 -0.06093058 -0.06539649 -0.113432735 -0.023601033
0.012651183 0.121242076 -0.066625334 0.215612 0.045624577 -0.15459488 0.17023347 0.15488237
-0.24269506 -0.07848337 0.20922838 -0.20591654 -0.09252528 0.028897269 -0.20266739 0.06539601
-0.14944018 0.149287 0.042166613 0.18369776 -0.026360223 0.05991184 0.08326285 -0.1185084
0.21474513 0.18546401 -0.15493868 0.026164442 -0.005715146 0.06904727 -0.1872864 0.17823216
0.13162047 0.19428307 0.06845653 -0.017081339 -0.11322563 0.1271201 -0.008022082 -0.052369907
0.028784247 0.051529918 -0.042394403 0.28263956 -0.1705136 -0.050919972 0.12244825 0.00042508985
-0.079388954 -0.17728752 0.16762367 -0.25502357 -0.17355293 -0.023548884 -0.17974424 -0.10430223
0.14982288 -0.16298722 -0.03573254 -0.055879697 -0.1630721 0.021756172 0.11427572 0.07644738
0.11238252 -0.1469734 0.17296177 -0.16609973 -0.010832334 -0.014428087 -0.08349421 -0.1357335
0.11774476 0.26905322 -0.20265454 0.10555507 0.15794054 -0.087256804 0.22009693 0.19280837
0.26194382 -0.08304406 -0.19230118 -0.15414867 -0.17513289 0.03260397 0.17623477 0.06732118
-0.11439912 -0.18034229 0.1714521 -0.15678452 0.0059626605 0.032202348 0.00011880696 -0.020220995
-0.10609481 -0.22312883 -0.03809477 0.18024543 0.24249835 -0.13906072 0.043316346 0.12670681
-0.028602075 -0.008876158 0.04297518 -0.14743306 0.0666526 -0.026901925 0.027109189 -0.01556026
0.0339273 0.07355712 0.031184316 0.24868912 0.010337114 -0.023876095 0.008121108 0.17797506
0.046968486 0.08154088 0.04180341 0.014018892 0.02080904 0.09633323 -0.16552791 -0.00024475303
0.11417813 0.19089876 -0.041252006 0.18714862 -0.03942112 -0.20781747 0.14746742 0.1836028
-0.10705922 -0.31500962 0.15386383 -0.19705218 -0.0005542429 -0.071302526 -0.08271692 0.07309961
-0.27582815 0.07394381 0.03577807 0.033674687 0.10267899 -0.11923207 0.0074875546 -0.013051739
0.24796212 0.19991776 -0.21360058 0.15820333 -0.071982786 0.09000996 -0.13716824 0.18548843
0.04111581 0.23015839 0.054998834 -0.1301026 -0.20396385 0.15261845 0.10496272 -0.17437895
0.07146388 0.20307682 -0.14080206 0.13603443 -0.036774583 0.095588386 0.14071776 -0.07867719
-0.15902296 -0.062125772 0.14687845 -0.2277634 -0.17413753 0.050752807 -0.0495728 -0.15173818
0.02590402 0.02444989 0.041046605 -0.18776968 -0.05751837 0.07959641 0.04449844 -0.07404583
0.11019722 -0.1447981 0.070211746 -0.03583283 -0.031825174 -0.052888054 -0.07761873 0.03119642
00000000: 9386 ee3d ef2e c63d d0a1 28be 60cd 133e
00000010: 7bba 4d3e 7912 ef3d 3ffe 493e 0c4e 143e
00000020: cc70 893e 3862 d0bd ab68 01be e390 3ebe
00000030: 7dfa e8bd 4271 ec3d d2df 173e e4cf bbbb
00000040: ce3b 54be 56bb 5ebe 1772 383e a818 313c
00000050: fbc1 b73d 7b46 53be d07f d03d fd39 36bd
00000060: c565 2fbe 0dea c4bd c4d7 b73d 946d 8bbb
00000070: 7d97 5e3e 3de8 90bc 7248 193e 2894 5b3e
00000080: cdc9 8abd f2d4 4fbe 7125 e63d d657 77be
00000090: d92c 423e fcb1 39be 80d4 f5bd 104e ffbd
000000a0: dae2 093e 134e 663d d9c7 d7bc d4fb 603e
000000b0: b8ba 373e 1fd4 1abe df11 143e 6c0a f13d
000000c0: bc90 a3bd 4817 c33d 8fc1 a03d 5db8 de3d
000000d0: 5892 79bd 98ee 85bd 6c4f e8bd f456 c1bc
000000e0: e846 4f3c c44d f83d dd72 88bd 64c9 5c3e
000000f0: d6e0 3a3d 1f4e 1ebe af51 2e3e 7c99 1e3e
00000100: 0e85 78be e4bb a0bd f73f 563e c9db 52be
00000110: e57d bdbd f7b9 ec3c 0a88 4fbe 58ee 853d
00000120: d906 19be b1de 183e e6b6 2c3d 441b 3c3e
00000130: 65f1 d7bc 1e66 753d b785 aa3d 88b4 f2bd
00000140: 26e6 5b3e 47ea 3d3e 3fa8 1ebe d056 d63c
00000150: 1f46 bbbb a868 8d3d 02c8 3fbe 7e82 363e
00000160: 84c7 063e 24f2 463e f032 8c3d 2aee 8bbc
00000170: d7e2 e7bd c62b 023e 0d6f 03bc d481 56bd
00000180: f1cc eb3c 0911 533d c1a5 2dbd 22b6 903e
00000190: 1e9b 2ebe 7691 50bd 26c6 fa3d 98de de39
000001a0: ad96 a2bd dc8a 35be 8aa5 2b3e 7392 82be
000001b0: dcb7 31be 97e9 c0bc e00e 38be 689c d5bd
000001c0: 2b6b 193e 1fe6 26be 495c 12bd 1ce2 64bd
000001d0: 5ffc 26be 003a b23c 6409 ea3d 7290 9c3d
000001e0: cf28 e63d 3280 16be e41c 313e 0c16 2abe
000001f0: 1a7a 31bc c863 6cbc 03ff aabd b9fd 0abe
00000200: 2a24 f13d 58c1 893e ac84 4fbe 422d d83d
00000210: 2abb 213e b2b3 b2bd 1761 613e 8f6f 453e
00000220: 801d 863e 0113 aabd 9aea 44be 26d9 1dbe
00000230: 0956 33be be8b 053d e376 343e b0df 893d
00000240: 164a eabd a6ab 38be 2491 2f3e 1f8c 20be
00000250: 6c62 c33b 9ce6 033d 0028 f938 80a6 a5bc
00000260: 3c48 d9bd e27b 64be 4309 1cbd 4292 383e
00000270: 7d51 783e ef65 0ebe 7b6c 313d 6ebf 013e
00000280: e64e eabc 4e6d 11bc be06 303d b1f8 16be
00000290: 2981 883d 6d61 dcbc 1714 de3c 76f0 7ebc
000002a0: 5af7 0a3d 1ea5 963d 4076 ff3c 5ca8 7e3e
000002b0: 005d 293c cd97 c3bc 650e 053c 183f 363e
000002c0: 0762 403d e8fe a63d 0d3a 2b3d 7faf 653c
000002d0: b877 aa3c 5b4a c53d 2680 29be 3252 80b9
000002e0: 39d6 e93d f77a 433e ddf7 28bd e3a3 3f3e
000002f0: 0a78 21bd 1ace 54be b301 173e 5f02 3c3e
00000300: dd41 dbbd f148 a1be 7b8e 1d3e 0cc8 49be
00000310: 9d4a 11ba 0f07 92bd 7d67 a9bd 40b5 953d
00000320: 5939 8dbe da6f 973d 078c 123d 78ee 093d
00000330: 5d49 d23d f22f f4bd 295a f53b f6d6 55bc
00000340: c8e9 7d3e 3eb7 4c3e 1cba 5abe 0e00 223e
00000350: b66b 93bd 2457 b83d d575 0cbe aef0 3d3e
00000360: 0d69 283d a4ae 6b3e 7546 613d 9e39 05be
00000370: e6db 50be 0348 1c3e b2f6 d63d 6590 32be
00000380: a85b 923d 5ff3 4f3e 6a2e 10be 9c4c 0b3e
00000390: f2a0 16bd d8c3 c33d 5118 103e 8221 a1bd
000003a0: ead6 22be 9877 7ebd 4e67 163e cf3a 69be
000003b0: 1c51 32be 2de2 4f3d d90c 4bbd 4161 1bbe
000003c0: ab34 d43c 234b c83c 7c20 283d b246 40be
000003d0: 6298 6bbd 7103 a33d ff43 363d 57a5 97bd
000003e0: 15af e13d f445 14be 2dcb 8f3d 72c5 12bd
000003f0: 1d5b 02bd 25a1 58bd 92f6 9ebd a28f ff3c

policy_mean.bias f4 [7]
0.14857757 -0.12724577 0.12501375 -0.04619798 -0.0631779 -0.14345999 0.077670604
00000000: b824 183e b74c 02be 9b03 003e 183a 3dbd
00000010: 6a63 81bd 2de7 12be c411 9f3d

value_head.weight f4 [1, 64]
0.19176869 0.06291838 -0.022408063 0.12233156 0.13830161 0.26744133 -0.15309711 -0.1580263
-0.047577173 -0.28117764 0.15329844 -0.16132635 0.19019328 0.24458864 -0.19650611 -0.2012214
-0.15804286 0.082565665 0.12163038 -0.2656516 0.23593022 0.25796014 0.21869695 -0.21463446
-0.121593274 -0.15871854 -0.26211402 -0.2973375 -0.16513605 0.041547675 -0.2664308 -0.0990761
-0.1852737 -0.1664011 0.27207178 3.253967e-05 -0.19744836 -0.22775356 -0.23942016 0.21310145
-0.29123515 -0.122213826 0.2921143 0.050721183 -0.07212787 0.21596068 0.20397429 -0.07906212
0.09599983 -0.19406287 -0.25014126 0.29754138 0.22947355 0.26052332 0.078214325 -0.18548618
0.16754255 -0.155939 0.16076571 -0.1480889 -0.2669442 0.22995636 -0.18034554 0.24608251
00000000: 035f 443e 5adb 803d 1d91 b7bc f888 fa3d
00000010: f09e 0d3e 12ee 883e 7dc5 1cbe a5d1 21be
00000020: 48e0 42bd 84f6 8fbe 44fa 1c3e bc32 25be
00000030: 07c2 423e 7275 7a3e e638 49be fc0c 4ebe
00000040: fdd5 21be 3018 a93d 5919 f93d 7d03 88be
00000050: b197 713e 5a13 843e 18f2 5f3e 23c9 5bbe
00000060: e505 f9bd 1d87 22be cf33 86be 9f3c 98be
00000070: 6d19 29be e52d 2a3d 9e69 88be 69e8 cabd
00000080: 64b8 3dbe 0d65 2abe fe4c 8b3e 347b 0838
00000090: e72f 4abe 3b38 69be 8f2a 75be 4437 5a3e
000000a0: c61c 95be 3e4b fabd 0190 953e 04c1 4f3d
000000b0: c7b7 93bd cc24 5d3e a3de 503e 52eb a1bd
000000c0: 8f9b c43d 6bb8 46be 8412 80be 5857 983e
000000d0: 1dfb 6a3e 5063 853e d52e a03d 17f0 3dbe
000000e0: 4690 2b3e 79ae 1fbe c49f 243e 9ea4 17be
000000f0: e9ac 88be ae79 6b3e 80ac 38be 0efd 7b3e

exp_avg f4 [7]
-0.0032749975 -0.0031508561 -0.0027931593 -0.0030134502 -0.0027929966 -0.0039304076 -0.0025054354
00000000: 57a1 56bb 987e 4ebb 700d 37bb 4e7d 45bb
00000010: b50a 37bb a6ca 80bb 3b32 24bb

exp_avg_sq f4 [7]
6.916109e-05 2.5521425e-05 2.4759003e-05 2.4592762e-05 2.58927e-05 6.6699955e-05 2.7192984e-05
00000000: 940a 9138 d816 d637 8eb1 cf37 8e4c ce37
00000010: 2634 d937 44e1 8b38 7d1c e437

exp_avg f4 [64, 21]
-0.00013674257 0.00020164183 -0.004319287 -0.004777244 -0.00014473488 -0.0003180577 -0.0009724886 -8.191286e-05
7.6544005e-05 0.0003433111 -0.00038770458 -3.8190683e-20 -0.0005335421 -0.0040761586 -1.9747055e-19 1.980982e-19
5.152016e-33 -0.004446184 0.00013674257 -0.0007351838 0.00024312828 -0.00016153445 0.00011449993 -0.0029437807
-0.0030810162 2.338696e-05 -0.00021062174 -0.00064625 -5.299993e-05 4.8906295e-05 0.0002507789 -0.0002832167
-2.6993109e-20 -0.00035722373 -0.0027289505 -1.4186869e-19 1.4146502e-19 4.3504488e-33 -0.0029768643 0.00016153441
-0.00047172376 0.00021482856 -9.292501e-05 0.0003607179 -0.0011148115 -0.00131744 -0.00022410286 -0.00017842196
-0.00035229287 -2.6506612e-05 2.4445733e-05 0.0001342923 -0.00013581266 -1.4818005e-20 -0.00013394223 -0.0010217516
-6.170861e-20 6.9716824e-20 1.223533e-33 -0.0011161851 9.2925016e-05 -0.0004946601 9.306019e-05 0.00013341675
-4.9176947e-06 0.0024512843 0.002504698 -0.0001495703 0.00020280622 0.00056642416 4.2043426e-05 -3.8784976e-05
-0.00020060224 0.00023476666 2.0591855e-20 0.00029914957 0.0022860651 1.1989245e-19 -1.1349262e-19 -4.076299e-33
0.002492914 -0.00013341675 0.00030406716 -0.00016521949 -0.00019909322 7.405265e-05 -0.0049610315 -0.0052976287
8.192938e-05 -0.00037701157 -0.0011070683 -9.0012116e-05 8.408054e-05 0.0003831597 -0.00044275972 -4.087254e-20
-0.0006109193 -0.0046685953 -2.307009e-19 2.1904079e-19 6.636031e-33 -0.0050909943 0.00019909319 -0.00068497186
0.00029243718 7.0150694e-05 -0.0001898396 0.0013717032 0.0015586125 0.00011850259 0.0001465346 0.00035141557
2.847648e-05 -2.6562024e-05 -0.00012758133 0.00013712216 1.4092532e-20 0.00016845205 0.0012863815 6.6821505e-20
-6.979156e-20 -1.5407109e-33 0.0014037676 -7.0150694e-05 0.0003582917 -8.5321066e-05 5.024174e-05 -7.988555e-05
0.0009555122 0.0010841847 0.0001165529 1.6249292e-05 0.00015759516 1.9292647e-05 -1.8076258e-05 -7.724336e-05
8.048412e-05 9.827952e-21 0.000116379684 0.00088861346 3.9933992e-20 -4.4464813e-20 -6.890445e-34 0.0009698302
-5.024174e-05 0.00019626517 -6.689864e-05 0.00035502383 0.00033084684 0.007910927 0.008145359 -0.0006050049
0.00051430764 0.0017470475 0.000134093 -0.00012401235 -0.0006181549 0.00073858065 6.402627e-20 0.000976778
0.0074652927 3.8573567e-19 -3.593117e-19 -1.3350504e-32 0.008139817 -0.00035502383 0.00064593117 -0.0004456344
-0.0001487698 -0.00027275135 -0.002297805 -0.0020917617 0.000464784 -0.0001503011 -0.00047447483 -3.3300043e-05
3.0608906e-05 0.00016548004 -0.00020875566 -1.4979335e-20 -0.00027756896 -0.0021229186 -1.1671922e-19 9.420765e-20
4.652863e-33 -0.0023130756 0.00014876979 -4.8177e-06 0.00017488685 3.891017e-05 5.7330617e-05 0.00068102614
0.0006801057 -5.738338e-05 6.2272334e-06 0.00012368588 1.1130956e-05 -1.0103328e-05 -5.6442124e-05 6.643144e-05
6.399533e-21 8.3160725e-05 0.0006353469 3.4588615e-20 -3.3915542e-20 -1.27196405e-33 0.0006930061 -3.891017e-05
2.5830113e-05 -4.5678953e-05 -2.8500392e-05 3.5056488e-05 -0.00020097004 -0.00011006131 0.00016084984 -0.00016337461
-0.00020655288 -2.2234499e-06 1.6360705e-06 3.5107758e-05 -4.8043607e-05 -6.079202e-22 -2.31714e-05 -0.00017761572
-2.2084152e-20 1.3986083e-20 1.4787239e-33 -0.00019309501 2.8500392e-05 -5.8227924e-05 2.335418e-05 -0.00045263066
-0.00014598836 -0.008936052 -0.009182498 0.0005833477 -0.0006579736 -0.0020576245 -0.00015384034 0.0001417522
0.00073670206 -0.0008666458 -7.5954005e-20 -0.0010958662 -0.008374364 -4.458328e-19 4.208552e-19 1.5347032e-32
-0.009132216 0.00045263072 -0.00094987743 0.00056168565 -0.00017002125 0.00010053357 -0.0049911067 -0.0054904437
00000000: 8e62 0fb9 d16f 5339 ce88 8dbb 6d8a 9cbb
00000010: f9c3 17b9 fbc0 a6b9 9bee 7eba a2c8 abb8
00000020: 4086 a038 70fe b339 d444 cbb9 b459 349f
00000030: 67dd 0bba 4c91 85bb d021 69a0 82df 6920
00000040: a201 d609 4bb1 91bb 8e62 0f39 5ab9 40ba
00000050: 40f0 7e39 9361 29b9 af1f f038 72ec 40bb
00000060: e0ea 49bb 1d2f c437 58da 5cb9 1a69 29ba
00000070: 3e4c 5eb8 bc20 4d38 f97a 8339 b47c 94b9
00000080: 55f1 fe9e c249 bbb9 31d8 32bb 2e7d 27a0
00000090: 2e03 2720 e8b5 b409 7f17 43bb 9061 2939
000000a0: b151 f7b9 9a43 6139 bce0 c2b8 bd1e bd39
000000b0: de1e 92ba f3ad acba 27fd 6ab9 c816 3bb9
000000c0: f3b3 b8b9 845a deb7 d010 cd37 d1d0 0c39
000000d0: ef68 0eb9 bdf3 8b9e d872 0cb9 4bec 85ba
000000e0: 91b4 919f 3c9d a41f 574b cb08 f54c 92ba
000000f0: bde0 c238 14ac 01ba 4f29 c338 c9e5 0b39
00000100: ad02 a5b6 baa5 203b dc25 243b f9d5 1cb9
00000110: 61a8 5439 157c 143a c957 3038 0dad 22b8
00000120: c158 52b9 b22b 7639 0d7c c21e 2dd7 9c39
00000130: cfd1 153b 458b 0d20 0afd 05a0 a552 a989
00000140: 2860 233b c9e5 0bb9 346b 9f39 c53e 2db9
00000150: aec3 50b9 b74c 9b38 2690 a2bb bb97 adbb
00000160: 80d1 ab38 a3a9 c5b9 0c1b 91ba e3c4 bcb8
00000170: 6554 b038 d3e2 c839 3422 e8b9 de03 419f
00000180: 1a26 20ba 04fb 98bb 892e 88a0 824c 8120
00000190: 31d3 090a 5bd2 a6bb acc3 5039 af8f 33ba
000001a0: 4152 9939 de1d 9338 ae0f 47b9 b9ca b33a
000001b0: 5b4a cc3a 9884 f838 15a7 1939 333e b839
000001c0: c6e0 ee37 83d1 deb7 5ac7 05b9 73c8 0f39
000001d0: a719 851e 81a2 3039 cd9b a83a 1fc7 9d1f
000001e0: 69ca a49f 98fe ff88 a0fe b73a de1d 93b8
000001f0: 19d9 bb39 66ee b2b8 a8ba 5238 3a88 a7b8
00000200: 577b 7a3a 341b 8e3a dd6d f438 174f 8837
00000210: 2140 2539 a5d6 a137 78a2 97b7 b7fd a1b8
00000220: 95c9 a838 0fa5 391e de10 f438 d7f1 683a
00000230: 3c95 3c1f a9fa 519f 6cf9 6488 343c 7e3a
00000240: a8ba 52b8 88cc 4d39 ef4b 8cb8 7e22 ba39
00000250: 8375 ad39 d59c 013c 1d74 053c 3199 1eba
00000260: 9ad2 063a 30fd e43a 519b 0c39 5009 02b9
00000270: ac0b 22ba 4f9d 413a 812d 971f 3b07 803a
00000280: 6a9f f43b bab2 e320 a619 d4a0 baa3 8a8a
00000290: de5c 053c 7e22 bab9 b553 293a 09a4 e9b9
000002a0: 17ff 1bb9 1100 8fb9 c596 16bb f015 09bb
000002b0: 41ae f339 259a 1db9 efc2 f8b9 a6ab 0bb8
000002c0: 1062 0038 b684 2d39 6ce5 5ab9 cf79 8d9e
000002d0: ad86 91b9 aa20 0bbb 38cc 09a0 0871 de1f
000002e0: ba45 c109 f896 17bb 16ff 1b39 baa7 a1b6
000002f0: d561 3739 7a33 2338 4876 7038 e486 323a
00000300: 1f49 323a efae 70b8 87f3 d036 adb1 0139
00000310: 18bf 3a37 7781 29b7 45bc 6cb8 1c51 8b38
00000320: 7cc4 f11d 9366 ae38 698d 263a 1257 231f
00000330: 6029 209f 5e57 d388 daaa 353a 7a33 23b8
00000340: bfad d837 6797 3fb8 2014 efb7 9e09 1338
00000350: 7cbb 52b9 b7d0 e6b8 cda9 2839 8a4f 2bb9
00000360: 1e96 58b9 9436 15b6 f496 db35 ab40 1338
00000370: 6e82 49b8 8cbb 379c 3460 c2b7 5b3e 3ab9
00000380: 3494 d09e 4618 841e f5b1 f508 8c79 4ab9
00000390: 2014 ef37 c239 74b8 b8e8 c337 0f4f edb9
000003a0: 7414 19b9 8568 12bc 3072 16bc cdeb 183a
000003b0: dc7b 2cba 36d9 06bb 3450 21b9 51a3 1439
000003c0: 3d1f 413a 9d2f 63ba 6157 b39f 2ba3 8fba
000003d0: a134 09bc 2d96 03a1 d76d f820 695f 9f0a
000003e0: 4a9f 15bc 114f ed39 3201 79ba 163e 133a
000003f0: bb47 32b9 8dd5 d238 708c a3bb 2ee9 b3bb

exp_avg_sq f4 [64, 21]
2.6996522e-05 1.2455876e-05 0.0003122064 0.00021855684 5.0628274e-05 2.5537009e-05 1.3401118e-05 1.3690348e-07
1.4364926e-07 3.885727e-07 4.230204e-07 2.9706235e-38 4.0952414e-06 0.00024071835 3.2582667e-37 6.462428e-38
0.0 0.00028439242 2.6996517e-05 1.5303236e-05 6.4842275e-06 8.662801e-06 4.1208755e-06 0.00015058923
0.00012221931 1.3189429e-05 1.0408189e-05 5.66704e-06 7.193276e-08 7.5385486e-08 2.1729028e-07 2.374388e-07
9.07058e-39 2.0266143e-06 0.00011914756 1.4814287e-37 3.7592718e-38 0.0 0.00014073722 8.662801e-06
6.849637e-06 2.34685e-06 4.6675395e-06 1.8460407e-06 4.0599603e-05 2.8023602e-05 7.855806e-06 3.921941e-06
2.462784e-06 1.6565487e-08 1.7334312e-08 5.1164328e-08 5.5408613e-08 4.703968e-39 5.2580964e-07 3.0924024e-05
4.243142e-38 8.52579e-39 0.0 3.6514484e-05 4.6675395e-06 2.1629478e-06 1.0183365e-06 3.850361e-06
3.2490107e-06 0.000107401545 8.6221866e-05 7.912005e-06 6.5525146e-06 4.050316e-06 5.1027893e-08 5.3567565e-08
1.5468814e-07 1.6932962e-07 3.973847e-39 1.4358101e-06 8.4422514e-05 1.0384698e-37 2.7336898e-38 0.0
9.970896e-05 3.850361e-06 5.4510797e-06 1.723138e-06 2.5324876e-05 1.5103354e-05 0.00040358523 0.00029057462
5.4322318e-05 3.1181367e-05 1.7426439e-05 1.7874406e-07 1.8784668e-07 5.28185e-07 5.7568485e-07 2.864067e-38
5.3124536e-06 0.00031232706 4.1422208e-37 8.8810883e-38 0.0 0.00036892074 2.5324876e-05 1.9843657e-05
8.029687e-06 4.157904e-06 1.4353267e-06 3.8763705e-05 2.7874708e-05 6.7672895e-06 3.4792065e-06 1.7420593e-06
1.678261e-08 1.7573226e-08 5.008996e-08 5.435914e-08 4.2535e-39 5.110435e-07 3.0047693e-05 4.0896352e-38
8.210558e-39 0.0 3.548912e-05 4.157904e-06 1.8905391e-06 7.8471635e-07 2.978901e-06 1.3967707e-06
2.3525912e-05 1.2269616e-05 7.122974e-06 2.943589e-06 1.2905275e-06 7.819164e-09 8.100506e-09 1.8614925e-08
1.9908928e-08 3.331887e-39 3.0465517e-07 1.7903196e-05 2.7696717e-38 2.843508e-39 0.0 2.1156573e-05
2.978901e-06 1.4266046e-06 5.6681375e-07 4.396313e-05 3.7787177e-05 0.0011257791 0.00085287605 0.000100720565
8.1188235e-05 4.787995e-05 5.078038e-07 5.340304e-07 1.5550235e-06 1.6980781e-06 4.8230995e-38 1.49017815e-05
0.0008762698 1.1108217e-36 2.6605925e-37 0.0 0.0010348477 4.396313e-05 5.523513e-05 2.1001775e-05
4.0180284e-06 3.964143e-06 0.00011543563 8.648719e-05 7.439484e-06 8.788637e-06 5.707204e-06 4.9272092e-08
5.178996e-08 1.52238e-07 1.6525905e-07 3.406597e-39 1.5131599e-06 8.8990055e-05 1.0967024e-37 2.6108191e-38
0.0 0.00010508054 4.0180284e-06 5.8263736e-06 2.436522e-06 5.160849e-07 4.829623e-07 1.0134785e-05
7.2914772e-06 1.0001314e-06 8.4817316e-07 5.739674e-07 4.3293187e-09 4.561547e-09 1.353267e-08 1.4643824e-08
4.98763e-40 1.3240856e-07 7.786276e-06 9.928986e-39 2.26887e-39 0.0 9.195032e-06 5.160849e-07
6.2952506e-07 2.2354897e-07 2.7352366e-06 8.7874645e-07 2.1268474e-05 1.4450407e-05 2.8926784e-06 2.4032745e-06
9.899903e-07 7.6733215e-09 7.9435125e-09 1.9132074e-08 2.0389141e-08 2.010527e-39 2.806346e-07 1.6488859e-05
2.0917944e-38 3.048919e-39 0.0 1.9488489e-05 2.7352366e-06 1.254189e-06 4.590055e-07 6.3355925e-05
5.4777505e-05 0.0015879554 0.0012081614 0.00014054039 0.00011389614 7.2055125e-05 7.1740607e-07 7.542576e-07
2.2039665e-06 2.4017615e-06 6.89579e-38 2.0963475e-05 0.0012327357 1.5513555e-36 3.7940625e-37 0.0
0.0014557971 6.3355925e-05 8.051702e-05 3.0772993e-05 3.274693e-05 1.6145057e-05 0.00040303226 0.0002789875
00000000: 9776 e237 94f9 5037 a2af a339 682c 6539
00000010: b259 5438 4f38 d637 5dd5 6037 beff 1234
00000020: 023e 1a34 069d d034 7b1b e334 73bc 2101
00000030: db69 8936 5769 7c39 03bf dd02 8dec af01
00000040: 0000 0000 811a 9539 9476 e237 735f 8037
00000050: 1793 d936 7256 1137 0d46 8a36 7de7 1d39
00000060: ff27 0039 2b48 5d37 d59e 2e37 8127 be36
00000070: 7479 9a33 9ce3 a133 4c50 6934 aef2 7e34
00000080: 16c5 6200 f800 0836 dcde f938 42a4 4902
00000090: 9aac 4c01 0000 0000 dc92 1339 7256 1137
000000a0: efd5 e536 937e 1d36 dc9d 9c36 7ac5 f735
000000b0: 7e49 2a38 3a14 eb37 6ecc 0337 3799 8336
000000c0: 4f46 2536 e44b 8e32 8ee6 9432 c6bf 5b33
000000d0: 6afa 6d33 c038 3300 5d25 0d35 6bb4 0138
000000e0: c504 6701 6fd6 5c00 0000 0000 2127 1938
000000f0: dc9d 9c36 2927 1136 c7ad 8835 5932 8136
00000100: 9409 5a36 c43c e138 03d2 b438 cdbd 0437
00000110: acdd db36 f3e7 8736 c329 5b33 2912 6633
00000120: 5a18 2634 f9d0 3534 7845 2b00 0fb6 c035
00000130: fe0b b138 6459 0d02 13d6 1401 0000 0000
00000140: d71a d138 5932 8136 6be8 b636 9246 e735
00000150: c270 d437 6964 7d37 4b98 d339 4458 9839
00000160: 25d8 6338 bdc8 0238 fe2e 9237 cbec 3f34
00000170: e7b2 4934 99c8 0d35 c388 1a35 45ef 1b01
00000180: a141 b236 d4bf a339 d5f3 0c03 27c4 f101
00000190: 0000 0000 b46b c139 c270 d437 ee75 a637
000001a0: 3eb7 0637 2084 8b36 73a5 c035 3696 2238
000001b0: 7bd4 e937 9312 e336 507c 6936 b4d0 e935
000001c0: 5a29 9032 eff3 9632 7e22 5733 8278 6933
000001d0: 0751 2e00 a42e 0935 ee0e fc37 32a9 5e01
000001e0: b267 5900 0000 0000 27da 1438 2084 8b36
000001f0: 6ebe fd35 4ca5 5235 21e9 4736 ad78 bb35
00000200: 8359 c537 99d9 4d37 e101 ef36 798a 4536
00000210: 3036 ad35 0c55 0632 672a 0b32 a7e6 9f32
00000220: 3204 ab32 f247 2400 7d8f a334 d22e 9637
00000230: 97cb 1601 8bf6 1e00 0000 0000 6579 b137
00000240: 21e9 4736 c379 bf35 2527 1835 0d65 3838
00000250: ac7d 1e38 e18e 933a 8b93 5f3a f139 d338
00000260: 9a43 aa38 b4d2 4838 0350 0835 4a5a 0f35
00000270: 33b6 d035 85e9 e335 194c 8301 aa02 7a37
00000280: 79b5 653a 1cff bc03 0f12 b502 0000 0000
00000290: baa3 873a 0d65 3838 45ac 6738 f82c b037
000002a0: 9ad2 8636 bb03 8536 0816 f238 7560 b538
000002b0: aea0 f936 e972 1337 8280 bf36 3d9f 5333
000002c0: aa6f 5e33 dd76 2334 1072 3134 3518 2500
000002d0: c717 cb35 2ca0 ba38 8046 1502 8225 0e01
000002e0: 0000 0000 af5e dc38 9ad2 8636 2b80 c336
000002f0: 2183 2336 1689 0a35 eba4 0135 9208 2a37
00000300: 50a9 f436 413c 8635 04ae 6335 bd12 1a35
00000310: 17c1 9431 cbbb 9c31 507d 6832 3894 7b32
00000320: 596e 0500 302c 0e34 cda1 0237 f91d 6c00
00000330: b0b4 1800 0000 0000 5d44 1a37 1689 0a35
00000340: a2fc 2835 ac08 7034 028f 3736 ffe2 6b35
00000350: b369 b237 0770 7237 d61f 4236 f147 2136
00000360: cfdf 8435 a0d3 0332 f077 0832 e057 a432
00000370: 3224 af32 88e4 1500 20aa 9634 8e51 8a37
00000380: b8c6 e300 2533 2100 0000 0000 367b a337
00000390: 028f 3736 9b55 a835 3c6d f634 f4dd 8438
000003a0: e6c0 6538 f122 d03a 2b5b 9e3a 065e 1339
000003b0: 86db ee38 4d1c 9738 c593 4035 3078 4a35
000003c0: dbe7 1336 f32d 2136 a4b8 bb01 b8da af37
000003d0: bf93 a13a 88f9 0304 f21a 0103 0000 0000
000003e0: 72d0 be3a f4dd 8438 3fdb a838 4012 0138
000003f0: c059 0938 3f6f 8737 134e d339 1245 9239

exp_avg f4 [64]
-0.004446184 -0.0029768648 -0.0011161854 0.002492913 -0.0050909943 0.0014037676 0.0009698304 0.008139816
-0.0023130754 0.00069300603 -0.00019309508 -0.009132217 -0.0051664864 -0.006630189 -0.0062383073 -0.0055099865
0.009822642 0.0001377741 -0.0016143097 -0.00034282883 -0.0023881225 -0.002142303 -0.0008562298 -0.0054572457
-0.0022186937 0.001396522 -0.00489506 0.0011260407 0.0032475018 0.00023867382 0.0012709061 9.276221e-05
0.000565102 -0.0052889553 0.0029975325 2.1824924e-05 0.0032231924 -0.003193688 0.0009678452 -0.004472813
-0.0005123911 0.00033295227 -0.0027562291 0.0021909624 0.0026432932 0.0040150676 0.00020568298 0.0023774668
-0.010572229 0.00029400265 0.006592472 -0.0026450392 -0.0041547865 0.005268393 0.00610688 0.0023870938
-0.0067274575 0.001985471 -0.010088333 -0.0028219358 0.0004654843 0.00036612697 -0.0007712845 0.008470315
00000000: 4bb1 91bb 8117 43bb f84c 92ba 2460 233b
00000010: 5bd2 a6bb a0fe b73a 373c 7e3a dd5c 053c
00000020: f796 17bb d9aa 353a 9179 4ab9 4b9f 15bc
00000030: a14b a9bb 0e42 d9bb b76a ccbb 1e8d b4bb
00000040: 26ef 203c 7477 1039 3f97 d3ba b5bd b3b9
00000050: 0c82 1cbb e165 0cbb 9c74 60ba b2d2 b2bb
00000060: 8167 11bb 810b b73a bd66 a0bb a897 933a
00000070: 0ad4 543b 8444 7a39 8894 a63a 5589 c238
00000080: 5a23 143a f94e adbb 4072 443b ab14 b737
00000090: 323c 533b 324d 51bb feb6 7d3a ad90 92bb
000000a0: fc51 06ba 1990 ae39 daa1 34bb 4096 0f3b
000000b0: 1a3b 2d3b d490 833b 9bac 5739 46cf 1b3b
000000c0: 2437 2dbc 5e24 9a39 aa05 d83b 6558 2dbb
000000d0: e024 88bb 7ca2 ac3b 391c c83b ca70 1c3b
000000e0: 0172 dcbb ad1e 023b 8949 25bc 3af0 38bb
000000f0: 3f0c f439 bbf4 bf39 0730 4aba 13c7 0a3c

exp_avg_sq f4 [64]
0.00028439242 0.00014073719 3.6514488e-05 9.9708945e-05 0.00036892065 3.548912e-05 2.1156575e-05 0.0010348478
0.00010508053 9.195032e-06 1.948849e-05 0.0014557969 0.00036722672 0.0006580595 0.0006708734 0.00044124207
0.0015211139 6.6092167e-07 0.0001204931 5.925551e-06 8.471737e-05 8.804213e-05 1.4092812e-05 0.0005311695
7.694134e-05 3.8333717e-05 0.0004222322 3.658373e-05 0.00017425933 4.4980447e-06 1.9462159e-05 6.739988e-05
1.9415007e-05 0.00043189383 0.00022834358 3.6327856e-06 0.00028502956 0.00027696753 0.00013035 0.00033732757
3.3213425e-06 9.6771555e-06 0.00012794178 6.7376466e-05 0.00014397889 0.0002856693 4.407298e-06 0.000100571306
0.0017292583 5.2373867e-05 0.00068071904 0.00012525312 0.000293499 0.00042727363 0.00069124246 9.894451e-05
0.000645485 5.6555662e-05 0.001602415 0.00012753285 8.946882e-06 3.1733227e-06 3.55539e-05 0.0011198549
00000000: 811a 9539 da92 1339 2227 1938 d51a d138
00000010: b16b c139 27da 1438 6679 b137 bba3 873a
00000020: ae5e dc38 5d44 1a37 377b a337 70d0 be3a
00000030: 5688 c039 a081 2c3a 8ddd 2f3a 8256 e739
00000040: 1d60 c73a 316a 3135 3eb1 fc38 18d4 c636
00000050: 4baa b138 42a3 b838 2b70 6c37 2f3e 0b3a
00000060: 915b a138 84c8 2038 0c5f dd39 7b71 1938
00000070: 62b9 3639 e9ed 9636 ab42 a337 0959 8d38
00000080: 69dd a237 cf6f e239 836f 6f39 c8ca 7336
00000090: 0570 9539 f435 9139 90ae 0839 57db b039
000000a0: 3be4 5e36 115b 2237 1c28 0639 774c 8d38
000000b0: 0af9 1639 e2c5 9539 67e2 9336 cfe9 d238
000000c0: 48a8 e23a 03ac 5b38 4872 323a 6156 0339
000000d0: c5e0 9939 b203 e039 7f34 353a 6e80 cf38
000000e0: c435 293a 2e36 6d38 2008 d23a 57ba 0539
000000f0: 911a 1637 45f5 5436 b61f 1538 18c8 923a

exp_avg f4 [64, 64]
-0.000131322 -0.0002797862 0.00014409743 0.00024130147 -9.001869e-05 -0.00025062184 -0.0003505733 -0.00013547094
-9.517554e-05 -0.00040561575 -0.0004763146 9.371116e-05 -7.5371194e-05 -4.1960142e-05 8.059423e-05 -6.5928375e-06
3.1734395e-05 0.00047566296 0.0001450191 -0.00037556866 -7.075907e-05 0.00027333104 -0.00040875384 0.00019983081
0.0001656492 0.0003730018 0.000125049 0.00033772516 -0.0002011918 -0.00047478708 0.00040533653 -0.00010304494
0.00032645618 -3.0963194e-05 4.1000832e-05 0.00015454358 -0.000115822906 -5.819237e-05 4.3510056e-05 0.00024493042
-9.353761e-05 0.0003918717 0.0001799108 0.00029023146 0.000105210245 0.00011710986 0.00022868445 0.0002703609
-6.0108872e-05 -0.00013905425 -0.00021351024 0.00026245345 -8.1190534e-05 0.00013937229 -0.00011347447 0.00018504773
8.054567e-05 0.00036089445 5.0861283e-05 -0.00022496392 0.00060897146 -0.000302136 -0.0002244093 3.9618768e-05
-0.00014897576 -0.00034782698 0.00027774257 0.00030283318 -0.000118879274 -0.00026076418 -0.00039398333 -0.00011791846
-0.00013769353 -0.0005114633 -0.0005341665 7.176744e-05 -0.0001534583 -5.7969093e-05 9.4583025e-05 -4.78695e-05
-5.16812e-06 0.0005753694 0.00027410052 -0.00060808024 -0.0001496162 0.00039815638 -0.00049787405 0.00019701177
0.00023450902 0.00043697635 7.897714e-05 0.00033552118 -0.0003113007 -0.0006270068 0.0005270888 -0.00015228584
0.00036159478 -0.000120611236 -6.942388e-06 0.000114434224 -0.00012993245 -7.270195e-05 7.132539e-05 0.0002472671
-0.0001776527 0.0005490635 0.00020497887 0.00033854597 2.7254611e-05 0.00014730512 0.00026383554 0.00033847615
-4.0506737e-05 -0.0002087197 -0.00017914454 0.00037435943 -7.143753e-05 0.0001612099 -0.00014206614 0.00025405487
5.7950652e-05 0.00041059864 2.6183086e-05 -0.00022771044 0.00074266916 -0.0003985381 -0.00023411044 2.331491e-05
0.00013150337 0.00031860077 -0.00026781764 -0.00027767097 0.00010798037 0.00022905313 0.0003514462 9.850812e-05
0.00013002167 0.00047271108 0.0004838309 -5.802063e-05 0.00014677722 5.3723765e-05 -8.7219836e-05 4.9798226e-05
1.3929462e-05 -0.00052559545 -0.0002684052 0.00057630555 0.00014962885 -0.00037489054 0.00045371268 -0.00017099958
-0.00021850261 -0.0003955608 -6.329217e-05 -0.00029676754 0.0002984655 0.00057981454 -0.00048871496 0.00014239704
-0.00032517582 0.000121023135 1.7149805e-05 -9.134089e-05 0.0001159311 6.484847e-05 -6.786044e-05 -0.00021775185
0.0001726772 -0.0005140664 -0.00018780696 -0.00030580576 -1.2519574e-05 -0.00013511529 -0.00023601869 -0.00031095106
3.137874e-05 0.00019569369 0.00015305098 -0.00034913162 6.226165e-05 -0.00014677759 0.00012984556 -0.0002380124
-4.722098e-05 -0.0003671932 -1.760591e-05 0.00020121118 -0.00067826035 0.00036815443 0.00020855546 -1.7577115e-05
-9.346332e-05 -0.00019083545 0.00011909387 0.00016871664 -7.0742935e-05 -0.00012828626 -0.00021973366 -5.8881677e-05
-6.6181456e-05 -0.00026874922 -0.0002884271 3.78041e-05 -8.059978e-05 -3.7585924e-05 3.1647065e-05 -3.0586954e-05
2.0081297e-05 0.0003071349 0.00013620646 -0.00029369074 -7.4253076e-05 0.00019339874 -0.000267638 9.897096e-05
0.00010211633 0.00024351545 3.3330612e-05 0.00019595797 -0.0001410957 -0.0003304559 0.00027250557 -8.800177e-05
0.00018797946 -6.171694e-05 1.9132618e-05 8.657032e-05 -5.0092396e-05 -5.229577e-05 4.500442e-05 0.00012266361
-7.914836e-05 0.0002643713 9.835291e-05 0.0001825321 3.1889926e-05 9.33601e-05 0.00015091819 0.00018934623
-4.3862674e-05 -0.00012261634 -8.666359e-05 0.00018460097 -5.500565e-05 0.000100961646 -5.3942957e-05 0.0001326692
1.5135469e-05 0.00023114955 6.8561985e-06 -0.00013337172 0.00039374668 -0.00019948428 -0.00011879082 2.9123708e-05
00000000: 7bb3 09b9 45b0 92b9 dc18 1739 df05 7d39
00000010: 6bc8 bcb8 e565 83b9 27cd b7b9 340d 0eb9
00000020: fb98 c7b8 d3a8 d4b9 ddb9 f9b9 cc86 c438
00000030: 9a10 9eb8 5cfe 2fb8 b304 a938 0b38 ddb6
00000040: 8c1a 0538 6762 f939 4510 1839 f9e7 c4b9
00000050: 7d64 94b8 df4d 8f39 034e d6b9 ad89 5139
00000060: 1eb2 2d39 748f c339 961f 0339 b410 b139
00000070: 03f7 52b9 d8ec f8b9 5983 d439 d519 d8b8
00000080: 3528 ab39 7ade 01b8 4ff8 2b38 fa0c 2239
00000090: f3e5 f2b8 9513 74b8 917e 3638 016a 8039
000000a0: 9f29 c4b8 2174 cd39 70a6 3c39 352a 9839
000000b0: 52a4 dc38 e198 f538 04cb 6f39 3abf 8d39
000000c0: 691d 7cb8 17cf 11b9 b8e1 5fb9 e899 8939
000000d0: d644 aab8 7724 1239 24f9 edb8 5f09 4239
000000e0: a1ea a838 6f36 bd39 e353 5538 4be4 6bb9
000000f0: 62a3 1f3a 0268 9eb9 6a4f 6bb9 542c 2638
00000100: 6036 1cb9 8c5c b6b9 fa9d 9139 95c5 9e39
00000110: d34e f9b8 2db7 88b9 8c8f ceb9 fe4a f7b8
00000120: d361 10b9 b913 06ba 4f07 0cba da81 9638
00000130: a6e9 20b9 d723 73b8 e05a c638 7cc7 48b8
00000140: d069 adb6 63d4 163a 26b5 8f39 9367 1fba
00000150: 4be2 1cb9 a5bf d039 c383 02ba f294 4e39
00000160: 89e6 7539 f919 e539 87a0 a538 e4e8 af39
00000170: 1336 a3b9 b75d 24ba 552c 0a3a ebae 1fb9
00000180: 6e94 bd39 aaf0 fcb8 a9f2 e8b6 68fc ef38
00000190: 7a3e 08b9 9077 98b8 8794 9538 a1a3 8139
000001a0: 4948 3ab9 07ef 0f3a 99ef 5639 df7e b139
000001b0: d5a0 e437 eb75 1a39 6853 8a39 8075 b139
000001c0: c7e5 29b8 c5db 5ab9 bfd8 3bb9 ac45 c439
000001d0: bbd0 95b8 740a 2939 97f7 14b9 ab32 8539
000001e0: 0a10 7338 9e45 d739 c0a3 db37 8ec5 6eb9
000001f0: afaf 423a e1f2 d0b9 8b7b 75b9 6394 c337
00000200: 2be4 0939 df09 a739 e069 8cb9 5e94 91b9
00000210: 8573 e238 fb2d 7039 4f42 b839 2596 ce38
00000220: 6d56 0839 35d6 f739 afaa fd39 2d5b 73b8
00000230: 36e8 1939 7455 6138 cbe9 b6b8 70de 5038
00000240: 95b2 6937 1dc8 09ba bcb8 8cb9 3613 173a
00000250: b0e5 1c39 f58c c4b9 49e0 ed39 5a4e 33b9
00000260: d91d 65b9 4663 cfb9 babb 84b8 7797 9bb9
00000270: 5c7b 9c39 b2fe 173a 1b1d 00ba 6a50 1539
00000280: 5c7c aab9 cdcd fd38 eddc 8f37 448e bfb8
00000290: 0920 f338 42ff 8738 4c50 8eb8 5154 64b9
000002a0: af10 3539 6ac2 06ba 0cee 44b9 8e54 a0b9
000002b0: 290b 52b7 bcad 0db9 c97b 77b9 2507 a3b9
000002c0: aa9c 0338 2033 4d39 4f7c 2039 a70b b7b9
000002d0: 7892 8238 4fe8 19b9 2727 0839 f892 79b9
000002e0: 240f 46b8 d683 c0b9 67b0 93b7 37fc 5239
000002f0: 48cd 31ba da04 c139 aeaf 5a39 9172 93b7
00000300: bd01 c4b8 001b 48b9 09c2 f938 87e9 3039
00000310: d35b 94b8 9584 06b9 4e68 66b9 b8f7 76b8
00000320: e6ca 8ab8 e9e6 8cb9 0838 97b9 d88f 1e38
00000330: ad07 a9b8 94a5 1db8 c7bc 0438 7e4a 00b8
00000340: 4274 a837 f306 a139 a5d2 0e39 81fa 99b9
00000350: 51b8 9bb8 14cb 4a39 c451 8cb9 a18e cf38
00000360: 4a27 d638 2e58 7f39 79cc 0b38 117a 4d39
00000370: 17f3 13b9 0a41 adb9 14df 8e39 978d b8b8
00000380: 5a1c 4539 086e 81b8 fc7e a037 168d b538
00000390: 4d1a 52b8 2858 5bb8 21c3 3c38 439f 0039
000003a0: 74fc a5b8 519b 8a39 d142 ce38 1666 3f39
000003b0: 8cc1 0538 52ca c338 cb3f 1e39 3e8b 4639
000003c0: 30f9 37b8 9392 00b9 29bf b5b8 7291 4139
000003d0: deb5 66b8 5fbb d338 cf40 62b8 1e1d 0b39
000003e0: 58ee 7d37 bc60 7239 4c0e e636 b3d9 0bb9
000003f0: c96f ce39 a72c 51b9 561f f9b8 b04e f437
