models/checkpoint_0.pth (torch, 28541 bytes, 8 tensors)

policy_std f4 [7]
000000 00 00 00 00 00 00 00 00 00 00 00 00 00 00 00 00
       0.0 0.0 0.0 0.0
000010 00 00 00 00 00 00 00 00 00 00 00 00
       0.0 0.0 0.0

shared_fc1.weight f4 [64, 21]
000000 8a d2 93 3d 74 5d 82 bd da 0e af bd a8 4d 88 3c
       0.072178915 -0.06365481 -0.085477546 0.016638592
000010 10 7f d9 3c 89 2f 5a 3e d3 79 fb bd d9 fc 1f 3e
       0.026549846 0.21307196 -0.122790955 0.15623797
000020 15 a5 02 3e 4f f3 12 3e 6c 2f 5c 3d ee ec ad 3d
       0.12758286 0.14350627 0.053756163 0.084924564
000030 06 69 33 be 00 a3 51 3c 04 fa 4c bd d5 6b 08 3e
       -0.17520532 0.01279521 -0.05004312 0.13322385
000040 88 c5 5c bd 4d 95 4b be 10 cd a5 3c ae 75 0d be
       -0.053899318 -0.19881172 0.020239383 -0.13814422
000050 10 69 ab bc 34 2b 56 3d 6b 79 5c 3e b5 dd 5b 3e
       -0.020924121 0.052287295 0.21530692 0.21471293
000060 4c 0a 0f bd fc 4c 69 bd 63 11 4d be 20 f4 bd bd
       -0.03492193 -0.056958184 -0.20026164 -0.09275079
000070 c8 43 00 be e8 ff 8e 3c e4 af 6b bd 0b 05 2c 3e
       -0.12525856 0.01745601 -0.05754079 0.16798799
000080 d8 d3 c9 bc a3 40 ee bd d0 59 2c be 35 3b 50 be
       -0.024637148 -0.11633422 -0.16831136 -0.20335086
000090 4e 46 c7 3d 46 39 19 be 99 ea da bd 2f 65 59 3e
       0.097302064 -0.14963254 -0.10689277 0.21230005
0000a0 7c cf 6f 3d 91 bb 31 3e 16 45 ae 3d 3d 47 59 3e
       0.058547482 0.17356707 0.08509271 0.21218581
0000b0 e4 44 1a 3d 4d 2a 5e be a0 56 37 3c 85 15 5d be
       0.037663355 -0.21695824 0.011190087 -0.2159024
0000c0 0e a6 e4 3d 59 58 2e 3e 98 38 dc bc a8 7a b1 bd
       0.11164485 0.1702589 -0.026882455 -0.08665973
0000d0 31 cb 36 be 4d 79 25 3e 77 43 36 3e 91 34 2a 3e
       -0.17850949 0.16159554 0.17799173 0.16621615
0000e0 7d 87 32 3e 81 67 5a be 04 17 97 bd 57 39 4c 3e
       0.17434497 -0.21328546 -0.07377437 0.19943748
0000f0 fb c2 e6 bd b0 2b 36 bc 85 f0 43 be 74 cc b0 bd
       -0.11267658 -0.011118814 -0.1913472 -0.08632746
000100 90 45 bd bd c0 d0 3e bc 3c 28 f4 bd 7e 51 18 be
       -0.092417836 -0.01164645 -0.119217366 -0.14874837
000110 30 57 b8 bd 77 d5 31 3e 18 8b 48 be 6c 49 35 3d
       -0.09001005 0.17366587 -0.1958431 0.044259474
000120 0b ae 00 3e 9a 8d 38 be 4d 9b e7 bd b9 43 32 3e
       0.12566392 -0.18022767 -0.11308918 0.17408647
000130 bd c9 10 3e c1 d3 42 be 8f 10 4b 3e 0c b8 85 bd
       0.14139457 -0.1902609 0.19830535 -0.06529245
000140 96 82 b0 bd 47 64 3f 3e a2 aa 44 be ba 8d bc bd
       -0.08618657 0.18690597 -0.19205716 -0.0920672
000150 da 18 3b be ee 6a dd 3d 2c a7 50 3d 7a a8 be 3d
       -0.18271199 0.10811411 0.050940678 0.09309478
000160 c4 75 0d be 48 a2 2a bd dd 54 4f 3e 40 36 69 bc
       -0.13814455 -0.04165867 0.20247217 -0.014234126
000170 cc 2d d6 bd f2 6e 43 be 00 d8 e7 38 6d d1 47 3e
       -0.10457954 -0.19085291 0.000110551715 0.19513483
000180 81 12 2c 3e 7b f1 3b be b4 4e a7 bd ae e4 c3 3d
       0.16803934 -0.18353836 -0.08169308 0.095651016
000190 2f 5f d1 bd c8 0d af 3c 59 3b 29 3e 2c e1 05 3d
       -0.10223233 0.021368876 0.16526546 0.032685444
0001a0 20 bb 02 bc 57 e5 40 3e 49 75 25 3e e0 0f b7 3c
       -0.007979184 0.18837486 0.16158022 0.022346437
0001b0 e5 a5 0d be 85 3b 53 be ea 68 f5 3d 06 d1 f2 3d
       -0.13832815 -0.20628174 0.119829014 0.11856274
0001c0 8f e1 11 be 62 c8 e3 3d 3a 28 1b be 84 d3 42 3d
       -0.142462 0.11122204 -0.15152064 0.047565
0001d0 e0 10 6f bc dc 4d 49 3d 69 75 0b 3e 50 b9 43 3c
       -0.014591426 0.049146518 0.13619007 0.011946037
0001e0 a0 92 d7 bd 7c 1d 5c bd 92 89 f6 3d 4c bf 3f 3d
       -0.105260134 -0.053739056 0.12037958 0.046813294
0001f0 c0 22 f8 bb 4b 78 27 3e 64 d2 73 bd 8a c0 d4 bd
       -0.007572502 0.16354482 -0.059526816 -0.103882864
000200 f6 cf 01 be 7f 39 5c 3e 80 77 24 3b 2a 02 a7 bd
       -0.12676987 0.21506308 0.0025095642 -0.0815471
000210 ce 89 57 be 53 f7 46 be be 0e c2 3d a0 f3 75 3c
       -0.21048662 -0.19430284 0.09475468 0.015011698
000220 01 3a 42 3e 48 62 37 bd 0f 79 14 3e a1 2c 20 3e
       0.18967439 -0.044771463 0.14499305 0.15642025
000230 ba a5 ee 3d 5e fe 07 be c9 94 47 3e 70 3d 22 3c
       0.116527036 -0.13280627 0.19490351 0.009902343
000240 f8 99 fc 3c c4 67 29 3d 60 53 4e bd 10 b1 25 bd
       0.030835137 0.041358724 -0.05037248 -0.040452063
000250 83 c1 cf bd fa 99 d5 3d 65 24 2e 3e e2 2c d2 3d
       -0.10144331 0.10429759 0.17006071 0.10262467
000260 6c 35 b3 bd f3 7e 21 3e ba d5 89 3d 20 42 f0 3c
       -0.08750424 0.15771084 0.06730218 0.029328406
000270 54 1c 48 3d 68 a5 12 be 75 34 39 3e ec c1 0d 3d
       0.04885514 -0.1432091 0.18086417 0.034608766
000280 62 f4 9e bd 31 a7 29 3e ae 07 1d be f7 99 3f 3e
       -0.07761456 0.16567685 -0.15334961 0.18711077
000290 30 09 9b bd 81 28 3a be 52 bf 0f be 68 5c 8a 3c
       -0.07570112 -0.18179514 -0.14037827 0.016889766
0002a0 26 9a dd bd fb 33 20 be 20 83 00 be 6c 0b 91 bd
       -0.10820417 -0.15644829 -0.1255002 -0.07082257
0002b0 40 87 ec bd e3 9e 58 3e ec 00 54 3d 86 ac 37 be
       -0.115492344 0.2115436 0.05175869 -0.17936906
0002c0 ac d4 67 3d 96 7c ae 3d 26 47 88 bd 06 f2 e1 bd
       0.056599304 0.08519857 -0.066541955 -0.110324904
0002d0 78 47 dd bc 00 21 55 3b 22 5a ae 3d ae 28 9c 3d
       -0.027011618 0.003252089 0.08513285 0.076249465
0002e0 a0 63 d3 bb ed 85 04 3e 4a f7 41 be 50 ee 8a bc
       -0.006451085 0.12941714 -0.1894199 -0.01695934
0002f0 94 9d 28 3d 67 51 5a be ea f7 d4 bd c0 23 f4 bb
       0.041165903 -0.21320115 -0.10398848 -0.007450551
000300 14 a4 dc bd 40 18 59 bb c0 2d 90 3c 63 cd 42 3e
       -0.10773483 -0.0033126026 0.01759994 0.19023661
000310 4e 64 9f 3d cd 96 59 3e fc 8f a1 bd ff 33 34 3e
       0.077828035 0.21248932 -0.07888791 0.1759796
000320 fe 63 bd 3d b0 c9 76 3c 36 f2 ab 3d fe 84 d5 3d
       0.092475876 0.0150627345 0.083958074 0.10425757
000330 90 52 4c be 5c df 2a bd 65 03 2f be 25 61 28 3e
       -0.1995337 -0.04171692 -0.17091139 0.16443308
000340 5a 09 52 be 5f cb ee bd 4e e6 93 bd a8 84 2a bd
       -0.2051138 -0.11659884 -0.072216615 -0.041630417
000350 9e 6a 82 3d 38 93 ec 3c 94 9a 07 3d a0 42 85 3b
       0.06367992 0.028878793 0.0331064 0.00406678
000360 1e 95 19 be 70 d0 c6 3c 0c c6 07 be 2a bc 98 3d
       -0.1499829 0.024269313 -0.13259143 0.074577644
000370 20 9a 56 bc 54 8d 64 3d 8a 49 07 be 20 b1 ef bc
       -0.01309827 0.055798844 -0.13211647 -0.029259264
000380 5a 9f 10 be 97 57 42 3e c7 84 47 be 16 a1 31 be
       -0.14123288 0.18978725 -0.19484244 -0.17346606
000390 30 2f 1e bd 62 f8 15 be 08 a2 a7 3c 86 e8 ae bd
       -0.03861922 -0.14645532 0.020463005 -0.08540444
0003a0 b0 fd bd bd ff 7a 34 be b6 38 3d be b0 b0 15 bc
       -0.09276903 -0.17625044 -0.18478665 -0.009136364
0003b0 dc 87 7d bd a0 5b e6 bd a0 3b 88 bb 95 40 5b 3e
       -0.061897144 -0.11247945 -0.0041574985 0.21411355
0003c0 ff 23 5c 3e 74 c7 34 be 40 04 41 bc 62 04 39 be
       0.21498106 -0.1765421 -0.011780798 -0.18068078
0003d0 d4 61 d1 bd a0 29 1b be 50 1b 1d be 07 fb 4e 3e
       -0.10223737 -0.15152597 -0.1534245 0.20212947
0003e0 3a cb 9d bd 14 cf 43 3d 5a 5c 96 3d 77 bd 56 be
       -0.07704778 0.047804907 0.073418334 -0.20970713
0003f0 54 8a 56 be 89 6f d1 bd a0 59 e9 3b 1c 42 61 3d
       -0.20951205 -0.10226352 0.00712128 0.054994687

shared_fc1.bias f4 [64]
000000 c2 bd e9 3d be 7d 51 be 94 3a 7d 3d 5b cf 23 3e
       0.114131466 -0.20458123 0.061823443 0.15997069
000010 3d 87 04 3e 84 f4 2b bd 98 68 01 bd c8 91 c9 bd
       0.12942214 -0.041981235 -0.03159389 -0.09842259
000020 f2 7b cb 3d fd 41 27 3e 77 d0 41 3e 31 46 e0 bd
       0.0993575 0.16333766 0.1892718 -0.10950888
000030 4a 4b 4e be 76 1f bc bd e2 7e dd 3d 07 44 40 3e
       -0.20145908 -0.09185688 0.108152166 0.1877595
000040 5a 5f ee bd 8d 4d 01 3e 50 5e 32 bd 70 7f 83 bc
       -0.116392806 0.1262724 -0.043546975 -0.016051978
000050 1e 97 ad 3d 12 3b 8d 3d 2c ee a2 bd 56 72 19 be
       0.08476089 0.068960324 -0.07955584 -0.14985022
000060 9e 39 98 3d f5 83 46 3e 69 7e 56 3e b5 d5 4e 3e
       0.074328646 0.19386275 0.20946659 0.2019871
000070 84 ba 91 bd c0 f2 34 3c da aa aa bd c6 b3 f3 3d
       -0.07115653 0.011044204 -0.083333686 0.118995234
000080 82 e5 43 be 74 84 1e bd 8a 14 46 be 23 b2 11 3e
       -0.19130519 -0.038700536 -0.19343773 0.1422811
000090 2d 5f 4c 3e 54 6a 57 bd 8f ed 1f be e2 dd d5 3d
       0.19958182 -0.052591637 -0.15617965 0.104427114
0000a0 d4 51 94 bd cc 6a 33 be 46 fe fa 3d 1a 2d c4 bd
       -0.0724217 -0.17521209 0.1225553 -0.09578915
0000b0 da 11 8e 3d ca 70 a1 bd a6 3a ba 3d 84 ec 3e 3d
       0.06936999 -0.07882841 0.090932176 0.046612278
0000c0 62 43 81 bd 20 dc 85 bc e8 53 97 bd 08 e7 55 be
       -0.063116804 -0.016340315 -0.07389051 -0.20888913
0000d0 d8 19 17 bd b4 3c 2d 3d c4 fe 0e bd 12 f3 f7 3d
       -0.03688988 0.04229422 -0.034910932 0.12106909
0000e0 7d 94 e1 bd d2 b6 d7 bd 40 7b 1a 3b be cd 92 bd
       -0.1101465 -0.10532917 0.0023571998 -0.071681485
0000f0 a0 78 0b bd 84 d1 1a be 7c 16 46 be 19 ee 55 3e
       -0.034050584 -0.15118986 -0.19344515 0.20891608

shared_fc2.weight f4 [64, 64]
000000 f0 03 37 3c a6 11 ba 3d 46 ba bb 3d 34 73 9f 3d
       0.011170372 0.090853974 0.09166388 0.07785645
000010 f4 14 44 bd 18 0e f3 3c 90 e5 c0 3c 1e f4 c8 bd
       -0.047871545 0.029669806 0.023546964 -0.09812187
000020 58 ad d5 bc 00 4e e8 b9 a0 ac 65 bd e0 00 1c 3c
       -0.026083633 -0.00044308603 -0.05607283 0.009521693
000030 a8 6b 6b bd fc f9 21 bd c0 7f a0 3c 1c a4 c4 3d
       -0.057475716 -0.039545044 0.019592166 0.09601614
000040 fc d1 44 bd 40 24 e1 bc 3a db dd bd 08 52 30 3d
       -0.04805182 -0.027483106 -0.1083283 0.04304698
000050 80 7e ff 3a 70 f3 61 3c 22 18 85 3d d0 9d d8 bc
       0.0019492656 0.01379095 0.064987436 -0.026442438
000060 40 a5 df 3d e8 f0 e2 bd 04 95 b1 bd 00 bf 0c bb
       0.10920191 -0.110811055 -0.086710006 -0.002147615
000070 84 c9 95 bd 94 7d 12 bd fc ea ec bd 46 8e 9e bd
       -0.07313827 -0.035764292 -0.11568257 -0.0774198
000080 00 ef 0f bc 12 23 f3 bd 00 7a fb 3d 58 8e 58 3d
       -0.008785009 -0.118719235 0.12279129 0.052870125
000090 10 5d 55 bd 80 ad 6f bd 08 d8 cb 3d ca 0b da bd
       -0.052090704 -0.058515072 0.09953314 -0.1064678
0000a0 50 d1 44 bd f0 05 d1 bd d8 db dd bd 28 2d f3 bc
       -0.04805118 -0.102062106 -0.108329475 -0.029684618
0000b0 f0 41 82 3c d0 46 ab 3c c0 a2 8b 3b b8 fc db 3d
       0.015900582 0.02090779 0.0042613447 0.10741562
0000c0 78 19 56 3d 3c 53 8c 3d 30 87 a1 bc 28 bc d5 3c
       0.052270383 0.06851813 -0.019717783 0.026090696
0000d0 b6 c6 9a bd 3c 8e 12 3d c4 75 24 3d 30 bb a3 bd
       -0.07557432 0.035780177 0.040151373 -0.079946876
0000e0 fc 8c 60 3d 4e 14 80 3d 40 f9 17 bd 80 3a 17 3d
       0.054821953 0.06253873 -0.037102938 0.036921024
0000f0 30 02 3d 3c 50 1b 7e 3d a0 34 a9 3c 4e 4c a3 3d
       0.011536166 0.062037766 0.020654976 0.07973538
000100 7c a6 f1 3d 6c e2 55 bd 20 ed dc bb 84 5b 72 3d
       0.117993325 -0.052217886 -0.0067421347 0.059169307
000110 32 35 f5 3d 96 74 f3 bd 78 fc ed bc 54 93 74 bd
       0.11973037 -0.118874714 -0.02905105 -0.059710816
000120 ac 2b d6 bd ac bd 21 3d 62 76 88 3d 64 f2 94 3d
       -0.104575485 0.039487526 0.06663205 0.07272795
000130 9a 62 e2 bd 0c 84 77 bd 3c c9 38 bd 50 4e ac 3d
       -0.11053963 -0.060428664 -0.045113787 0.084133744
000140 08 3c 81 bd 80 62 f1 3c 70 87 88 3d da f5 bf bd
       -0.06310278 0.029465914 0.06666458 -0.09373064
000150 10 0d d7 bd 7e 45 f5 bd 94 08 20 3d 26 7c a4 3d
       -0.10500538 -0.11976145 0.03907068 0.08031492
000160 98 1f 73 bd f0 be 11 bc 00 6c b6 3b 00 5a fd b9
       -0.059356302 -0.008895621 0.005567074 -0.00048322976
000170 e8 34 fa 3d 34 3b 5e bd 34 40 1a 3d da 02 8c bd
       0.12217122 -0.05425568 0.037658885 -0.068364814
000180 98 f5 fe 3c 40 8e 48 bc 38 30 f6 bd b0 f1 50 bd
       0.031122968 -0.012240946 -0.12020916 -0.05101174
000190 28 5d 07 bd 46 16 ce 3d 8a 05 9b bd ac a4 6b bd
       -0.033047825 0.10062842 -0.07569416 -0.05753009
0001a0 bc 66 73 bd a2 21 9f 3d d4 7b ed 3d 3c 80 38 3d
       -0.059424147 0.07770087 0.11595884 0.04504417
0001b0 80 2e 80 3c 40 cb e7 bd 7c 16 37 bd 80 d1 9c 3c
       0.015647173 -0.11318064 -0.044699177 0.019142866
0001c0 32 41 de 3d 96 dd ec 3d 22 48 8f bd a0 2b bb bb
       0.10852279 0.11565702 -0.0699618 -0.0057119876
0001d0 a0 ef 75 bc 6c 02 9a bd e0 a8 13 bc ca 31 84 bd
       -0.015010744 -0.07519993 -0.009012431 -0.06454809
0001e0 c4 3d e7 3d f2 ff b5 bd 4c 84 20 bd 74 7f eb bd
       0.11291078 -0.08886708 -0.039188668 -0.11498919
0001f0 5a 4f d1 bd 46 ff db bd 00 fc 6f 39 20 b8 7f bc
       -0.10220213 -0.10742049 0.00022886693 -0.015607864
000200 5e 5b c0 3d 10 a3 d9 bd 30 4a 39 bd 40 8f a1 bc
       0.09392427 -0.10626805 -0.045236766 -0.019721627
000210 e0 9e 06 bd fa 91 f3 bd 88 e1 86 bd aa fd 9d 3d
       -0.03286636 -0.11893077 -0.065859854 0.07714398
000220 48 b0 86 3d 5c 2d dc 3d c0 c3 b0 3d fc 03 ec 3d
       0.06576592 0.10750839 0.08631086 0.115241975
000230 08 b5 cd bc 24 b7 53 bd b4 77 c2 bd 82 fc 8e bd
       -0.025110736 -0.05168833 -0.09495488 -0.06981756
000240 88 d9 aa bd 86 ba 81 3d 6e c9 ab bd 6a 6d 9f 3d
       -0.08342272 0.06334405 -0.08388029 0.07784541
000250 96 de d0 bd 20 36 db bd ec 0f b2 3d da a6 85 bd
       -0.10198705 -0.10703683 0.08694443 -0.06525965
000260 a4 17 62 3d 40 34 37 bc 70 03 d3 bc 06 38 ae bd
       0.055198327 -0.011181891 -0.025758475 -0.085067794
000270 54 3f 5b bd b6 04 95 bd f2 19 f1 3d 04 f3 da bd
       -0.05352719 -0.07276289 0.11772527 -0.10690883
000280 06 4f f0 bd 32 1b cd 3d 00 66 7e bb cc bf 11 3d
       -0.117338225 0.10014953 -0.003881812 0.035583302
000290 fe ea 9f 3d ac 45 e5 3d 00 e0 71 3d b0 02 41 bc
       0.07808493 0.111949295 0.059051514 -0.011780426
0002a0 ae e2 be 3d 00 3d c8 bb 3c 0e 7e 3d 10 23 77 bd
       0.093205795 -0.0061107874 0.062025294 -0.060336173
0002b0 80 11 ff bd c0 84 c5 bc 64 90 67 bd 80 dd 85 3a
       -0.1245451 -0.024111152 -0.056534186 0.0010213107
0002c0 ac da 36 bd 78 3d 3a 3d 66 f7 d4 3d 2a 81 a7 3d
       -0.044642136 0.045468777 0.1039875 0.08178933
0002d0 ec bd 78 bd 60 75 e8 bc 60 57 e8 bd 28 45 ea bd
       -0.060728 -0.028376281 -0.113447905 -0.11438972
0002e0 52 0d 85 3d 7c 9e aa bd 7c ff b2 bd 44 8c de bd
       0.06496681 -0.0833101 -0.08740136 -0.10866597
0002f0 24 1f ab 3d 1c 2d 4c bd f0 0e 85 bd 36 3c d7 3d
       0.08355549 -0.049847707 -0.0649699 0.10509531
000300 20 40 71 3c 14 60 2f 3d 38 b6 89 3c 6c 8d 91 3d
       0.014724761 0.042816237 0.016810521 0.07107052
000310 f4 f9 45 3d 76 95 82 bd b0 e4 24 3c 40 59 44 3b
       0.048334077 -0.06376164 0.010064289 0.0029960424
000320 72 13 b5 bd 88 72 d6 bd a0 b5 e5 bd 98 15 b7 3d
       -0.088415995 -0.10471064 -0.11216283 0.089396656
000330 22 ff af bd 20 ff fc 3b 44 1f 6b bd c4 ce 28 3d
       -0.085935846 0.007720843 -0.057402864 0.041212812
000340 a4 10 f5 bd 04 34 47 3d a8 b6 55 3d 70 ce 9d bc
       -0.119660646 0.04863359 0.052176148 -0.019263476
000350 20 e3 c0 bd 50 11 84 3d b2 78 c4 bd ac 17 3b bd
       -0.09418321 0.064486146 -0.09593333 -0.045676872
000360 ea af f8 3d 42 93 af 3d 44 39 0c bd 08 90 f7 3c
       0.12142928 0.08573009 -0.0342343 0.030220047
000370 8c f4 bb bd 68 79 c0 bd d8 87 ba bc f8 9e ad 3c
       -0.09177503 -0.093981564 -0.022769853 0.021193966
000380 62 c8 f1 3d 00 23 e3 3a 16 65 b6 bd b2 fa c4 3d
       0.11805798 0.0017329156 -0.08905999 0.09618129
000390 3e 1f e5 3d 98 cd 85 3d 0e 6f d8 3d a0 62 19 3c
       0.111875996 0.065333545 0.10568057 0.009361893
0003a0 00 14 56 bc d4 d4 f8 bd 18 77 a3 3c 48 d7 be bc
       -0.013066292 -0.12149969 0.01995425 -0.023296013
0003b0 98 24 d7 bd b4 b2 c3 bd 70 4f d0 bc fe 26 c7 3d
       -0.105050266 -0.09555569 -0.025428504 0.09724234
0003c0 5c 05 a4 bd f8 2c cc bd 16 a7 8c bd 94 d7 a1 3d
       -0.08008835 -0.099695146 -0.068678066 0.079024464
0003d0 48 c2 b5 bd 28 98 a5 bc 7a 54 92 bd 38 d4 f6 bd
       -0.08874947 -0.020214155 -0.07145019 -0.12052196
0003e0 b6 b4 99 3d 9e 00 db bd 18 f6 ef 3c 78 d9 8d bc
       0.07505171 -0.10693477 0.029292151 -0.017315611
0003f0 e4 9e 7f 3d 68 2e 1a 3d 2a c1 bf 3d 76 2c b8 bd
       0.06240739 0.037641913 0.09363015 -0.08992855

shared_fc2.bias f4 [64]
000000 18 85 85 3d 64 53 16 3d 60 65 46 bc a0 98 41 3c
       0.06519526 0.03670062 -0.012109131 0.011816174
000010 80 e8 97 3d 20 21 e2 3c c4 98 f2 3d ca 79 bf 3d
       0.07417393 0.027603686 0.11845544 0.09349401
000020 2a 3b 81 bd 70 3b 88 3d 7e 2e 89 bd 64 9f 95 bd
       -0.06310113 0.06651962 -0.06698321 -0.07305792
000030 c0 03 9e bd f0 be 67 3d 68 f2 95 bd 1c 8d 2e bd
       -0.07715559 0.056578577 -0.07321626 -0.04261504
000040 a4 68 af bd c2 76 93 bd 60 1d ae bd b4 0f ea bd
       -0.085648805 -0.07200386 -0.085016966 -0.114287764
000050 58 d6 c9 3d c8 04 fe bd 24 ad 87 bd a0 3e ef bc
       0.09855336 -0.12403256 -0.06624821 -0.029204667
000060 48 78 ee 3d 28 a8 b4 3c 3c 27 a4 bd 1c 10 ee bd
       0.116440356 0.02205284 -0.08015296 -0.11624166
000070 c6 ed 8f 3d 3a a9 af 3d 44 3b 42 bd d0 2f 1b bd
       0.070277736 0.08577199 -0.0474198 -0.037887394
000080 7a c8 ca 3d 08 fa c8 3c 0e 0a c5 bd f0 cd 2a bc
       0.09901519 0.024533287 -0.096210584 -0.010425076
000090 a2 ed a4 3d f0 7b 80 bc 50 8d 1d 3c a0 d8 ce bc
       0.08053137 -0.015684098 0.009616211 -0.02524978
0000a0 78 4b 07 3d d8 c8 74 bd f8 cb d3 3d d4 73 ed 3d
       0.033030957 -0.059761852 0.10341638 0.11594358
0000b0 50 30 0e bc 80 dd 8c bd ec a9 07 3d f6 c9 cc 3d
       -0.008678511 -0.06878185 0.033121035 0.099994585
0000c0 e8 6b 68 3d 54 e3 58 3d ec e8 d4 3d 74 2c 44 bd
       0.056743532 0.052951172 0.10395989 -0.047893956
0000d0 1c 20 0b 3d e0 a3 a9 3c d0 5e 32 bd 56 c5 fc 3d
       0.03396617 0.020708025 -0.04354745 0.12342326
0000e0 60 20 60 3d a6 3a f3 3d 5c ad 1a bd 5a f0 97 bd
       0.054718375 0.11876421 -0.037762985 -0.0741889
0000f0 d0 93 67 bd 08 24 b6 bc d4 cd 31 3d f6 1b 97 3d
       -0.05653745 -0.022233978 0.043409184 0.0737838

policy_mean.weight f4 [7, 64]
000000 a8 23 e8 3c 60 75 a5 bc f8 70 96 bc 88 d8 9b 3c
       0.028337315 -0.02019757 -0.018364415 0.019024149
000010 80 c1 46 bb 40 d4 d6 bd 28 8e df bd 20 d7 4a 3c
       -0.0030327737 -0.10489702 -0.10915786 0.012380391
000020 7c eb d5 3d 98 9a b5 3d b6 45 c1 3d 04 5b 13 bd
       0.10445306 0.08867377 0.094371244 -0.03597547
000030 3a 09 f8 3d 9a 59 c7 bd e0 d6 dd bd 2c 88 40 3d
       0.12111135 -0.09733887 -0.10832 0.047004864
000040 3e 45 d3 3d 10 56 a1 bc 00 82 1d ba 50 25 c9 3c
       0.10315941 -0.019694358 -0.0006008446 0.024553925
000050 5a c5 b9 bd 2c b9 f7 3d 7e 49 c6 3d ea db a8 bd
       -0.09070845 0.120958656 0.09681986 -0.0824507
000060 42 fa b1 bd 20 89 dd bd 48 dd eb bd d8 69 c8 3c
       -0.08690311 -0.1081717 -0.115168154 0.024464533
000070 2e 09 bb 3d 94 e6 aa 3d 00 77 3d bd b4 8d 95 3d
       0.0913261 0.083447605 -0.046256065 0.07302418
000080 e0 5c a9 bc 06 8a 99 3d 0a 9e e0 3d 50 f1 ff bd
       -0.020674169 0.07497029 0.109676436 -0.124971986
000090 e0 7e 86 3d a4 14 b7 3d 0c 29 f1 bd 14 f8 18 bd
       0.06567168 0.08939484 -0.11775407 -0.03734596
0000a0 d8 ce 4a 3d 00 27 24 3d 22 55 95 3d f0 37 af 3c
       0.049513668 0.040076256 0.072916284 0.021388978
0000b0 20 0c 65 bd ae 1e df bd 08 b1 af bc 4c 10 fd bd
       -0.055919766 -0.108945236 -0.02144672 -0.12356624
0000c0 96 ae ff bd 5e b2 ec 3d d8 b5 ed bc ce d2 9e bd
       -0.124844715 0.11557458 -0.029017374 -0.077550516
0000d0 4e 9c b1 bd 64 db e7 bd 88 3a a4 bc 80 a0 c7 3d
       -0.08672391 -0.11321142 -0.020047441 0.0974741
0000e0 2c 61 3e bd 3c 6b 62 3d 38 cb 50 3d 54 99 6a 3d
       -0.04647939 0.055278048 0.050975055 0.05727513
0000f0 80 69 78 3c 48 72 b9 3c c0 b9 5f bb 20 6c b7 3c
       0.015161872 0.022637501 -0.0034137815 0.022390425
000100 ee 91 f0 3d 20 4a 42 bc 40 f9 9b 3b e0 f0 64 bc
       0.11746584 -0.011858493 0.0047599375 -0.013973445
000110 28 15 ff 3c 72 07 f8 bd 70 eb 92 3d 70 9d df bd
       0.031138018 -0.12110795 0.071738124 -0.10918701
000120 4a 74 f0 bd 60 07 e7 3c 30 99 64 3c fc 8e d0 bd
       -0.117409304 0.028201759 0.013952538 -0.10183522
000130 e6 ae e0 bd 68 85 d9 3c 0c 0c b7 3d b6 18 f8 3d
       -0.10970859 0.02655287 0.08937845 0.12114088
000140 02 2a e1 bd 86 20 c7 bd f0 b7 ab bc 24 dc f0 bd
       -0.109943405 -0.09723 -0.020961732 -0.117607385
000150 22 b2 c6 bd 00 6b 0d ba 30 39 43 3c c2 e6 81 3d
       -0.09701945 -0.00053946674 0.01191549 0.06342842
000160 6c 66 dd 3d e6 7c f9 3d 04 7b 52 3d ec 23 bd bd
       0.10810551 0.121820256 0.051386848 -0.09235367
000170 18 e6 da bd aa c9 c0 3d 20 fe ae bc fc d1 f5 bd
       -0.10688418 0.09413464 -0.02136141 -0.12002942
000180 6e 9f f3 bd 9c 78 7f bd cc 6b 8c bd b8 ee 30 3d
       -0.11895643 -0.06237088 -0.06856498 0.04319641
000190 9a c0 86 bd b8 db 69 bd e0 dd 51 bd 9c 14 42 bd
       -0.065797046 -0.057094306 -0.051236987 -0.047382936
0001a0 ba 25 dd 3d 80 94 23 3d c4 7c 97 3d b2 7c ac bd
       0.107982114 0.039936543 0.07396844 -0.08422221
0001b0 68 f0 95 bd 80 6e c3 3c b0 62 3c bc 78 8d 98 bc
       -0.073212445 0.023856401 -0.011498138 -0.018622145
0001c0 f0 f7 49 3d 0a 24 f0 3d 6c 89 04 bd ec 0b ac bd
       0.049308717 0.11725624 -0.03235762 -0.084007114
0001d0 36 6b c0 3d b0 0d e0 3d 5c bf 25 3d 72 21 f7 bd
       0.09395449 0.10940111 0.040465698 -0.12066926
0001e0 70 66 6a bc ac 2a dd bd 70 32 0e bc 44 1c 81 bd
       -0.01430665 -0.10799155 -0.008679017 -0.06304219
0001f0 e8 c7 3e bd 38 c0 a2 bc 30 80 3e 3d 50 c0 97 bc
       -0.046577364 -0.019867048 0.046508968 -0.018524319
000200 ee 66 a2 3d f8 ce e7 bd fc cc 1e bd 20 c7 f9 bc
       0.079297885 -0.11318773 -0.038769707 -0.030490458
000210 e2 c0 ca 3d c0 5b 54 bd 50 9d c2 3c 80 b1 94 3b
       0.09900071 -0.051845312 0.023756653 0.004537761
000220 c6 30 b7 3d f0 f5 cc 3c e0 e2 bc bd a8 21 2e 3d
       0.0894485 0.025019616 -0.092229605 0.042512566
000230 30 6c c9 bd b8 aa 15 bd 78 e1 ba 3d ce 27 97 bd
       -0.09835088 -0.036539763 0.09125036 -0.07380639
000240 12 f3 8b 3d 00 29 04 bb 18 2c 35 bd 40 59 1e 3c
       0.06833471 -0.002016604 -0.044231504 0.009664834
000250 7a 09 81 bd 34 ba 24 bd 40 28 92 3c d8 02 89 bd
       -0.06300636 -0.04021664 0.017841458 -0.066899955
000260 18 64 83 bc ea 0a 9b bd ae 38 d6 bd 18 ed 91 3d
       -0.01603894 -0.07570441 -0.104600295 0.071253
000270 80 2c 86 3b 38 38 f1 bd a8 f2 8c bd c0 a7 84 bc
       0.0040946603 -0.11778301 -0.068822205 -0.01619327
000280 1c 1d 8d 3d 98 e1 c4 bd 62 bf 93 3d 6a 7c eb bd
       0.06890318 -0.09613341 0.07214238 -0.114983395
000290 00 ab 63 bd 70 79 c5 bd 94 6e a6 bd a4 57 7a 3d
       -0.055583 -0.09642303 -0.0812656 0.061118737
0002a0 a4 1c c6 bd b0 fd 75 3c 90 e5 e4 bc 7c 8c 04 bd
       -0.096734315 0.015014097 -0.027941495 -0.03236054
0002b0 40 47 1d bb 76 72 e1 3d 4a 03 bc 3d 50 78 3f 3d
       -0.0023998767 0.1100816 0.09180315 0.0467456
0002c0 c6 49 f2 bd c4 2a a1 bd 28 60 ac 3d 56 09 ec 3d
       -0.118304774 -0.07869485 0.08416778 0.11525218
0002d0 e0 72 60 3c 3c 67 be 3d c6 60 a8 bd c8 35 93 3c
       0.013699263 0.09297034 -0.08221583 0.01796998
0002e0 e8 10 cf bd 60 ab 12 3c fe 73 d2 3d 14 56 ae bd
       -0.101106465 0.008951992 0.1027603 -0.08512512
0002f0 6a a3 95 3d c4 30 6f 3d c0 f3 74 3c b4 09 3e bd
       0.073065594 0.058396116 0.014950693 -0.046395972
000300 4a e0 91 bd c8 ed 80 3d 60 94 d4 bc 8c 39 6a 3d
       -0.07122858 0.06295353 -0.025949657 0.057183787
000310 4c 23 8e bd 24 64 d8 bd d8 6f 80 3d 34 a5 f5 3d
       -0.06940326 -0.10565975 0.062713325 0.119944006
000320 3c 74 59 3d 4c 8d dc 3d 62 39 c6 3d 14 b4 91 3d
       0.053089365 0.10769138 0.09678914 0.07114425
000330 a0 20 e9 bc 4c b3 dc bd ca 35 f2 3d 48 3b 88 3d
       -0.02845794 -0.10776386 0.11826666 0.06651932
000340 f0 51 aa bc 86 42 af bd ec d2 c6 3d 80 55 89 3a
       -0.020791024 -0.0855761 0.09708199 0.0010477751
000350 dc 28 64 3d 04 e5 cc bd 30 99 b6 3c 58 9b ae 3d
       0.05570303 -0.10004619 0.022289842 0.08525723
000360 e0 d4 cf 3d 8a c0 cb 3d 90 c2 7f bc e4 7f fd 3d
       0.101480246 0.09948833 -0.015610352 0.12377909
000370 f0 40 af 3d 30 3d 84 3d 60 4d 1a bd aa a4 a3 3d
       0.08557308 0.06456983 -0.037671447 0.079903916
000380 8e 19 fe bd cc bc 19 3d e0 21 7b bc 80 24 ee bd
       -0.12407218 0.037533566 -0.015327901 -0.116280556
000390 22 93 be 3d bc ad 19 3d bc b1 a2 bd b8 f5 87 3c
       0.09305407 0.0375192 -0.079440564 0.01659666
0003a0 68 fd ce 3d 64 90 cb bd 2c 45 46 3d fc 88 fc bd
       0.10106927 -0.0993965 0.04840581 -0.12330815
0003b0 4e d2 92 3d 0e a1 d0 bd 30 ea e8 bc 00 48 df 3d
       0.07169019 -0.10186969 -0.028431982 0.10902405
0003c0 78 7a 85 bd ea eb 8a 3d 60 cb d7 3b c0 f4 4c bb
       -0.065175 0.06783278 0.0065855235 -0.0031273812
0003d0 fa 20 f8 3d 38 94 df 3c b8 6e f9 3d 1a 06 fb bd
       0.12115665 0.027292356 0.12179321 -0.12257023
0003e0 68 76 98 3d 80 ef 80 bc 4e d4 c3 3d d8 65 27 bd
       0.07444459 -0.015739202 0.09561978 -0.04086861
0003f0 96 7c c0 bd 30 59 50 bc 00 28 7a bb e6 d1 f0 3d
       -0.09398763 -0.012716576 -0.0038170815 0.11758785

policy_mean.bias f4 [7]
000000 80 5b 9e bd 78 16 cd bd 50 d6 f7 3c 0c a4 77 3d
       -0.07732296 -0.10014051 0.03025356 0.06045918
000010 08 4f d2 bd f0 7c 3a 3c f8 45 77 3d
       -0.1026898 0.0113823265 0.06036946

value_out.weight f4 [1, 64]
000000 c2 b2 ae bd 48 84 6b 3d e8 d4 95 bc 48 93 7b 3d
       -0.08530189 0.0574992 -0.018289998 0.061419755
000010 24 e4 94 bd ca 1d 9c bd 76 41 dc bd be 7f f5 3d
       -0.07270077 -0.07622869 -0.10754673 0.119872555
000020 28 bf 09 3d 80 32 d7 bc 40 79 8e 3d 00 c7 5b 3b
       0.033629566 -0.026269197 0.0695672 0.0033535361
000030 90 03 cf 3d 08 a0 9d 3c 78 a5 ff 3d 84 2f e5 3d
       0.10108101 0.019241348 0.124827325 0.111907035
000040 f4 e8 f5 3d c4 a6 bd bd 4c 54 88 bd 6a 7f c4 3d
       0.12007323 -0.09260324 -0.06656703 0.09594615
000050 6c f6 06 bd 00 7f b9 3c 04 94 ac 3d 7c bb 4f bd
       -0.03294985 0.022643566 0.08426669 -0.05071591
000060 58 6d 25 bd 90 fd e2 bc 20 aa 21 bc 94 89 39 bd
       -0.04038748 -0.027708799 -0.009867221 -0.04529722
000070 1c 73 f7 3d 40 9c 70 bb 3e 8c ef 3d 70 1d 9c 3d
       0.12082502 -0.0036714226 0.11696671 0.07622802
000080 04 36 5c bd 9e 3e 91 bd fa a3 f1 3d 0a 3c e0 bd
       -0.05376245 -0.070920214 0.11798854 -0.109489515
000090 ac c1 b1 bd 98 9a 5e bd cc 3c 22 bd de 00 b4 3d
       -0.08679518 -0.05434665 -0.03960876 0.08789228
0000a0 18 76 d4 3d a2 39 bd 3d 56 c0 8f 3d 64 7c 92 3d
       0.10374087 0.09239508 0.07019107 0.07152632
0000b0 aa 9d d0 3d 10 df b6 bc e0 4b d6 3d da 22 c0 3d
       0.10186322 -0.022323161 0.10463691 0.093816474
0000c0 00 95 3c 3d 14 fe 55 3d 2c 0a c8 bd c0 8a b0 3c
       0.046040535 0.05224426 -0.09767565 0.021550536
0000d0 40 16 37 3b 9c 11 34 3d a4 3c 18 3d 7c e9 e7 3d
       0.0027936846 0.043962106 0.037167206 0.113238305
0000e0 90 1c 71 3d 00 7c 28 3d c0 b6 46 bd a6 16 df bd
       0.05886513 0.04113388 -0.048514128 -0.10892992
0000f0 60 84 12 3d 74 cb ba bd 30 d9 5a 3c 44 ce f8 bd
       0.035770774 -0.09120837 0.013357446 -0.12148717
