models/final_model.pth (torch, 255114 bytes, 24 tensors)

policy_log_std f4 [7]
00000000: ba6d cd3e 6d74 6b3f ba8e cf3e 1e90 b73e
00000010: d242 e53e 4ec2 4c3f d469 4bc0
0.40122777 0.91974527 0.4053858 0.3585214 0.44777542 0.79983985 -3.1783342

fc1.weight f4 [128, 21]
00000000: d252 a4bf 0bd1 4b3f 9f0d b9be 59f3 1ebf
00000010: 06e7 30be 7b12 143f 0466 a2bf d340 aebf
00000020: 6cf2 8c3f ba97 88bc f44f c53e 1b5d a23f
00000030: fd67 18be b5e7 21bf 0cf1 783e 8475 123e
00000040: a2c4 70bf bc56 cdbe ea0a 1240 6601 fcbf
00000050: db44 03c0 a28e 5840 fa53 b73e 649c 963f
00000060: d079 0f3f d798 2bbe aaf6 91bf 19b5 9d3e
00000070: ed5c c9be be5f f9be e99d 89bf ad57 723f
00000080: 5e63 2b40 517a 7e3f d15f a13f 3b3e 083e
00000090: 6df9 b4bd 0534 88bd 7164 363f d4da b1bf
000000a0: 592d 0a40 16fa 06c0 f90c 4dbe a57e 81bf
000000b0: 3592 f03e 2e55 893e b20f 0c3f 33ee b9bf
000000c0: d984 a8bf 8d4b 9a3f 522b 0ebf 905f f1be
000000d0: 4314 aa3e b5ca 5dbe 8107 e03b 04bc 1e3f
000000e0: b8b6 2f3f ad12 463f 7b9d 3e3e 7404 093f
000000f0: 78a8 173e 4a2c 37bf d169 483f 5259 79bf
00000100: 68a6 273f 29a5 bd3e b314 b1be 42e4 27bf
00000110: 88b9 8bbf 4bc3 8fbe c739 9abf dcf8 8a3e
00000120: 9588 003e 8232 01be db51 2540 7e19 45be
00000130: 7330 a4bd a026 a2bf c9c8 c43f e5c1 dfbe
00000140: 3555 513c a8ae a140 4f5e 3dc0 3996 c1bd
00000150: 0243 1140 98d3 a2be f23a 83bd d390 543e
00000160: 3038 0a3f ba73 963d 770f cbbf 901a 38bf
00000170: b6c4 d9be 0d91 193f 218e 4ebf df2f cf40
00000180: 37a3 b73f ae04 99be 0ed5 193e 1259 e53e
00000190: 2d65 92bf 1174 ee3d ac9c 0040 147e 6a40
000001a0: 91bb 10c0 32bf 0140 b30a e1bf 24de 65be
000001b0: b428 5c3d 32f2 e7be 0ce6 22c0 d01e 033f
000001c0: 7c64 db3f 8793 303e e395 dabd b784 073f
000001d0: 7042 9bbf 1f85 afbf ca21 9bbe 8b29 663e
000001e0: 1750 10c0 5aad 31bf 4776 583d febe 6bc0
000001f0: fef3 d13f b26b a03f d45f 3bbf 392b b8bd
00000200: e10a 38bf 9861 103f 6ebe 713d 1c59 ab3f
00000210: 0413 ed3d 03d7 b13e f7ae 1cbe 2507 a63e
00000220: b924 ecbe f133 bfbf 4837 9ebf c43c 00bd
00000230: 8ade 5fbf b75b aabd e799 c5bd 14bd 47be
00000240: 7144 333f 15a0 08c0 776e cb40 2f00 e3bd
00000250: 1152 58bf 0d08 8c3e f661 0c3f f58c 10c0
00000260: 9e7d 06c0 e03c e7be 72cf 7dbf aa40 823f
00000270: f5dc e5bd 2ca9 203e ba5f 5440 c1f9 aa3f
00000280: b2d2 c73e 871e 253f 71ce 1440 1a41 ae3f
00000290: 0050 543f 2c24 383f 5bd3 3840 18d8 e53e
000002a0: e30e ae3f 551f 29c0 4ab9 8cbd fba2 0e3f
000002b0: f98d c8bd 0b62 a53d 4464 9e3e fb5f af3f
000002c0: 4907 11bf 9604 4cbe 8209 1d3e a7bb 20bf
000002d0: 748f 4cbf 318f 80be 6ed0 333f 3db0 1fbf
000002e0: 0014 383f 9723 b63e 2d1d 91bf d177 5040
000002f0: ed79 823f 5f75 5fc0 3f55 243f e43c 18be
00000300: 9312 9abe e3a9 abbf ac91 503c 6b46 99bf
00000310: a0e2 e5be dcd1 283f 6a99 44be 3f99 883e
00000320: 1fbc 7640 2012 3a3f d17e 04be 4e9c 1a3e
00000330: bf3a f73e e0dd 023f 7653 ff3d cad2 0341
00000340: f756 0a40 43bc 9440 3987 2cbf d801 ed3f
00000350: 1cc1 acbd ea3e c2be 4827 b2be ef02 fa3e
00000360: 8c1d 68bf 8410 a3bd eebf 92bf d872 78be
00000370: 0441 1b3d 8089 a33f 0bfb 803f c983 2abe
00000380: 85b8 35bf 58df b9bf 2ebb cdbf dc1f bfbe
00000390: 2c43 1540 508d 87bf 9436 aac0 a221 f0bf
000003a0: c6e1 d63f feda 3c3e 0e40 e2be aa05 6bbf
000003b0: 7f52 9a3f 5bf9 b93e bff4 04bf da66 00bf
000003c0: 4e3a 2fbe 72ef adbe ba1a ae40 a439 3f3f
000003d0: 3941 15bd 8187 f2be dea3 4a3f 5223 8f3f
000003e0: c58f b73d 1e69 f440 b2f0 56bf 67f6 f940
000003f0: 6d78 37be c70a 04bf 6246 aebe 53fd 0d3f
-1.2837775 0.7961585 -0.36143205 -0.6209007 -0.17275628 0.578407 -1.2687383 -1.3613533
1.1011481 -0.016673911 0.38537562 1.2684664 -0.14883418 -0.6324418 0.24310702 0.14302641
-0.9405004 -0.40105236 2.2819161 -1.9687927 -2.0510776 3.3837056 0.35806257 1.1766477
0.56045246 -0.16757523 -1.1403401 0.3080223 -0.3932871 -0.48705858 -1.0751315 0.9466503
2.67794 0.9940539 1.2607366 0.13304989 -0.08836637 -0.06650547 0.7124701 -1.3894906
2.1590178 -2.109014 -0.2002448 -1.0116774 0.46986547 0.268228 0.5471145 -1.4525818
-1.3165542 1.2054306 -0.5553485 -0.4714322 0.33218583 -0.21659358 0.006836832 0.6200564
0.6863818 0.77372247 0.18614762 0.5352242 0.1481036 -0.71551955 0.78286463 -0.97401917
0.6548829 0.3704007 -0.34586105 -0.6558267 -1.0915995 -0.28078684 -1.2048882 0.2714299
0.12552102 -0.12616923 2.583121 -0.19248006 -0.080170535 -1.2668037 1.5373775 -0.43702617
0.012776663 5.0525703 -2.9588811 -0.09452481 2.2697148 -0.31802058 -0.06407727 0.20758371
0.53991985 0.07346292 -1.5864094 -0.7191553 -0.4253289 0.59986955 -0.8068562 6.4745936
1.4346684 -0.29886383 0.1502268 0.44794518 -1.1437126 0.11643232 2.0095625 3.6639452
-2.2614481 2.0272946 -1.758139 -0.22448021 0.053749755 -0.45301968 -2.545291 0.5121889
1.714004 0.17243777 -0.1067312 0.5293688 -1.212965 -1.37125 -0.30299217 0.22476785
-2.2548883 -0.6940514 0.052847173 -3.6835322 1.6402586 1.2532866 -0.731931 -0.08992619
-0.718916 0.56398916 0.0590195 1.3386569 0.115758926 0.34734353 -0.15301119 0.32427326
-0.46121767 -1.4937726 -1.236062 -0.03130795 -0.8744894 -0.083182745 -0.09648495 -0.19505721
0.7002631 -2.1347706 6.3572345 -0.110840194 -0.84500223 0.27349892 0.54836977 -2.2586033
-2.101417 -0.4516363 -0.9914466 1.0175984 -0.11223785 0.15689534 3.3183427 1.3357469
0.39027935 0.64499706 2.3251002 1.3613617 0.8293457 0.71930194 2.8879 0.4489143
1.3598293 -2.6425374 -0.068712786 0.5571744 -0.09792704 0.08075341 0.30935872 1.3701166
-0.5665174 -0.19923624 0.15335658 -0.62786335 -0.7990639 -0.25109246 0.70239913 -0.62378293
0.7190552 0.35574028 -1.1337029 3.257313 1.0193459 -3.4915388 0.64192575 -0.14866978
-0.30092296 -1.341122 0.012730043 -1.1974615 -0.44899464 0.6594522 -0.19199148 0.26679417
3.855232 0.72683907 -0.12939002 0.15098688 0.48287007 0.51119804 0.12467091 8.238962
2.161558 4.647981 -0.67393833 1.8516188 -0.0843527 -0.37938625 -0.34795594 0.48830363
-0.90670085 -0.079621345 -1.1464822 -0.2426256 0.0379038 1.2776337 1.0076612 -0.16651835
-0.7098468 -1.4521284 -1.6072748 -0.37328994 2.3322248 -1.059 -5.3191624 -1.8760264
1.678765 0.18442914 -0.44189495 -0.9180552 1.2056426 0.36323056 -0.5193595 -0.5015694
-0.17112085 -0.33971745 5.4407625 0.7469733 -0.036439154 -0.47369006 0.7915629 1.1182654
0.08962969 7.6378317 -0.8396102 7.8113284 -0.17917033 -0.51578945 -0.34038073 0.5546467

fc1.bias f4 [128]
00000000: 7bbb 6bbf 2fa3 983f 53c1 933e 5538 803d
00000010: 059d 693d 790d 9bbd e8e4 023e 19e0 b13e
00000020: 6d8b 9c3e 1199 dd3d 3c8f acbe 095a 7c3e
00000030: 860b aa3e 13ed fc3d 365a b7be 9dd3 43be
00000040: 3b00 20bd 2c58 9d3e ecd4 ecbd ec3f 293f
00000050: 5418 b7be d70e 823e 4718 06bf 08bb 273e
00000060: 5359 1ebf 6bdb e23e 0752 c1bc f573 993c
00000070: 483f d23d 9dc7 a3bd 1998 893e 60f6 2cbc
00000080: 978b 2e3e 5431 e73e 1cdd 4f3e 9c34 663e
00000090: 354d f0be 6c96 04be a70c 1dbc b235 933e
000000a0: 94d9 3dbe 5399 04bf 3b1c efbd 7bf8 b9bd
000000b0: b7bb 0abe f5c7 0a3e 6974 143e a25c d63e
000000c0: 3fe1 983e 0313 5b3d 17c5 1a3f 8914 113f
000000d0: 00ad 0e3c d478 8bbe f8cb 84be d174 ee3e
000000e0: fa19 0cbd c55b 3dbe 89a8 babd d592 dfbe
000000f0: b0b2 a4bd 3ecd d4be 5aa6 c2be eff5 7c3e
00000100: 9ea7 073e c145 8abe 968e 013e 380a 9abd
00000110: bde6 12be b859 863e cea5 1a3e 9c0b 493e
00000120: 3062 953e d3cc 683e b6c3 e7bd 9af5 093f
00000130: a3d5 08be a371 58be 45ce 573d b17f 1abf
00000140: 0905 303e 9d9d ebbd c73d e0ba dbb5 37be
00000150: 1b92 f53d d026 2fbf 41bf 59bf 8c15 e1be
00000160: 5ea4 e2be 47c3 0cbe 1526 02bf fedc 733e
00000170: 2e26 423e 83fd ecbd 1a7f 0cbf d8be c23e
00000180: 0eae abbe da56 60be 0f7d 9a3e 65fa 89bd
00000190: 9fe2 483d 1012 b2be d984 a23d dd57 143e
000001a0: de3b 9bbe f124 b43e b890 f23d da2b d23c
000001b0: 289a 623d aca6 c63e f0a9 00bf ddd2 583e
000001c0: e8c0 8abe f278 9c3d af7f 18bd 2717 92be
000001d0: 531f 643e bbc8 c4bd 35e3 a73e c9d5 fdbd
000001e0: f3d7 49be 885c e0be 7442 bd3e 8944 943e
000001f0: 25e5 b63e 74a4 043e 525d c93e 1886 0f3e
-0.9208295 1.19248 0.28858432 0.062607445 0.05703451 -0.07570929 0.12782633 0.34741285
0.30575123 0.10820211 -0.3370303 0.2464372 0.33211917 0.12349906 -0.35811013 -0.19123693
-0.03906272 0.30731332 -0.11564049 0.6611316 -0.35760748 0.25401947 -0.52380794 0.1637994
-0.6185505 0.44308028 -0.023598684 0.01873205 0.10265976 -0.079970576 0.26873854 -0.010556787
0.17045437 0.45154822 0.2029919 0.22481006 -0.46933904 -0.12948006 -0.009585536 0.28751904
-0.1854003 -0.51796454 -0.116753064 -0.09080597 -0.1354817 0.1355284 0.14497532 0.41867548
0.2985935 0.053484928 0.60456985 0.5667196 0.008708239 -0.27240622 -0.25936866 0.465735
-0.03420446 -0.18492039 -0.09114177 -0.4366671 -0.080418944 -0.41562837 -0.3801754 0.24703191
0.13247535 -0.27006343 0.12652048 -0.0752148 -0.14345832 0.26240325 0.15102312 0.19633335
0.29176474 0.22734384 -0.11316626 0.53890383 -0.13362746 -0.21137099 0.05268695 -0.6035109
0.17189421 -0.11504672 -0.0017108255 -0.17940466 0.11990758 -0.684186 -0.85057455 -0.4396175
-0.44266027 -0.13746367 -0.5083936 0.2381477 0.18959877 -0.11571791 -0.5488144 0.38036227
-0.3353123 -0.21908131 0.30173537 -0.06737212 0.049044248 -0.34779406 0.07935495 0.14486642
-0.30319113 0.35184434 0.11844009 0.025655676 0.055322796 0.38799036 -0.50259304 0.21174188
-0.271003 0.07640256 -0.037231144 -0.2853329 0.22277574 -0.09608599 0.32790533 -0.12394292
-0.19711284 -0.43820596 0.36964762 0.28958538 0.35721698 0.12953359 0.3932901 0.14015996

fc2.weight f4 [128, 128]
00000000: 8585 0b3e 3e80 ef3c 6106 95bd 6a80 053f
00000010: b88b 803e cc2e 04bd e0e3 14bf 47fc bb3f
00000020: 15be 74bb 0d47 0340 67cf dc3f e839 34be
00000030: c21f 99bd a86d f33e 2bd4 2e3f be56 b8be
00000040: c759 263f ad6f d6be 36a5 e43d f925 b63f
00000050: 5adf 23bf 2ec3 a53f e8ae 29bf bef3 37c0
00000060: e127 82bf b8b0 693e 66b5 16bc 30e2 d33d
00000070: 5c73 10bf 8ad2 d13e ec3b d43f 26a3 393f
00000080: 735c f53e 4d78 043f 01fc c0be f846 bd3e
00000090: 0799 b73d c572 3abf 86d5 a4bf cc2d d3bf
000000a0: dd7c 0dbf 78be 6dbf 2889 473f fdbe 21be
000000b0: 3285 8e3e eea2 213e 046b bd3f d9d4 08bf
000000c0: 9254 153e 18f2 3bbe ad2c 273f 4700 cdbe
000000d0: 78a7 18c0 ddc9 d3bf 2885 c3bd fb20 30bf
000000e0: 34c8 1dbf c7ca 633f f24c d4bd 15bd 07bf
000000f0: cd19 a4be e6ca 0cbd 8fe0 8fbe 2ff7 1f3e
00000100: 4cd5 663e 4054 95bf e443 c83f 7bdf 1cbf
00000110: d014 d1be 48d2 013d aa50 abbe b8c9 0c3f
00000120: 9e5f 29be 881e 18bf 73a7 3140 4225 f6b9
00000130: 2a16 2d3e 6e65 2b3f 97b2 2abe 44b7 c4be
00000140: 697c 8e3e c5b9 98be 0d70 e83e bb81 3f3f
00000150: 41e9 3abf 82dc 0f3f 7483 0ebf 805e 70bf
00000160: 7431 32be f52b 5abf eeb1 8c3f 8118 c7bf
00000170: 3f7f 103e 961d 86bf 783d 3cbd 2d6b 38bf
00000180: eb51 41bf 150c b1bf db94 9ebe 693b 57be
00000190: 3494 853f 0ec1 ba3e fa6d 01bd 2802 a83f
000001a0: de3a 6fbe bb9f 893f a820 63bf f282 50be
000001b0: e5e1 a3bf 5f1b 163e 01c2 80bf 5223 863f
000001c0: d801 3abe f4d3 733e d1f3 d3bf 042f 5bbe
000001d0: fba8 82bf 3063 06bf 8016 0940 ebac 6ebf
000001e0: c586 233f b4ba 80bb 6337 d9bf bd7a 3abe
000001f0: ac6b 293f 5831 8a3f 717d a8be 9fcf 603f
00000200: 29e5 7fbf 91d6 0140 958c 03bd d8b5 99be
00000210: f6fa a53f 43b9 8fbf ed65 b7be 871e ca3e
00000220: 0fb5 4c3f 911f c5be 1581 903c ad47 f63e
00000230: 23d6 603f 8e5b 0f3f 0414 6e3f 9a5e 3fbe
00000240: e0ae 513f 1fa3 97be 6dc6 7ebf e22a 3240
00000250: a18d c9be 6179 443e 5e6b 8abf 8100 ccbd
00000260: 7222 a0bf 6518 4b3e 3c6b 77bf e762 32bf
00000270: 8a30 73bf 0f4a 23bf aaeb 4abf 2a4f 4e3f
00000280: 3131 ad3f 5848 e9bd 03ef 70bc b0f5 843f
00000290: bf2d 76bf 45ce e23e 8cb6 83be b1e2 713e
000002a0: 7796 4ebf 4ed9 e33d 1349 333f cc06 623f
000002b0: 3a6f 7a3f 94b1 06bf d07e 953f 840f 82bf
000002c0: 014c d2be 9d3e 9cbf a0f9 4f40 63e5 c93e
000002d0: 7a99 9cbf 55de 97be df70 083f 6664 10c0
000002e0: 8bff 793e 08bc 4a3e 045d 5bbf 1cc9 c9be
000002f0: 7fe2 d5be 87ac 51bf cb8f 2dbf 9809 cfbe
00000300: 68cc a0be 7544 80bf 5c66 713f 768c 7cbe
00000310: a5d2 54bf 2a42 e93e f462 9fbf c062 7b3e
00000320: 0b97 92be 8f21 19bf a341 d7bd 4ac6 80b9
00000330: d007 233f 4bb9 443f 8545 80bf 2521 19c0
00000340: e1f5 6bbe b324 89bf 284c d6be d15d be3e
00000350: 7b62 3bbf af81 05bf 56cb 9dbf 15dc f6bc
00000360: e630 84bf 7127 babf 30d2 a63c 16c8 96bf
00000370: 0287 993f 4b89 a9bf 645b 3e3f e8f5 ff3e
00000380: 7243 4bbe 645c 9bbf dbbf cd3f f4f4 89bf
00000390: 8266 3ebe d486 253f a8ce abbe d55c 493e
000003a0: 9cd0 a8bf f6a4 d73e 9e2e 91bf 1326 943f
000003b0: c81d a6be de94 623f ebc3 34bf 4975 f03e
000003c0: bed0 8cbe 90a2 cb3f 15e2 9a3e f898 43be
000003d0: 81fd 65bd 661c 1ebf 28b7 9d3d 277c 96bf
000003e0: 72a2 67bf 0bf6 fe3e 73e1 febe c9d7 1640
000003f0: b659 623f e027 713f 91f2 093f e4a7 363e
0.13625152 0.029235955 -0.07276607 0.5214907 0.25106597 -0.03227119 -0.5816021 1.4686364
-0.0037344743 2.0512116 1.7250794 -0.17600214 -0.074767604 0.475446 0.6829249 -0.3600368
0.6498074 -0.41882077 0.11164324 1.4230338 -0.6401268 1.2950189 -0.6628251 -2.8742518
-1.016842 0.22821319 -0.009198522 0.10345876 -0.56426024 0.4098094 1.6580787 0.7251457
0.47922096 0.51746064 -0.37692264 0.36968207 0.089647345 -0.72831374 -1.2877662 -1.6498351
-0.5526865 -0.9286876 0.7794366 -0.15795512 0.27835995 0.15784809 1.4798284 -0.5344978
0.14583042 -0.1835407 0.65302545 -0.40039274 -2.3852215 -1.6545979 -0.09546882 -0.68800324
-0.6163361 0.8898129 -0.10366239 -0.5302289 -0.32050934 -0.034373187 -0.28101012 0.15621637
0.22542304 -1.1666336 1.5645719 -0.61278504 -0.4083619 0.03169468 -0.3345998 0.549953
-0.16540381 -0.59421587 2.7758453 -0.00046948536 0.16902986 0.66951644 -0.16669689 -0.3842107
0.27829292 -0.2982923 0.45397988 0.7480733 -0.7301217 0.56195843 -0.5566933 -0.93894196
-0.17401677 -0.85223323 1.09918 -1.5554353 0.1411104 -1.0477779 -0.04595706 -0.7203854
-0.7551562 -1.3831812 -0.30972943 -0.21018757 1.0435853 0.36475414 -0.031599022 1.3125658
-0.233623 1.0751871 -0.88721704 -0.20362452 -1.2803313 0.14658879 -1.0059205 1.0479529
-0.18164766 0.23811322 -1.6558782 -0.21404654 -1.0207819 -0.524951 2.1419983 -0.932326
0.63877517 -0.0039285067 -1.6970028 -0.18210883 0.6617992 1.0796309 -0.32908204 0.87816805
-0.99959046 2.028721 -0.03211649 -0.30021548 1.2967212 -1.1228412 -0.3581995 0.39476416
0.79963773 -0.38500646 0.017639676 0.4810156 0.87826747 0.55999076 0.9299929 -0.18688431
0.81907463 -0.2961664 -0.99521524 2.7838674 -0.39365867 0.19186927 -1.0814016 -0.099610336
-1.2510512 0.19833525 -0.96648 -0.69682163 -0.9499594 -0.6378488 -0.79265845 0.80589545
1.3530637 -0.113907516 -0.014705422 1.0387478 -0.96163553 0.44297996 -0.2572521 0.23621632
-0.8069834 0.11125432 0.7003338 0.8829162 0.9782597 -0.5261471 1.1679325 -1.0160985
-0.4107361 -1.2206608 3.249611 0.3943282 -1.2234337 -0.29661813 0.5329723 -2.2561278
0.24413888 0.1979829 -0.85688806 -0.39411247 -0.41774365 -0.8190388 -0.67797536 -0.40437007
-0.3140595 -1.0020891 0.94296813 -0.24662957 -0.8313392 0.45558292 -1.2452073 0.24549389
-0.28630862 -0.5981683 -0.10510566 -0.000245618 0.63683796 0.76845235 -1.0021216 -2.392648
-0.23043014 -1.0714325 -0.41854978 0.3718095 -0.73197144 -0.52151006 -1.2327678 -0.03013424
-1.0327423 -1.4543287 0.020363897 -1.1779811 1.1994326 -1.3245023 0.743582 0.499923
-0.19849947 -1.213757 1.6074175 -1.0777879 -0.18593791 0.64658856 -0.33556104 0.19664319
-1.3188663 0.42118043 -1.1342351 1.1574119 -0.32444596 0.88508403 -0.7061145 0.4696448
-0.27503008 1.5908985 0.30250612 -0.19101322 -0.056149963 -0.6176208 0.0770095 -1.1756638
-0.90482247 0.4979709 -0.4978138 2.3569205 0.8841814 0.9420147 0.5388575 0.17837483

fc2.bias f4 [128]
00000000: 2f6b 69be 3a8c 6a3f 8b70 bfbe 9fa7 11bf
00000010: 4426 303e 76e9 c9bd 0a9f 3e3f d0c0 cfbe
00000020: 4696 1abf f96e 943e 5f20 be3e aceb 153f
00000030: 301f 28be dc73 89be f988 9b3c aafb 1abe
00000040: 96ed c83e 779d 9f3e e657 883e 66e9 dd3c
00000050: 908d 293e baf4 963d 9825 e8bb 2cea 4ebf
00000060: eaf8 ee3e 1c49 04be 1461 d0bd e3f7 8abe
00000070: cf15 c9bd 34d4 fd3e 32cb 51bc 5aab 523e
00000080: ea73 693e b3a6 6d3f 915d 9a3e ae1e 3e3e
00000090: 8664 d8be 3361 f43d f3e6 a9be 03f0 663e
000000a0: aff6 f5be 0b16 8dbd 00d5 82bf 251d 783b
000000b0: 00e0 79be 1407 0a3d fda8 603b 726d 793e
000000c0: 35cd 21bf 2a3b 0c3f f5bb 403e 5b91 e53e
000000d0: 6adf d8be 51a4 43bf 2435 923e ab8c 38bf
000000e0: 3ee3 4abe 18f1 ffbe 227a 15bf 5b7d da3b
000000f0: 6561 203e 4a23 e43e c41b 09bf a5fb f73e
00000100: c7d8 0dbe 7a3a 07bf 6f09 143f 5811 303d
00000110: aa3c 02be a71a 0a3f 4a39 6d3e e817 8f3e
00000120: 0a0e 3b3e f6b6 713d c90d 153d bc46 5fbe
00000130: 10b9 443a a4b1 95be 8f1b 27bd fa45 40be
00000140: 0e0a 8bbe c84c af3e ac9b 283e e759 03bf
00000150: dc96 e63e f3e8 103e b16f 20bc 1e9c 993e
00000160: 4a92 63be fc1d 863c 21c7 b13e c226 f13e
00000170: 9e44 b0be 60c7 1abd 7cd0 b8be c7a0 d0be
00000180: fb0d 073e 3ffb eebe 7c29 b43d 715c 04be
00000190: 4ad6 743e 7203 debd c9d4 7b3a b6f7 e0be
000001a0: 33fe 15bf fa6c ccbe db23 0f3f 6569 403f
000001b0: cf02 a63d 4a96 7fbd 0661 06bf e0f0 dabe
000001c0: cfcb e33d d90a 473e 348d 24bf 64d7 233e
000001d0: b98c 87be 46be 35be d45f c9be 3bb4 24bd
000001e0: f80b 8dbe 141f 2cbf d7ca 26bf 4cd8 943e
000001f0: 2e93 f4be be3d f9bc 29da 8abe ce93 e43c
-0.22794794 0.9162022 -0.3739055 -0.56896394 0.17202097 -0.09858982 0.74461424 -0.40576792
-0.6038555 0.28990915 0.37134072 0.5856273 -0.16418147 -0.26846206 0.018986212 -0.15135065
0.39243764 0.31174824 0.2662956 0.027088832 0.16557908 0.07370897 -0.0070845596 -0.8082607
0.4667428 -0.12918514 -0.10174766 -0.27142248 -0.09818613 0.4957596 -0.012804793 0.20573178
0.22798124 0.9283249 0.3014951 0.18566391 -0.42264193 0.11932602 -0.33184013 0.22552495
-0.48039767 -0.0688897 -1.0221252 0.0037859168 -0.24401855 0.033698156 0.0034280412 0.24358156
-0.63203746 0.5477778 0.188217 0.4483746 -0.4235795 -0.764226 0.28556168 -0.7208964
-0.19813249 -0.49988627 -0.58389485 0.0066677756 0.15662153 0.44558173 -0.5355799 0.48434177
-0.13852225 -0.52823603 0.57826895 0.04298529 -0.12718454 0.5394692 0.23166385 0.27947927
0.18267074 0.059012376 0.0363901 -0.21804327 0.0007504383 -0.29237092 -0.040797766 -0.18776694
-0.2715611 0.34238267 0.16465634 -0.51309055 0.45036972 0.14151363 -0.009792254 0.3000192
-0.22223774 0.01637172 0.34722236 0.47099882 -0.3442735 -0.037787795 -0.3609656 -0.40747663
0.13188927 -0.4667606 0.08796975 -0.12925889 0.2390987 -0.10840501 0.00096065976 -0.43938988
-0.58591 -0.39926893 0.55914086 0.7516082 0.081060044 -0.062399186 -0.52491796 -0.42761898
0.11122858 0.19437732 -0.6427796 0.16000134 -0.2647455 -0.17748365 -0.39330924 -0.040210944
-0.27548194 -0.6723492 -0.6515326 0.2907127 -0.4776854 -0.030424949 -0.27119568 0.02790251

policy_mean.weight f4 [7, 128]
00000000: aca1 2ebe 2e7b bc3c 53f0 e43c 0fd7 b0bc
00000010: 114a a13c ddfc a03c 154f 113d 10be 1fbd
00000020: 6020 4e3b f6dd a2bc 2802 c83c b35a 1a3e
00000030: 9a8f 86bc 03fc 333d d559 2a3d 74a6 cbbc
00000040: 6336 77bc 681f 47bd 130d a93d 3ede fe3d
00000050: ef5d 45bd d3a4 39bd 97d6 86bd 19db f33c
00000060: bd78 af3c 6198 67bc cf52 b3bb b949 aa3c
00000070: 2945 4d3d b1d8 033d 625f 86bd d67a 4c3d
00000080: a6ff 613d 2402 bbbb 715f 65bc 9f80 ddbb
00000090: d4b5 b0bd ee04 713d 21e0 2f3d 9134 bfbc
000000a0: dede 6dbd e46b 75bd ffe0 81bd a441 70bd
000000b0: 607c cf3c cf3f fcbd 5c23 7b3d 8804 a2bd
000000c0: 694b 7a3d 524c c83c 2c25 86bc 2b17 94bd
000000d0: f0a1 d3bd ff9e 853c 2ab1 11bd 531d 023d
000000e0: c110 05be 7a82 16bc 1458 efbb 9eda 813d
000000f0: 568f 873c 022e 13be 08ca 15bd 809e 4a3e
00000100: 5753 d83b 1495 82bc 0dff 343d 88cc 3cbd
00000110: aac4 0d3d 856f 953d 999e 40bc d5ed f9bd
00000120: 0c2d 6c3d 5f26 b7bc 2194 b23c 108e 2d3e
00000130: 8040 b83b 1604 62bd 847d 593c 0abe 9b3d
00000140: 38d1 873d 3d65 473d 868f 99bd 5d66 1bbe
00000150: 0f85 a9bc bcc3 ab3c 3bd9 fdbd c475 10bb
00000160: 8c42 85bd d3cb bc3c 6bf5 2fbd 5cdb 9ebc
00000170: 79a3 4d3c 067b 653d e3fe bebd 0d29 f7bb
00000180: 0cf2 f9bc e772 1fbe 4bd4 043d 4530 b83c
00000190: a0e8 fcbc a220 56bd b451 16bd bd7d 31bd
000001a0: f765 8ebc 42f4 293c 83f7 953d 6c0b f63c
000001b0: e6b4 9dbd 5c98 393d 1e1a 08bd d8f3 ba3d
000001c0: bbe0 883d e5a0 dc3d 2b2d 073e de4d e6bd
000001d0: ebda 2cbd 703d 0abc cdec db3d 9312 81bc
000001e0: f8b9 30bd 15d4 c93a 4493 c23d f5ea 54bc
000001f0: 1f18 2cbd 1035 a2bc 8bd1 adbd e9c0 3d3d
00000200: 6b12 813c c3ce 373e 9957 823c 650d 713d
00000210: dfad 10be b421 b6bc 7fe0 8b3c 0297 02bd
00000220: ffac 66bc af7d 1d3d e476 adbd 86a3 5b3d
00000230: ec39 8f3d 0980 66bc 738d df3c b388 f13d
00000240: fddd c2bc dbc6 6dbd d9b2 623e 6bce 14bd
00000250: a579 a73d 5e54 6fbc e218 6a3d a7d1 51bc
00000260: 417d d83d cbb6 c2bc 8c9a 33bd 1f83 dbbc
00000270: 925b 763d c83d 20bc f632 0e3d dae6 cb3d
00000280: 54a1 1c3e 1399 a33d 65dd f03d e149 3c3b
00000290: c26c 7bbd 3b05 433e ce9a 19be 10b5 4fbe
000002a0: bc29 4bbd 7fa1 28be 663c 033c f7fb c0bd
000002b0: 6da8 3e3d aa43 c0bc 3eb8 e4bc d945 ddbb
000002c0: d23d 98bd d78e 07bd f470 493e ffaa b0bc
000002d0: 5129 16be adff 3ebc e55e dabd 31cb 733d
000002e0: c38a c43d 6c8c df3d cdfc 2ebd cd84 49bc
000002f0: f15e e43d e63f cabd 07b9 083c 8402 c2bd
00000300: c7da b0bd 3bf8 813e 86bb fdbd d516 583d
00000310: 66cd c03d e282 a3bd 0f2d 52bd a088 17be
00000320: 6577 c53d 8cc0 d43a 6309 24be 2889 e53d
00000330: 10d4 853d b1d1 173d f4d9 eebd 1cdb 253e
00000340: e161 9fbd dd39 38be 8c40 4f3d 6609 f6bd
00000350: b9da b3bc 5bd3 ebbd 305c 6ebd f979 9abd
00000360: 251c a1bd 5791 6a3d 768c ca3d 039c 803c
00000370: 9b3f 853d add4 bdbd 401b afbb f571 a73d
00000380: 8bbc bcbd b846 b53d 0077 95bc 058f cd3c
00000390: 715b 06be f8b2 763c 4e37 063e 8024 76bc
000003a0: 31f7 213e b0c7 09be e6ac 29bc 8df9 f63c
000003b0: a6f4 e8bc 9861 dcbd e657 ec3b c628 0e3e
000003c0: c896 9dbc ddd9 1e3d 7393 313e 7f61 1dbc
000003d0: 739c cb3d fc0e e1bc f6b9 a2bd ecf8 aabc
000003e0: 309e bb3d 6b86 e0bd 1949 18bd 2af6 d3bd
000003f0: dacb 15be 7447 95be cbbf f43d 5245 8cbd
-0.1705386 0.023007955 0.027946627 -0.021586923 0.019688638 0.019651825 0.03547581 -0.038999617
0.0031452402 -0.01988123 0.02441509 0.15073662 -0.016425896 0.04394151 0.041589577 -0.024859644
-0.01508865 -0.048613936 0.08254447 0.12444733 -0.048185285 -0.045323204 -0.065838985 0.02976756
0.021419877 -0.014135451 -0.005472518 0.020787107 0.050114784 0.032189075 -0.065611616 0.049921833
0.055175446 -0.0057070423 -0.013999806 -0.0067597176 -0.08628431 0.058842592 0.042938355 -0.023340495
-0.05807387 -0.059917346 -0.06341743 -0.05865635 0.025327861 -0.12316858 0.06131302 -0.079110205
0.061107073 0.024450455 -0.016375147 -0.072309814 -0.103336215 0.016311167 -0.035569347 0.031766247
-0.12994672 -0.0091863815 -0.007304201 0.06340526 0.01654784 -0.1437302 -0.036569625 0.19787025
0.0066017318 -0.015940227 0.044188548 -0.046093494 0.03461138 0.07296661 -0.011756563 -0.12203566
0.057660148 -0.022357164 0.021799149 0.16948724 0.0056229234 -0.055179678 0.013274554 0.076046064
0.06631702 0.048680533 -0.07498078 -0.15175767 -0.02069333 0.020967357 -0.12394949 -0.002204285
-0.065068334 0.02304641 -0.04295866 -0.019391708 0.012551182 0.056025527 -0.093259595 -0.0075427354
-0.030510925 -0.15571176 0.03242902 0.022483954 -0.030872643 -0.052277215 -0.036699012 -0.043332804
-0.017382605 0.010373177 0.073226 0.030034743 -0.07700519 0.045311317 -0.033228032 0.09128541
0.06683489 0.10772876 0.13200824 -0.11245321 -0.042200964 -0.008437499 0.107385255 -0.015755927
-0.043146104 0.0015398288 0.09500745 -0.012995471 -0.04201519 -0.019800693 -0.08487233 0.04632655
0.015755853 0.17949967 0.01591091 0.058850665 -0.14128827 -0.022232868 0.017074822 -0.031882294
-0.014079331 0.03844994 -0.08469942 0.053622745 0.069934696 -0.014068612 0.027289128 0.117936514
-0.023787493 -0.05805097 0.22138537 -0.036329668 0.08177499 -0.014607517 0.057152636 -0.012806333
0.10570765 -0.023768803 -0.04384856 -0.026795922 0.060145922 -0.009780355 0.03471657 0.09956141
0.15295917 0.07988181 0.11760978 0.0028730559 -0.061383016 0.19044964 -0.1500046 -0.20283914
-0.049600348 -0.16467856 0.008010006 -0.094230585 0.046547342 -0.023469765 -0.027919885 -0.0067527113
-0.07433666 -0.033095207 0.19671994 -0.021565912 -0.14664198 -0.011657638 -0.10662631 0.05951995
0.09596779 0.10915455 -0.04272156 -0.012299729 0.11150921 -0.09875469 0.008344895 -0.09473136
-0.086354785 0.25384697 -0.12389283 0.05275615 0.09414177 -0.07983948 -0.051312502 -0.14798212
0.09641913 0.00162317 -0.16019206 0.11207801 0.06534588 0.03706521 -0.11662665 0.16196865
-0.07782341 -0.17990823 0.050598666 -0.12013511 -0.021954881 -0.11514922 -0.058193386 -0.07542796
-0.07866696 0.057267513 0.09890072 0.015699392 0.065062724 -0.0926908 -0.0053438246 0.081760325
-0.09215649 0.08851379 -0.01824522 0.025092611 -0.1312082 0.015057318 0.13107035 -0.015023351
0.15816952 -0.13455081 -0.010356164 0.030148292 -0.02843697 -0.10760802 0.0072126267 0.13882741
-0.019236937 0.03878199 0.17341404 -0.009605764 0.0994195 -0.027472965 -0.079456255 -0.020870648
0.09161031 -0.10963138 -0.037179086 -0.103496864 -0.14628544 -0.29156077 0.11950644 -0.06849159

policy_mean.bias f4 [7]
00000000: 8b32 35be 76a1 073c 48f6 1bbe 47af 9ebd
00000010: 363b a8bd 8316 09bc d7c8 8a3c
-0.17695062 0.008278241 -0.15230668 -0.07748275 -0.082144186 -0.008367184 0.016941471

value_head.weight f4 [1, 128]
00000000: d210 7dc1 ee30 4e41 defc 49c1 6cca 1f41
00000010: be9a 2541 6953 5341 af3c 7341 fc5c 4041
00000020: 3ed3 2f41 1529 1ac1 ef60 59c1 6013 2ac1
00000030: 8864 4541 883d 45c1 4d7a 4641 51f9 4841
00000040: 450f 8941 b3f5 84c1 def8 17c1 42f9 5bc1
00000050: ef96 6641 624f 7ec1 6d0e 3cc1 5e57 4641
00000060: 6612 9e41 5926 6341 aff9 76c1 e9d7 4f41
00000070: cd3d 32c1 da92 43c1 b7e2 2841 275c 3241
00000080: 53f4 5141 4e20 42c1 0b82 15c1 49eb 4f41
00000090: 0191 3241 5ef3 3841 7fdb 34c1 aeff 19c1
000000a0: 2846 5c41 5906 3841 9aca 4f41 62fa 3ac1
000000b0: bde0 4b41 79c3 6cc1 0d42 3fc1 dd64 7dc1
000000c0: 5c9f 3541 9f03 3741 933f 2b41 0135 2fc1
000000d0: 2dc5 2a41 e853 1d41 9bf1 7841 f644 1841
000000e0: af6e 5a41 f2dd 3741 be9d 5741 f05d 3841
000000f0: 90b3 57c1 daaa 9dc1 b9df 7341 c32c 75c1
00000100: cebb 4641 b454 7641 693c 69c1 f171 51c1
00000110: 1d53 33c1 1ea0 6bc1 28d9 20c1 5de3 8fc1
00000120: 16c5 6941 0b6c 6bc1 b8be 52c1 f3cd 4141
00000130: 9865 2541 919f 5841 47f6 25c1 e869 2b41
00000140: c2d2 4bc1 ef2d 4bc1 8a29 41c1 572b 0e41
00000150: 324f 6dc1 2f26 5041 9132 73c1 f32c fa40
00000160: e34b 83c1 4ae6 1941 0049 8141 dd6c 26c1
00000170: 361e 13c1 b932 4a41 ee62 77c1 0e4c 3541
00000180: 2d6e 7441 d5bb 4e41 5822 3a41 fb34 67c1
00000190: f239 8641 15d9 7fc1 5619 64c1 a0f7 3041
000001a0: 9a84 4641 2ebd 6041 713c 2b41 3d87 10c1
000001b0: 6fdb 87c1 54d0 42c1 b873 3741 d2aa 5f41
000001c0: f10c 4fc1 148a 8541 deca 5741 b6e7 50c1
000001d0: 5548 4141 e874 6241 c20a 6fc1 cf08 49c1
000001e0: 66df 37c1 323d 4d41 d40d 6541 99ed 54c1
000001f0: b5d9 1541 1fea 0341 7c9d 3b41 11e2 7dc1
-15.8166065 12.886946 -12.624235 9.986919 10.350279 13.207864 15.202315 12.022701
10.989073 -9.63503 -13.586165 -10.62973 12.337044 -12.327522 12.404859 12.560868
17.132456 -16.61997 -9.498259 -13.748354 14.411849 -15.894381 -11.753522 12.39633
19.758984 14.196862 -15.435958 12.990212 -11.140088 -12.223352 10.55535 11.147498
13.122149 -12.132887 -9.344249 12.994943 11.160401 11.559416 -11.303588 -9.624922
13.767128 11.50155 12.986963 -11.686129 12.742368 -14.797723 -11.953626 -15.837125
11.351406 11.438384 10.703021 -10.95044 10.673139 9.832985 15.558986 9.516836
13.652022 11.491686 13.476011 11.522934 -13.4813385 -19.708424 15.24212 -15.323428
12.420851 15.395679 -14.577249 -13.090318 -11.207791 -14.726591 -10.053017 -17.986017
14.610617 -14.713878 -13.171562 12.112781 10.337303 13.538957 -10.372626 10.713356
-12.738955 -12.698714 -12.072641 8.885581 -14.831835 13.009322 -15.199845 7.817987
-16.412054 9.618723 16.160645 -10.401578 -9.194876 12.637383 -15.461653 11.331068
15.276898 12.920857 11.633385 -14.450435 16.778294 -15.990499 -14.256186 11.060455
12.407373 14.046186 10.702256 -9.033017 -16.982145 -12.175861 11.465752 13.979204
-12.9406595 16.692421 13.487028 -13.05657 12.080159 14.153542 -14.940126 -12.564651
-11.492041 12.82744 14.315876 -13.308007 9.365651 8.244658 11.725948 -15.867692

exp_avg f4 [7]
00000000: 2eab 543a 3ee2 87ba e0c5 b83a 5062 4538
00000010: 22ae 0a3a 8578 093a 5cd4 9039
0.0008112666 -0.0010367108 0.0014097057 4.706002e-05 0.000529023 0.0005244094 0.0002762404

exp_avg_sq f4 [7]
00000000: 24a1 5e37 e2ac 6037 9c21 6637 3933 6d37
00000010: 2824 7137 1851 7d37 4d19 4d37
1.326975e-05 1.3391693e-05 1.3716894e-05 1.4138227e-05 1.4373138e-05 1.5098856e-05 1.2224843e-05

exp_avg f4 [128, 21]
00000000: 72d2 12b7 c695 ca37 cc51 1239 2a74 2739
00000010: 529c 93b8 1201 30b8 894d 6fb6 bc46 27b6
00000020: 7589 1436 65d8 e935 6974 21b6 82d6 9137
00000030: 732a b837 41f1 1d39 4213 e037 c40a 2639
00000040: cb1d 43b8 3461 a838 be3f db37 925a 13b6
00000050: 60f7 3937 65da 6537 5a1c 92b7 6612 08b8
00000060: 0524 0538 5033 abb7 e2af 06b8 3302 c6b6
00000070: 4782 f1b4 b712 4a35 cb17 60b3 d675 8631
00000080: 0889 7437 4115 94b7 4b9e 05b8 f7cb 0eb6
00000090: 3023 a737 4808 b2b7 924b 3038 1bea 6a35
000000a0: cd71 7cb4 a20a 1d35 899d 2839 eeb6 cbb8
000000b0: 2078 2dba 921a dfb9 8083 e837 6f7a 5fb9
000000c0: 1e1f 2db9 354e 85b7 b50e 9337 1b32 6236
000000d0: 7b2f 19b6 4a3a 1d39 a08b 03b9 7ac0 27ba
000000e0: ad2c 2d38 d223 6139 0235 2eb8 8150 a7b9
000000f0: fc33 36b7 5f81 edb7 41f5 b637 1b8c 48b8
00000100: e0ba 5839 1bfd 113b fb66 013b aeff bfb9
00000110: bde9 bab9 c75f 8737 1070 2e38 b431 1bb8
00000120: a944 b3b8 6213 a838 fc3b 91b8 5653 8739
00000130: 3ba1 0c3b dafb 8a39 e0fb 123a 588c 4eb9
00000140: 6cb0 043b c4d7 b3b7 29af 5738 127c abb8
00000150: a2fc a3b8 0c21 c339 ca66 4c3b ab46 3f3b
00000160: 65d7 b438 0350 c1b9 5cfd 8fb7 455e 7c38
00000170: 89fd 70b8 c13d 00b9 0b17 f638 8c4c acb8
00000180: 88c5 c939 b278 463b e2b2 4039 e1a0 b539
00000190: c6fe bdb9 cbdb 4a3b cafe 84b6 b98f 5437
000001a0: d6c2 bdb8 e004 2f38 0b55 eeb9 ceb8 4cbb
000001b0: e77d 42bb d86f 7139 7d23 b73a 5d05 50ba
000001c0: ed06 aab7 2a32 d737 c8ec a0b4 9215 57b7
000001d0: 4e68 9238 55c1 deb9 0540 49bb c3a7 bcb9
000001e0: 5225 6aba f681 7c3a 5d31 44bb 7d97 eb37
000001f0: fd3a f937 3633 5e38 098d bab9 d441 8a38
00000200: f6b8 1aba 61a9 aab9 e540 2839 3b78 06b5
00000210: bb35 c83a 45e1 2238 13e6 1bb8 6499 feb8
00000220: 9d9d 5838 c3ce 78b9 99cf ef37 4371 f2b9
00000230: 5851 90b9 9f32 5939 7350 dab8 8574 a7ba
00000240: 9f96 f838 b89b 1cb8 6701 0639 0448 0437
00000250: ca61 e7b7 f4cc c5b8 437f 3cb9 6601 9937
00000260: 8cc0 0eb7 1576 6bb8 7f23 c835 5903 ceb5
00000270: d637 6036 74a8 74b6 7c6b 2bb6 6604 82b7
00000280: d677 f3b8 8189 61b8 d5de 08b8 cab2 ec37
00000290: dd17 25b9 c822 2fb7 f3ba 4a37 e2ab b6b7
000002a0: a540 61b9 628f 99b9 6043 e8ba 577a 0cbb
000002b0: 8efb 173a 2bc4 1e3a 9b8e 6c3a 2505 fa37
000002c0: 2cb4 c1b7 e9d2 a538 43a8 99b8 e12a 6bb9
000002d0: c072 87b9 a6f5 f1ba 3875 62b9 31bf 1dba
000002e0: 5148 9f39 42c1 07bb 81a3 1eb7 f3e4 1038
000002f0: 5e24 9bb8 59c6 21b9 83c3 27ba 0793 9dbb
00000300: 2778 b0bb 1202 ad39 22f3 0dba c515 103b
00000310: cb8a eeb8 0881 0739 3dc1 b1b7 53ce 0338
00000320: 07c5 58b9 0ba3 32ba 9bbc 9cbb 2466 c839
00000330: 6ec6 4539 cede cab9 1b8d c0bb b5fa 5bb8
00000340: 98f8 2db8 9266 d637 85e2 b739 326e 84b9
00000350: 12bb 20bb a388 31bb defa 6438 d19c 45ba
00000360: 3a85 21ba cb2a 19b8 7cae 5038 1f70 fc38
00000370: 8d75 a2b8 c933 8239 947c b9b9 3c84 21bb
00000380: 4f44 8039 1a00 303a b9e3 b238 c866 15bb
00000390: f0ba d6b8 8539 d4b8 282d 49b7 99ad a3b8
000003a0: deb1 01ba 1e7c 82bb 6631 8ebb 235f ac39
000003b0: 370d 71ba 765d fa3a f36e 0cb9 e4d6 1439
000003c0: a705 8db8 2a76 3838 a50d 1bb9 f3e8 19ba
000003d0: 00ac 82bb 86b9 abb8 b1a1 ac3a ee67 2039
000003e0: 0de9 9fbb af6d 92b8 b0b8 c1b8 d289 bfb6
000003f0: c0cc 33b9 b740 d539 a9a3 c23a 1cbb 013b
-8.751276e-06 2.415002e-05 0.00013954117 0.00015969636 -7.038623e-05 -4.1962667e-05 -3.5658907e-06 -2.4926112e-06
2.213373e-06 1.7422832e-06 -2.405863e-06 1.7385235e-05 2.1954276e-05 0.00015062561 2.6711848e-05 0.00015835004
-4.651937e-05 8.02897e-05 2.6136517e-05 -2.1957426e-06 1.1084456e-05 1.3700313e-05 -1.7417758e-05 -3.244206e-05
3.1743217e-05 -2.0408683e-05 -3.2111893e-05 -5.901116e-06 -4.4984537e-07 7.52781e-07 -5.2175704e-08 3.9133097e-09
1.4575438e-05 -1.7652872e-05 -3.1857093e-05 -2.1278372e-06 1.9924337e-05 -2.122311e-05 4.203205e-05 8.751246e-07
-2.351073e-07 5.850253e-07 0.00016080415 -9.7138676e-05 -0.0006617326 -0.0004255367 2.771779e-05 -0.00021312547
-0.00016510158 -1.5891253e-05 1.7530614e-05 3.370579e-06 -2.2826414e-06 0.00014994401 -0.00012545148 -0.00063992257
4.128802e-05 0.00021471016 -4.15342e-05 -0.00031912702 -1.0860149e-05 -2.8312845e-05 2.1810296e-05 -4.78142e-05
0.00020668982 0.0022276107 0.001974522 -0.00036620855 -0.00035650833 1.6137854e-05 4.15892e-05 -3.700117e-05
-8.548174e-05 8.0144746e-05 -6.925312e-05 0.00025811297 0.0021458406 0.00026509055 0.00056069903 -0.00019697973
0.0020246757 -2.1438937e-05 5.1423125e-05 -8.177025e-05 -7.819502e-05 0.0003721792 0.0031189197 0.0029186409
8.623189e-05 -0.00036871442 -1.7164908e-05 6.0169277e-05 -5.7456582e-05 -0.00012230036 0.00011734486 -8.215857e-05
0.0003848488 0.0030284342 0.00018377186 0.00034642874 -0.0003623871 0.003095376 -3.963568e-06 1.2669648e-05
-9.048513e-05 4.172779e-05 -0.0004545826 -0.0031238082 -0.0029677094 0.00023025216 0.0013972368 -0.00079353695
-2.0268804e-05 2.5653357e-05 -2.9974603e-07 -1.2820021e-05 6.981251e-05 -0.00042487183 -0.0030708325 -0.00035983147
-0.0008931953 0.0009632403 -0.002993665 2.8084725e-05 2.9710582e-05 5.297662e-05 -0.00035581764 6.592614e-05
-0.0005902195 -0.00032551124 0.00016045904 -5.009385e-07 0.0015274802 3.883361e-05 -3.7169153e-05 -0.00012140235
5.1645202e-05 -0.00023728148 2.858769e-05 -0.00046242223 -0.00027526426 0.0002071359 -0.00010410035 -0.0012775814
0.00011853617 -3.7338323e-05 0.00012779758 7.884581e-06 -2.7582882e-05 -9.4318675e-05 -0.00017976486 1.8239672e-05
-8.50869e-06 -5.613834e-05 1.4911492e-06 -1.534917e-06 3.3411102e-06 -3.6456886e-06 -2.554355e-06 -1.5499256e-05
-0.00011609464 -5.377224e-05 -3.2632455e-05 2.8216647e-05 -0.00015744516 -1.0438911e-05 1.2083666e-05 -2.177613e-05
-0.00021481754 -0.00029289263 -0.0017720275 -0.0021435225 0.00057976774 0.0006056453 0.00090239354 2.9804718e-05
-2.3091292e-05 7.907098e-05 -7.32695e-05 -0.0002242732 -0.00025834702 -0.001846005 -0.00021596707 -0.00060175644
0.00030380723 -0.0020714556 -9.455603e-06 3.45455e-05 -7.39775e-05 -0.00015428047 -0.0006399678 -0.004808787
-0.005385417 0.00032998674 -0.0005414953 0.0021985632 -0.000113745766 0.00012922671 -2.1190028e-05 3.142499e-05
-0.00020672764 -0.00068144564 -0.0047832257 0.00038223073 0.00018861305 -0.00038694445 -0.005876196 -5.2447158e-05
-4.1477935e-05 2.5558551e-05 0.0003507325 -0.00025259104 -0.0024525565 -0.0027089498 5.4593074e-05 -0.0007538321
-0.0006161515 -3.6517897e-05 4.9753566e-05 0.000120371806 -7.7466575e-05 0.00024834115 -0.00035378768 -0.0024645468
0.00024464956 0.00067138823 8.530118e-05 -0.0022796858 -0.00010239135 -0.000101196616 -1.1991047e-05 -7.804781e-05
-0.0004947464 -0.003982081 -0.004339385 0.0003287728 -0.00091953896 0.001910134 -0.00013392772 0.00014194433
-6.724457e-05 4.3979067e-05 -0.00014787035 -0.0005871199 -0.003987789 -8.188472e-05 0.0013170746 0.00015297506
-0.0048800767 -6.982253e-05 -9.237358e-05 -5.708288e-06 -0.00017147046 0.00040674742 0.00148498 0.0019795364

exp_avg_sq f4 [128, 21]
00000000: 6d19 1432 79e8 5833 78ad c135 f5d9 3e35
00000010: 64fc a133 40ed 9233 2645 1135 b7bd 7b2f
00000020: 355e 842f 12f0 b12f 7ae5 762f 05cd 8931
00000030: b7e7 1d33 2485 a235 3a2f 7334 f78e 3234
00000040: cd48 cb33 13d3 7435 8069 8731 ac50 9631
00000050: 87a4 9132 648c ee33 85dd eb33 2454 6135
00000060: c3a1 2332 f5b3 d533 2d95 f034 2d64 6632
00000070: 965a 4e2f 4077 b92f eeff d92a 1781 a32a
00000080: 6c60 f633 7a8a f233 a365 6035 55fd 0531
00000090: 6d87 bd34 638f ee33 4297 e033 8b15 3d2e
000000a0: 43c3 e62d 7a5e 8e2d 128b bf34 3072 df34
000000b0: d0a4 0137 bf94 4036 f8f3 c234 d62e f335
000000c0: 2ca5 8635 24e8 5631 082d 8531 9363 be30
000000d0: ff28 ae30 6d33 b734 afdf cc34 c126 fd36
000000e0: 7607 0a35 c096 0c36 db65 db34 8677 4236
000000f0: 4b67 2132 342a bc32 d7f8 7c32 f905 aa34
00000100: faeb 5536 4229 7d39 91aa 6d39 a4e1 8736
00000110: 220a 0437 c063 f137 9210 da33 95eb f133
00000120: 2cd9 9533 4f14 8333 e239 3834 cdb3 9036
00000130: 96b5 7039 438e ff35 00a4 ab36 ae40 0236
00000140: 24e5 8739 ad90 2034 54a5 9e34 f2da 9034
00000150: 3433 5734 5864 7935 4749 8b38 08dd 8038
00000160: 563c 7435 394a 6036 5afc c536 fb62 2833
00000170: 608e 2d33 b3af 1f33 9a6e 0433 2766 6a33
00000180: 261c 9e35 b0c2 8138 da58 5635 3297 fe36
00000190: 8c64 7f35 ee72 8338 e0e8 f633 7a24 f733
000001a0: 23d8 2134 add8 ef34 2be0 0d36 92cb e538
000001b0: 4ceb c938 fd48 f435 321e 3c37 c677 2537
000001c0: f058 0533 db47 2533 74ed ae32 4402 b832
000001d0: 12ef eb34 71dd 2236 02ff db38 491a 2636
000001e0: 0774 bd36 cc93 8936 cef3 df38 6252 8b34
000001f0: fe00 0834 9976 0734 ece7 5b35 f297 4c36
00000200: 9e15 3039 5a01 2a39 9a9f 1836 20e5 0637
00000210: 818e 6d37 41a8 ee33 67be f933 027d a333
00000220: 464a 9d33 a989 1835 611c 8136 dbfa 2639
00000230: 7c9b cc35 d7be 3737 8c1d 0736 c7a4 3439
00000240: cb48 6034 2f72 8434 d9a9 5634 4d4a 2733
00000250: 9421 3b34 a869 6536 c3e7 a735 dd74 a634
00000260: 6ce1 7b34 d7cb db35 fed4 c230 649e da30
00000270: c47f 9d30 1d72 9530 8810 7632 7651 b833
00000280: fce2 4636 6b2a 4c35 b116 ab34 2074 8234
00000290: f4a2 0d36 4e93 5432 7411 b732 7bc0 9833
000002a0: ec5e 4535 7ad9 0c36 36d0 0439 78f8 e938
000002b0: a4b1 7036 ea60 e436 c3d9 6f37 ca3e 4533
000002c0: 04ad 4d33 8821 6833 d5a4 5933 ad64 d834
000002d0: 00f8 2936 f063 fb38 13d5 6536 73fa 8e37
000002e0: 428a 6336 b736 eb38 0b92 c634 cea7 2a34
000002f0: 57e9 a134 6a73 7835 db1a 9136 e391 8139
00000300: a1f5 6139 6ff7 a436 8c87 5437 9efa 0f38
00000310: aa6f b133 02e9 cc33 a8e5 7a33 d472 6d33
00000320: ec60 da34 83ed ab36 7eed 7339 f8fd 8d36
00000330: b453 ef37 7e10 a636 1d35 7239 958a a234
00000340: 6041 8e34 21a2 0835 dfd7 e534 b70e 6736
00000350: 2356 2639 ee73 1e39 e522 3a36 a602 ca36
00000360: e7f9 8a37 ca27 3c33 638c 6833 77a7 3433
00000370: 4c46 0e33 e236 9134 a67e 8236 1eb9 1e39
00000380: d410 af35 6726 4136 4212 0b36 be20 3339
00000390: d4e1 9234 adb0 6d34 aef9 2c34 be9b 6f35
000003a0: 85ed 9c36 4a11 8139 5237 6639 1b8c a536
000003b0: 407e 4437 0004 ed37 9216 b633 543a cc33
000003c0: d434 8433 1045 7833 3634 3935 14e7 bb36
000003d0: 2427 7439 1407 b336 d120 bb37 15f4 8a36
000003e0: 1f16 7639 d521 1634 2b8d 9134 366d d634
000003f0: d760 6c35 8ff8 3437 8383 0b3a 3284 073a
8.620515e-09 5.050285e-08 1.4430107e-06 7.1097685e-07 7.543056e-08 6.84181e-08 5.4117334e-07 2.2895717e-10
2.4077598e-10 3.2366693e-10 2.2455096e-10 4.010533e-09 3.6765154e-08 1.210869e-06 2.264832e-07 1.6629552e-07
9.4661665e-08 9.1204237e-07 3.941011e-09 4.374746e-09 1.695504e-08 1.11082755e-07 1.09833344e-07 8.394147e-07
9.524629e-09 9.9513194e-08 4.4812023e-07 1.3410539e-08 1.8767773e-10 3.3736036e-10 3.872453e-13 2.904419e-13
1.1472807e-07 1.1294192e-07 8.3594404e-07 1.949805e-09 3.5302529e-07 1.11088205e-07 1.04583265e-07 4.299276e-11
2.6234686e-11 1.6185487e-11 3.567771e-07 4.162007e-07 7.727373e-06 2.869681e-06 3.6312827e-07 1.8118542e-06
1.0031849e-06 3.1273055e-09 3.875929e-09 1.385262e-09 1.2671818e-09 3.4123823e-07 3.8160712e-07 7.544499e-06
5.1419863e-07 2.0949374e-06 4.0866038e-07 2.8977825e-06 9.3949195e-09 2.1905272e-08 1.472491e-08 3.1669313e-07
3.187683e-06 0.0002414333 0.00022665622 4.0495815e-06 7.870172e-06 2.8775888e-05 1.015443e-07 1.1265289e-07
6.9778565e-08 6.103857e-08 1.7157393e-07 4.312466e-06 0.0002295583 1.9040384e-06 5.1152892e-06 1.9409158e-06
0.0002591993 1.4953794e-07 2.9550085e-07 2.6981394e-07 2.0042063e-07 9.290575e-07 6.6416855e-05 6.144686e-05
9.0984884e-07 3.3421804e-06 5.900435e-06 3.920557e-08 4.040919e-08 3.717987e-08 3.0834236e-08 5.4575278e-08
1.178011e-06 6.187463e-05 7.985051e-07 7.5873913e-06 9.514122e-07 6.267974e-05 1.14976274e-07 1.1508469e-07
1.5072924e-07 4.4674871e-07 2.114112e-06 0.00010957489 9.628254e-05 1.8200659e-06 1.1212704e-05 9.862653e-06
3.1047364e-08 3.848241e-08 2.0364247e-08 2.142145e-08 4.3946108e-07 2.4268777e-06 0.00010490233 2.4751228e-06
5.6461463e-06 4.100124e-06 0.00010678881 2.595071e-07 1.2666348e-07 1.2616e-07 8.192135e-07 3.0486813e-06
0.00016792721 0.00016212967 2.2742665e-06 8.04037e-06 1.415948e-05 1.1113344e-07 1.16296e-07 7.613018e-08
7.3243925e-08 5.6824734e-07 3.8478033e-06 0.00015924445 1.5244436e-06 1.0952083e-05 2.0133766e-06 0.00017227522
2.0888108e-07 2.4669995e-07 1.9992093e-07 3.8950294e-08 1.7427948e-07 3.418516e-06 1.2509921e-06 3.100494e-07
2.3458205e-07 1.6376097e-06 1.4175894e-09 1.5906605e-09 1.1459567e-09 1.087361e-09 1.4322843e-08 8.582985e-08
2.9636421e-06 7.605765e-07 3.1867742e-07 2.429888e-07 2.1105488e-06 1.2373517e-08 2.131194e-08 7.1130636e-08
7.352635e-07 2.0988214e-06 0.00012666066 0.00011156587 3.5866187e-06 6.806212e-06 1.4296212e-05 4.5924743e-08
4.788764e-08 5.4047206e-08 5.0674164e-08 4.0306386e-07 2.5327317e-06 0.000119872275 3.4247685e-06 1.7044344e-05
3.3906113e-06 0.00011215865 3.6986634e-07 1.5893531e-07 3.0158364e-07 9.255515e-07 4.324463e-06 0.0002471349
0.00021549176 4.916386e-06 1.2667744e-05 3.4327262e-05 8.2625164e-08 9.541874e-08 5.8416532e-08 5.5285298e-08
4.0676184e-07 5.123847e-06 0.00023262759 4.2316933e-06 2.8529998e-05 4.9491055e-06 0.00023098705 3.0275683e-07
2.6497128e-07 5.0899877e-07 4.281164e-07 3.4430248e-06 0.00015863082 0.00015111241 2.773647e-06 6.0203774e-06
1.6567252e-05 4.380835e-08 5.414439e-08 4.2061824e-08 3.3125886e-08 2.7048287e-07 3.8890457e-06 0.00015137016
1.3043414e-06 2.8781594e-06 2.0723242e-06 0.00017082968 2.735893e-07 2.213662e-07 1.6109581e-07 8.9261073e-07
4.676813e-06 0.0002461768 0.00021955118 4.9336936e-06 1.1711905e-05 2.8254464e-05 8.479141e-08 9.5101e-08
6.1563384e-08 5.780481e-08 6.899385e-07 5.5999353e-06 0.00023284234 5.3354397e-06 2.2307418e-05 4.1411354e-06
0.00023468629 1.3982147e-07 2.7111068e-07 3.9940068e-07 8.805777e-07 1.0786708e-05 0.0005322026 0.000516954

exp_avg f4 [128]
00000000: b1b9 2b39 f6c4 d7b7 72f5 15ba c7d9 143b
00000010: 4a39 553b f794 59bb 621f 32ba 24cf 06b9
00000020: d9de 03bb 749d afbb a8cd 20bb ed19 8dbb
00000030: 0473 cf3a 3872 4e3b 3700 8739 05c5 343b
00000040: cf39 043c 91d9 c6b9 e4ca f0b9 ce50 a938
00000050: 94c4 e7b9 e867 f4ba db01 6c3a 98f5 eb3b
00000060: 353b 7639 0f47 743a ae78 103a a1b6 09bc
00000070: 2bb1 bc3a 27af 703a cfc1 84bb 17d5 fb3b
00000080: ceac fcba 333b c638 5296 7f38 892a 4e3b
00000090: 94c4 b7ba ec38 7d3b f046 973b e164 abba
000000a0: 7285 49bb f287 283a c9c9 2f3c db33 8c3b
000000b0: e1ba c23a 43b2 09bc eae2 a039 6c5b e1b8
000000c0: a612 f737 2d71 403a 9ce4 6439 6136 b139
000000d0: 7886 3e3b d68b b43b ccfe 3b3b b953 f739
000000e0: 83e5 e8b9 31aa fab9 21e9 96ba e5f2 b83a
000000f0: afe5 34bb e50c 58b9 f95d 02bb df39 97ba
00000100: 965e 9d38 e57b 093b e07a d13a 181b 32ba
00000110: 386d 333b a5cf 1dba 8974 5ebb b78d b63b
00000120: 2ac7 dcba 4d77 25ba 40a5 bbba 337c 2e3a
00000130: eba7 6a3b d767 7ebb c20f f9bb 79b3 49ba
00000140: bb34 333b 844f 1b3b 2335 49bb 6e6f 7bba
00000150: e251 1b3a c42f 833a 5a69 1136 80a1 ca3a
00000160: d856 a7b9 783e 9db9 e847 aeba 4e70 5c3a
00000170: e560 f53b e83c 083b ec7e ae3a 7e9f a33a
00000180: 6bf6 c83a a7f3 6639 d024 7abb a4e2 6839
00000190: dd19 203b c704 27ba 62d5 8fba ceea a2ba
000001a0: 06ca 9fbb 58e5 cb3a 072c d93b 9762 9e38
000001b0: 44a8 823b 0c15 6fb4 566c fa39 dbcd 913a
000001c0: f096 2c3a a4d2 513a 94dd 503b c33d 3abb
000001d0: 87dd 753a 81ac f1ba 50df d7ba 05d0 99bb
000001e0: 3951 a23a 54c3 1e3b 50a8 163b f24d 493a
000001f0: 80ed 54ba b700 6fba 1f88 06bb e5c9 dbba
0.00016377006 -2.5721714e-05 -0.0005720473 0.0022712813 0.0032535368 -0.0033200362 -0.00067948375 -0.00012856402
-0.0020121841 -0.005359346 -0.0024536643 -0.004306069 0.0015827124 0.0031501185 0.00025749367 0.0027583253
0.008070423 -0.00037927603 -0.00045927532 8.073599e-05 -0.00044206216 -0.0018646689 0.0009002962 0.007200908
0.00023482445 0.000931845 0.0005511147 -0.0084053585 0.0014396062 0.0009181373 -0.004051424 0.0076853144
-0.0019277574 9.4524024e-05 6.0936734e-05 0.0031458458 -0.0014020377 0.0038638664 0.0046166107 -0.0013076329
-0.0030749706 0.0006428949 0.010729262 0.0042786426 0.001485672 -0.008404317 0.00030686642 -0.00010745865
2.9453378e-05 0.0007341083 0.00021828938 0.00033800586 0.002907185 0.005509834 0.0028685806 0.0004717389
-0.00044421488 -0.00047810518 -0.001151357 0.0014110474 -0.0027602722 -0.00020604169 -0.0019892438 -0.0011537633
7.5039614e-05 0.0020978388 0.0015982054 -0.00067941984 0.0027378332 -0.0006020016 -0.0033943972 0.005571093
-0.0016844023 -0.00063120277 -0.0014316216 0.00066560804 0.0035805653 -0.0038819218 -0.0076007554 -0.0007694285
0.0027344662 0.0023698518 -0.0030701838 -0.00095914945 0.0005924982 0.0010008742 2.1668006e-06 0.0015459508
-0.00031917426 -0.00029991916 -0.0013296576 0.00084090687 0.0074883574 0.0020788256 0.0013312972 0.0012483445
0.0015332227 0.00022025277 -0.0038168915 0.00022209674 0.0024429478 -0.00063712563 -0.0010973627 -0.0012429596
-0.004876378 0.0015556021 0.006627563 7.552391e-05 0.003987344 -2.2266266e-07 0.00047764432 0.0011123972
0.0006583771 0.0008004105 0.0031870352 -0.002841816 0.00093790184 -0.0018438251 -0.001646975 -0.0046939873
0.0012383825 0.0024225311 0.0022988506 0.0007679156 -0.00081225485 -0.0009117233 -0.0020527912 -0.0016768543

exp_avg_sq f4 [128]
00000000: 4a05 be35 592a 1935 4331 d236 fecb 8c39
00000010: e762 9838 ff85 f938 dd66 4239 a0bd 6436
00000020: b224 1139 e689 8e39 4ee8 3939 b2e5 8c39
00000030: 1d11 1d3a 197f a139 25e2 af37 8a3a 1739
00000040: 88ae fb39 6cb6 9e36 99f2 c138 19ac e137
00000050: 4a5f 8c38 a8bb a138 6071 7338 67e7 3d3a
00000060: ca8c 8e35 6ee3 4d38 037e fa39 5113 8e3a
00000070: 4758 8e38 f017 8f38 1351 9e3a e51e 283a
00000080: 98e5 353a 83fa 5534 f05f 7036 683d 8c38
00000090: 3e76 1539 24dc 283a 173d d039 98f5 7d39
000000a0: a02c f038 4abb 1038 1eac d939 f38e 1e39
000000b0: 136f 443a de35 8339 b26d f738 d4a8 b936
000000c0: 0148 c238 e7f9 c039 71c1 2736 f85e 0435
000000d0: c810 4239 beff 683a e4b3 1339 99a7 3c37
000000e0: ac87 2c37 e0e2 1039 6caf db38 c5fb 8938
000000f0: 4c05 9138 3a0c dd34 a92c ff37 502a 1938
00000100: 8533 4839 b83c 8939 98ae cd39 b9ae 9a39
00000110: 710d 4d39 dcb6 1738 72f6 1339 13b3 ec39
00000120: c516 b338 55ab 2139 c5b6 4739 3451 b237
00000130: 03ae 9739 7ea1 9539 8dee 443a 6ae3 1837
00000140: 432b f539 ece3 9439 93ff 8239 a4be f439
00000150: bd8d 9139 5378 5037 de15 e130 e764 f737
00000160: b1b6 2938 33f8 0939 133c 3038 ccb9 1038
00000170: f436 2b3a 2133 4439 1713 e137 37c5 9d39
00000180: 8ef1 2a39 32b7 3b38 1cda ed39 9abf c837
00000190: 2330 1839 5290 1b37 4e30 f938 90e7 1b39
000001a0: dde9 9f3a 3414 4737 1581 063a 178d d639
000001b0: e986 7939 a339 1635 06e3 a539 14b7 4839
000001c0: cc53 0c38 b928 b138 e218 e038 12cc 7238
000001d0: a00a da38 f2e8 2f38 14ca 7538 b983 8739
000001e0: ec54 c539 c45f a737 c98a c039 658e 5c38
000001f0: 7213 a636 51ec d839 54f4 1938 2eba 7b38
1.4157642e-06 5.7058566e-07 6.2642225e-06 0.00026854867 7.266347e-05 0.00011898204 0.00018539601 3.4085024e-06
0.00013841948 0.00027187093 0.00017729515 0.00026874017 0.0005991625 0.00030803008 2.0966932e-05 0.0001442229
0.00048004487 4.7300036e-06 9.2481445e-05 2.690223e-05 6.693469e-05 7.712032e-05 5.8041303e-05 0.00072442595
1.06208e-06 4.908762e-05 0.00047777602 0.0010839497 6.7875306e-05 6.82323e-05 0.0012078605 0.0006413295
0.0006938814 1.9928306e-07 3.581863e-06 6.687158e-05 0.00014253796 0.0006441495 0.00039718367 0.00024219451
0.00011452404 3.4506702e-05 0.00041517703 0.00015121307 0.0007493358 0.000250264 0.0001179831 5.533084e-06
9.264053e-05 0.00036807286 2.4997537e-06 4.931203e-07 0.00018507533 0.0008888206 0.00014086027 1.1244695e-05
1.02835875e-05 0.00013817428 0.000104754086 6.579565e-05 6.9151254e-05 4.1173354e-07 3.0419165e-05 3.651745e-05
0.00019092679 0.00026175915 0.0003923073 0.00029503347 0.00019555331 3.6171507e-05 0.0001411082 0.00045146848
8.539626e-05 0.00015417983 0.00019046206 2.1257067e-05 0.00028930613 0.00028539816 0.00075123535 9.112855e-06
0.00046762274 0.00028398575 0.0002498595 0.00046681345 0.00027762158 1.2425781e-05 1.637712e-09 2.949168e-05
4.0462884e-05 0.000131578 4.201762e-05 3.4505312e-05 0.0006531321 0.00018711064 2.683098e-05 0.0003009231
0.0001630245 4.475489e-05 0.00045366667 2.393108e-05 0.00014513782 9.272322e-06 0.00011882243 0.00014868216
0.0012200434 1.1866028e-05 0.0005130929 0.0004092238 0.00023796748 5.5963227e-07 0.00031640398 0.00019141688
3.3456643e-05 8.447603e-05 0.00010685787 5.788735e-05 0.00010397029 4.19402e-05 5.860075e-05 0.00025847348
0.0003763804 1.9952546e-05 0.00036724497 5.2584703e-05 4.9494492e-06 0.000413748 3.670559e-05 6.0016457e-05
