models/final_model.pth (torch, 255114 bytes, 24 tensors)

policy_log_std f4 [7]
00000000: 133e 813c 2431 683c fba8 253c e7bc 453c
00000010: 81d3 213c 9c7c 4b3c 6cca 5d3d
0.01577667 0.014171872 0.010111089 0.012068964 0.009877087 0.012419846 0.054148123

fc1.weight f4 [128, 21]
00000000: 5b7b 3abe 2630 d1bd ea4e b3bd 8d53 823d
00000010: 619b 2d3e c30b 9dbd e89b dcbd e0e3 6f3e
00000020: 6b1d a03d bd60 573e 27a9 46be 5106 f9bd
00000030: aafe 66bd 5ce0 0fbe 4811 183e 6a61 013e
00000040: 8aa2 f13d 6db5 54be d920 f8bd 6b25 83bd
00000050: 2316 dc3d 61ea 323e d110 233e edfa be3d
00000060: 4ea7 713e c792 783d 5546 8abd 8f13 663e
00000070: 6e61 223e 7db5 babc 3183 cbbd 4e91 7c3c
00000080: 2861 febd 0224 b0bd 7db7 4c3d a99f d1bc
00000090: dd7f 673d 9838 653e ac99 fe3d d623 333e
000000a0: f681 ed3d 51d3 a5bd 6b55 bbbd 5b83 193e
000000b0: 86e5 293e 0ded 093d 24cd 413e eeca 2ebe
000000c0: 5390 19bd b1c7 61be 9eaa fa3d e646 07be
000000d0: c213 e9b9 5c2c 093d 294e 2abd 4655 8f3c
000000e0: 8796 f33d 18fe 6e3d b63f 1f3e 17bd 69bc
000000f0: 139d 3e3e 8d66 c8bd 7201 ebbc 443c e43c
00000100: 2bf7 e93a 3c4c 8bbd ee58 34be b643 2f3e
00000110: dea1 5bbe 0085 b3bd fec0 113e 7fb7 b93d
00000120: 3141 1c3e 4b7a f13d 8de5 bebd e437 53bd
00000130: e630 303b 1f92 cd3d 24af 19be 957e 2abe
00000140: a53f 2abe 654d 3e3e 8d66 d8bd 2689 61be
00000150: 8bb0 32be 92e1 393e 3703 4fbd 4804 853d
00000160: aa51 cf3d 9d25 7e3e d236 943d f777 18be
00000170: 7107 183e dcc7 ef3d 81a6 fdbd 74bf 14be
00000180: d15d 98bc 5934 793d 75cc 06bd 4b72 603e
00000190: 49d9 043e ba9d 04be 889f 173c cd58 17be
000001a0: 4a4e 0ebe 06cd a7bb e0f8 5ebe a383 bdbd
000001b0: 5020 cfbd 4241 8cbd ed6a 423e 3ce7 ec3d
000001c0: 4a31 1cbd ae8b 233d 222b eebd d401 70bd
000001d0: 99a1 473e f9df a1bd 4813 c33d 3567 12be
000001e0: 6c49 233d 5436 e73d 140d 533e 7796 f63c
000001f0: 0a89 5b3e f94b 2ebe 576a dfbd 40b3 3f3e
00000200: 32b3 14be 523f a43d 8252 533e a832 1b3e
00000210: 5ccd 433e 88fa 853e 52ee 85be e3c6 07be
00000220: 5564 3cbe 09ed 833d 5cf6 163e f40d b63d
00000230: 4c59 a63d 2bd4 103e 0373 15be 016f 8ebd
00000240: f1ff 40be 3cf0 223e 4ad4 46be 3539 3bbd
00000250: 33e6 803d 22b1 46bd 3799 c93d db12 ba3d
00000260: 1683 0b3e 2f67 c4bd e8c5 73be 78f1 073e
00000270: 9e2a fbbd 7507 733d eafb 1bbe d68d 2fbd
00000280: b132 4ebe 9a69 debd 3877 fcbd 9faf f7bd
00000290: 0bb8 4ebe 818b 703d 2bc8 d6bc e035 b4bd
000002a0: 4e7c 473e ce5c 693c 7110 85bc a075 1a3d
000002b0: c994 0e3a 4f75 0dbe 442d 7e3d 67d0 5abd
000002c0: 89ef 40be 23c8 573e 9906 a93d 060e 473d
000002d0: 4a77 c6bc 0bac 2dbe c66c 173d 064a 5ebe
000002e0: 4ec7 f8bd 6706 3c3e 9872 893c 5815 cb3d
000002f0: d514 4ebe 7788 77bc 369c e4bd 014b 87bc
00000300: b63a f8ba 9cc7 843d 5871 abbd 4a0e 4e3d
00000310: 64a9 083e df7a 53be 01ac 1d3e 5da8 d23c
00000320: 3587 a23d 6b6f 04be e210 2c3e 375b 45be
00000330: 9890 023d 457e cc3d 6a69 313e 5ae8 5e3e
00000340: 5d1b c93d f887 8a3d 32d4 2d3e caa5 44be
00000350: 0ad4 593e 462b 16be 1c12 893d 77bb 153d
00000360: 087a a9bd 45bb 123c 6b3e 4abe 14a1 4f3e
00000370: 8340 0a3e e530 153e 9b31 99bd 3500 cd3c
00000380: b63c 4b3e bd48 573e e29f 603e 3b86 f6bd
00000390: 3cbd 0fbe ce6b 28bd a0ba debd 32db b33d
000003a0: 49c6 fa3c ba27 683e 74fd cbbd aabc 953d
000003b0: 4b5a 2f3e 5416 c53d d8af 8bbd de98 6e3c
000003c0: ebd9 05be 7a8a 463e 6f9b 38bd c539 2fbe
000003d0: 034d 363e 2e2b 103d 0dc8 01be 1969 fc3a
000003e0: b0a9 1d3d 47fc 28be a56c 0c3e e9a4 993d
000003f0: cdd4 023e a796 813d e297 39be 7890 1e3e
-0.18211119 -0.10214262 -0.08755286 0.06363592 0.16953804 -0.07668259 -0.10771924 0.23426771
0.07818111 0.21032996 -0.19400464 -0.12159408 -0.05639521 -0.1405043 0.14850342 0.12634817
0.1179858 -0.20772333 -0.1211564 -0.06403621 0.1074641 0.17472221 0.15924384 0.09325204
0.23598978 0.060686853 -0.06751696 0.22468399 0.15857479 -0.022791618 -0.09937132 0.015415503
-0.12420875 -0.08600618 0.049979676 -0.025588827 0.056518424 0.2238487 0.12431654 0.17494139
0.11597054 -0.08096946 -0.091471516 0.14991514 0.16591462 0.033673335 0.18925911 -0.17069599
-0.037491154 -0.22048832 0.12239574 -0.1321064 -0.00044455944 0.03348957 -0.041578446 0.017496716
0.11893945 0.05834779 0.15551648 -0.014266274 0.18614607 -0.09785185 -0.028687213 0.027860768
0.0017850151 -0.0680165 -0.17612049 0.17115673 -0.21448466 -0.08765602 0.14233777 0.09068202
0.15259244 0.11790904 -0.09321127 -0.051566973 0.0026884614 0.10037636 -0.15008217 -0.1664985
-0.16625841 0.18584211 -0.10566435 -0.22024974 -0.17450158 0.18152454 -0.050540175 0.06494957
0.10122998 0.24819036 0.07237019 -0.14889513 0.14846589 0.11708042 -0.12385274 -0.14526159
-0.018599423 0.06084094 -0.03290983 0.219186 0.12973513 -0.12950793 0.009254344 -0.14779969
-0.13897052 -0.0051208762 -0.21774626 -0.09253623 -0.10113585 -0.068483844 0.18986101 0.11567542
-0.038132943 0.03992813 -0.11629321 -0.058595493 0.19495238 -0.079040475 0.09525162 -0.14297183
0.039864942 0.11289659 0.20610458 0.030101044 0.21438995 -0.17021169 -0.109089546 0.18720722
-0.14521483 0.0801989 0.20636943 0.15156043 0.19121307 0.26167703 -0.26158386 -0.13259463
-0.18397649 0.06441695 0.14742416 0.0888938 0.08122501 0.14143436 -0.14594655 -0.06954766
-0.18847634 0.15911955 -0.1941692 -0.045708854 0.06293907 -0.04850877 0.098436765 0.09085628
0.13624224 -0.09589993 -0.23805964 0.13275707 -0.12263988 0.059333283 -0.15232816 -0.042859875
-0.20136525 -0.10859986 -0.12327427 -0.12094044 -0.20187394 0.05872679 -0.026218494 -0.08799338
0.19481012 0.014243318 -0.016243191 0.037709832 0.0005439041 -0.13814281 0.062054887 -0.053421404
-0.18841375 0.2107244 0.082532115 0.04859736 -0.024226803 -0.1696016 0.03696897 -0.21707925
-0.12147389 0.18361817 0.016778275 0.0991618 -0.20125134 -0.015108219 -0.11162607 -0.016515257
-0.0018938396 0.06483385 -0.08371228 0.050306596 0.13345867 -0.2065234 0.15397646 0.025715047
0.07935945 -0.12933128 0.16803315 -0.19273077 0.031876177 0.099850215 0.17325369 0.21768323
0.09819672 0.06764215 0.16975477 -0.19203869 0.21272293 -0.14664945 0.06692907 0.036555734
-0.08275229 0.008955781 -0.19750373 0.2027629 0.13501172 0.14569433 -0.074801646 0.025024513
0.19847378 0.21023841 0.2193599 -0.12037321 -0.14037031 -0.041118436 -0.1087544 0.087820426
0.030612128 0.22671404 -0.09960452 0.073113754 0.17124288 0.096233994 -0.06820649 0.014562814
-0.1307141 0.19388762 -0.045070108 -0.17111881 0.17802815 0.03519743 -0.1267397 0.0019257396
0.038491905 -0.16502486 0.1371332 0.07502157 0.1277649 0.06327563 -0.18124345 0.15484798

fc1.bias f4 [128]
00000000: 2dad 67be d55f 40bd e724 5a3e 0816 b2bd
00000010: 38af eb3c d470 a0bd f137 0ebe 1a1a 22be
00000020: 9d6e 023e 62d6 3e3e a662 88bd 846b 273d
00000030: fdd8 0e3e 8194 8e3d 793b 873d 4ca1 fd3d
00000040: 9b8c 6ebe 333d 0a3e 4ae3 fe3d a172 f83b
00000050: c793 923a dc01 843c f2b9 31be e015 03bd
00000060: 71b4 1c3e adb6 2ebe 510c 47be 168a a6bd
00000070: 1776 14bd 28da 283e 247b 273d 436b 263e
00000080: b9aa ccbc a104 633e 2891 53be 481e 3f3e
00000090: c40b 38be d422 0f3e bed5 eb3c 18fe 3bbd
000000a0: 8fa4 7fbd 3284 423d 5631 d33c dae2 743d
000000b0: e4a2 9abc 9eb1 283e 66ca 36be fea8 5d3e
000000c0: 3870 19bb c054 50bd d5b1 383c 1b6d d7bd
000000d0: 3427 56bd 3855 483e ddec c7bb 0d4b 553e
000000e0: 834f 083e c735 5ebe e98e f33c 9b6f 3e3d
000000f0: 83b1 183b dfbf 16be ba75 51be 3b66 0dbe
00000100: 8b84 283d b578 02be cddf 0abc c466 9c3d
00000110: 0a41 21be d1a1 ecbc c794 cbbb 649e 533d
00000120: 9105 abbd 7e77 43be bcf4 213c 81a2 493d
00000130: 0f17 43bd 56de a7bc 543c e5bd cd62 4fbe
00000140: 8c63 ce3d 1855 0fbd 4ad2 2abd 8bb7 cbbd
00000150: c568 1abe 79ae 453e 6acf 9fbd fa41 febd
00000160: b3aa e53d afb2 0fbd 19c6 1b3e ac24 43be
00000170: 124b ad3d db1c 83bd cc49 913d e740 013e
00000180: 6ef9 453e 1b1a 24bd 4440 25be 8a93 8bbd
00000190: c5aa 4bbe afd9 163e d6f2 ecbd f845 1c3e
000001a0: bfad 9fbd be61 033d de29 e73c f3c7 063e
000001b0: 73ea 0c3e 2b3a 2d3e b182 92bd 5893 0f39
000001c0: ad19 2ebe bf9c 53be 1731 91bc 1018 24be
000001d0: 3247 0e3d d221 5bbe 0bee 0abc 0a1f 153d
000001e0: 3fe7 893d 842f af3a a100 20bd e641 733e
000001f0: 4b9c 27be 2e7f 08be c69b 26bd 43cf 29be
-0.22624655 -0.046966393 0.2130314 -0.086956084 0.028770074 -0.0783402 -0.13888527 -0.1583027
0.12737508 0.18636468 -0.06659441 0.04087402 0.13949962 0.069619186 0.066031404 0.123842806
-0.23295824 0.13499908 0.12445696 0.007582024 0.0011182957 0.016114168 -0.17356089 -0.032003284
0.15303208 -0.17061873 -0.19438292 -0.081318066 -0.03624543 0.1648947 0.04088892 0.16251855
-0.02498375 0.22169735 -0.20660841 0.18663895 -0.17973238 0.1397813 0.028788444 -0.04589662
-0.062412795 0.047489353 0.025780361 0.059786655 -0.0188765 0.16474006 -0.17850646 0.21646497
-0.0023412835 -0.050862074 0.011272867 -0.10518857 -0.05228348 0.19563758 -0.0061012344 0.20829411
0.13311581 -0.21700202 0.02973123 0.046493154 0.0023299165 -0.1472163 -0.20455065 -0.13808529
0.041142028 -0.12741359 -0.00847621 0.076367885 -0.15747467 -0.028885754 -0.006212804 0.051664725
-0.08350671 -0.19088551 0.009885009 0.04922724 -0.047629412 -0.02049176 -0.11193147 -0.20252533
0.10077581 -0.03499326 -0.041704454 -0.099471174 -0.15079029 0.19304837 -0.07803233 -0.12414928
0.11214199 -0.035082515 0.15212287 -0.19056958 0.08461584 -0.06401988 0.07094154 0.12622415
0.19333431 -0.04006396 -0.16137797 -0.0681525 -0.19889362 0.14731477 -0.11569755 0.15261066
-0.07796811 0.032075636 0.028218206 0.13162212 0.1376131 0.1691672 -0.07153834 0.00013692433
-0.17001982 -0.20665263 -0.017723603 -0.16024804 0.034735866 -0.2139962 -0.008479605 0.036406554
0.0673356 0.0013365601 -0.0390631 0.23755607 -0.16368215 -0.13329765 -0.0406759 -0.1658297

fc2.weight f4 [128, 128]
00000000: 016c ee3c 51e7 7dbc 0750 05bd 587d b93c
00000010: cb96 993d a7b2 2abd 6406 793b f37c 363d
00000020: edb9 bf3c 594a 7a3d 66ec 19bd 0416 90bd
00000030: 38a4 d9bd 8850 73bc 2136 43bd c58b 8d3b
00000040: 0a2e 6c3b 97f9 953a a62a 71bc 9b00 643c
00000050: b9bb 1ebd 4314 b6bd 68d0 11bd 665d ab3d
00000060: d68c 983d d242 993d ca85 53bd 600d 9dbd
00000070: 58f2 763d 9ab1 423d 0501 323d f5fe 2b3b
00000080: 3cda a53c 4e8b 543d 7b67 9c3d 76db 62bd
00000090: 5e86 aa3c c5a3 7d3d 7e09 bc3c b452 76bd
000000a0: d490 2c3d 15c6 8b3d a5ab 2f3d 824e 093d
000000b0: 4e2f 823d 93ce 2e3c b79f 93bd 1d41 703b
000000c0: 7e08 48bc 36b4 76bd 84fc a6bd 23af 5f3d
000000d0: 4faf 72bc e901 dabb a03d 953d 55ec 9dbd
000000e0: 741e 96bd ffbd c0bd 1431 5f3d af4b 843c
000000f0: fe1a d6bb 4b5e 8b3d 6173 0abd 7360 f3bc
00000100: 3f5c 28bd dc1e 823d 3fa2 bd3c 1c62 b8bd
00000110: 36f7 febc 5132 ce3b affc 433d 02cc 1c3d
00000120: 164f b33c c7d4 4d3d 58d2 f6bb 46af b6bb
00000130: 31ef d03d 478f 14bd f78e 9c3d 9eac cfbd
00000140: dff7 ca3d 91d9 96bd bd5a 973d b5f1 4cbd
00000150: 602a 83bd be29 c33c f192 efb9 b0ac 5b3d
00000160: 5441 4c3d 46d5 a0bd 7ece 7bbd 52ac ffbc
00000170: e9df 9a3d 899e a53c 9a0d 97bd 1054 89bd
00000180: e9df cbbc 204b 66bc bd89 473d f6ba 70bd
00000190: 9f58 183d e003 823d e4d6 cc3c 7d2a 89bd
000001a0: 050b 97bd 7d3b 9dbd 8346 8dbd ee90 c8bd
000001b0: bbac dabc e4b7 87bd aaf0 c03c 101e 5abd
000001c0: f01d 1abd 68c4 a43c ba9c d23c dc29 3ebd
000001d0: 6084 08bd b1be c5bc d4cd 6ebc 1e89 b33c
000001e0: daa3 d23c 3312 2dbd 37bb 5fbd 1b93 5c3d
000001f0: 7801 9f3d 31d7 8f3d 4dba 543d 26f9 6fbd
00000200: c104 a1bd 980c bb3c 0cb4 86bd 9f39 0abd
00000210: f700 7f3c d940 183d 7726 a83d ed43 79bd
00000220: 694a 373d a8bc e83c a6e9 993d dfab 273d
00000230: bdf9 a4bd ae0f c73c e4f4 fbbc c6c7 743d
00000240: 9849 0c39 21df 163d 8d92 903c 1865 c83c
00000250: 280e e0bd 460e 983d 3b59 ec3d 233e 6d3d
00000260: 0841 7d3d 642b 1abd dea7 e83d 11c4 c03c
00000270: b20b 963c 1c91 5abd f7e5 c43c 8385 153c
00000280: 2220 e83c 3489 bfbc 30d3 9abd 8879 86bd
00000290: 597d e43b 1d5f b8bc e5d9 30bc f7d9 bcbd
000002a0: 9d67 bebc 3e08 c7bd 7cc5 5d3d c974 f8bd
000002b0: 59e4 a0bd b620 cfbd e68b acbd 5be2 3d3d
000002c0: d677 24bd 5fcf dbbd b192 ab3d 130a 0dbd
000002d0: 8962 cb3c c1cf 5bbd 32d6 31bd e205 cbbd
000002e0: 4c9a ccbd 57a5 883d 65fa 3bbd a381 adbb
000002f0: f579 d93d 8412 0cbd 95e2 633c 9c63 85bd
00000300: d23a 1cbd 5d46 26bb 5d0e 273c 9432 f5bd
00000310: c95a 7c3d f193 763d ebb2 e43d 2f2d 63bd
00000320: dd60 59bd ed6e bbbd b2e1 ecbd 2ea7 52bd
00000330: d392 1dbd 9829 ae3d 2076 463c 5dde 6c3d
00000340: c678 173d c9a6 29bd c7e7 e13c ea53 ff3c
00000350: 8fc7 cb3d 13ed 9fbc 4c1e ea3d 544b 793d
00000360: 9118 653d ac67 d13c 356c d5bd f195 f13a
00000370: d318 41bd 92d4 e83c 2044 6d3d baf2 a23b
00000380: 9704 a2bd aa26 b0bb 48c1 fbbb dbf0 153d
00000390: c3d3 f9bb e397 9f3c 8247 03bc 0881 bfbb
000003a0: 9a99 92bc d30f 783d e024 cbbd c238 d4bd
000003b0: b3c9 753d c433 513d 38bb 0a3d 9f58 5f3d
000003c0: 6a4e c2bd 99ee 32bd da3e c0bd 19dd e63c
000003d0: ce26 8b3d 7e76 823d f948 af3d d580 6a3d
000003e0: c2da 273d 7ce9 183d cfdb d73c 825b b5bd
000003f0: bbc0 903d 1dc9 6a3d 50b7 4b3c d91a bbbd
0.029104235 -0.015497045 -0.032547023 0.022642776 0.074994646 -0.041674282 0.0037998194 0.044552755
0.023404086 0.06110606 -0.037578963 -0.07035449 -0.10627025 -0.014850743 -0.047659043 0.0043196403
0.0036038184 0.0011442181 -0.014719641 0.01391616 -0.038753245 -0.08890583 -0.035599142 0.08367424
0.07448737 0.07483448 -0.051641263 -0.07668567 0.06028971 0.047532655 0.043458004 0.0026244496
0.020245664 0.051890664 0.07636925 -0.055385076 0.020816024 0.06192376 0.022953745 -0.060137466
0.042130306 0.068248905 0.042888302 0.033522137 0.06356679 0.010669368 -0.072081976 0.0036659904
-0.012209056 -0.060230456 -0.08153632 0.054610383 -0.014812305 -0.0066530597 0.07287145 -0.077110924
-0.07330027 -0.09411239 0.054490164 0.01614937 -0.0065339794 0.06805094 -0.03380144 -0.029709077
-0.041103598 0.06353542 0.023148654 -0.09003088 -0.031123739 0.0062926193 0.0478484 0.038280495
0.021888297 0.05025175 -0.007532399 -0.0055750934 0.10201872 -0.036269452 0.07644456 -0.10140346
0.09910559 -0.07365716 0.07390354 -0.050035197 -0.06404567 0.023823615 -0.00045695112 0.053631485
0.04986699 -0.07853179 -0.061476223 -0.031210098 0.07562239 0.020217197 -0.07375641 -0.06705487
-0.024887042 -0.014055997 0.04871534 -0.05877205 0.03719389 0.06348395 0.025004812 -0.06697557
-0.07375149 -0.07677362 -0.06898215 -0.09793268 -0.026693692 -0.06626871 0.023552258 -0.053251326
-0.037626207 0.020113185 0.025709499 -0.04642664 -0.033329368 -0.02413878 -0.01457544 0.021915969
0.025712896 -0.042253684 -0.0546219 0.05385123 0.07763952 0.070234664 0.051935483 -0.058587216
-0.07862235 0.022833154 -0.0657731 -0.033746358 0.015564195 0.03717122 0.082104616 -0.060855795
0.044748697 0.02841027 0.07515268 0.040935393 -0.08055446 0.024299469 -0.030756421 0.05976083
0.00013378856 0.036833886 0.017648006 0.024462268 -0.109402 0.074245974 0.11540457 0.057920586
0.061829597 -0.037639037 0.11360143 0.023530992 0.018316124 -0.053361043 0.024035437 0.00912607
0.028335635 -0.023380853 -0.07559812 -0.06566149 0.0069729504 -0.022506291 -0.010794138 -0.09221261
-0.023242766 -0.09718369 0.054143414 -0.1213165 -0.07856054 -0.10113661 -0.08425121 0.046358448
-0.040153347 -0.10732912 0.083775885 -0.034433436 0.024827259 -0.053664926 -0.043417163 -0.099132314
-0.09990367 0.06672161 -0.04589309 -0.005294995 0.106189646 -0.034197345 0.013909002 -0.065131396
-0.038142033 -0.002537153 0.010196296 -0.11972538 0.061610017 0.06019968 0.111669384 -0.055463012
-0.05307089 -0.09152017 -0.115664855 -0.051428966 -0.0384701 0.08504027 0.012113124 0.05782925
0.036980413 -0.041418824 0.02757634 0.031167943 0.09950172 -0.019522225 0.1143156 0.060862854
0.05593163 0.02556213 -0.104210295 0.0018431527 -0.047142815 0.028421674 0.057926297 0.004972783
-0.07911032 -0.005375703 -0.007682953 0.03660665 -0.007624121 0.019481605 -0.008012654 -0.005844239
-0.017895509 0.060561966 -0.09919143 -0.10362388 0.06000681 0.05107476 0.033869952 0.054527875
-0.094876125 -0.043684576 -0.09386988 0.0281816 0.06794511 0.06370257 0.0855884 0.05725177
0.040980108 0.037332043 0.02634993 -0.08855344 0.070680104 0.057320703 0.012433842 -0.0913598

fc2.bias f4 [128]
00000000: 0fbc d8bc cbf5 0fbd 9eda 073d 047a de3c
00000010: 9522 9dbd e492 17bd b685 853d bff8 613d
00000020: 0e8a 6bbd a78b 95bd f187 bc3d f55a a6bd
00000030: 7a08 583d f4d5 9bbd ce3f 49bd d34c 633d
00000040: 1917 2ebd 6193 2cbd 1918 8ebd 1d6c 833d
00000050: db11 81bd 18e7 333d 37bc 863d c29f 163d
00000060: 94fb 96bc 9b2b 6b3d 00a0 5e3d b93d f9ba
00000070: 034f b93d faca f83b 0f0c a3bd 376e 9b3b
00000080: 4ffb d5bc 9944 793d 1478 c23d a7a7 9a3c
00000090: 766b 05bd 4e65 86bd cd4a 1b3d c043 303c
000000a0: 29d6 d5bc 3bf4 9bbd 9d87 c03c 5940 10bd
000000b0: 2a3d 593d 1bb2 cc3d 3e26 c1bd d9bb eab9
000000c0: 25ce 013d e366 bb3d 4333 51bd cb8f c53d
000000d0: 8544 47bd 3951 0a3d 13dc e3bb eedf 3fbd
000000e0: b32a 04bd 667a cdbb 4742 a63d 5437 883d
000000f0: 84b1 24bd 1f62 5c3d 3a8a ebbb b6cd 8a3d
00000100: 623e b23d 0572 ca3d 1718 803d 419d bc3d
00000110: 9232 38bd 1016 c63c b666 70bc 0850 133d
00000120: 3fe9 78bd 8d20 153d 7b07 963c 3b99 59bc
00000130: db71 303c abf2 79bd ac83 b03d 93e3 70bd
00000140: ee30 523d 0ecc 283d dd6f d8bb 0ea5 43bc
00000150: 0758 d73c 2104 38bd fcf7 5cbc e72e afbc
00000160: e29b adbd b15a 6bbd e4e5 b5bc 3624 a3bd
00000170: a3c5 61bb 6c88 323d 64b7 c6bd 53c0 8e3d
00000180: fcdf ccbd e0d9 993d d094 a53d 8d2a 463b
00000190: da73 923d 3585 0d3b 820e d9bb 8680 bc3d
000001a0: 2ff9 9abc 20ef 0dbd 1628 04bc 9192 deba
000001b0: c32d 8bbd 0a41 1f3d 67b2 813b abf6 0d3d
000001c0: 69aa 1bbd 7d58 29bd a87d 0a3c 2e3f b93d
000001d0: 6ea1 8dbd 7f6a 77bd 6945 80bd bc01 6cbd
000001e0: 2c65 8bbd 8341 3abd bf4e b63c 2572 133d
000001f0: 033a 043d d63b 143d 344e cf3a e202 19bd
-0.02645686 -0.035146516 0.033167474 0.027157791 -0.076726116 -0.03700532 0.06519644 0.055168863
-0.057504706 -0.07302027 0.09205616 -0.081228174 0.05274246 -0.07609168 -0.049133115 0.055493187
-0.042502496 -0.04213274 -0.0693819 0.06417105 -0.06302234 0.04392156 0.06578868 0.03677345
-0.018430509 0.057414632 0.054351807 -0.0019015587 0.090482734 0.007592556 -0.07961284 0.0047433632
-0.02612081 0.060856435 0.09495559 0.018878771 -0.032573186 -0.06562291 0.037913132 0.01075834
-0.026103096 -0.07614943 0.023502165 -0.035217617 0.053036846 0.099949084 -0.09431122 -0.00044771915
0.031690735 0.091504835 -0.051074278 0.09646567 -0.04864933 0.033768866 -0.006953725 -0.046844415
-0.032267284 -0.0062706945 0.0811811 0.06651178 -0.040208355 0.053804513 -0.0071881087 0.067775175
0.08703305 0.09885029 0.06254595 0.09209681 -0.044970103 0.024180442 -0.014672926 0.035964996
-0.060769316 0.036407996 0.018314114 -0.013281162 0.010769333 -0.06102244 0.086188644 -0.05881078
0.051316194 0.041210227 -0.006605132 -0.011941208 0.026287092 -0.044925813 -0.013486858 -0.02138467
-0.08476998 -0.057459537 -0.022204347 -0.07965891 -0.0034450076 0.043587133 -0.09702948 0.06970277
-0.10003659 0.075122595 0.08085024 0.0030237765 0.07151003 0.002159429 -0.006624044 0.092042014
-0.018917648 -0.034651875 -0.008066198 -0.0016980936 -0.06795838 0.038880385 0.003958035 0.03465907
-0.038004313 -0.041344155 0.00845281 0.09045254 -0.06915556 -0.060404297 -0.06263239 -0.05761884
-0.068064064 -0.045472633 0.022254346 0.03599753 0.032281887 0.036189876 0.0015816153 -0.037356265

policy_mean.weight f4 [7, 128]
00000000: 1a29 573a abfd 7c3d e390 33bd cc53 c9bc
00000010: c718 63bd d0d3 973d 5d60 16bd 621f a1bd
00000020: 7308 af3d f76b a2bd d5a3 b6bd 3536 2bbb
00000030: 8687 4e3d 8113 5e3c 7268 77bd 1973 14bd
00000040: 3980 57bd b22a 83bc 15f6 db3b 9d61 bdbc
00000050: fa52 293d b820 3d3d aa63 4dba 0b9e 9e3d
00000060: dd97 c4bb 98c7 c7bc 3523 e93c 5fd0 9a3b
00000070: 8c06 dc3c e060 4dbc d32a a73d ca72 a3bd
00000080: 8ce0 303d 5111 363d 6080 863d db9b 9e3d
00000090: 788f 6ebd 6b3b a23d c804 abbb 5767 6bbd
000000a0: c525 54bd 95f4 453c c3bb 953d 96bd 4ebd
000000b0: 5396 6dbc e09c a73d bf50 733d 79ed aabd
000000c0: 40a6 a43d 66be 983d e3f0 993d dbbc 1ebd
000000d0: ad5c 403c 0e86 283d 59ad b4bc 3b74 7dbd
000000e0: 0b22 e6bc b667 86bc a785 823c b2d8 8abd
000000f0: d3fb 933c 441b c73d 5fe0 29bc 9592 b1bc
00000100: 29bf 893d 998e a33c a2fc 66bd 4228 6fbd
00000110: d394 4dbc f533 603d de10 f03c 75e2 b9bd
00000120: 7c0b efbc a4d4 8abd 2426 ebbc fde5 863c
00000130: d816 793d ed45 b33d 2c50 05bd 5972 3f3d
00000140: eb3c aa3b 97c6 2f3d 8749 693d 5e4a 0a3d
00000150: da23 0dbc 7464 9f3d 75eb 963c 90a5 4c3c
00000160: 2392 723c 391b b7bc 78d2 7e3d ae03 ef3c
00000170: 772c f7bc c384 623d 9f2a dd3c 6022 8fbd
00000180: 0fe6 e4bb 8648 41bb 3333 99bd a8c7 363d
00000190: 2eae a7bd e81f 803d 6dd2 a8bd c742 13bd
000001a0: 54c2 103d dbb1 eaba 7781 4a3c 89fe 20bd
000001b0: d75f 74bb b21f b43c 530b 8a3d 8051 833d
000001c0: bcec 5dbc b350 ac3d b989 f4bc 2fde e0bc
000001d0: 33ed 2d3d 9988 0bbd 2864 29bd a2b5 51bd
000001e0: 1da4 83bd 59cb 14bc ab4d 763d 3699 8e3c
000001f0: 97c0 afbd 5550 acbd 1db8 a23d d647 0cbc
00000200: 12bd 28bd 57c7 01bd aa31 5c3d 4ea2 963a
00000210: 5962 d1bb ec0c 24bd e88a f43b 0e72 333d
00000220: 7d7f 78bc d87f 83bc 855b a7bd a1a2 c3bc
00000230: 3c18 34bc 4c13 86bd 35fd 9abd 8bc8 fe3c
00000240: 8cdf 643c 1eee 01bd 5fda 2e3d 9714 96bd
00000250: 30dc 413d 7d5e 9cbd 9e7c 863c a994 b13d
00000260: 57cf 21bd 5223 9fbc 75e9 92bd 22a5 17bc
00000270: 4940 41bd 7441 e63c 5035 31bd 85ee 8abd
00000280: 8fe7 a8bd 0b53 97bd 35fa 85bd 2c68 96bd
00000290: 0537 913d 01bf 163d d27d 76bd e9d0 50bc
000002a0: ec1c a4bd 8593 8c3c d0a4 b3bc 79a3 1bbd
000002b0: 06f0 783d 77c9 d23c 33ff dd3c 1f52 a6bd
000002c0: f274 053c e24b da3c e2c1 c2bb 0544 02bd
000002d0: 9830 083d b874 a33d e350 a43d 811d 893d
000002e0: afaa b7bd fc1d adbd f0d1 60bd 2c0e 7d3b
000002f0: 7291 b2bc f8e4 a2bd da0a 933c 7abc a93d
00000300: 9219 a63d d11c 53bd 6824 bebc 2a6f 36bd
00000310: 5787 003d 0e65 013d 8275 c03c 4990 ae3c
00000320: 02a4 2cbd 2733 873b 963c 86bc 28f6 93bd
00000330: 4be6 be3c 6e68 dcbb bca8 dabc 7779 e33c
00000340: 6ab0 683d 85d9 b6bc 40f5 ed3c 6842 5ebd
00000350: 5e55 c33d b5e7 81bd 611d 75bc 26e9 9bbc
00000360: 3185 013d b18d 2cbc 92ab 583d ab61 5b3d
00000370: 8f24 67bd 1d33 15bd 1b5f 5b3d abde 3ebc
00000380: 4bcd 70bd 4503 9abd e208 193d 17d9 2f3d
00000390: b8a7 96bd 3a0f 4fbd e165 22bd cc46 7a3d
000003a0: b541 4f3d 14ff cdbc 2aaa 6c3d c305 2f3b
000003b0: 535d a53d 02eb a8bc fd13 10bd 6d61 a6bd
000003c0: 27c8 c6bc b1d9 05b8 60f3 a53d cc5f b43c
000003d0: bd97 223d 6a76 6bbd d5b4 093d adb2 ff3c
000003e0: 9312 323d b8a4 31bd eff0 68bd 8dac e5bc
000003f0: 742e babd 91ee de3c 1ffc 1e3d 305e 9cbd
0.0008207724 0.061765354 -0.043839347 -0.02457609 -0.05544355 0.07413447 -0.036712993 -0.07867314
0.085465334 -0.07930749 -0.08917967 -0.002612484 0.050422214 0.013554455 -0.06040234 -0.03624258
-0.052612517 -0.01601157 0.006712685 -0.023117835 0.0413389 0.04617378 -0.00078349805 0.07744988
-0.005999549 -0.024387166 0.02845917 0.004724547 0.02685859 -0.012535304 0.08162465 -0.07980879
0.043182895 0.044450108 0.06567454 0.07744571 -0.05824229 0.07921489 -0.005219076 -0.0574716
-0.051793832 0.012082239 0.07311203 -0.050473772 -0.014501172 0.081842184 0.059403177 -0.083460756
0.08039522 0.074581906 0.075166486 -0.038754325 0.011740846 0.04114347 -0.022055315 -0.061878424
-0.028092405 -0.016406875 0.015932871 -0.067796126 0.018064415 0.097219974 -0.010368436 -0.021676341
0.06725914 0.019965457 -0.056393273 -0.058388002 -0.0125476895 0.05473705 0.029304918 -0.090763964
-0.02918028 -0.06778839 -0.02870471 0.016467089 0.0608128 0.08753572 -0.03254716 0.04673991
0.0051952503 0.042914 0.056954887 0.03376233 -0.008614505 0.07782832 0.018422822 0.012490645
0.0148053495 -0.022351848 0.062212437 0.02917656 -0.03017257 0.055302393 0.026997862 -0.069889784
-0.006985433 -0.002949269 -0.074804686 0.044624 -0.08187519 0.06256086 -0.082432605 -0.035952356
0.035341576 -0.0017905788 0.012359968 -0.039305244 -0.003728857 0.02198777 0.06740441 0.06412029
-0.013545211 0.0841383 -0.029850828 -0.027449695 0.04246254 -0.034065817 -0.041355282 -0.05119861
-0.064277865 -0.009081685 0.060132664 0.017407041 -0.085816555 -0.084137596 0.07945273 -0.008562049
-0.041195937 -0.031684246 0.0537583 0.0011492462 -0.006389898 -0.040051386 0.007462848 0.043809943
-0.015167114 -0.016052172 -0.08171753 -0.023881258 -0.010992106 -0.06546649 -0.07567827 0.031101486
0.013969313 -0.031721227 0.042688724 -0.07328146 0.047329128 -0.0763521 0.016416844 0.08670933
-0.039504375 -0.019426022 -0.07173435 -0.009255679 -0.047180448 0.028107382 -0.043263733 -0.06783775
-0.08247291 -0.07388886 -0.06541864 -0.07344088 0.07090572 0.03680325 -0.060178585 -0.012745121
-0.08013329 0.017160187 -0.021929175 -0.037997697 0.06077578 0.025730832 0.027099228 -0.08121132
0.008145558 0.026647512 -0.005943523 -0.03180315 0.033249468 0.07981247 0.080232404 0.066950805
-0.08968102 -0.08452985 -0.054887712 0.0038613183 -0.02179787 -0.079538286 0.01794951 0.08287902
0.08110346 -0.051541153 -0.02321072 -0.044539608 0.03137907 0.031590514 0.023493532 0.021309035
-0.042148598 0.004125971 -0.016386312 -0.07224685 0.023303172 -0.006726316 -0.026691787 0.02776788
0.056808867 -0.022320518 0.029047608 -0.05426255 0.09537767 -0.06343023 -0.014960618 -0.019032072
0.03162116 -0.010531829 0.052897997 0.05355994 -0.05643135 -0.0364257 0.053557497 -0.011649768
-0.058789533 -0.07520155 0.037361987 0.042931642 -0.073562086 -0.05055163 -0.03964794 0.061102673
0.050599772 -0.025146045 0.05777947 0.0026706315 0.08074441 -0.020619873 -0.035175312 -0.08124051
-0.024265362 -3.1912412e-05 0.08103061 0.022018336 0.03969549 -0.057485975 0.03361972 0.031213129
0.043474745 -0.04336998 -0.056870397 -0.02803638 -0.090908915 0.027213367 0.03881466 -0.07635152

policy_mean.bias f4 [7]
00000000: 5414 2d3d 61a3 1c3d 8ec3 9b3a f738 133d
00000010: f823 8bbd a47a a0bd a47c b3bc
0.042255715 0.038241748 0.0011883841 0.035942998 -0.0679397 -0.07835892 -0.02191002

value_head.weight f4 [1, 128]
00000000: c253 0ebd 8e03 31be 7839 ed3d 2c59 d8bd
00000010: d515 aa3b ed19 17be 0b36 bdbb abe9 53bd
00000020: 3392 c03a 94fc 28bd 5a96 dc3d c4ee 80bd
00000030: 09ce d3bd 2da7 c9bd 7e62 19be 844e 9ebc
00000040: dd40 083d 69ad d4bd 8ff8 d5bd adfa d7bd
00000050: 37e4 883d fc52 b13d 8a92 eb3d de46 0cbe
00000060: b688 30be 0f8c bcbd d276 28bc 9b3e 3b3d
00000070: 5b09 f63c 7ff1 71bd a1f7 8abd f7f5 163e
00000080: 7928 0abe 9dac 0fbe f786 123e 6026 143d
00000090: 938a 9b3d aeec 1dbe d1be a83c 0cd7 c53d
000000a0: fc64 1f3c 27d7 8f3d fffb bcbd c263 f1bd
000000b0: 2073 9dbd 11f5 033e 239a 87bd 3ba4 ee3c
000000c0: a18c 5ebd e94c 323e c2a1 9b3d 873f ab3d
000000d0: 801b 0d3d caa5 b0bd 2f17 aa3d e08d f8bd
000000e0: b9a1 da3d b8ba 703d 47af f73d 857e 81bd
000000f0: 2455 23be ac2a a2bc b27d db3d a0a8 84bd
00000100: 1ae6 913d ca50 103e 3b69 793d 3d69 143e
00000110: e4fd 053c c22c 903c 2245 f6bd dd22 093d
00000120: 2587 81bc 2fdf 01be 94d2 0c3e 7414 b33d
00000130: e47b 2cbd ad5f 4dbd 98c5 9b3d 3d0b 9d3d
00000140: b809 e5bd 974f 1a3e a5c5 80bd 98a5 b23d
00000150: da07 813b bffc 33bd c8e4 f4bd 6d4b 353d
00000160: 7217 05be edef 023e 92d3 3d3c a18b 053d
00000170: 8d04 c83c bd79 0abd 393d 13be e699 363e
00000180: 5ad2 85bd ba80 5f3d 617d 6c3d 5bb8 bfbc
00000190: 0219 073e 9c85 403d 897c 10be c2b8 aa3d
000001a0: b737 4c3d 5861 0c3d 2409 db3d b432 f7bd
000001b0: f037 84bb d555 40be 0c39 bfbd 7260 f9bd
000001c0: e94d 6c3d a1c4 743c 9ffa 0a3d 18a5 e03d
000001d0: 4855 0b3e faed e8bd 71b1 06bd dc2c 2aba
000001e0: d61c 573d 3cb8 0d3e 4c5b 22be 5693 f0bd
000001f0: 184b e1bd 442d a7bd 845f 19be c9b7 da3d
-0.034747846 -0.17286512 0.11583227 -0.10563883 0.005190591 -0.14755984 -0.0057742647 -0.051736515
0.0014692008 -0.041256502 0.10770865 -0.06295541 -0.103420325 -0.098463394 -0.14978978 -0.019324549
0.033264983 -0.10384638 -0.104477994 -0.105458595 0.066841535 0.08658406 0.115025595 -0.13698909
-0.17239651 -0.092064016 -0.010282235 0.045714002 0.030033758 -0.0590682 -0.06785513 0.14742266
-0.13492002 -0.1403069 0.14309298 0.03616941 0.0759479 -0.15422317 0.0205988 0.096601576
0.009728666 0.07023459 -0.09227752 -0.117866054 -0.07687974 0.12886454 -0.06621196 0.029131046
-0.054333333 0.17412151 0.07599212 0.08361726 0.034450054 -0.08625372 0.08305203 -0.121364355
0.106753774 0.05877182 0.120939784 -0.0632296 -0.15950447 -0.019795738 0.10717334 -0.06477475
0.071239665 0.14093319 0.06089137 0.1449327 0.008178208 0.017599467 -0.12024905 0.033480514
-0.015811512 -0.12682794 0.13752204 0.087441355 -0.04211034 -0.05014007 0.076060474 0.07668159
-0.11183494 0.15069424 -0.06287698 0.08722991 0.0039377036 -0.04394221 -0.11957699 0.044261385
-0.12997225 0.12786837 0.011586087 0.032603864 0.024416232 -0.033807505 -0.14378823 0.17832145
-0.06534262 0.054566123 0.05773676 -0.023403337 0.13193133 0.04700242 -0.14110006 0.08336021
0.04985782 0.03427252 0.10695103 -0.12070218 -0.0040349886 -0.18782742 -0.09337053 -0.121765986
0.05769149 0.014939458 0.033930417 0.10968989 0.13606751 -0.113735154 -0.032884065 -0.000649167
0.052517734 0.13839811 -0.1585514 -0.11746852 -0.11000651 -0.081629306 -0.14977843 0.106795855

exp_avg f4 [7]
00000000: 79ce 233a d76b 903b 8f95 ac3b d38f 1f3b
00000010: f96b 983b 7009 a63b be7c aebc
0.00062487234 0.0044073868 0.005266852 0.00243472 0.004651543 0.005067043 -0.021299716

exp_avg_sq f4 [7]
00000000: d3a4 2339 cfbc 2239 8cfc 0739 754d 0039
00000010: 3aca 2539 b9ac 1f39 bbd4 af3a
0.00015606293 0.0001551986 0.00012968684 0.00012235886 0.00015810961 0.00015227766 0.0013414839

exp_avg f4 [128, 21]
00000000: c7e6 86b9 5e61 803a 94a3 d3b9 b40b 6eba
00000010: 8a41 8d3b ec09 803a dc80 733b 393c 023b
00000020: fe52 25bb e2a4 8a3a 8fa5 b1ba 4c05 5ab8
00000030: 050e be39 6467 9539 150d dc3b ffa3 19bb
00000040: 7579 11bb 79ee ceba 8b46 8639 0ad6 6eba
00000050: 83da f639 2929 b9ba c3e2 33ba 47f0 0cba
00000060: bd79 ea3a a475 35bb 7c1b d6ba 5d39 3dbb
00000070: 0ac3 23ba 434c b039 cfc1 b63a 478f 84ba
00000080: 6d9f c0b9 35d5 bdb9 74a8 8738 85be 8cbb
00000090: 0dc0 8b3a 4f75 a63a 2691 ea3a 5208 b73a
000000a0: a60c 243a 1f07 093a 9f65 63ba da0d feb9
000000b0: ab81 74b9 0d7f 9d3a c1b4 44bb 786e e3ba
000000c0: c051 75bb d641 3eba 5462 743a 55e1 88ba
000000d0: a4b8 f539 1551 11b9 0a07 98b9 cd50 d4b8
000000e0: 5ccb a5bb 9994 ca3a 5e4c ce3a a424 c73a
000000f0: 54f4 623a 1578 e539 1ee6 4039 ecd2 003b
00000100: 2126 033b 5cd5 8b39 1172 13bb 69c2 2c3b
00000110: 27f2 8e3b 30e2 5c39 71d0 13ba 7271 ca39
00000120: b746 59b9 1f73 21ba da48 9739 fe86 7a39
00000130: ef55 0db8 abaa 833b 9906 85ba 3fbd 96ba
00000140: 76ac c5ba 77c1 00bb 34b3 fbba fe24 88b9
00000150: 6e3e daba 3f60 983a b3f2 69ba bd84 4639
00000160: 69b6 b5bb d80a eaba ad5c 16bc ee6b d3ba
00000170: 0303 103b ea4d b6ba 8bc7 6a3a 3db3 9e37
00000180: 33e5 a0b9 9774 80b9 301a d5bb ef0d 0c3b
00000190: 1d94 053b 12c8 c33a fe6e dd3a bd29 99ba
000001a0: d108 453a cf9c bb3a 0b4b 063b 7a2e 8e39
000001b0: 90da 0ebb fce6 ef3a 0ec9 403b 4963 c3b9
000001c0: b862 8bb9 fbec 193a 054d 5aba a531 1cba
000001d0: 1e65 b539 a9f0 8339 3a96 cbb8 6885 4b3b
000001e0: b505 33ba 36a7 65ba 3ea9 bcba f6cb b9ba
000001f0: 36d3 00bb 6051 95b9 603c d93a c675 cdba
00000200: dcbb 483a 0740 7f3a 2426 303a 21a1 be3a
00000210: 2fc8 4c3b a974 79ba 7042 ab39 a4e1 b13a
00000220: 551c 1bbb 7f31 09b9 3a23 4db9 c02c f637
00000230: 029f 54ba f109 8339 f8c6 b239 6678 153a
00000240: 5fde ddba 961f c53a e3c0 38ba 6db1 bdba
00000250: fd33 bd3a 8a12 42ba 7ada a2b9 06a5 97bb
00000260: 6540 baba 957a 06bc 4a08 b3ba 203c fb3a
00000270: 98b8 8aba 8cf3 983a 8a99 b238 dd7c 73b9
00000280: 6317 72b9 3d2c a5bb 1bcc e23a 34a0 d23a
00000290: 5d68 853a 3556 c13a 92dc bbba b811 213a
000002a0: e681 893a 8d47 85b9 2c6f e539 6488 98b9
000002b0: 3866 773b b75c 073b 9502 a33b f3fd 803a
000002c0: ebdb c7ba c2ed 713a 5308 a2ba 8017 37b8
000002d0: a95d 5e39 8a86 4939 ab9b 963b 159a cbba
000002e0: daa6 bfba 7e25 83ba 16ea 8bba 960b 8f39
000002f0: 4dc2 b4b9 9376 22b9 0ceb 6c3a 4d21 b6b9
00000300: c618 70ba 3526 723b a67f 473a ac3a 613b
00000310: 833d e43a 055c 0bbb 7e76 683a 91a7 64ba
00000320: 088e 4938 2c2d cd39 1b6e 6139 9935 d33b
00000330: 7737 0dbb 383c 0abb 7a55 e1ba 83d5 2939
00000340: 53ac 5aba 413b cf39 7192 163b 5752 0bbb
00000350: c09b b83a 3283 2b39 565d 853b b35b f93a
00000360: 75dd 1c3c ed88 223a 67cd 5fba b108 833a
00000370: bb8a c539 2d01 5e38 c5bf 1539 b594 e938
00000380: 2836 913b 0b6b a9ba ff12 a7ba c0ac 8cba
00000390: 8b49 18bb 2dcc 083b 8767 a7ba e8fe 21ba
000003a0: d58d 473a 86ef cfb9 6aef 2638 6b05 10bb
000003b0: 3c56 17ba 138f 8fbb b1c1 17ba 2b3c 5b3a
000003c0: 4db1 47ba b734 bc39 921a 93b7 38cf 14b9
000003d0: 8008 cdb8 64b9 49bb c741 803a 56ee 793a
000003e0: 29f8 483a 5cbc 233a cdb5 46ba e70c b139
000003f0: 0eb6 28bb 6c10 7aba 095f 61ba caec 5e3b
-0.00025730414 0.0009794643 -0.0004036693 -0.00090807234 0.0043107914 0.0009768582 0.0037155664 0.0019872321
-0.002522647 0.0010577703 -0.0013553369 -5.1980183e-05 0.0003625007 0.00028496527 0.0067154267 -0.0023443697
-0.0022197638 -0.0015787623 0.0002561103 -0.0009110874 0.0004708358 -0.0014126647 -0.0006862098 -0.000537638
0.0017889064 -0.0027688527 -0.0016335095 -0.0028873303 -0.00062470196 0.00033626155 0.0013943258 -0.0010113501
-0.00036739875 -0.0003620774 6.4686785e-05 -0.0042951726 0.0010662094 0.0012699756 0.0017896041 0.0013964272
0.0006257988 0.00052271964 -0.00086745055 -0.00048456975 -0.00023317958 0.0012016013 -0.0030014964 -0.0017351648
-0.003743276 -0.0007257735 0.00093225134 -0.0010443131 0.0004686761 -0.00013858483 -0.00028996944 -0.00010123998
-0.0050596427 0.0015455663 0.0015739312 0.0015193415 0.00086576235 0.00043767752 0.00018396272 0.001965697
0.002001174 0.0002667111 -0.0022498409 0.0026360995 0.004362363 0.00021065096 -0.0005638665 0.00038612966
-0.00020721076 -0.0006158817 0.00028855243 0.00023892146 -3.369705e-05 0.004018148 -0.0010149061 -0.0011500492
-0.0015081305 -0.0019646564 -0.0019203187 -0.00025967503 -0.0016650686 0.0011625363 -0.00089244096 0.000189322
-0.0055454266 -0.0017856015 -0.009177369 -0.0016130188 0.0021974451 -0.0013908718 0.0008956126 1.8918532e-05
-0.00030688345 -0.0002450093 -0.006503366 0.002137061 0.0020382472 0.0014936945 0.001689404 -0.0011685413
0.00075162674 0.00143137 0.0020491506 0.00027118978 -0.0021797754 0.0018303092 0.0029416713 -0.00037267272
-0.00026585697 0.00058717997 -0.0008327517 -0.00059583253 0.00034598348 0.00025165573 -9.707776e-05 0.0031054858
-0.00068291585 -0.0008760573 -0.00143937 -0.0014175165 -0.0019657142 -0.00028480124 0.0016573779 -0.0015675358
0.0007657388 0.0009737019 0.00067195506 0.001454387 0.0031247248 -0.000951598 0.0003266516 0.0013571274
-0.002366801 -0.00013083777 -0.00019563446 2.9346324e-05 -0.0008110852 0.00024993674 0.0003409905 0.00057018397
-0.0016927234 0.001503932 -0.00070477853 -0.0014472433 0.0014435049 -0.0007403275 -0.00031061826 -0.0046278266
-0.0014209865 -0.008207937 -0.0013659087 0.0019167699 -0.0010583578 0.0011669262 8.5163e-05 -0.00023220801
-0.0002308763 -0.005040674 0.001730326 0.0016069473 0.0010178197 0.0014750423 -0.0014332703 0.0006144303
0.0010490983 -0.00025421046 0.00043761113 -0.00029093318 0.0037750136 0.0020654628 0.004974673 0.0009841308
-0.0015248036 0.0009228849 -0.00123621 -4.3652486e-05 0.00021206461 0.00019218973 0.004596194 -0.0015533591
-0.0014621869 -0.001000568 -0.0010674621 0.00027283718 -0.0003447704 -0.00015493696 0.000903771 -0.00034738556
-0.0009158965 0.0036949043 0.00076102687 0.0034367247 0.0017413351 -0.0021264565 0.00088677544 -0.0008722479
4.805441e-05 0.00039134303 0.0002149869 0.0064455983 -0.0021547952 -0.0021093022 -0.0017191612 0.00016196635
-0.00083417183 0.00039526264 0.002297547 -0.0021258795 0.0014084503 0.00016356705 0.0040699644 0.0019024521
0.009574284 0.0006200213 -0.0008537382 0.0009997097 0.0003767813 5.293002e-05 0.00014281187 0.000111380046
0.0044315048 -0.0012925578 -0.001274675 -0.0010732636 -0.0023237194 0.0020873651 -0.0012771942 -0.00061796466
0.0007612382 -0.00039660576 3.9800456e-05 -0.0021975886 -0.0005773043 -0.0043810694 -0.0005789055 0.0008363153
-0.00076176674 0.0003589743 -1.7536138e-05 -0.00014191575 -9.776745e-05 -0.0030780667 0.0009785228 0.0009534111
0.0007666373 0.0006246024 -0.0007580191 0.00033769684 -0.0025743279 -0.000953919 -0.000859723 0.003401565

exp_avg_sq f4 [128, 21]
00000000: 5451 c137 ceef 8a37 aedf 9237 79bd ad37
00000010: 55fc 1838 032c 1e37 9d0e c337 b069 8e37
00000020: 536e 9837 4a2b 0d37 b05d a937 6d11 8f36
00000030: ce7b 6435 c097 2734 8728 a737 d795 1c37
00000040: e573 9536 0f8b ca36 16e1 c337 5e3b 8337
00000050: c32c 7e37 e460 c038 adfa fb37 0b82 6938
00000060: 626e 6c38 0ae6 8738 fc4f 9637 525a 8538
00000070: 7bca 4f38 568f 5838 5263 1238 69d2 8338
00000080: 5f5b 3738 e65b 3236 2fbc 0d35 64a0 8e38
00000090: efbd 1738 aae1 7d37 f08b c637 8e84 c338
000000a0: 3387 e737 6aab 4d38 1f0a 6636 b3b1 d536
000000b0: 5867 7f36 6f61 6c37 fee9 6437 158d 5336
000000c0: 2456 3637 7555 b436 5a5d bc36 d921 5936
000000d0: c350 2437 4746 0c36 f75b c734 05b3 8333
000000e0: f1f8 5937 6c48 0a36 a5d3 3036 d0d8 5836
000000f0: df6e 6836 5e2b c636 e536 6236 ce33 2a38
00000100: a130 c837 b54d 0838 08a3 5c38 c68b 2838
00000110: 84c1 ac37 d2fd c737 e83e bd37 85de c337
00000120: 654c 4637 01bf 8e37 b60c 4f36 6f20 7135
00000130: 0a77 8734 f618 8337 1af3 c536 d47b a236
00000140: 20cc 0537 b77e 2d38 b949 bb37 7c0d e937
00000150: f05b 9437 d661 c537 04bc 8637 063b 1438
00000160: 4a12 5538 7d98 3b37 1153 4738 199a b037
00000170: 43e4 bd37 a448 6c37 3674 b537 7cf7 1136
00000180: 31be 2835 be5e 6134 bdd8 5238 d1ed 1337
00000190: 243a e236 a879 1937 815d 9637 1e96 b737
000001a0: c8d5 6937 e948 3f38 4b3c 2337 f9e6 e137
000001b0: 1a15 0338 e21f ee37 2a4d 3237 294c ad37
000001c0: 2ec8 c837 917c d537 27f2 7a37 6291 e137
000001d0: d56f 3536 04b1 7534 b8ba 6a34 78cf 2537
000001e0: 7e27 8336 13d5 d435 3625 9936 d75b 4438
000001f0: 9b6b 1937 3bc1 c337 0dfe 9938 b266 0438
00000200: 2427 8638 2e05 3d38 31e6 5638 53c6 d737
00000210: 5c75 3f38 6db2 0f38 5888 1338 0f2a 1638
00000220: 7797 4d38 4728 0337 c144 8f35 7461 9634
00000230: fab7 ec37 d1ae d637 b043 ec36 e1f2 4937
00000240: cc01 9b38 664b fa37 2acd 6238 c71e 6438
00000250: 22b0 2b38 b528 6638 b0b0 3138 e6d2 6638
00000260: 9848 d137 4260 7838 c428 f537 5ba7 fc37
00000270: d078 9437 db2f 3c38 7c81 9536 35ab 6235
00000280: 305b 8834 3c39 5838 dc05 9137 9854 f436
00000290: ba44 3637 a669 6638 37f0 2038 3192 4338
000002a0: 7ed1 aa38 a44d 3e38 28c5 8b38 7f53 8538
000002b0: d131 a138 e2d5 ec37 eb80 8f38 6948 3038
000002c0: 7b6a 3438 1428 9137 1f42 4438 f99e bc36
000002d0: 224d ca35 eb19 bd34 4629 6e38 56b7 9337
000002e0: 5c6f 2837 9182 7137 622d ad38 1f4c 3238
000002f0: f818 6e38 1600 8037 83bf 4737 5409 9c37
00000300: cd07 4a37 a1df ab37 335c d236 e2e8 9637
00000310: 9300 3537 b8da 3b37 2937 c436 d019 3637
00000320: 8da6 f135 7904 8734 fda6 ae33 c03d 7a37
00000330: c61c e836 a88a 1336 ed53 6b36 5efc 8037
00000340: 6d1f 3c37 fbcc 8437 c8d6 b537 2b83 ea37
00000350: 34d1 d237 0c4d 3938 a176 3d38 6711 4d37
00000360: d1e2 8038 7743 9637 4b0e 9e37 18f2 2137
00000370: 5d77 8337 770e 7036 253f 4b35 5c11 3834
00000380: 33aa 3038 aa69 c636 ed34 dc36 ffd5 0c37
00000390: 692e b937 b198 da37 9d59 b537 3353 7536
000003a0: 9612 2c36 e84c 4936 b230 4136 f514 9f36
000003b0: ab32 8835 ad08 fa36 2664 1a36 2803 2236
000003c0: 1837 f535 5503 e835 a960 2935 3a2e b533
000003d0: a0c6 bd32 49e8 de36 174a b835 d42f 7435
000003e0: f8b8 8f35 ca72 7936 fec3 1f36 b150 2e36
000003f0: 73a8 3138 1957 b137 c81b 3338 16e8 6338
2.3045264e-05 1.656255e-05 1.7508715e-05 2.0711437e-05 3.6474627e-05 9.427781e-06 2.3252616e-05 1.6976934e-05
1.8171186e-05 8.414334e-06 2.0189997e-05 4.2637607e-06 8.511678e-07 1.5608293e-07 1.9926823e-05 9.333212e-06
4.454038e-06 6.0362577e-06 2.3350625e-05 1.5644062e-05 1.5150002e-05 9.173321e-05 3.0038262e-05 5.567264e-05
5.6369587e-05 6.48015e-05 1.7918639e-05 6.358758e-05 4.954122e-05 5.1631905e-05 3.490161e-05 6.285759e-05
4.3715696e-05 2.6577559e-06 5.2800436e-07 6.800963e-05 3.6178095e-05 1.5132517e-05 2.3668603e-05 9.323015e-05
2.7600303e-05 4.903545e-05 3.4278562e-06 6.3685816e-06 3.8058115e-06 1.4089382e-05 1.364434e-05 3.152357e-06
1.08681015e-05 5.3743665e-06 5.613704e-06 3.2355222e-06 9.793966e-06 2.0902532e-06 3.7133552e-07 6.132726e-08
1.2992169e-05 2.0605758e-06 2.6349237e-06 3.231271e-06 3.463523e-06 5.9059084e-06 3.3708577e-06 4.0579405e-05
2.3864503e-05 3.2497297e-05 5.2603922e-05 4.0184495e-05 2.059411e-05 2.3840843e-05 2.2559849e-05 2.334943e-05
1.1819507e-05 1.7016662e-05 3.0852802e-06 8.9826693e-07 2.5232322e-07 1.562804e-05 5.8993583e-06 4.8423917e-06
7.974944e-06 4.1364427e-05 2.2326467e-05 2.7782044e-05 1.7685787e-05 2.3529788e-05 1.6061596e-05 3.534092e-05
5.080019e-05 1.11815725e-05 4.752266e-05 2.1052592e-05 2.2636848e-05 1.4083609e-05 2.1630996e-05 2.1750739e-06
6.286164e-07 2.0989225e-07 5.0269755e-05 8.817254e-06 6.7420933e-06 9.147836e-06 1.7924935e-05 2.1885204e-05
1.3937657e-05 4.560585e-05 9.729595e-06 2.6929645e-05 3.1252486e-05 2.8386658e-05 1.0627593e-05 2.0658672e-05
2.3935074e-05 2.5449584e-05 1.4957542e-05 2.688979e-05 2.7036197e-06 2.2881801e-07 2.1860876e-07 9.8830715e-06
3.9087017e-06 1.5857244e-06 4.5640872e-06 4.6815574e-05 9.1445645e-06 2.3335791e-05 7.342929e-05 3.1566895e-05
6.3969084e-05 4.5065935e-05 5.123596e-05 2.572235e-05 4.5647248e-05 3.426003e-05 3.517451e-05 3.5801957e-05
4.901687e-05 7.817586e-06 1.067434e-06 2.8010584e-07 2.8219063e-05 2.5592193e-05 7.041228e-06 1.2037083e-05
7.391311e-05 2.9837433e-05 5.4073673e-05 5.43881e-05 4.0933613e-05 5.4874185e-05 4.236464e-05 5.5032688e-05
2.4948546e-05 5.9217455e-05 2.9225259e-05 3.0118672e-05 1.7699233e-05 4.486726e-05 4.45562e-06 8.44407e-07
2.5398322e-07 5.1551717e-05 1.7288075e-05 7.2816147e-06 1.0864047e-05 5.4934666e-05 3.837069e-05 4.6627774e-05
8.145253e-05 4.537184e-05 6.66476e-05 6.3574866e-05 7.686357e-05 2.823299e-05 6.842784e-05 4.2029107e-05
4.3014512e-05 1.730401e-05 4.679162e-05 5.6213435e-06 1.5072621e-06 3.522285e-07 5.678206e-05 1.7609138e-05
1.0039508e-05 1.4395119e-05 8.257736e-05 4.25094e-05 5.6766876e-05 1.5258829e-05 1.1905914e-05 1.8600993e-05
1.20419545e-05 2.0488924e-05 6.269221e-06 1.7989838e-05 1.0788574e-05 1.1196993e-05 5.8476767e-06 1.0854055e-05
1.8004372e-06 2.5148964e-07 8.1328814e-08 1.49155385e-05 6.9174885e-06 2.1985416e-06 3.506658e-06 1.5376307e-05
1.121299e-05 1.5831078e-05 2.1676897e-05 2.7956054e-05 2.5131369e-05 4.4179193e-05 4.5171593e-05 1.2223004e-05
6.1457635e-05 1.791281e-05 1.8841723e-05 9.652715e-06 1.5672e-05 3.5771207e-06 7.571528e-07 1.714265e-07
4.212018e-05 5.9131607e-06 6.5626723e-06 8.394475e-06 2.207533e-05 2.6058728e-05 2.161861e-05 3.6556273e-06
2.5640816e-06 2.99961e-06 2.8787586e-06 4.741009e-06 1.0147536e-06 7.4515906e-06 2.3006082e-06 2.4141718e-06
1.8269957e-06 1.7286317e-06 6.3098065e-07 8.436878e-08 2.209282e-08 6.643157e-06 1.3730631e-06 9.096668e-07
1.0708163e-06 3.7170707e-06 2.3806929e-06 2.597499e-06 4.235697e-05 2.1140602e-05 4.27028e-05 5.4337164e-05

exp_avg f4 [128]
00000000: d2d7 473b 1bb4 153a 8787 92ba da90 61b9
00000010: f31a 2fbb 0b12 70ba 0a77 c339 7648 25bb
00000020: 0605 0a3b 23f5 183b 573e aa3a 22bd 8cba
00000030: 6497 ef3a 8a41 9abb 567a 91bb 2a5f 28bb
00000040: fa70 d6ba edc1 02bb cafa e4ba e3c4 a23a
00000050: 6b5f 91bb c7d7 bc3b 92df b239 4966 5eb9
00000060: 8618 76ba d15f e7ba 8ce3 ae3b 3c0c 063b
00000070: 46d5 1e39 08ab 1d3a b61e b1ba cbd0 62ba
00000080: 8e84 1c3b 6f69 0dbb 0021 9eba 7a47 143b
00000090: 9d1f 743a 31e6 0ebb 1e40 e3ba fe55 923a
000000a0: e5f9 3bba 4b41 e1ba c231 2dba 592c e938
000000b0: 7299 a3bb 3206 2e3a 128f ea39 00db 8f3a
000000c0: 358e f739 d3ad a53a a70b 22ba ab83 a73b
000000d0: 47ce 02bb a163 6a3b 7f8c 673b b977 1bbb
000000e0: e142 8139 0464 243a d75d 55bb e4ef 543b
000000f0: d66f b23a 8e7a c83a 657d 6d3a 9ff7 0b3b
00000100: c571 163b ec9e ebba 09ed 263b 1354 263b
00000110: 830a f13a 1ec7 06bb afe5 e5b7 8d41 76ba
00000120: 6417 56bb 589d 19bb ec66 f33a 43fa 013b
00000130: 5620 70bb 58af 513b f134 4dbb 3e88 103b
00000140: a039 54bb bd92 8fb9 b0f9 35bb 79de e939
00000150: a900 033b 07f5 d13a ef37 88ba 97b8 713a
00000160: d83f 3fbb e0d7 093a 004f 05bb 3773 27ba
00000170: 0bf1 e4b7 0edf 333b ef55 1fbb 37e6 023b
00000180: 83a9 20bb dc1d 5ebb 4e03 ad3a edc7 ef39
00000190: 0045 96bb 8e7e 1dbb c0df 2c3b 77ce 8337
000001a0: b224 88b9 5049 9dba 0a40 14bb 8108 23b9
000001b0: 7817 a5b9 f6c3 eaba bc9e b4b6 993c cc3a
000001c0: 78db 4aba b2da 1039 7eab ab39 313a 0cbb
000001d0: 60ea 68bb 384a 12bb d362 b03b 72dd 3eb9
000001e0: b458 b73a cf98 23bb f259 4dba c9fb 273b
000001f0: d830 18bb 281d d3ba 8fb6 233a 4e16 c43a
0.003049363 0.0005710737 -0.0011179306 -0.00021511634 -0.0026718944 -0.0009157962 0.0003728199 -0.0025220192
0.0021060123 0.0023339472 0.001298855 -0.0010737518 0.0018279371 -0.00470752 -0.0044396324 -0.0025691488
-0.0016360574 -0.0019952015 -0.001746976 0.0012418296 -0.0044364235 0.0057630274 0.00034117379 -0.00021209674
-0.00093878096 -0.0017652457 0.0053371843 0.002045407 0.00015147505 0.00060145603 -0.0013513181 -0.00086523284
0.002388272 -0.0021577736 -0.0012064278 0.002262561 0.0009312572 -0.0021804685 -0.0017337834 0.0011164544
-0.0007170721 -0.0017185597 -0.0006606841 0.00011118566 -0.0049926573 0.00066384964 0.00044738554 0.0010975301
0.00047217464 0.0012640305 -0.0006181546 0.0051121316 -0.0019959377 0.003576495 0.0035331545 -0.0023722483
0.00024654626 0.0006271007 -0.0032557154 0.0032491619 0.0013613652 0.0015295313 0.0009059518 0.002135731
0.0022955996 -0.001797644 0.0025470874 0.0025379702 0.0018389974 -0.002056546 -2.7405882e-05 -0.0009393923
-0.003266775 -0.0023439731 0.0018570102 0.0019833005 -0.0036640367 0.0031995382 -0.0031312073 0.0022053863
-0.003238298 -0.00027384414 -0.0027767234 0.00044606978 0.0019989407 0.0016018458 -0.0010392646 0.00092209264
-0.002918234 0.0005258303 -0.0020341277 -0.0006387713 -2.7291962e-05 0.0027446183 -0.0024312695 0.0019973645
-0.00245151 -0.003389231 0.0013199837 0.0004573459 -0.004585862 -0.0024031731 0.0026378483 1.571256e-05
-0.00025967282 -0.0011999998 -0.0022621178 -0.0001554806 -0.00031488738 -0.0017911184 -5.382897e-06 0.0015582024
-0.0007738392 0.0001381438 0.00032743433 -0.002139699 -0.003554009 -0.002232207 0.0053828745 -0.00018202307
0.0013988228 -0.0024962907 -0.0007833532 0.0025632253 -0.0023222473 -0.0016106712 0.000624516 0.0014960261

exp_avg_sq f4 [128]
00000000: 4aa0 9437 94c6 7838 61c1 d636 ff79 e137
00000010: e778 c537 9fd2 d437 c36f 0c38 9b29 f037
00000020: c61a 2938 bd87 2837 b8f9 a037 0570 2c36
00000030: f7a5 0d38 d26f 1e38 1190 5638 8d47 c237
00000040: 11a0 2f38 2e25 0537 be0a bd37 39e4 8837
00000050: fe33 2938 fe0c e238 8ad1 ac37 557c 2837
00000060: b0f5 6938 0f1e 4d38 80ea da38 34a4 bd37
00000070: 7747 4136 8f1a 1437 5c14 1f37 3d4e fb35
00000080: 86a8 9d37 3d02 e037 4cf2 3637 ee69 1c38
00000090: 35c9 d137 4f8a e437 a632 6037 31d6 0237
000000a0: c7ca e536 1aeb 0538 1121 fb37 c068 eb38
000000b0: 52a6 9638 90b5 cf37 050c 6537 26eb e337
000000c0: e0b3 9b36 ac4b 9737 c8ad 8c37 1128 2c38
000000d0: 50e9 9637 18ae 7138 6964 5838 1891 5238
000000e0: 9127 5737 13ab d236 a7a8 3038 e5a1 8037
000000f0: e349 5a37 a8a9 be37 038c d037 68a9 c237
00000100: a67a 2738 3221 a137 bcf5 3237 b8c3 1238
00000110: c00d dd37 1b06 2b38 1d4c 2037 8aa4 6f37
00000120: 98a3 5b38 f36d b837 a658 0038 b278 9d37
00000130: fe3f 0938 27ab 1538 8bb8 3338 0db2 6a38
00000140: 8800 1c38 65b7 0637 8beb 1938 76b0 2c38
00000150: 57c3 2b37 067d b137 c322 bf37 3265 eb36
00000160: 69a1 fd37 fd47 5a38 559d b938 b788 6b36
00000170: 8fb0 0f37 2e67 5138 34d4 8b37 efc9 9437
00000180: 26ae 8037 2825 7138 0da1 0736 bc19 8237
00000190: 9bb9 8b38 d70e 4f37 327a dc37 3f3a 4437
000001a0: f70a 2b36 6608 9337 59e1 d937 9db8 b337
000001b0: 0bc1 6636 d40a 8f37 3e41 e436 ae3f 5037
000001c0: b0e5 9d37 5ba7 0737 8d0f 0e38 ffbf 4b38
000001d0: 8b15 1a38 4483 6438 9873 b438 629f 7637
000001e0: 411f d637 9a65 0238 2b94 5838 4193 6d38
000001f0: 2c5c ed37 d3ee 6437 9a17 1237 ca87 a737
1.7717615e-05 5.9312748e-05 6.4002093e-06 2.6878899e-05 2.354053e-05 2.5370447e-05 3.3482687e-05 2.8629604e-05
4.0317675e-05 1.0045184e-05 1.918977e-05 2.5695201e-06 3.3771586e-05 3.7774276e-05 5.115575e-05 2.315992e-05
4.1872325e-05 7.936074e-06 2.2535558e-05 1.6318738e-05 4.034116e-05 0.0001077894 2.0601572e-05 1.0042529e-05
5.5780343e-05 4.8903803e-05 0.00010438729 2.2607019e-05 2.880084e-06 8.827671e-06 9.481879e-06 1.8723728e-06
1.8794333e-05 2.6703923e-05 1.09044595e-05 3.7291953e-05 2.5008436e-05 2.7244123e-05 1.3363233e-05 7.798474e-06
6.848338e-06 3.1928626e-05 2.993693e-05 0.000112251844 7.183537e-05 2.476087e-05 1.3652262e-05 2.7170008e-05
4.6403e-06 1.803584e-05 1.6770224e-05 4.104531e-05 1.7990038e-05 5.7621015e-05 5.1591927e-05 5.020303e-05
1.2824211e-05 6.2784034e-06 4.211874e-05 1.5334177e-05 1.3011016e-05 2.2728767e-05 2.486073e-05 2.3205488e-05
3.9930128e-05 1.9208153e-05 1.0666841e-05 3.499139e-05 2.6351656e-05 4.0775263e-05 9.554465e-06 1.428382e-05
5.2366027e-05 2.1985708e-05 3.060014e-05 1.8772062e-05 3.2722943e-05 3.5683766e-05 4.2848795e-05 5.595577e-05
3.7193793e-05 8.029722e-06 3.669741e-05 4.1172338e-05 1.0237875e-05 2.1158263e-05 2.2785161e-05 7.0153264e-06
3.0235113e-05 5.2042295e-05 8.850793e-05 3.5097307e-06 8.564572e-06 4.9925577e-05 1.6668906e-05 1.7737008e-05
1.5339883e-05 5.7493482e-05 2.0210312e-06 1.5509191e-05 6.662608e-05 1.2341617e-05 2.6282945e-05 1.1696072e-05
2.5487368e-06 1.7527676e-05 2.5973352e-05 2.142443e-05 3.4385037e-06 1.705197e-05 6.8025247e-06 1.2412593e-05
1.8822815e-05 8.0855925e-06 3.386992e-05 4.8577782e-05 3.6736525e-05 5.4481687e-05 8.6046e-05 1.4699852e-05
2.5525342e-05 3.108904e-05 5.1636405e-05 5.6642344e-05 2.8295522e-05 1.3645465e-05 8.707773e-06 1.9971183e-05
