models/final_model.pth (torch, 255114 bytes, 24 tensors)

policy_log_std f4 [7]
00000000: 4a7e 28bc 66e0 08bc 80f7 d7bb 8fec 9cbb
00000010: e39c 89bb 31cf 88bb ee34 fb3c
-0.010284016 -0.008354282 -0.0065907836 -0.004788942 -0.0041996106 -0.0041750898 0.030664887

fc1.weight f4 [128, 21]
00000000: 63f9 dd3c 13f5 0bbe 724b 93ba 0e35 72be
00000010: 6f87 97bd a780 4e3e 35e0 68be c56e 213e
00000020: c182 3fbe abb8 4bbe 0954 c23d 8b05 c43c
00000030: 30ff 2ebe 2c2a 0e3d e406 c83d 45dc 343e
00000040: 8422 a53d 5253 60be 532e ce3c 7fbd 2a3e
00000050: e05e 05be 9bad 51be 172f 90bc b89d 1ebe
00000060: a7a7 1bbe 0bfd f43d 8c61 263d 5740 f23d
00000070: cb8d 9a3d f1bd d23c f8e4 d83b d101 0ebe
00000080: dbae 393e d8f5 9fbd f4ec e43c ea2f f03c
00000090: a049 22be 68f9 2f3e ceb8 cbbd d61e cabd
000000a0: 5191 9c3d 6183 953c 2e4a cc3d e12b 25be
000000b0: c266 7c3d 9faa 313e 95f6 f5bd 2277 fa3d
000000c0: 4755 43be 063f 40be 10ad 9a3d 8327 fa3d
000000d0: 492e 0cbe e87f 053d ace1 4ebe 94cd a3bd
000000e0: 99ed 063e 28cc 39be 6671 83bd 1ef3 593e
000000f0: 495b 17bd 808b 29bc 4efd 2f3e 0b41 493e
00000100: ae0b 433e baf5 41be e762 a3bd 55bf 43bc
00000110: 501b ebbc 2005 113e c87f 27be 0e88 17be
00000120: 7369 e1bc 85c1 76bc 74bb e1bd bc47 953d
00000130: 2232 ca3d 68de 323e 9b04 c93d f391 16be
00000140: 3862 1f3e b613 183d d53f b03c 2c9e cf3d
00000150: cb7c 543e 7e6d 94bd 8df8 fdbc 726a 40be
00000160: 8886 0cbe 500b adbd d81a 5cbe f606 d4bd
00000170: 8c70 f8bd afdc 0bbe fc56 043e 00af 50be
00000180: 6d33 293e a114 4abd 7016 d73d 98f1 b83d
00000190: d4dc 58be c085 5ebe c1d9 423e 8884 c9bd
000001a0: a1ff f03d 5e75 24be 3d81 3c3e 819a 323e
000001b0: 6f31 5e3e 84d5 31be e64c e2bd e011 85bd
000001c0: 9052 53bd 6903 033e 4251 fc3d 99a7 26be
000001d0: 3ea6 e73d 979d 863d 4690 c1bd ecdd 1f3d
000001e0: 9082 1fbe 4d91 f1bd a490 2ebe 4bdc 6fbb
000001f0: 0d28 7fbd d88f 60be 1dba 003e d0c5 143e
00000200: 6dfe 983d 37d8 4a3d ef47 523e 52f8 36bd
00000210: 729d 1dbe a71f b2bc 3bdf 48be ea57 6b3d
00000220: ceb2 4c3d 6e38 50bd f021 3cbe a251 0bbe
00000230: 51d5 ae3b d29f 113e ca35 33bd 436f a6bd
00000240: 93fb 26be d6a2 34be 97b9 303e fc85 3d3e
00000250: 7e26 6cbe f720 cd3d 4ee1 90bd a2fe de3d
00000260: 5d21 dbbd c48f 563e f0f5 d5bd 71ad b2bd
00000270: 831d dfbd dbc0 61bc 043d 593d 1886 febd
00000280: b5e2 f5bc 2c68 47be a592 afb9 220a 58bd
00000290: afb0 4bbe 12d6 37be 170e 053d f348 11be
000002a0: 78c2 3abe a26e 693d 3186 a33c e3e3 25bd
000002b0: e4af ae3d 7779 13bc 844a 4ebe 46d9 24be
000002c0: db34 03be 98ab 8bba 1dff 573e 7cf9 15be
000002d0: 642e 48be 181a 0bbe e6de 42be 2932 cbbc
000002e0: 3327 303e 687b 42bd 9eed 1b3d e454 493e
000002f0: eea1 1e3d ba85 5ebe f51a f0bd fa25 403e
00000300: 6d6e 47bd ce85 19be 4e45 d13c 31e4 d3bd
00000310: ec4d e93d 81bd 3e3d 1a91 17bd ef22 a23a
00000320: 94cf 413e ed81 4a3e b85f 79bd 08a9 5ebe
00000330: f229 24be 5054 fbbb 2298 f93b 9fd4 51bc
00000340: 73b8 d33d 4df2 28be 1fd2 553e 15f4 ba3d
00000350: ccf2 2e3d 8e35 9f3d 5e89 693d 733b f23d
00000360: 4cda 61bd 855b 6abe fb50 513e 8976 953d
00000370: 5b49 43bd eb8c 0abe 0f70 fe3d a2c5 64bc
00000380: ebfb 85bd c3bb 24be d7a8 47be 07b6 7cbc
00000390: aec6 70bc 2973 0f3e d64a 37be a648 553e
000003a0: 9296 46be 7e82 4dbe 60e1 21be feb9 c9bc
000003b0: 021b 76bd 1a94 d6bd 9d39 9cbd 88c5 c03c
000003c0: afcc d4bd da98 223e dce9 9b3b 6fa9 e939
000003d0: e3fe 10be 8614 4abe 1423 2c3e b838 063e
000003e0: 9bf6 063e dcf4 043e 4de9 67be 54a5 96bc
000003f0: 3c4b a33d 2287 dcbd 4061 653e 5370 e3bc
0.027096456 -0.13667707 -0.0011237694 -0.23653051 -0.07398879 0.20166264 -0.22741778 0.15764911
-0.18702222 -0.19894664 0.09488685 0.023928424 -0.17089534 0.034708187 0.09766939 0.17662151
0.08063224 -0.21906784 0.025168573 0.1667385 -0.13024473 -0.20476381 -0.01760058 -0.15489852
-0.15200673 0.119623266 0.04062037 0.11828678 0.07546576 0.025725337 0.006619092 -0.1386788
0.18133108 -0.07810563 0.02794502 0.029319722 -0.15848398 0.17184985 -0.09947358 -0.09869163
0.076449044 0.018251123 0.09975086 -0.1613002 0.061621435 0.17350243 -0.120099224 0.12229754
-0.190755 -0.18774042 0.0755254 0.122145675 -0.13689531 0.032592684 -0.20203274 -0.07998195
0.13176574 -0.18144286 -0.064181134 0.21284148 -0.03695229 -0.010348201 0.17186472 0.19653718
0.19047424 -0.18941393 -0.079778485 -0.011947473 -0.028699547 0.14162111 -0.16357338 -0.14797994
-0.027516102 -0.015060787 -0.11022082 0.07289073 0.09872843 0.17467654 0.098153315 -0.14704113
0.15564811 0.037128173 0.021514812 0.10137591 0.2075073 -0.072474465 -0.031002307 -0.18790606
-0.13723195 -0.08449423 -0.21494615 -0.1035289 -0.121308416 -0.13658403 0.12923807 -0.20379257
0.16523524 -0.04933608 0.105023265 0.09030455 -0.21177989 -0.21730709 0.19028379 -0.098397315
0.11767507 -0.16060397 0.18408675 0.17441751 0.21698545 -0.17366606 -0.110498235 -0.0649755
-0.05159241 0.1279427 0.12320186 -0.16274871 0.11311005 0.065730266 -0.09451346 0.03903
-0.1557715 -0.11795292 -0.17047364 -0.003659981 -0.062294055 -0.21929872 0.12570997 0.14528584
0.07470403 0.049522605 0.20535253 -0.04467041 -0.15392092 -0.021743609 -0.19616406 0.05745689
0.04997521 -0.050835066 -0.18372321 -0.13605359 0.005335488 0.14221123 -0.04375247 -0.0812669
-0.16306905 -0.17640242 0.17258297 0.18508142 -0.23061559 0.10016053 -0.070742235 0.10888411
-0.10699723 0.2095328 -0.104472995 -0.087244876 -0.10894301 -0.0137788905 0.053036705 -0.1242792
-0.030015329 -0.19473332 -0.0003348786 -0.05274404 -0.19891618 -0.17952755 0.03248414 -0.14187984
-0.18238246 0.056990273 0.019961448 -0.040500533 0.08529642 -0.009001127 -0.20145613 -0.16098508
-0.12813132 -0.0010655997 0.21093412 -0.14645952 -0.19548947 -0.13584173 -0.19030342 -0.024804192
0.17202453 -0.04748097 0.038068406 0.1966129 0.038728647 -0.217307 -0.11723892 0.18764487
-0.048689295 -0.14992449 0.025545742 -0.103462584 0.113918155 0.046567444 -0.037003614 0.001237003
0.18926841 0.19776125 -0.0608823 -0.21744168 -0.16031626 -0.007669963 0.0076170126 -0.0128070405
0.10337915 -0.1649868 0.20880936 0.09128586 0.042712018 0.077738866 0.05701577 0.11827745
-0.055139825 -0.22886474 0.20441048 0.072979994 -0.04767738 -0.13530318 0.12423717 -0.013963135
-0.0654219 -0.1608725 -0.19498001 -0.015424258 -0.014695806 0.14008774 -0.17899641 0.20828494
-0.19393376 -0.2006931 -0.1580863 -0.02462482 -0.06008435 -0.10477467 -0.07628176 0.02353169
-0.10390603 0.1587862 0.004758103 0.0004456746 -0.14159732 -0.19734392 0.16810256 0.13107574
0.1318001 0.12984031 -0.22647591 -0.018389381 0.07973334 -0.10767962 0.22400379 -0.027763521

fc1.bias f4 [128]
00000000: 0004 583e b0f1 303e caa2 01be 803e 353e
00000010: 8808 fb3d f5b7 42bc b0a3 0cbe 4d23 dfbd
00000020: 3e09 57be 20ff 0dbd 9543 cdbd 0055 993d
00000030: 1f9a 483e 9e12 1e3e 8821 1abe f95c 05bd
00000040: 2bad 49be 7730 34be 0989 f13d 3f6b b1bd
00000050: d4f9 c8bd 0729 26be 40f5 b53d 9be6 4e3d
00000060: e099 56be 1ad0 cdbd fe5d 2fbe 31f8 463e
00000070: 826f f53d 8fa4 2abc 0433 d63d f163 05bd
00000080: 0b5d 713d 941b c83d 52ee 33bd 2367 25bd
00000090: f4ad 083e 41fb 39be 8061 4bbe a44a afbd
000000a0: 875a 513d e667 b3ba 910f 57be 0f19 2dbe
000000b0: 8652 c1bc df80 463e 3b04 5b3c 11cc 2dbe
000000c0: 2cc2 c33d 47bc 4f3e 80c1 40be 8815 c1bc
000000d0: 44ef 413e f3a5 16bd 68d1 0c3d 7c96 483e
000000e0: b494 16bd ec91 563e da7d 16bd 3334 263e
000000f0: 2bc6 433d 6cb5 0ebd 65a7 da3d 23be bebd
00000100: 3e0c 16bd 7d58 9b3d 2eb3 cfbd 91d8 e23c
00000110: 7d83 06be 340c a53d 0d19 5fbd e934 2cbb
00000120: 30ad 0dbe 818e 53be 0205 31be d8ed c93d
00000130: 0fad 15be 570b 01be 000e 9fbd 8130 1e3e
00000140: 86e5 153e aed1 59be 9318 003e 1045 9e3d
00000150: 0496 a03d 8206 f8bc 39f2 dbbd a711 c8ba
00000160: c8ef 0f3d 1592 46be 1316 b0bd 76dc 12be
00000170: 9b33 3abe aee5 4c3c c2b7 f6bd c5b2 2e3b
00000180: 601e 1cbe 98fc 36be 993a 173e c609 5cbe
00000190: 7721 2a3e cebb 3ebe 48b5 193e f520 28bd
000001a0: 256d ff3b e20c 1fbe add3 303e c51b 90ba
000001b0: ef8c 823d ebb4 fa3d 305c 1bbe c1a7 bbbd
000001c0: c63c 51be 973b 613e 9a27 303e 66bc f23d
000001d0: fde6 fc3d d2fa 9b3d f872 ab3d 9117 303c
000001e0: ea3a 58be 5b8e d4bd bb77 28be 6414 3abe
000001f0: 0778 8a3d 2ef9 613e 6d99 3ebe bb7e 4abe
0.21095276 0.17279696 -0.12659755 0.17699623 0.122574866 -0.011884679 -0.13734317 -0.10895405
-0.2099962 -0.034667134 -0.10022656 0.074869156 0.19590043 0.1543679 -0.15051854 -0.03255937
-0.19694965 -0.17596613 0.117937155 -0.08663034 -0.09813276 -0.16226588 0.08884668 0.05051289
-0.20957136 -0.10049458 -0.17125699 0.19430615 0.11984159 -0.01041521 0.10458949 -0.032566015
0.058926623 0.09770885 -0.04392845 -0.040381562 0.13347608 -0.18162252 -0.19861412 -0.085591584
0.051111724 -0.001368758 -0.21002032 -0.1690409 -0.02359892 0.19385098 0.013367708 -0.16972376
0.0955852 0.20286666 -0.18823814 -0.023569837 0.18938929 -0.036779355 0.034379393 0.19588655
-0.036762908 0.20954102 -0.036741115 0.1623085 0.04779641 -0.034840986 0.10676459 -0.093136095
-0.03663277 0.07585237 -0.10141598 0.027691158 -0.13136096 0.08058968 -0.05446725 -0.0026276654
-0.13835597 -0.2065983 -0.17287067 0.09859818 -0.14616798 -0.12601982 -0.07766342 0.1544819
0.14638337 -0.21271393 0.12509374 0.077280164 0.07841113 -0.03027654 -0.1073956 -0.001526405
0.035140783 -0.19391663 -0.0859796 -0.14341912 -0.18183748 0.012505932 -0.12046768 0.0026656848
-0.15245962 -0.17869794 0.14768447 -0.21488103 0.16614328 -0.1862633 0.1501056 -0.041047055
0.0077949935 -0.15532258 0.17268248 -0.0010994604 0.06374537 0.122415386 -0.15171885 -0.09162856
-0.2043334 0.21995388 0.17202607 0.118523404 0.12348745 0.076161996 0.08371538 0.010747806
-0.21116224 -0.10378715 -0.16451924 -0.18171841 0.06761175 0.22067711 -0.18613215 -0.19774906

fc2.weight f4 [128, 128]
00000000: dc63 2ebd e42d 143d 6e13 90bd 71be 883c
00000010: 9715 9f3d e8d1 e2bd 7545 97bc 43f9 88bd
00000020: 465c 9fbd 7e2a 60bd 50e9 7ebd 2071 1d3d
00000030: b00f cc3c 0fbf d8bd 5df8 2fbd 0713 843d
00000040: 3de3 92bd b5fb b93c b630 da3d 82ae 23bd
00000050: 017e a73d 2768 043d 006d a23d 388e 24bd
00000060: e611 a8bd c10a cb3c a170 13bd badf 5dbc
00000070: 46e2 59bd 70b3 d6bd 915b 393c 9b91 28bd
00000080: 38f0 883d acea 373d cec1 493d 3f7a 8fbd
00000090: 0a11 9dbd 9048 d5bd 7fec d1bd 8b49 67bb
000000a0: 2dd5 75bc 3e55 d93d 6d85 4dbd d71b 55bd
000000b0: 5ae2 c6bd d4e2 e33d c313 3abd 8291 4b3d
000000c0: 82bd 99bd 7ea3 d43c e178 82bd 7e3a 8ebc
000000d0: 2c55 88bb 9c5e 583d e03b 47bc 3db5 fd3c
000000e0: 0d68 203c 61f4 62bc 56d5 453d 9c14 9dbc
000000f0: 7a54 6b3b 0d20 c9bd 945e 94bc 4076 a2bd
00000100: 1342 bfbd 0a11 a4bd 0b49 babd 7500 8fbd
00000110: 15a6 75ba b275 20bd 4a45 d13d 516a b3bd
00000120: 318c bcbd 3d97 afbd e5c4 04bd d00c 2dbd
00000130: fb79 823d 28eb b2bc a1dd 013e 97bc 24bc
00000140: d44f 5cbd e612 00bd 0b48 e23d 3b9b d33d
00000150: 4884 5b3b ced7 663d 7336 77bd ffc6 27bd
00000160: b42d b33d d70d 90bc fab3 7f3d cc99 663d
00000170: 3d58 99bd d0cd 2c3d a90b 5d3d 3374 893c
00000180: 40ff ed3c 7079 7e3c 5bf8 8c3d 153c f33c
00000190: 8477 99bb 3c9f 8dbd 0b7b ac3d e15c afbb
000001a0: eecc 2abd d37b 15bd 3f43 6fbd be69 77bd
000001b0: f933 aabd 1b21 69bd b6f4 89bc 050a a0bb
000001c0: 5a46 a43c c099 e43d ec9b 48bd 1033 52bd
000001d0: 87dd 23bd 8c2c d13d f131 bf3d c50e 26bb
000001e0: 14da c2bd 7d15 92bd d122 94ba 4cc6 343d
000001f0: 7015 d93c 9613 413d 817d 34bd 8b9b a9bd
00000200: 2703 083d 2e60 5fbd d8f9 0ebd 818d b73c
00000210: feee 8fbc 157e a2bd e8a5 edbc 5c32 fdbb
00000220: bd8a 943d 4dac f3bb b063 8c3d f7a3 c1bd
00000230: b891 363d b98e 8abd c681 12bd ea4e 9dbb
00000240: 0417 41bb 9e2b abbd 40c8 88bd 9d55 9b3d
00000250: f7bc 45bd 67d4 5e3d b5fc 8e3d c068 5c3d
00000260: c37c 91bd a02e 8a3b 2ca9 51bc 49a6 73bd
00000270: 46cb 99bd bbc9 e53b 6202 eebc e5c6 01bd
00000280: 88bc 2cbc 64c4 2ebd e716 b13d b96e 243d
00000290: 8b7d 69bd 7a29 89bd fb0c aa3b e2e6 933d
000002a0: a259 343d ae0c 853d ed86 423c b0ae 993d
000002b0: 2834 4e3b 10b7 43bd 19d4 32bb e568 20bd
000002c0: a11a 25bd 757f 1dbd 0108 52bd 64b9 9d3c
000002d0: f3b5 a7bd 6b0d b8bd 8dde 8cbd 5949 b3bd
000002e0: 694e ad3d eb00 4cbd cea7 913d 0b21 79bd
000002f0: 33b5 80bd 999b 86bc 947f e83c bd98 b1bd
00000300: 6fcc c73c 976f b5bd 3595 1e3d 8cfb 3e3a
00000310: 71ac 053c 55ac c13b f494 9bbd 7869 9dbd
00000320: 51ac b8bd 3c47 833d e855 a7bc a917 f8bb
00000330: dabc a33b 7590 e1bc 1212 463d 2d31 37bd
00000340: 3a1c 883d c69c 743d 7d23 9ebd 0f1f 7ebd
00000350: fdd8 44bd e326 163b d13c d3bc c143 5e3d
00000360: 6479 17bd af1b a2bb 57bb 98bd 6e7c 103d
00000370: b147 143c 381c a5bc d3f9 8dbd d998 643d
00000380: 87aa 813d f337 b2bd a6a0 a1bd 7bce 4fbc
00000390: 1681 21bd 5546 aa3c b8c4 6f3d 218d 433d
000003a0: a180 5e3d 2540 85bd 8d09 a1bd c296 89bd
000003b0: c8f2 c43d 66a9 cc39 25d8 92bd cdb0 a3bd
000003c0: a180 363d d94f 2e3d 7257 93bd 39a5 cb3b
000003d0: 3a5a 9abd bda5 f43c ac4c 7c3d a827 703d
000003e0: 2eb2 0a3d 4420 85bd 5d07 12bd 05dd 19bd
000003f0: e219 c8bb ca4a bc3d 3d45 a23d 2ff9 80bc
-0.042575702 0.036176577 -0.07034956 0.016692372 0.0776779 -0.11075193 -0.018465737 -0.06688168
-0.07781272 -0.054728024 -0.062234223 0.038437963 0.024909824 -0.105833165 -0.042961467 0.06448942
-0.071722485 0.022703031 0.10653822 -0.039961345 0.0817833 0.03232589 0.07930946 -0.040174693
-0.08206539 0.024785401 -0.035996083 -0.01354211 -0.053194307 -0.10483444 0.011313335 -0.041154485
0.06686443 0.044901535 0.049257092 -0.070057385 -0.076692656 -0.10414231 -0.10250186 -0.0035291638
-0.015004438 0.10611962 -0.050176073 -0.052028503 -0.09711142 0.111272484 -0.045429002 0.049699314
-0.07506849 0.025956865 -0.06370712 -0.017361876 -0.004160544 0.0528246 -0.012160271 0.03097021
0.009790433 -0.01385221 0.048299156 -0.019174866 0.0035908506 -0.09820566 -0.018111505 -0.07932711
-0.093387745 -0.080110624 -0.09095963 -0.06982509 -0.00093707565 -0.039174743 0.10218294 -0.087605126
-0.09206427 -0.08573768 -0.032414336 -0.042248547 0.06370922 -0.021840647 0.12682201 -0.010054729
-0.053787068 -0.031268023 0.11048897 0.10332342 0.0033495594 0.05635815 -0.06035466 -0.04096126
0.087489516 -0.017584724 0.0624275 0.056299016 -0.07487533 0.042188466 0.053966198 0.01677904
0.029052377 0.015531883 0.068833075 0.029691735 -0.004683437 -0.06915137 0.08421906 -0.005351648
-0.041699342 -0.03649504 -0.05841374 -0.060403578 -0.08310694 -0.056916337 -0.01684032 -0.004884007
0.020053077 0.11162138 -0.048976824 -0.05131823 -0.040006187 0.10213575 0.093356974 -0.0025338393
-0.09514251 -0.07133005 -0.001130188 0.044134423 0.02649948 0.04713782 -0.044065002 -0.082816206
0.03320613 -0.054535083 -0.03490624 0.022406342 -0.017570015 -0.079342045 -0.029009774 -0.0077269506
0.07253025 -0.0074363113 0.068549514 -0.09455102 0.044572562 -0.067655034 -0.035768293 -0.004800667
-0.0029463181 -0.08357929 -0.0667882 0.07584689 -0.048275914 0.05440178 0.06981794 0.053810835
-0.071038745 0.004216984 -0.012796681 -0.059484754 -0.075094745 0.0070125735 -0.02905387 -0.03168382
-0.010542996 -0.04266776 0.086469464 0.040144656 -0.057004493 -0.06697364 0.0051895357 0.07221772
0.044030793 0.06496559 0.011872989 0.07504022 0.0031464193 -0.047782004 -0.0027287065 -0.039162535
-0.0403086 -0.03845163 -0.051277164 0.01925344 -0.08189001 -0.08986934 -0.06878386 -0.08754224
0.08462221 -0.049805563 0.07112084 -0.060822528 -0.06284561 -0.016431617 0.028381146 -0.08671711
0.024389474 -0.08859175 0.038716514 0.0007285408 0.008158789 0.005910436 -0.0759677 -0.07686132
-0.09017242 0.06410071 -0.020426705 -0.00757118 0.004996878 -0.027534703 0.048357077 -0.044724632
0.06646009 0.059719823 -0.077216126 -0.06204134 -0.0480585 0.0022911362 -0.025785835 0.054263834
-0.036981 -0.004947148 -0.07457607 0.035274915 0.009050296 -0.020155057 -0.06932416 0.05580983
0.06331354 -0.08702078 -0.078919694 -0.012683506 -0.039429747 0.02078549 0.058537215 0.047742013
0.05432189 -0.06506375 -0.0786315 -0.06718208 0.09616619 0.00039036124 -0.071701325 -0.079927064
0.044556264 0.042556617 -0.07194413 0.0062147644 -0.075367406 0.029864186 0.061596557 0.05863157
0.03386133 -0.06500295 -0.035651553 -0.037564296 -0.006106601 0.091939524 0.079233624 -0.01574382

fc2.bias f4 [128]
00000000: af81 ac3d 1629 90bc 91be 923c 045c fa3c
00000010: a6e2 193b 8f4d e53b fa0d 3b3d c6d4 ba3d
00000020: 6173 ba3c a4f8 1e3d a90c 053c c21d 8b3d
00000030: 65e8 72bd 09f9 a23c 8123 b23d 904b be3d
00000040: 4040 0fbd 3e36 313d 2dd9 67bd 1d0c 043c
00000050: c07c 173d 78df 9c3d b72b af3b e10d 22bd
00000060: 3d7a 26bd acab 4ebc 4339 40bd c1ac 943b
00000070: 5a3a 50bd 894c b8bd d51e bb3c b9c4 e4bc
00000080: 51dc f93c c435 98bd 48a1 11bd 95a7 1a3c
00000090: 9e84 5abd ffba 6a3d 07d8 3e3c 6743 b73c
000000a0: 5836 c63d c296 713d 7023 c63c ce5e d4bc
000000b0: 5376 d9bc 7b80 e7bc a791 a0bd dc8e c1bd
000000c0: ad82 84bd d125 803d 735b bdbd 7e5f ff3c
000000d0: 0dff 9e3d 25b0 a93d 13e7 37bd 6422 8fbc
000000e0: 8337 0bbd 28eb 2d3d 45a8 53bd 14a3 a1bd
000000f0: 1725 593d 8808 bdbd e9e7 473c 96e8 b43d
00000100: f8f6 19bd 0957 b83c c9b2 b53b fd5b babc
00000110: 76ec fe3c 9a49 8bbd 8be9 703c a447 7ebc
00000120: d32c d63c 5cd8 79bd 2d09 09bc 7e7f 56bc
00000130: 7840 f83b 913e a93d 4f32 94bc 4f1f b43d
00000140: 108c e43b d0f2 a73d 20df 29bb 52df b33c
00000150: ddf1 2dbd 4fb6 2bbd ab20 3d3b 3f03 d8bc
00000160: dd24 45bd 0f72 0abb b61f 3abd 0acf 583c
00000170: cc43 d5bb b4ec 8a3c 9bfa 383c 1687 cf3c
00000180: b737 bc3c c715 93bd 832a 703d 9f21 4e3d
00000190: 9e06 debc f530 ad3d 6df5 4a3d 892b 293d
000001a0: fe7d cf3b 3c4e 98bd 05f7 813d 245a 44bd
000001b0: d8aa 24bc 1165 a5bd 779c be3d d50e 4abc
000001c0: 8d7f d63b c986 f6bc ab6b 2bbd 38d1 90bd
000001d0: 9176 7bbc c325 6dbd 2e26 8d3d f848 913d
000001e0: 0c8a dcbc 3dd8 933c eaf8 963d 1388 82bd
000001f0: 1684 aabd 7114 df3c d874 66bc e093 603c
0.08423173 -0.017597716 0.017913135 0.030561455 0.002348104 0.006997771 0.045667626 0.091226146
0.022760095 0.03881134 0.008120694 0.06792785 -0.05930366 0.01989414 0.08698178 0.09291756
-0.034973383 0.04326462 -0.0566036 0.008059529 0.036984205 0.07659811 0.0053457874 -0.039564017
-0.04064392 -0.012614172 -0.04692961 0.0045371954 -0.0508369 -0.08998973 0.02284185 -0.027925836
0.030500563 -0.0743213 -0.0355542 0.009439369 -0.05334913 0.05730724 0.011648185 0.022371007
0.09678334 0.058981664 0.02418682 -0.025924113 -0.02654568 -0.028259506 -0.07840281 -0.094510764
-0.06470237 0.06257213 -0.09245958 0.031173464 0.07763491 0.0828555 -0.044898104 -0.017472453
-0.033988487 0.04246059 -0.051674146 -0.07892433 0.053013887 -0.09230143 0.012201288 0.08833425
-0.037589043 0.02250244 0.0055449945 -0.022748942 0.031118613 -0.06801148 0.0147041185 -0.01552001
0.02614442 -0.060997352 -0.008364004 -0.01309192 0.0075760446 0.08263887 -0.018090395 0.08795034
0.0069747046 0.0820061 -0.0025920346 0.021957073 -0.042466987 -0.04192191 0.0028858583 -0.026368735
-0.04813086 -0.0021125113 -0.0454404 0.013232956 -0.006508326 0.016958572 0.011290218 0.025332969
0.022975786 -0.07181888 0.058634292 0.050325032 -0.027102765 0.084566034 0.049550463 0.041301284
0.006332158 -0.07436797 0.06345943 -0.047937527 -0.010050498 -0.080759175 0.09307187 -0.012332638
0.006545967 -0.030093567 -0.041850727 -0.07071155 -0.015348093 -0.05789734 0.06892048 0.07093996
-0.026921295 0.018047446 0.07371695 -0.0637361 -0.08325975 0.027231427 -0.014065944 0.013707131

policy_mean.weight f4 [7, 128]
00000000: f08f c23c e260 853d cbb7 3c3d 6fab 113d
00000010: ab41 593d ef30 a6bd 926b 1f3d 01b8 713d
00000020: 1b32 0cbd 9064 fc3c 4f94 00bd 0b0f 02bd
00000030: 28e1 e3bb 7c6c bbbc f0c2 8cbc 8971 a83c
00000040: 4934 c0bc ddd8 ffbb e481 de3c 9290 b23c
00000050: 0d98 ad3d 9388 4fbb 3f0d 01bc 9c39 993d
00000060: 0e0e 8e3d 215f 8dbd 21af 413d 73a3 283d
00000070: b35a c83c b35d 863d 2b41 71bd c066 763c
00000080: 2f77 babc 512b 86bd cddc 0ebc ab4a 0e3d
00000090: ce1e 593d 7dc8 ad3d 5e77 dcbc 3769 263b
000000a0: c225 213b ab0e a73d 85fd 0d3d 51dd aebd
000000b0: 57c1 883d da64 353d 78e4 ae3d b8f3 543d
000000c0: b2d2 87bd 7ded bf3c 4547 f73c 8d3f b33d
000000d0: 5c28 8e3d a253 b6bd d7b0 37bc 6e5d 94b9
000000e0: b7d5 0bbd 236a a9bc 6a2a 863d c0e1 c63a
000000f0: c542 70bd 5bb0 d5bc c5c5 b03d a602 2fbd
00000100: 2a8e 2dbd adf9 6abd 8d06 a8bc 2c21 253d
00000110: e06a 8cbd 4f43 87bd fea8 f9b8 f9c3 46bd
00000120: fec1 a8bd 9279 38bd d9c0 5e3d 77e9 883b
00000130: 1a19 ae3d 7e6f 703d d378 b23d 7ac8 25bd
00000140: 3c86 643d 50c8 723d 1bea 353d c8f2 143d
00000150: 0222 88bd edda 04bc 1367 65bd 5f7a a93d
00000160: 7a14 84bc 4fee 69bc c8b5 203d 6f06 183d
00000170: ec0f 97bd 1a37 d43c 50a2 913d 3abc a7bc
00000180: 2e61 813d 5a2a 653d 9ec1 7c3a 6d41 c6bb
00000190: a0ae 793b 3858 903c 08c7 1ebd f94f e63b
000001a0: b542 973d aca5 a63d 8cea 8bbd d0a2 9a3d
000001b0: 6dcf a33d 6289 07bd 6402 b3bb 7120 1abd
000001c0: 10be bebd 8cc7 1c3d ed5a 673d fa4b 29bd
000001d0: 0ada aa3d 567c babd 8dd1 61bc 4437 81bd
000001e0: 9c2e 993c 4f5b 9cbd 5d99 93bd dd47 03bb
000001f0: 5a12 6c3d 9786 113d 77ff 06bd 9e97 c93c
00000200: 0e28 c3bc 72e6 a23d e696 213d 0393 753d
00000210: e060 953d f0c5 113d 7c32 d3bc d3bb 443d
00000220: f45e 693d 0506 94bd 7b7e a2bd 3678 433c
00000230: f2b2 babd 3b91 563d b514 673b 6706 9bbd
00000240: e19d 99bc 51d6 21bb 5fbc 553c 3c5d 703d
00000250: c919 6bbd 3fbf 57bb 052f 8b3b dc28 16bc
00000260: 9ed2 8e3d 5e67 11bc f9b5 423d 9a3d 46bb
00000270: 8891 a63d ebac 6c3d fd97 78bd 8c70 143d
00000280: 8c3c 453d 07b0 8fbd 2c36 99bd 09ea 87bd
00000290: 8643 03bb 984e a4bd a5c9 aa3d 1100 bc3d
000002a0: 0a1d 3b3d 2aae 7b3d ae8c be3b 72df a63d
000002b0: 24c3 7f3d 4742 3cbd a906 30bc 7728 22bc
000002c0: 89d1 583d 18ce 823c e5d2 52bd 5767 92bd
000002d0: 1abb a0bb b53e 853d 4dd2 b5bd d5ab dfbc
000002e0: 3bd2 a4bc 29cb 243d 7937 3abd adec af3d
000002f0: 98a5 113d d36e 36bd 46a6 863d 35aa e23a
00000300: c81c 99bd 8a06 623c b583 993d fdfe 0f3c
00000310: a522 65bc df43 e43b 0902 273d e0f2 e33b
00000320: c81c 733d 05d6 8fbd d235 50bc ae4a 4e3d
00000330: 13aa 803d 7800 4cbc d955 6b3d cb51 0ebd
00000340: 0e04 013c 3e78 ba3c 4de5 533d e8e6 a23c
00000350: 1b92 18bd 9e72 4d3d 528f 733d b0ed 7d3d
00000360: 7e5c 0c3d 87a1 7abd 7566 28bd 5cbf 47bd
00000370: b60a 17bc fc20 06bd 0256 743d 3397 183c
00000380: 333a 8fbd e96a 82bd 4634 1a3d 1d62 48bc
00000390: f8da 423d 6dd7 bebc b6c8 d53c 6487 b53d
000003a0: bd3d 04bd 862e 53bd 67c4 cabb a166 543a
000003b0: 1c54 acbd 091b 7cbd 8773 50bd 4aa5 2ebd
000003c0: e4f8 923d 0171 ea3b b6d7 5bbd 5be3 78bd
000003d0: 3ba8 5fbd 8eee 9abd f4b9 33bd f25f 75bd
000003e0: 314f 133d 1d9e 89bd ad56 b1bd 3a87 4abd
000003f0: df2e febb 7c80 efbc afdb a4ba 82fa 21bc
0.023750275 0.065126196 0.046073716 0.035563882 0.05304114 -0.08114802 0.038920946 0.05901337
-0.03422747 0.03080967 -0.031391438 -0.031752627 -0.006954331 -0.022878878 -0.017182797 0.02056195
-0.023462432 -0.0078078345 0.027161546 0.021797452 0.08476267 -0.0031667098 -0.007876693 0.07481691
0.069362745 -0.0690291 0.047286157 0.041171502 0.024457311 0.065608405 -0.05890004 0.015039146
-0.02276191 -0.06551231 -0.008719635 0.034739178 0.053007893 0.08485506 -0.026912387 0.0025392303
0.0024589156 0.081570946 0.034665603 -0.085383065 0.06677502 0.044285633 0.08539671 0.05199024
-0.06631984 0.023428673 0.030185351 0.08752356 0.06941292 -0.089026704 -0.0112115955 -0.0002829837
-0.03413936 -0.020680493 0.065510586 0.001517348 -0.058657426 -0.02608507 0.086314715 -0.042727135
-0.042371906 -0.057367016 -0.020510936 0.04031484 -0.06856322 -0.06604635 -0.000119047225 -0.048526738
-0.08240126 -0.045037813 0.054383133 0.004178222 0.085008815 0.058700077 0.08714452 -0.040474392
0.05579208 0.059273064 0.044412713 0.036364347 -0.066471115 -0.008108837 -0.056006502 0.082752936
-0.016123045 -0.014278009 0.03923586 0.03711551 -0.07376084 0.02590518 0.07111037 -0.020475496
0.06317364 0.055948593 0.00096418883 -0.00605028 0.003809847 0.017620191 -0.03876403 0.0070285765
0.0738577 0.08137068 -0.06831846 0.07550585 0.07998548 -0.033090003 -0.0054629315 -0.037628595
-0.09313595 0.03827624 0.056483198 -0.041332223 0.08342369 -0.091057464 -0.013782871 -0.06309369
0.018698983 -0.07634603 -0.07206986 -0.0020031848 0.05763469 0.035528746 -0.032958474 0.02460843
-0.02382281 0.0795411 0.03945055 0.059954654 0.07293868 0.03558916 -0.025780909 0.048030686
0.05697532 -0.07227711 -0.079342805 0.011930516 -0.09116162 0.052384596 0.0035260145 -0.075695805
-0.01875204 -0.0024694393 0.013045399 0.058682665 -0.057397638 -0.0032920388 0.0042475485 -0.009165015
0.06973766 -0.008874742 0.047536824 -0.003024912 0.08133227 0.057782095 -0.060691822 0.036240146
0.048153445 -0.070159964 -0.074810356 -0.066364355 -0.002002926 -0.08022803 0.08339242 0.091797
0.04568199 0.061445393 0.00581511 0.081480876 0.06244196 -0.045961645 -0.010743775 -0.009897343
0.052934203 0.015967414 -0.051470656 -0.07148617 -0.0049051167 0.06506101 -0.08878002 -0.027303616
-0.020119777 0.04023281 -0.04546306 0.08590064 0.035558313 -0.044539284 0.06574683 0.0017293157
-0.07476193 0.013795504 0.07495824 0.008788821 -0.013985311 0.0069660987 0.040773425 0.006956443
0.05935362 -0.07023243 -0.012708144 0.05036419 0.06282439 -0.012451284 0.057454918 -0.034745973
0.007874502 0.022762414 0.05173235 0.019885495 -0.037248712 0.050158136 0.059462853 0.061994255
0.034267895 -0.0611892 -0.041113336 -0.04876648 -0.009218862 -0.0327463 0.059652336 0.009313392
-0.069935225 -0.06368048 0.037647508 -0.012230423 0.047572106 -0.023296082 0.026096683 0.08863714
-0.03228544 -0.05155804 -0.0061879638 0.0008102451 -0.0841448 -0.06154922 -0.050891425 -0.0426381
0.07176378 0.0071545844 -0.053672515 -0.060763698 -0.054603796 -0.07565032 -0.04387851 -0.059905954
0.035964195 -0.06719611 -0.0865911 -0.04944537 -0.0077570523 -0.02923607 -0.0012577678 -0.009886386

policy_mean.bias f4 [7]
00000000: 3f1e 26bd 37ff 75bb 3d0c edbc 1b7b 36bd
00000010: 7aa9 263d 9f16 793d aa00 283d
-0.04055619 -0.0037536153 -0.0289365 -0.044550996 0.04068897 0.06081259 0.04101626

value_head.weight f4 [1, 128]
00000000: 6e6f 18be 04d3 c53c 5407 ac3d 7245 29be
00000010: ab80 cd3d 4b6b 7abd c5a2 b13d 634e 62bc
00000020: bb65 623d 6e6f 58bd 3252 fcbd bff8 103e
00000030: 65f0 94bc 3e7c e3bd 8bdf dcbd b458 08be
00000040: d627 1ebe f5d3 013e 1d42 673d 005c 16be
00000050: f8b2 f6bd c052 95bd 1ea3 b93d f0b0 3fbd
00000060: 9024 56bd 231b bbbd c217 24be 4280 713d
00000070: 0fd9 163e efa4 c33d 2169 32be 2b54 a03d
00000080: a3ac 21be 9cc8 3c3e 4d7c 9f3d ef1f 133e
00000090: def0 f6bd 86b5 8bbd e588 223e fd00 863d
000000a0: a24d 0bbe 2b7e de3d 53c5 043d 011d 223e
000000b0: 2d84 ef3d 4aec d23d dfc7 013e 97c4 113e
000000c0: 5b26 fe3d ea07 8e3d 45e7 063e 1573 bc3d
000000d0: 9fbf 083e a721 f2bd dbd6 733d 4e49 fa3d
000000e0: 8606 ddbd f7c8 17bd 0d3b f9bd 6b1f 373e
000000f0: a635 a9bc 10da 2a3e cd0e 22be 8356 dcbd
00000100: a20c bfbc b5d1 ba3d 43d7 eebd a75c 6e3c
00000110: bc9d b6bd b502 d63d 91f0 13be a3e0 983d
00000120: b0f4 c03d ec4a e3bd 4707 e9bd bed6 a43d
00000130: 44b5 c8bd 9fcb 0f3c 3cca 063e 26a1 eabd
00000140: d3c0 50bd 4b5b ae3c 1835 7a3d ffe0 ddbd
00000150: a952 0e3e bd8b ce3d ca20 3fbe 0afe 28bd
00000160: 95b8 993d ffc4 ea3d bf42 01be 59ef d6bd
00000170: 2206 24be 3b76 59bd 09d0 e43d 0146 a2bc
00000180: 62a2 0b3e ecf2 f3bd b37f 01be 2c36 cabd
00000190: 13cd ae3d 3080 003d c9c0 1a3e 382d 8e3d
000001a0: d8fb 09be 8a08 ce3d 3779 03be c9a2 3b3d
000001b0: 7c4e 0e3e 2397 613d 0b31 f9bd 8eec 173e
000001c0: 3a3e 24bd 59e1 a23c d582 a73c b544 4ebd
000001d0: fc5f 19be e42a 033e 2425 f9bd a5cc b6bd
000001e0: 0f4e a23d a779 923d cf8d e03d 0ca2 b73d
000001f0: 461c 5c3d a772 98bd ee10 25be c693 083e
-0.14886257 0.024148472 0.08399835 -0.16530398 0.10034307 -0.06113748 0.08673624 -0.013812634
0.0552728 -0.052840643 -0.12320365 0.14157389 -0.018181035 -0.11107682 -0.10784825 -0.13315088
-0.15444884 0.12678511 0.056459535 -0.14683533 -0.12045854 -0.07291174 0.09064315 -0.0467996
-0.052280962 -0.09136035 -0.16024688 0.058960207 0.14731239 0.09552943 -0.17422916 0.07828554
-0.15788512 0.18435901 0.0778738 0.1436765 -0.120576605 -0.06821732 0.15872534 0.06543157
-0.13603833 0.108639084 0.032414746 0.15831377 0.116951324 0.10298975 0.12673901 0.1423515
0.124096595 0.06935103 0.1317416 0.09201638 0.13354348 -0.11822825 0.059531074 0.12221013
-0.1079226 -0.03705689 -0.12169466 0.17883079 -0.020655464 0.16684747 -0.15825959 -0.10758688
-0.023321453 0.0912203 -0.11662152 0.014548457 -0.08916804 0.10449735 -0.14447238 0.07464721
0.094216704 -0.110982746 -0.11378341 0.08048771 -0.09800199 0.008776574 0.13163084 -0.11456518
-0.05096514 0.021283766 0.06108579 -0.1083393 0.1389872 0.10085247 -0.18664852 -0.041257896
0.07505909 0.11463355 -0.12623118 -0.10494871 -0.16017964 -0.05309127 0.11172492 -0.019808771
0.13636163 -0.11911568 -0.1264637 -0.09873614 0.085352086 0.03137225 0.15112604 0.069422185
-0.13474977 0.100602224 -0.12839209 0.04580954 0.13897127 0.055075776 -0.12167557 0.14836332
-0.040098406 0.019882845 0.020448128 -0.050358493 -0.14978021 0.1280933 -0.12165287 -0.089257516
0.07925045 0.071521096 0.10964548 0.08966455 0.0537379 -0.07443743 -0.1611974 0.13337621

exp_avg f4 [7]
00000000: 4801 723b c0d3 8cba 282e c6ba 5a68 aabb
00000010: c145 043c 61d0 bebb ec86 3ebb
0.0036927033 -0.0010744259 -0.0015119957 -0.005200428 0.008073271 -0.0058231805 -0.002907212

exp_avg_sq f4 [7]
00000000: 928f d53a f31b d03a ed2c e43a 19a6 ca3a
00000010: 0dac c83a e6ef c83a 4883 2d39
0.0016293398 0.001587747 0.0017408408 0.0015460878 0.0015310064 0.0015330284 0.00016547472

exp_avg f4 [128, 21]
00000000: 4d13 cbba 9bd6 073b 68f1 443b 5386 a9ba
00000010: be96 c7ba 33ef 4cbb 8476 8c3b e954 d0b8
00000020: c22c 2638 185e 33b9 0177 e9b7 a2c4 9fb9
00000030: 8629 7db9 365a 94ba b3ee 9bbb 5586 d0ba
00000040: 4ae1 6c3b c094 563b 2622 a33a 33a9 17bb
00000050: 438f 87bb 94df a5ba a1a5 d13a f845 283b
00000060: 7abd 9fba 63ff c7ba 7a9e 2dbb 29cd 793b
00000070: 64e2 a5b8 2d17 e037 fb26 9eb8 3888 e1b7
00000080: c614 83b9 09ff 54b9 df4b 8bba 3432 88bb
00000090: 8503 93ba bcc9 513b c73d 363b 611a 853a
000000a0: 8245 ecba eaeb 6dbb 3dc2 c73a 9b7c 13bb
000000b0: 48da 53bb 367d d33a d82b ff3a 5877 593b
000000c0: ef9d 94bb 20fc da38 e3a5 2fb8 f64e 0f39
000000d0: edf1 8c37 448d a839 c0d5 8b39 9a2c ad3a
000000e0: 54ef a73b 4e40 d03a 6a9c 7fbb a3f8 60bb
000000f0: ec9e 9dba 51f7 243b 4b38 953b 6535 19ba
00000100: e4bd 333a efa8 793a 2899 03ba af24 d9b9
00000110: 7b1c 8bba 8a3e b83a d53d 02b8 b518 4a37
00000120: ef49 2637 65a5 9cb7 0bef eeb8 411f d6b8
00000130: 5b02 feb9 d33f daba fbc4 29ba c555 a63a
00000140: 3591 8c3a 08af f639 ce81 4eba 1055 bcba
00000150: 66c7 b2ba 977d fa3a a51c d43a 6678 1bbb
00000160: dc87 daba 4235 33bb 3c35 923b 3202 e6b8
00000170: 296a 7038 2df4 78b8 2469 1db8 fa88 85b9
00000180: 7d38 b9b9 26fa 0cbb 17ab 86bb 9985 a1ba
00000190: 13b0 4d3b 9171 cd3a 2865 913a da65 14bb
000001a0: 7a08 77bb 53d6 a83a 8c8b 0cbb 95d8 ffba
000001b0: faaa 423a 1be7 703a 5269 0d3b 2f79 58bb
000001c0: 4db1 bb38 590b 35b8 a5fa 0239 7069 6f37
000001d0: 10dc 8039 2aa1 6539 13c9 783a 1dec 573b
000001e0: 991d d13a aa7a 25bb a175 0cbb 4e9f 88ba
000001f0: a0e5 1a3b 931e 3e3b 6376 e1b9 586b 813a
00000200: af7c 143b dece 123a 0ba6 92ba 960e b4ba
00000210: 1085 b73a 3794 96b7 61ce 99b6 eb0b 0038
00000220: 6801 dbb6 310a b5b8 7f17 8d38 d3be 433a
00000230: 81a5 b7ba f405 fbb9 3e08 793a 204f 0b3b
00000240: d533 b439 c033 71ba f919 c7ba 273e 6c39
00000250: 3f5f f2b9 7136 a039 669b c339 6fc8 3fb9
00000260: 3db5 bd39 8583 e3b9 0b1e 6837 da75 20b7
00000270: f3c6 9db7 6d9b 3ab6 fb2b 4438 3f4d cd38
00000280: d8db ff39 67fb 2f39 1a2b 103a 00be 35b9
00000290: b6b1 a239 2833 3bb9 48d9 123a d64a 3f39
000002a0: d106 b539 0f3a 14b9 9d40 93b8 083a 403a
000002b0: 0028 ab39 e836 8a39 b806 b7ba 1d05 f237
000002c0: 1f62 7eb7 bf73 2938 f12e c537 3590 2238
000002d0: 3449 c338 5478 4b3a 2ee1 8c3a 5cb1 c8b8
000002e0: f301 60ba 9bbe 13b9 cab4 a0b9 a8de 7539
000002f0: 6fe0 5d3a 004a a5b9 8a16 a339 9ac2 80ba
00000300: 7686 90ba bb52 c839 4736 6bb9 ff4c 2f3a
00000310: 35ff 05b8 28b7 e037 fbf9 98b7 aa9a 61b7
00000320: f776 6eb8 a6f6 4fb9 f57a a9ba 94c0 f6b9
00000330: 2290 01ba d5a8 e639 41e8 6dba 217b 8739
00000340: f088 05ba 71e1 a2b9 1150 413a 03af 53ba
00000350: a425 cab9 b078 e33a cee8 1b3a 38dd b73a
00000360: 7bbf 0fbb 6db7 7938 cc41 0eb8 096b 0c38
00000370: 2853 e937 e936 2939 e344 8939 07db da3a
00000380: 7a4a 253b 413d 4b3a 69f5 04bb 4757 1cba
00000390: 5702 17ba b928 8c3a 3ab2 063b af46 75ba
000003a0: 5cbc ba3a 1c8a 9c3a cdc3 75ba 9e57 40ba
000003b0: f769 d7ba 50eb 273b 9291 7bb8 6c11 f537
000003c0: cff7 e736 447a 31b8 2b80 3eb9 be88 4db9
000003d0: 75de 7cba 7311 1ebb 164b 99ba f1cf f53a
000003e0: 731b a93a a2a6 453a 726d d4ba ac7c 0dbb
000003f0: 726c e1b9 2dc4 f939 8ab7 beb8 5826 6dba
-0.0015493423 0.002072728 0.0030051116 -0.0012933708 -0.001522742 -0.0031270504 0.004286589 -9.934029e-05
3.9619168e-05 -0.00017105823 -2.783118e-05 -0.00030473346 -0.00024143429 -0.0011318389 -0.00475868 -0.0015909175
0.0036145025 0.003274247 0.001244609 -0.0023141622 -0.004136951 -0.0012655132 0.0015994796 0.002567647
-0.0012187206 -0.0015258606 -0.0026492164 0.003811667 -7.909982e-05 2.6713673e-05 -7.541288e-05 -2.6885522e-05
-0.00025001745 -0.00020312904 -0.001062747 -0.0041563753 -0.0011216259 0.0032011112 0.0027807818 0.0010154956
-0.0018026086 -0.0036303946 0.0015240383 -0.002250469 -0.003232615 0.0016135338 0.0019468023 0.0033182707
-0.0045354287 0.00010442012 -4.1877745e-05 0.00013666958 1.6801956e-05 0.00032148708 0.00026671402 0.0013212145
0.0051249657 0.0015888305 -0.0039003142 -0.0034327887 -0.0012025512 0.0025171826 0.00455383 -0.0005844443
0.0006856604 0.0009523769 -0.00050200755 -0.00041416797 -0.0010613346 0.0014056724 -3.1052e-05 1.2045891e-05
9.911585e-06 -1.8673667e-05 -0.000113932496 -0.00010210137 -0.0004844841 -0.0016651101 -0.0006476191 0.0012690356
0.0010724427 0.00047051185 -0.0007877619 -0.0014368612 -0.0013639748 0.0019110915 0.0016182853 -0.0023722886
-0.0016672569 -0.0027344977 0.0044619124 -0.000109676635 5.731933e-05 -5.9355214e-05 -3.7529637e-05 -0.00025469792
-0.00035328037 -0.0021511405 -0.004109751 -0.001232314 0.0031385466 0.0015674104 0.0011092769 -0.0022643716
-0.0037694261 0.0012881256 -0.002144548 -0.0019519503 0.000742599 0.0009189711 0.0021577668 -0.0033031215
8.94988e-05 -4.316433e-05 0.00012491138 1.4270059e-05 0.00024578022 0.0002189918 0.00094904116 0.003294713
0.0015954255 -0.0025250115 -0.0021432417 -0.0010423453 0.0023635402 0.0029009923 -0.0004300355 0.000987391
0.0022657325 0.00056002836 -0.0011188401 -0.0013737257 0.0014001448 -1.7950411e-05 -4.583781e-06 3.0528678e-05
-6.5268723e-06 -8.632651e-05 6.7277804e-05 0.00074670947 -0.0014011116 -0.00047878886 0.00094998244 0.002125688
0.00034370893 -0.0009201132 -0.0015190236 0.00022529867 -0.000462288 0.0003055814 0.0003730908 -0.00018289847
0.00036183922 -0.00043394804 1.38352725e-05 -9.564183e-06 -1.8808501e-05 -2.780663e-06 4.6771e-05 9.78955e-05
0.00048801186 0.00016782955 0.00054995867 -0.00017332286 0.00031031453 -0.00017852767 0.00056018354 0.00018243058
0.0003452809 -0.00014136008 -7.0215414e-05 0.0007332866 0.00032645464 0.0002636232 -0.0013963794 2.885103e-05
-1.5162425e-05 4.0400537e-05 2.3506089e-05 3.8758113e-05 9.31196e-05 0.0007761766 0.0010748261 -9.569779e-05
-0.00085452123 -0.00014090019 -0.00030652276 0.00023447967 0.0008463924 -0.00031526387 0.00031106576 -0.0009823621
-0.0011026401 0.00038208612 -0.00022431566 0.00066871935 -3.194735e-05 2.678817e-05 -1.8236218e-05 -1.3447056e-05
-5.6854416e-05 -0.00019832942 -0.0012930321 -0.00047064258 -0.0004942437 0.00043994808 -0.0009075441 0.00025840945
-0.00050939526 -0.00031067015 0.00073742965 -0.000807509 -0.00038556487 0.0017354693 0.00059474714 0.001402772
-0.00219342 5.9537055e-05 -3.3916716e-05 3.3478285e-05 2.7814487e-05 0.00016137552 0.00026182 0.0016697355
0.0025221393 0.0007752963 -0.0020287877 -0.0005963933 -0.00057605415 0.0010693289 0.0020553009 -0.0009356541
0.0014246809 0.0011943015 -0.0009375185 -0.0007337275 -0.0016434778 0.0025622435 -5.9978636e-05 2.9214389e-05
6.913185e-06 -4.2313957e-05 -0.00018167558 -0.00019601264 -0.0009646186 -0.0024119287 -0.0011695351 0.0018753988
0.0012901857 0.0007539784 -0.0016206934 -0.0021589203 -0.00042996142 0.00047639143 -9.094093e-05 -0.0009046546

exp_avg_sq f4 [128, 21]
00000000: d839 7637 367b 4a37 2880 b938 7fba d338
00000010: 59af aa37 a686 0f38 f6f7 0338 ac16 6633
00000020: 3fbf 5533 ad16 7334 6a64 c333 afcc 8e34
00000030: 98e0 f335 1f73 bd38 c57f bd37 448f 1338
00000040: 9002 d237 a714 8938 e845 7037 0fc5 5c37
00000050: 41da 4137 ed92 5237 4ee7 1d37 2ea5 8c38
00000060: 1294 ad38 080c 8537 c958 eb37 b7de c837
00000070: ef77 2833 c573 1a33 d437 2a34 6ed0 9533
00000080: bbea 6934 f966 ba35 3011 9138 659d 9c37
00000090: c523 f237 2132 a637 00e1 5238 21cd 4e37
000000a0: 7127 2137 ad91 2837 52cd ca37 5fb5 9037
000000b0: 254b 0539 b1de 1939 a78d f637 8be0 5238
000000c0: aa5d 3638 3ef6 9b33 0d2a 9233 3c41 a834
000000d0: 06e4 0e34 253b db34 4779 2c36 fcfe 0439
000000e0: 4ca6 0838 da16 6038 52c8 1138 98fe c738
000000f0: 5262 c637 6f5f 9437 b090 8f37 4598 6d36
00000100: f771 5936 6cc0 d237 b319 c637 5c30 ba36
00000110: 6a34 f436 3b74 e936 df1b 6b32 1527 5e32
00000120: 6e77 7033 9b4b e832 6127 8433 e173 fc34
00000130: 886a cc37 957f 8c36 72b9 0237 6d9b 9336
00000140: a976 9c37 2b22 6436 d2fe 6036 6134 1f36
00000150: cde2 2f37 0ffd 1137 1d28 8738 e363 9b38
00000160: 1231 7e37 36c8 bf37 b81d d237 67d7 3233
00000170: 2486 2233 00e2 1e34 5c79 8d33 b6bb 5434
00000180: 1832 bc35 e96b 9238 2512 9a37 d311 d737
00000190: 9511 a937 dd7a 4038 7083 2737 87ee 2137
000001a0: ce70 1937 4fca 1937 c99b 1237 acaa 6838
000001b0: 2df7 8438 eaa4 6437 d396 a537 2dfe 9c37
000001c0: f9fc 1433 05c2 0733 3f81 1334 b003 8033
000001d0: 3de7 4634 45c0 9f35 8fab 7a38 92ae 6837
000001e0: e433 c037 32db 7a37 b061 3538 1ddc 1237
000001f0: bf0d 2337 ab61 ef36 6a30 6e36 100d 5136
00000200: 3f1a ce37 28a9 e937 9d44 ae36 2f15 e536
00000210: 42b0 f736 59a9 7532 92f1 6a32 618e 7a33
00000220: 3efa d232 a33c a333 6283 0235 98ac d337
00000230: 27e7 a836 6495 2637 f08a e136 9bfe 9537
00000240: 0fef 6536 14f7 5136 95bd 1d36 b56b f834
00000250: fa62 0f35 c070 a936 6299 7436 32e9 9435
00000260: d9db 9335 38b8 6235 7435 3a31 9829 3831
00000270: 329a 4032 fc7c cf31 ab5e 4732 b42f d133
00000280: da6e af36 211e 1235 0176 af35 a77a 3a35
00000290: 9d97 8336 75d3 e834 33f7 1735 f60c 5e34
000002a0: 7b6a 0c36 4619 0a36 69e4 9c37 1298 8037
000002b0: e777 7736 2d37 a436 e703 a636 cd69 3332
000002c0: bcf3 2d32 c68f 3a33 4e6c ad32 5e73 1d33
000002d0: 9e74 bb34 b3e1 9a37 c79b 2936 069b 9336
000002e0: 387a 3e36 888c 6837 1c07 0736 76e9 0436
000002f0: b67e c135 e63a f934 d55f 2035 5140 b236
00000300: 68da 9336 b3bd 8735 5068 9c35 2dbc 8b35
00000310: a88a 4e31 1cc7 4831 7846 4c32 205e ea31
00000320: 138f 2e32 be65 dc33 94ca bf36 22d4 4935
00000330: 57cc b335 24b5 4b35 5207 8f36 36fe e934
00000340: c807 1c35 d216 8e34 c328 3936 609a 2336
00000350: 12ea b137 0fa1 aa37 aef5 8136 09ed de36
00000360: 195f b236 ffec 5232 78ef 4332 6b93 5533
00000370: d60a db32 8245 6433 09b9 f434 92ee c437
00000380: aa1c ad36 51f7 dc36 3a00 a436 2643 8937
00000390: a401 3236 9a4c 2036 0dfb 1436 bd43 8f36
000003a0: 72ab 8436 3eba cc37 6c51 e837 1eb5 d536
000003b0: c282 2a37 83b8 1937 0fe9 8632 8239 7632
000003c0: b51c 8433 ff44 fb32 d431 bf33 13d1 1235
000003d0: bc72 e037 4b69 cd36 541e 3437 495f e636
000003e0: bd5b a637 c61a 8936 aa21 9736 7f0d 5836
000003f0: f99f c135 ddbe 9535 bce5 2837 01cd 2237
1.467621e-05 1.20688255e-05 8.8453584e-05 0.00010096002 2.0347232e-05 3.4219258e-05 3.1463765e-05 5.3571668e-08
4.9766864e-08 2.2639388e-07 9.09866e-08 2.6598488e-07 1.8170276e-06 9.033665e-05 2.2590053e-05 3.5180958e-05
2.5035144e-05 6.536516e-05 1.4321391e-05 1.3158903e-05 1.1554513e-05 1.2551184e-05 9.411784e-06 6.706487e-05
8.276863e-05 1.5860438e-05 2.8055527e-05 2.3945568e-05 3.9224627e-08 3.596121e-08 1.5852794e-07 6.976266e-08
2.178521e-07 1.3888049e-06 6.91734e-05 1.8669942e-05 2.8865305e-05 1.9812085e-05 5.027745e-05 1.2326317e-05
9.605531e-06 1.0047498e-05 2.4175886e-05 1.7250595e-05 0.00012711862 0.00014674176 2.9391447e-05 5.0277024e-05
4.3479413e-05 7.262541e-08 6.806304e-08 3.1339903e-07 1.3307735e-07 4.0834962e-07 2.570059e-06 0.0001268349
3.2579803e-05 5.3427044e-05 3.4757257e-05 9.536481e-05 2.3649223e-05 1.7687415e-05 1.7114304e-05 3.5404385e-06
3.2401856e-06 2.5123554e-05 2.3615406e-05 5.5488617e-06 7.2778685e-06 6.957472e-06 1.36851375e-08 1.2930987e-08
5.5987975e-08 2.7042736e-08 6.153892e-08 4.702297e-07 2.4368303e-05 4.1871776e-06 7.791781e-06 4.3990353e-06
1.8651905e-05 3.3994536e-06 3.3526926e-06 2.3723335e-06 1.0483619e-05 8.701593e-06 6.444773e-05 7.409581e-05
1.5151005e-05 2.2862205e-05 2.504779e-05 4.1639762e-08 3.7840564e-08 1.4797115e-07 6.587899e-08 1.9812327e-07
1.4021671e-06 6.981922e-05 1.836668e-05 2.5638297e-05 2.0154557e-05 4.5890793e-05 9.984578e-06 9.651884e-06
9.145775e-06 9.166614e-06 8.73855e-06 5.547206e-05 6.3402906e-05 1.3628256e-05 1.9739766e-05 1.8715009e-05
3.4689013e-08 3.1608597e-08 1.3737461e-07 5.961135e-08 1.8524311e-07 1.1902381e-06 5.976442e-05 1.3868923e-05
2.2912347e-05 1.4952197e-05 4.324474e-05 8.753527e-06 9.718758e-06 7.134125e-06 3.5492944e-06 3.115103e-06
2.4569335e-05 2.7854534e-05 5.1935917e-06 6.827198e-06 7.3816927e-06 1.4299382e-08 1.3675519e-08 5.8337154e-08
2.4561015e-08 7.601309e-08 4.861996e-07 2.523353e-05 5.0337e-06 9.929154e-06 6.721697e-06 1.7880744e-05
3.426281e-06 3.1287245e-06 2.3505174e-06 4.6271967e-07 5.341568e-07 5.0497183e-06 3.6448114e-06 1.1094728e-06
1.1016338e-06 8.4459634e-07 2.7096947e-09 2.6799167e-09 1.1210931e-08 6.038702e-09 1.16048495e-08 9.740998e-08
5.2283112e-06 5.443308e-07 1.307286e-06 6.946888e-07 3.9217543e-06 4.3367223e-07 5.6611606e-07 2.0680076e-07
2.0923605e-06 2.0578314e-06 1.8703011e-05 1.5329602e-05 3.687566e-06 4.894004e-06 4.94764e-06 1.0443228e-08
1.0125344e-08 4.343726e-08 2.0189102e-08 3.6659337e-08 3.4916314e-07 1.846333e-05 2.5273637e-06 4.3989885e-06
2.8383347e-06 1.3860998e-05 2.0120706e-06 1.9805425e-06 1.4416498e-06 4.6422718e-07 5.97441e-07 5.312301e-06
4.406367e-06 1.0113494e-06 1.1653265e-06 1.0411073e-06 3.0055762e-09 2.921701e-09 1.1890386e-08 6.820997e-09
1.0160664e-08 1.0263055e-07 5.715827e-06 7.518703e-07 1.339601e-06 7.588699e-07 4.2625843e-06 4.3584595e-07
5.812585e-07 2.6466165e-07 2.7590875e-06 2.437875e-06 2.1209042e-05 2.0340578e-05 3.8731005e-06 6.64371e-06
5.315884e-06 1.22774955e-08 1.1404943e-08 4.9727003e-08 2.5499883e-08 5.3148604e-08 4.5583172e-07 2.3476114e-05
5.1591387e-06 6.5853023e-06 4.8876072e-06 1.6362941e-05 2.6525022e-06 2.3886446e-06 2.219985e-06 4.269618e-06
3.9538654e-06 2.440542e-05 2.769447e-05 6.3689795e-06 1.0163234e-05 9.162471e-06 1.5705636e-08 1.433216e-08
6.151951e-08 2.9251622e-08 8.903194e-08 5.469348e-07 2.6756308e-05 6.121734e-06 1.0735897e-05 6.865627e-06
1.9831461e-05 4.086035e-06 4.5040697e-06 3.2194364e-06 1.4426179e-06 1.1156914e-06 1.00670695e-05 9.703684e-06

exp_avg f4 [128]
00000000: e011 a0ba f16e 96ba f533 bb3a bf84 09ba
00000010: 6ab6 18bb 3449 863a a34b 553a e112 0b3a
00000020: 1717 5c3a 6916 b8ba ea60 ed3a 59e3 88ba
00000030: 487f 97ba afeb 273a e55d ab3a 24c1 5a3a
00000040: 08e7 55ba d930 6e38 d4ce 8fba 8c91 a53a
00000050: e0cc 75b9 d0bc 75ba af45 21ba f000 cfba
00000060: a629 cf3a fe0d 20b8 493f b939 6834 853b
00000070: bbdb 1abb 2b49 183a 68ee f1ba ac60 d5b8
00000080: bae7 b03a d07b 24b9 4bbc cb3a 0ddf a4b7
00000090: aed7 0ab9 1bae 273b 839b 673a a0e2 feb9
000000a0: 71e9 d33a 83c8 d6b9 c59f 583b 2240 493b
000000b0: 5c58 6a39 6531 33ba 449f 73ba b9cc f1ba
000000c0: d94a 5c3a c58f 533a 8104 d639 7c00 cd3a
000000d0: e1a8 80ba 0024 49bb 4690 45ba a56e a6ba
000000e0: a974 e23a 6d6c 2239 89a7 053b 17b6 c93a
000000f0: 8fa3 213a a846 cb3a b7d5 8eba 50d7 c13a
00000100: 9e9f 3a3a 0d9b 753b cd5a e73a 8052 643a
00000110: f731 083a 5fd2 03ba 18a7 b6b9 b927 8a3a
00000120: dec4 153b c14a 0d3a 6c02 b8b9 474c 93ba
00000130: 67e7 ea38 f2a3 6dba 494a fbba 210e 973a
00000140: 62e5 b9ba 0384 a239 8611 18bb 6bcd 5bba
00000150: f1e4 0bbb 69e9 033a 10a5 eaba 3075 99ba
00000160: ce4e 9539 9315 f73a abd5 4dba bc8a 61ba
00000170: 19d4 3e3b 507f f53a 541c 01ba 05fb c4ba
00000180: 1511 d8ba 8e62 46bb 755d 53ba 5c60 033b
00000190: 12d9 f53a 91c1 8e3a 440a 4439 6704 beba
000001a0: 32d2 ecb8 2c84 60bb 0866 1d3b 4c9f bd3a
000001b0: 63e0 61ba fe7b 6d3a 623b 35ba 8359 253b
000001c0: 9a8b 4a3b 0be3 b9ba acc2 663a cebf cd3a
000001d0: 4f6a ae3a 52b8 f839 6427 baba 1151 0c39
000001e0: 8de1 a939 1603 f83a 3a2d a5ba 283f 683a
000001f0: d537 b3b9 de5f ab38 f63e 093b f3e3 27ba
-0.0012212358 -0.0011477155 0.0014282452 -0.0005245916 -0.0023302087 0.0010245205 0.0008136576 0.00053052424
0.00083957746 -0.0014044765 0.0018110548 -0.0010443731 -0.0011558319 0.0006405664 0.0013074247 0.000834482
-0.00081597315 5.6789115e-05 -0.0010971674 0.0012631877 -0.00023441343 -0.00093741436 -0.0006152046 -0.0015793126
0.0015805259 -3.8160004e-05 0.000353331 0.004065085 -0.0023629505 0.0005809243 -0.0018457891 -0.00010174638
0.0013496794 -0.00015686383 0.0015543787 -1.965419e-05 -0.00013241053 0.0025585953 0.0008835124 -0.00048615504
0.0016167593 -0.00040966654 0.0033054214 0.0030708392 0.00022348895 -0.00068356685 -0.0009293447 -0.0018447853
0.0008403487 0.00080704346 0.00040820616 0.0015640403 -0.0009815955 -0.0030691624 -0.0007536452 -0.001269777
0.0017277199 0.00015489916 0.0020394048 0.001538935 0.0006166035 0.0015508728 -0.0010897432 0.00147889
0.0007119122 0.003747645 0.0017650962 0.0008709803 0.00051954336 -0.0005028601 -0.0003483824 0.0010540403
0.0022852938 0.00053898623 -0.0003509702 -0.0011237942 0.000112010915 -0.0009065262 -0.0019171919 0.0011524596
-0.0014182741 0.00030997404 -0.0023203804 -0.00083847967 -0.0021346177 0.0005032034 -0.0017901976 -0.0011707898
0.0002847821 0.0018851034 -0.00078519684 -0.0008603742 0.002911812 0.0018729959 -0.00049251807 -0.0015028423
-0.0016484583 -0.0030271146 -0.00080629374 0.0020046448 0.0018756709 0.0010891428 0.00018695841 -0.0014497162
-0.00011292509 -0.0034258468 0.0024017114 0.001446703 -0.0008616505 0.0009059309 -0.0006913451 0.0025230355
0.0030905963 -0.0014182044 0.0008802812 0.0015697421 0.0013306829 0.00047439575 -0.0014202413 0.0001338164
0.0003240224 0.0018921818 -0.001260198 0.00088595087 -0.0003418314 8.171772e-05 0.0020942069 -0.00064045115

exp_avg_sq f4 [128]
00000000: 0c46 e038 b995 ac38 32ef 1d39 ac25 f337
00000010: aa54 ad38 f669 9438 3244 fa37 217e d036
00000020: de0a b837 3ef0 e236 50ed ea37 ddd9 0438
00000030: 6f2a 4d37 d1e7 6938 80d1 2339 66f1 fa37
00000040: a832 0e38 1cfd be37 32cb 0b39 6d40 0638
00000050: 93a7 ea38 538b 0238 4e4e 7f37 d3f3 5038
00000060: bd1a 5e38 2b2f 1c37 5173 0a37 003d 5239
00000070: e569 bc38 0f4c 7638 36b9 1239 5fd3 c637
00000080: f446 6038 7e67 6838 c3e6 2938 4c29 9037
00000090: 2558 6a37 7707 1e39 8be5 e238 efc9 d637
000000a0: 66eb 2a39 77b3 d637 79c6 e238 ae76 4f38
000000b0: c752 5337 239a 1b39 550b 7638 0776 e338
000000c0: 1f99 af37 b63f 4c37 0fe9 7e37 62e8 9c37
000000d0: 6e1e 0038 b5ed 5838 e509 0638 1949 6438
000000e0: bc22 2239 040e c337 7903 b337 5f70 4137
000000f0: c549 4338 9062 3338 01e2 a637 298e 6838
00000100: 7bfc 9f38 bc20 7738 b3f9 3f39 1c82 a537
00000110: 32e2 2237 7e4d 4b38 67e7 9738 b943 b736
00000120: b0d5 7838 7fb3 af38 05c2 7137 e268 1938
00000130: 7529 1f38 1c82 0438 5918 d838 c9b2 0138
00000140: daab b337 3c7d ef36 9260 6438 4d9b 5138
00000150: 94d2 f937 4011 8838 8dd9 d337 ad25 8a37
00000160: ba52 0739 20e7 7637 8f2a 9137 de57 1438
00000170: 5224 3639 94ee 5c39 8a1f ac37 9675 0a39
00000180: 0e2a fb37 cfc9 3939 36f4 f737 fd34 4838
00000190: 5d84 3739 63b7 1537 ea08 7038 f48e d937
000001a0: 8a63 4b38 da51 d738 2f3a e437 4bff 7e38
000001b0: f173 3e37 6b05 e038 f64d a338 de37 8438
000001c0: cb7b ec38 fc5a a838 a295 6d38 bd71 9f38
000001d0: 2d2b 2238 62e1 7638 bbf0 b738 13e8 d637
000001e0: 02fc ed37 19f9 0538 db9d 2039 46f5 fe37
000001f0: a630 5838 4f6a 9137 7c69 bd38 162f 2a37
0.000106941996 8.229487e-05 0.00015061794 2.89854e-05 8.265053e-05 7.076927e-05 2.9834078e-05 6.2135664e-06
2.193957e-05 6.7632927e-06 2.8005481e-05 3.1674153e-05 1.2228832e-05 5.5767425e-05 0.00015622936 2.9914732e-05
3.3902616e-05 2.2767628e-05 0.00013331769 3.200809e-05 0.000111892026 3.112417e-05 1.5217416e-05 4.9818143e-05
5.2953827e-05 9.309307e-06 8.25229e-06 0.00020049885 8.984263e-05 5.8721806e-05 0.00013992641 2.3701867e-05
5.3471842e-05 5.5409495e-05 4.0507653e-05 1.7185368e-05 1.396801e-05 0.00015070835 0.000108192755 2.560482e-05
0.00016300156 2.5594358e-05 0.00010813488 4.9463175e-05 1.2595853e-05 0.00014839372 5.8661524e-05 0.00010846188
2.0932928e-05 1.2174181e-05 1.5193843e-05 1.870486e-05 3.0545918e-05 5.1719795e-05 3.1957305e-05 5.4427514e-05
0.00015462463 2.3252338e-05 2.134008e-05 1.152986e-05 4.6560326e-05 4.276872e-05 1.9893983e-05 5.5445507e-05
7.628739e-05 5.8919875e-05 0.000183082 1.973012e-05 9.708618e-06 4.847114e-05 7.243343e-05 5.461709e-06
5.932682e-05 8.378084e-05 1.4409893e-05 3.6575722e-05 3.7947164e-05 3.1592426e-05 0.00010304218 3.0922503e-05
2.1418487e-05 7.1373343e-06 5.4449374e-05 4.9974118e-05 2.9781171e-05 6.4881984e-05 2.5254465e-05 1.6468426e-05
0.00012905421 1.4716556e-05 1.7305165e-05 3.5367782e-05 0.00017370403 0.00021069712 2.0518684e-05 0.0001320451
2.9941115e-05 0.00017718154 2.9558414e-05 4.7733065e-05 0.00017501549 8.92379e-06 5.722876e-05 2.5934984e-05
4.8491675e-05 0.00010267245 2.7206812e-05 6.079608e-05 1.1351877e-05 0.000106821615 7.786967e-05 6.3046566e-05
0.00011276415 8.0278114e-05 5.664456e-05 7.602896e-05 3.866402e-05 5.8860875e-05 8.7709595e-05 2.5618856e-05
2.8369952e-05 3.194166e-05 0.00015317595 3.0393374e-05 5.154372e-05 1.733485e-05 9.03187e-05 1.0143753e-05
